VLSI23_journal/intuitivechip_classifier_lcsvsnlcs_teensy/SNN_ep-150-isize-2-8-1-hsize-242-bsize-32-lr-0.001-tmax_ms-50.0-Ts-10.0-k-6-dsetPath-VMODE_allchannels_ALLCLASS_auto_corr_cleaned_1x8_18mvpp_250mvofs_onedac_itail_50nA_N3b/chip-classifier-test-1-best.pt (torch, 261239 bytes, 8 tensors)

thr_h_1 f4 [242]
1.0 1.0 1.0 1.0 1.0 1.0 1.0 1.0
1.0 1.0 1.0 1.0 1.0 1.0 1.0 1.0
1.0 1.0 1.0 1.0 1.0 1.0 1.0 1.0
1.0 1.0 1.0 1.0 1.0 1.0 1.0 1.0
1.0 1.0 1.0 1.0 1.0 1.0 1.0 1.0
1.0 1.0 1.0 1.0 1.0 1.0 1.0 1.0
1.0 1.0 1.0 1.0 1.0 1.0 1.0 1.0
1.0 1.0 1.0 1.0 1.0 1.0 1.0 1.0
1.0 1.0 1.0 1.0 1.0 1.0 1.0 1.0
1.0 1.0 1.0 1.0 1.0 1.0 1.0 1.0
1.0 1.0 1.0 1.0 1.0 1.0 1.0 1.0
1.0 1.0 1.0 1.0 1.0 1.0 1.0 1.0
1.0 1.0 1.0 1.0 1.0 1.0 1.0 1.0
1.0 1.0 1.0 1.0 1.0 1.0 1.0 1.0
1.0 1.0 1.0 1.0 1.0 1.0 1.0 1.0
1.0 1.0 1.0 1.0 1.0 1.0 1.0 1.0
1.0 1.0 1.0 1.0 1.0 1.0 1.0 1.0
1.0 1.0 1.0 1.0 1.0 1.0 1.0 1.0
1.0 1.0 1.0 1.0 1.0 1.0 1.0 1.0
1.0 1.0 1.0 1.0 1.0 1.0 1.0 1.0
1.0 1.0 1.0 1.0 1.0 1.0 1.0 1.0
1.0 1.0 1.0 1.0 1.0 1.0 1.0 1.0
1.0 1.0 1.0 1.0 1.0 1.0 1.0 1.0
1.0 1.0 1.0 1.0 1.0 1.0 1.0 1.0
1.0 1.0 1.0 1.0 1.0 1.0 1.0 1.0
1.0 1.0 1.0 1.0 1.0 1.0 1.0 1.0
1.0 1.0 1.0 1.0 1.0 1.0 1.0 1.0
1.0 1.0 1.0 1.0 1.0 1.0 1.0 1.0
1.0 1.0 1.0 1.0 1.0 1.0 1.0 1.0
1.0 1.0 1.0 1.0 1.0 1.0 1.0 1.0
1.0 1.0
00000000: 0000 803f 0000 803f 0000 803f 0000 803f
00000010: 0000 803f 0000 803f 0000 803f 0000 803f
00000020: 0000 803f 0000 803f 0000 803f 0000 803f
00000030: 0000 803f 0000 803f 0000 803f 0000 803f
00000040: 0000 803f 0000 803f 0000 803f 0000 803f
00000050: 0000 803f 0000 803f 0000 803f 0000 803f
00000060: 0000 803f 0000 803f 0000 803f 0000 803f
00000070: 0000 803f 0000 803f 0000 803f 0000 803f
00000080: 0000 803f 0000 803f 0000 803f 0000 803f
00000090: 0000 803f 0000 803f 0000 803f 0000 803f
000000a0: 0000 803f 0000 803f 0000 803f 0000 803f
000000b0: 0000 803f 0000 803f 0000 803f 0000 803f
000000c0: 0000 803f 0000 803f 0000 803f 0000 803f
000000d0: 0000 803f 0000 803f 0000 803f 0000 803f
000000e0: 0000 803f 0000 803f 0000 803f 0000 803f
000000f0: 0000 803f 0000 803f 0000 803f 0000 803f
00000100: 0000 803f 0000 803f 0000 803f 0000 803f
00000110: 0000 803f 0000 803f 0000 803f 0000 803f
00000120: 0000 803f 0000 803f 0000 803f 0000 803f
00000130: 0000 803f 0000 803f 0000 803f 0000 803f
00000140: 0000 803f 0000 803f 0000 803f 0000 803f
00000150: 0000 803f 0000 803f 0000 803f 0000 803f
00000160: 0000 803f 0000 803f 0000 803f 0000 803f
00000170: 0000 803f 0000 803f 0000 803f 0000 803f
00000180: 0000 803f 0000 803f 0000 803f 0000 803f
00000190: 0000 803f 0000 803f 0000 803f 0000 803f
000001a0: 0000 803f 0000 803f 0000 803f 0000 803f
000001b0: 0000 803f 0000 803f 0000 803f 0000 803f
000001c0: 0000 803f 0000 803f 0000 803f 0000 803f
000001d0: 0000 803f 0000 803f 0000 803f 0000 803f
000001e0: 0000 803f 0000 803f 0000 803f 0000 803f
000001f0: 0000 803f 0000 803f 0000 803f 0000 803f
00000200: 0000 803f 0000 803f 0000 803f 0000 803f
00000210: 0000 803f 0000 803f 0000 803f 0000 803f
00000220: 0000 803f 0000 803f 0000 803f 0000 803f
00000230: 0000 803f 0000 803f 0000 803f 0000 803f
00000240: 0000 803f 0000 803f 0000 803f 0000 803f
00000250: 0000 803f 0000 803f 0000 803f 0000 803f
00000260: 0000 803f 0000 803f 0000 803f 0000 803f
00000270: 0000 803f 0000 803f 0000 803f 0000 803f
00000280: 0000 803f 0000 803f 0000 803f 0000 803f
00000290: 0000 803f 0000 803f 0000 803f 0000 803f
000002a0: 0000 803f 0000 803f 0000 803f 0000 803f
000002b0: 0000 803f 0000 803f 0000 803f 0000 803f
000002c0: 0000 803f 0000 803f 0000 803f 0000 803f
000002d0: 0000 803f 0000 803f 0000 803f 0000 803f
000002e0: 0000 803f 0000 803f 0000 803f 0000 803f
000002f0: 0000 803f 0000 803f 0000 803f 0000 803f
00000300: 0000 803f 0000 803f 0000 803f 0000 803f
00000310: 0000 803f 0000 803f 0000 803f 0000 803f
00000320: 0000 803f 0000 803f 0000 803f 0000 803f
00000330: 0000 803f 0000 803f 0000 803f 0000 803f
00000340: 0000 803f 0000 803f 0000 803f 0000 803f
00000350: 0000 803f 0000 803f 0000 803f 0000 803f
00000360: 0000 803f 0000 803f 0000 803f 0000 803f
00000370: 0000 803f 0000 803f 0000 803f 0000 803f
00000380: 0000 803f 0000 803f 0000 803f 0000 803f
00000390: 0000 803f 0000 803f 0000 803f 0000 803f
000003a0: 0000 803f 0000 803f 0000 803f 0000 803f
000003b0: 0000 803f 0000 803f 0000 803f 0000 803f
000003c0: 0000 803f 0000 803f

thr_o f4 [6]
1.0 1.0 1.0 1.0 1.0 1.0
00000000: 0000 803f 0000 803f 0000 803f 0000 803f
00000010: 0000 803f 0000 803f

i2h.weight f4 [242, 16]
0.068656854 0.13271284 0.050813776 -0.08724387 0.2537588 0.029726533 -0.01531429 0.0115644885
0.06606976 -0.10023144 -0.020244446 -0.01978823 0.025432393 -0.19153143 -0.11645451 -0.102547355
0.02013506 0.018357439 0.013907287 -0.03484294 -0.036777657 0.09061341 0.15932113 -0.01586986
-0.12173542 0.08737533 0.120368026 0.0052870964 0.17926346 0.10363803 0.013528067 -0.090409696
0.096495934 0.14393514 -0.045871694 -0.048796277 0.0025077083 -0.1006944 -0.03539496 0.07549565
-0.09912298 0.11653642 -0.00014677923 -0.056297358 -0.20390615 0.11808209 0.09343893 -0.1713264
-0.036264017 0.13130742 0.05348325 0.16485074 -0.07883749 0.0357372 0.06291789 0.008265601
-0.07568057 0.07889797 -0.08273817 -0.036969632 0.07387639 0.11279452 -0.13933183 0.048660956
0.11030409 -0.12778796 0.14709987 -0.09016525 0.08130391 0.015654953 -0.06445917 -0.09076745
-0.013581497 -0.015094083 -0.019698849 -0.07769058 0.09138418 -0.017567653 0.014845779 -0.058408987
-0.08599853 0.08696988 -0.12423019 0.03964666 0.13542964 -0.114735246 -0.056607027 -0.059253726
-0.010193503 -0.10700737 0.014338844 0.014212161 0.17280139 0.054009713 0.03209214 0.02281003
-0.06887053 -0.029360538 -0.10342424 0.10299517 -0.094780855 0.031977393 0.13170484 0.025556419
-0.12675245 0.090053804 -0.008572605 -0.06172051 -0.10198697 -0.055827066 -0.047720447 -0.058009665
0.060390983 -0.016209435 -0.12053131 0.060422193 -0.10480488 -0.0074981526 0.14357153 -0.081688285
0.13207072 -0.13205576 -0.09369207 -0.012414823 -0.003762464 -0.11000495 0.06267814 -0.124660134
-0.11007394 0.016404007 -0.053350326 0.16146448 -0.091864415 -0.029697752 0.058778908 -0.045993704
-0.058853492 -0.031498834 0.14581165 0.1858212 0.029929172 -0.114483304 0.16257241 -0.066827625
0.028522948 -0.08832994 -0.024627134 0.12180167 0.11929228 0.097645484 0.039921492 -0.04479507
-0.1524343 0.049515996 0.1192558 0.11561307 -0.11573848 -0.12624031 -0.010302961 0.016180133
0.076676644 -0.018298648 -0.04788232 -0.010269933 -0.034113776 -0.04432741 -0.003101898 -0.044473827
-0.13579494 -0.01602257 0.034319017 -0.0058662174 0.10372747 0.0034571826 0.0038612732 0.06417754
0.0036277415 -0.046117168 -0.099766344 0.1248775 -0.06845007 -0.05135047 0.02005799 -0.12154235
0.094616815 -0.05374847 0.073898256 0.06066076 0.0112422565 0.14915027 -0.11069411 0.10135114
-0.11257745 0.08774999 0.047931693 -0.04271791 0.007941507 -0.0237829 0.039278526 0.10382772
-0.0051219664 0.08289277 -0.0028009857 0.031624302 -0.08047196 -0.06870952 -0.094713055 0.094693564
0.0063019632 -0.032999877 0.13318045 -0.11010336 -0.07833712 0.10566365 -0.09193859 0.13301902
-0.033118278 -0.012201056 -0.005242331 0.084494226 -0.060511354 -0.077828676 0.060923964 0.09188199
0.11532968 0.011999503 -0.058035463 -0.079113446 -0.0876474 -0.080363534 -0.117351785 -0.10571081
-0.10236792 0.12777337 0.08435352 0.087986454 0.03513744 0.09454041 0.08236616 0.029485552
-0.15033379 -0.02714147 -0.096018165 -0.13474795 0.11599059 0.103390336 0.018563792 0.18558066
-0.036259454 0.14013566 -0.09672723 -0.13321878 -0.045362856 -0.07058733 -0.047231566 0.123559274
00000000: f79b 8c3d e0e5 073e 1b22 503d eaac b2bd
00000010: acec 813e 0f85 f33c cae8 7abc fb78 3d3c
00000020: 954f 873d 2446 cdbd aed7 a5bc ed1a a2bc
00000030: 9857 d03c d120 44be b47f eebd 5904 d2bd
00000040: 48f2 a43c 5762 963c 64db 633c 78b7 0ebd
00000050: 2ba4 16bd 8693 b93d 1425 233e 8201 82bc
00000060: 6b50 f9bd d6f1 b23d 8383 f63d 613f ad3b
00000070: d790 373e 2d40 d43d d3a4 5d3c b828 b9bd
00000080: a99f c53d bc63 133e f5e3 3bbd 9bde 47bd
00000090: 5d58 243b de38 cebd 4efa 10bd 779d 9a3d
000000a0: fd00 cbbd a6aa ee3d c0e8 19b9 0f98 66bd
000000b0: c6cc 50be 06d5 f13d e95c bf3d 3070 2fbe
000000c0: 9489 14bd 7475 063e 4111 5b3d a2ce 283e
000000d0: 8d75 a1bd 2c61 123d 18db 803d 716c 073c
000000e0: 6afe 9abd 4295 a13d a172 a9bd 786d 17bd
000000f0: 814c 973d d000 e73d 01ad 0ebe b650 473d
00000100: 1ce7 e13d d9da 02be 59a1 163e 8fa8 b8bd
00000110: aa82 a63d d13e 803c 2b03 84bd 49e4 b9bd
00000120: ed84 5ebc 2c4d 77bc 7b5f a1bc 3d1c 9fbd
00000130: a127 bb3d 0aea 8fbc b63b 733c 433e 6fbd
00000140: ff1f b0bd 441d b23d 666c febd 8964 223d
00000150: 11ae 0a3e 50fa eabd c5dc 67bd 09b4 72bd
00000160: a702 27bc ae26 dbbd 79ed 6a3c 20da 683c
00000170: d9f2 303e 4a39 5d3d 0c73 033d 1adc ba3c
00000180: fe0b 8dbd 8385 f0bc 17d0 d3bd 22ef d23d
00000190: 771c c2bd bafa 023d a2dd 063e b25b d13c
000001a0: 65cb 01be 216e b83d 1d74 0cbc a5ce 7cbd
000001b0: 8bde d0bd ecaa 64bd 8476 43bd 8b9b 6dbd
000001c0: 895c 773d a6c9 84bc 1fd9 f6bd 437d 773d
000001d0: f1a3 d6bd 10b3 f5bb 6a04 133e 304c a7bd
000001e0: 8c3d 073e a039 07be a1e1 bfbd 8b67 4bbc
000001f0: ac93 76bb 464a e1bd 665d 803d d04d ffbd
00000200: 726e e1bd b261 863c df85 5abd f256 253e
00000210: 6923 bcbd b348 f3bc 27c2 703d e563 3cbd
00000220: 5c10 71bd ec04 01bd a64f 153e ea47 3e3e
00000230: 062e f53c 3976 eabd 6279 263e ecdc 88bd
00000240: f5a8 e93c 54e6 b4bd d8be c9bc 2773 f93d
00000250: 834f f43d 5bfa c73d b884 233d 097b 37bd
00000260: bd17 1cbe 49d1 4a3d 633c f43d 8cc6 ec3d
00000270: 4c08 edbd 2445 01be c0cd 28bc 338c 843c
00000280: a508 9d3d 0ce7 95bc 4020 44bd 3943 28bc
00000290: e3ba 0bbd a990 35bd 3649 4bbb 302a 36bd
000002a0: d40d 0bbe c441 83bc 1992 0c3d 6639 c0bb
000002b0: 116f d43d e691 623b 6a0d 7d3b 846f 833d
000002c0: 67bf 6d3b 5be5 3cbd 4c52 ccbd c6bf ff3d
000002d0: 8d2f 8cbd df54 52bd a750 a43c 32eb f8bd
000002e0: 76c6 c13d 5b27 5cbd f857 973d 6b77 783d
000002f0: 7131 383c d9ba 183e 98b3 e2bd 3091 cf3d
00000300: 028f e6bd 44b6 b33d 0654 443d faf8 2ebd
00000310: 181d 023c 5bd4 c2bc 85e2 203d a1a3 d43d
00000320: 2bd6 a7bb afc3 a93d be90 37bb 7c88 013d
00000330: 7cce a4bd 94b7 8cbd ebf8 c1bd b3ee c13d
00000340: b380 ce3b e12a 07bd 7560 083e df7d e1bd
00000350: 366f a0bd 2f66 d83d 4d4a bcbd 2336 083e
00000360: 08a7 07bd f0e6 47bc dcc7 abbb 4f0b ad3d
00000370: c1da 77bd a464 9fbd 688b 793d a02c bc3d
00000380: f831 ec3d 9099 443c 98b6 6dbd 3b06 a2bd
00000390: 7b80 b3bd a395 a4bd 2256 f0bd e97e d8bd
000003a0: 46a6 d1bd 06d7 023e 8ac1 ac3d 3e32 b43d
000003b0: 47ec 0f3d 679e c13d 97af a83d af8b f13c
000003c0: 1af1 19be ca57 debc 2ca5 c4bd 5efb 09be
000003d0: 798c ed3d 50be d33d 1813 983c db08 3e3e
000003e0: cb84 14bd b97f 0f3e ed18 c6bd 816a 08be
000003f0: 67ce 39bd 1790 90bd e375 41bd a50c fd3d

i2h.bias f4 [242]
0.16160952 0.025863586 0.12846681 0.0416923 -0.008198066 0.00029046158 0.095230706 0.067318246
0.028406532 0.012978645 0.019942122 -0.009436025 0.13842271 -0.020330738 0.049207337 0.058399614
0.026818082 0.06334472 -0.009106211 0.010265278 -0.03416091 0.06344266 0.011221518 0.04905632
0.07559119 0.037593674 0.04380178 0.026167486 -0.024629973 0.09614169 -0.031865038 -0.0046002595
0.04902402 -0.010409606 0.1956646 -0.07228317 0.049928676 0.04366656 0.01930281 0.053321596
0.02696922 0.008470048 0.050768346 0.16444898 0.0019622871 -0.010806058 0.015315979 0.08637542
0.026225831 0.038124006 -0.017563421 -0.018902078 0.07212165 -0.005584941 0.08347294 0.07397265
0.020456411 -0.041335016 0.010527959 0.067803726 0.06213628 0.06137474 0.002253118 0.07274077
0.036728017 -0.0007768615 -0.028450023 0.014502635 0.0014064729 -0.019503225 0.0014827524 -0.011728831
0.05320041 -0.0009899258 0.06557455 0.06277688 0.13522372 0.008193654 -0.049460426 0.07109094
0.10401383 0.024628513 -0.036384404 0.05052976 0.11584395 -0.010265632 -0.0092423875 0.05605209
-0.029004054 -0.035110954 -0.059414126 0.06346894 -0.021659682 -0.0151856635 -0.042755235 0.017063184
0.059429027 0.038446806 -0.00087033823 0.11443788 0.002651432 0.031382956 0.07819523 0.11684081
0.117778115 0.0063162227 0.0033575576 -0.03626707 0.05283199 -0.03451773 -0.04472131 0.041554496
0.06202905 -0.025198465 -0.00804951 0.026864413 -0.0083442535 0.015322118 -0.015654001 0.03877148
-0.016390614 0.03387327 0.009379253 -0.022510022 -0.023571508 -0.021037402 -0.042850126 0.07581229
-0.008519789 0.02807011 0.07428005 0.2049637 -0.026551027 0.009038486 0.012299696 0.044328433
0.08872475 -0.022752335 0.1420384 0.001058677 -0.018814221 0.05290225 -0.016386282 -0.0007690201
0.048961494 0.058999598 0.034229632 -0.0016417525 -0.023991985 -0.015562476 0.123188935 0.0297535
0.060243603 -0.017492075 -0.028085046 -0.013059747 -0.020924276 -0.02827645 0.00375969 0.020715691
-0.07114332 0.00036392303 -0.045106318 0.07249736 0.059775695 0.071613505 -0.042344317 0.0040234663
0.06426683 0.030780312 0.028443532 0.022556147 0.0068722405 0.032359138 -0.023411173 0.013703442
-0.06158661 0.03508385 0.019864384 0.0986684 0.017794121 0.18803683 -0.05719147 -0.016184106
-0.006223653 0.0168686 0.033635385 -0.0030162507 0.047299158 -0.04427582 0.00014499565 0.043586
0.050531786 -0.04376249 0.04136607 0.024828514 0.032091156 0.0032753646 0.039555244 -0.015447235
-0.050316446 0.065860756 -0.013066129 -0.04098378 -0.042313475 -0.0057085017 0.01511465 -0.03526459
0.005096258 0.0148855895 0.15020189 0.019963609 0.015802506 -0.0045290748 -0.029643605 0.016979244
0.020606672 -0.04907592 0.037979294 -0.023735305 0.04476342 -0.02362443 0.027503233 0.1638167
-0.024627808 0.03653537 0.1567069 0.015815563 0.012122683 0.13192284 0.040634003 0.038166426
0.0020068823 0.025821956 0.035356957 0.026995903 -0.043793127 -0.03465456 -0.0485777 -0.0099006295
0.016213765 0.1505396
00000000: f77c 253e dfdf d33c ce8c 033e 8cc5 2a3d
00000010: 2e51 06bc 1849 9839 5108 c33d 26de 893d
00000020: d1b4 e83c 62a4 543c a95d a33c 8f99 1abc
00000030: afbe 0d3e a68c a6bc a28d 493d 6f34 6f3d
00000040: 98b1 db3c e0ba 813d 3832 15bc b22f 283c
00000050: 4fec 0bbd 3aee 813d 75da 373c 48ef 483d
00000060: 8ecf 9a3d d3fb 193d 7f69 333d 325d d63c
00000070: ccc4 c9bc efe5 c43d ea84 02bd c6bd 96bb
00000080: 69cd 483d 0d8d 2abc 4d5c 483e 3309 94bd
00000090: 0382 4c3d b5db 323d ed20 9e3c bf67 5a3d
000000a0: 8eee dc3c f5c5 0a3c 78f2 4f3d 5065 283e
000000b0: b799 003b e40b 31bc dfef 7a3c 99e5 b03d
000000c0: 8ed7 d63c eb27 1c3d 2ae1 8fbc 88d8 9abc
000000d0: 84b4 933d e101 b7bb dcf3 aa3d f97e 973d
000000e0: 3494 a73c e84e 29bd 767d 2c3c aedc 8a3d
000000f0: 9d82 7e3d 1464 7b3d 0ca9 133b 1df9 943d
00000100: 1e70 163d 4ba6 4bba 0610 e9bc 769c 6d3c
00000110: 6659 b83a 3ac5 9fbc ea58 c23a 482a 40bc
00000120: ace8 593d 66c0 81ba f34b 863d 2a91 803d
00000130: 1678 0a3e ad3e 063c 0497 4abd 2098 913d
00000140: 3405 d53d bcc1 c93c d007 15bd 4bf8 4e3d
00000150: 983f ed3d 2e31 28bc 626d 17bc e096 653d
00000160: e999 edbc 81d0 0fbd 3a5c 73bd 01fc 813d
00000170: a56f b1bc 4acd 78bc 1d20 2fbd 17c8 8b3c
00000180: da6b 733d 667a 1d3d 6927 64ba 685e ea3d
00000190: a6c3 2d3b 6a8b 003d d224 a03d 3c4a ef3d
000001a0: a735 f13d 51f8 ce3b 780a 5c3b c78c 14bd
000001b0: 5b66 583d 7762 0dbd b12d 37bd 0c35 2a3d
000001c0: 2c12 7e3d 036d cebc 18e2 03bc c212 dc3c
000001d0: 56b6 08bc 9f09 7b3c d23c 80bc d8ce 1e3d
000001e0: 9c45 86bc b3be 0a3d 70ab 193c f066 b8bc
000001f0: 0919 c1bc a156 acbc 9d83 2fbd 7943 9b3d
00000200: 9696 0bbc 4af3 e53c 2420 983d 01e2 513e
00000210: 8a81 d9bc 2816 143c aa84 493c bb91 353d
00000220: 52b5 b53d 1b63 babc 8472 113e 4ec3 8a3a
00000230: 4820 9abc 08b0 583d 863c 86bc 1198 49ba
00000240: d98b 483d 90a9 713d 5f34 0c3d 1330 d7ba
00000250: d78a c4bc c1f9 7ebc 7b4a fc3d 9dbd f33c
00000260: ffc1 763d 8a4b 8fbc 9c12 e6bc 8df8 55bc
00000270: 6369 abbc 03a4 e7bc 2265 763b f4b3 a93c
00000280: 97b3 91bd eccc be39 67c1 38bd 7f79 943d
00000290: 5cd7 743d 1aaa 923d 3c71 2dbd 48d7 833b
000002a0: 549e 833d fe26 fc3c 6902 e93c abc7 b83c
000002b0: 8830 e13b 048b 043d cac8 bfbc 6784 603c
000002c0: 3e42 7cbd 15b4 0f3d a2ba a23c a812 ca3d
000002d0: fac4 913c ba8c 403e 9a41 6abd 8894 84bc
000002e0: c9ef cbbb 0530 8a3c 42c5 093d 4aac 45bb
000002f0: c3bc 413d 905a 35bd f909 1839 3c87 323d
00000300: 6bfa 4e3d 4c40 33bd 786f 293d 2b65 cb3c
00000310: 0472 033d 80a7 563b ae04 223d 6616 7dbc
00000320: 9e18 4ebd 01e2 863d 5113 56bc 9cde 27bd
00000330: e550 2dbd 620e bbbb 70a3 773c 9a71 10bd
00000340: 83fe a63b b0e2 733c 86ce 193e b98a a33c
00000350: 4274 813c a268 94bb 25d7 f2bc 0e18 8b3c
00000360: 53cf a83c d503 49bd 2d90 1b3d 8b70 c2bc
00000370: d959 373d 0588 c1bc 764e e13c 91bf 273e
00000380: 42c0 c9bc 1da6 153d c677 203e a48f 813c
00000390: 389e 463c c816 073e d76f 263d 6654 1c3d
000003a0: e685 033b 9188 d33c 75d2 103d 8326 dd3c
000003b0: 6c60 33bd f1f1 0dbd 69f9 46bd 4036 22bc
000003c0: bbd2 843c 0e27 1a3e

h2o.weight f4 [6, 242]
-0.030522946 -0.08528869 0.1277577 0.0036058351 -0.11788488 -0.016713372 0.10864913 0.123177424
0.12543133 0.11089147 -0.0217589 0.007294298 -0.08771609 0.10905326 -0.041577294 -0.16096954
0.102360465 -0.20742364 -0.018724445 0.11801115 0.09680662 -0.091916785 -0.011698643 -0.08779517
-0.28513628 0.17032993 0.17493829 0.11970773 0.11396821 -0.26459676 0.16062121 0.08705918
0.111773394 -0.18859768 -0.17205974 -0.033133544 -0.19240676 -0.16419064 -0.03103429 0.044119947
0.17249534 -0.08819598 -0.03693498 -0.01531676 0.0526829 0.011483973 -0.021824807 -0.18671885
-0.030437056 0.07383939 -0.027394226 0.11061259 -0.23797126 -0.19308493 0.120263174 -0.012601192
0.052685697 0.18706612 -0.11003531 0.13089275 -0.07812626 -0.09375369 -0.13415161 -0.11766086
0.07175991 0.051577713 -0.032967515 -0.018148325 -0.16857497 -0.056191336 0.071543075 -0.1299647
-0.23965351 -0.25891528 -0.17623384 -0.026844088 -0.07108695 0.042536568 -0.012186645 0.09082033
-0.037097037 -0.014921975 -0.1734762 0.11930248 -0.019726355 -0.079707906 0.16854903 -0.015102592
0.11765107 0.07572046 0.05586652 0.034670036 0.028631905 -0.027105799 -0.12580773 -0.1456418
-0.047413398 0.24974617 -0.10960479 -0.07943488 -0.20404407 0.10784386 -0.08321471 -0.24220322
-0.14157368 0.12869139 -0.08597681 0.010134956 0.030048246 -0.043616205 0.10332516 0.03950131
0.06175297 0.09973268 0.103564665 -0.14132923 0.083987825 0.09161932 -0.07241507 -0.24098729
0.16193624 -0.02816815 0.123517185 -0.016888753 0.0026329712 -0.06984959 -0.088081084 -0.21795109
-0.012698534 0.07860364 0.15094922 0.12414577 -0.084943585 -0.030605888 0.023235343 0.008333708
-0.19145274 -0.05350315 -0.23011018 0.022283655 -0.03330532 -0.21327786 0.0065996135 -0.09223694
0.11965388 0.057662003 -0.061945315 -0.0073332423 -0.066831015 0.14671132 -0.094889864 0.099577315
-0.107092686 0.026141295 -0.023083197 -0.14050192 0.20379679 0.071308486 0.10346127 -0.02285726
0.120902985 0.18597548 0.00911962 -0.06890605 0.11385617 0.11645022 0.012880888 0.024837255
-0.02082503 0.012166399 0.13557464 0.014485687 0.11055391 -0.014150091 0.15083916 0.14675023
0.09275529 0.094655186 -0.09272676 0.24584308 -0.18019496 -0.1755684 -0.109421596 -0.13370323
-0.19777253 -0.085824765 -0.12400527 -0.22256917 -0.0874885 -0.067437455 -0.041019794 -0.03026062
-0.019546978 -0.060045514 -0.06747827 0.017238429 0.05306033 0.06645367 -0.11336 -0.03614652
0.05700048 -0.119129285 -0.12732062 -0.13370414 -0.1555833 -0.114779264 -0.067494825 -0.19954818
0.011493805 -0.06798405 0.21832104 -0.20191285 0.05675623 -0.09332547 -0.017797656 -0.10370894
-0.017352497 0.13258155 0.17954932 -0.09268796 0.12277016 -0.17691693 0.16542321 0.27929926
-0.1823832 0.17067756 -0.1818665 -0.29509452 0.11734928 -0.18958686 -0.10373474 -0.054943264
0.035412703 -0.15859412 -0.06388665 -0.07970382 0.072346464 -0.0050410265 -0.058980808 -0.0887958
-0.10294584 -0.055029508 0.13301583 0.0027098139 0.025330976 -0.037881706 -0.12959363 0.033608265
-0.027722707 -0.124031015 -0.11897208 -0.14185722 -0.033307597 0.17480451 0.043822005 -0.203884
00000000: 420b fabc d6ab aebd ead2 023e e04f 6c3b
00000010: a16d f1bd 7bea 88bc 6f83 de3d 7244 fc3d
00000020: 1271 003e 111b e33d b83f b2bc 0205 ef3b
00000030: 7ea4 b3bd 5157 df3d f44c 2abd 33d5 24be
00000040: 5da2 d13d dd66 54be 0264 99bc d4af f13d
00000050: 8d42 c63d de3e bcbd aaab 3fbc f4cd b3bd
00000060: 62fd 91be f86a 2e3e 0623 333e 5429 f53d
00000070: 2a68 e93d 3a79 87be e379 243e 154c b23d
00000080: 73e9 e43d c01f 41be 6e30 30be 0ab7 07bd
00000090: 4706 45be 9721 28be a03b febc 1eb7 343d
000000a0: 9ea2 303e 18a0 b4bd 2249 17bd 26f3 7abc
000000b0: 06ca 573d 4627 3c3c f0c9 b2bc 3a33 3fbe
000000c0: 2257 f9bc 1b39 973d db69 e0bc db88 e23d
000000d0: bdae 73be 0eb8 45be 8a4c f63d 3b75 4ebc
000000e0: f5cc 573d 438e 3f3e 315a e1bd c008 063e
000000f0: a900 a0bd ef01 c0bd 0a5f 09be 2df8 f0bd
00000100: dcf6 923d 2743 533d f208 07bd ccab 94bc
00000110: eb9e 2cbe e328 66bd 2d85 923d 7715 05be
00000120: bb67 75be 8b90 84be a576 34be 22e8 dbbc
00000130: 0996 91bd d33a 2e3d 7eaa 47bc 0200 ba3d
00000140: 10f3 17bd 4d7b 74bc bfa3 31be dc54 f43d
00000150: 2a99 a1bc e63d a3bd 1e98 2c3e dd70 77bc
00000160: 0bf3 f03d 5413 9b3d 4bd4 643d 2b02 0e3d
00000170: 758d ea3c fb0c debc bed3 00be 2023 15be
00000180: 8d34 42bd 76bd 7f3e 7a78 e0bd c1ae a2bd
00000190: eef0 50be 3edd dc3d 796c aabd 1f04 78be
000001a0: b1f8 10be adc7 033e 9c14 b0bd 160d 263c
000001b0: bd27 f63c e8a6 32bd 249c d33d 20cc 213d
000001c0: aff0 7c3d a640 cc3d b619 d43d 9cb8 10be
000001d0: cf01 ac3d e9a2 bb3d 5a4e 94bd 5fc5 76be
000001e0: 9dd2 253e e4c0 e6bc 94f6 fc3d 485a 8abc
000001f0: ed8d 2c3b 4d0d 8fbd db63 b4bd 922e 5fbe
00000200: 830d 50bc f2fa a03d 6f92 1a3e 2340 fe3d
00000210: e7f6 adbd 33b9 fabc 0c58 be3c 1b8a 083c
00000220: 300c 44be 1e26 5bbd 01a2 6bbe 368c b63c
00000230: 296b 08bd 8365 5abe 9241 d83b b9e6 bcbd
00000240: 180d f53d fe2e 6c3d 5fba 7dbd b24b f0bb
00000250: b3de 88bd 7e3b 163e 9e55 c2bd 31ef cb3d
00000260: 6953 dbbd 4526 d63c f918 bdbc bcdf 0fbe
00000270: 1bb0 503e 2f0a 923d 81e3 d33d 263f bbbc
00000280: fc9b f73d 5b70 3e3e 756a 153c 9d1e 8dbd
00000290: 6c2d e93d 747d ee3d 5c0a 533c 8077 cb3c
000002a0: 4199 aabc 9355 473c 14d4 0a3e 6055 6d3c
000002b0: 176a e23d c9d5 67bc 9575 1a3e b145 163e
000002c0: 7cf6 bd3d 94da c13d 87e7 bdbd 4abe 7b3e
000002d0: 0785 38be 34c8 33be 6e18 e0bd 80e9 08be
000002e0: e284 4abe e5c4 afbd 7af6 fdbd 2ce9 63be
000002f0: 2c2d b3bd a61c 8abd 5f04 28bd 1fe5 f7bc
00000300: fc20 a0bc 49f2 75bd 0c32 8abd 9b37 8d3c
00000310: ca55 593d dd18 883d 4a29 e8bd 600e 14bd
00000320: 5679 693d 0efa f3bd 5660 02be bde9 08be
00000330: 3b51 1fbe 6411 ebbd ba3a 8abd 5c56 4cbe
00000340: 8350 3c3c 393b 8bbd 8d8f 5f3e 3ec2 4ebe
00000350: 3879 683d 6d21 bfbd 64cc 91bc 5a65 d4bd
00000360: d326 8ebc 75c3 073e c7db 373e 2fd3 bdbd
00000370: ec6e fb3d b629 35be b464 293e 5000 8f3e
00000380: a9c2 3abe 19c6 2e3e 363b 3abe a116 97be
00000390: d254 f03d 0f23 42be e172 d4bd 300c 61bd
000003a0: e90c 113d 7f66 22be 01d7 82bd c23b a3bd
000003b0: 622a 943d 322f a5bb dc95 71bd 93da b5bd
000003c0: 45d5 d2bd 9f66 61bd 4d35 083e 2297 313b
000003d0: e882 cf3c d929 1bbd 31b4 04be d2a8 093d
000003e0: bb1a e3bc f903 febd a2a7 f3bd 0543 11be
000003f0: 8c6d 08bd f4ff 323e b47e 333d f8c6 50be

h2o.bias f4 [6]
0.022450322 -0.003908205 -0.02104905 0.003995088 0.072513565 0.019951817
00000000: bde9 b73c 6610 80bb 0f6f acbc 3ae9 823b
00000010: fe81 943d fe71 a33c

h2h.weight f4 [242, 242]
0.17995954 0.13129644 -0.0009639638 -0.00905569 0.029411491 -0.05858945 0.020477448 -0.0995048
-0.1024416 -0.04837743 -0.019555643 -0.049377818 0.018626915 0.0015977032 0.06217364 0.0067281267
0.010503284 -0.07878155 -0.056954157 0.0033797498 -0.008405547 0.1189748 -0.062823206 -0.02615035
-0.18948852 0.054717973 -0.10818076 0.19740422 -0.0008935972 -0.018099444 0.024557251 -0.079160385
0.028145738 -0.07984014 0.056101583 0.086608864 0.014826026 -0.055947576 0.028539378 0.029432897
0.05142484 -0.09735625 0.08515355 0.051670294 -0.07860053 -0.014564906 -0.031863764 -0.025211504
0.0187323 0.006070859 -0.15305857 0.08352239 -0.014731143 0.01800994 0.08842602 0.042481907
0.020385567 -0.050708905 0.051223442 -0.005879354 -0.08803528 0.19955848 0.048301715 -0.05401421
0.06419095 0.14812145 -0.22593711 -0.061520223 0.013180144 0.059528727 0.03935055 -0.074422725
0.15514457 -0.1548476 0.124622546 0.071760386 0.13072667 -0.038185354 0.07289703 0.022709955
0.19020905 -0.08926092 -0.039618988 -0.0724789 0.1346169 -0.010474318 0.07134965 0.028281989
-0.08984828 -0.1771315 -0.014068233 0.051922206 0.12054402 -0.026727866 0.11554373 0.08462576
-0.07183735 0.099242084 0.010449451 -0.091341406 -0.158896 0.023413626 0.06486617 0.072842285
0.0789383 -0.08782199 0.017272543 -0.14264274 0.16178417 -0.003690384 -0.074219994 0.073609546
-0.012703751 -0.08322175 0.14938365 -0.10017669 0.22027436 -0.060017444 -0.07591813 0.023176981
0.070893005 0.048562083 -0.0073486427 -0.02129565 -0.019599626 -0.046142295 -0.03088183 -0.04969445
-0.06575874 -0.052908197 -0.08134813 0.15646325 0.0015006874 -0.006727805 -0.07296323 0.11874317
-0.14676993 0.01983811 -0.06230101 0.010912393 0.064575374 -0.14975971 0.0046852496 0.11055381
0.01257524 0.13348465 -0.030519173 -0.0050072926 0.09739157 0.02308115 0.030783808 0.14572519
0.21345602 -0.015411443 0.05563778 -0.05285369 0.025610939 0.018025521 0.069551826 -0.022552075
-0.17097189 -0.014185696 0.017466854 -0.032959502 0.024812534 -0.17724253 -0.04370471 0.06817686
0.13680106 0.036488622 -0.005449057 -0.025873175 -0.059333753 -0.09770796 0.015817892 -0.04559861
0.07839149 -0.020588579 0.14040785 -0.041102253 -0.13935831 0.1252904 -0.07200251 -0.029571626
0.03709769 0.05342147 0.0046258345 -0.020360649 0.07000203 -0.13933413 0.08501844 0.034346312
-0.07441012 -0.019734522 -0.030096566 -0.01411964 -0.029116945 -0.09117518 0.054626178 -0.09752438
-0.0758821 -0.054074626 0.051376253 0.11814703 0.023477579 0.055414245 -0.08368075 -0.093556866
0.044843934 -0.09970412 0.040143114 -0.04459631 0.1073665 -0.04870678 0.11062579 0.02583737
-0.14865932 0.023868714 0.0394228 -0.119408004 0.07135857 0.043710995 0.07331047 -0.055686854
-0.0121785905 0.14100447 0.15031278 0.024533413 0.12045437 0.05396392 -0.039882634 0.076739006
-0.05238466 0.010464644 0.04798883 0.12979701 0.04979032 0.0043222834 0.055209097 -0.005882612
-0.14933187 -0.02595257 -0.026066784 -0.059786435 -0.1235138 0.093363106 -0.063338496 -0.0121848965
0.07418165 0.054095797 0.045718428 -0.09422848 -0.18872395 -0.015338013 -0.04400546 -0.026223104
00000000: 5047 383e 9372 063e 84b2 7cba 515e 14bc
00000010: 5ef0 f03c 7efb 6fbd 52c0 a73c 2cc9 cbbd
00000020: e7cc d1bd 6927 46bd 2833 a0bc 6540 4abd
00000030: 7997 983c 066a d13a c9a9 7e3d 9e77 dc3b
00000040: f715 2c3c 3958 a1bd c348 69bd cb7e 5d3b
00000050: 6bb7 09bc 0fa9 f33d 74a9 80bd 4239 d6bc
00000060: 4709 42be f41f 603d e08d ddbd 5524 4a3e
00000070: 4b40 6aba 4945 94bc 4a2c c93c d71e a2bd
00000080: e491 e63c 3a83 a3bd c6ca 653d fd5f b13d
00000090: dce8 723c 4929 65bd 6acb e93c 421d f13c
000000a0: daa2 523d b762 c7bd fc64 ae3d 3ba4 533d
000000b0: 51f9 a0bd a5a1 6ebc 9483 02bd 5b88 cebc
000000c0: 7b74 993c 0eee c63b 63bb 1cbe c90d ab3d
000000d0: e45a 71bc 9589 933c b418 b53d 8201 2e3d
000000e0: a2ff a63c 24b4 4fbd accf 513d 99a7 c0bb
000000f0: d74b b4bd 0f59 4c3e 05d8 453d 013e 5dbd
00000100: 8b76 833d 26ad 173e 0f5c 67be a1fc 7bbd
00000110: 88f1 573c 65d4 733d 0b2e 213d f16a 98bd
00000120: 38de 1e3e 5f90 1ebe 1b3a ff3d 1cf7 923d
00000130: 36dd 053e 3f68 1cbd 0a4b 953d 3a0a ba3c
00000140: 29c6 423e 6ece b6bd 8547 22bd d16f 94bd
00000150: 03d9 093e 799c 2bbc c41f 923d a1af e73c
00000160: 6002 b8bd f661 35be 727e 66bc 61ac 543d
00000170: c8df f63d 66f4 dabc 31a2 ec3d 4550 ad3d
00000180: 761f 93bd 6f3f cb3d 2d34 2b3c 3411 bbbd
00000190: a2b5 22be efcd bf3c 8ed8 843d 562e 953d
000001a0: 67aa a13d 04dc b3bd 267f 8d3c f010 12be
000001b0: c0aa 253e 5fda 71bb a700 98bd 9ac0 963d
000001c0: 6523 50bc 2a70 aabd 07f8 183e 7029 cdbd
000001d0: 9a8f 613e dad4 75bd f77a 9bbd a7dd bd3c
000001e0: 5a30 913d 09e9 463d e2cc f0bb 3774 aebc
000001f0: 658f a0bc b4ff 3cbd e4fb fcbc 688c 4bbd
00000200: 85ac 86bd 44b6 58bd d999 a6bd e737 203e
00000210: b7b2 c43a eb74 dcbb bf6d 95bd 9e2f f33d
00000220: db4a 16be 8883 a23c 582f 7fbd e5c9 323c
00000230: 1840 843d 9c5a 19be b986 993b 096a e23d
00000240: 6108 4e3c 33b0 083e 5803 fabc 3714 a4bb
00000250: 3b75 c73d ae14 bd3c 532e fc3c fc38 153e
00000260: 3794 5a3e 4780 7cbc 71e4 633d 1c7d 58bd
00000270: 08ce d13c 42aa 933c 3071 8e3d 21bf b8bc
00000280: 4113 2fbe 1f6b 68bc a616 8f3c 8b00 07bd
00000290: a843 cb3c 117f 35be b603 33bd 4fa0 8b3d
000002a0: 9415 0c3e 1875 153d 018e b2bb fbf3 d3bc
000002b0: f307 73bd 1c1b c8bd 8694 813c 9cc5 3abd
000002c0: b88b a03d 61a9 a8bc 13c7 0f3e d65a 28bd
000002d0: f2b3 0ebe 204c 003e 0d76 93bd 3240 f2bc
000002e0: bff3 173d 79d0 5a3d 5094 973b 60cb a6bc
000002f0: 395d 8f3d 9bad 0ebe 261e ae3d b8ae 0c3d
00000300: 5564 98bd 4baa a1bc 138d f6bc 1056 67bc
00000310: a986 eebc 0eba babd b3bf 5f3d ddba c7bd
00000320: 1368 9bbd 5b7d 5dbd e86f 523d 12f7 f13d
00000330: 0d54 c03c 0cfa 623d d060 abbd be9a bfbd
00000340: 46ae 373d ac31 ccbd 1b6d 243d 9faa 36bd
00000350: f8e2 db3d c380 47bd c68f e23d e4a8 d33c
00000360: 263a 18be 5288 c33c cd79 213d 2f8c f4bd
00000370: 7124 923d 4d0a 333d cd23 963d e617 64bd
00000380: b688 47bc 7a63 103e 98eb 193e 4cfa c83c
00000390: c8b0 f63d 4509 5d3d f95b 23bd 5729 9d3d
000003a0: 4c91 56bd e673 2b3c ef8f 443d 82e9 043e
000003b0: eff0 4b3d f1a1 8d3b ef22 623d edc2 c0bb
000003c0: 74ea 18be 7c9a d4bc 028a d5bc 9fe2 74bd
000003d0: cef4 fcbd 2835 bf3d 9db7 81bd 29a3 47bc
000003e0: 8dec 973d 8e93 5d3d 3f43 3b3d dcfa c0bd
000003f0: da40 41be 4a4c 7bbc 123f 34bd d6d1 d6bc

h2h.bias f4 [242]
0.16160952 0.025863586 0.12846681 0.0416923 -0.008198066 0.00029046158 0.095230706 0.067318246
0.028406532 0.012978645 0.019942122 -0.009436025 0.13842271 -0.020330738 0.049207337 0.058399614
0.026818082 0.06334472 -0.009106211 0.010265278 -0.03416091 0.06344266 0.011221518 0.04905632
0.07559119 0.037593674 0.04380178 0.026167486 -0.024629973 0.09614169 -0.031865038 -0.0046002595
0.04902402 -0.010409606 0.1956646 -0.07228317 0.049928676 0.04366656 0.01930281 0.053321596
0.02696922 0.008470048 0.050768346 0.16444898 0.0019622871 -0.010806058 0.015315979 0.08637542
0.026225831 0.038124006 -0.017563421 -0.018902078 0.07212165 -0.005584941 0.08347294 0.07397265
0.020456411 -0.041335016 0.010527959 0.067803726 0.06213628 0.06137474 0.002253118 0.07274077
0.036728017 -0.0007768615 -0.028450023 0.014502635 0.0014064729 -0.019503225 0.0014827524 -0.011728831
0.05320041 -0.0009899258 0.06557455 0.06277688 0.13522372 0.008193654 -0.049460426 0.07109094
0.10401383 0.024628513 -0.036384404 0.05052976 0.11584395 -0.010265632 -0.0092423875 0.05605209
-0.029004054 -0.035110954 -0.059414126 0.06346894 -0.021659682 -0.0151856635 -0.042755235 0.017063184
0.059429027 0.038446806 -0.00087033823 0.11443788 0.002651432 0.031382956 0.07819523 0.11684081
0.117778115 0.0063162227 0.0033575576 -0.03626707 0.05283199 -0.03451773 -0.04472131 0.041554496
0.06202905 -0.025198465 -0.00804951 0.026864413 -0.0083442535 0.015322118 -0.015654001 0.03877148
-0.016390614 0.03387327 0.009379253 -0.022510022 -0.023571508 -0.021037402 -0.042850126 0.07581229
-0.008519789 0.02807011 0.07428005 0.2049637 -0.026551027 0.009038486 0.012299696 0.044328433
0.08872475 -0.022752335 0.1420384 0.001058677 -0.018814221 0.05290225 -0.016386282 -0.0007690201
0.048961494 0.058999598 0.034229632 -0.0016417525 -0.023991985 -0.015562476 0.123188935 0.0297535
0.060243603 -0.017492075 -0.028085046 -0.013059747 -0.020924276 -0.02827645 0.00375969 0.020715691
-0.07114332 0.00036392303 -0.045106318 0.07249736 0.059775695 0.071613505 -0.042344317 0.0040234663
0.06426683 0.030780312 0.028443532 0.022556147 0.0068722405 0.032359138 -0.023411173 0.013703442
-0.06158661 0.03508385 0.019864384 0.0986684 0.017794121 0.18803683 -0.05719147 -0.016184106
-0.006223653 0.0168686 0.033635385 -0.0030162507 0.047299158 -0.04427582 0.00014499565 0.043586
0.050531786 -0.04376249 0.04136607 0.024828514 0.032091156 0.0032753646 0.039555244 -0.015447235
-0.050316446 0.065860756 -0.013066129 -0.04098378 -0.042313475 -0.0057085017 0.01511465 -0.03526459
0.005096258 0.0148855895 0.15020189 0.019963609 0.015802506 -0.0045290748 -0.029643605 0.016979244
0.020606672 -0.04907592 0.037979294 -0.023735305 0.04476342 -0.02362443 0.027503233 0.1638167
-0.024627808 0.03653537 0.1567069 0.015815563 0.012122683 0.13192284 0.040634003 0.038166426
0.0020068823 0.025821956 0.035356957 0.026995903 -0.043793127 -0.03465456 -0.0485777 -0.0099006295
0.016213765 0.1505396
00000000: f77c 253e dfdf d33c ce8c 033e 8cc5 2a3d
00000010: 2e51 06bc 1849 9839 5108 c33d 26de 893d
00000020: d1b4 e83c 62a4 543c a95d a33c 8f99 1abc
00000030: afbe 0d3e a68c a6bc a28d 493d 6f34 6f3d
00000040: 98b1 db3c e0ba 813d 3832 15bc b22f 283c
00000050: 4fec 0bbd 3aee 813d 75da 373c 48ef 483d
00000060: 8ecf 9a3d d3fb 193d 7f69 333d 325d d63c
00000070: ccc4 c9bc efe5 c43d ea84 02bd c6bd 96bb
00000080: 69cd 483d 0d8d 2abc 4d5c 483e 3309 94bd
00000090: 0382 4c3d b5db 323d ed20 9e3c bf67 5a3d
000000a0: 8eee dc3c f5c5 0a3c 78f2 4f3d 5065 283e
000000b0: b799 003b e40b 31bc dfef 7a3c 99e5 b03d
000000c0: 8ed7 d63c eb27 1c3d 2ae1 8fbc 88d8 9abc
000000d0: 84b4 933d e101 b7bb dcf3 aa3d f97e 973d
000000e0: 3494 a73c e84e 29bd 767d 2c3c aedc 8a3d
000000f0: 9d82 7e3d 1464 7b3d 0ca9 133b 1df9 943d
00000100: 1e70 163d 4ba6 4bba 0610 e9bc 769c 6d3c
00000110: 6659 b83a 3ac5 9fbc ea58 c23a 482a 40bc
00000120: ace8 593d 66c0 81ba f34b 863d 2a91 803d
00000130: 1678 0a3e ad3e 063c 0497 4abd 2098 913d
00000140: 3405 d53d bcc1 c93c d007 15bd 4bf8 4e3d
00000150: 983f ed3d 2e31 28bc 626d 17bc e096 653d
00000160: e999 edbc 81d0 0fbd 3a5c 73bd 01fc 813d
00000170: a56f b1bc 4acd 78bc 1d20 2fbd 17c8 8b3c
00000180: da6b 733d 667a 1d3d 6927 64ba 685e ea3d
00000190: a6c3 2d3b 6a8b 003d d224 a03d 3c4a ef3d
000001a0: a735 f13d 51f8 ce3b 780a 5c3b c78c 14bd
000001b0: 5b66 583d 7762 0dbd b12d 37bd 0c35 2a3d
000001c0: 2c12 7e3d 036d cebc 18e2 03bc c212 dc3c
000001d0: 56b6 08bc 9f09 7b3c d23c 80bc d8ce 1e3d
000001e0: 9c45 86bc b3be 0a3d 70ab 193c f066 b8bc
000001f0: 0919 c1bc a156 acbc 9d83 2fbd 7943 9b3d
00000200: 9696 0bbc 4af3 e53c 2420 983d 01e2 513e
00000210: 8a81 d9bc 2816 143c aa84 493c bb91 353d
00000220: 52b5 b53d 1b63 babc 8472 113e 4ec3 8a3a
00000230: 4820 9abc 08b0 583d 863c 86bc 1198 49ba
00000240: d98b 483d 90a9 713d 5f34 0c3d 1330 d7ba
00000250: d78a c4bc c1f9 7ebc 7b4a fc3d 9dbd f33c
00000260: ffc1 763d 8a4b 8fbc 9c12 e6bc 8df8 55bc
00000270: 6369 abbc 03a4 e7bc 2265 763b f4b3 a93c
00000280: 97b3 91bd eccc be39 67c1 38bd 7f79 943d
00000290: 5cd7 743d 1aaa 923d 3c71 2dbd 48d7 833b
000002a0: 549e 833d fe26 fc3c 6902 e93c abc7 b83c
000002b0: 8830 e13b 048b 043d cac8 bfbc 6784 603c
000002c0: 3e42 7cbd 15b4 0f3d a2ba a23c a812 ca3d
000002d0: fac4 913c ba8c 403e 9a41 6abd 8894 84bc
000002e0: c9ef cbbb 0530 8a3c 42c5 093d 4aac 45bb
000002f0: c3bc 413d 905a 35bd f909 1839 3c87 323d
00000300: 6bfa 4e3d 4c40 33bd 786f 293d 2b65 cb3c
00000310: 0472 033d 80a7 563b ae04 223d 6616 7dbc
00000320: 9e18 4ebd 01e2 863d 5113 56bc 9cde 27bd
00000330: e550 2dbd 620e bbbb 70a3 773c 9a71 10bd
00000340: 83fe a63b b0e2 733c 86ce 193e b98a a33c
00000350: 4274 813c a268 94bb 25d7 f2bc 0e18 8b3c
00000360: 53cf a83c d503 49bd 2d90 1b3d 8b70 c2bc
00000370: d959 373d 0588 c1bc 764e e13c 91bf 273e
00000380: 42c0 c9bc 1da6 153d c677 203e a48f 813c
00000390: 389e 463c c816 073e d76f 263d 6654 1c3d
000003a0: e685 033b 9188 d33c 75d2 103d 8326 dd3c
000003b0: 6c60 33bd f1f1 0dbd 69f9 46bd 4036 22bc
000003c0: bbd2 843c 0e27 1a3e
