VLSI23_journal/intuitivechip_classifier_lcsvsnlcs_run2/SNN_ep-150-isize-1-8-1-hsize-242-bsize-32-lr-0.001-tmax_ms-100.0-Ts-10.0-k-6-dsetPath-VMODE_allchannels_ALLCLASS_auto_nospkfilter_cleaned_12x16_9mvpp_250mvofs_onedac_itail_50nA_N3b_OFFdcard/chip-classifier-0.pt (torch, 253495 bytes, 8 tensors)

thr_h_1 f4 [242]
1.0 1.0 1.0 1.0 1.0 1.0 1.0 1.0
1.0 1.0 1.0 1.0 1.0 1.0 1.0 1.0
1.0 1.0 1.0 1.0 1.0 1.0 1.0 1.0
1.0 1.0 1.0 1.0 1.0 1.0 1.0 1.0
1.0 1.0 1.0 1.0 1.0 1.0 1.0 1.0
1.0 1.0 1.0 1.0 1.0 1.0 1.0 1.0
1.0 1.0 1.0 1.0 1.0 1.0 1.0 1.0
1.0 1.0 1.0 1.0 1.0 1.0 1.0 1.0
1.0 1.0 1.0 1.0 1.0 1.0 1.0 1.0
1.0 1.0 1.0 1.0 1.0 1.0 1.0 1.0
1.0 1.0 1.0 1.0 1.0 1.0 1.0 1.0
1.0 1.0 1.0 1.0 1.0 1.0 1.0 1.0
1.0 1.0 1.0 1.0 1.0 1.0 1.0 1.0
1.0 1.0 1.0 1.0 1.0 1.0 1.0 1.0
1.0 1.0 1.0 1.0 1.0 1.0 1.0 1.0
1.0 1.0 1.0 1.0 1.0 1.0 1.0 1.0
1.0 1.0 1.0 1.0 1.0 1.0 1.0 1.0
1.0 1.0 1.0 1.0 1.0 1.0 1.0 1.0
1.0 1.0 1.0 1.0 1.0 1.0 1.0 1.0
1.0 1.0 1.0 1.0 1.0 1.0 1.0 1.0
1.0 1.0 1.0 1.0 1.0 1.0 1.0 1.0
1.0 1.0 1.0 1.0 1.0 1.0 1.0 1.0
1.0 1.0 1.0 1.0 1.0 1.0 1.0 1.0
1.0 1.0 1.0 1.0 1.0 1.0 1.0 1.0
1.0 1.0 1.0 1.0 1.0 1.0 1.0 1.0
1.0 1.0 1.0 1.0 1.0 1.0 1.0 1.0
1.0 1.0 1.0 1.0 1.0 1.0 1.0 1.0
1.0 1.0 1.0 1.0 1.0 1.0 1.0 1.0
1.0 1.0 1.0 1.0 1.0 1.0 1.0 1.0
1.0 1.0 1.0 1.0 1.0 1.0 1.0 1.0
1.0 1.0
00000000: 0000 803f 0000 803f 0000 803f 0000 803f
00000010: 0000 803f 0000 803f 0000 803f 0000 803f
00000020: 0000 803f 0000 803f 0000 803f 0000 803f
00000030: 0000 803f 0000 803f 0000 803f 0000 803f
00000040: 0000 803f 0000 803f 0000 803f 0000 803f
00000050: 0000 803f 0000 803f 0000 803f 0000 803f
00000060: 0000 803f 0000 803f 0000 803f 0000 803f
00000070: 0000 803f 0000 803f 0000 803f 0000 803f
00000080: 0000 803f 0000 803f 0000 803f 0000 803f
00000090: 0000 803f 0000 803f 0000 803f 0000 803f
000000a0: 0000 803f 0000 803f 0000 803f 0000 803f
000000b0: 0000 803f 0000 803f 0000 803f 0000 803f
000000c0: 0000 803f 0000 803f 0000 803f 0000 803f
000000d0: 0000 803f 0000 803f 0000 803f 0000 803f
000000e0: 0000 803f 0000 803f 0000 803f 0000 803f
000000f0: 0000 803f 0000 803f 0000 803f 0000 803f
00000100: 0000 803f 0000 803f 0000 803f 0000 803f
00000110: 0000 803f 0000 803f 0000 803f 0000 803f
00000120: 0000 803f 0000 803f 0000 803f 0000 803f
00000130: 0000 803f 0000 803f 0000 803f 0000 803f
00000140: 0000 803f 0000 803f 0000 803f 0000 803f
00000150: 0000 803f 0000 803f 0000 803f 0000 803f
00000160: 0000 803f 0000 803f 0000 803f 0000 803f
00000170: 0000 803f 0000 803f 0000 803f 0000 803f
00000180: 0000 803f 0000 803f 0000 803f 0000 803f
00000190: 0000 803f 0000 803f 0000 803f 0000 803f
000001a0: 0000 803f 0000 803f 0000 803f 0000 803f
000001b0: 0000 803f 0000 803f 0000 803f 0000 803f
000001c0: 0000 803f 0000 803f 0000 803f 0000 803f
000001d0: 0000 803f 0000 803f 0000 803f 0000 803f
000001e0: 0000 803f 0000 803f 0000 803f 0000 803f
000001f0: 0000 803f 0000 803f 0000 803f 0000 803f
00000200: 0000 803f 0000 803f 0000 803f 0000 803f
00000210: 0000 803f 0000 803f 0000 803f 0000 803f
00000220: 0000 803f 0000 803f 0000 803f 0000 803f
00000230: 0000 803f 0000 803f 0000 803f 0000 803f
00000240: 0000 803f 0000 803f 0000 803f 0000 803f
00000250: 0000 803f 0000 803f 0000 803f 0000 803f
00000260: 0000 803f 0000 803f 0000 803f 0000 803f
00000270: 0000 803f 0000 803f 0000 803f 0000 803f
00000280: 0000 803f 0000 803f 0000 803f 0000 803f
00000290: 0000 803f 0000 803f 0000 803f 0000 803f
000002a0: 0000 803f 0000 803f 0000 803f 0000 803f
000002b0: 0000 803f 0000 803f 0000 803f 0000 803f
000002c0: 0000 803f 0000 803f 0000 803f 0000 803f
000002d0: 0000 803f 0000 803f 0000 803f 0000 803f
000002e0: 0000 803f 0000 803f 0000 803f 0000 803f
000002f0: 0000 803f 0000 803f 0000 803f 0000 803f
00000300: 0000 803f 0000 803f 0000 803f 0000 803f
00000310: 0000 803f 0000 803f 0000 803f 0000 803f
00000320: 0000 803f 0000 803f 0000 803f 0000 803f
00000330: 0000 803f 0000 803f 0000 803f 0000 803f
00000340: 0000 803f 0000 803f 0000 803f 0000 803f
00000350: 0000 803f 0000 803f 0000 803f 0000 803f
00000360: 0000 803f 0000 803f 0000 803f 0000 803f
00000370: 0000 803f 0000 803f 0000 803f 0000 803f
00000380: 0000 803f 0000 803f 0000 803f 0000 803f
00000390: 0000 803f 0000 803f 0000 803f 0000 803f
000003a0: 0000 803f 0000 803f 0000 803f 0000 803f
000003b0: 0000 803f 0000 803f 0000 803f 0000 803f
000003c0: 0000 803f 0000 803f

thr_o f4 [6]
1.0 1.0 1.0 1.0 1.0 1.0
00000000: 0000 803f 0000 803f 0000 803f 0000 803f
00000010: 0000 803f 0000 803f

i2h.weight f4 [242, 8]
0.06283134 -0.06360649 -0.06863905 0.108931474 -0.17901091 0.08616509 0.012342755 0.03396165
-0.123579256 -0.109775886 -0.047608465 0.01799465 0.034993067 -0.056967817 0.10254843 -0.13853365
0.08443741 -0.12280553 -0.13769323 0.019301971 -0.14798453 0.08895466 -0.076732606 0.17148696
0.02955515 -0.079259306 -0.032043874 0.114606865 0.07753002 -0.016092123 -0.13245708 -0.08392256
0.027565556 -0.14854187 -0.0772117 -0.036898874 0.056429826 0.018709164 0.13030379 -0.14781825
0.04477439 -0.13966422 0.12903981 -0.008295665 0.10070113 0.10257268 -0.044425666 0.075101875
-0.055624533 0.0057661533 0.074471265 0.058409706 0.10827808 0.20384255 -0.08911626 0.0044144797
-0.114248596 -0.058543522 -0.03572091 0.06451625 -0.17854811 0.043809507 0.044454582 -0.03023238
0.0029144813 -0.089131616 0.086466536 0.2245375 -0.009818994 -0.13164763 -0.025509145 0.08784824
-0.014491665 -0.122051395 -0.1310911 -0.15100521 0.080584355 0.082199045 0.1149296 -0.056544304
-0.11465106 0.020415017 0.073774196 0.115677476 -0.05668201 0.07633974 -0.012484014 -0.08077883
-0.11414877 -0.14712296 0.12937936 0.17481771 0.11627934 0.06492258 -0.1379091 0.17145915
-0.05397543 0.023584668 -0.029203743 -0.005024862 0.06951495 0.03156292 -0.0069807637 -0.0873168
-0.018763402 0.10453276 -0.10530704 -0.1073417 0.09819469 -0.08972148 -0.18081123 -0.0019794898
0.004898572 0.097540975 0.12140779 0.06427936 -0.06335604 0.06854709 0.008443311 -0.18544243
0.13131131 -0.0077283415 -0.004393126 0.06987265 -0.008491405 -0.010639853 0.10854238 0.047547776
0.017848304 0.03644169 0.13736095 -0.1110548 0.20212208 0.117023624 -0.008791102 -0.06524549
0.066604115 -0.12809335 0.14762856 0.11022981 0.16860357 0.027553096 -0.05492444 -0.15817037
-0.081691206 0.034844335 0.0055213626 0.21177053 -0.04309769 -0.012757733 -0.08730659 -0.101858765
-0.10731793 0.049916167 0.11372734 -0.061630942 0.011173342 0.09571261 0.028017689 -0.13405937
0.14823617 -0.021633912 -0.08714815 -0.00019823964 0.07375756 -0.13543163 0.08585804 -0.0047304546
0.09194319 -0.005897903 0.14220993 0.19296356 -0.23248397 -0.30679235 0.08838618 -0.011973704
-0.070391625 -0.012218442 -0.0008729556 -0.003808637 0.17534074 -0.07770417 0.075721614 0.1155674
-0.09540347 -0.08079921 -0.05337432 0.11599935 0.022637645 -0.1370935 0.107817136 0.0045213774
-0.104527354 -0.123801835 -0.083388455 0.11398179 -0.1073825 -0.020061456 -0.10326823 -0.08355395
-0.08897874 0.07904137 -0.11389595 0.03864967 0.022933718 0.120505795 0.05289628 -0.1388068
-0.07571801 -0.04759476 -0.1482659 -0.05745275 -0.06434721 0.07577974 0.06943093 -0.03430121
0.084852636 -0.042456236 -0.14087124 -0.08823393 -0.027716693 0.12722352 -0.04261667 0.05512886
0.051886868 0.030251294 -0.110881 0.121703595 0.10932807 -0.024006702 -0.23739208 0.05743099
-0.12862359 -0.095662445 0.011115267 -0.09090383 -0.22112322 -0.06677365 0.061594117 -0.004692785
0.10340995 -0.037437957 0.07455211 0.12842861 -0.2629842 0.24405041 -0.09860429 -0.07504479
-0.08499166 0.10931868 0.014624948 -0.017414657 -0.06644492 0.1648994 0.07855287 -0.044853535
00000000: b8ad 803d 1f44 82bd a192 8cbd 7717 df3d
00000010: a34e 37be 5377 b03d 4439 4a3c 5f1b 0b3d
00000020: 1f17 fdbd 2ed2 e0bd 1801 43bd 8469 933c
00000030: e454 0f3d 1657 69bd e904 d23d c4db 0dbe
00000040: 85ed ac3d 7781 fbbd 74ff 0cbe 2b1f 9e3c
00000050: 4289 17be dc2d b63d fc25 9dbd 479a 2f3e
00000060: a41d f23c b452 a2bd 7040 03bd 01b7 ea3d
00000070: 0fc8 9e3d a1d3 83bc d4a2 07be 97df abbd
00000080: 29d1 e13c 5c1b 18be 2b21 9ebd 4623 17bd
00000090: f622 673d f643 993c 5b6e 053e ab5d 17be
000000a0: 5a65 373d 2304 0fbe 0323 043e 8aea 07bc
000000b0: 653c ce3d a011 d23d b0f7 35bd 03cf 993d
000000c0: 8dd6 63bd 00f2 bc3b 6484 983d 043f 6f3d
000000d0: e6c0 dd3d 1abc 503e 9682 b6bd 57a7 903b
000000e0: 2bfb e9bd 55cb 6fbd 1750 12bd 1821 843d
000000f0: 51d5 36be 9971 333d 0216 363d e5a9 f7bc
00000100: e200 3f3b a38a b6bd 5e15 b13d 29ed 653e
00000110: d9df 20bc a3ce 06be 8ef8 d0bc c7e9 b33d
00000120: 736e 6dbc 15f6 f9bd bf3c 06be 1ca1 1abe
00000130: 6909 a53d f957 a83d 3660 eb3d 009b 67bd
00000140: 2dce eabd 653d a73c ed16 973d 50e8 ec3d
00000150: 652b 68bd 0258 9c3d c089 4cbc 5f6f a5bd
00000160: d5c6 e9bd 67a7 16be 067c 043e 6a03 333e
00000170: dd23 ee3d 21f6 843d 0b38 0dbe fd92 2f3e
00000180: 5715 5dbd a234 c13c b03c efbc 99a7 a4bb
00000190: db5d 8e3d 1f48 013d e4be e4bb 27d3 b2bd
000001a0: b5b5 99bc 4615 d63d 38ab d7bd f7d5 dbbd
000001b0: 4c1a c93d e5bf b7bd 9426 39be 54ba 01bb
000001c0: 3384 a03b 90c3 c73d a6a4 f83d e6a4 833d
000001d0: d0c0 81bd 6b62 8c3d d055 0a3c 9fe4 3dbe
000001e0: 7976 063e 073e fdbb 36f4 8fbb 6419 8f3d
000001f0: 891f 0bbc c752 2ebc 784b de3d 75c1 423d
00000200: 9b36 923c e243 153d 59a8 0c3e b370 e3bd
00000210: 17f9 4e3e 15aa ef3d 8e08 10bc 6d9f 85bd
00000220: bd67 883d e72a 03be f12b 173e 2bc0 e13d
00000230: 6aa6 2c3e 08b7 e13c 73f8 60bd 6af7 21be
00000240: b84d a7bd efb8 0e3d 8cec b43b 60da 583e
00000250: 3487 30bd d005 51bc cccd b2bd 549b d0bd
00000260: 81c9 dbbd e574 4c3d e1e9 e83d ba70 7cbd
00000270: 6510 373c f904 c43d 5a85 e53c dc46 09be
00000280: 39cb 173e 9a39 b1bc bb7a b2bd 8cde 4fb9
00000290: 340e 973d 97ae 0abe 57d6 af3d ee01 9bbb
000002a0: b64c bc3d 3243 c1bb 7b9f 113e 3d98 453e
000002b0: 4710 6ebe e313 9dbe d003 b53d 5b2d 44bc
000002c0: 7c29 90bd dc2f 48bc 0fd7 64ba 539a 79bb
000002d0: 868c 333e 5d23 9fbd ef13 9b3d 9aae ec3d
000002e0: e562 c3bd 0e7a a5bd 089f 5abd 1191 ed3d
000002f0: 9572 b93c 3d62 0cbe 3bcf dc3d 1028 943b
00000300: 7012 d6bd d18b fdbd 91c7 aabd 496f e93d
00000310: 5beb dbbd ec57 a4bc 4b7e d3bd 551e abbd
00000320: 7c3a b6bd 71e0 a13d 4842 e9bd 1e4f 1e3d
00000330: 7edf bb3c becb f63d c5a9 583d 5f23 0ebe
00000340: 0b12 9bbd b9f2 42bd 04d3 17be 9353 6bbd
00000350: 78c8 83bd 6932 9b3d ce31 8e3d 6d7f 0cbd
00000360: 38c7 ad3d 97e6 2dbd 8d40 10be feb3 b4bd
00000370: 1e0e e3bc e246 023e d18e 2ebd cdce 613d
00000380: 5387 543d 90d1 f73c 9415 e3bd bc3f f93d
00000390: 65e7 df3d b4a9 c4bc e916 73be c23c 6b3d
000003a0: e7b5 03be acea c3bd cf1c 363c ca2b babd
000003b0: 206e 62be a0c0 88bd 1d4a 7c3d efc5 99bb
000003c0: 99c8 d33d 8b58 19bd c7ae 983d ca82 033e
000003d0: dda5 86be 5ae8 793e 0cf1 c9bd 15b1 99bd
000003e0: 1c10 aebd 79e2 df3d 7a9d 6f3c 2fa9 8ebc
000003f0: 4614 88bd 63db 283e 54e0 a03d 57b8 37bd

i2h.bias f4 [242]
-0.024973137 -0.04914939 0.04806354 -0.061032195 -0.035748623 -0.020818291 0.03375195 0.013850195
0.018596824 -0.013966486 -0.049395114 -0.01106645 -0.024063913 -0.060736656 0.031121744 -0.035524346
0.013574477 0.044689268 0.038695913 0.01887106 -0.054245397 0.05480013 -0.00076094846 -0.00025106766
-0.02320665 -0.0035583035 -0.010499588 0.0071740053 -0.047336068 0.00277271 0.06623289 -0.0072406135
-0.036773305 0.0026842821 0.09696633 0.070834704 -0.0013965591 0.0071860123 -0.011983575 -0.041027725
0.028306993 0.018587619 -0.0047746045 -0.033849686 -0.04268012 -0.04337343 0.0035993247 0.06216514
-0.010304191 -0.004061343 -0.04836789 -0.0008028358 0.07217927 0.029650139 0.07199381 -0.022910481
0.03304308 -0.032920033 0.01886178 0.057254277 -0.03218084 0.028075064 0.03666155 -0.01114901
-0.03030537 0.035290506 -0.036965184 0.05911823 0.07880663 -0.019243032 -0.014692058 0.09076586
0.035405464 -0.056561593 0.058842767 0.020630507 -0.015594463 0.08242367 -0.010977385 0.029451296
0.011732442 0.036203805 -0.06667552 -0.065229654 -0.001334192 -0.037310883 0.08660851 8.2266335e-05
0.055069882 -0.036612816 0.0045839613 0.015463966 0.005189523 0.02843922 0.0071240584 0.04186013
0.036665015 0.03519016 0.012238631 -0.021770433 0.03660265 -0.0020647703 0.067654654 -0.046725795
-0.016822433 0.052851915 -0.0036600595 0.016360281 0.018117571 0.051303532 -0.005272237 -0.027215011
0.006988031 -0.030612832 -0.003294606 0.036101375 0.026775187 -0.01674779 0.05102496 0.021384727
-0.020953115 -0.04191775 -0.025730686 -0.019143011 0.024368716 0.022899527 -0.021728616 0.020008946
0.023318574 0.0018416164 0.0060729077 0.059344184 0.036012784 0.053071555 0.040721215 0.06539913
-0.022776827 0.0025127502 0.04482322 0.04263612 0.062604606 0.04256062 -0.004748309 -0.034408122
-0.013172329 -0.045391828 0.022387283 -0.029267991 -0.039776653 -0.04912306 -0.06026457 0.03786924
-0.024922157 -0.0394419 -0.012608876 0.034962837 0.025634473 0.0026385817 -0.007339647 0.045766853
0.007810719 -0.11883382 0.052592997 0.07890932 0.044732478 -0.047112826 0.009273472 -0.016087163
-0.007018254 0.036122814 0.025444973 -0.024321357 0.009079503 0.08564345 -0.05168449 -0.06837707
0.007560442 -0.022286607 0.035799235 0.02662215 0.051707417 -0.019433515 0.002750229 0.05524557
0.0022272784 0.016970051 0.031486914 0.06294816 -0.022314003 0.008325222 -0.03708306 0.030811913
-0.03522625 -0.026889035 -0.020294541 0.048460484 -0.033692002 -0.04383943 -0.059279345 0.074987605
0.04945714 -0.02907819 0.04373886 0.026683025 0.010115386 -0.009323081 0.0815817 0.016246617
0.08951079 0.009734112 0.05332081 0.028230812 0.021750558 0.05371678 -0.039703816 0.0077102133
0.016340202 0.008936377 0.0074771717 0.018542564 -0.0198315 -0.01139176 0.04249354 0.007446047
0.021156212 -0.0035131027 0.04072893 0.009295205 -0.040848717 0.052414283 -0.0057062646 -0.042202324
0.040955115 0.017928254 -0.02859919 -0.06093796 0.0034006408 0.016666045 0.034991566 -0.009809038
-0.009599068 -0.05318133
00000000: 7794 ccbc df50 49bd 46de 443d e5fc 79bd
00000010: 266d 12bd 1f8b aabc 7c3f 0a3d eeeb 623c
00000020: 5e58 983c b0d3 64bc 8852 4abd 0e50 35bc
00000030: af21 c5bc 00c7 78bd 07f3 fe3c fa81 11bd
00000040: 7c67 5e3c 180c 373d 9b7f 1e3d 7b97 9a3c
00000050: 6c30 5ebd 1a76 603d 637a 47ba bba1 83b9
00000060: df1b bebc 6d32 69bb 7706 2cbc eb13 eb3b
00000070: 77e3 41bd 5bb6 353b 1ca5 873d ab42 edbb
00000080: 9b9f 16bd c8ea 2f3b 4996 c63d c911 913d
00000090: bf0c b7ba a478 eb3b c256 44bc b00c 28bd
000000a0: 11e4 e73c 1045 983c 4974 9cbb f8a5 0abd
000000b0: 59d1 2ebd 56a8 31bd a6e2 6b3b e0a0 7e3d
000000c0: e9d2 28bc 0415 85bb 691d 46bd 6675 52ba
000000d0: bad2 933d d9e4 f23c 7e71 933d c3ae bbbc
000000e0: 2e58 073d 28d7 06bd 0584 9a3c 7683 6a3d
000000f0: 0ed0 03bd adfd e53c 6c2a 163d 56aa 36bc
00000100: f842 f8bc c78c 103d ce68 17bd f525 723d
00000110: 5f65 a13d 90a3 9dbc f5b6 70bc 74e3 b93d
00000120: 5205 113d 21ad 67bd 1d05 713d 4f01 a93c
00000130: eb7f 7fbc becd a83d 7dda 33bc d843 f13c
00000140: 6e39 403c 714a 143d 2d8d 88bd 2097 85bd
00000150: 0ee0 aeba 4cd3 18bd cd5f b13d 6786 ac38
00000160: f590 613d 52f7 15bd 0e35 963b 935c 7d3c
00000170: e00c aa3b 5ef9 e83c ef70 e93b 8775 2b3d
00000180: 0e2e 163d 8f23 103d 8a84 483c e857 b2bc
00000190: a9ec 153d 1951 07bb 868e 8a3d 8c63 3fbd
000001a0: 33cf 89bc 407b 583d 9cdd 6fbb ff05 863c
000001b0: 4d6b 943c a723 523d bbc2 acbb 04f2 debc
000001c0: dafb e43b c3c7 fabc 51ea 57bb 09df 133d
000001d0: a357 db3c a932 89bc 8cff 503d 062f af3c
000001e0: dea5 abbc f2b1 2bbd 29c9 d2bc ced1 9cbc
000001f0: e7a0 c73c ca97 bb3c 3600 b2bc cde9 a33c
00000200: 9806 bf3c 6462 f13a 3eff c63b e312 733d
00000210: 2482 133d 8f61 593d 4acb 263d fbef 853d
00000220: 7896 babc f4ac 243b 8e98 373d 36a3 2e3d
00000230: d836 803d 0b54 2e3d b497 9bbb 88ef 0cbd
00000240: c1d0 57bc c8ec 39bd 8965 b73c 6dc3 efbc
00000250: d8ec 22bd 4335 49bd fbd7 76bd c71c 1b3d
00000260: 8d29 ccbc d48d 21bd 7695 4ebc 3135 0f3d
00000270: 63ff d13c 0eec 2c3b 6c81 f0bb 0676 3b3d
00000280: 0ff1 ff3b 255f f3bd c16b 573d 369b a13d
00000290: 6739 373d 61f9 40bd c3ef 173c 3ac9 83bc
000002a0: 62f9 e5bb 84f5 133d fa71 d03c 953d c7bc
000002b0: 32c2 143c d565 af3d 1eb3 53bd 4709 8cbd
000002c0: 96bd f73b 6792 b6bc 38a2 123d b216 da3c
000002d0: 28cb 533d 0933 9fbc 303d 343b 2e49 623d
000002e0: 88f7 113b c704 8b3c 6cf8 003d f7ea 803d
000002f0: dbcb b6bc 8366 083c 68e4 17bd 4469 fc3c
00000300: 6649 10bd 6546 dcbc bd40 a6bc 807e 463d
00000310: a000 0abd f990 33bd e6ce 72bd 1a93 993d
00000320: 9293 4a3d 6235 eebc 8527 333d 5c96 da3c
00000330: 01bb 253c d6bf 18bc 4e14 a73d a017 853c
00000340: 6f51 b73d d37b 1f3c ec66 5a3d 4e44 e73c
00000350: 3a2e b23c 2006 5c3d 78a0 22bd f5a5 fc3b
00000360: e3db 853c e269 123c 1003 f53b 93e6 973c
00000370: ab75 a2bc 81a4 3abc b50d 2e3d f8fd f33b
00000380: cb4f ad3c 153c 66bb 61d3 263d ea4a 183c
00000390: fc50 27bd 5cb0 563d 9efb babb 58dc 2cbd
000003a0: 8dc0 273d 46de 923c d948 eabc 159a 79bd
000003b0: 49dd 5e3b 3b87 883c 5153 0f3d 16b6 20bc
000003c0: 6945 1dbc abd4 59bd

h2o.weight f4 [6, 242]
0.09752934 0.16333209 -0.14367628 0.15995412 0.12497983 -0.1342143 0.046689544 0.012681272
0.02851369 -0.06396555 0.062884815 0.060551763 0.10111914 0.02155427 -0.099734746 0.11473002
0.02972941 -0.054904196 -0.090485886 -0.01614979 0.025979856 0.086384155 -0.123377346 -0.017507048
0.12096736 0.043387122 0.15369059 -0.14169694 -0.0027867109 -0.01262514 -0.15489876 0.18558577
0.024897788 0.026465792 0.07696069 -0.15346408 -0.08714081 0.16224037 0.08936931 0.12981014
-0.0039754948 -0.029886635 0.034596268 0.102705866 -0.07132873 -0.081657186 0.13327506 -0.13633382
-0.047150996 0.049617004 -0.037388287 0.21121714 -0.20051548 -0.15899453 0.04699242 -0.08963008
-0.065615326 -0.15661159 0.12294176 -0.08175217 -0.05298798 0.13660082 -0.07684047 -0.053321626
0.17700176 -0.020975225 -0.040737037 0.18748797 -0.13637273 0.0076512718 0.07694313 -0.11679978
0.008786195 -0.07774709 0.05892376 -0.053374182 0.079236664 -0.08088057 0.10631354 -0.11185165
-0.016999051 0.050848242 0.13068426 -0.003381756 -0.05003466 0.16345768 -0.0017025722 0.12176892
-0.12543869 0.095520794 0.04454731 0.047472768 0.061426315 -0.074820034 0.12809955 -0.013003601
-0.09703723 -0.06818152 -0.040891755 0.09059739 -0.034766495 -0.030270712 -0.2691414 0.0942774
-0.09512289 -0.07965937 0.14303009 -0.15471841 -0.12663037 0.0037425125 -0.09064444 0.095666
0.11865858 0.088813834 0.11829614 -0.17848845 -0.16251598 -0.06935975 -0.02050513 -0.075593576
-0.0051751626 0.04669751 -0.08767931 0.08772706 -0.05889659 0.012412562 0.13567063 0.11815445
-0.07795439 -0.0046397992 -0.033677705 0.009915705 0.085796684 0.07190341 -0.039880775 -0.18405497
-0.15509039 -0.0004260344 0.013942269 -0.17814982 -0.0893278 -0.108219646 0.14311196 -0.0063592056
0.0052031544 0.14414838 -0.09163216 0.027620044 0.117894635 0.056457356 0.07198192 0.061665446
-0.03952836 -0.058729738 0.07996286 -0.1269646 0.15728574 0.07752731 0.13393492 -0.22107705
0.035478868 -0.045724865 -0.16925848 -0.09147688 0.14798678 -0.114020765 -0.13461885 0.1782317
0.06502878 -0.16445635 0.09110987 0.056510404 0.013201118 -0.190671 -0.13887003 0.07339402
0.11947235 0.106488876 -0.14624348 -0.115366794 0.06321574 -0.14097881 0.10537661 -0.10474214
-0.045384742 0.16035159 0.1273505 -0.07505849 0.1635311 -0.01630193 0.013160168 0.01232704
-0.034045473 0.017756283 0.051360615 -0.020084037 -0.03225204 0.054651085 0.101035595 -0.023386823
-0.12680751 -0.071186796 -0.12364679 0.022858072 0.014509344 0.0893411 -0.19115798 -0.3008109
-0.108373754 0.0551544 0.0005831654 -0.04652934 0.07221364 0.1440206 0.10455295 -0.041158587
0.08976565 -0.0887207 0.045499776 0.016642157 -0.082319796 0.15211707 -0.13381444 0.04291911
-0.085669845 -0.011790338 -0.121312685 0.1606805 0.06040418 -0.22421165 0.12723453 0.11807748
-0.13972215 -0.04676949 0.021532206 0.16352683 -0.11030762 0.15319858 -0.09389184 0.007246252
-0.091491185 -0.13179833 -0.05149479 -0.039976668 0.037548 0.06645873 0.0865425 0.0004361941
-0.05537594 0.15953055 -0.20232669 -0.17893459 0.033446968 -0.12893403 0.123181395 -0.10742223
00000000: 76bd c73d 8740 273e e01f 13be 03cb 233e
00000010: 6df5 ff3d 796f 09be 893d 3f3d 1cc5 4f3c
00000020: 8b95 e93c 5f00 83bd c1c9 803d 2005 783d
00000030: 8d17 cf3d 9592 b03c bb41 ccbd 93f7 ea3d
00000040: 178b f33c 39e3 60bd aa50 b9bd 904c 84bc
00000050: b5d3 d43c 2dea b03d 43ad fcbd f16a 8fbc
00000060: bcbd f73d b2b6 313d 1161 1d3e 0119 11be
00000070: 40a1 36bb add9 4ebc c89d 1ebe 320a 3e3e
00000080: 72f6 cb3c cace d83c 919d 9d3d b025 1dbe
00000090: e276 b2bd 5722 263e 4207 b73d f3ec 043e
000000a0: de44 82bb d1d4 f4bc d1b4 0d3d 7457 d23d
000000b0: cc14 92bd e23b a7bd 4279 083e 189b 0bbe
000000c0: 6721 41bd 333b 4b3d 7624 19bd 4e49 583e
000000d0: ee53 4dbe 76cf 22be 207b 403d fa8f b7bd
000000e0: 5461 86bd ca5e 20be e4c8 fb3d af6d a7bd
000000f0: ed09 59bd 16e1 0b3e 895e 9dbd c767 5abd
00000100: f33f 353e 3cd4 abbc e1db 26bd d9fc 3f3e
00000110: 4ba5 0bbe 85b7 fa3b 5c94 9d3d b934 efbd
00000120: f9f3 0f3c de39 9fbd 0a5a 713d e39e 5abd
00000130: d546 a23d b6a4 a5bd eaba d93d 7a12 e5bd
00000140: 9841 8bbc 3f46 503d 18d2 053e 73a0 5dbb
00000150: 25f1 4cbd 7361 273e d828 dfba fc61 f93d
00000160: 0073 00be 68a0 c33d 3d77 363d ce72 423d
00000170: 299a 7b3d 3f3b 99bd 872c 033e 0e0d 55bc
00000180: 75bb c6bd c1a2 8bbd 1d7e 27bd 208b b93d
00000190: 5067 0ebd 49fa f7bc e7cc 89be 8214 c13d
000001a0: cacf c2bd 7424 a3bd 7b76 123e 816e 1ebe
000001b0: 64ab 01be f144 753b cba3 b9bd 89ec c33d
000001c0: 4503 f33d 07e4 b53d 3f45 f23d adc5 36be
000001d0: 976a 26be 7c0c 8ebd 60fa a7bc ced0 9abd
000001e0: 6994 a9bb e345 3f3d 3691 b3bd 3faa b33d
000001f0: 8d3d 71bd 0f5e 4b3c 3eed 0a3e f6fa f13d
00000200: 8da6 9fbd 7509 98bb a2f1 09bd 7b75 223c
00000210: 2cb6 af3d 1842 933d 065a 23bd e878 3cbe
00000220: 04d0 1ebe 5f5d dfb9 1d6e 643c e86c 36be
00000230: 7ef1 b6bd 43a2 ddbd f18b 123e e260 d0bb
00000240: 397f aa3b a29b 133e a4a9 bbbd 6e43 e23c
00000250: be72 f13d d43f 673d 426b 933d e894 7c3d
00000260: 7de8 21bd 988e 70bd 91c3 a33d 0203 02be
00000270: 830f 213e a3c6 9e3d 3c26 093e 0662 62be
00000280: 4a52 113d ff49 3bbd 1852 2dbe 3b58 bbbd
00000290: d989 173e b883 e9bd 86d9 09be 5f82 363e
000002a0: cf2d 853d 3f67 28be d097 ba3d 7477 673d
000002b0: 8149 583c 423f 43be f233 0ebe 9b4f 963d
000002c0: ebad f43d d716 da3d dac0 15be 6d45 ecbd
000002d0: 4177 813d c05c 10be b1cf d73d 0c83 d6bd
000002e0: 5ae5 39bd 3533 243e 2b68 023e 44b8 99bd
000002f0: b274 273e a08b 85bc bf9d 573c 5af7 493c
00000300: 4473 0bbd a075 913c 825f 523d 4787 a4bc
00000310: b71a 04bd d1d9 5f3d c0eb ce3d b995 bfbc
00000320: d4d9 01be 62ca 91bd 873a fdbd da40 bb3c
00000330: 99b8 6d3c 77f8 b63d ebbe 43be e303 9abe
00000340: 0ff3 ddbd 95e9 613d 91df 183a 8d95 3ebd
00000350: bfe4 933d 237a 133e db1f d63d e895 28bd
00000360: 0ed7 b73d 33b3 b5bd f95d 3a3d 2255 883c
00000370: 4897 a8bd 94c4 1b3e a706 09be f3cb 2f3d
00000380: ac73 afbd 432c 41bc c972 f8bd 6e89 243e
00000390: 606a 773d bd97 65be c549 023e 9bd2 f13d
000003a0: 5313 0fbe 5d91 3fbd 4f64 b03c 9473 273e
000003b0: f6e8 e1bd 17e0 1c3e 5d4a c0bd f871 ed3b
000003c0: bb5f bbbd 24f6 06be 33ec 52bd 93be 23bd
000003d0: efcb 193d 841b 883d 323d b13d fbb0 e439
000003e0: e2d1 62bd fa5b 233e ba2e 4fbe a13a 37be
000003f0: b0ff 083d 4807 04be 8746 fc3d 3000 dcbd

h2o.bias f4 [6]
-0.045783285 0.027733617 0.04234228 0.05169052 0.05456728 0.04319037
00000000: 4187 3bbd 9c31 e33c 196f 2d3d 70b9 533d
00000010: f181 5f3d 63e8 303d

h2h.weight f4 [242, 242]
0.008941374 0.059486438 -0.052844934 0.015138064 0.022178208 -0.0074036396 0.050768476 0.05949512
0.07757043 -0.0115298005 -0.023104591 -0.13299647 0.0908832 0.028797992 -0.036703255 -0.012481686
-0.035171587 -0.07363577 -0.058417983 -0.031145325 -0.048287604 0.05000661 -0.0018668976 -0.06384415
-0.05844498 -0.016783657 -0.038726635 -0.06599876 0.07600475 -0.035052743 -0.041139252 0.05420856
0.17842329 0.049643278 0.035598822 -0.0840932 -0.10815109 0.020425722 -0.011341251 0.09753855
0.001545485 -0.08881739 -0.10485774 0.13038641 0.005039794 -0.030773964 -0.028590621 0.15437339
0.05459597 -0.058860373 0.00915961 0.07181655 0.041047882 -0.037253387 -0.06667802 -7.444539e-05
0.006680654 -0.033785395 0.06531987 0.044931885 0.15909407 0.013419835 -0.03214035 0.03785373
0.04195651 -0.05949053 0.06608755 0.0130520025 -0.0077215433 -0.07817302 0.041730944 0.11056464
-0.168384 0.028613476 0.119772606 -0.076043166 0.028165335 -0.14637654 0.029128306 0.04912046
0.009881252 0.12751092 0.08581428 -0.03366081 0.061097194 0.14873056 -0.05375338 -0.025831629
-0.01233544 0.07645212 -0.054147106 0.2406889 0.0025246465 0.06282605 0.028650297 0.13758351
-0.07932768 -0.11593616 -0.09354325 0.04841602 0.114095785 0.05408574 0.029640622 -0.115399554
-0.051570036 -0.096149884 0.026043488 0.028340006 -0.057839483 0.030881096 -0.046975702 -0.12609461
-0.10242519 -0.023283029 0.057627253 -0.11820074 0.097737774 -0.07763126 -0.12559797 0.09449191
0.00068576523 0.025739962 0.0340848 0.0646781 -0.137396 -0.111087196 0.047519 -0.050231956
0.001419332 0.05758678 -0.006023097 0.19858485 0.008354903 -0.15874617 -0.07603909 0.010466417
0.06345167 -0.024658695 -0.074038364 -0.043590114 -0.068510085 0.037896004 -0.027148867 0.010467919
0.06620882 -0.0034783229 0.019093465 -0.050991755 0.0187652 -0.0023822975 0.05896353 0.017498925
-0.10747896 -0.031900086 -0.09711406 0.13256308 -0.08416817 -0.0030945598 0.08985343 0.021690805
0.11532067 0.17210169 -0.013009705 0.005284054 0.064650625 -0.015665332 -0.035320774 -0.048201643
-0.021154102 0.035540212 0.042574465 0.057424013 0.04967527 -0.012428851 0.029827917 0.118894495
0.055090718 0.11414266 -0.031148411 0.07163306 0.12557846 -0.057327744 -0.011922159 -0.04143758
0.052319527 0.032857455 0.08556946 -0.10958325 0.10081775 0.027824871 -0.02215709 0.03097698
0.05301736 0.025059719 -0.09521002 0.0029060654 -0.020556025 -0.00015539638 -0.0037593173 0.011797677
-0.008620282 0.09464559 -0.07821107 -0.077492915 -0.0021565573 -0.029019754 -0.073054574 -0.079506
-0.1706588 -0.07668733 -0.07861839 -0.086052105 -0.06433772 0.110668674 -0.048996318 0.08154803
-0.030080762 0.015298598 -0.032038994 -0.0409457 -0.07239682 -0.06474114 -0.0440567 -0.10335318
0.0940838 -0.15129055 0.086225316 0.02313086 -0.0018461111 -0.07132542 0.018758604 0.008855471
-0.06618927 0.05203376 -0.025928997 0.045552976 -0.0055010505 0.05344275 0.043802217 0.03741636
0.01945442 -0.073329054 0.078769825 0.16717216 0.07498179 -0.051959626 0.039581914 0.029782766
0.10441783 0.006743572 0.0021974589 -0.022590155 0.050846905 -0.070303336 -0.108502045 -0.050725605
00000000: d77e 123c 0da8 733d ee73 58bd a405 783c
00000010: 13af b53c 3b9a f2bb 9bf2 4f3d 28b1 733d
00000020: 3fdd 9e3d 7de7 3cbc d745 bdbc 3a30 08be
00000030: f920 ba3d c4e9 eb3c 2756 16bd fc7f 4cbc
00000040: 1510 10bd 5ace 96bd b247 6fbd 7b24 ffbc
00000050: 39c9 45bd bbd3 4c3d b0b2 f4ba b9c0 82bd
00000060: 0164 6fbd e17d 89bc d29f 1ebd 5c2a 87bd
00000070: 61a8 9b3d 7793 0fbd a281 28bd cc09 5e3d
00000080: 98b4 363e c056 4b3d 12d0 113d 0e39 acbd
00000090: 527e ddbd d853 a73c a8d0 39bc 4bc2 c73d
000000a0: df91 ca3a e4e5 b5bd a8bf d6bd 0484 053e
000000b0: db24 a53b ae19 fcbc e136 eabc 0f14 1e3e
000000c0: 06a0 5f3d 9317 71bd 3012 163c 8e14 933d
000000d0: d321 283d 0297 18bd 7c8e 88bd 901f 9cb8
000000e0: 63e9 da3b 8e62 0abd 6dc6 853d 7f0a 383d
000000f0: 8ee9 223e dede 5b3c 9aa5 03bd 830c 1b3d
00000100: 97da 2b3d 58ac 73bd e958 873d 11d8 553c
00000110: 0005 fdbb 2d19 a0bd 11ee 2a3d b76f e23d
00000120: db6c 2cbe cf66 ea3c 574b f53d 85bc 9bbd
00000130: fdba e63c bbe3 15be 7c9e ee3c 8932 493d
00000140: fae4 213c 3992 023e 66bf af3d ebdf 09bd
00000150: 0d41 7a3d d34c 183e 812c 5cbd da9c d3bc
00000160: 961a 4abc ee92 9c3d 5bc9 5dbd 2777 763e
00000170: 8a74 253b f2aa 803d 07b4 ea3c b1e2 0c3e
00000180: 8d76 a2bd f06f edbd 9a93 bfbd e04f 463d
00000190: 0dab e93d 0289 5d3d e4d0 f23c 9a56 ecbd
000001a0: 1a3b 53bd 3bea c4bd 2759 d53c 4d29 e83c
000001b0: 18e9 6cbd 5afa fc3c 9869 40bd f21e 01be
000001c0: 4cc4 d1bd 0dbc bebc 8e0a 6c3d 3b13 f2bd
000001d0: be2a c83d 23fd 9ebd c19c 00be f984 c13d
000001e0: edc4 333a 9ddc d23c 819c 0b3d f475 843d
000001f0: 89b1 0cbe af81 e3bd 48a3 423d 06c0 4dbd
00000200: e108 ba3a 1ee0 6b3d 665d c5bb d459 4b3e
00000210: 01e3 083c 5b8e 22be 62ba 9bbd 567b 2b3c
00000220: f3f2 813d 0801 cabc 6da1 97bd 8c8b 32bd
00000230: 044f 8cbd d738 1b3d 4d67 debc a281 2b3c
00000240: 7d98 873d 93f4 63bb e669 9c3c bbdc 50bd
00000250: 7ab9 993c 5220 1cbb be83 713d e859 8f3c
00000260: ee1d dcbd aaa9 02bd bce3 c6bd 9ebe 073e
00000270: 5d60 acbd 19ce 4abb 1305 b83d eab0 b13c
00000280: 3e2d ec3d 6d3b 303e a826 55bc dc25 ad3b
00000290: 8c67 843d 9554 80bc 84ac 10bd 166f 45bd
000002a0: 5e4b adbc 9d92 113d 9062 2e3d 7135 6b3d
000002b0: 4c78 4b3d 61a2 4bbc ad59 f43c f57e f33d
000002c0: cea6 613d a0c3 e93d f42a ffbc 5bb4 923d
000002d0: a497 003e 7fd0 6abd 2955 43bc 74ba 29bd
000002e0: 004d 563d 8a95 063d 0b3f af3d 2f6d e0bd
000002f0: 8979 ce3d fcf0 e33c c982 b5bc 70c3 fd3c
00000300: bb28 593d 0a4a cd3c 79fd c2bd b073 3e3b
00000310: 1c65 a8bc e6f1 22b9 e15e 76bb 0b4b 413c
00000320: 153c 0dbc 8cd5 c13d 202d a0bd 9bb4 9ebd
00000330: 0755 0dbb d6ba edbc a39d 95bd 0bd4 a2bd
00000340: 2ec1 2ebe 3f0e 9dbd ae02 a1bd 163c b0bd
00000350: 7fc3 83bd 42a6 e23d 5db0 48bd a702 a73d
00000360: ee6b f6bc f9a6 7a3c 523b 03bd aeb6 27bd
00000370: c944 94bd 0197 84bd cc74 34bd d5aa d3bd
00000380: 02af c03d e9eb 1abe e696 b03d ee7c bd3c
00000390: 36f9 f1ba 1013 92bd a5ab 993c 8a16 113c
000003a0: 3d8e 87bd 5a21 553d 0c69 d4bc c295 3a3d
000003b0: 2842 b4bb c9e6 5a3d f469 333d e641 193d
000003c0: e05e 9f3c 8b2d 96bd 1352 a13d 2e2f 2b3e
000003d0: 0d90 993d 9ed3 54bd a520 223d fdfa f33c
000003e0: 04d9 d53d 2ff9 dc3b 3e03 103b fd0e b9bc
000003f0: d844 503d 32fb 8fbd 5236 debd a7c5 4fbd

h2h.bias f4 [242]
-0.024973137 -0.04914939 0.04806354 -0.061032195 -0.035748623 -0.020818291 0.03375195 0.013850195
0.018596824 -0.013966486 -0.049395114 -0.01106645 -0.024063913 -0.060736656 0.031121744 -0.035524346
0.013574477 0.044689268 0.038695913 0.01887106 -0.054245397 0.05480013 -0.00076094846 -0.00025106766
-0.02320665 -0.0035583035 -0.010499588 0.0071740053 -0.047336068 0.00277271 0.06623289 -0.0072406135
-0.036773305 0.0026842821 0.09696633 0.070834704 -0.0013965591 0.0071860123 -0.011983575 -0.041027725
0.028306993 0.018587619 -0.0047746045 -0.033849686 -0.04268012 -0.04337343 0.0035993247 0.06216514
-0.010304191 -0.004061343 -0.04836789 -0.0008028358 0.07217927 0.029650139 0.07199381 -0.022910481
0.03304308 -0.032920033 0.01886178 0.057254277 -0.03218084 0.028075064 0.03666155 -0.01114901
-0.03030537 0.035290506 -0.036965184 0.05911823 0.07880663 -0.019243032 -0.014692058 0.09076586
0.035405464 -0.056561593 0.058842767 0.020630507 -0.015594463 0.08242367 -0.010977385 0.029451296
0.011732442 0.036203805 -0.06667552 -0.065229654 -0.001334192 -0.037310883 0.08660851 8.2266335e-05
0.055069882 -0.036612816 0.0045839613 0.015463966 0.005189523 0.02843922 0.0071240584 0.04186013
0.036665015 0.03519016 0.012238631 -0.021770433 0.03660265 -0.0020647703 0.067654654 -0.046725795
-0.016822433 0.052851915 -0.0036600595 0.016360281 0.018117571 0.051303532 -0.005272237 -0.027215011
0.006988031 -0.030612832 -0.003294606 0.036101375 0.026775187 -0.01674779 0.05102496 0.021384727
-0.020953115 -0.04191775 -0.025730686 -0.019143011 0.024368716 0.022899527 -0.021728616 0.020008946
0.023318574 0.0018416164 0.0060729077 0.059344184 0.036012784 0.053071555 0.040721215 0.06539913
-0.022776827 0.0025127502 0.04482322 0.04263612 0.062604606 0.04256062 -0.004748309 -0.034408122
-0.013172329 -0.045391828 0.022387283 -0.029267991 -0.039776653 -0.04912306 -0.06026457 0.03786924
-0.024922157 -0.0394419 -0.012608876 0.034962837 0.025634473 0.0026385817 -0.007339647 0.045766853
0.007810719 -0.11883382 0.052592997 0.07890932 0.044732478 -0.047112826 0.009273472 -0.016087163
-0.007018254 0.036122814 0.025444973 -0.024321357 0.009079503 0.08564345 -0.05168449 -0.06837707
0.007560442 -0.022286607 0.035799235 0.02662215 0.051707417 -0.019433515 0.002750229 0.05524557
0.0022272784 0.016970051 0.031486914 0.06294816 -0.022314003 0.008325222 -0.03708306 0.030811913
-0.03522625 -0.026889035 -0.020294541 0.048460484 -0.033692002 -0.04383943 -0.059279345 0.074987605
0.04945714 -0.02907819 0.04373886 0.026683025 0.010115386 -0.009323081 0.0815817 0.016246617
0.08951079 0.009734112 0.05332081 0.028230812 0.021750558 0.05371678 -0.039703816 0.0077102133
0.016340202 0.008936377 0.0074771717 0.018542564 -0.0198315 -0.01139176 0.04249354 0.007446047
0.021156212 -0.0035131027 0.04072893 0.009295205 -0.040848717 0.052414283 -0.0057062646 -0.042202324
0.040955115 0.017928254 -0.02859919 -0.06093796 0.0034006408 0.016666045 0.034991566 -0.009809038
-0.009599068 -0.05318133
00000000: 7794 ccbc df50 49bd 46de 443d e5fc 79bd
00000010: 266d 12bd 1f8b aabc 7c3f 0a3d eeeb 623c
00000020: 5e58 983c b0d3 64bc 8852 4abd 0e50 35bc
00000030: af21 c5bc 00c7 78bd 07f3 fe3c fa81 11bd
00000040: 7c67 5e3c 180c 373d 9b7f 1e3d 7b97 9a3c
00000050: 6c30 5ebd 1a76 603d 637a 47ba bba1 83b9
00000060: df1b bebc 6d32 69bb 7706 2cbc eb13 eb3b
00000070: 77e3 41bd 5bb6 353b 1ca5 873d ab42 edbb
00000080: 9b9f 16bd c8ea 2f3b 4996 c63d c911 913d
00000090: bf0c b7ba a478 eb3b c256 44bc b00c 28bd
000000a0: 11e4 e73c 1045 983c 4974 9cbb f8a5 0abd
000000b0: 59d1 2ebd 56a8 31bd a6e2 6b3b e0a0 7e3d
000000c0: e9d2 28bc 0415 85bb 691d 46bd 6675 52ba
000000d0: bad2 933d d9e4 f23c 7e71 933d c3ae bbbc
000000e0: 2e58 073d 28d7 06bd 0584 9a3c 7683 6a3d
000000f0: 0ed0 03bd adfd e53c 6c2a 163d 56aa 36bc
00000100: f842 f8bc c78c 103d ce68 17bd f525 723d
00000110: 5f65 a13d 90a3 9dbc f5b6 70bc 74e3 b93d
00000120: 5205 113d 21ad 67bd 1d05 713d 4f01 a93c
00000130: eb7f 7fbc becd a83d 7dda 33bc d843 f13c
00000140: 6e39 403c 714a 143d 2d8d 88bd 2097 85bd
00000150: 0ee0 aeba 4cd3 18bd cd5f b13d 6786 ac38
00000160: f590 613d 52f7 15bd 0e35 963b 935c 7d3c
00000170: e00c aa3b 5ef9 e83c ef70 e93b 8775 2b3d
00000180: 0e2e 163d 8f23 103d 8a84 483c e857 b2bc
00000190: a9ec 153d 1951 07bb 868e 8a3d 8c63 3fbd
000001a0: 33cf 89bc 407b 583d 9cdd 6fbb ff05 863c
000001b0: 4d6b 943c a723 523d bbc2 acbb 04f2 debc
000001c0: dafb e43b c3c7 fabc 51ea 57bb 09df 133d
000001d0: a357 db3c a932 89bc 8cff 503d 062f af3c
000001e0: dea5 abbc f2b1 2bbd 29c9 d2bc ced1 9cbc
000001f0: e7a0 c73c ca97 bb3c 3600 b2bc cde9 a33c
00000200: 9806 bf3c 6462 f13a 3eff c63b e312 733d
00000210: 2482 133d 8f61 593d 4acb 263d fbef 853d
00000220: 7896 babc f4ac 243b 8e98 373d 36a3 2e3d
00000230: d836 803d 0b54 2e3d b497 9bbb 88ef 0cbd
00000240: c1d0 57bc c8ec 39bd 8965 b73c 6dc3 efbc
00000250: d8ec 22bd 4335 49bd fbd7 76bd c71c 1b3d
00000260: 8d29 ccbc d48d 21bd 7695 4ebc 3135 0f3d
00000270: 63ff d13c 0eec 2c3b 6c81 f0bb 0676 3b3d
00000280: 0ff1 ff3b 255f f3bd c16b 573d 369b a13d
00000290: 6739 373d 61f9 40bd c3ef 173c 3ac9 83bc
000002a0: 62f9 e5bb 84f5 133d fa71 d03c 953d c7bc
000002b0: 32c2 143c d565 af3d 1eb3 53bd 4709 8cbd
000002c0: 96bd f73b 6792 b6bc 38a2 123d b216 da3c
000002d0: 28cb 533d 0933 9fbc 303d 343b 2e49 623d
000002e0: 88f7 113b c704 8b3c 6cf8 003d f7ea 803d
000002f0: dbcb b6bc 8366 083c 68e4 17bd 4469 fc3c
00000300: 6649 10bd 6546 dcbc bd40 a6bc 807e 463d
00000310: a000 0abd f990 33bd e6ce 72bd 1a93 993d
00000320: 9293 4a3d 6235 eebc 8527 333d 5c96 da3c
00000330: 01bb 253c d6bf 18bc 4e14 a73d a017 853c
00000340: 6f51 b73d d37b 1f3c ec66 5a3d 4e44 e73c
00000350: 3a2e b23c 2006 5c3d 78a0 22bd f5a5 fc3b
00000360: e3db 853c e269 123c 1003 f53b 93e6 973c
00000370: ab75 a2bc 81a4 3abc b50d 2e3d f8fd f33b
00000380: cb4f ad3c 153c 66bb 61d3 263d ea4a 183c
00000390: fc50 27bd 5cb0 563d 9efb babb 58dc 2cbd
000003a0: 8dc0 273d 46de 923c d948 eabc 159a 79bd
000003b0: 49dd 5e3b 3b87 883c 5153 0f3d 16b6 20bc
000003c0: 6945 1dbc abd4 59bd
