TBCAS24/intuitivechip_classifier_lcsvsnlcs_run4/SNN_ep-150-isize-1-8-1-hsize-242-bsize-32-lr-0.001-tmax_ms-400.0-Ts-10.0-k-6-dsetPath-VMODE_allchannels_ALLCLASS_auto_nospkfilter_cleaned_12x16_9mvpp_250mvofs_onedac_itail_50nA_N4b_OFFmerg/chip-classifier-test-5-best.pt (torch, 253495 bytes, 8 tensors)

thr_h_1 f4 [242]
0	0x3f800000	1.0
1	0x3f800000	1.0
2	0x3f800000	1.0
3	0x3f800000	1.0
4	0x3f800000	1.0
5	0x3f800000	1.0
6	0x3f800000	1.0
7	0x3f800000	1.0
8	0x3f800000	1.0
9	0x3f800000	1.0
10	0x3f800000	1.0
11	0x3f800000	1.0
12	0x3f800000	1.0
13	0x3f800000	1.0
14	0x3f800000	1.0
15	0x3f800000	1.0
16	0x3f800000	1.0
17	0x3f800000	1.0
18	0x3f800000	1.0
19	0x3f800000	1.0
20	0x3f800000	1.0
21	0x3f800000	1.0
22	0x3f800000	1.0
23	0x3f800000	1.0
24	0x3f800000	1.0
25	0x3f800000	1.0
26	0x3f800000	1.0
27	0x3f800000	1.0
28	0x3f800000	1.0
29	0x3f800000	1.0
30	0x3f800000	1.0
31	0x3f800000	1.0
32	0x3f800000	1.0
33	0x3f800000	1.0
34	0x3f800000	1.0
35	0x3f800000	1.0
36	0x3f800000	1.0
37	0x3f800000	1.0
38	0x3f800000	1.0
39	0x3f800000	1.0
40	0x3f800000	1.0
41	0x3f800000	1.0
42	0x3f800000	1.0
43	0x3f800000	1.0
44	0x3f800000	1.0
45	0x3f800000	1.0
46	0x3f800000	1.0
47	0x3f800000	1.0
48	0x3f800000	1.0
49	0x3f800000	1.0
50	0x3f800000	1.0
51	0x3f800000	1.0
52	0x3f800000	1.0
53	0x3f800000	1.0
54	0x3f800000	1.0
55	0x3f800000	1.0
56	0x3f800000	1.0
57	0x3f800000	1.0
58	0x3f800000	1.0
59	0x3f800000	1.0
60	0x3f800000	1.0
61	0x3f800000	1.0
62	0x3f800000	1.0
63	0x3f800000	1.0
64	0x3f800000	1.0
65	0x3f800000	1.0
66	0x3f800000	1.0
67	0x3f800000	1.0
68	0x3f800000	1.0
69	0x3f800000	1.0
70	0x3f800000	1.0
71	0x3f800000	1.0
72	0x3f800000	1.0
73	0x3f800000	1.0
74	0x3f800000	1.0
75	0x3f800000	1.0
76	0x3f800000	1.0
77	0x3f800000	1.0
78	0x3f800000	1.0
79	0x3f800000	1.0
80	0x3f800000	1.0
81	0x3f800000	1.0
82	0x3f800000	1.0
83	0x3f800000	1.0
84	0x3f800000	1.0
85	0x3f800000	1.0
86	0x3f800000	1.0
87	0x3f800000	1.0
88	0x3f800000	1.0
89	0x3f800000	1.0
90	0x3f800000	1.0
91	0x3f800000	1.0
92	0x3f800000	1.0
93	0x3f800000	1.0
94	0x3f800000	1.0
95	0x3f800000	1.0
96	0x3f800000	1.0
97	0x3f800000	1.0
98	0x3f800000	1.0
99	0x3f800000	1.0
100	0x3f800000	1.0
101	0x3f800000	1.0
102	0x3f800000	1.0
103	0x3f800000	1.0
104	0x3f800000	1.0
105	0x3f800000	1.0
106	0x3f800000	1.0
107	0x3f800000	1.0
108	0x3f800000	1.0
109	0x3f800000	1.0
110	0x3f800000	1.0
111	0x3f800000	1.0
112	0x3f800000	1.0
113	0x3f800000	1.0
114	0x3f800000	1.0
115	0x3f800000	1.0
116	0x3f800000	1.0
117	0x3f800000	1.0
118	0x3f800000	1.0
119	0x3f800000	1.0
120	0x3f800000	1.0
121	0x3f800000	1.0
122	0x3f800000	1.0
123	0x3f800000	1.0
124	0x3f800000	1.0
125	0x3f800000	1.0
126	0x3f800000	1.0
127	0x3f800000	1.0
128	0x3f800000	1.0
129	0x3f800000	1.0
130	0x3f800000	1.0
131	0x3f800000	1.0
132	0x3f800000	1.0
133	0x3f800000	1.0
134	0x3f800000	1.0
135	0x3f800000	1.0
136	0x3f800000	1.0
137	0x3f800000	1.0
138	0x3f800000	1.0
139	0x3f800000	1.0
140	0x3f800000	1.0
141	0x3f800000	1.0
142	0x3f800000	1.0
143	0x3f800000	1.0
144	0x3f800000	1.0
145	0x3f800000	1.0
146	0x3f800000	1.0
147	0x3f800000	1.0
148	0x3f800000	1.0
149	0x3f800000	1.0
150	0x3f800000	1.0
151	0x3f800000	1.0
152	0x3f800000	1.0
153	0x3f800000	1.0
154	0x3f800000	1.0
155	0x3f800000	1.0
156	0x3f800000	1.0
157	0x3f800000	1.0
158	0x3f800000	1.0
159	0x3f800000	1.0
160	0x3f800000	1.0
161	0x3f800000	1.0
162	0x3f800000	1.0
163	0x3f800000	1.0
164	0x3f800000	1.0
165	0x3f800000	1.0
166	0x3f800000	1.0
167	0x3f800000	1.0
168	0x3f800000	1.0
169	0x3f800000	1.0
170	0x3f800000	1.0
171	0x3f800000	1.0
172	0x3f800000	1.0
173	0x3f800000	1.0
174	0x3f800000	1.0
175	0x3f800000	1.0
176	0x3f800000	1.0
177	0x3f800000	1.0
178	0x3f800000	1.0
179	0x3f800000	1.0
180	0x3f800000	1.0
181	0x3f800000	1.0
182	0x3f800000	1.0
183	0x3f800000	1.0
184	0x3f800000	1.0
185	0x3f800000	1.0
186	0x3f800000	1.0
187	0x3f800000	1.0
188	0x3f800000	1.0
189	0x3f800000	1.0
190	0x3f800000	1.0
191	0x3f800000	1.0
192	0x3f800000	1.0
193	0x3f800000	1.0
194	0x3f800000	1.0
195	0x3f800000	1.0
196	0x3f800000	1.0
197	0x3f800000	1.0
198	0x3f800000	1.0
199	0x3f800000	1.0
200	0x3f800000	1.0
201	0x3f800000	1.0
202	0x3f800000	1.0
203	0x3f800000	1.0
204	0x3f800000	1.0
205	0x3f800000	1.0
206	0x3f800000	1.0
207	0x3f800000	1.0
208	0x3f800000	1.0
209	0x3f800000	1.0
210	0x3f800000	1.0
211	0x3f800000	1.0
212	0x3f800000	1.0
213	0x3f800000	1.0
214	0x3f800000	1.0
215	0x3f800000	1.0
216	0x3f800000	1.0
217	0x3f800000	1.0
218	0x3f800000	1.0
219	0x3f800000	1.0
220	0x3f800000	1.0
221	0x3f800000	1.0
222	0x3f800000	1.0
223	0x3f800000	1.0
224	0x3f800000	1.0
225	0x3f800000	1.0
226	0x3f800000	1.0
227	0x3f800000	1.0
228	0x3f800000	1.0
229	0x3f800000	1.0
230	0x3f800000	1.0
231	0x3f800000	1.0
232	0x3f800000	1.0
233	0x3f800000	1.0
234	0x3f800000	1.0
235	0x3f800000	1.0
236	0x3f800000	1.0
237	0x3f800000	1.0
238	0x3f800000	1.0
239	0x3f800000	1.0
240	0x3f800000	1.0
241	0x3f800000	1.0

thr_o f4 [6]
0	0x3f800000	1.0
1	0x3f800000	1.0
2	0x3f800000	1.0
3	0x3f800000	1.0
4	0x3f800000	1.0
5	0x3f800000	1.0

i2h.weight f4 [242, 8]
0	0x3ddf2f16	0.10897653
1	0x3bac114d	0.005251086
2	0x3d1485bd	0.036260355
3	0x3d183dfb	0.037168484
4	0x3dc135e9	0.09434111
5	0xbd1808a6	-0.037117623
6	0xbde7ca18	-0.11317843
7	0x3defb709	0.11704833
8	0x3c9428c9	0.018085854
9	0x3aa63625	0.0012680931
10	0xbd29f76c	-0.041495726
11	0x3e1df113	0.15423994
12	0xbd385309	-0.045001063
13	0x3d5c3c15	0.053768236
14	0x3d3c2855	0.0459369
15	0xbda0d15b	-0.078524314
16	0x3e09b322	0.1344724
17	0x3d8f4bba	0.069968656
18	0xbcac2c2e	-0.02101716
19	0xbdd754b3	-0.10514202
20	0xbad568da	-0.0016281859
21	0x3b64f6e6	0.0034937202
22	0xbcd0162f	-0.025401203
23	0xbdc05d90	-0.09392846
24	0x3dc77a84	0.09740165
25	0x3e09d5c4	0.13460451
26	0xbdb52fc8	-0.08847004
27	0xbd22a8c0	-0.039711714
28	0x3bc3eb1a	0.005978954
29	0x3da0fa78	0.07860273
30	0xbdfcf021	-0.123504885
31	0x3e243dc5	0.16039188
32	0x3e041d91	0.12901904
33	0xbba37164	-0.0049878825
34	0xbdeb74a8	-0.1149686
35	0xbe14ea3b	-0.14542477
36	0x3e12fb5b	0.14353697
37	0x3d88b172	0.0667447
38	0xbd24084e	-0.040046982
39	0x3dd8c7bc	0.10584971
40	0x3d829758	0.06376523
41	0xbdabeedf	-0.083951704
42	0xbdb507d7	-0.08839386
43	0xbe40f709	-0.18844236
44	0x3de6a962	0.11262776
45	0xbdda4d29	-0.106592484
46	0xbde99547	-0.114054255
47	0x3d4f609f	0.050629254
48	0xbcd8c31a	-0.02646022
49	0x3e1c6458	0.15272653
50	0xbd8195e0	-0.063274145
51	0x3dc45454	0.09586397
52	0x3da2f83b	0.079575025
53	0x3d2c417c	0.04205464
54	0x3dcfff73	0.10156145
55	0xbd886327	-0.06659537
56	0xbc9da3b7	-0.019243104
57	0xbc74284d	-0.014902187
58	0xbc23c4a9	-0.009995618
59	0xbe055de2	-0.13024095
60	0x3da57f47	0.08080917
61	0xbe4f7126	-0.20258006
62	0xbe319ba2	-0.17344525
63	0x3cab1dcc	0.020888232
64	0x3e1a1220	0.15045977
65	0xbde24d92	-0.110499516
66	0x3dc58cbb	0.09645983
67	0x3e0a28a9	0.13492073
68	0xbdd64fc6	-0.10464434
69	0xbc070037	-0.008239797
70	0xbdf3c928	-0.11903602
71	0xbd91e99a	-0.07124634
72	0xbd4f3917	-0.050591554
73	0xbc10a686	-0.008828765
74	0xbe07dfec	-0.13269013
75	0xbdc8c50a	-0.09803207
76	0x3e1cee34	0.15325242
77	0xbcdaff2f	-0.02673301
78	0xbb8ce95e	-0.0043002805
79	0x3dd9e7b8	0.106399
80	0xbe0dcd1f	-0.13847779
81	0x3db4bcfa	0.08825107
82	0x3e199862	0.14999536
83	0xbc78883a	-0.015169198
84	0xbe0b8687	-0.13625537
85	0xbd823b5b	-0.063589774
86	0xba37e158	-0.0007014475
87	0x3d645d7f	0.055753227
88	0xbe15266e	-0.14565441
89	0xbd424966	-0.04743328
90	0xbe00be05	-0.12572487
91	0x3c477d3a	0.012175852
92	0xbc1f152e	-0.0097096395
93	0xbc9b60b2	-0.018967006
94	0x3dda89f4	0.10670844
95	0x3d0bad9b	0.03410111
96	0x3dd490c6	0.10379176
97	0xbdac3fb8	-0.08410591
98	0x3d1c1cf3	0.038113546
99	0x3d853e7d	0.06506059
100	0xbdfe6ca4	-0.12423065
101	0xbe03bbd0	-0.12864614
102	0xbdc368b8	-0.09541458
103	0xbd0c3bbc	-0.034236655
104	0xbdf95167	-0.121737294
105	0x3d9e3925	0.07725743
106	0xbdf12c67	-0.11776047
107	0x3d8e1f1b	0.06939527
108	0x3da83d0d	0.082147695
109	0x3a243b84	0.0006264972
110	0x3da7e345	0.08197645
111	0x3bb7842e	0.005600474
112	0x3d0bb5ba	0.034108855
113	0xbe061b9a	-0.13096467
114	0xbd204923	-0.03913225
115	0x3d9a28c4	0.07527307
116	0xbe02457f	-0.12721823
117	0x3db53388	0.088477194
118	0xbe05313d	-0.13007064
119	0x3da06a41	0.07832766
120	0x3c80602a	0.015670855
121	0x3ddc775f	0.10764956
122	0xbdd39600	-0.103313446
123	0xbd302344	-0.043002382
124	0xbd649b43	-0.05581213
125	0x3e1bddcd	0.15221329
126	0xbc622b87	-0.013804323
127	0xbd65468b	-0.05597548
128	0x3c970b18	0.018437907
129	0xbc3f9700	-0.011693716
130	0x3d6ef1c4	0.058336034
131	0xbd4d57d8	-0.050132602
132	0x3ccd60f6	0.025070649
133	0x3d6250b8	0.05525276
134	0x3ce100f8	0.027466282
135	0xbe1a3e3b	-0.15062802
136	0x3e15f4f9	0.14644231
137	0xbdb8afd0	-0.090179086
138	0xbe05fbd9	-0.13084354
139	0xbc97c83d	-0.018528098
140	0xbd6757ba	-0.056480147
141	0x3e11a93c	0.14224714
142	0xbb7c9841	-0.00385429
143	0x3d81b6e3	0.06333711
144	0x3dc7a5c7	0.097484164
145	0x3e033f64	0.1281715
146	0x3bdb55be	0.006693571
147	0xbd979f8d	-0.07403479
148	0x3dd40280	0.10352039
149	0xbc98c0c0	-0.018646598
150	0xbda76420	-0.08173394
151	0xbd04cd45	-0.032422323
152	0x3d7b578f	0.0613628
153	0x3d9df177	0.077120714
154	0x3d2d7479	0.042347405
155	0xbe37213a	-0.17883769
156	0xbe381897	-0.1797813
157	0x3da81d9e	0.08208774
158	0xbce8efc7	-0.028434647
159	0xbdef1c5d	-0.11675332
160	0x3ce2ee4a	0.027701516
161	0x3d18be83	0.03729106
162	0xbd9ba49b	-0.075997554
163	0x3daf22ee	0.08551584
164	0x3dff0c19	0.12453479
165	0x3dbb3735	0.09141389
166	0x3def94a9	0.116982765
167	0xbdea61c7	-0.11444431
168	0xbb80bfdd	-0.003929122
169	0xbd1199d8	-0.035547107
170	0x3e0134e5	0.12617834
171	0x3afac069	0.0019130829
172	0x3dddb74a	0.10825975
173	0x3da5003c	0.08056685
174	0xbe0f5c9d	-0.14000173
175	0xbe024038	-0.1271981
176	0x3d850221	0.06494547
177	0xbd17e50c	-0.03708367
178	0x3db61fa7	0.08892756
179	0x3e00f0da	0.12591878
180	0xbd71bd9a	-0.05901871
181	0x3de29d1c	0.110651225
182	0xbd3ec0e1	-0.046570662
183	0xbd59dc76	-0.053188764
184	0xbd5fafb0	-0.054610908
185	0x3dd3453a	0.10315938
186	0xbcf57d65	-0.02996702
187	0xbe1eb56f	-0.15498899
188	0x3e2a6499	0.16639937
189	0x3d82244b	0.063545786
190	0xbd91a541	-0.07111598
191	0xbb83df7d	-0.0040244446
192	0x3dcb29ad	0.099200584
193	0xbe183ac0	-0.14866161
194	0x3e062022	0.13098195
195	0x3e127cad	0.14305373
196	0x3bcb0bb8	0.0061964653
197	0xbde59597	-0.112101726
198	0x3de7fd98	0.11327666
199	0x3dd7f510	0.10544789
200	0x3e0f2e68	0.13982546
201	0x3d63aa93	0.055582594
202	0x3c6c7eca	0.014434526
203	0x3e1f4a8a	0.15555778
204	0xbdb52433	-0.08844795
205	0x3d94bf0c	0.07263002
206	0x3e0fc1c2	0.14038756
207	0x3d8dff67	0.0693348
208	0x3c754d68	0.014972068
209	0xbd11624a	-0.035494126
210	0xbe078bda	-0.13236943
211	0xbde9666b	-0.11396488
212	0x3e1e5c50	0.15464902
213	0x3e0e3078	0.13885677
214	0xbd84a00a	-0.064758375
215	0x3d83e3cd	0.06439934
216	0x3bf7b4ab	0.007559379
217	0x3c1da870	0.009622678
218	0xbe09ab82	-0.13444331
219	0xbd7eef4c	-0.06223993
220	0xbd1311dc	-0.035905704
221	0xbe094d8e	-0.13408491
222	0x3ccbfe07	0.024901403
223	0xbe1df211	-0.15424372
224	0xbe15eecc	-0.14641875
225	0xbdc50e2c	-0.09621844
226	0xbe126c53	-0.14299135
227	0xbe05b4b1	-0.1305721
228	0x3de79cbd	0.11309192
229	0xbdd282b8	-0.10278839
230	0xbca6836d	-0.02032634
231	0x3d389e70	0.045072973
232	0x3d94f145	0.07272581
233	0xbd956c42	-0.07296039
234	0xbd82c3cb	-0.06385001
235	0xbc2361df	-0.009972065
236	0x3ba9d688	0.005183045
237	0x3c1963d8	0.0093621835
238	0xbd6d045b	-0.05786548
239	0x3d66ff73	0.05639596
240	0x3d5caee2	0.05387772
241	0x3d1aa59e	0.0377556
242	0xbe083af8	-0.13303745
243	0xbb4e5ce8	-0.0031488482
244	0xbcbce926	-0.023060393
245	0xbd6b2d28	-0.05741611
246	0xbda77618	-0.081768215
247	0xbe175e25	-0.14782007
248	0x3d9b02a3	0.07568862
249	0xbd50c9c9	-0.050973687
250	0x3d83fbf2	0.06444539
251	0xbd9995fe	-0.07499312
252	0xbdf6dc18	-0.12053698
253	0xbcbb174d	-0.02283826
254	0x3e0cfcef	0.13768362
255	0x3e12b0d9	0.14325275

i2h.bias f4 [242]
0	0x3c49aec6	0.012309736
1	0xbbfc7fd8	-0.00770567
2	0x3c2dfd33	0.010619449
3	0x3c8dfa0e	0.01733115
4	0x3ce1a6a5	0.027545283
5	0xbc69944d	-0.014256549
6	0xbd004382	-0.03131438
7	0xbaf5ea59	-0.0018761858
8	0xbc9e40fc	-0.019318096
9	0x3c0784eb	0.008271436
10	0x3be280e7	0.006912339
11	0xbc6b3645	-0.014356201
12	0xbd04aed6	-0.0323933
13	0xbc281026	-0.010257756
14	0x3cd8766e	0.02642366
15	0x3b945846	0.0045271246
16	0xbc5f2cdd	-0.013621536
17	0xbae83465	-0.001771581
18	0x3c7406aa	0.014894167
19	0x3d02ace4	0.031903163
20	0xbc87ef41	-0.016593577
21	0x3c403f89	0.011733898
22	0x3d05d851	0.032677
23	0xbb94d56e	-0.0045420444
24	0xbc1f5f72	-0.009727346
25	0xbb90ca96	-0.0044186814
26	0x3d5d97ef	0.054099973
27	0xbb4ee874	-0.0031571658
28	0xba2f334f	-0.0006683366
29	0x3bc2f61e	0.0059497496
30	0x3ce1d5fe	0.02756786
31	0xbd0c72f6	-0.034289323
32	0x3cbb6809	0.022876756
33	0xbc3c82df	-0.0115058115
34	0x3b18b686	0.0023302152
35	0x3c88e7ae	0.016712036
36	0x3d00ae64	0.03141631
37	0x3b407d83	0.0029371686
38	0xbc9e7ead	-0.019347513
39	0x3cbec6cf	0.023288159
40	0xbc5c131c	-0.01343229
41	0xbbd7a321	-0.006580726
42	0xbb8e3109	-0.0043393415
43	0x3c25c4e3	0.010117742
44	0x3d04bc55	0.03240617
45	0xbbcebb0a	-0.006308918
46	0xbc7234cb	-0.014783095
47	0x3c9afe54	0.018920101
48	0x3ab95501	0.0014139713
49	0xbcf23f2c	-0.029571138
50	0xbbcd12b8	-0.006258335
51	0xbbb38f44	-0.005479725
52	0x3cc91f9a	0.024551202
53	0xbb537b5d	-0.0032269575
54	0xbd0c2011	-0.03421027
55	0x3c266b3f	0.010157405
56	0x3d172008	0.03689578
57	0x3b8d53d9	0.004312974
58	0xbc8bc06b	-0.017059525
59	0x3adf8421	0.0017052927
60	0xbca02c5e	-0.019552406
61	0x3d91a71d	0.071119525
62	0x3b1f5609	0.0024312756
63	0xbcef9ba3	-0.029249018
64	0xbc1f6412	-0.009728448
65	0x3bd7673f	0.006573587
66	0x3c917916	0.017757934
67	0xbb9a4468	-0.0047078617
68	0xbb86c6e1	-0.0041130637
69	0x3bf7c0fd	0.007560848
70	0xbc7c2d31	-0.015391634
71	0xbd0053df	-0.031329986
72	0xbbe1f71b	-0.0068959123
73	0x3d5149ad	0.051095653
74	0xbc5cc800	-0.013475418
75	0x3b545cef	0.0032404026
76	0x3c31abb6	0.010844162
77	0xbcb58c93	-0.022161758
78	0x3d76b4c6	0.060230993
79	0x3bff27ae	0.0077867126
80	0x3c0b81f4	0.00851487
81	0xbb5f5e17	-0.0034083182
82	0x3b846264	0.0040400494
83	0xbbc5ade3	-0.006032692
84	0x365ffe80	3.3377728e-06
85	0xbc818b43	-0.015813475
86	0xbbe942b6	-0.0071185483
87	0xbc85c1e8	-0.016327813
88	0xbccfaf86	-0.02535225
89	0xbc91e4b8	-0.017809257
90	0xbbe11ef3	-0.0068701445
91	0xbc285b46	-0.0102756675
92	0xbb2152d3	-0.0024616017
93	0x3c7340e0	0.01484701
94	0xbbd83f39	-0.0065993336
95	0xbc1d1ebe	-0.009589849
96	0x3d4b9818	0.049705595
97	0x3becfd17	0.007232319
98	0x3c08974b	0.008336852
99	0xbc0b5a9c	-0.00850549
100	0xbc0c8d25	-0.008578573
101	0xbb80cb52	-0.0039304877
102	0xbc37b4e4	-0.011212561
103	0xbc8334cb	-0.016016385
104	0x3b2177e6	0.0024638115
105	0xbb996cd8	-0.0046821646
106	0xb91c3e21	-0.00014900464
107	0xbc2a8b3f	-0.010409175
108	0xbc045117	-0.008075974
109	0xbb95f9ae	-0.0045768833
110	0xbbe49640	-0.006975919
111	0xbc2df24b	-0.010616849
112	0xbc46f11b	-0.012142445
113	0x3ba1a14f	0.0049325596
114	0x3c991f6a	0.018691737
115	0xbc3d1c47	-0.011542386
116	0x3d5e97d7	0.054344025
117	0xbc186ff8	-0.009304039
118	0xbb96ed2f	-0.004605911
119	0x3d0aba76	0.03386923
120	0x3d293ee7	0.041319754
121	0xbc2b4f19	-0.01045587
122	0x3bb19ff1	0.005420678
123	0x3d17b0d3	0.037033867
124	0xbbff4a10	-0.0077908114
125	0xbc5e807e	-0.01358044
126	0x3c555a4b	0.013022016
127	0xbb68b67a	-0.0035509155
128	0xbb5d8ffe	-0.003380775
129	0x3a1f93b6	0.00060873793
130	0x3bfec6ae	0.0077751493
131	0xbc84fd1b	-0.016233971
132	0x3bdd0ac8	0.00674567
133	0x3c16e374	0.0092095025
134	0x3c8ed56b	0.01743575
135	0xbc710de8	-0.014712788
136	0x3cf26372	0.029588435
137	0xb7077000	-8.072704e-06
138	0x3cfcbfcf	0.03085318
139	0xbbe3ee0f	-0.006955869
140	0x3b382ef6	0.0028104163
141	0x3c265f3a	0.01015454
142	0x3c609cd2	0.013709264
143	0xbc8800e9	-0.016601996
144	0x3ba2e29b	0.004970861
145	0x3c8637e0	0.016384065
146	0xbc207337	-0.009793094
147	0x3d32ba04	0.04363443
148	0x3c08d569	0.008351662
149	0x3ba469b5	0.005017484
150	0x3c0ca1ab	0.0085834665
151	0x3b275f21	0.002553888
152	0xbca61065	-0.02027149
153	0xbc963e60	-0.01834029
154	0x3ab66443	0.0013915378
155	0x3bb8203e	0.005619078
156	0xbbc143df	-0.0058979834
157	0xbb39045c	-0.0028231358
158	0xbc8ba6c1	-0.017047288
159	0x3da13701	0.07871819
160	0x3c2f95ea	0.010716895
161	0x3b935acd	0.0044969083
162	0x3caa98e7	0.020824863
163	0x3d9ee027	0.077575974
164	0x3aaa34dc	0.0012985724
165	0xbb856cd5	-0.0040718117
166	0xbc167054	-0.009182055
167	0xbc5d1651	-0.01349409
168	0x3aa5661f	0.0012618935
169	0x3bcceba4	0.0062536765
170	0x3d157e14	0.03649719
171	0xbbc1c75e	-0.005913659
172	0x3c4d1517	0.012517235
173	0x3d0c2a59	0.034220073
174	0xbca4743f	-0.020074962
175	0x3b6916a5	0.0035566476
176	0xbb4865f7	-0.0030578354
177	0x3c7ee404	0.015557293
178	0xbc77b4da	-0.015118802
179	0xbc8d2dbf	-0.017233727
180	0xbbd0314c	-0.006353533
181	0xbc32773c	-0.0108926855
182	0xbc91b0e6	-0.017784547
183	0x3b806542	0.003918321
184	0xbc9a68af	-0.018848745
185	0xbd437b6f	-0.047725137
186	0xbb1b8f24	-0.0023736442
187	0xbbc6a173	-0.0060617267
188	0x3bdfd02f	0.0068302373
189	0xbc9a5ab6	-0.018842082
190	0xbcadd258	-0.021218464
191	0x3c21c47f	0.0098735085
192	0x3c348c20	0.0110197365
193	0x3c585fb5	0.013206412
194	0xbc95327a	-0.018212546
195	0x3a912927	0.0011074886
196	0x3cc7f150	0.024407059
197	0xbc1bebac	-0.009516638
198	0x3b3ca351	0.0028783868
199	0xbc397765	-0.01131997
200	0x3c024d86	0.007953053
201	0xbc7fd0b6	-0.015613725
202	0xba9ead06	-0.0012106008
203	0xbc030259	-0.007996165
204	0xbc4e3c62	-0.012587639
205	0xbd216b95	-0.03940924
206	0xbca8c789	-0.020602958
207	0x3be22e6d	0.006902507
208	0x3d126862	0.03574408
209	0x39415a0d	0.00018439461
210	0x3cef913d	0.02924406
211	0xbc827f70	-0.015929908
212	0xbc8206dd	-0.015872413
213	0x3c04cec1	0.008105935
214	0xba64a9ef	-0.0008722832
215	0x3c0789e3	0.008272621
216	0xbcb3b9f9	-0.021939265
217	0xbaa6679c	-0.0012695673
218	0xbc5ecbf6	-0.013598433
219	0xba032809	-0.0005003219
220	0x3a801ac3	0.0009773601
221	0xb90fe882	-0.00013724159
222	0xbb7da04e	-0.0038700285
223	0xbc8de7b7	-0.017322404
224	0xbca3df2c	-0.020003878
225	0xbc12490b	-0.008928548
226	0xbbee2f73	-0.00726884
227	0x3c10d474	0.008839715
228	0x34d93d00	4.0463783e-07
229	0x3bdb9e94	0.0067022536
230	0x3c9972b3	0.01873145
231	0xbcfc3733	-0.03078804
232	0xbc42ac1f	-0.011881857
233	0xbba0bed2	-0.00490556
234	0xbb98eb39	-0.0046667126
235	0xbc3c6fa1	-0.011501224
236	0x3ca41551	0.020029696
237	0xbac77021	-0.0015215912
238	0x3b95adc0	0.0045678318
239	0xbc002cd2	-0.007823186
240	0x3bc77569	0.0060869944
241	0xbce31619	-0.027720498

h2o.weight f4 [6, 242]
0	0xbdad5caa	-0.0846494
1	0xbe4482b7	-0.19190489
2	0x3cbe38f6	0.02322052
3	0xbd338656	-0.043829285
4	0xbdc73f01	-0.09728814
5	0x3ddeefd6	0.10885589
6	0x3e2502e1	0.1611438
7	0xbd1fbdc4	-0.038999334
8	0x3dab8470	0.0837487
9	0xbcaaa471	-0.020830365
10	0xbd2b7b13	-0.04186542
11	0xbcfddb71	-0.030988427
12	0xbdb7b2e5	-0.08969668
13	0x3dfc13fa	0.12308498
14	0xbd75e3cc	-0.060031697
15	0x3dd18161	0.10229755
16	0x3d1903b1	0.037357036
17	0x3dfc3e63	0.12316587
18	0xbdfa4e74	-0.12221995
19	0xbd999528	-0.074991524
20	0x3e0d5227	0.1380087
21	0x3d4ea11e	0.050446622
22	0xbd35cfd2	-0.044387646
23	0x3c2cd3f2	0.010548579
24	0x3e0a80d8	0.13525712
25	0x3bd69b52	0.0065492773
26	0x3ba850af	0.0051365714
27	0x3d163fde	0.036682002
28	0x3cac402e	0.021026697
29	0xbd15828c	-0.036501452
30	0x3d9cfc5c	0.07665321
31	0x3ddfe7f3	0.10932913
32	0xbd347e4f	-0.04406577
33	0x3dad3ee9	0.08459265
34	0xbd83ad33	-0.064295195
35	0xbdd2b21c	-0.10287878
36	0x3c108327	0.008820332
37	0xbdd6811a	-0.10473843
38	0x3d99a83d	0.07502792
39	0xbc3fd025	-0.01170734
40	0x3e124b35	0.14286502
41	0x3e251884	0.16122633
42	0xbcc79294	-0.024361886
43	0xbda90fa1	-0.08254934
44	0xbd5267e1	-0.051368598
45	0x3e19c446	0.15016279
46	0xbcce0dd5	-0.02515308
47	0x3c563902	0.013075115
48	0xbe273b64	-0.1633125
49	0x3dfb8c1e	0.122825846
50	0x3ca72252	0.020402107
51	0x3d4203f1	0.04736704
52	0xbdc636f4	-0.0967845
53	0xbe0250f2	-0.1272619
54	0x3e0ad94a	0.13559452
55	0xbdf89734	-0.12138215
56	0x3d5c06ad	0.053717304
57	0xbd444d95	-0.04792555
58	0x3d48c7e2	0.049018748
59	0x3da8feee	0.08251749
60	0xbb373bce	-0.002795923
61	0x3c5f1172	0.013614999
62	0xbbee5154	-0.0072728787
63	0x3df6628b	0.12030514
64	0xbc66cf3d	-0.014087495
65	0xbe08568f	-0.1331427
66	0xbda43601	-0.08018113
67	0xbdcf376d	-0.101179935
68	0xbcad306d	-0.021141255
69	0xbd9124d6	-0.07087104
70	0xbd3771c9	-0.04478625
71	0x3d5fa714	0.054602697
72	0xbcb5fd9a	-0.022215653
73	0xbd3de4c6	-0.046360753
74	0xbd738b46	-0.059458993
75	0xbdcd1e1b	-0.10015508
76	0xbe1fb8c9	-0.15597834
77	0x3e0830ee	0.13299915
78	0xbc268da5	-0.010165607
79	0xbe19fb67	-0.15037309
80	0xbdc924b1	-0.098214515
81	0xbe195a1b	-0.14975779
82	0xbd2cd25e	-0.04219281
83	0x3ceed8ed	0.029156173
84	0xbd2c7e42	-0.042112596
85	0x3d902f34	0.07040253
86	0x3df8bf5d	0.12145875
87	0xbd66cc36	-0.056347094
88	0xbdc20ccb	-0.09475096
89	0xbdbf9d58	-0.09356183
90	0x3de235d9	0.11045427
91	0x3dc98e80	0.09841633
92	0x3da2afaf	0.07943665
93	0xbcfee3e3	-0.031114524
94	0x3e0f194e	0.13974497
95	0x3c35939f	0.011082559
96	0xbd29e5ab	-0.041478794
97	0xbd3c8476	-0.046024762
98	0xbe153f30	-0.14574885
99	0xbd5c178c	-0.053733394
100	0x3e05d630	0.13069987
101	0xbdbce8f6	-0.09224121
102	0x3dc77434	0.09738961
103	0x3baf6f44	0.00535384
104	0xbd67d138	-0.05659601
105	0x3d85bc1c	0.0653002
106	0xbde9b526	-0.114115044
107	0x3de617ec	0.112350315
108	0xbd3c0ec8	-0.045912534
109	0xbd4de8a6	-0.0502707
110	0xbcf65168	-0.030068114
111	0x3e0ec33e	0.13941666
112	0xbc772a6e	-0.0150858
113	0xbda57cd7	-0.08080452
114	0xbc5ae607	-0.013360507
115	0x3d033071	0.03202862
116	0xbe01ddf6	-0.12682328
117	0x3c82df37	0.015975578
118	0x3de32b82	0.11092283
119	0x3d90bb33	0.070669554
120	0xbc5d5352	-0.013508635
121	0x3dd991f6	0.10623543
122	0x3df52a5c	0.1197097
123	0x3d2a6536	0.04160043
124	0xbd91e434	-0.071236044
125	0xbe1d3cdb	-0.15355246
126	0xbd98cf99	-0.07461471
127	0x3c87df91	0.016586097
128	0xbcda666a	-0.026660163
129	0xbdd80db4	-0.10549489
130	0x3d75ef8c	0.060042903
131	0x3df14b03	0.117818855
132	0xbce19c57	-0.027540369
133	0xbd11c2de	-0.03558623
134	0xbddd3bb8	-0.10802406
135	0xbda0286b	-0.07820209
136	0xbde96491	-0.11396135
137	0x3e0d406b	0.13794105
138	0xbd86fa65	-0.06590728
139	0xbdf9317c	-0.121676415
140	0xbdd5e615	-0.10444275
141	0xbdc783bc	-0.09741923
142	0x3e1077c5	0.14108188
143	0x3daaba8c	0.08336362
144	0x3df9c3cb	0.12195548
145	0x3d8e4b65	0.06947974
146	0x3e09d225	0.1345907
147	0x3d89eb34	0.067343146
148	0x3d0b7918	0.03405103
149	0x3e1279d6	0.14304289
150	0x3d437d21	0.047726754
151	0xba3359e9	-0.0006841706
152	0x3dae5913	0.08513083
153	0x3d719eae	0.05898922
154	0xbc098e56	-0.008395752
155	0x3e0b6f28	0.13616621
156	0x3d58c609	0.052923236
157	0x3dbcacdf	0.0921266
158	0x3e24be6b	0.16088264
159	0xbe1c06a4	-0.15236908
160	0x3de169bd	0.11006496
161	0x3ab6f0bd	0.0013957244
162	0xbdc9a53b	-0.09845968
163	0x3e0d7ee3	0.13817935
164	0x3d839431	0.0642475
165	0x3bd44598	0.006478023
166	0x3d7c1134	0.061539844
167	0x3e0bb10d	0.13641758
168	0x3ca10008	0.019653335
169	0xbd0c96eb	-0.034323614
170	0x3d2a379b	0.041556936
171	0xbd20ee99	-0.039290044
172	0x3bafdeb2	0.0053671235
173	0xbd22126b	-0.039568346
174	0x3de7df40	0.113218784
175	0x3cd825b0	0.026385158
176	0xbafb2003	-0.001915932
177	0xbdce9cb9	-0.10088486
178	0x3d7e109e	0.062027566
179	0xbb9f166e	-0.0048549687
180	0x3d1f9305	0.038958568
181	0xbe0a824e	-0.1352627
182	0xbccb1698	-0.024791047
183	0xbd38519d	-0.044999707
184	0x3d720332	0.05908508
185	0x3ddfa39e	0.109198794
186	0x3e214ad3	0.157512
187	0xbe0d2ef2	-0.1378744
188	0xbdd00ec2	-0.10159065
189	0x3df7fd85	0.12108902
190	0xbd7a22e6	-0.061068438
191	0x3e0bce77	0.13652979
192	0xbd955732	-0.07292022
193	0xbe2da02b	-0.1695563
194	0x3e4d2f8e	0.20037672
195	0x3d85b58f	0.0652877
196	0xbd9e0051	-0.07714904
197	0x3d37eb61	0.04490221
198	0x3e4483ed	0.1919095
199	0x3dea423b	0.11438414
200	0xba5883e6	-0.00082594005
201	0x3d12a78a	0.03580431
202	0xbd7272fa	-0.05919168
203	0xbce55c52	-0.027998123
204	0x3db2d2df	0.08731627
205	0x3dbf999a	0.09355469
206	0x3d7ec11a	0.062195875
207	0xbdf0496c	-0.11732754
208	0xbdfe78ef	-0.1242541
209	0xbdf3d011	-0.1190492
210	0x3cd04173	0.025421834
211	0xbd58b9d2	-0.052911587
212	0x3e176d9f	0.14787911
213	0xbd8ab286	-0.06772332
214	0xbdd2b8ad	-0.1028913
215	0xbdda9d4c	-0.10674533
216	0x3d85917f	0.06521892
217	0xbdd37f01	-0.103269584
218	0xbd1f26ad	-0.038855243
219	0xbc73aba3	-0.014872464
220	0x3de1782a	0.110092476
221	0xbdf31912	-0.11870016
222	0xbd8fce23	-0.07021739
223	0xbe01bf05	-0.12670524
224	0x3e10f978	0.14157665
225	0xbdc7672e	-0.09736477
226	0xbe055042	-0.13018897
227	0xbd4e14a8	-0.050312668
228	0xbbf3c5e2	-0.007439361
229	0x3d203c68	0.039120108
230	0x3ca1870a	0.019717712
231	0x3c595e60	0.01326713
232	0x3e0d2d41	0.13786794
233	0x3e3cc4f0	0.184345
234	0xbcd80279	-0.026368367
235	0xbd8ea414	-0.06964889
236	0xbe34af31	-0.17644955
237	0xbd9e0e3d	-0.077175595
238	0xbd24e244	-0.040254846
239	0xbdb39600	-0.087688446
240	0xbdf74209	-0.12073142
241	0x3d9010ad	0.07034431
242	0x3df8e53f	0.121531
243	0x3df67a97	0.12035101
244	0xbd9529c7	-0.07283359
245	0xbc72f2b3	-0.014828372
246	0x3e07cf87	0.13262759
247	0xbe338aa8	-0.17533362
248	0x3e04e9fa	0.1297988
249	0x3d22c8ec	0.039742395
250	0xbd7c8945	-0.061654348
251	0x3dfb9e6b	0.12286075
252	0xba9146aa	-0.0011083682
253	0xbdff39bd	-0.124621846
254	0xbdefb4f7	-0.11704438
255	0xbe114463	-0.14186244

h2o.bias f4 [6]
0	0xbc7df4db	-0.015500273
1	0x3c93f253	0.018059885
2	0x3c950c9c	0.01819449
3	0xbb1d2955	-0.0023980935
4	0xbc07c33b	-0.008286293
5	0x3ad21ed8	0.0016030921

h2h.weight f4 [242, 242]
0	0xbb6dfe69	-0.003631497
1	0x3e05738d	0.1303236
2	0xbcbf03ab	-0.023317179
3	0x3d88b4a1	0.06675077
4	0x3d8795a7	0.06620341
5	0x3d481e74	0.048857167
6	0x3c8f83e0	0.017518938
7	0xbbd83241	-0.0065977876
8	0xbd8b2baf	-0.06795441
9	0x3e026acf	0.12736057
10	0x3c969a54	0.018384136
11	0xbdca985b	-0.09892341
12	0x3cc27f3b	0.023742309
13	0xbe32be99	-0.1745552
14	0xbe252569	-0.16127552
15	0x3cf3041e	0.02966505
16	0xbd304b3d	-0.043040503
17	0x3da317f7	0.07963555
18	0x3d39faf0	0.04540533
19	0x3d296245	0.041353483
20	0xbd8b2207	-0.067935996
21	0x3d4dd8d2	0.050255604
22	0x3cca7a9b	0.024716666
23	0x3cbe71fa	0.023247708
24	0x3d9272c0	0.07150793
25	0xbd38aa47	-0.045084264
26	0x3dbbc550	0.09168494
27	0x3d1ca0f6	0.03823944
28	0x3b496b80	0.003073424
29	0xbd5a0379	-0.053225968
30	0xbc98fcb3	-0.018675184
31	0xbc0a0f3d	-0.008426485
32	0x3d66ae0d	0.05631833
33	0x3df7ca32	0.120991126
34	0xbd9c5492	-0.07633318
35	0x3e00e0f5	0.12585814
36	0x3dde267a	0.108471826
37	0x3caf1e8c	0.02137687
38	0xbc289899	-0.010290288
39	0xbd7816e0	-0.06056869
40	0xbbfb4705	-0.0076683783
41	0x3d4b578a	0.04964403
42	0xbb16d911	-0.0023017565
43	0xbd1ed789	-0.03877977
44	0x3d19f55f	0.03758752
45	0xbd8fe834	-0.07026711
46	0xbadfd85d	-0.0017078031
47	0xbddd4df2	-0.108058825
48	0x3cc960b5	0.024582246
49	0xbde0a955	-0.109697975
50	0x3d570cd4	0.05250247
51	0x3d32db32	0.043666072
52	0x3cdf1515	0.027231732
53	0xbe472af3	-0.19449978
54	0x3d2e428c	0.042543933
55	0x3d5d574f	0.054038342
56	0xbdab48e7	-0.083635144
57	0xbd589cbe	-0.052883856
58	0xbdef7e3a	-0.11693998
59	0xbe297e75	-0.16552146
60	0x3d6bd80a	0.057579078
61	0x3ce6deeb	0.028182467
62	0x3d4a0486	0.04932072
63	0x3cb58815	0.022159616
64	0xbda79e02	-0.081844345
65	0xbc8fff50	-0.017577797
66	0x3b356c97	0.0027683133
67	0x3cba0c43	0.022710925
68	0x3d780a87	0.060556915
69	0xbd3d4f5f	-0.046218272
70	0x3d615d9d	0.055020917
71	0x3d42264c	0.047399804
72	0x3cfb34f3	0.030664897
73	0x3ce9b72f	0.028529732
74	0xbd996e9a	-0.07491799
75	0x3db4de87	0.08831506
76	0xbd821dea	-0.06353362
77	0xbc7f1023	-0.015567812
78	0xbdca46bd	-0.098767735
79	0xbc3dfd92	-0.0115961
80	0xbdb48fd0	-0.088164926
81	0x3c9af42d	0.01891526
82	0xbd3c8862	-0.046028502
83	0x3e191d2b	0.14952533
84	0xbc4b9fcc	-0.012428235
85	0xbdcc1633	-0.09965172
86	0xbd584e9d	-0.052809346
87	0x3d0619c2	0.03273941
88	0x3d8ddf29	0.0692733
89	0xbd515222	-0.05110372
90	0xbcde341c	-0.027124457
91	0x3dc68297	0.09692877
92	0x3c73a385	0.014870529
93	0x3d76a7e1	0.060218696
94	0x3ca00620	0.01953417
95	0xbd70144d	-0.05861311
96	0x3d36a3a6	0.04458966
97	0x3cbe31b4	0.02321706
98	0x3c462675	0.01209413
99	0x3cc843a9	0.024446325
100	0x3e136654	0.14394504
101	0xbc26c5f0	-0.010179028
102	0xbdd01a5b	-0.10161277
103	0xbd76e823	-0.060279977
104	0xbc060288	-0.008179314
105	0xbd96c51d	-0.07361815
106	0xbcd74dbe	-0.026282188
107	0xbc2d29e5	-0.0105690705
108	0xbcbad53c	-0.022806756
109	0x3e3cc067	0.1843277
110	0x3bc8c540	0.0061270297
111	0xbd9020a4	-0.07037476
112	0x3d4289cf	0.047494706
113	0xbd4444a2	-0.047917016
114	0xbc94c6c3	-0.018161183
115	0x3d78f40d	0.06077962
116	0xbdd86679	-0.1056642
117	0x3a54fd2f	0.00081248855
118	0xbdb2d9fd	-0.08732984
119	0x3d408c34	0.047008708
120	0xbd6216e6	-0.05519762
121	0xbd94d3a8	-0.07266933
122	0x3cd58769	0.026065545
123	0x3e489762	0.19588998
124	0x3c02019d	0.007934955
125	0xbcf25ca2	-0.029585186
126	0x3c9f68bd	0.019459123
127	0x3d8e44b2	0.06946696
128	0x3d380889	0.044930015
129	0xbe0fb268	-0.140329
130	0x3d52faa2	0.051508553
131	0x3d5b3029	0.053512726
132	0x3c5a8298	0.0133368
133	0xbda53ad5	-0.08067862
134	0xbdafa2f9	-0.085760064
135	0x3cee8f74	0.029121138
136	0xbdaa82ae	-0.083257064
137	0x3de3f337	0.11130374
138	0xbdc6dc33	-0.097099684
139	0x3ba517a5	0.005038219
140	0xbca24300	-0.019807339
141	0x3d8f8fc2	0.070098415
142	0x3daa48a0	0.08314633
143	0x3de1182e	0.1099094
144	0x3de54d02	0.11196329
145	0x3d440f61	0.04786623
146	0x3d9e5608	0.07731253
147	0xbdf445cd	-0.11927376
148	0xbd518b4e	-0.051158242
149	0xbb826ce9	-0.0039802683
150	0x3df3963b	0.118938886
151	0x3d141479	0.036152337
152	0xbd6654c7	-0.056233194
153	0x3d5d0a8a	0.05396513
154	0x3c9e7b84	0.019346006
155	0xbe0cc3b6	-0.13746533
156	0x3d2e2d40	0.042523623
157	0xbdd11cdb	-0.10210582
158	0xbc8113f7	-0.01575659
159	0x3d0756e1	0.03304184
160	0x3aaea6bb	0.0013324836
161	0xbd738bc3	-0.05945946
162	0x3d7244f0	0.059147775
163	0x3c58eb9f	0.01323977
164	0xbdacc692	-0.08436312
165	0xbcf3182f	-0.029674618
166	0xbda731e6	-0.08163814
167	0x3d60f403	0.054920208
168	0xbd065ac1	-0.032801393
169	0x3d6d813f	0.057984587
170	0x3b65a61c	0.0035041636
171	0x3bd264e4	0.0064207185
172	0xbc7d7d18	-0.015471719
173	0xbba84082	-0.005134643
174	0xbbf9e287	-0.007625881
175	0xbd80c89b	-0.062882625
176	0x3df7bf67	0.12097054
177	0x3d010d9e	0.031507127
178	0xbd8c5e1e	-0.06853889
179	0x3db7329d	0.089452006
180	0x3ce06046	0.027389657
181	0xbd7d1344	-0.06178595
182	0xbc3e0870	-0.011598691
183	0x3c55b00d	0.013042462
184	0xbd7d11c8	-0.061784536
185	0xbd86c951	-0.06581367
186	0x3c0800f0	0.008301005
187	0xbdbc8be8	-0.092063725
188	0x3d6f8bec	0.05848305
189	0x3d9ca016	0.076477215
190	0x3e04223c	0.12903684
191	0x3d359e38	0.044340342
192	0xbc8c3931	-0.017117115
193	0x3e364e30	0.17803264
194	0xbe23a2d2	-0.1598008
195	0xbdc5ecfb	-0.09664341
196	0xbd3edbde	-0.0465964
197	0xbc6a1582	-0.014287354
198	0xbdcb77c6	-0.09934954
199	0xbdc145ec	-0.09437165
200	0x3bb1e032	0.0054283375
201	0xbd641663	-0.055685412
202	0x3d8a428b	0.06750973
203	0x3d2b28a7	0.041786816
204	0x3d301ff2	0.042999215
205	0x3c9a2046	0.018814217
206	0x3d02d24b	0.031938832
207	0x3df9edd6	0.12203567
208	0x3d292981	0.041299347
209	0x3ba35ffc	0.0049858075
210	0xbcabcb1a	-0.02097087
211	0xbd755ca4	-0.059902802
212	0xbd22c4f0	-0.039738595
213	0xbd9474b1	-0.072488196
214	0x3d3813d0	0.04494077
215	0xbd9cbae4	-0.07652834
216	0xbd276288	-0.04086545
217	0xbd478418	-0.04870996
218	0xbda12a75	-0.07869426
219	0x3d4c6832	0.049904056
220	0x3cef5500	0.029215336
221	0x3bd65b58	0.0065416507
222	0xbd6e073d	-0.05811237
223	0xbddae9cd	-0.10689125
224	0xbd141951	-0.036156956
225	0xbdb4992f	-0.0881828
226	0xbcd8a1aa	-0.026444275
227	0x3d45df97	0.048308935
228	0xbd0cd6b4	-0.034384444
229	0x3d329b3d	0.043605078
230	0x3d55860b	0.052129786
231	0xbd9c4b8b	-0.07631596
232	0xbd34ba3f	-0.04412293
233	0xbd12af65	-0.0358118
234	0x3c1c1e5c	0.009528723
235	0xbdc3cf90	-0.09561074
236	0xbdcd6f71	-0.100310214
237	0x3a169d49	0.0005745483
238	0x3cf56857	0.02995698
239	0xbd2a3d57	-0.041562404
240	0xbcbf96ad	-0.023387277
241	0xbc12223e	-0.008919297
242	0xbd2151d8	-0.039384693
243	0x3dc11580	0.09427929
244	0xbcae3686	-0.021266233
245	0x3cd71474	0.02625487
246	0x3cad7c7c	0.021177523
247	0x3cf98cb5	0.030462602
248	0xbcc4d770	-0.02402851
249	0xbda38f43	-0.079863094
250	0x3d234d54	0.039868668
251	0x3d1b5787	0.03792527
252	0xbb2016bd	-0.0024427616
253	0x3d7e31c8	0.062059194
254	0x3ca5ee8d	0.020255351
255	0xbd049ec0	-0.03237796

h2h.bias f4 [242]
0	0x3c49aec6	0.012309736
1	0xbbfc7fd8	-0.00770567
2	0x3c2dfd33	0.010619449
3	0x3c8dfa0e	0.01733115
4	0x3ce1a6a5	0.027545283
5	0xbc69944d	-0.014256549
6	0xbd004382	-0.03131438
7	0xbaf5ea59	-0.0018761858
8	0xbc9e40fc	-0.019318096
9	0x3c0784eb	0.008271436
10	0x3be280e7	0.006912339
11	0xbc6b3645	-0.014356201
12	0xbd04aed6	-0.0323933
13	0xbc281026	-0.010257756
14	0x3cd8766e	0.02642366
15	0x3b945846	0.0045271246
16	0xbc5f2cdd	-0.013621536
17	0xbae83465	-0.001771581
18	0x3c7406aa	0.014894167
19	0x3d02ace4	0.031903163
20	0xbc87ef41	-0.016593577
21	0x3c403f89	0.011733898
22	0x3d05d851	0.032677
23	0xbb94d56e	-0.0045420444
24	0xbc1f5f72	-0.009727346
25	0xbb90ca96	-0.0044186814
26	0x3d5d97ef	0.054099973
27	0xbb4ee874	-0.0031571658
28	0xba2f334f	-0.0006683366
29	0x3bc2f61e	0.0059497496
30	0x3ce1d5fe	0.02756786
31	0xbd0c72f6	-0.034289323
32	0x3cbb6809	0.022876756
33	0xbc3c82df	-0.0115058115
34	0x3b18b686	0.0023302152
35	0x3c88e7ae	0.016712036
36	0x3d00ae64	0.03141631
37	0x3b407d83	0.0029371686
38	0xbc9e7ead	-0.019347513
39	0x3cbec6cf	0.023288159
40	0xbc5c131c	-0.01343229
41	0xbbd7a321	-0.006580726
42	0xbb8e3109	-0.0043393415
43	0x3c25c4e3	0.010117742
44	0x3d04bc55	0.03240617
45	0xbbcebb0a	-0.006308918
46	0xbc7234cb	-0.014783095
47	0x3c9afe54	0.018920101
48	0x3ab95501	0.0014139713
49	0xbcf23f2c	-0.029571138
50	0xbbcd12b8	-0.006258335
51	0xbbb38f44	-0.005479725
52	0x3cc91f9a	0.024551202
53	0xbb537b5d	-0.0032269575
54	0xbd0c2011	-0.03421027
55	0x3c266b3f	0.010157405
56	0x3d172008	0.03689578
57	0x3b8d53d9	0.004312974
58	0xbc8bc06b	-0.017059525
59	0x3adf8421	0.0017052927
60	0xbca02c5e	-0.019552406
61	0x3d91a71d	0.071119525
62	0x3b1f5609	0.0024312756
63	0xbcef9ba3	-0.029249018
64	0xbc1f6412	-0.009728448
65	0x3bd7673f	0.006573587
66	0x3c917916	0.017757934
67	0xbb9a4468	-0.0047078617
68	0xbb86c6e1	-0.0041130637
69	0x3bf7c0fd	0.007560848
70	0xbc7c2d31	-0.015391634
71	0xbd0053df	-0.031329986
72	0xbbe1f71b	-0.0068959123
73	0x3d5149ad	0.051095653
74	0xbc5cc800	-0.013475418
75	0x3b545cef	0.0032404026
76	0x3c31abb6	0.010844162
77	0xbcb58c93	-0.022161758
78	0x3d76b4c6	0.060230993
79	0x3bff27ae	0.0077867126
80	0x3c0b81f4	0.00851487
81	0xbb5f5e17	-0.0034083182
82	0x3b846264	0.0040400494
83	0xbbc5ade3	-0.006032692
84	0x365ffe80	3.3377728e-06
85	0xbc818b43	-0.015813475
86	0xbbe942b6	-0.0071185483
87	0xbc85c1e8	-0.016327813
88	0xbccfaf86	-0.02535225
89	0xbc91e4b8	-0.017809257
90	0xbbe11ef3	-0.0068701445
91	0xbc285b46	-0.0102756675
92	0xbb2152d3	-0.0024616017
93	0x3c7340e0	0.01484701
94	0xbbd83f39	-0.0065993336
95	0xbc1d1ebe	-0.009589849
96	0x3d4b9818	0.049705595
97	0x3becfd17	0.007232319
98	0x3c08974b	0.008336852
99	0xbc0b5a9c	-0.00850549
100	0xbc0c8d25	-0.008578573
101	0xbb80cb52	-0.0039304877
102	0xbc37b4e4	-0.011212561
103	0xbc8334cb	-0.016016385
104	0x3b2177e6	0.0024638115
105	0xbb996cd8	-0.0046821646
106	0xb91c3e21	-0.00014900464
107	0xbc2a8b3f	-0.010409175
108	0xbc045117	-0.008075974
109	0xbb95f9ae	-0.0045768833
110	0xbbe49640	-0.006975919
111	0xbc2df24b	-0.010616849
112	0xbc46f11b	-0.012142445
113	0x3ba1a14f	0.0049325596
114	0x3c991f6a	0.018691737
115	0xbc3d1c47	-0.011542386
116	0x3d5e97d7	0.054344025
117	0xbc186ff8	-0.009304039
118	0xbb96ed2f	-0.004605911
119	0x3d0aba76	0.03386923
120	0x3d293ee7	0.041319754
121	0xbc2b4f19	-0.01045587
122	0x3bb19ff1	0.005420678
123	0x3d17b0d3	0.037033867
124	0xbbff4a10	-0.0077908114
125	0xbc5e807e	-0.01358044
126	0x3c555a4b	0.013022016
127	0xbb68b67a	-0.0035509155
128	0xbb5d8ffe	-0.003380775
129	0x3a1f93b6	0.00060873793
130	0x3bfec6ae	0.0077751493
131	0xbc84fd1b	-0.016233971
132	0x3bdd0ac8	0.00674567
133	0x3c16e374	0.0092095025
134	0x3c8ed56b	0.01743575
135	0xbc710de8	-0.014712788
136	0x3cf26372	0.029588435
137	0xb7077000	-8.072704e-06
138	0x3cfcbfcf	0.03085318
139	0xbbe3ee0f	-0.006955869
140	0x3b382ef6	0.0028104163
141	0x3c265f3a	0.01015454
142	0x3c609cd2	0.013709264
143	0xbc8800e9	-0.016601996
144	0x3ba2e29b	0.004970861
145	0x3c8637e0	0.016384065
146	0xbc207337	-0.009793094
147	0x3d32ba04	0.04363443
148	0x3c08d569	0.008351662
149	0x3ba469b5	0.005017484
150	0x3c0ca1ab	0.0085834665
151	0x3b275f21	0.002553888
152	0xbca61065	-0.02027149
153	0xbc963e60	-0.01834029
154	0x3ab66443	0.0013915378
155	0x3bb8203e	0.005619078
156	0xbbc143df	-0.0058979834
157	0xbb39045c	-0.0028231358
158	0xbc8ba6c1	-0.017047288
159	0x3da13701	0.07871819
160	0x3c2f95ea	0.010716895
161	0x3b935acd	0.0044969083
162	0x3caa98e7	0.020824863
163	0x3d9ee027	0.077575974
164	0x3aaa34dc	0.0012985724
165	0xbb856cd5	-0.0040718117
166	0xbc167054	-0.009182055
167	0xbc5d1651	-0.01349409
168	0x3aa5661f	0.0012618935
169	0x3bcceba4	0.0062536765
170	0x3d157e14	0.03649719
171	0xbbc1c75e	-0.005913659
172	0x3c4d1517	0.012517235
173	0x3d0c2a59	0.034220073
174	0xbca4743f	-0.020074962
175	0x3b6916a5	0.0035566476
176	0xbb4865f7	-0.0030578354
177	0x3c7ee404	0.015557293
178	0xbc77b4da	-0.015118802
179	0xbc8d2dbf	-0.017233727
180	0xbbd0314c	-0.006353533
181	0xbc32773c	-0.0108926855
182	0xbc91b0e6	-0.017784547
183	0x3b806542	0.003918321
184	0xbc9a68af	-0.018848745
185	0xbd437b6f	-0.047725137
186	0xbb1b8f24	-0.0023736442
187	0xbbc6a173	-0.0060617267
188	0x3bdfd02f	0.0068302373
189	0xbc9a5ab6	-0.018842082
190	0xbcadd258	-0.021218464
191	0x3c21c47f	0.0098735085
192	0x3c348c20	0.0110197365
193	0x3c585fb5	0.013206412
194	0xbc95327a	-0.018212546
195	0x3a912927	0.0011074886
196	0x3cc7f150	0.024407059
197	0xbc1bebac	-0.009516638
198	0x3b3ca351	0.0028783868
199	0xbc397765	-0.01131997
200	0x3c024d86	0.007953053
201	0xbc7fd0b6	-0.015613725
202	0xba9ead06	-0.0012106008
203	0xbc030259	-0.007996165
204	0xbc4e3c62	-0.012587639
205	0xbd216b95	-0.03940924
206	0xbca8c789	-0.020602958
207	0x3be22e6d	0.006902507
208	0x3d126862	0.03574408
209	0x39415a0d	0.00018439461
210	0x3cef913d	0.02924406
211	0xbc827f70	-0.015929908
212	0xbc8206dd	-0.015872413
213	0x3c04cec1	0.008105935
214	0xba64a9ef	-0.0008722832
215	0x3c0789e3	0.008272621
216	0xbcb3b9f9	-0.021939265
217	0xbaa6679c	-0.0012695673
218	0xbc5ecbf6	-0.013598433
219	0xba032809	-0.0005003219
220	0x3a801ac3	0.0009773601
221	0xb90fe882	-0.00013724159
222	0xbb7da04e	-0.0038700285
223	0xbc8de7b7	-0.017322404
224	0xbca3df2c	-0.020003878
225	0xbc12490b	-0.008928548
226	0xbbee2f73	-0.00726884
227	0x3c10d474	0.008839715
228	0x34d93d00	4.0463783e-07
229	0x3bdb9e94	0.0067022536
230	0x3c9972b3	0.01873145
231	0xbcfc3733	-0.03078804
232	0xbc42ac1f	-0.011881857
233	0xbba0bed2	-0.00490556
234	0xbb98eb39	-0.0046667126
235	0xbc3c6fa1	-0.011501224
236	0x3ca41551	0.020029696
237	0xbac77021	-0.0015215912
238	0x3b95adc0	0.0045678318
239	0xbc002cd2	-0.007823186
240	0x3bc77569	0.0060869944
241	0xbce31619	-0.027720498
