TBCAS24/intuitivechip_classifier_lcsvsnlcs_teensy_run2/SNN_ep-150-isize-1-8-1-hsize-242-bsize-32-lr-0.001-tmax_ms-400.0-Ts-10.0-k-6-dsetPath-VMODE_allchannels_ALLCLASS_auto_nospkfilter_cleaned_1x8_18mvpp_250mvofs_onedac_itail_50nA_N3b_OFFmerg/chip-classifier-test-2-best.pt (torch, 253495 bytes, 8 tensors)

thr_h_1 f4 [242]
000000 00 00 80 3f 00 00 80 3f 00 00 80 3f 00 00 80 3f
       1.0 1.0 1.0 1.0
000010 00 00 80 3f 00 00 80 3f 00 00 80 3f 00 00 80 3f
       1.0 1.0 1.0 1.0
000020 00 00 80 3f 00 00 80 3f 00 00 80 3f 00 00 80 3f
       1.0 1.0 1.0 1.0
000030 00 00 80 3f 00 00 80 3f 00 00 80 3f 00 00 80 3f
       1.0 1.0 1.0 1.0
000040 00 00 80 3f 00 00 80 3f 00 00 80 3f 00 00 80 3f
       1.0 1.0 1.0 1.0
000050 00 00 80 3f 00 00 80 3f 00 00 80 3f 00 00 80 3f
       1.0 1.0 1.0 1.0
000060 00 00 80 3f 00 00 80 3f 00 00 80 3f 00 00 80 3f
       1.0 1.0 1.0 1.0
000070 00 00 80 3f 00 00 80 3f 00 00 80 3f 00 00 80 3f
       1.0 1.0 1.0 1.0
000080 00 00 80 3f 00 00 80 3f 00 00 80 3f 00 00 80 3f
       1.0 1.0 1.0 1.0
000090 00 00 80 3f 00 00 80 3f 00 00 80 3f 00 00 80 3f
       1.0 1.0 1.0 1.0
0000a0 00 00 80 3f 00 00 80 3f 00 00 80 3f 00 00 80 3f
       1.0 1.0 1.0 1.0
0000b0 00 00 80 3f 00 00 80 3f 00 00 80 3f 00 00 80 3f
       1.0 1.0 1.0 1.0
0000c0 00 00 80 3f 00 00 80 3f 00 00 80 3f 00 00 80 3f
       1.0 1.0 1.0 1.0
0000d0 00 00 80 3f 00 00 80 3f 00 00 80 3f 00 00 80 3f
       1.0 1.0 1.0 1.0
0000e0 00 00 80 3f 00 00 80 3f 00 00 80 3f 00 00 80 3f
       1.0 1.0 1.0 1.0
0000f0 00 00 80 3f 00 00 80 3f 00 00 80 3f 00 00 80 3f
       1.0 1.0 1.0 1.0
000100 00 00 80 3f 00 00 80 3f 00 00 80 3f 00 00 80 3f
       1.0 1.0 1.0 1.0
000110 00 00 80 3f 00 00 80 3f 00 00 80 3f 00 00 80 3f
       1.0 1.0 1.0 1.0
000120 00 00 80 3f 00 00 80 3f 00 00 80 3f 00 00 80 3f
       1.0 1.0 1.0 1.0
000130 00 00 80 3f 00 00 80 3f 00 00 80 3f 00 00 80 3f
       1.0 1.0 1.0 1.0
000140 00 00 80 3f 00 00 80 3f 00 00 80 3f 00 00 80 3f
       1.0 1.0 1.0 1.0
000150 00 00 80 3f 00 00 80 3f 00 00 80 3f 00 00 80 3f
       1.0 1.0 1.0 1.0
000160 00 00 80 3f 00 00 80 3f 00 00 80 3f 00 00 80 3f
       1.0 1.0 1.0 1.0
000170 00 00 80 3f 00 00 80 3f 00 00 80 3f 00 00 80 3f
       1.0 1.0 1.0 1.0
000180 00 00 80 3f 00 00 80 3f 00 00 80 3f 00 00 80 3f
       1.0 1.0 1.0 1.0
000190 00 00 80 3f 00 00 80 3f 00 00 80 3f 00 00 80 3f
       1.0 1.0 1.0 1.0
0001a0 00 00 80 3f 00 00 80 3f 00 00 80 3f 00 00 80 3f
       1.0 1.0 1.0 1.0
0001b0 00 00 80 3f 00 00 80 3f 00 00 80 3f 00 00 80 3f
       1.0 1.0 1.0 1.0
0001c0 00 00 80 3f 00 00 80 3f 00 00 80 3f 00 00 80 3f
       1.0 1.0 1.0 1.0
0001d0 00 00 80 3f 00 00 80 3f 00 00 80 3f 00 00 80 3f
       1.0 1.0 1.0 1.0
0001e0 00 00 80 3f 00 00 80 3f 00 00 80 3f 00 00 80 3f
       1.0 1.0 1.0 1.0
0001f0 00 00 80 3f 00 00 80 3f 00 00 80 3f 00 00 80 3f
       1.0 1.0 1.0 1.0
000200 00 00 80 3f 00 00 80 3f 00 00 80 3f 00 00 80 3f
       1.0 1.0 1.0 1.0
000210 00 00 80 3f 00 00 80 3f 00 00 80 3f 00 00 80 3f
       1.0 1.0 1.0 1.0
000220 00 00 80 3f 00 00 80 3f 00 00 80 3f 00 00 80 3f
       1.0 1.0 1.0 1.0
000230 00 00 80 3f 00 00 80 3f 00 00 80 3f 00 00 80 3f
       1.0 1.0 1.0 1.0
000240 00 00 80 3f 00 00 80 3f 00 00 80 3f 00 00 80 3f
       1.0 1.0 1.0 1.0
000250 00 00 80 3f 00 00 80 3f 00 00 80 3f 00 00 80 3f
       1.0 1.0 1.0 1.0
000260 00 00 80 3f 00 00 80 3f 00 00 80 3f 00 00 80 3f
       1.0 1.0 1.0 1.0
000270 00 00 80 3f 00 00 80 3f 00 00 80 3f 00 00 80 3f
       1.0 1.0 1.0 1.0
000280 00 00 80 3f 00 00 80 3f 00 00 80 3f 00 00 80 3f
       1.0 1.0 1.0 1.0
000290 00 00 80 3f 00 00 80 3f 00 00 80 3f 00 00 80 3f
       1.0 1.0 1.0 1.0
0002a0 00 00 80 3f 00 00 80 3f 00 00 80 3f 00 00 80 3f
       1.0 1.0 1.0 1.0
0002b0 00 00 80 3f 00 00 80 3f 00 00 80 3f 00 00 80 3f
       1.0 1.0 1.0 1.0
0002c0 00 00 80 3f 00 00 80 3f 00 00 80 3f 00 00 80 3f
       1.0 1.0 1.0 1.0
0002d0 00 00 80 3f 00 00 80 3f 00 00 80 3f 00 00 80 3f
       1.0 1.0 1.0 1.0
0002e0 00 00 80 3f 00 00 80 3f 00 00 80 3f 00 00 80 3f
       1.0 1.0 1.0 1.0
0002f0 00 00 80 3f 00 00 80 3f 00 00 80 3f 00 00 80 3f
       1.0 1.0 1.0 1.0
000300 00 00 80 3f 00 00 80 3f 00 00 80 3f 00 00 80 3f
       1.0 1.0 1.0 1.0
000310 00 00 80 3f 00 00 80 3f 00 00 80 3f 00 00 80 3f
       1.0 1.0 1.0 1.0
000320 00 00 80 3f 00 00 80 3f 00 00 80 3f 00 00 80 3f
       1.0 1.0 1.0 1.0
000330 00 00 80 3f 00 00 80 3f 00 00 80 3f 00 00 80 3f
       1.0 1.0 1.0 1.0
000340 00 00 80 3f 00 00 80 3f 00 00 80 3f 00 00 80 3f
       1.0 1.0 1.0 1.0
000350 00 00 80 3f 00 00 80 3f 00 00 80 3f 00 00 80 3f
       1.0 1.0 1.0 1.0
000360 00 00 80 3f 00 00 80 3f 00 00 80 3f 00 00 80 3f
       1.0 1.0 1.0 1.0
000370 00 00 80 3f 00 00 80 3f 00 00 80 3f 00 00 80 3f
       1.0 1.0 1.0 1.0
000380 00 00 80 3f 00 00 80 3f 00 00 80 3f 00 00 80 3f
       1.0 1.0 1.0 1.0
000390 00 00 80 3f 00 00 80 3f 00 00 80 3f 00 00 80 3f
       1.0 1.0 1.0 1.0
0003a0 00 00 80 3f 00 00 80 3f 00 00 80 3f 00 00 80 3f
       1.0 1.0 1.0 1.0
0003b0 00 00 80 3f 00 00 80 3f 00 00 80 3f 00 00 80 3f
       1.0 1.0 1.0 1.0
0003c0 00 00 80 3f 00 00 80 3f
       1.0 1.0

thr_o f4 [6]
000000 00 00 80 3f 00 00 80 3f 00 00 80 3f 00 00 80 3f
       1.0 1.0 1.0 1.0
000010 00 00 80 3f 00 00 80 3f
       1.0 1.0

i2h.weight f4 [242, 8]
000000 09 4f 1e be b8 d9 85 3c 13 c3 31 3d 95 a4 f4 3d
       -0.15459837 0.016339168 0.043398928 0.11945454
000010 71 ac c8 3d 76 d4 73 3d a5 b0 12 be 3c 19 cd 3c
       0.097985156 0.05952879 -0.14325197 0.025036447
000020 94 07 bc 3d a0 fd fe bc ce a2 8f bd 0c 67 a7 3d
       0.09181133 -0.031126797 -0.070134744 0.081739515
000030 5b ba 01 3e 66 12 e5 3c f9 ea 98 3d 59 75 d0 bd
       0.12668745 0.027962875 0.074666925 -0.10178632
000040 ad 7a e8 3d 26 d2 a8 bd 36 49 09 3e ce 38 25 3e
       0.113515235 -0.08243208 0.13406834 0.1613495
000050 30 ca fe bd 0a f8 14 3e 41 1e 23 be c8 ea 9b 3c
       -0.12440908 0.14547744 -0.1592951 0.01903285
000060 ff 84 f1 3d b0 c6 c4 3d c5 ff e1 3d 80 14 ed bd
       0.11792945 0.09608209 0.11035112 -0.11576176
000070 8e 02 29 bd 99 96 f9 bc e2 db 0c 3e 82 94 c0 bd
       -0.041262202 -0.030467318 0.13755754 -0.094033256
000080 a8 36 13 3e 95 ae 1e bd 41 ec 2f 3d 23 b0 2c be
       0.14376318 -0.038740713 0.04294992 -0.16864066
000090 0b b7 27 3e c7 14 19 3d 11 3a 0f 3d d4 b8 fa bd
       0.16378419 0.03737333 0.034967486 -0.122422844
0000a0 e7 03 fb bd ec d4 90 bc 92 52 45 3d c0 02 e9 bd
       -0.12256604 -0.017679654 0.04817445 -0.11377478
0000b0 e4 05 21 3e 71 45 08 3d 9f f7 d2 bb 49 6d 49 3d
       0.15724903 0.03326935 -0.00643821 0.049176488
0000c0 f5 ee 94 bd ad cc 00 3e b0 58 5c 3c 5f 27 04 be
       -0.0727214 0.12578078 0.013448879 -0.12905644
0000d0 73 fa a6 3d 8c 17 03 3e e7 88 0a be 36 4c 05 3d
       0.08153238 0.12801951 -0.13528787 0.032543384
0000e0 74 e1 10 3d 30 0c ac 3d 93 64 bd 3d 3f ee f9 bd
       0.03537126 0.08400762 0.09247699 -0.12203645
0000f0 b3 1c f4 bd 02 36 23 3e 64 45 f6 bd cc 5e a1 3c
       -0.119195364 0.15938571 -0.12024954 0.019698523
000100 28 1a d7 3d 5a 33 b7 bd 27 25 bf 3d 5f 2c be 3d
       0.10503036 -0.089453414 0.09333258 0.09285807
000110 cc e1 05 be fc b3 f2 3d cf 50 41 bd 80 b5 5e bd
       -0.13074416 0.118507355 -0.047196206 -0.05437231
000120 5b 93 2c 3d 4f ca b2 bd ac db 1d be 58 61 2e bd
       0.042132717 -0.087299936 -0.1541583 -0.042573303
000130 a5 c6 6a bd d2 ec ae 3c 68 07 64 3d d2 75 b2 3d
       -0.05731835 0.02135316 0.055671126 0.08713879
000140 0a a3 ee 3d c0 32 f2 3c 8e f7 c4 3d 04 3f 2c be
       0.11652191 0.029565215 0.0961753 -0.16820914
000150 d6 f2 f7 3d 31 ee 4d 3d 68 78 12 3c ad bf d0 bc
       0.12106864 0.050275985 0.00893984 -0.025482023
000160 a3 04 87 bc 48 14 35 bc 43 8c 8d bd 55 d9 00 be
       -0.016481703 -0.011052199 -0.069115184 -0.12582906
000170 fa 72 87 be cb 9c 4d 3e a7 4a e1 bd 41 e4 91 3d
       -0.26454908 0.20079343 -0.11000567 0.07123614
000180 5e 0b 8c bd 2b 23 17 3e ac 46 b3 3d ac c3 44 3c
       -0.068381056 0.1475951 0.08753714 0.012009542
000190 9e 0a ed 3d 01 3e 3f bd 4c 58 68 bc 14 c7 03 bd
       0.11574291 -0.04668999 -0.014181208 -0.032172278
0001a0 5b 9d b5 3d 45 eb 97 3d 82 9c d1 3d 9c 45 fc 3d
       0.08867904 0.07417921 0.102349296 0.123179644
0001b0 55 84 9e bd d5 3f 16 bd d6 07 ae bd 7a 29 0b 3e
       -0.07740084 -0.03668197 -0.08497588 0.13590041
0001c0 9d 77 25 3d c2 8d 3e 3d 56 77 2c 3d a2 f6 3d 3d
       0.040397275 0.04652191 0.042105995 0.046377786
0001d0 80 84 b6 bd e2 1a 66 bd 58 6b 85 bd 03 42 06 3e
       -0.08911991 -0.05617798 -0.06514615 0.13111119
0001e0 6e 3c 64 bd 3d 1f 0c be c1 42 a2 3d b1 b8 a6 bd
       -0.055721693 -0.13683791 0.079228885 -0.08140696
0001f0 16 9e 02 3e 46 4b 71 bd ee 77 cb 3d b9 9b 63 3d
       0.12755617 -0.058909677 0.09934984 0.05556843
000200 00 1e d9 3d d0 d3 e6 bc 5e 30 57 3d c6 7d fe 3d
       0.10601425 -0.028177172 0.05253636 0.12426333
000210 45 94 fe 3d fb 09 88 bc 3d 16 f7 3d 2f 4e 80 3d
       0.12430624 -0.016606322 0.120647885 0.06264912
000220 57 5d aa 3d cd 78 a6 3d 3a 5f 08 be 44 1e e7 bc
       0.083185844 0.0812851 -0.13317576 -0.028212674
000230 25 16 24 3e 0d 21 84 3d 3a 9f ce 3d 6d 70 5a 3d
       0.16024072 0.064516164 0.10088964 0.053329874
000240 79 ac 1e bc a1 c5 10 3e 9e ca 81 3d 9c 08 f2 bd
       -0.009684675 0.1413789 0.06337474 -0.11818048
000250 52 62 1b 3c f8 4a e3 bd 2c da 33 3d 02 70 a5 bd
       0.009483891 -0.110982835 0.043909237 -0.080780044
000260 6a e2 d6 3d 84 9d d8 bd 6d ac ba 3d 63 1d 4b 3d
       0.10492404 -0.10576919 0.09114919 0.049588572
000270 81 19 dc 3d b5 cb 04 3e 48 b4 0b 3d cf ea 0e be
       0.10747052 0.12968333 0.034107476 -0.1395676
000280 d8 ba 11 be f0 43 18 3e d4 79 34 3d 22 ab 9c 3d
       -0.14231431 0.14869666 0.044061497 0.076498285
000290 aa bd 35 3e 75 cc c8 3d fb 56 c9 bd c2 30 29 3e
       0.17748132 0.09804622 -0.09831043 0.16522506
0002a0 ad 06 11 be 5b 15 92 3d 63 c9 bf 3d a3 2a 19 3e
       -0.14162703 0.071329795 0.09364583 0.14957671
0002b0 ca 1a 24 be 78 e4 22 3e e6 9c 9b bd ef a7 89 bd
       -0.16025844 0.15907466 -0.075982854 -0.06721484
0002c0 77 ab 90 3d aa 2e 6e 3d d5 63 6c bd 09 38 fa 3b
       0.07063954 0.05814997 -0.057712395 0.0076360744
0002d0 21 02 3c bd d6 39 f7 3d 51 a3 00 bc aa db f2 bd
       -0.045900468 0.12071578 -0.007851438 -0.11858304
0002e0 ad 9e d3 3b 24 50 b3 bd 5b 6d 86 bc 0d bc 9f 3c
       0.0064581246 -0.0875552 -0.016409567 0.01949885
0002f0 1c 24 5f bd 90 c0 b6 bd 4a 70 89 bd fc 9d e3 3d
       -0.054477796 -0.08923447 -0.067108706 0.111141175
000300 25 82 8f bd ec f3 c1 3d 06 c3 fd 3c 2e 7d 46 bc
       -0.07007245 0.094703525 0.030976783 -0.012114806
000310 aa 3d d1 3d b6 86 cc bd 70 9a 0f 3e 30 fe b0 bd
       0.102168396 -0.099866316 0.14023757 -0.086422324
000320 51 b2 f2 bd 5f 73 e7 3d ba de d1 3c fb 0a dc bd
       -0.118504174 0.11301302 0.0256189 -0.10744282
000330 c6 e8 16 3e 7e 23 d6 3d 14 f0 f7 3d 6c b7 13 be
       0.14737234 0.10455988 0.12106338 -0.14425439
000340 d5 ce 6e 3d be 1b e2 3d 16 74 2d bd d1 96 e7 3d
       0.05830272 0.11040448 -0.042347036 0.11308063
000350 47 13 c0 3b fe 44 37 bd 14 82 a2 3c db da ae bd
       0.005861673 -0.04474353 0.019837417 -0.08537837
000360 a4 0d 8c 3c 7b 7c d2 bd 4e a9 bc bd dd c6 cc bd
       0.017096348 -0.10277649 -0.0921198 -0.09998868
000370 64 88 8b bd 94 f1 04 3e 15 a1 20 bd c5 4a 8b bd
       -0.06813124 0.1298278 -0.03921612 -0.068013705
000380 89 57 10 be a8 53 18 3e e1 60 b2 3c 41 68 75 3b
       -0.14095892 0.14875662 0.021774711 0.0037446173
000390 f8 94 8d 3d 2e 26 56 3c 0e f6 2f be cc 78 ee bc
       0.06913179 0.013070626 -0.17183706 -0.029110335
0003a0 b5 7c 17 3e 03 df 09 3e 13 62 e4 3d 9f b3 05 be
       0.14793666 0.13463978 0.11151519 -0.13056801
0003b0 fe dc 3e 3e 85 0b a8 bd f9 f5 45 be 2e ad c6 bd
       0.1863899 -0.08205322 -0.19332112 -0.09701
0003c0 4d e9 86 bd 2e ae 36 bd 46 37 89 bd e1 ee 16 3e
       -0.06587467 -0.044599704 -0.06699996 0.14739563
0003d0 0a 70 1a 3e 49 88 f6 bc 29 c8 2c be cf 01 98 3d
       0.15081802 -0.030094283 -0.1687323 0.0742222
0003e0 11 fb ed 3d ac 88 f5 3d 28 10 6c 3d 4d 71 01 3e
       0.11620153 0.11988959 0.057632595 0.12640877
0003f0 b0 0d cd bd d2 7e 07 be 9b 80 09 bd 6e b1 1b 3e
       -0.10012376 -0.13231972 -0.033569913 0.15204403

i2h.bias f4 [242]
000000 ea b3 11 bc 2f 9a 0b 39 40 fb 40 bc f2 f9 aa 3c
       -0.0088929925 0.00013313511 -0.011778653 0.020871136
000010 f4 98 54 3c 6d c0 8f 3c 85 fd 15 bc 4a 7a 90 3c
       0.01297592 0.01754781 -0.009154682 0.017636437
000020 78 a1 34 3c f9 2e 6b bc 7c 71 07 3d 43 8f 36 3d
       0.011024825 -0.014354461 0.03306721 0.04457022
000030 08 47 50 3c d2 09 e5 3b 4b 8d 47 bc 98 f3 68 3c
       0.012712248 0.006989696 -0.012179683 0.0142182335
000040 83 f6 8c ba 80 c9 85 bc d4 2c e4 bb 66 71 b5 bc
       -0.0010754619 -0.016331434 -0.0069633517 -0.0221488
000050 a9 41 14 bb 98 6e a4 3b 43 35 8f bc 51 05 b5 bc
       -0.0022622144 0.0050180666 -0.017481452 -0.022097262
000060 15 8a 1e bc de 1c 9e bc b3 e2 78 bc 23 f7 3c bc
       -0.009676476 -0.019300874 -0.015190768 -0.011533531
000070 e2 11 3f 3c 2b f6 5c 3d b5 2c 86 3a e2 49 e5 b9
       0.011661978 0.0539457 0.0010236712 -0.0004373333
000080 48 98 63 3a 77 99 df bb 40 62 22 bb 45 83 03 3d
       0.00086820545 -0.0068237144 -0.00247778 0.03210761
000090 a8 11 e5 3a 42 ce f5 b8 81 48 56 3c 51 56 92 3b
       0.0017476575 -0.00011720929 0.01307881 0.004465856
0000a0 42 ad 59 3a 4b c6 30 bc 33 d5 be 3c ed e5 9f 3c
       0.00083037105 -0.010789464 0.02329502 0.019518817
0000b0 76 cf cc bc 9c b6 97 bc 91 bf b1 bc e4 ba 22 bc
       -0.025001269 -0.018519692 -0.021697791 -0.0099322535
0000c0 2c 77 2b 3c 1a e3 4d 3d 23 2f c5 bb 91 16 06 3c
       0.0104654245 0.05026541 -0.006017582 0.008184091
0000d0 65 bc 0b 3d 37 27 12 bc 73 3c ab 3c c0 43 f3 bb
       0.034115214 -0.008920482 0.020902848 -0.007423848
0000e0 16 69 ec bc 6d e8 3f bc a6 3b 90 3c 8f 4b 00 3d
       -0.028858703 -0.0117131295 0.017606568 0.03132206
0000f0 5e b6 09 3b 24 05 fe 3b 42 1a a0 3b f0 be 09 3c
       0.002101324 0.0077520777 0.0048859427 0.008407339
000100 8e 4c 44 bc a3 0d cd 3c 44 59 e9 3c 8a a6 60 3c
       -0.011981143 0.025030917 0.028484948 0.013711581
000110 97 56 b7 3c 63 db db 3c 85 33 82 3b be 18 13 bc
       0.022380156 0.02683801 0.0039734268 -0.008978067
000120 49 57 ee 3c 5e 14 65 3c 6c dd a8 bb c4 ec 36 3c
       0.029094355 0.013981907 -0.0051533487 0.011164848
000130 a8 05 2f bc 40 28 5f bc 00 5b 5d 3b 36 06 c1 bb
       -0.010682501 -0.013620436 0.0033776164 -0.005890633
000140 b3 19 e8 3b 41 7c e3 3c 35 7c 02 3d 04 68 b8 3c
       0.0070831417 0.02776921 0.031856734 0.022510536
000150 86 9e 91 3b 70 db 87 3d bc dd 56 bc ae bb 75 3c
       0.0044439463 0.06633651 -0.013114389 0.01499836
000160 35 eb 63 3d 4b 11 50 bc d9 99 58 3d e0 65 a2 bc
       0.055644233 -0.012699435 0.052881096 -0.019823968
000170 88 98 47 3b 10 01 fa bc e7 e0 90 3b a2 96 c0 ba
       0.0030455906 -0.030518085 0.0044213417 -0.001469333
000180 55 23 8e bc fd 62 0b 3d a0 99 32 bb d9 bf 91 bc
       -0.017350832 0.03402995 -0.0027252212 -0.017791675
000190 d9 bc 3f 3b c2 fc 0d bc 85 79 d9 ba a0 6d 8a 3c
       0.002925685 -0.008666219 -0.0016592002 0.016897976
0001a0 ff 98 3b 3b fe de 2e 3c 6e 7a 8f 3d dc af cb 3c
       0.0028625128 0.010673283 0.070057735 0.02486413
0001b0 bd 58 97 3c 3e 1e 1e 3d 88 71 74 bb 8a b7 12 3c
       0.01847493 0.03860306 -0.0037299115 0.008954892
0001c0 d5 11 8e 3c 2f dd ea bb 03 db 8c bc 4f 16 1b bd
       0.017342487 -0.0071674804 -0.017194277 -0.037863072
0001d0 b7 05 7b bb 8c 1e 31 3c f1 36 f8 bc 42 69 36 3c
       -0.0038302967 0.010810506 -0.030299636 0.011133494
0001e0 3e f8 08 bc 12 d2 fe 3b fc fd 05 3a c9 84 fc 3a
       -0.008359967 0.007776507 0.0005111394 0.0019265647
0001f0 f4 41 bc bc 66 a4 9a 39 8b a6 4e 3c 46 8d 53 bc
       -0.022980668 0.00029495655 0.012612949 -0.0129121
000200 9e 03 91 3c 58 5a cb b8 fc 72 9a bc 95 03 54 bc
       0.01770192 -9.696622e-05 -0.018853657 -0.012940307
000210 ac a3 26 3b 77 44 50 bc 53 e8 0f 3c fa af 67 bb
       0.0025427146 -0.012711636 0.008783418 -0.0035352693
000220 1c 5b 66 3d 57 21 91 bb 48 f7 f8 3b 18 47 33 3c
       0.056239232 -0.0044290232 0.0075978376 0.010942243
000230 59 e4 b2 3c f1 39 23 3d 61 01 1d bc cf 84 13 3d
       0.0218374 0.03985018 -0.009582848 0.036015328
000240 6f 81 7c 3c 6e 64 a5 3c 98 e1 ce 3b 3b 72 78 3c
       0.015411719 0.02018949 0.006313514 0.015163953
000250 4c ff 17 ba 4f 55 0d 3d b8 0f 99 bc 4e 9c 44 3c
       -0.0005798235 0.034505185 -0.018684253 0.012000157
000260 9f 0b ec bc 49 85 89 3c 3d 46 96 bb e9 65 8a 3c
       -0.028814135 0.016787188 -0.00458601 0.016894298
000270 25 a3 9f bc 91 26 1b 3d 5c 13 86 3c d0 45 6b 3c
       -0.019486973 0.037878577 0.016366653 0.014359906
000280 71 28 51 3c 97 91 86 bb 4b 14 d0 bc cc f8 b5 3c
       0.01276599 -0.004106711 -0.025400301 0.022213362
000290 59 53 9a bb be 3a d8 3b 72 62 91 3c 2d 9f ac 3c
       -0.004709643 0.0065987995 0.017747138 0.021071995
0002a0 db 86 10 bc a2 e2 20 bc 24 c4 f9 ba 84 13 ed bc
       -0.008821215 -0.0098196585 -0.0019055647 -0.02893997
0002b0 62 45 bd bc 79 95 d3 bc 6c fb 64 bc 76 78 75 3b
       -0.023104373 -0.02582811 -0.013975959 0.0037455834
0002c0 dd 10 a4 bc a9 09 90 3a 03 6b 5f bc 8d ce 26 bc
       -0.020027572 0.0010989207 -0.013636353 -0.0101810815
0002d0 29 55 0f 3d 92 27 63 bc 93 3b d2 bb 2b 36 8a 3c
       0.034993324 -0.013864415 -0.006415793 0.016871532
0002e0 a3 11 a9 bb 61 0c ad ba 3c 17 43 bc b0 65 cc bb
       -0.005159573 -0.0013202542 -0.011907395 -0.006237708
0002f0 b8 05 3a bb 7e 59 0b bc 23 e9 51 3c f2 52 62 3c
       -0.0028384756 -0.008505223 0.012811932 0.013813721
000300 67 66 62 bc 4b 31 b0 3c 02 3b 90 3c 74 82 b1 3c
       -0.01381836 0.02150788 0.017606262 0.02166865
000310 9b 51 99 3c 33 1e 30 3c d4 c8 89 bc e8 54 bc 3b
       0.01871567 0.010749388 -0.016819395 0.0057474263
000320 5d 87 0f 3b 01 ac 81 bc 64 03 c8 bc 94 0e 9d 3a
       0.002190075 -0.015829088 -0.02441568 0.0011982494
000330 50 e6 65 bc 46 ce eb 3a cd 57 ba ba bb 01 8f bc
       -0.014031962 0.0017990551 -0.001421684 -0.01745688
000340 3f 6c 67 3b a9 27 c0 bc ab 8a bc bc d3 77 5e 3c
       0.0035312322 -0.023456411 -0.02301534 0.013578373
000350 45 29 0f bc 44 8a 86 bc 55 83 e9 bb 9a e7 99 ba
       -0.008737867 -0.016423352 -0.0071262517 -0.0011741996
000360 dc 51 e1 3c 2a d8 c8 3c 4d 6f 16 3d 2b 89 cc ba
       0.027504854 0.024517138 0.03672724 -0.0015604844
000370 de be 26 bc ea 65 38 3c 81 df 13 bc f6 84 10 bc
       -0.010177342 0.011254767 -0.009025455 -0.008820763
000380 36 c1 9d bc 2e c4 81 3c 4e bc 37 3c 3a f2 38 bc
       -0.01925717 0.015840616 0.011214329 -0.01128822
000390 19 61 29 3b 16 38 06 bd c2 ba 00 3d 33 51 b1 3b
       0.0025845228 -0.03276833 0.031428106 0.005411291
0003a0 46 22 9d bc 1e a8 0b 3a e2 73 d0 3b 41 8f 9b bc
       -0.019181382 0.00053274806 0.0063614706 -0.018989207
0003b0 07 66 80 ba a9 e1 9b 3c 68 c3 04 3c ca 07 e9 bb
       -0.0009796032 0.019028502 0.008103229 -0.007111524
0003c0 84 a8 15 3c 01 a3 cd 3c
       0.009134416 0.02510214

h2o.weight f4 [6, 242]
000000 23 20 7c 3c 0b 78 be bd de 17 d9 3b 43 4f ab bd
       0.015388521 -0.0930024 0.0066251596 -0.08364727
000010 dc 39 b3 bd 38 2e 8f bd 53 ad 8d 3d 4c 51 27 3e
       -0.0875127 -0.069912374 0.069178246 0.16339606
000020 8b 58 e6 bd 0a 36 bd bd 0d 72 26 bc 94 4b 8c bd
       -0.11247357 -0.09238823 -0.010159028 -0.06850353
000030 81 99 1f be 16 b7 9a bd e5 b2 1d 3e 5f 58 d9 bd
       -0.15585901 -0.07554452 0.15400274 -0.106125586
000040 45 63 b5 3c c1 6c ce 3d af e6 d5 3d 15 7c 0a be
       0.022142062 0.10079337 0.1044439 -0.13523896
000050 82 35 69 3c 34 e5 d7 3d d4 9f 1b 38 1c d4 10 3e
       0.014233949 0.10541764 3.710373e-05 0.14143413
000060 42 71 24 3e d6 cc 01 3d 22 df a1 bd 41 62 47 3e
       0.1605883 0.031689487 -0.07903887 0.19471075
000070 ba e1 cd 3c 5a e2 34 be 9e c4 3d 3d b2 eb 42 be
       0.025132049 -0.17664471 0.046330087 -0.19035223
000080 06 21 7f bd 84 27 01 be bf 8e 8e bd 75 79 87 bd
       -0.062287353 -0.1261273 -0.069608204 -0.06614963
000090 41 c1 87 3d 74 be 43 3d 73 61 95 3b d8 65 7f bd
       0.06628657 0.047789052 0.004558736 -0.062352985
0000a0 1b 4c 8a 3c 11 cc 22 be 54 49 1c 3d b1 34 08 be
       0.016881993 -0.15898158 0.03815587 -0.1330135
0000b0 59 eb f0 bd a0 91 95 3d 7a dc 85 bd e9 3b 0a 3e
       -0.11763639 0.073031664 -0.06536193 0.13499416
0000c0 06 f8 ea bc 3f b4 38 be 7a a6 e3 bd 6a ac a2 3d
       -0.02868272 -0.18037508 -0.11115737 0.079430416
0000d0 25 e3 91 3d 6a e5 ae 3d 9c f1 b8 3d 8b 1e 82 bd
       0.071234025 0.08539851 0.09030458 -0.06353482
0000e0 c9 eb 8a bd 73 23 fa bd b1 08 02 bd f2 a9 55 3d
       -0.06783254 -0.12213793 -0.03174657 0.052164026
0000f0 a9 71 de 3d 45 2b cc bd 9f 3f 0e be 09 49 25 bd
       0.10861523 -0.099691905 -0.13891457 -0.040352855
000100 2e 16 e7 3d ff e9 07 be 56 65 90 3d 77 fd 3c 3d
       0.11283527 -0.13272856 0.07050578 0.04614016
000110 54 b2 02 3c ba d0 93 bd f7 cc dd 3d be 91 52 3e
       0.007977087 -0.07217546 0.108301096 0.20563409
000120 a9 cd d3 3c 71 5c 2a 3e 2b d3 9b bc 3b cc 47 bd
       0.025854902 0.16636826 -0.019021591 -0.048778754
000130 82 1e 0d 3e 80 69 1a 3d 7b 2c 14 bd de bc d6 39
       0.13781169 0.03769827 -0.036175232 0.00040957978
000140 7b 4d 1b bd 58 b5 b3 bd be 45 97 bc 02 f8 96 bd
       -0.037915688 -0.08774823 -0.018465873 -0.073715225
000150 ca 80 4f 3c db 1c c3 bd 77 bc cc bd f3 12 1d bd
       0.012664983 -0.09526988 -0.09996884 -0.03834815
000160 14 22 2c 3d 48 14 19 be 52 f5 07 be cf d2 29 be
       0.042024687 -0.14949143 -0.13277176 -0.16584323
000170 80 a4 16 3d 59 fb 95 bd 7e 8f d9 bc 41 85 1b 3e
       0.036777973 -0.073233314 -0.02655768 0.15187551
000180 77 3b a0 3d 84 c6 f7 bd 95 05 ba 3b 17 a8 d3 bd
       0.07823842 -0.12098411 0.005676935 -0.10334795
000190 1c 84 8b bd d1 6d dc 3c d8 90 85 bd 3e c6 e6 bd
       -0.06812307 0.026907833 -0.065217674 -0.112682804
0001a0 c3 8a a1 bd 6c d7 bc bc 30 98 64 be 5e a8 26 3d
       -0.07887795 -0.02305194 -0.2232368 0.04068791
0001b0 1f 30 53 bc be 1d 4b be 86 de a6 bc 5e fe b3 bd
       -0.012889891 -0.19835564 -0.02036978 -0.08788751
0001c0 1d e0 6e bd e2 31 ed bd 00 12 8b 3d b5 50 12 3e
       -0.0583192 -0.1158178 0.067905426 0.142886
0001d0 4f 19 07 3e 65 a6 07 bd 88 d6 9b 3d cf 27 9e 3c
       0.13193248 -0.03311767 0.07609278 0.019306092
0001e0 ab 6d a0 bd 0d 27 02 3e 29 cf b8 3d e3 a9 aa bd
       -0.078334175 0.12710209 0.09023888 -0.083331846
0001f0 58 1e 99 3d 0a 20 56 3d 16 f6 39 3d 4b 5f db 3d
       0.07476491 0.05227665 0.0454007 0.10711535
000200 7a b0 26 bd 70 77 05 3e b8 78 48 bd d6 9a 30 bd
       -0.040695645 0.13033843 -0.04894325 -0.043116413
000210 52 c3 c8 bc cb 3f 93 3d a8 81 ae 3c 78 8f 76 3d
       -0.024507198 0.07189902 0.02130206 0.060195416
000220 5e 91 34 be 9a 3c 5f bd 7c 1d a6 3d 24 d5 c4 bd
       -0.17633578 -0.054501154 0.081110924 -0.09610966
000230 76 a4 2b 3c 86 48 b9 3d 9b 2e 0e be 5c 22 c3 bd
       0.010476222 0.09047036 -0.13884966 -0.09528038
000240 72 76 06 be bf 16 16 3d 85 bb f8 bd df 6f aa 3d
       -0.13131121 0.036642786 -0.121451415 0.08322119
000250 f6 06 b2 bd da 0c 8a 3c 23 94 1e 3e 4f 35 39 3d
       -0.08692734 0.016851831 0.15486197 0.045216855
000260 f4 05 d3 3d 75 95 74 3d e9 ca cf bb b5 82 19 3d
       0.1030387 0.059712846 -0.0063413274 0.037478168
000270 a6 c9 d5 bc 84 d9 23 be 90 fa bf 3d e1 1b b7 bd
       -0.02609713 -0.16000944 0.09373963 -0.08940864
000280 6d 00 54 3d 2b 40 cd bd 3c 94 b3 bc 16 50 d2 bc
       0.05175822 -0.10022005 -0.02192127 -0.025672954
000290 ed c3 05 3e 43 7c aa 3d 10 11 18 3d 2e 64 71 bd
       0.13063021 0.08324482 0.037125647 -0.05893343
0002a0 5b 7b fe 3d 03 2b db 3b d7 27 a9 3d 0d 22 a2 3d
       0.12425872 0.006688477 0.08259552 0.07916651
0002b0 f0 4e 0f bd 20 20 2f bd c2 de 7a 3d 74 12 c2 3d
       -0.03498739 -0.042755246 0.061247595 0.09476176
0002c0 1f cd 06 3d e8 44 11 3e 0f 84 cb 3d dd 56 4e 3d
       0.032910462 0.14186442 0.099372976 0.050375808
0002d0 e5 cb 88 3d 66 f3 29 3c 24 61 1a 3e 80 b1 f2 3c
       0.06679515 0.010372972 0.15076119 0.029625654
0002e0 5b 65 f4 bd 33 dc ac 3d f3 3c fe bc dc c8 0c be
       -0.119333945 0.08440437 -0.031034922 -0.13748497
0002f0 97 fb 46 3c 7c f0 57 bd 69 87 81 bd 9e d3 37 bd
       0.012144945 -0.05271958 -0.063246556 -0.04487955
000300 1b 9b 59 3d 9b 26 82 bd 42 1d e3 bd 35 ac 82 bd
       0.053126436 -0.0635502 -0.11089565 -0.06380502
000310 ec 20 f4 bd b7 f5 b4 3c a0 5e 00 be fb 6d 6d 3d
       -0.11920342 0.022089822 -0.12536097 0.057966214
000320 c6 b4 24 3c 7d 50 08 3e 41 a5 c5 bd 92 65 47 3b
       0.010052865 0.13311954 -0.0965066 0.003042553
000330 0e 3f 23 3d d4 6a 19 3e 56 7e ff 3d 03 11 dc bd
       0.039855056 0.14982158 0.124752685 -0.10745432
000340 62 5c a6 bc 5f cb 14 3e e4 e2 e9 3d 80 c7 8c 3d
       -0.020307723 0.14530705 0.11420229 0.06873989
000350 d4 ae 50 bd 4c 59 76 bb a3 0e 2e bc 48 72 11 3e
       -0.05094798 -0.0037589846 -0.010623607 0.14203751
000360 16 5e 70 be 62 91 25 be 80 7b d6 bc eb ff d1 3d
       -0.23473391 -0.1616874 -0.026181936 0.102538906
000370 c3 6d 01 bd 12 68 0a be b9 fc bc bd 97 7f 04 3e
       -0.031598818 -0.13516262 -0.092278905 0.12939297
000380 44 2a 36 3e cd 17 8b 3d d7 dd 0f 3e 3c 17 c7 bc
       0.1778956 0.06791649 0.14049469 -0.024303071
000390 54 cf ff 3d 16 4e 74 bd fe 6b b9 bd 68 eb 02 3e
       0.124907166 -0.05964478 -0.09053801 0.12785113
0003a0 50 ba da 3c ea 1e 1d 3e 35 34 88 bd 33 82 dc 3c
       0.026700169 0.15343824 -0.06650583 0.026917553
0003b0 2a f3 12 3e 63 7b 17 3d c6 0d ef 3d 3a 0b ed 3d
       0.14350572 0.036982905 0.11672549 0.11574407
0003c0 4d e1 e4 bd 05 18 5e 3d 76 1a 96 bd 6a cb 84 bd
       -0.11175785 0.054222126 -0.07329266 -0.06484111
0003d0 42 d1 e9 bd 40 20 78 bd b4 d3 07 be 2a f9 a2 3d
       -0.11416866 -0.06057763 -0.13264352 0.079576805
0003e0 3a 75 69 3d f0 d1 ff 3d 4b 2b 00 3e 68 44 28 be
       0.05699656 0.12491214 0.12516515 -0.16432345
0003f0 e4 d5 a0 3d fc 51 0b 3e 7c 30 fa bd 40 34 1e be
       0.078532964 0.13605493 -0.12216279 -0.1544962

h2o.bias f4 [6]
000000 a7 2f 9d bb dc b4 83 3c 57 6f 3e 3b 28 88 e6 3c
       -0.0047969404 0.016077451 0.0029058063 0.028141096
000010 49 13 a9 3c ab 0b f8 3a
       0.020639079 0.0018924376

h2h.weight f4 [242, 242]
000000 a6 35 2d 3d c4 04 af bc 64 e5 a6 3d 25 9b 13 bc
       0.04228749 -0.021364577 0.081492215 -0.009009157
000010 58 3a 8d 39 4c f4 54 bd 43 00 c5 3d e0 7b 97 3c
       0.00026937085 -0.051990792 0.096191905 0.018491685
000020 cb 69 dd 3c 05 17 4f bd fd 0e 88 3d 53 04 61 bd
       0.027027985 -0.050559063 0.06643484 -0.054935765
000030 22 a5 24 3d 8a 9e e0 bb e5 b6 af bd e3 a4 3d 3d
       0.040196545 -0.006854837 -0.08579806 0.046299826
000040 6b 4e c9 3d a3 77 14 be 36 1b 25 3d bf db 50 bd
       0.0982941 -0.14498763 0.040309153 -0.050990816
000050 28 e0 e7 bc a3 01 9a bc 8c 54 6c 3c 99 9f 51 bc
       -0.028305128 -0.018799609 0.014424454 -0.012794399
000060 05 8d a1 3d e5 f8 00 3e 71 e5 34 3c 94 0e 78 bd
       0.078882255 0.12594946 0.011041031 -0.060560778
000070 77 96 51 bd f0 54 3e 3d 83 4d 17 bd 57 d3 bf 3d
       -0.051168885 0.04646772 -0.036939155 0.09366482
000080 28 43 e9 bb 0f 58 36 bd 48 f3 1b bd 32 93 b3 bd
       -0.0071186014 -0.044517573 -0.038073808 -0.0876831
000090 70 d1 d4 3d 59 6c 7b 3b 5c 16 95 3c de c6 f8 3d
       0.103915095 0.003836414 0.018199138 0.12147306
0000a0 2a 27 e4 3d f7 d3 77 3c 3c ee 3b be 47 8c af 3d
       0.111402825 0.01512622 -0.18352598 0.08571678
0000b0 da c8 f4 3d a8 6f 44 3d da f6 13 3b c4 76 8a 3d
       0.11952372 0.047958046 0.0022577555 0.06760934
0000c0 db 18 ba bc 47 c4 3e bd 52 5e e3 3d 62 7b 39 3d
       -0.02271693 -0.046573903 0.111019745 0.045283683
0000d0 3e 9d 67 bc f1 49 58 3c 7e 8a 30 3d 62 c5 f9 bc
       -0.014136611 0.013201223 0.043100826 -0.030489627
0000e0 32 30 09 3d 4f 5a 87 bd df 0d 27 3c c8 27 b9 bc
       0.03349323 -0.06609022 0.010196178 -0.022601977
0000f0 95 51 21 bd 2e b4 b7 3a b6 88 af b9 4e 57 3b bd
       -0.039384443 0.001401549 -0.0003348046 -0.045737557
000100 3f ee f8 bc ce 63 45 3d 95 e4 1c 3d d3 b8 e1 3c
       -0.030387042 0.048190884 0.03830393 0.027553951
000110 57 df 29 3c f7 79 cb 3c 09 a8 a2 bd d2 71 a9 bd
       0.01036819 0.02483843 -0.079422064 -0.082736626
000120 d9 e3 29 3d b0 5a 99 3d 4a 78 64 3d 23 cb 31 bc
       0.041477058 0.074880004 0.05577878 -0.010851654
000130 45 e1 e5 3c 00 14 b7 3c 55 8c a5 3d 1c 22 86 3d
       0.028061518 0.022348404 0.08083407 0.065494746
000140 e1 83 4e 3d 0e a0 93 3d ce bc a5 bd 79 1a a6 3d
       0.05041874 0.072082624 -0.08092652 0.08110518
000150 3e 76 4a 3d 73 bc fb 3d 29 c9 dd bc c7 e1 12 bd
       0.04942917 0.12291803 -0.02707346 -0.03585985
000160 2f 93 eb 3c 53 a8 55 3d 1a 55 4e bd 0a 54 89 3d
       0.028756706 0.05216248 -0.050374128 0.06705482
000170 3e 42 31 3d 77 3d 5c bc 16 28 db bc ee d2 98 3d
       0.043276064 -0.013442389 -0.026752513 0.07462107
000180 26 8a 9f 3c d3 13 87 bc 49 03 16 3e e9 41 53 bd
       0.019475054 -0.016488945 0.1464969 -0.05157653
000190 ee fe c1 bd 96 72 78 3b da 59 19 bd de 1d f9 bc
       -0.09472452 0.0037910095 -0.037439205 -0.03040975
0001a0 c5 c1 0a 3d 21 44 92 bd 01 5e 01 be 23 3f 3c bd
       0.0338762 -0.07141901 -0.12633516 -0.04595865
0001b0 a6 a0 d5 bd 4b b3 9e 3d a4 d1 05 bd e6 41 4e bd
       -0.10431032 0.07749041 -0.032670632 -0.050355814
0001c0 da c6 7d bd 87 22 8e bb 15 57 89 3d 61 d0 94 bd
       -0.061957218 -0.004337612 0.06706063 -0.072663076
0001d0 d6 eb 24 bd 2b c3 e2 3c 6c 9e b6 3d 12 04 57 3d
       -0.040263973 0.027680954 0.08916935 0.052494116
0001e0 79 61 51 3d 0d a6 df 3c 17 04 f0 3c 12 d5 b3 3d
       0.051118348 0.027300859 0.029298825 0.08780874
0001f0 dc 68 ce 3a 1d 24 a5 3d f5 fd f0 3c 2a b5 e2 3b
       0.0015747803 0.08063529 0.029417971 0.006918569
000200 10 6d e4 bb cc 94 87 bd 8e f3 e9 3c be c1 71 bd
       -0.006971009 -0.066201776 0.028558519 -0.059022658
000210 e3 30 1d 3d 9d 00 5f 3d 7d 3e c0 bd 12 28 cf bd
       0.0383767 0.054443944 -0.09386919 -0.10115065
000220 79 ae a6 bc 07 b3 af bd 33 17 cb 3d b4 d4 1f bd
       -0.020346867 -0.08579069 0.09916534 -0.03902121
000230 0d 91 16 3c 03 94 a2 3d 6b 4b 75 bc 0e 07 36 3c
       0.009189856 0.07938387 -0.014971594 0.01111008
000240 d2 a0 44 bb 78 dc 49 3d fa c6 2e bd 73 d4 12 3d
       -0.0030003083 0.04928252 -0.042670228 0.03584714
000250 dd ae a2 bd c4 0d cb 3d 48 40 63 bd a2 6e 12 3d
       -0.07943509 0.09914735 -0.055481225 0.03575004
000260 df 20 29 bd ee 90 28 3d d9 23 fd 3b b4 cd a2 bc
       -0.041291114 0.04115384 0.0077252206 -0.019873478
000270 22 fd af bb 88 cf f6 3d 12 96 4d bd 7c 02 78 3d
       -0.005370752 0.12051302 -0.050191946 0.060549244
000280 38 dc 78 bd 90 f2 c6 3c 64 17 4d 3d 85 22 40 3e
       -0.060756892 0.024285585 0.050071135 0.18763168
000290 d7 8e 00 3e 15 86 aa bb 8f 44 02 be d8 e6 01 bc
       0.12554489 -0.005203972 -0.12721466 -0.007928573
0002a0 7a 65 43 3d 8f ff 1b 3d 64 40 2d bd 3e 70 14 bd
       0.047704197 0.038085517 -0.042297736 -0.036239855
0002b0 15 d1 db bc 09 37 bd 3d f8 b6 8c bc 46 16 bb bc
       -0.026833097 0.09239013 -0.01717709 -0.02283777
0002c0 ef 46 de bd a3 6f 7f bc 12 9f 21 3c 1d 89 7f 3c
       -0.10853373 -0.015590581 0.0098645855 0.015596655
0002d0 81 6f 13 be 4d 55 e7 bd e4 47 80 3d 72 bd f6 bc
       -0.14398004 -0.11295567 0.06263712 -0.030119631
0002e0 d1 92 b3 3a e9 3d ed bb a9 e9 3e bd 84 9b 8c 3d
       0.0013700371 -0.0072400463 -0.046609554 0.068656
0002f0 28 4b 21 be df 68 8a bc 23 4d 2b 3d 71 99 54 3d
       -0.15751326 -0.01689571 0.04182161 0.051904146
000300 34 98 78 3d c3 dc db 3c bf 5f e2 bc 54 1c 8e bd
       0.060692027 0.026838666 -0.027633546 -0.06938997
000310 0a f5 9e 3d df 9a 6b 3c 26 6d cb bd 59 85 cd 3b
       0.07761581 0.014380186 -0.09932928 0.006272
000320 b2 eb 38 bc 00 2c 0f bd 64 dc 36 3d 15 46 8b 3b
       -0.011286663 -0.03495407 0.044643775 0.004250298
000330 8b f3 c5 bd a1 2f 88 3c d2 77 93 3c fd e8 b3 3d
       -0.09665593 0.016624274 0.01800147 0.08784673
000340 67 02 02 bd 25 7d b1 bd d7 be 0c 3c c5 9d 0b 3e
       -0.031740572 -0.086664476 0.008590422 0.13634403
000350 a6 e3 04 bc e8 a7 83 bc 26 b6 d5 bd 55 aa 31 bd
       -0.008110916 -0.016071275 -0.10435133 -0.043375332
000360 df fc ad 3d 8f a0 d6 bb 99 1c 3f 3d 55 98 29 3d
       0.08495497 -0.006549902 0.046658132 0.04140504
000370 82 d9 c0 3d b3 75 69 bd b9 82 25 bd 83 1f 16 be
       0.09416486 -0.056997012 -0.04040787 -0.14660458
000380 a7 4f 6f bd ee b3 9c 3d 42 9c b9 bd bc 52 a5 3e
       -0.05842557 0.07651506 -0.09063007 0.32289684
000390 2d f2 56 bd 55 b3 8d bc 0a 6e d9 3c e2 f6 eb 3b
       -0.05247705 -0.017297426 0.026541729 0.0072010616
0003a0 00 c8 58 bd 0b f6 e4 3d 0d 19 f4 bc bd 00 c3 bd
       -0.05292511 0.111797415 -0.029797101 -0.09521625
0003b0 74 96 85 bc f9 c5 74 bd 7c b4 42 be 94 27 79 bd
       -0.016307093 -0.059759114 -0.19014162 -0.06082876
0003c0 fa 51 0e 3d 5d 3f f3 3d d5 18 92 3c 3f 94 9b bd
       0.034746148 0.1187732 0.017834106 -0.07596635
0003d0 17 23 13 3e 92 ab ed 3c 79 eb 41 bd a7 ad 89 bc
       0.14368854 0.029012475 -0.047343705 -0.016806437
0003e0 54 51 cf b9 e1 95 4d bd f8 7f 20 3c 55 89 88 bd
       -0.0003954271 -0.050191764 0.009796135 -0.06666819
0003f0 f5 90 f7 3c 05 7b d9 bc 49 ce 87 3d 32 ee 36 be
       0.030220488 -0.026547918 0.06631143 -0.17864302

h2h.bias f4 [242]
000000 ea b3 11 bc 2f 9a 0b 39 40 fb 40 bc f2 f9 aa 3c
       -0.0088929925 0.00013313511 -0.011778653 0.020871136
000010 f4 98 54 3c 6d c0 8f 3c 85 fd 15 bc 4a 7a 90 3c
       0.01297592 0.01754781 -0.009154682 0.017636437
000020 78 a1 34 3c f9 2e 6b bc 7c 71 07 3d 43 8f 36 3d
       0.011024825 -0.014354461 0.03306721 0.04457022
000030 08 47 50 3c d2 09 e5 3b 4b 8d 47 bc 98 f3 68 3c
       0.012712248 0.006989696 -0.012179683 0.0142182335
000040 83 f6 8c ba 80 c9 85 bc d4 2c e4 bb 66 71 b5 bc
       -0.0010754619 -0.016331434 -0.0069633517 -0.0221488
000050 a9 41 14 bb 98 6e a4 3b 43 35 8f bc 51 05 b5 bc
       -0.0022622144 0.0050180666 -0.017481452 -0.022097262
000060 15 8a 1e bc de 1c 9e bc b3 e2 78 bc 23 f7 3c bc
       -0.009676476 -0.019300874 -0.015190768 -0.011533531
000070 e2 11 3f 3c 2b f6 5c 3d b5 2c 86 3a e2 49 e5 b9
       0.011661978 0.0539457 0.0010236712 -0.0004373333
000080 48 98 63 3a 77 99 df bb 40 62 22 bb 45 83 03 3d
       0.00086820545 -0.0068237144 -0.00247778 0.03210761
000090 a8 11 e5 3a 42 ce f5 b8 81 48 56 3c 51 56 92 3b
       0.0017476575 -0.00011720929 0.01307881 0.004465856
0000a0 42 ad 59 3a 4b c6 30 bc 33 d5 be 3c ed e5 9f 3c
       0.00083037105 -0.010789464 0.02329502 0.019518817
0000b0 76 cf cc bc 9c b6 97 bc 91 bf b1 bc e4 ba 22 bc
       -0.025001269 -0.018519692 -0.021697791 -0.0099322535
0000c0 2c 77 2b 3c 1a e3 4d 3d 23 2f c5 bb 91 16 06 3c
       0.0104654245 0.05026541 -0.006017582 0.008184091
0000d0 65 bc 0b 3d 37 27 12 bc 73 3c ab 3c c0 43 f3 bb
       0.034115214 -0.008920482 0.020902848 -0.007423848
0000e0 16 69 ec bc 6d e8 3f bc a6 3b 90 3c 8f 4b 00 3d
       -0.028858703 -0.0117131295 0.017606568 0.03132206
0000f0 5e b6 09 3b 24 05 fe 3b 42 1a a0 3b f0 be 09 3c
       0.002101324 0.0077520777 0.0048859427 0.008407339
000100 8e 4c 44 bc a3 0d cd 3c 44 59 e9 3c 8a a6 60 3c
       -0.011981143 0.025030917 0.028484948 0.013711581
000110 97 56 b7 3c 63 db db 3c 85 33 82 3b be 18 13 bc
       0.022380156 0.02683801 0.0039734268 -0.008978067
000120 49 57 ee 3c 5e 14 65 3c 6c dd a8 bb c4 ec 36 3c
       0.029094355 0.013981907 -0.0051533487 0.011164848
000130 a8 05 2f bc 40 28 5f bc 00 5b 5d 3b 36 06 c1 bb
       -0.010682501 -0.013620436 0.0033776164 -0.005890633
000140 b3 19 e8 3b 41 7c e3 3c 35 7c 02 3d 04 68 b8 3c
       0.0070831417 0.02776921 0.031856734 0.022510536
000150 86 9e 91 3b 70 db 87 3d bc dd 56 bc ae bb 75 3c
       0.0044439463 0.06633651 -0.013114389 0.01499836
000160 35 eb 63 3d 4b 11 50 bc d9 99 58 3d e0 65 a2 bc
       0.055644233 -0.012699435 0.052881096 -0.019823968
000170 88 98 47 3b 10 01 fa bc e7 e0 90 3b a2 96 c0 ba
       0.0030455906 -0.030518085 0.0044213417 -0.001469333
000180 55 23 8e bc fd 62 0b 3d a0 99 32 bb d9 bf 91 bc
       -0.017350832 0.03402995 -0.0027252212 -0.017791675
000190 d9 bc 3f 3b c2 fc 0d bc 85 79 d9 ba a0 6d 8a 3c
       0.002925685 -0.008666219 -0.0016592002 0.016897976
0001a0 ff 98 3b 3b fe de 2e 3c 6e 7a 8f 3d dc af cb 3c
       0.0028625128 0.010673283 0.070057735 0.02486413
0001b0 bd 58 97 3c 3e 1e 1e 3d 88 71 74 bb 8a b7 12 3c
       0.01847493 0.03860306 -0.0037299115 0.008954892
0001c0 d5 11 8e 3c 2f dd ea bb 03 db 8c bc 4f 16 1b bd
       0.017342487 -0.0071674804 -0.017194277 -0.037863072
0001d0 b7 05 7b bb 8c 1e 31 3c f1 36 f8 bc 42 69 36 3c
       -0.0038302967 0.010810506 -0.030299636 0.011133494
0001e0 3e f8 08 bc 12 d2 fe 3b fc fd 05 3a c9 84 fc 3a
       -0.008359967 0.007776507 0.0005111394 0.0019265647
0001f0 f4 41 bc bc 66 a4 9a 39 8b a6 4e 3c 46 8d 53 bc
       -0.022980668 0.00029495655 0.012612949 -0.0129121
000200 9e 03 91 3c 58 5a cb b8 fc 72 9a bc 95 03 54 bc
       0.01770192 -9.696622e-05 -0.018853657 -0.012940307
000210 ac a3 26 3b 77 44 50 bc 53 e8 0f 3c fa af 67 bb
       0.0025427146 -0.012711636 0.008783418 -0.0035352693
000220 1c 5b 66 3d 57 21 91 bb 48 f7 f8 3b 18 47 33 3c
       0.056239232 -0.0044290232 0.0075978376 0.010942243
000230 59 e4 b2 3c f1 39 23 3d 61 01 1d bc cf 84 13 3d
       0.0218374 0.03985018 -0.009582848 0.036015328
000240 6f 81 7c 3c 6e 64 a5 3c 98 e1 ce 3b 3b 72 78 3c
       0.015411719 0.02018949 0.006313514 0.015163953
000250 4c ff 17 ba 4f 55 0d 3d b8 0f 99 bc 4e 9c 44 3c
       -0.0005798235 0.034505185 -0.018684253 0.012000157
000260 9f 0b ec bc 49 85 89 3c 3d 46 96 bb e9 65 8a 3c
       -0.028814135 0.016787188 -0.00458601 0.016894298
000270 25 a3 9f bc 91 26 1b 3d 5c 13 86 3c d0 45 6b 3c
       -0.019486973 0.037878577 0.016366653 0.014359906
000280 71 28 51 3c 97 91 86 bb 4b 14 d0 bc cc f8 b5 3c
       0.01276599 -0.004106711 -0.025400301 0.022213362
000290 59 53 9a bb be 3a d8 3b 72 62 91 3c 2d 9f ac 3c
       -0.004709643 0.0065987995 0.017747138 0.021071995
0002a0 db 86 10 bc a2 e2 20 bc 24 c4 f9 ba 84 13 ed bc
       -0.008821215 -0.0098196585 -0.0019055647 -0.02893997
0002b0 62 45 bd bc 79 95 d3 bc 6c fb 64 bc 76 78 75 3b
       -0.023104373 -0.02582811 -0.013975959 0.0037455834
0002c0 dd 10 a4 bc a9 09 90 3a 03 6b 5f bc 8d ce 26 bc
       -0.020027572 0.0010989207 -0.013636353 -0.0101810815
0002d0 29 55 0f 3d 92 27 63 bc 93 3b d2 bb 2b 36 8a 3c
       0.034993324 -0.013864415 -0.006415793 0.016871532
0002e0 a3 11 a9 bb 61 0c ad ba 3c 17 43 bc b0 65 cc bb
       -0.005159573 -0.0013202542 -0.011907395 -0.006237708
0002f0 b8 05 3a bb 7e 59 0b bc 23 e9 51 3c f2 52 62 3c
       -0.0028384756 -0.008505223 0.012811932 0.013813721
000300 67 66 62 bc 4b 31 b0 3c 02 3b 90 3c 74 82 b1 3c
       -0.01381836 0.02150788 0.017606262 0.02166865
000310 9b 51 99 3c 33 1e 30 3c d4 c8 89 bc e8 54 bc 3b
       0.01871567 0.010749388 -0.016819395 0.0057474263
000320 5d 87 0f 3b 01 ac 81 bc 64 03 c8 bc 94 0e 9d 3a
       0.002190075 -0.015829088 -0.02441568 0.0011982494
000330 50 e6 65 bc 46 ce eb 3a cd 57 ba ba bb 01 8f bc
       -0.014031962 0.0017990551 -0.001421684 -0.01745688
000340 3f 6c 67 3b a9 27 c0 bc ab 8a bc bc d3 77 5e 3c
       0.0035312322 -0.023456411 -0.02301534 0.013578373
000350 45 29 0f bc 44 8a 86 bc 55 83 e9 bb 9a e7 99 ba
       -0.008737867 -0.016423352 -0.0071262517 -0.0011741996
000360 dc 51 e1 3c 2a d8 c8 3c 4d 6f 16 3d 2b 89 cc ba
       0.027504854 0.024517138 0.03672724 -0.0015604844
000370 de be 26 bc ea 65 38 3c 81 df 13 bc f6 84 10 bc
       -0.010177342 0.011254767 -0.009025455 -0.008820763
000380 36 c1 9d bc 2e c4 81 3c 4e bc 37 3c 3a f2 38 bc
       -0.01925717 0.015840616 0.011214329 -0.01128822
000390 19 61 29 3b 16 38 06 bd c2 ba 00 3d 33 51 b1 3b
       0.0025845228 -0.03276833 0.031428106 0.005411291
0003a0 46 22 9d bc 1e a8 0b 3a e2 73 d0 3b 41 8f 9b bc
       -0.019181382 0.00053274806 0.0063614706 -0.018989207
0003b0 07 66 80 ba a9 e1 9b 3c 68 c3 04 3c ca 07 e9 bb
       -0.0009796032 0.019028502 0.008103229 -0.007111524
0003c0 84 a8 15 3c 01 a3 cd 3c
       0.009134416 0.02510214
