VLSI23_journal/intuitivechip_classifier_lcsvsnlcs_run2/SNN_ep-150-isize-1-8-1-hsize-242-bsize-32-lr-0.001-tmax_ms-100.0-Ts-10.0-k-6-dsetPath-VMODE_allchannels_ALLCLASS_auto_nospkfilter_cleaned_12x16_9mvpp_250mvofs_onedac_itail_50nA_N5b_OFFdcard/chip-classifier-4.pt (torch, 253495 bytes, 8 tensors)

thr_h_1 f4 [242]
000000 00 00 80 3f 00 00 80 3f 00 00 80 3f 00 00 80 3f
       1.0 1.0 1.0 1.0
000010 00 00 80 3f 00 00 80 3f 00 00 80 3f 00 00 80 3f
       1.0 1.0 1.0 1.0
000020 00 00 80 3f 00 00 80 3f 00 00 80 3f 00 00 80 3f
       1.0 1.0 1.0 1.0
000030 00 00 80 3f 00 00 80 3f 00 00 80 3f 00 00 80 3f
       1.0 1.0 1.0 1.0
000040 00 00 80 3f 00 00 80 3f 00 00 80 3f 00 00 80 3f
       1.0 1.0 1.0 1.0
000050 00 00 80 3f 00 00 80 3f 00 00 80 3f 00 00 80 3f
       1.0 1.0 1.0 1.0
000060 00 00 80 3f 00 00 80 3f 00 00 80 3f 00 00 80 3f
       1.0 1.0 1.0 1.0
000070 00 00 80 3f 00 00 80 3f 00 00 80 3f 00 00 80 3f
       1.0 1.0 1.0 1.0
000080 00 00 80 3f 00 00 80 3f 00 00 80 3f 00 00 80 3f
       1.0 1.0 1.0 1.0
000090 00 00 80 3f 00 00 80 3f 00 00 80 3f 00 00 80 3f
       1.0 1.0 1.0 1.0
0000a0 00 00 80 3f 00 00 80 3f 00 00 80 3f 00 00 80 3f
       1.0 1.0 1.0 1.0
0000b0 00 00 80 3f 00 00 80 3f 00 00 80 3f 00 00 80 3f
       1.0 1.0 1.0 1.0
0000c0 00 00 80 3f 00 00 80 3f 00 00 80 3f 00 00 80 3f
       1.0 1.0 1.0 1.0
0000d0 00 00 80 3f 00 00 80 3f 00 00 80 3f 00 00 80 3f
       1.0 1.0 1.0 1.0
0000e0 00 00 80 3f 00 00 80 3f 00 00 80 3f 00 00 80 3f
       1.0 1.0 1.0 1.0
0000f0 00 00 80 3f 00 00 80 3f 00 00 80 3f 00 00 80 3f
       1.0 1.0 1.0 1.0
000100 00 00 80 3f 00 00 80 3f 00 00 80 3f 00 00 80 3f
       1.0 1.0 1.0 1.0
000110 00 00 80 3f 00 00 80 3f 00 00 80 3f 00 00 80 3f
       1.0 1.0 1.0 1.0
000120 00 00 80 3f 00 00 80 3f 00 00 80 3f 00 00 80 3f
       1.0 1.0 1.0 1.0
000130 00 00 80 3f 00 00 80 3f 00 00 80 3f 00 00 80 3f
       1.0 1.0 1.0 1.0
000140 00 00 80 3f 00 00 80 3f 00 00 80 3f 00 00 80 3f
       1.0 1.0 1.0 1.0
000150 00 00 80 3f 00 00 80 3f 00 00 80 3f 00 00 80 3f
       1.0 1.0 1.0 1.0
000160 00 00 80 3f 00 00 80 3f 00 00 80 3f 00 00 80 3f
       1.0 1.0 1.0 1.0
000170 00 00 80 3f 00 00 80 3f 00 00 80 3f 00 00 80 3f
       1.0 1.0 1.0 1.0
000180 00 00 80 3f 00 00 80 3f 00 00 80 3f 00 00 80 3f
       1.0 1.0 1.0 1.0
000190 00 00 80 3f 00 00 80 3f 00 00 80 3f 00 00 80 3f
       1.0 1.0 1.0 1.0
0001a0 00 00 80 3f 00 00 80 3f 00 00 80 3f 00 00 80 3f
       1.0 1.0 1.0 1.0
0001b0 00 00 80 3f 00 00 80 3f 00 00 80 3f 00 00 80 3f
       1.0 1.0 1.0 1.0
0001c0 00 00 80 3f 00 00 80 3f 00 00 80 3f 00 00 80 3f
       1.0 1.0 1.0 1.0
0001d0 00 00 80 3f 00 00 80 3f 00 00 80 3f 00 00 80 3f
       1.0 1.0 1.0 1.0
0001e0 00 00 80 3f 00 00 80 3f 00 00 80 3f 00 00 80 3f
       1.0 1.0 1.0 1.0
0001f0 00 00 80 3f 00 00 80 3f 00 00 80 3f 00 00 80 3f
       1.0 1.0 1.0 1.0
000200 00 00 80 3f 00 00 80 3f 00 00 80 3f 00 00 80 3f
       1.0 1.0 1.0 1.0
000210 00 00 80 3f 00 00 80 3f 00 00 80 3f 00 00 80 3f
       1.0 1.0 1.0 1.0
000220 00 00 80 3f 00 00 80 3f 00 00 80 3f 00 00 80 3f
       1.0 1.0 1.0 1.0
000230 00 00 80 3f 00 00 80 3f 00 00 80 3f 00 00 80 3f
       1.0 1.0 1.0 1.0
000240 00 00 80 3f 00 00 80 3f 00 00 80 3f 00 00 80 3f
       1.0 1.0 1.0 1.0
000250 00 00 80 3f 00 00 80 3f 00 00 80 3f 00 00 80 3f
       1.0 1.0 1.0 1.0
000260 00 00 80 3f 00 00 80 3f 00 00 80 3f 00 00 80 3f
       1.0 1.0 1.0 1.0
000270 00 00 80 3f 00 00 80 3f 00 00 80 3f 00 00 80 3f
       1.0 1.0 1.0 1.0
000280 00 00 80 3f 00 00 80 3f 00 00 80 3f 00 00 80 3f
       1.0 1.0 1.0 1.0
000290 00 00 80 3f 00 00 80 3f 00 00 80 3f 00 00 80 3f
       1.0 1.0 1.0 1.0
0002a0 00 00 80 3f 00 00 80 3f 00 00 80 3f 00 00 80 3f
       1.0 1.0 1.0 1.0
0002b0 00 00 80 3f 00 00 80 3f 00 00 80 3f 00 00 80 3f
       1.0 1.0 1.0 1.0
0002c0 00 00 80 3f 00 00 80 3f 00 00 80 3f 00 00 80 3f
       1.0 1.0 1.0 1.0
0002d0 00 00 80 3f 00 00 80 3f 00 00 80 3f 00 00 80 3f
       1.0 1.0 1.0 1.0
0002e0 00 00 80 3f 00 00 80 3f 00 00 80 3f 00 00 80 3f
       1.0 1.0 1.0 1.0
0002f0 00 00 80 3f 00 00 80 3f 00 00 80 3f 00 00 80 3f
       1.0 1.0 1.0 1.0
000300 00 00 80 3f 00 00 80 3f 00 00 80 3f 00 00 80 3f
       1.0 1.0 1.0 1.0
000310 00 00 80 3f 00 00 80 3f 00 00 80 3f 00 00 80 3f
       1.0 1.0 1.0 1.0
000320 00 00 80 3f 00 00 80 3f 00 00 80 3f 00 00 80 3f
       1.0 1.0 1.0 1.0
000330 00 00 80 3f 00 00 80 3f 00 00 80 3f 00 00 80 3f
       1.0 1.0 1.0 1.0
000340 00 00 80 3f 00 00 80 3f 00 00 80 3f 00 00 80 3f
       1.0 1.0 1.0 1.0
000350 00 00 80 3f 00 00 80 3f 00 00 80 3f 00 00 80 3f
       1.0 1.0 1.0 1.0
000360 00 00 80 3f 00 00 80 3f 00 00 80 3f 00 00 80 3f
       1.0 1.0 1.0 1.0
000370 00 00 80 3f 00 00 80 3f 00 00 80 3f 00 00 80 3f
       1.0 1.0 1.0 1.0
000380 00 00 80 3f 00 00 80 3f 00 00 80 3f 00 00 80 3f
       1.0 1.0 1.0 1.0
000390 00 00 80 3f 00 00 80 3f 00 00 80 3f 00 00 80 3f
       1.0 1.0 1.0 1.0
0003a0 00 00 80 3f 00 00 80 3f 00 00 80 3f 00 00 80 3f
       1.0 1.0 1.0 1.0
0003b0 00 00 80 3f 00 00 80 3f 00 00 80 3f 00 00 80 3f
       1.0 1.0 1.0 1.0
0003c0 00 00 80 3f 00 00 80 3f
       1.0 1.0

thr_o f4 [6]
000000 00 00 80 3f 00 00 80 3f 00 00 80 3f 00 00 80 3f
       1.0 1.0 1.0 1.0
000010 00 00 80 3f 00 00 80 3f
       1.0 1.0

i2h.weight f4 [242, 8]
000000 70 a6 08 be 0d a5 d7 bd 12 bf bc 3d 47 48 6e 3d
       -0.13344741 -0.10529528 0.09216131 0.058174398
000010 ce 35 bf 3d 1a 5c a0 bd 57 c1 e8 3d 27 84 19 be
       0.09336434 -0.07830067 0.11365002 -0.14991818
000020 82 55 8d 3d 76 85 5c bc 80 c1 08 be e3 de a5 bd
       0.06901075 -0.013459554 -0.13355064 -0.08099153
000030 85 a1 b5 bd 8a e0 cb 3d 40 1c 82 3c c3 4a 16 be
       -0.08868698 0.09954937 0.015882611 -0.14676957
000040 18 af 45 3e 80 fb 17 3e 69 2e cf bd 3d 69 ac bd
       0.19305074 0.14842033 -0.10116274 -0.0841851
000050 d7 56 09 3e fc ee b1 bd 20 a0 af 3d 5f 45 70 3d
       0.13412033 -0.08688161 0.08575463 0.058659907
000060 1c 8f 85 3c 88 93 0b 3e 6d da 8c 3d 80 18 ae 3b
       0.016303591 0.13630497 0.06877599 0.005312979
000070 07 da c1 bd e2 ef 12 3b 23 e5 95 3d c4 6b 44 bd
       -0.094654135 0.0022420813 0.07319095 -0.047954336
000080 1f 63 9e bd bb 4d ca 3d 05 a9 af bc 89 b9 19 be
       -0.077337496 0.09878107 -0.0214429 -0.15012182
000090 a7 b9 c4 bd 30 af 16 3e b6 5c 54 bd fb ac cf bd
       -0.09605723 0.14715266 -0.05184623 -0.10140415
0000a0 8d d5 82 bd b3 67 fd bb d6 74 55 3d d5 76 a4 bd
       -0.06388388 -0.007733309 0.052113377 -0.08030478
0000b0 df 63 3f be 6f fc 0f be f0 dd 15 be f0 2f 58 be
       -0.18690442 -0.1406114 -0.14635444 -0.21112037
0000c0 ab 5c c9 3c 56 87 f2 bc 6c f6 9b 3d b7 b0 fa bd
       0.02458032 -0.029605549 0.076153606 -0.12240737
0000d0 24 6b be bd 82 23 ab 3d b0 1f de bd 96 d4 eb bd
       -0.09297779 0.08356382 -0.10845888 -0.11515157
0000e0 2f 85 2f bd b9 65 f6 bd 20 16 d6 bc b2 60 ee bd
       -0.042851623 -0.12031121 -0.026133597 -0.11639537
0000f0 7b 56 05 bd 2b 9f 8a bd 6b d9 c0 3d ac 91 bc bd
       -0.032553177 -0.0676864 0.09416469 -0.09207472
000100 1f 85 59 bd 51 d7 1c bd b4 14 c6 3d 30 df 66 bd
       -0.05310547 -0.03829128 0.096719176 -0.056365192
000110 45 47 28 bd 73 02 97 bd a9 ef d2 3d 62 bb 26 3d
       -0.041083593 -0.07373514 0.10299618 0.040706046
000120 d8 4e cd 3c 77 25 02 3e 72 6a 3c ba ff c8 c4 bc
       0.02506201 0.12709604 -0.00071874924 -0.024021624
000130 68 8e da bc f8 0f df bd cd 0d 05 3e 3a 26 ad bd
       -0.026679233 -0.10891718 0.12993546 -0.08454557
000140 82 59 fa 3d 44 80 f4 bd 82 15 5b bd 6a 8d 3f bd
       0.122241035 -0.11938527 -0.05348731 -0.046765722
000150 1e 40 d9 3d ad 00 bc bd 17 9e b3 3d 96 91 c0 bb
       0.106079325 -0.091798164 0.087703876 -0.00587673
000160 bd ae da 3d b8 5b 18 3e ad 2d 57 bc b5 87 0d 3e
       0.1067786 0.14878738 -0.013133449 0.138213
000170 0d 74 00 be f2 44 be bc 1e b8 86 bd ec 71 05 be
       -0.1254427 -0.023226235 -0.06578086 -0.13031739
000180 9a e9 fd bc ed 9b ea 3d 47 f7 85 3d 58 00 cf bd
       -0.030995179 0.11455522 0.06541305 -0.101074874
000190 1d 89 be 3d 9c c2 83 bd 73 db 13 3e 91 83 cd 3d
       0.09303496 -0.06433603 0.14439182 0.1003486
0001a0 6c cf 03 bd 8d 75 10 3e 81 08 e2 bc 10 84 9c 3c
       -0.032180235 0.14107342 -0.027591946 0.019105941
0001b0 cc 9d 2c 3e f7 3c 64 bc b1 bd 53 bd 9a de d7 3c
       0.1685707 -0.013930551 -0.051694576 0.026351262
0001c0 4a 67 06 3e c8 88 08 be 1d 19 be bd ac a6 6e bd
       0.13125339 -0.13333428 -0.09282134 -0.05826442
0001d0 e9 ee c6 3d bd 38 ea bc 35 9e c2 bd f1 99 b3 bd
       0.09713537 -0.028591508 -0.09502832 -0.08769596
0001e0 7f 3d 76 3d 2b 79 86 3c 19 d1 0d 3e a9 a8 03 3e
       0.06011724 0.0164152 0.13849296 0.12857307
0001f0 8b 17 71 bb c6 18 cf 3d dd a6 41 bd 3c 0e ba bc
       -0.0036787714 0.10112147 -0.047278274 -0.022711866
000200 33 8d 1d 3e 2c 15 19 3e 49 c6 d1 3c bd 8c 9d bd
       0.15385894 0.14949483 0.025607245 -0.07692859
000210 f6 e2 1f be a7 24 8e bc 6b bc 14 be 2f 61 b6 3d
       -0.15613922 -0.017351462 -0.14525001 0.08905255
000220 58 ef fc bd 21 3b 9c 3d f0 35 cc 3d c1 1d 14 bd
       -0.12350339 0.076284654 0.09971225 -0.036161188
000230 4a ba 08 3d 9d 2a fc bd b6 b1 5b bb 75 40 f8 3d
       0.033380784 -0.12312815 -0.0033522672 0.12121669
000240 24 e9 5b 3e 3c 19 a1 3b e6 85 83 3c 6f c7 a3 3d
       0.21475655 0.0049163383 0.016055059 0.07997023
000250 49 0b 1c be 24 ab 21 bd 52 19 1f bd b3 60 18 3e
       -0.1523868 -0.039469853 -0.038842507 0.14880638
000260 b2 00 2f bb 4d 73 1d bd b6 bc 02 3e 46 cc a4 bb
       -0.0026703295 -0.038440038 0.127673 -0.005029234
000270 30 c8 21 3d e3 61 0b be 0c 26 d4 bd 79 69 b2 3d
       0.039497554 -0.1361156 -0.10358819 0.087115236
000280 68 95 df 3d a3 25 eb 3d 98 f7 8b bd 96 ea c3 bb
       0.10917169 0.11481788 -0.06834334 -0.0059788926
000290 68 82 33 bd 68 57 f8 3d a6 c4 dd bd a7 93 db 3d
       -0.043825537 0.121260464 -0.10828523 0.10721522
0002a0 16 60 51 be 9f 66 d0 bc 11 16 14 3e 67 36 46 bd
       -0.2044681 -0.025439559 0.14461543 -0.048391726
0002b0 ff ed 27 be 0b bd 20 be 8e 88 ec 3d f9 d4 e6 3d
       -0.16399382 -0.15697114 0.11549483 0.1127109
0002c0 98 a1 c0 3d ec 4d 17 3d 9c a4 ef 3d d2 9c c5 bd
       0.094058216 0.036939546 0.117013186 -0.09649052
0002d0 eb 35 c7 3d 05 df 24 3d 9b 1d 8a 3d 85 ca 9f bd
       0.09727081 0.04025175 0.06743928 -0.078022994
0002e0 99 af 5d be f6 bb ae bd 8b f7 b6 3d 95 57 be bd
       -0.21649016 -0.085319445 0.08933934 -0.09294049
0002f0 ed 14 0f be 40 bd bf 3d dd ae f3 ba ca cc 9b 3d
       -0.13972826 0.093622684 -0.0018591542 0.0760742
000300 70 7b bf bd d8 31 fd bd 55 af 74 bd e3 67 d7 bc
       -0.09349716 -0.123630226 -0.059737522 -0.026294654
000310 6e bf f3 3d c8 1c f0 3d 1b 07 b2 3d d0 1e f2 3c
       0.11901747 0.117242396 0.086927615 0.029555708
000320 88 50 11 3e 31 35 0a 3e ee 34 b5 bd 9e 25 eb 3b
       0.14190876 0.13496853 -0.08847986 0.007176115
000330 a0 54 95 3d d5 ab c0 bd 28 6b 1e bd 76 86 ff 3d
       0.072915316 -0.09407774 -0.03867641 0.12476818
000340 5e 32 61 3e 6e c8 0f be 0e 82 a8 3d 00 56 cb 3d
       0.2199187 -0.14041302 0.08227931 0.099285126
000350 81 d6 58 bd 73 74 7b 3d 7c 34 86 bd a2 34 65 bd
       -0.052938942 0.06139035 -0.06552979 -0.055958398
000360 a7 3e 08 3e 58 7c 02 3e fd fc 01 be 02 53 be bc
       0.1330515 0.12742746 -0.12694164 -0.02323294
000370 10 a1 09 be 41 26 23 bc e5 2a 11 bc bf 31 83 bd
       -0.13440347 -0.009957851 -0.0088603245 -0.06405973
000380 db d9 68 3d e0 2a 1d 3d 75 4a 16 be df ad 57 bd
       0.05684839 0.038370967 -0.1467684 -0.05265605
000390 61 a4 13 be 54 89 e7 bb c6 a1 85 3d ec ef ba 3d
       -0.14418174 -0.0070659313 0.065249965 0.09127793
0003a0 1f 9f 2e be 52 52 85 3d 93 75 1a 3d 2f 28 fc bd
       -0.17052887 0.06509842 0.037709784 -0.12312352
0003b0 9c ad 1e be 48 38 4e 3c 21 a5 0a 3e e0 e6 e9 bc
       -0.15495914 0.012586661 0.13539554 -0.028552473
0003c0 1c 59 b7 bc 21 09 ba bd f7 10 06 3e 47 fe cb 3d
       -0.022381358 -0.090837725 0.13092409 0.09960609
0003d0 34 ba a7 3d 8b f4 88 3d c7 ad 65 3d cc 10 0b 3e
       0.08189812 0.06687268 0.05607393 0.13580626
0003e0 fa 4d 6a 3d 64 46 0e bc 14 46 0e 3d 9a de d6 3c
       0.05720327 -0.008683775 0.0347348 0.026229192
0003f0 ec db b3 3c ca e7 c0 3b 36 1a 86 bd b2 a3 ee 3b
       0.021955453 0.0058870064 -0.06547968 0.0072826976

i2h.bias f4 [242]
000000 75 ed a6 3b be 58 d1 bc f3 77 8a bc 9d 34 97 3b
       0.005094225 -0.02555501 -0.0169029 0.0046144263
000010 dc 01 6d ba f8 5b 08 3d aa 48 01 bc b4 39 fd 3c
       -0.00090411096 0.033290833 -0.00789086 0.030911304
000020 0d 53 16 3c c7 04 b7 bc 62 a8 e5 bb 64 33 2d 3d
       0.009175074 -0.022341145 -0.007008598 0.042285338
000030 c0 1e 4a ba c3 af e5 38 41 90 08 bd f2 63 ad 3b
       -0.00077102706 0.00010952309 -0.033340696 0.0052914554
000040 bb 2a 4d bc a1 8a 8c bb 18 68 bb 3c 39 1a 81 3c
       -0.012522395 -0.004288987 0.022876784 0.015759574
000050 13 91 07 bb 74 56 85 bc a1 05 bb 3a a6 28 8c 3a
       -0.0020685836 -0.016276576 0.0014268645 0.0010693267
000060 f4 19 bd 3b 39 22 99 bc 75 71 43 bb a0 71 8e bc
       0.005770916 -0.018693076 -0.0029822264 -0.017388165
000070 6b 84 52 bc 9f b6 cc 3a 38 b2 15 bd 08 02 79 3b
       -0.012848954 0.001561839 -0.036546916 0.0037995595
000080 5e ab 8c 3a 7b fe 2e bc 61 f5 c5 bc c2 3e 3d bc
       0.0010732224 -0.01068079 -0.024164857 -0.011550607
000090 de 89 2c bd 97 c0 2c bc 5b f0 a6 3c df 10 50 3c
       -0.042123668 -0.010543964 0.020378282 0.012699335
0000a0 20 0e 1a 3c ec 5b 03 bd 48 12 a3 bc d8 02 51 3c
       0.009402782 -0.032070085 -0.019906178 0.012757026
0000b0 c5 e3 81 bb e0 a0 83 3b ae b6 fa bb 50 92 50 3c
       -0.00396392 0.0040169805 -0.0076511716 0.012730196
0000c0 5d 08 6a bc 62 f1 aa 3c 44 38 49 bc 6d 8d 4e bc
       -0.0142842205 0.020867053 -0.012281481 -0.012606961
0000d0 ae 96 72 3c b8 67 e5 bb ce 96 4e 3c eb af 9e bc
       0.014806433 -0.0070008896 0.012609197 -0.019370994
0000e0 98 60 a6 bc 0b dc 88 3c c4 55 8f 3c 10 d7 dc bc
       -0.020309731 0.016706487 0.01749695 -0.026958019
0000f0 09 cc 92 bc f8 fd 9c 3a bc 29 26 bb 2e 73 8b 3d
       -0.017919557 0.0011977544 -0.0025354465 0.06809078
000100 5c 32 04 3d 93 e9 1f bc b6 7e cc 3a ba 3b 5d bc
       0.03227459 -0.009760278 0.0015601728 -0.013503009
000110 ca 50 9e 3d d3 65 c7 3b c3 21 a2 3b 35 45 89 3c
       0.07730253 0.0060851364 0.0049478724 0.016756633
000120 8a a1 36 3c 92 d5 ed 3d 59 fe 67 bc e5 09 51 bc
       0.011146912 0.11613001 -0.014159762 -0.012758707
000130 c3 8f 8b 3d 70 78 c7 bc 6c 1e d8 3d d9 f8 3c 3b
       0.0681453 -0.024349421 0.105526775 0.0028834848
000140 4a ca cc bb 5e 7a 90 3a 04 1c d1 3c 5b 4b af 3c
       -0.0062497007 0.0011022796 0.025526054 0.021398237
000150 25 1d 54 3d 5e f6 6c 3b 75 7c b3 3b 14 e0 3c 3d
       0.051785607 0.0036157588 0.005477483 0.046112135
000160 55 05 04 bc 5f 72 7a bc 6c 52 49 3d f3 7d 8a b7
       -0.008057912 -0.015286057 0.04915087 -1.6509532e-05
000170 c2 a5 69 3b 1c e8 72 3b da be e7 3b 5c be d7 3b
       0.0035651778 0.0037064617 0.007072312 0.006583972
000180 92 e0 35 3b 74 5a 1c 3c 60 ab 36 3c 73 0a 8b bc
       0.0027752263 0.00954305 0.011149257 -0.016972756
000190 e5 fa 53 3a 3c 75 a6 3c df 23 77 3c 2e 3f 0d b9
       0.00080863974 0.020319574 0.015084236 -0.00013470344
0001a0 48 d3 85 3c 69 6b 21 3c 1f d2 81 bc 0c 6c 3d 3c
       0.016336098 0.009852269 -0.015847264 0.011561405
0001b0 36 ea cd bc f9 1b 12 bd 0d e1 16 bc 75 f3 80 bc
       -0.025136095 -0.035671208 -0.00920893 -0.01574109
0001c0 06 7f 24 bb 71 6c 1d 3d 8e d7 8d 3c 72 75 84 3c
       -0.0025100126 0.038433496 0.017314699 0.016169284
0001d0 4b 3f 8b 3b 65 72 40 3c ab b1 31 bc df 19 ff ba
       0.0042494885 0.011746024 -0.010845582 -0.0019462666
0001e0 0e 8e 0a bc 23 13 fa bc a2 35 84 3b e2 a5 f2 3b
       -0.00845672 -0.030526703 0.004034714 0.0074050287
0001f0 fc 0d a8 3c 84 8f 55 3d 29 90 eb bb 23 6d 0e bc
       0.02051448 0.05213882 -0.007188816 -0.008693012
000200 99 62 2b 3b 33 7a 77 bc b6 e8 e1 ba e6 9f 3e bc
       0.0026151298 -0.015104818 -0.0017235491 -0.011634802
000210 47 f1 22 bc 56 69 ab bb 4c 06 74 3c 7d 34 10 b9
       -0.00994522 -0.005231063 0.014894079 -0.00013752464
000220 81 5f 0e bd 3c b3 35 3c 39 83 ea bb 67 fc 6c 3b
       -0.03475905 0.011090096 -0.0071567562 0.0036161186
000230 f2 8e 25 bd 9a 64 32 3d bb 6d 4e bb 95 5d e6 bc
       -0.040419526 0.043552972 -0.003149851 -0.028120795
000240 0d 5c d9 ba cb 90 94 3c 25 c8 9d bb eb 3b 2c 3c
       -0.0016583219 0.018135449 -0.004815119 0.010512332
000250 3c fe 14 bc 5e 9e e1 bb 63 1c 42 3d 71 54 82 38
       -0.009093817 -0.006885334 0.047390353 6.2146115e-05
000260 42 c7 1d 3c 08 3a b9 bb 8b c3 f9 3b 3c a1 ce bb
       0.009630026 -0.00565267 0.0076221875 -0.0063058417
000270 07 67 22 3b 9f bc 80 3b be e0 d8 3b 81 5a 10 3d
       0.0024780647 0.0039287354 0.006618588 0.03524256
000280 2a 97 5c 3c 29 af 8f bc de 79 6d bc 24 07 f2 3b
       0.013463775 -0.017539578 -0.014494387 0.007386105
000290 b2 78 07 bc 11 5d 7a 3c 3c a1 ae 3b 55 04 f1 b9
       -0.008268522 0.015280978 0.005329279 -0.0004597033
0002a0 8c 61 b3 3c 51 d4 fb bb 3f fc bc 3b c3 56 78 3a
       0.0218971 -0.007685222 0.0057673748 0.0009473378
0002b0 f5 fe 3a 3c ea ca 48 3c ff 7a 84 3c 18 60 4b 3b
       0.011413326 0.01225541 0.01617193 0.0031032618
0002c0 21 f1 3f bc 52 c8 0e bc d9 1a 51 bc d0 ed a4 bc
       -0.011715204 -0.008714752 -0.012762749 -0.02013293
0002d0 22 01 c6 3d 5a 7a 36 bc 9b 0d 85 3a e3 29 52 bb
       0.09668185 -0.011137569 0.001015115 -0.0032068423
0002e0 45 8b b3 bc d5 56 80 3d 0f 38 9b bc 2b a9 19 3c
       -0.021916995 0.06266562 -0.01894763 0.009378712
0002f0 51 7c ad 3c d4 6b bf 3b a8 0f e9 39 7c 1c 4d bd
       0.021177443 0.0058417115 0.00044452888 -0.050075993
000300 86 e5 99 3c 28 31 33 bc c8 80 bf bc 76 9c 03 bd
       0.018786203 -0.010937013 -0.023376837 -0.032131635
000310 dc 18 8e 3d 50 c8 16 bd 7e 2c 87 bb 44 1e c0 bc
       0.06938335 -0.036812127 -0.004125177 -0.023451932
000320 66 61 ac 3c cc 69 8e 3a b4 0a 9d bb 5b f1 2d 3a
       0.021042537 0.001086527 -0.0047925357 0.0006635391
000330 83 50 c2 3d d6 be 41 3d d0 54 5d bc 16 f8 63 3a
       0.09488013 0.047301136 -0.01350899 0.00086963305
000340 e9 a0 1a 3c ba bc 11 3d e0 9d 6a 3c b3 a2 4f 3d
       0.009437778 0.035580374 0.014319867 0.05069227
000350 7d 10 3b bc b7 18 5d bd c8 24 67 bc e5 56 86 3a
       -0.011417505 -0.053978648 -0.01410789 0.0010249285
000360 c6 de 26 3d 80 ad 53 bc 7d 0e 4a bc 34 d4 b7 3c
       0.040739797 -0.012919784 -0.012332556 0.022440054
000370 ec 23 4c bc 74 df 89 bc 0f 6b 33 bc 7e 68 f8 3c
       -0.012459736 -0.016830184 -0.010950818 0.030323263
000380 5a 9e f7 3c b7 b7 47 bb b1 df 02 3d ac 7e 52 3d
       0.030226875 -0.0030474493 0.03195161 0.051390335
000390 37 b8 29 bc 42 38 6b bc f9 0f 7c bc 2d 2a 9b 3a
       -0.010358862 -0.014356675 -0.015384668 0.0011838131
0003a0 9e 6e 34 bc 27 08 06 bb 3f 49 9c 3c 16 da 07 bc
       -0.011012701 -0.0020451637 0.019077895 -0.008291742
0003b0 de 74 a3 bb d8 f4 96 3c b6 c9 11 3c b9 68 16 3b
       -0.004988297 0.018427297 0.008898189 0.0022950603
0003c0 70 da 33 bb c3 9f 4f 3d
       -0.0027443431 0.05068947

h2o.weight f4 [6, 242]
000000 36 8c 17 be c6 60 0e 3e 44 23 87 3d b5 db 09 3e
       -0.1479958 0.13904104 0.06598523 0.13462718
000010 ea 54 0d bd 2f 17 00 be 04 9f 75 bd ec 58 0b be
       -0.03450481 -0.12508844 -0.059966102 -0.1360814
000020 75 a5 09 be 0d 4e ea 3d bc f7 ce bc ff ee 71 bd
       -0.13442023 0.11440668 -0.025264613 -0.059065815
000030 19 a4 90 3d 90 69 1e 3e 1e fd 35 3e 10 de 04 3e
       0.07062549 0.15469956 0.17772338 0.12975335
000040 38 45 2f 3e 14 4b 4c be 0d 1f c5 bd 0d 8a 93 bd
       0.17116249 -0.19950515 -0.09625063 -0.072040655
000050 76 f0 08 be 4d 09 a6 3b d1 d5 01 be 64 c3 7a bd
       -0.13372979 0.0050670267 -0.1267922 -0.061221495
000060 69 55 06 be 3e 49 69 3d 11 0d 4e 3b 7c 99 0d 3e
       -0.13118519 0.056954615 0.0031440894 0.13828081
000070 04 a6 fd 3d ef 37 9c 3b ec a3 ff 3d 90 bd ac 3d
       0.123851806 0.00476741 0.124824375 0.08434594
000080 71 ec bf 3b 23 68 92 bd 11 c9 02 be 86 d7 45 3d
       0.0058570434 -0.07148769 -0.12772013 0.048301242
000090 50 27 1a 3d ed 9d 54 3d 4b 3d db 3c aa dd c2 bd
       0.037635148 0.051908422 0.026762625 -0.09514935
0000a0 e2 67 06 be 64 1f a8 3d 4c c7 19 3e a2 c3 35 bd
       -0.13125566 0.08209112 0.15017432 -0.044376023
0000b0 76 10 47 bd ad ff 0e 3c c0 54 ef 3d cd 2a 23 be
       -0.048599683 0.00872795 0.11686087 -0.15934296
0000c0 1d de d0 3d 04 14 13 be 6d 3d d0 bd ae 33 0b bc
       0.10198615 -0.14363104 -0.10167966 -0.008496208
0000d0 c1 74 96 bc d0 8b 18 be e5 f8 17 be 85 54 42 3d
       -0.01836622 -0.14897084 -0.1484104 0.047443885
0000e0 d2 92 01 3e b8 2a f3 bd 5f 40 00 be de d6 97 3d
       0.12653664 -0.11873382 -0.12524556 0.074140295
0000f0 0e b2 e5 3c fa a3 db bd c9 13 88 bd c9 a0 a1 3d
       0.028039005 -0.107246354 -0.06644399 0.078919955
000100 98 32 eb bd 0d cb a8 3d 75 4a ce 3d 21 b1 c6 bd
       -0.11484259 0.08241854 0.10072795 -0.097017534
000110 e8 82 e7 bc 0f 14 a1 3d 46 e8 06 ba 8e a4 08 be
       -0.028260663 0.07865154 -0.0005146306 -0.13344023
000120 63 4c 89 bc 3d 19 ac bd ad 37 1c 3d 18 33 0f bc
       -0.016760057 -0.08403251 0.038139034 -0.008740209
000130 75 a6 00 be 59 6f f2 3d d2 50 68 bd 3a 54 4e be
       -0.12563498 0.11837644 -0.0567177 -0.20149317
000140 93 5b e3 3b 2c 4f ca 3d 15 84 1e be 18 7d f2 bd
       0.0069384067 0.09878382 -0.15480073 -0.11840266
000150 43 4d 8a 3c 8f 21 e6 3d d2 6f 01 be d7 32 f9 3d
       0.016882544 0.112368695 -0.12640312 0.121679
000160 54 d1 90 bc 39 ee 49 3e 76 81 64 be b6 8b b3 3d
       -0.01767794 0.19719781 -0.2231501 0.08766882
000170 50 ce ff bd e5 64 52 3d 7e e6 26 be bf e7 f0 3d
       -0.12490523 0.05136575 -0.16298863 0.11762952
000180 76 9e dc bd cc e0 41 bd 98 b4 d7 3d d3 8c 18 3e
       -0.107724115 -0.047333524 0.105324924 0.1489747
000190 d3 be 5a be 06 1c da bd 75 f9 15 be f6 52 8b bd
       -0.21361856 -0.10649876 -0.14645942 -0.06802933
0001a0 d0 67 ad 3c fb 0f 38 be fd eb 41 3d 11 b3 ea bd
       0.021167666 -0.17974846 0.047344197 -0.114599355
0001b0 af 29 d5 3d 66 38 7a bd fa d9 1f 3c e3 a8 0e 3e
       0.10408341 -0.061088942 0.0097565595 0.13931613
0001c0 5b 56 ed 3c 66 b9 ef 3d 96 72 e8 bd 7a 03 00 be
       0.028971842 0.11705284 -0.113499805 -0.12501326
0001d0 d5 89 44 be 03 3a a6 bc 3f 0b b3 3c b9 c7 4c bd
       -0.19193204 -0.020291334 0.021855948 -0.049995158
0001e0 62 d4 41 3d c1 4a 27 bc 51 7e 4f bd 58 d0 a5 3d
       0.047321685 -0.010210694 -0.050657574 0.08096379
0001f0 bc 8e 3b be fd ad 29 be bf d4 80 bb 27 c7 fe 3d
       -0.18316168 -0.16570278 -0.0039316113 0.12440329
000200 95 18 d9 bd d6 52 e1 3d 09 08 3c be d1 33 fd 3d
       -0.10600392 0.11002128 -0.1836244 0.12363399
000210 2d 22 0b 3e ca 1f bc 3c 1f f1 1d 3e ff 73 1f bd
       0.13587256 0.022964377 0.15424012 -0.038928982
000220 9c b2 be bd 39 60 bc 3c e6 97 b8 3d b0 09 c8 bd
       -0.09311411 0.022995101 0.09013347 -0.09767473
000230 be d8 a8 3d 0a 21 9c bd 0a 2b d2 3d e2 8e 1a 3e
       0.08244465 -0.07623489 0.10262115 0.15093568
000240 77 cc 4d be 65 45 0b be f3 53 a1 bd 25 11 26 be
       -0.20097528 -0.1360069 -0.0787734 -0.16217478
000250 5a d7 ac ba 54 9a b9 bd c6 c7 ac bd 72 0e 13 3e
       -0.0013186738 -0.09062639 -0.08436541 0.14360979
000260 1f 8a 23 3d b5 fe c7 3d e3 b3 1f be 8a 09 b0 3d
       0.039926644 0.097653784 -0.15595965 0.085955694
000270 bf 1a 24 be 36 66 c9 bc cb 75 2d be 38 a6 08 be
       -0.16025828 -0.02458487 -0.16939466 -0.13344657
000280 05 a4 68 bd a5 95 78 3c 32 3e cd 3c e9 20 25 3c
       -0.056797046 0.015172397 0.025054071 0.010078647
000290 3b 31 22 3d 0c fe 0f be e6 f2 9c 3d 9f 33 86 3d
       0.03959773 -0.14061755 0.07663517 0.06552815
0002a0 e8 b4 e4 3d 51 b0 ab 3d 18 f0 05 3e ed d1 4b bd
       0.11167318 0.08383239 0.1307987 -0.049760748
0002b0 63 d2 b9 bd 5f c0 b3 3d 4e 99 60 bd af 6b 85 bc
       -0.09073331 0.08776926 -0.054833703 -0.0162867
0002c0 bf a7 fd bc 84 99 b9 3d aa f1 24 3e 25 a7 e2 3d
       -0.030963777 0.09062484 0.16107813 0.110670365
0002d0 5d 02 4c be 64 cb 82 3d ec a3 0f 3d e2 19 a2 bd
       -0.19922777 0.0638645 0.035068437 -0.07915093
0002e0 e8 f0 7d 3d a6 da cd bd f5 b4 90 bc d7 e6 f7 3c
       0.061997324 -0.100514695 -0.017664412 0.03026144
0002f0 45 30 19 be da 91 07 bd 12 b0 5a 3a 30 23 a2 3d
       -0.1495982 -0.03309808 0.00083422766 0.07916868
000300 60 6c 2b bd 7d ec eb 3d 1c a1 c7 3d de 1d 7c 3d
       -0.0418514 0.11519716 0.09747526 0.06155192
000310 1f 76 4b be 08 94 f9 3d 76 60 b8 3d 74 39 1d 3d
       -0.19869278 0.12186438 0.090027735 0.03838487
000320 3b 15 f8 bd 18 c4 20 3e f6 c8 f5 bd 1e 9a ac bc
       -0.121134244 0.15699804 -0.12001221 -0.021069583
000330 1d 42 d7 3c a4 b2 ca bd 85 22 e5 3d 28 bb 24 be
       0.026276642 -0.09897354 0.11188225 -0.1608702
000340 84 b0 00 be 48 0b 19 be 8a 86 16 be 2e 55 16 be
       -0.12567335 -0.1494571 -0.1469976 -0.14680931
000350 0e 20 c5 3c d0 16 c9 3d d8 1a 44 bb 3a 32 7c 3d
       0.024063136 0.09818804 -0.0029923227 0.061571337
000360 ce 21 16 be a1 91 34 3d 67 99 1c be c1 aa 02 be
       -0.14661333 0.044084195 -0.15292893 -0.1276045
000370 96 5a 44 3c 2c 5d 17 3e c1 4c de bc 5c e2 33 be
       0.011984488 0.14781636 -0.027136208 -0.17566818
000380 d5 0c 06 3d c9 da 54 3e be de 3a 3d 20 00 08 bd
       0.03272708 0.20786585 0.04562258 -0.033203244
000390 84 57 b0 3d fd 5f d7 3d 24 ed c0 3d 37 f3 fc 3d
       0.08610442 0.10516355 0.09420231 0.12351077
0003a0 3b d4 95 ba 86 7f 8e 3c 32 00 bc 3c 79 ec 69 3d
       -0.0011431047 0.017394792 0.022949312 0.057110284
0003b0 69 2b 19 be ca 59 2a 3e 2c dc 14 bd 22 a7 27 be
       -0.14957966 0.16635814 -0.036342785 -0.1637235
0003c0 f4 35 d3 bc a0 d2 2b be 2f 4c 37 bd 57 f6 c0 3d
       -0.025782563 -0.16779566 -0.04475039 0.094219856
0003d0 2a fa 10 3e 62 b4 96 3d ef f2 8a bd d7 be 9f bd
       0.1415793 0.07358624 -0.06784617 -0.07800072
0003e0 96 2d c3 3c 05 57 24 be 5b 6b db 39 7c 8e 56 bd
       0.023825448 -0.1604882 0.0004185092 -0.052381977
0003f0 bc 4e 3a 3d 60 ed d6 bd df 10 d8 bd 1f 13 39 3e
       0.045485243 -0.104944944 -0.10550093 0.180737

h2o.bias f4 [6]
000000 7f 89 5a bc f1 80 c9 3d ae 89 53 3c ea 5b d2 ba
       -0.013338446 0.09839047 0.012911243 -0.0016049121
000010 c0 1a 4c 3b a7 b7 a8 3c
       0.0031143874 0.020595385

h2h.weight f4 [242, 242]
000000 8d c3 b4 3d 25 3e fc 3d 60 ca 1b bd 0b 7d 4c bb
       0.08826361 0.12316541 -0.038034797 -0.003120246
000010 25 dc 3e be 98 3d 0e 3e 78 ee c7 bd a2 c8 2f 3b
       -0.18638666 0.13890684 -0.09762281 0.0026822467
000020 0e b8 ba 3c 91 e9 ce 3a 50 1e 9e bc ae ed 94 bd
       0.022792842 0.0015786161 -0.019301564 -0.07271896
000030 7e 21 82 bd b9 0d 04 3d 71 f1 cc 3b fb 9f e6 bd
       -0.063540444 0.03223965 0.006254368 -0.112609826
000040 28 1b 5a bc 73 40 60 bd 27 54 93 3c b0 2b 58 bb
       -0.013312139 -0.054748964 0.017984463 -0.0032985024
000050 74 d3 93 bd 07 25 e9 3d 18 73 03 3d 8b ab 66 bd
       -0.07218066 0.113840155 0.032092184 -0.05631594
000060 73 f5 e9 3d 8d c3 f7 3d 81 bf 89 bd c0 3e 3e 3c
       0.11423769 0.12097845 -0.067259796 0.01161164
000070 62 ca df bd 31 49 c9 bc 17 bb 1d 3d 60 87 d5 bd
       -0.10927273 -0.024571033 0.0385085 -0.10426211
000080 67 42 92 3d 69 41 d9 bb a5 df e5 3b 65 33 9b 3d
       0.071415715 -0.006630112 0.007015186 0.07578162
000090 24 55 4e bd 82 d8 9d 3b 4a 40 82 bd 3f f7 af bd
       -0.050374165 0.0048170695 -0.063599184 -0.0859208
0000a0 b2 7d 5f 3d 41 9d 41 bd 16 42 03 be 15 db 73 bc
       0.05456323 -0.04726911 -0.12818179 -0.014883776
0000b0 f2 9b 2d 3d 5a 22 0d be e8 03 62 bd 6d cb 1e bd
       0.04238505 -0.13782635 -0.055179507 -0.03876822
0000c0 9d 16 e2 3d 19 53 e4 3d 11 00 63 bd 7f 95 89 bd
       0.110394694 0.11148662 -0.055419985 -0.06717967
0000d0 d0 8c e7 bd c3 d0 8f bc 1e 22 19 3e 09 bc f7 bd
       -0.11306155 -0.0175556 0.14954421 -0.12096412
0000e0 e3 1f a1 3d 05 42 1a 3e fd bd 97 3d 10 ac 39 bd
       0.0786741 0.15064247 0.07409284 -0.045330107
0000f0 3c d5 16 bc 85 86 4b bc 9b 13 ff 3b 04 e2 93 3c
       -0.0092061125 -0.012422209 0.0077843196 0.018052109
000100 85 81 d9 3d 60 dc 33 3c 33 cb 14 bd 99 f6 8e 3c
       0.10620407 0.010977834 -0.0363266 0.017451571
000110 10 77 16 3e 1b ec 79 bd 05 c1 19 bd 34 95 6d bd
       0.14693856 -0.061016183 -0.037537593 -0.05800362
000120 e9 33 23 bc 0f 80 45 3e c0 77 7a bd 9d 3e 64 3c
       -0.009961107 0.19287132 -0.06114936 0.013930944
000130 a7 e1 a8 bd 5d f8 8a bd 2f 6b 2c 3d 1a de ac bd
       -0.08246165 -0.06785653 0.042094406 -0.084408
000140 58 76 1e 3d e7 5a 6e 3d a7 bb cd bb ff a9 20 3d
       0.03868708 0.05819216 -0.0062784734 0.03922462
000150 6f a6 42 bd 83 9b fd 3b 83 da 05 3e 14 3e fd bd
       -0.047522005 0.0077394857 0.13071637 -0.12365356
000160 9b 92 96 3d 12 d3 3f 3d 4c 03 0c 3e 53 12 e5 bb
       0.073521815 0.04683215 0.13673133 -0.00699071
000170 30 e0 1e ba d3 1f 08 3d 59 f5 9d bc 21 e3 dc bd
       -0.0006060628 0.033233475 -0.01928203 -0.10785509
000180 3a 85 7e 3b 80 fd 95 3d 8d 0e 19 3d 08 7d 6c bd
       0.0038836733 0.07323742 0.037367392 -0.057736427
000190 b4 ab ca 3d 43 a2 79 3d 3e 4b 95 bc cc e4 8c bd
       0.09896031 0.06094576 -0.018224355 -0.06879577
0001a0 ab f7 76 3d ac 99 eb bc f3 a2 b9 3c 4e a0 56 bd
       0.06029479 -0.0287598 0.022660708 -0.052398972
0001b0 3b e9 8b bc 78 43 d2 bd 40 28 9c 3d 6a 01 f8 3d
       -0.017078986 -0.10266775 0.076248646 0.12109645
0001c0 ec ad cf 3b e7 9a 19 bd 25 ed 96 bd 8d de e5 3c
       0.006337872 -0.037501242 -0.073694505 0.028060222
0001d0 4e 3a 30 3d fc d5 5b bd 59 17 8b bc 03 10 e6 3c
       0.043024354 -0.05367087 -0.016978906 0.028083807
0001e0 05 2b ce bc 38 3f be 3c 9b 2f eb bc fa af 32 bd
       -0.025166998 0.023223504 -0.028709223 -0.043624856
0001f0 33 2b 54 3d b2 0b e5 3c d1 f6 89 3d fe df d7 3c
       0.05179901 0.027959678 0.067365296 0.026351925
000200 27 23 11 3d ab 07 8e bd dd e9 08 3d 2d c0 d6 bd
       0.035433915 -0.06935056 0.033426154 -0.10485873
000210 6f 8c d0 3c ef 09 c1 3d e2 ea af 3c c5 ae d7 bd
       0.025457589 0.09425723 0.021474306 -0.105313815
000220 ed ad d2 bd 56 dc 4c bd e7 07 b3 bc 42 02 48 3d
       -0.1028708 -0.050014816 -0.021854354 0.04883028
000230 7e c5 a4 bd 9d d0 be 3d 79 e7 19 bd 7a 15 9e bd
       -0.08045481 0.093171336 -0.037574265 -0.0771894
000240 54 9f 65 3d 31 db 37 bd 8c db 4c 3c cd b4 8e 3d
       0.05606015 -0.04488677 0.012503516 0.06968079
000250 8b c7 aa 3d 96 a2 fe bd b6 ed a3 bc 2f 20 cd bc
       0.08338841 -0.124333546 -0.02001081 -0.02503976
000260 f8 4a cb 3d ec a5 84 3d b6 01 93 bc 92 eb 82 bd
       0.099264085 0.064769596 -0.017945152 -0.06392588
000270 63 c5 83 bd 2b 54 35 3c 9d 2d 83 bc d7 0e 94 bd
       -0.06434133 0.0110674305 -0.016012961 -0.07229393
000280 e3 8c 12 bd d1 ee 34 bc 19 0d 2a 3d 36 7c 62 3d
       -0.03577889 -0.011043266 0.041516397 0.055294238
000290 db 6e 59 3c f9 5a 12 be 45 10 09 bd e9 62 4e bd
       0.013271059 -0.14292516 -0.03346278 -0.050387297
0002a0 d0 cb 82 3d a5 1b 52 bc 5e 39 a4 3d 71 dc 1c bd
       0.063865304 -0.012823974 0.080187544 -0.038296167
0002b0 ee ab 31 be 8f 69 96 3c 9b 72 6e 3c f8 cf 8f 3c
       -0.17350742 0.018360881 0.014553691 0.017555222
0002c0 a2 fe c6 3c 83 8d 68 bc 65 15 9b bd 05 10 d7 bc
       0.02429134 -0.014193895 -0.0757244 -0.026252756
0002d0 42 3c 0b 3d bf ea 8c bd 5e 00 6d bd ce 28 22 bd
       0.033993013 -0.06880712 -0.05786168 -0.039589696
0002e0 74 c0 ce bd c0 30 90 3b b4 af 8c 3d ad 83 dd 3d
       -0.10095301 0.0044003427 0.0686945 0.10816131
0002f0 d8 10 f7 bd dc 60 24 bd e4 5b c9 bd f3 5f d4 bc
       -0.120637596 -0.040131435 -0.0983198 -0.025924658
000300 bc 50 8f bc 82 ac 5c 3d cc 08 19 3c 9d 62 c4 3d
       -0.017494552 0.053875454 0.009340476 0.095891215
000310 d3 1a 12 be 93 d4 b5 bc da 14 14 bd 7e ec db 3d
       -0.14268045 -0.02219609 -0.036152698 0.10738467
000320 cc 7e 5b 3c 55 ac db 3c 32 1c 65 3a 4b 4a 20 bd
       0.01339693 0.026815573 0.0008739858 -0.03913335
000330 97 90 2f bd 5b 7a 23 bd 1c 79 74 bd b5 08 7c bd
       -0.0428625 -0.03991161 -0.05968581 -0.06153174
000340 59 5e 4c 3d c4 6e 7e 3d a0 49 20 bd d6 8f b3 3d
       0.049894664 0.062117353 -0.039132714 0.08767669
000350 bf c0 53 3d 2d 0c 72 3c e5 83 d0 3d b8 a4 43 bc
       0.05169749 0.014773411 0.10181407 -0.0119411275
000360 59 87 89 bd 0c 82 e3 3c 7a 7f 6f bd 30 4b 8c 3b
       -0.06715269 0.027771972 -0.05847118 0.004281424
000370 64 a6 c8 3d 76 a0 01 3c 1d d1 f5 3d 6c 89 01 be
       0.097973615 0.007911792 0.12002776 -0.12650079
000380 6b c7 a5 bc 46 53 11 bd 87 cc 36 bd 62 e1 24 3e
       -0.020236691 -0.035479806 -0.044628646 0.16101602
000390 35 0b a1 3d da e4 e8 3d 1f 7f de bc 0a 9a 04 bd
       0.07863466 0.11371775 -0.027160225 -0.032373466
0003a0 eb 59 85 3d 62 2e a9 3d 8f 5e cd bb d0 0f a5 bd
       0.06511291 0.082608 -0.006267376 -0.080596566
0003b0 59 d1 f7 bc 43 b0 8b bd de 4d 0c 3d 88 9a cf 3c
       -0.030251192 -0.06820729 0.034253947 0.02534224
0003c0 d6 f7 7e 3d 25 3a 33 3e 28 74 50 bd 40 93 78 bd
       0.062248074 0.17502649 -0.050892025 -0.060687304
0003d0 42 ae 8c 3c 59 23 1a 3d 81 37 84 bc a7 be 08 bd
       0.017172936 0.037631366 -0.016139748 -0.033384945
0003e0 e9 95 16 3e 11 e4 c3 bd 03 cb 81 bd c1 4e 1d bd
       0.14705624 -0.095649846 -0.063375495 -0.038405184
0003f0 26 14 68 3d a3 ca 7c 3d 7b 44 b9 bc ab eb 54 3c
       0.05665984 0.061716687 -0.022615662 0.012995641

h2h.bias f4 [242]
000000 75 ed a6 3b be 58 d1 bc f3 77 8a bc 9d 34 97 3b
       0.005094225 -0.02555501 -0.0169029 0.0046144263
000010 dc 01 6d ba f8 5b 08 3d aa 48 01 bc b4 39 fd 3c
       -0.00090411096 0.033290833 -0.00789086 0.030911304
000020 0d 53 16 3c c7 04 b7 bc 62 a8 e5 bb 64 33 2d 3d
       0.009175074 -0.022341145 -0.007008598 0.042285338
000030 c0 1e 4a ba c3 af e5 38 41 90 08 bd f2 63 ad 3b
       -0.00077102706 0.00010952309 -0.033340696 0.0052914554
000040 bb 2a 4d bc a1 8a 8c bb 18 68 bb 3c 39 1a 81 3c
       -0.012522395 -0.004288987 0.022876784 0.015759574
000050 13 91 07 bb 74 56 85 bc a1 05 bb 3a a6 28 8c 3a
       -0.0020685836 -0.016276576 0.0014268645 0.0010693267
000060 f4 19 bd 3b 39 22 99 bc 75 71 43 bb a0 71 8e bc
       0.005770916 -0.018693076 -0.0029822264 -0.017388165
000070 6b 84 52 bc 9f b6 cc 3a 38 b2 15 bd 08 02 79 3b
       -0.012848954 0.001561839 -0.036546916 0.0037995595
000080 5e ab 8c 3a 7b fe 2e bc 61 f5 c5 bc c2 3e 3d bc
       0.0010732224 -0.01068079 -0.024164857 -0.011550607
000090 de 89 2c bd 97 c0 2c bc 5b f0 a6 3c df 10 50 3c
       -0.042123668 -0.010543964 0.020378282 0.012699335
0000a0 20 0e 1a 3c ec 5b 03 bd 48 12 a3 bc d8 02 51 3c
       0.009402782 -0.032070085 -0.019906178 0.012757026
0000b0 c5 e3 81 bb e0 a0 83 3b ae b6 fa bb 50 92 50 3c
       -0.00396392 0.0040169805 -0.0076511716 0.012730196
0000c0 5d 08 6a bc 62 f1 aa 3c 44 38 49 bc 6d 8d 4e bc
       -0.0142842205 0.020867053 -0.012281481 -0.012606961
0000d0 ae 96 72 3c b8 67 e5 bb ce 96 4e 3c eb af 9e bc
       0.014806433 -0.0070008896 0.012609197 -0.019370994
0000e0 98 60 a6 bc 0b dc 88 3c c4 55 8f 3c 10 d7 dc bc
       -0.020309731 0.016706487 0.01749695 -0.026958019
0000f0 09 cc 92 bc f8 fd 9c 3a bc 29 26 bb 2e 73 8b 3d
       -0.017919557 0.0011977544 -0.0025354465 0.06809078
000100 5c 32 04 3d 93 e9 1f bc b6 7e cc 3a ba 3b 5d bc
       0.03227459 -0.009760278 0.0015601728 -0.013503009
000110 ca 50 9e 3d d3 65 c7 3b c3 21 a2 3b 35 45 89 3c
       0.07730253 0.0060851364 0.0049478724 0.016756633
000120 8a a1 36 3c 92 d5 ed 3d 59 fe 67 bc e5 09 51 bc
       0.011146912 0.11613001 -0.014159762 -0.012758707
000130 c3 8f 8b 3d 70 78 c7 bc 6c 1e d8 3d d9 f8 3c 3b
       0.0681453 -0.024349421 0.105526775 0.0028834848
000140 4a ca cc bb 5e 7a 90 3a 04 1c d1 3c 5b 4b af 3c
       -0.0062497007 0.0011022796 0.025526054 0.021398237
000150 25 1d 54 3d 5e f6 6c 3b 75 7c b3 3b 14 e0 3c 3d
       0.051785607 0.0036157588 0.005477483 0.046112135
000160 55 05 04 bc 5f 72 7a bc 6c 52 49 3d f3 7d 8a b7
       -0.008057912 -0.015286057 0.04915087 -1.6509532e-05
000170 c2 a5 69 3b 1c e8 72 3b da be e7 3b 5c be d7 3b
       0.0035651778 0.0037064617 0.007072312 0.006583972
000180 92 e0 35 3b 74 5a 1c 3c 60 ab 36 3c 73 0a 8b bc
       0.0027752263 0.00954305 0.011149257 -0.016972756
000190 e5 fa 53 3a 3c 75 a6 3c df 23 77 3c 2e 3f 0d b9
       0.00080863974 0.020319574 0.015084236 -0.00013470344
0001a0 48 d3 85 3c 69 6b 21 3c 1f d2 81 bc 0c 6c 3d 3c
       0.016336098 0.009852269 -0.015847264 0.011561405
0001b0 36 ea cd bc f9 1b 12 bd 0d e1 16 bc 75 f3 80 bc
       -0.025136095 -0.035671208 -0.00920893 -0.01574109
0001c0 06 7f 24 bb 71 6c 1d 3d 8e d7 8d 3c 72 75 84 3c
       -0.0025100126 0.038433496 0.017314699 0.016169284
0001d0 4b 3f 8b 3b 65 72 40 3c ab b1 31 bc df 19 ff ba
       0.0042494885 0.011746024 -0.010845582 -0.0019462666
0001e0 0e 8e 0a bc 23 13 fa bc a2 35 84 3b e2 a5 f2 3b
       -0.00845672 -0.030526703 0.004034714 0.0074050287
0001f0 fc 0d a8 3c 84 8f 55 3d 29 90 eb bb 23 6d 0e bc
       0.02051448 0.05213882 -0.007188816 -0.008693012
000200 99 62 2b 3b 33 7a 77 bc b6 e8 e1 ba e6 9f 3e bc
       0.0026151298 -0.015104818 -0.0017235491 -0.011634802
000210 47 f1 22 bc 56 69 ab bb 4c 06 74 3c 7d 34 10 b9
       -0.00994522 -0.005231063 0.014894079 -0.00013752464
000220 81 5f 0e bd 3c b3 35 3c 39 83 ea bb 67 fc 6c 3b
       -0.03475905 0.011090096 -0.0071567562 0.0036161186
000230 f2 8e 25 bd 9a 64 32 3d bb 6d 4e bb 95 5d e6 bc
       -0.040419526 0.043552972 -0.003149851 -0.028120795
000240 0d 5c d9 ba cb 90 94 3c 25 c8 9d bb eb 3b 2c 3c
       -0.0016583219 0.018135449 -0.004815119 0.010512332
000250 3c fe 14 bc 5e 9e e1 bb 63 1c 42 3d 71 54 82 38
       -0.009093817 -0.006885334 0.047390353 6.2146115e-05
000260 42 c7 1d 3c 08 3a b9 bb 8b c3 f9 3b 3c a1 ce bb
       0.009630026 -0.00565267 0.0076221875 -0.0063058417
000270 07 67 22 3b 9f bc 80 3b be e0 d8 3b 81 5a 10 3d
       0.0024780647 0.0039287354 0.006618588 0.03524256
000280 2a 97 5c 3c 29 af 8f bc de 79 6d bc 24 07 f2 3b
       0.013463775 -0.017539578 -0.014494387 0.007386105
000290 b2 78 07 bc 11 5d 7a 3c 3c a1 ae 3b 55 04 f1 b9
       -0.008268522 0.015280978 0.005329279 -0.0004597033
0002a0 8c 61 b3 3c 51 d4 fb bb 3f fc bc 3b c3 56 78 3a
       0.0218971 -0.007685222 0.0057673748 0.0009473378
0002b0 f5 fe 3a 3c ea ca 48 3c ff 7a 84 3c 18 60 4b 3b
       0.011413326 0.01225541 0.01617193 0.0031032618
0002c0 21 f1 3f bc 52 c8 0e bc d9 1a 51 bc d0 ed a4 bc
       -0.011715204 -0.008714752 -0.012762749 -0.02013293
0002d0 22 01 c6 3d 5a 7a 36 bc 9b 0d 85 3a e3 29 52 bb
       0.09668185 -0.011137569 0.001015115 -0.0032068423
0002e0 45 8b b3 bc d5 56 80 3d 0f 38 9b bc 2b a9 19 3c
       -0.021916995 0.06266562 -0.01894763 0.009378712
0002f0 51 7c ad 3c d4 6b bf 3b a8 0f e9 39 7c 1c 4d bd
       0.021177443 0.0058417115 0.00044452888 -0.050075993
000300 86 e5 99 3c 28 31 33 bc c8 80 bf bc 76 9c 03 bd
       0.018786203 -0.010937013 -0.023376837 -0.032131635
000310 dc 18 8e 3d 50 c8 16 bd 7e 2c 87 bb 44 1e c0 bc
       0.06938335 -0.036812127 -0.004125177 -0.023451932
000320 66 61 ac 3c cc 69 8e 3a b4 0a 9d bb 5b f1 2d 3a
       0.021042537 0.001086527 -0.0047925357 0.0006635391
000330 83 50 c2 3d d6 be 41 3d d0 54 5d bc 16 f8 63 3a
       0.09488013 0.047301136 -0.01350899 0.00086963305
000340 e9 a0 1a 3c ba bc 11 3d e0 9d 6a 3c b3 a2 4f 3d
       0.009437778 0.035580374 0.014319867 0.05069227
000350 7d 10 3b bc b7 18 5d bd c8 24 67 bc e5 56 86 3a
       -0.011417505 -0.053978648 -0.01410789 0.0010249285
000360 c6 de 26 3d 80 ad 53 bc 7d 0e 4a bc 34 d4 b7 3c
       0.040739797 -0.012919784 -0.012332556 0.022440054
000370 ec 23 4c bc 74 df 89 bc 0f 6b 33 bc 7e 68 f8 3c
       -0.012459736 -0.016830184 -0.010950818 0.030323263
000380 5a 9e f7 3c b7 b7 47 bb b1 df 02 3d ac 7e 52 3d
       0.030226875 -0.0030474493 0.03195161 0.051390335
000390 37 b8 29 bc 42 38 6b bc f9 0f 7c bc 2d 2a 9b 3a
       -0.010358862 -0.014356675 -0.015384668 0.0011838131
0003a0 9e 6e 34 bc 27 08 06 bb 3f 49 9c 3c 16 da 07 bc
       -0.011012701 -0.0020451637 0.019077895 -0.008291742
0003b0 de 74 a3 bb d8 f4 96 3c b6 c9 11 3c b9 68 16 3b
       -0.004988297 0.018427297 0.008898189 0.0022950603
0003c0 70 da 33 bb c3 9f 4f 3d
       -0.0027443431 0.05068947
