VLSI23_journal/intuitivechip_classifier_lcsvsnlcs/SNN_ep-150-isize-1-8-1-hsize-242-bsize-32-lr-0.001-tmax_ms-400.0-Ts-10.0-k-6-dsetPath-VMODE_allchannels_ALLCLASS_auto_nospkfilter_cleaned_12x16_9mvpp_250mvofs_onedac_itail_50nA_N4b_OFFmerg/chip-classifier-3.pt (torch, 253495 bytes, 8 tensors)

thr_h_1 f4 [242]
00000000: 0000 803f 0000 803f 0000 803f 0000 803f
00000010: 0000 803f 0000 803f 0000 803f 0000 803f
00000020: 0000 803f 0000 803f 0000 803f 0000 803f
00000030: 0000 803f 0000 803f 0000 803f 0000 803f
00000040: 0000 803f 0000 803f 0000 803f 0000 803f
00000050: 0000 803f 0000 803f 0000 803f 0000 803f
00000060: 0000 803f 0000 803f 0000 803f 0000 803f
00000070: 0000 803f 0000 803f 0000 803f 0000 803f
00000080: 0000 803f 0000 803f 0000 803f 0000 803f
00000090: 0000 803f 0000 803f 0000 803f 0000 803f
000000a0: 0000 803f 0000 803f 0000 803f 0000 803f
000000b0: 0000 803f 0000 803f 0000 803f 0000 803f
000000c0: 0000 803f 0000 803f 0000 803f 0000 803f
000000d0: 0000 803f 0000 803f 0000 803f 0000 803f
000000e0: 0000 803f 0000 803f 0000 803f 0000 803f
000000f0: 0000 803f 0000 803f 0000 803f 0000 803f
00000100: 0000 803f 0000 803f 0000 803f 0000 803f
00000110: 0000 803f 0000 803f 0000 803f 0000 803f
00000120: 0000 803f 0000 803f 0000 803f 0000 803f
00000130: 0000 803f 0000 803f 0000 803f 0000 803f
00000140: 0000 803f 0000 803f 0000 803f 0000 803f
00000150: 0000 803f 0000 803f 0000 803f 0000 803f
00000160: 0000 803f 0000 803f 0000 803f 0000 803f
00000170: 0000 803f 0000 803f 0000 803f 0000 803f
00000180: 0000 803f 0000 803f 0000 803f 0000 803f
00000190: 0000 803f 0000 803f 0000 803f 0000 803f
000001a0: 0000 803f 0000 803f 0000 803f 0000 803f
000001b0: 0000 803f 0000 803f 0000 803f 0000 803f
000001c0: 0000 803f 0000 803f 0000 803f 0000 803f
000001d0: 0000 803f 0000 803f 0000 803f 0000 803f
000001e0: 0000 803f 0000 803f 0000 803f 0000 803f
000001f0: 0000 803f 0000 803f 0000 803f 0000 803f
00000200: 0000 803f 0000 803f 0000 803f 0000 803f
00000210: 0000 803f 0000 803f 0000 803f 0000 803f
00000220: 0000 803f 0000 803f 0000 803f 0000 803f
00000230: 0000 803f 0000 803f 0000 803f 0000 803f
00000240: 0000 803f 0000 803f 0000 803f 0000 803f
00000250: 0000 803f 0000 803f 0000 803f 0000 803f
00000260: 0000 803f 0000 803f 0000 803f 0000 803f
00000270: 0000 803f 0000 803f 0000 803f 0000 803f
00000280: 0000 803f 0000 803f 0000 803f 0000 803f
00000290: 0000 803f 0000 803f 0000 803f 0000 803f
000002a0: 0000 803f 0000 803f 0000 803f 0000 803f
000002b0: 0000 803f 0000 803f 0000 803f 0000 803f
000002c0: 0000 803f 0000 803f 0000 803f 0000 803f
000002d0: 0000 803f 0000 803f 0000 803f 0000 803f
000002e0: 0000 803f 0000 803f 0000 803f 0000 803f
000002f0: 0000 803f 0000 803f 0000 803f 0000 803f
00000300: 0000 803f 0000 803f 0000 803f 0000 803f
00000310: 0000 803f 0000 803f 0000 803f 0000 803f
00000320: 0000 803f 0000 803f 0000 803f 0000 803f
00000330: 0000 803f 0000 803f 0000 803f 0000 803f
00000340: 0000 803f 0000 803f 0000 803f 0000 803f
00000350: 0000 803f 0000 803f 0000 803f 0000 803f
00000360: 0000 803f 0000 803f 0000 803f 0000 803f
00000370: 0000 803f 0000 803f 0000 803f 0000 803f
00000380: 0000 803f 0000 803f 0000 803f 0000 803f
00000390: 0000 803f 0000 803f 0000 803f 0000 803f
000003a0: 0000 803f 0000 803f 0000 803f 0000 803f
000003b0: 0000 803f 0000 803f 0000 803f 0000 803f
000003c0: 0000 803f 0000 803f
1.0 1.0 1.0 1.0 1.0 1.0 1.0 1.0
1.0 1.0 1.0 1.0 1.0 1.0 1.0 1.0
1.0 1.0 1.0 1.0 1.0 1.0 1.0 1.0
1.0 1.0 1.0 1.0 1.0 1.0 1.0 1.0
1.0 1.0 1.0 1.0 1.0 1.0 1.0 1.0
1.0 1.0 1.0 1.0 1.0 1.0 1.0 1.0
1.0 1.0 1.0 1.0 1.0 1.0 1.0 1.0
1.0 1.0 1.0 1.0 1.0 1.0 1.0 1.0
1.0 1.0 1.0 1.0 1.0 1.0 1.0 1.0
1.0 1.0 1.0 1.0 1.0 1.0 1.0 1.0
1.0 1.0 1.0 1.0 1.0 1.0 1.0 1.0
1.0 1.0 1.0 1.0 1.0 1.0 1.0 1.0
1.0 1.0 1.0 1.0 1.0 1.0 1.0 1.0
1.0 1.0 1.0 1.0 1.0 1.0 1.0 1.0
1.0 1.0 1.0 1.0 1.0 1.0 1.0 1.0
1.0 1.0 1.0 1.0 1.0 1.0 1.0 1.0
1.0 1.0 1.0 1.0 1.0 1.0 1.0 1.0
1.0 1.0 1.0 1.0 1.0 1.0 1.0 1.0
1.0 1.0 1.0 1.0 1.0 1.0 1.0 1.0
1.0 1.0 1.0 1.0 1.0 1.0 1.0 1.0
1.0 1.0 1.0 1.0 1.0 1.0 1.0 1.0
1.0 1.0 1.0 1.0 1.0 1.0 1.0 1.0
1.0 1.0 1.0 1.0 1.0 1.0 1.0 1.0
1.0 1.0 1.0 1.0 1.0 1.0 1.0 1.0
1.0 1.0 1.0 1.0 1.0 1.0 1.0 1.0
1.0 1.0 1.0 1.0 1.0 1.0 1.0 1.0
1.0 1.0 1.0 1.0 1.0 1.0 1.0 1.0
1.0 1.0 1.0 1.0 1.0 1.0 1.0 1.0
1.0 1.0 1.0 1.0 1.0 1.0 1.0 1.0
1.0 1.0 1.0 1.0 1.0 1.0 1.0 1.0
1.0 1.0

thr_o f4 [6]
00000000: 0000 803f 0000 803f 0000 803f 0000 803f
00000010: 0000 803f 0000 803f
1.0 1.0 1.0 1.0 1.0 1.0

i2h.weight f4 [242, 8]
00000000: 7b92 053e 8c27 5e3d 6ea1 b2bd 6a80 f13b
00000010: dfc5 183e 7ccc d83d eb64 53bb e9c8 f9bc
00000020: 9a17 b93d 7c7c f3bd 34a3 5c3d 4cb5 a6bd
00000030: 2920 60bd e60c 27be fd80 e3bd affd 1abe
00000040: 02ae 943d 1712 67bd 1f99 133e 6007 153e
00000050: e92b 093d 140c 6bbd 9b12 cdbc aea8 51bc
00000060: 691a 123c b707 ccbd 704d f33c b3a5 02be
00000070: 23a9 2ebc ba26 1f3e 8c57 c03d 15fb 6ebd
00000080: 0212 66bd 3704 813d 7e3a c63d eaad 09bd
00000090: 7b04 d9bd f66c c83b 446b 20be d3e9 7abd
000000a0: 2012 ffbd a67d 8c3d 18ed 013e 9414 c5bd
000000b0: 1373 053e 45ed 2aba 4b47 ab3d 9da5 a63c
000000c0: dd0c 0abe 1e50 ab3d f245 ca3c 7302 c8bc
000000d0: dbce 113d cbf7 0fbe fbe3 e43d 244a a1bd
000000e0: 6565 ff3d f78d bd3d e659 06be 0ee4 ecbd
000000f0: d32b 0dbb 5f7b f83c dfdb 0c3b ba27 0abe
00000100: 4fbe ff3d 7f71 13bd 6102 0c3e 9f4c ffbd
00000110: edae 0e3e ae4b cd3d fe9f bd3d d3b4 aabd
00000120: 56ea 5dbd 3696 b03d e043 583d f539 153b
00000130: aaef 20bd a51c f83d d3dc 8d3d 5014 0bbe
00000140: 8f98 c23c fc0e 2ebc 14a5 d9bd 88d6 023c
00000150: c85a df3d 00b2 d73d 01bb b7bd f761 1fbc
00000160: dcfd 623d 75e9 2dbd 8348 aabd 31d6 f53d
00000170: dfb8 82bd 0600 623d f558 3a3d f71c cabb
00000180: 8db8 6b3d e508 acbc 7cf5 0a3e d2c1 d23c
00000190: 346d aa3d 8cf5 3fbd f9fc 073e 58d6 15be
000001a0: 4022 133e c821 ba3c 1d5c 29bc 4e8d d0bd
000001b0: 32a8 0abc 140c abbd dc52 b43d b0c1 b83c
000001c0: fe6d f6bd a851 093d f04d 0c3e 2a28 19be
000001d0: 2dcd 10be b3ee c1bd 0568 f9bd 5806 353c
000001e0: aca4 ad3c 6ab7 cabd 1b32 dabd e305 06bd
000001f0: 3a03 30be e1e8 be3d 7275 22bc 1ed7 753d
00000200: f3d9 7cbc 0082 bbbd 3dd4 143e 9c23 82bc
00000210: 94f6 033e a507 953c 52ee 35bd ea55 363e
00000220: 6707 7ebd 4933 ccbd c04d 1cbd 05c3 fe3d
00000230: d7dc bcba 94b9 d0bd 248e 173d af86 ff3d
00000240: afcb 59bd 799a df3d a437 9bbd 2a22 ff3a
00000250: 5f8d b1bd efa6 0f3d 88f4 9f3d 9e59 133e
00000260: 133d 1c3d 9f1a b23b df64 ffbd 2d17 7fbd
00000270: 5d47 4d3c a72e c2bc c3ce 5e3c b6fb 6d3c
00000280: e398 7dbc c1f4 8fbd 2a83 9bbd 3ac9 1c3d
00000290: eb87 2abd a15f f33d 9af2 d83d 51b5 8ebc
000002a0: 3308 5abb d4f9 62bc 4023 ae3d 683e 33bc
000002b0: 35bc 173e 31cb fe3d 9d3a c6bc 00c0 e1bd
000002c0: 31c1 0cbd 467e 0dbe 95e1 2fbd 57cc 1d3e
000002d0: 56fd 0d3e 18ee 7c3d 44c6 edbd 04db f03c
000002e0: 1be5 f63d e9b7 a13d 4041 1f3d 151c bf3c
000002f0: 2b7b c2bc b3d5 0abe 5d11 bbbd 922b c93c
00000300: 8d48 e83b 9094 0bbe 95b8 9bbd 0ac3 bf3c
00000310: dcdd 943d 1f26 05be 4656 04be 71d0 77be
00000320: 32f2 eabc 37fb f2bc 1df5 523c 8845 193e
00000330: 6b98 123d dbb9 b83d ef4d c0bd c094 87bd
00000340: 56e2 aebd fa77 86bd 53ff f1bd e1de 8f3d
00000350: c6e4 a23c bd00 ec3d b14a 6f3d dc90 14be
00000360: 57f3 1cbc fbb2 c83d c289 0a3e 7320 a9bb
00000370: 9ae9 6abd 8535 fc3d 552a 90bd 1f1e 143e
00000380: 3e0c 8b3c 730e a6bd fbc7 133d 8859 623d
00000390: 3e0b 863b ec8e 213d f971 3f3d ff27 14bd
000003a0: 4a0a 0a3e 12fd 113d f3c1 bf3d 9350 0c3d
000003b0: da22 bfbc 71d3 7dbd 9a99 863d 1838 0d3e
000003c0: 0fad 0e3e f740 cebc e1ec fabd 62a1 ca3d
000003d0: cfc2 20be f9bf 843d 70c7 053e 1484 c93d
000003e0: 9ff3 8abd d200 15bd 56f7 2c3d 92e1 eabd
000003f0: eda9 80bc 26b7 1e3d c0e9 dd3c caa9 3fbe
0.13044159 0.054236934 -0.087221965 0.0073700445 0.14919232 0.10585877 -0.0032256197 -0.03049131
0.09037705 -0.11888978 0.05386658 -0.081400484 -0.05471817 -0.16313514 -0.11108587 -0.15135835
0.07259752 -0.056413736 0.1441388 0.14553595 0.03348914 -0.057384565 -0.025033286 -0.012796564
0.0089174295 -0.09962409 0.029700011 -0.12758522 -0.0106604425 0.15542117 0.09391698 -0.05834492
-0.056169517 0.06299632 0.09679125 -0.033613123 -0.10596558 0.006116505 -0.15665919 -0.06125815
-0.12454629 0.06859903 0.126881 -0.096230656 0.13032179 -0.0006520341 0.083632074 0.020342642
-0.1348147 0.083648905 0.024691556 -0.02441523 0.035597663 -0.1405937 0.11176296 -0.07875469
0.12470511 0.09255593 -0.13120231 -0.115669355 -0.0021541014 0.030332265 0.0021493358 -0.13491717
0.1248747 -0.03599691 0.13672782 -0.12465786 0.13933916 0.100242004 0.09259032 -0.08335271
-0.05417856 0.086224005 0.052799106 0.002277014 -0.03929106 0.121148385 0.069268845 -0.13581967
0.023754386 -0.01062369 -0.10627189 0.007985719 0.10905987 0.10531998 -0.08971215 -0.0097279465
0.05541788 -0.04245897 -0.08314612 0.120037444 -0.063829176 0.055175804 0.045494992 -0.0061680037
0.05754905 -0.021000335 0.13570207 0.025727186 0.0832161 -0.04686503 0.13280095 -0.14632547
0.14368534 0.022721186 -0.010336903 -0.10183202 -0.008462952 -0.08351913 0.08804867 0.022553295
-0.12032698 0.03352514 0.13701606 -0.14956728 -0.14140768 -0.094693564 -0.12178043 0.011048876
0.021196686 -0.09898265 -0.10654088 -0.032720458 -0.17188731 0.09321762 -0.009915696 0.060019605
-0.0154328225 -0.09155655 0.14534087 -0.01588612 0.12887031 0.018192122 -0.044416733 0.17806211
-0.06201878 -0.09970719 -0.038160086 0.12439541 -0.0014409077 -0.10191646 0.03700079 0.12476861
-0.053172763 0.10918135 -0.07578972 0.0019465138 -0.086695425 0.03507131 0.078103125 0.14389655
0.038144182 0.0054353024 -0.124704115 -0.06227796 0.012529221 -0.023703886 0.0135991005 0.014525345
-0.015478346 -0.07029105 -0.07593377 0.038277842 -0.041633528 0.11883474 0.105931476 -0.017420443
-0.0033269047 -0.013853509 0.08502817 -0.010940172 0.14817889 0.124410994 -0.02419787 -0.11022949
-0.03436393 -0.138177 -0.04293974 0.1540998 0.13866171 0.0617505 -0.11610082 0.02940131
0.12055417 0.07896406 0.038880587 0.02332882 -0.023740372 -0.13558082 -0.09134171 0.024556909
0.007088727 -0.13630891 -0.076035656 0.023408432 0.07268879 -0.13002823 -0.12923536 -0.24200608
-0.02867994 -0.029660804 0.012875822 0.1496793 0.03578989 0.09019824 -0.09389865 -0.06620169
-0.08539264 -0.065658525 -0.11816277 0.07024933 0.019884478 0.11523578 0.05842084 -0.14508384
-0.009579501 0.09799763 0.13529113 -0.005161339 -0.057351686 0.123148955 -0.07039324 0.14464615
0.016973611 -0.08108225 0.036079388 0.055261165 0.0040906956 0.03944294 0.046739552 -0.036170956
0.13480487 0.035641737 0.09363165 0.03425653 -0.023332048 -0.061969224 0.06572266 0.1379093
0.13933204 -0.025177462 -0.12252212 0.098940626 -0.15699314 0.064819284 0.1306436 0.09839645
-0.06784748 -0.036377735 0.042228065 -0.114688054 -0.015706027 0.038748883 0.027089 -0.18717113

i2h.bias f4 [242]
00000000: 750e 27bc 7ce1 62bc aaa1 183d f974 603b
00000010: daa1 313d ca47 08bd 83eb 01bc effd d93b
00000020: efbb 503c 1f15 06bc 9858 d53c d656 5dbb
00000030: 9681 f4bc e4d1 623c a955 12bb 7601 993c
00000040: 905a 9a3b 170d 8b3b 4f22 113c cfc9 bf3b
00000050: 2245 debc 3380 aa3c faad 9e3c 1d4b 1f3d
00000060: 2ca5 773c eec2 3a3c 6d24 c5ba 1c8c f9bb
00000070: 943e c3bb d8f2 96bc c737 f4bb 3679 143d
00000080: 63e7 bcbc 5315 df3b e9be bdbc cbd8 d03c
00000090: d919 9bbc 02d0 663d 4261 883a 50f2 a2bc
000000a0: 13bc bdbb 314e 863b df73 17bd 1062 8abb
000000b0: 1377 2dbc e122 133c 9860 253c c9f0 543c
000000c0: cc9b a03c ee9c 163c e27d f23a 6109 083c
000000d0: 43da 9abb 67b7 b23c 545f 133c a7f8 18bc
000000e0: e265 86ba 6588 f0bc 5565 383d b56c 053b
000000f0: f966 173c 5c8d 00ba 172f 633d 2074 c8bb
00000100: d51d dfbc fbda ab3c c98f 683c c2ce 86bc
00000110: cec0 963c acb8 8fbc 4dc6 91bb 5fec 35bb
00000120: 7bcf 31bb 3047 ccbc 9248 2f3b 26c9 55bc
00000130: d628 4b3a 2176 cd3b 3aa7 113c 7b29 af3c
00000140: 5731 b23b 9521 bdbc 6d3d 7a3a b7bd b6bc
00000150: 3f03 3abb 5aa6 a03c b633 a1bb 8bbd 7abc
00000160: 132c 073d 9256 ca3a 869c f3bc 6faa dc3b
00000170: 0fc9 5d3c f80d bb39 2204 d6bc 6c62 c3bc
00000180: d5f3 1a3d de84 883c 8760 5abc 9e01 edbc
00000190: 3f33 f43c 6363 863c c898 093c 5351 95bb
000001a0: 4e13 023c a64d 78ba 7bee 6f3c 4e08 0f3d
000001b0: 5e86 393d be1a bcbc 48b2 00bc de28 ffbb
000001c0: 87eb 2dbb 011d b2bc 9396 82bc ec02 30bc
000001d0: 2fe3 ac3c 1b2e 39bc 3c08 07bc 1cfe 02bc
000001e0: 2206 c33b 63fd febb a6e0 2a3d a00a da3c
000001f0: b3c3 e6ba 5cb0 473d e153 ed3c 0451 983c
00000200: 5371 2e3d d9e2 83bc 2255 40bc 0500 ad3b
00000210: 1a2b c5bc 4514 8fbc 0fc5 953b 08d0 54bc
00000220: bf43 95bc 72a9 293b bdbb db3b 1226 3fbc
00000230: 41b2 dbbc 071e 233c cf0d bc3c f135 f53c
00000240: 4655 f23c d435 bdbc 2ba1 c73c 4fb0 d7bc
00000250: 8358 ebbb bee6 233d 225e 8d3c 2230 223b
00000260: 08b7 4cbc bc1a 3c3b 85b7 b5bc 0870 3c3d
00000270: d856 813b 9f39 e4bc 73a5 4b3c 6abe f9ba
00000280: e9ca 82bc a521 09bc bf24 febb 0218 87bc
00000290: 4ec1 debc 5a19 e9bb 7cd3 bbbb b31d a03c
000002a0: 77b0 8ebb 1291 9cbc 88d0 2b3d 24eb a23c
000002b0: 79cc 9bbc 286b dcbb 7c65 763b ad06 813a
000002c0: dd71 e03b 5103 9c3c e116 8abb a399 7fbc
000002d0: 1203 a4bb 494f d7ba 2d20 a7bc e4ae 0f3b
000002e0: 26fd 8cbc e550 95bc b469 223d 91b9 d63b
000002f0: 71a3 c3ba 5bd5 b7bc 2d1e d33b 9385 c0bc
00000300: d874 a5bb 2a23 c5bc 6d81 803c 41fb 173d
00000310: 45f6 75bb 0a6f afbc 760e bfb9 e820 bebc
00000320: 6d4d 123d c932 e6bc 9402 91bc e6c5 5cbc
00000330: b097 253c 8f7d 4f3d 68a0 12bd 17db 543a
00000340: a491 61bc f232 813c 26ba 14bb 138f 033c
00000350: 50fe aabb 6bda 0c3c c461 473b a629 f43b
00000360: e4ed cbb8 af3a e73c ff47 9339 5a13 0a3c
00000370: e5cc 973b 8827 cd3a a41f adbc bf29 d53a
00000380: 32c1 693c 2d00 f2bb b493 013c a9ae 95bc
00000390: f80e 94bc a462 123d cee8 bbbb 9c55 8a3b
000003a0: 9304 79bb 2f2c 18bc acb3 14bd ca4c f4ba
000003b0: 5f5c 7b3b 552f 4ebc eec4 02bc 87e2 8e3c
000003c0: 60d9 5c3b ac97 7f3c
-0.010196318 -0.013847705 0.03726355 0.0034249409 0.043367244 -0.03327159 -0.0079296855 0.0066525857
0.012740119 -0.008183747 0.026043221 -0.0033773682 -0.029846948 0.013843987 -0.002232889 0.018677454
0.004710503 0.004243504 0.008858277 0.005852915 -0.027132574 0.020813083 0.019370068 0.038889993
0.015115064 0.011399014 -0.0015040763 -0.0076155793 -0.0059583876 -0.018426344 -0.0074529382 0.03624841
-0.023059553 0.006807962 -0.023162322 0.025494 -0.018933224 0.056350715 0.0010404962 -0.019890934
-0.0057902425 0.0040986766 -0.036975738 -0.0042231157 -0.010587472 0.008980484 0.0100938305 0.012996861
0.01960554 0.009192688 0.0018500651 0.008303017 -0.004725726 0.021815969 0.008994896 -0.009336627
-0.0010253752 -0.029361913 0.045018513 0.0020358984 0.009240859 -0.00049038767 0.05546483 -0.006117359
-0.027235905 0.020978441 0.014194437 -0.016456012 0.018402483 -0.017544113 -0.004448688 -0.0027759296
-0.0027131725 -0.024936289 0.0026746136 -0.013048446 0.00077499205 0.0062701856 0.008889968 0.021382084
0.0054380107 -0.023087302 0.00095458963 -0.02230726 -0.0028383282 0.019610573 -0.0049194945 -0.01530398
0.033001017 0.0015437177 -0.029737722 0.0067341845 0.013536706 0.00035677827 -0.026125018 -0.023850642
0.037830193 0.016664919 -0.013328678 -0.028931435 0.029809592 0.016404813 0.008398242 -0.0045568137
0.007939173 -0.000947202 0.0146442605 0.03492003 0.04529416 -0.02296197 -0.007855006 -0.007786854
-0.002653809 -0.021742346 -0.01594094 -0.010742884 0.021104423 -0.011302496 -0.008241709 -0.007995155
0.005951659 -0.007781671 0.041718148 0.026616395 -0.001760593 0.048752174 0.02897066 0.018593319
0.042588543 -0.01609938 -0.011739047 0.0052795433 -0.024068404 -0.01746572 0.0045706104 -0.012989052
-0.01822078 0.002588835 0.0067057298 -0.0116667915 -0.026818397 0.00995589 0.022955803 0.029932948
0.029581677 -0.023096956 0.024368843 -0.026329188 -0.0071821823 0.040014975 0.0172568 0.0024747928
-0.01249481 0.0028702458 -0.022182235 0.04600528 0.00394712 -0.027859507 0.012429583 -0.001905394
-0.015965896 -0.008369838 -0.0077558453 -0.01649094 -0.027191784 -0.007113618 -0.005731998 0.019545412
-0.0043545323 -0.019112144 0.041946918 0.019887514 -0.019018399 -0.006726641 0.003759711 0.0009843908
0.006849511 0.01904455 -0.004214153 -0.015600595 -0.005005249 -0.0016426827 -0.020401085 0.0021924311
-0.017210554 -0.01822705 0.039651588 0.006552883 -0.0014926029 -0.022440603 0.006442806 -0.023501193
-0.0050493293 -0.02406462 0.015686715 0.03710485 -0.0037530821 -0.021415252 -0.00036441133 -0.02320905
0.03571837 -0.028100388 -0.017701425 -0.013474917 0.010106966 0.05065685 -0.035797507 0.0008119805
-0.013767634 0.015771363 -0.002269396 0.008029717 -0.0052183047 0.008596997 0.0030423263 0.007451254
-9.724105e-05 0.028226225 0.00028091666 0.008427465 0.0046325796 0.001565204 -0.021133251 0.0016263052
0.014267253 -0.007385275 0.00790875 -0.018271761 -0.018073544 0.035738602 -0.0057345396 0.004221631
-0.0037997111 -0.009287878 -0.03630416 -0.0018638608 0.0038354618 -0.012584527 -0.007981522 0.017442001
0.0033698902 0.015600126

h2o.weight f4 [6, 242]
00000000: 6bc2 163e 89c0 90bc 5065 143e 0db7 74bd
00000010: 8819 2ebe f5a5 68be 2784 b0bd 437f 4abb
00000020: ab79 4c3d 5561 10bd 9f1d 66bd 77d7 6bbd
00000030: 4d1d e1bd 68fb 99bd 0e13 8dbd 20f2 0ebe
00000040: 1630 37be 3cfc 023e f1ea 053e bc8f 2fbe
00000050: 1a46 b1bc 9d32 c6bd 4a77 3dbe 0c3c 26bd
00000060: 4364 6bbe 9adc 8c3c ae49 d43d ee06 363e
00000070: 5424 05bc 50b4 babd b42a 5d3e 8be1 05bd
00000080: 150f e3bd 82eb d03c fe77 37be b400 cbbd
00000090: 3898 43bc 83b7 6abe 71d6 293d 6321 16be
000000a0: 36bf 47be 64be 9ebd 3d17 83bd ce87 28bd
000000b0: 7f3e 1fbe 381c 0f3d eb1e b93b e946 5dbd
000000c0: 1b05 a43d 79f5 46bc dcbe b3bd 7a16 903e
000000d0: e86b a23d e15d 0e3d 929d 843c bee0 0fbd
000000e0: 77cc 5abe 2567 883d f372 6f3e bcb2 423e
000000f0: ee30 97bc 5fa6 8a3a 92f9 bcbd 69d0 a33d
00000100: 41db 8ebd 4587 653d 943a 713d 8fc7 a7bc
00000110: 20cf 00be 3221 2e3e 34cb a8bd 1499 dbbc
00000120: dcff c8bd afc0 dfbc 5bab 0abe 3dd9 95bd
00000130: b57f 32be d65a 5dbe 18c9 3ebe 3786 e2bc
00000140: 68e7 1c3e a261 23be a939 87be b17c 4abe
00000150: 6822 b03d fe67 55bd 50c1 d6bc f490 34be
00000160: 38b4 1f3d 567e 7f3d 9cc1 47be c28e 04be
00000170: 6bd1 8fbc 65de 833d 2563 7cbd e635 473d
00000180: 389f 88be bf3c 06be 73c6 30be a947 643a
00000190: 0b8a 92be e876 283d 750c aabe 2e9c 18bc
000001a0: c4c8 da3c 4194 f13d 23c1 9abd db03 8bbe
000001b0: ef07 03be 13e4 993d 4247 e7bd be12 9fbd
000001c0: 108e 4a3e 5551 dc3d 343b 17be faa9 33be
000001d0: 6f7f 9ebc cabf d7bd 6054 4bbe 43bd 0d3e
000001e0: 080b c13d 74ef c9bd d2da 39be 0a4c 26be
000001f0: 548a d33c b9d7 85be 877d abbc 4d20 6abd
00000200: d5b5 28be 689a 3abe b0d5 04be 25c6 eb3b
00000210: 574d a1bc fe74 7ebd 00fb 693e 8ffa 983d
00000220: e31c c63d faa5 e43d 4742 54be ab9e 723d
00000230: bc16 42be 1973 033e b37e 2abe ff24 693d
00000240: dd43 d9bd 01ff 163e faac 653d 9fcb 22be
00000250: 8e37 903d 2971 333d 9230 21be 1bb8 75bd
00000260: 16a9 b6bd a521 643c 1959 00be 5152 b83d
00000270: 2ca8 1a3d ce62 59be eb4a 70bd f423 c03c
00000280: 341c 97bd 0cca c6bd 18bf 2e3e 3d47 56bd
00000290: ae78 68bd 76b4 babd a85b 4a3d 65cc 4e3d
000002a0: 7bbe 213d 979f e6bd 1a7e ab3d 0259 1fbc
000002b0: deed b3bd 0ce7 09bd d94e 6dbd 9f5b 19bc
000002c0: 2e60 97bc aba2 2cbe 4f32 efbc 73bb 05be
000002d0: 7657 a83d 589c 4ebd 3164 3cbe c18a 603d
000002e0: 0013 da3d 0953 ebbd b684 d5bd f100 303d
000002f0: 7bcc 97be 9b71 32bd dd08 0dbd 15f8 0f3e
00000300: 56f4 8a3d f235 823e 9d8e f53c fe98 28be
00000310: 2c6f c43b c852 a1bd b8d5 ca3b 63cd 993d
00000320: 83b3 9bbd 3d71 563a 7d37 09bd 86d9 18be
00000330: f721 d6bc 6001 e33d 34a3 113d bfa9 123d
00000340: 5789 493e 065e 083e 0478 cdbd 645e f73b
00000350: afaa 1a3e 5a51 b1bd aa4f 4abe e9ac de3d
00000360: 768a bf3c 2a72 bbbd a47a 0b3e c750 ca3d
00000370: c215 043e b47a e23d 7244 f8bd c524 013c
00000380: b973 edbb c420 8abd 7fb1 bf3c 6d9b 2ebe
00000390: 2805 acbd 4590 df3a ed72 84bd 9cd9 b73d
000003a0: 181d c53d 2b20 e2bd 040d 29be 3fd6 703d
000003b0: ef27 a4bd 132d fdbd 5031 a63d a3e1 623d
000003c0: 0c43 55be 7564 403d d2ed 22be 2e19 95bc
000003d0: 773f 2fbd 5518 1ebe 68a7 df38 607e 57bc
000003e0: bfbb a43d 5294 a2bc 979c 16bc 368b d83d
000003f0: 25cd d5bc c41e 153e 2b58 cfbd 6f22 143e
0.14722602 -0.017669933 0.14491773 -0.059744883 -0.17001927 -0.22719558 -0.08618956 -0.0030898608
0.04992072 -0.035249073 -0.056180593 -0.05757853 -0.10991917 -0.07518655 -0.068884 -0.13959551
-0.17889437 0.12791532 0.13077904 -0.17144674 -0.021639872 -0.096776225 -0.18502536 -0.04058461
-0.22987466 0.017195035 0.10365616 0.17776081 -0.008126337 -0.09116423 0.21598321 -0.032685798
-0.11086861 0.025502924 -0.17916867 -0.099122435 -0.011938147 -0.22921567 0.041464273 -0.14661174
-0.19506535 -0.07751158 -0.06400917 -0.04114514 -0.15551184 0.03493902 0.0056494377 -0.054022703
0.08008786 -0.012143486 -0.08776638 0.28142148 0.07930738 0.0347575 0.016188417 -0.03512644
-0.2136706 0.06660298 0.23383693 0.19013494 -0.018455949 0.0010578147 -0.09227289 0.079987355
-0.06975413 0.056037206 0.058893755 -0.0204809 -0.12579012 0.1700485 -0.08241883 -0.026806392
-0.09814426 -0.027313558 -0.1354193 -0.073168255 -0.17431529 -0.21616682 -0.18631399 -0.02765189
0.1532265 -0.15955213 -0.2641118 -0.19774128 0.086003125 -0.052101128 -0.026215225 -0.1763342
0.03899023 0.062376343 -0.1950745 -0.12945083 -0.017555913 0.06438903 -0.06161799 0.048635386
-0.26683974 -0.1310911 -0.17263202 0.0008708188 -0.28620943 0.041129023 -0.3321263 -0.00931458
0.02670706 0.11795855 -0.07556369 -0.2715138 -0.12795995 0.07514205 -0.11292888 -0.07767247
0.19780755 0.107577 -0.14768678 -0.1754531 -0.019347874 -0.10534628 -0.19856405 0.13841729
0.09425932 -0.09860125 -0.1814988 -0.16239944 0.025822796 -0.26141146 -0.02093388 -0.05715971
-0.16475613 -0.18222964 -0.1297214 0.0071952515 -0.019690199 -0.06212329 0.22849655 0.07469665
0.096734785 0.1116447 -0.20728408 0.05923335 -0.18953985 0.12836875 -0.16649894 0.056920048
-0.10608647 0.14745714 0.056073166 -0.15897988 0.07041846 0.04380909 -0.15741184 -0.05999003
-0.08918969 0.013924037 -0.12533988 0.090000756 0.037758037 -0.21229097 -0.058665197 0.023454644
-0.07378426 -0.09706506 0.17065084 -0.052314032 -0.056755714 -0.091164514 0.049403816 0.050487895
0.039488297 -0.11260908 0.08373661 -0.009725811 -0.08785604 -0.03366761 -0.057936523 -0.009360223
-0.01847848 -0.16858928 -0.029198794 -0.13059787 0.08219807 -0.05044207 -0.18397595 0.054819826
0.10648155 -0.11490447 -0.10425703 0.042969648 -0.29648194 -0.043565374 -0.03443228 0.1405948
0.06784885 0.25431782 0.02997523 -0.16464612 0.005994698 -0.078771174 0.006190028 0.075098775
-0.076025985 0.0008180326 -0.033500183 -0.14926729 -0.026139243 0.11084247 0.035556033 0.035806414
0.19681297 0.13317117 -0.10032657 0.007549094 0.15104173 -0.08658095 -0.19756952 0.10872824
0.023381453 -0.091526344 0.13621002 0.09878688 0.12898925 0.1105856 -0.1212243 0.007882302
-0.007246461 -0.06744531 0.023400066 -0.17051478 -0.08399421 0.0017056545 -0.06467233 0.089770526
0.0962469 -0.11041292 -0.16508871 0.05879807 -0.08015429 -0.12362113 0.08114874 0.055390965
-0.20826358 0.046970803 -0.15911034 -0.018200483 -0.042785134 -0.1543897 0.000106646505 -0.013152689
0.08043622 -0.019846115 -0.009192607 0.105734274 -0.026098797 0.14562517 -0.101242386 0.1446626

h2o.bias f4 [6]
00000000: 332e eb3d efbb cf3c 9943 3f3c 5334 e33b
00000010: 156b 0e39 5239 bc3b
0.11483421 0.025358168 0.011673831 0.006933728 0.00013582066 0.005744138

h2h.weight f4 [242, 242]
00000000: 247e 90bc 58b4 673c 4a8f 81bd ef93 e8bc
00000010: 00a0 97bd af6a b93d 5804 353d 48e3 1b3d
00000020: 5afc 85bd 6b8f 973d eb7a 2e3d cf67 28bc
00000030: 50b9 653d 9a23 62be 0a24 88bd b2d7 2c3a
00000040: 69ae fdbc 6322 e3bd 0ec5 8cbc d827 873d
00000050: 2c03 423b 1891 903c ff81 c8bd 91e0 a3bb
00000060: 978e b6bc f236 e43c 9a54 70bd e78b 633b
00000070: 7e11 03bb 50bf bbbd 9eb3 01be f467 8fbd
00000080: e37f 4e3b 238e a33c d5cb bdbc a34a 03be
00000090: 8d29 dc3c 0f3d 3a3d 5961 89bd 00e8 7bbd
000000a0: d494 f03c 8022 0f3e 9383 283e 047e 88bd
000000b0: 4679 1c3e 9799 27bc 08aa 923c d8b3 abbd
000000c0: 3779 ae3d 0e24 0e3d 5889 faba a026 a63d
000000d0: a0fc 613c 7014 a5bd 8336 30be 2a11 01bc
000000e0: ab1b 5ebd 5543 43bc 9342 a8bc f492 ce3d
000000f0: 5d2e 273d 7907 8fbc c487 a83c faba 0a3d
00000100: c2a2 453d 9d0f 9abd b798 fa3c 6dd9 7c3b
00000110: bae8 9dbc 76bf 60bd b720 80bc 61da 2bbc
00000120: 499b 3dbd a977 91bb 59df 48bd 4a3a 29bc
00000130: c63d f539 6c10 47bd 7feb 11bd ba3f 3ebd
00000140: 513a 3b3d 31cf 14bd cdd1 bf3d 7ace e83c
00000150: dc8f 2abd 37b1 493c b25c 05bb 2d27 2d3d
00000160: e4bf f4bd 1fa9 3cbe d6d5 51bd 12e8 fe3d
00000170: 57c5 873c d3a5 293d 5c3c cfbc d613 603d
00000180: e6a9 333e 16a4 fa3c e775 563c 95f0 febd
00000190: 3aa5 9138 4ea5 ecbc ffc1 1bbe b2ed e33c
000001a0: 036c 0d3d 162a e7bd f4b1 a1bd 98b6 d6bc
000001b0: e91f d4bc 52b7 62bd a22b ad3d 97d4 3cbd
000001c0: 7f02 e8bc 5a2f 5a3c 3436 cc3c 0537 bdbd
000001d0: c4fa da3c 5318 083d 78af c2bc 082e 843d
000001e0: 8d44 f53d cec1 03ba 4717 eabc 5a21 7abd
000001f0: 57e5 213c 0f6a b1bc a6c1 053e 55fe f63d
00000200: 84b4 c93d 76e6 f7bd b323 67bd 4ef4 893d
00000210: ef2a b13d 35cf 68bd 27c6 c7bc 0e24 18bd
00000220: 3a92 853d 857c d1bb 5c75 d23c 3876 10bd
00000230: 02e5 633d 5675 5abc 6c7d 01be 613f acbd
00000240: 64ff 613d 42ee 32bc 3deb f6bc a9f3 69bc
00000250: 7488 4bba e074 1b3e 7215 1a3c 8443 4f3d
00000260: 6841 c2bd 1edc c63d f3ae b83d f7aa 043d
00000270: 15e3 ae3c c7cd 103d 5c17 50bd 7293 0dbe
00000280: 4fdf 403b 7d41 05be 73ed f93c 6674 bebd
00000290: 91d2 113c 129b 343d d3de 8b3b 5f64 63bd
000002a0: d3d6 c13d 9b25 7f3d fba8 a5bd f02f e93b
000002b0: 307a afbd ab17 f93d f8b2 b83b 292b 4fbb
000002c0: a439 7c3c 4a77 be3d c095 b8bd 8a36 2e3d
000002d0: b4ae 3ebd 2110 a3bc 327b 2f3b 9b4f 0fbe
000002e0: ce4f de3d cac7 1a3b 3a41 823b fd71 a0bc
000002f0: d2cf 2d39 3430 613d ff9a c83d 0ab1 12bd
00000300: 40c6 b8bc 8817 4a3e 1642 b83b d3b6 973c
00000310: 7055 8bbd 1821 76bd eed0 793d b2e8 1c3c
00000320: 45e0 a3bd 66ad a8bb 049f 7cbb 993e c1bc
00000330: 78b0 7fbb 81e2 5fbd 43cd 653d ab80 053d
00000340: 321d fdbb 7ba4 163d 3eb3 13bc 57b7 2d3d
00000350: 2923 8cbd 61c5 a63c 1af3 f63d ce38 a63c
00000360: ed92 e3bd 2d90 29be 8586 ed3d f92f 0b3e
00000370: 9e9c 6c3d 6296 12bd 0a01 e1bd 6d97 32bd
00000380: c511 7e3d 17f9 f53c 09aa 653b dde4 bcbd
00000390: c9bb 06bc 3b26 0fbc 472c 0abb 2406 28bd
000003a0: d379 fa3d 302f 383d a4e2 783c 9fbf aebd
000003b0: 8a2e 29bd a3c4 db3d bf2b 193e 61c0 c1bb
000003c0: 7a3f a83c e9b5 a23d 4fbc d03d c66f 23be
000003d0: 16c7 6a3c 09ab 903c 767a 84bd 5801 133e
000003e0: a04f 873c df2e 22be 0906 f43d fa45 d83d
000003f0: 8af5 75bd 28cf b83c 6d1b e63d 607d 083e
-0.017638274 0.014142118 -0.06326158 -0.028390853 -0.074035645 0.090535514 0.044193596 0.03805855
-0.06542273 0.07400402 0.042597692 -0.010278656 0.05608493 -0.22083893 -0.06647499 0.00065934204
-0.030966954 -0.11090543 -0.017183807 0.065993965 0.0029603941 0.017647311 -0.0979042 -0.0050011356
-0.022284789 0.027858231 -0.058674432 0.003472084 -0.001999944 -0.09167349 -0.12666175 -0.07002249
0.0031509332 0.019965237 -0.023168484 -0.1282144 0.026875282 0.045468386 -0.06708021 -0.06150055
0.029367842 0.13978004 0.16456442 -0.066646606 0.15280637 -0.01022949 0.017903343 -0.08383912
0.08519214 0.034702353 -0.0019114418 0.08112836 0.013793141 -0.08060539 -0.17208295 -0.007877627
-0.054225605 -0.011917909 -0.020539558 0.10086623 0.0408157 -0.017459618 0.02057255 0.03386972
0.04825092 -0.07522509 0.030590398 0.0038581744 -0.019276012 -0.05487009 -0.0156406 -0.010489077
-0.04629067 -0.0044393134 -0.049041126 -0.010328839 0.00046776066 -0.048599645 -0.035624977 -0.046447493
0.04570991 -0.036330406 0.09366188 0.028418768 -0.0416411 0.012310318 -0.002034944 0.04227369
-0.11950663 -0.1842389 -0.05122932 0.12446608 0.016573591 0.041417908 -0.025297336 0.054706417
0.1754528 0.03059582 0.013089634 -0.12448231 6.944915e-05 -0.028887417 -0.15210722 0.027823303
0.034526836 -0.11287324 -0.0789527 -0.026210114 -0.025894122 -0.05535061 0.08455588 -0.04610118
-0.028321503 0.013316954 0.02492819 -0.0923901 0.026730902 0.033226322 -0.02376531 0.06454092
0.11975966 -0.00050261326 -0.028575553 -0.061066963 0.009881339 -0.021657018 0.13062152 0.12060229
0.09848884 -0.12104504 -0.05643053 0.067360505 0.08650767 -0.056838233 -0.024386479 -0.03714376
0.06522031 -0.0063930177 0.025690727 -0.035268992 0.05563832 -0.013333639 -0.12645501 -0.08410526
0.0551752 -0.010921063 -0.030141467 -0.0142792845 -0.00077641685 0.15181303 0.009404527 0.050601497
-0.094851315 0.09709953 0.09017744 0.032389607 0.021348516 0.035352495 -0.050803527 -0.13825777
0.0029429977 -0.13013263 0.030508732 -0.09299545 0.008900301 0.0440932 0.004268506 -0.055515643
0.094648026 0.062291723 -0.08088871 0.0071163103 -0.08568227 0.121627174 0.005636569 -0.0031611419
0.015394602 0.09300096 -0.090129375 0.04253248 -0.04655333 -0.019905152 0.002677631 -0.13995211
0.10855065 0.0023617619 0.003975061 -0.019585604 0.00016575985 0.05497761 0.09795188 -0.03581337
-0.02255547 0.19735539 0.0056231124 0.018519795 -0.06803405 -0.060090154 0.060990267 0.009576963
-0.080017604 -0.005147624 -0.003854693 -0.02358942 -0.0039015096 -0.05465937 0.056103956 0.03259341
-0.0077244276 0.036777955 -0.009014903 0.042411175 -0.06842644 0.02035779 0.12058087 0.020290758
-0.11112008 -0.16558905 0.11597923 0.13592519 0.05776655 -0.035787947 -0.10986526 -0.043601442
0.062028665 0.030026002 0.0035043976 -0.0922334 -0.008223482 -0.008737142 -0.002108352 -0.04102148
0.122302674 0.044966877 0.015190754 -0.085326426 -0.04130415 0.10730865 0.14958094 -0.005912826
0.02053808 0.07944853 0.10192167 -0.15960607 0.014329692 0.01765968 -0.0646867 0.14355981
0.01651746 -0.15838192 0.119152136 0.10560222 -0.060048617 0.022559717 0.112357 0.13329077

h2h.bias f4 [242]
00000000: 750e 27bc 7ce1 62bc aaa1 183d f974 603b
00000010: daa1 313d ca47 08bd 83eb 01bc effd d93b
00000020: efbb 503c 1f15 06bc 9858 d53c d656 5dbb
00000030: 9681 f4bc e4d1 623c a955 12bb 7601 993c
00000040: 905a 9a3b 170d 8b3b 4f22 113c cfc9 bf3b
00000050: 2245 debc 3380 aa3c faad 9e3c 1d4b 1f3d
00000060: 2ca5 773c eec2 3a3c 6d24 c5ba 1c8c f9bb
00000070: 943e c3bb d8f2 96bc c737 f4bb 3679 143d
00000080: 63e7 bcbc 5315 df3b e9be bdbc cbd8 d03c
00000090: d919 9bbc 02d0 663d 4261 883a 50f2 a2bc
000000a0: 13bc bdbb 314e 863b df73 17bd 1062 8abb
000000b0: 1377 2dbc e122 133c 9860 253c c9f0 543c
000000c0: cc9b a03c ee9c 163c e27d f23a 6109 083c
000000d0: 43da 9abb 67b7 b23c 545f 133c a7f8 18bc
000000e0: e265 86ba 6588 f0bc 5565 383d b56c 053b
000000f0: f966 173c 5c8d 00ba 172f 633d 2074 c8bb
00000100: d51d dfbc fbda ab3c c98f 683c c2ce 86bc
00000110: cec0 963c acb8 8fbc 4dc6 91bb 5fec 35bb
00000120: 7bcf 31bb 3047 ccbc 9248 2f3b 26c9 55bc
00000130: d628 4b3a 2176 cd3b 3aa7 113c 7b29 af3c
00000140: 5731 b23b 9521 bdbc 6d3d 7a3a b7bd b6bc
00000150: 3f03 3abb 5aa6 a03c b633 a1bb 8bbd 7abc
00000160: 132c 073d 9256 ca3a 869c f3bc 6faa dc3b
00000170: 0fc9 5d3c f80d bb39 2204 d6bc 6c62 c3bc
00000180: d5f3 1a3d de84 883c 8760 5abc 9e01 edbc
00000190: 3f33 f43c 6363 863c c898 093c 5351 95bb
000001a0: 4e13 023c a64d 78ba 7bee 6f3c 4e08 0f3d
000001b0: 5e86 393d be1a bcbc 48b2 00bc de28 ffbb
000001c0: 87eb 2dbb 011d b2bc 9396 82bc ec02 30bc
000001d0: 2fe3 ac3c 1b2e 39bc 3c08 07bc 1cfe 02bc
000001e0: 2206 c33b 63fd febb a6e0 2a3d a00a da3c
000001f0: b3c3 e6ba 5cb0 473d e153 ed3c 0451 983c
00000200: 5371 2e3d d9e2 83bc 2255 40bc 0500 ad3b
00000210: 1a2b c5bc 4514 8fbc 0fc5 953b 08d0 54bc
00000220: bf43 95bc 72a9 293b bdbb db3b 1226 3fbc
00000230: 41b2 dbbc 071e 233c cf0d bc3c f135 f53c
00000240: 4655 f23c d435 bdbc 2ba1 c73c 4fb0 d7bc
00000250: 8358 ebbb bee6 233d 225e 8d3c 2230 223b
00000260: 08b7 4cbc bc1a 3c3b 85b7 b5bc 0870 3c3d
00000270: d856 813b 9f39 e4bc 73a5 4b3c 6abe f9ba
00000280: e9ca 82bc a521 09bc bf24 febb 0218 87bc
00000290: 4ec1 debc 5a19 e9bb 7cd3 bbbb b31d a03c
000002a0: 77b0 8ebb 1291 9cbc 88d0 2b3d 24eb a23c
000002b0: 79cc 9bbc 286b dcbb 7c65 763b ad06 813a
000002c0: dd71 e03b 5103 9c3c e116 8abb a399 7fbc
000002d0: 1203 a4bb 494f d7ba 2d20 a7bc e4ae 0f3b
000002e0: 26fd 8cbc e550 95bc b469 223d 91b9 d63b
000002f0: 71a3 c3ba 5bd5 b7bc 2d1e d33b 9385 c0bc
00000300: d874 a5bb 2a23 c5bc 6d81 803c 41fb 173d
00000310: 45f6 75bb 0a6f afbc 760e bfb9 e820 bebc
00000320: 6d4d 123d c932 e6bc 9402 91bc e6c5 5cbc
00000330: b097 253c 8f7d 4f3d 68a0 12bd 17db 543a
00000340: a491 61bc f232 813c 26ba 14bb 138f 033c
00000350: 50fe aabb 6bda 0c3c c461 473b a629 f43b
00000360: e4ed cbb8 af3a e73c ff47 9339 5a13 0a3c
00000370: e5cc 973b 8827 cd3a a41f adbc bf29 d53a
00000380: 32c1 693c 2d00 f2bb b493 013c a9ae 95bc
00000390: f80e 94bc a462 123d cee8 bbbb 9c55 8a3b
000003a0: 9304 79bb 2f2c 18bc acb3 14bd ca4c f4ba
000003b0: 5f5c 7b3b 552f 4ebc eec4 02bc 87e2 8e3c
000003c0: 60d9 5c3b ac97 7f3c
-0.010196318 -0.013847705 0.03726355 0.0034249409 0.043367244 -0.03327159 -0.0079296855 0.0066525857
0.012740119 -0.008183747 0.026043221 -0.0033773682 -0.029846948 0.013843987 -0.002232889 0.018677454
0.004710503 0.004243504 0.008858277 0.005852915 -0.027132574 0.020813083 0.019370068 0.038889993
0.015115064 0.011399014 -0.0015040763 -0.0076155793 -0.0059583876 -0.018426344 -0.0074529382 0.03624841
-0.023059553 0.006807962 -0.023162322 0.025494 -0.018933224 0.056350715 0.0010404962 -0.019890934
-0.0057902425 0.0040986766 -0.036975738 -0.0042231157 -0.010587472 0.008980484 0.0100938305 0.012996861
0.01960554 0.009192688 0.0018500651 0.008303017 -0.004725726 0.021815969 0.008994896 -0.009336627
-0.0010253752 -0.029361913 0.045018513 0.0020358984 0.009240859 -0.00049038767 0.05546483 -0.006117359
-0.027235905 0.020978441 0.014194437 -0.016456012 0.018402483 -0.017544113 -0.004448688 -0.0027759296
-0.0027131725 -0.024936289 0.0026746136 -0.013048446 0.00077499205 0.0062701856 0.008889968 0.021382084
0.0054380107 -0.023087302 0.00095458963 -0.02230726 -0.0028383282 0.019610573 -0.0049194945 -0.01530398
0.033001017 0.0015437177 -0.029737722 0.0067341845 0.013536706 0.00035677827 -0.026125018 -0.023850642
0.037830193 0.016664919 -0.013328678 -0.028931435 0.029809592 0.016404813 0.008398242 -0.0045568137
0.007939173 -0.000947202 0.0146442605 0.03492003 0.04529416 -0.02296197 -0.007855006 -0.007786854
-0.002653809 -0.021742346 -0.01594094 -0.010742884 0.021104423 -0.011302496 -0.008241709 -0.007995155
0.005951659 -0.007781671 0.041718148 0.026616395 -0.001760593 0.048752174 0.02897066 0.018593319
0.042588543 -0.01609938 -0.011739047 0.0052795433 -0.024068404 -0.01746572 0.0045706104 -0.012989052
-0.01822078 0.002588835 0.0067057298 -0.0116667915 -0.026818397 0.00995589 0.022955803 0.029932948
0.029581677 -0.023096956 0.024368843 -0.026329188 -0.0071821823 0.040014975 0.0172568 0.0024747928
-0.01249481 0.0028702458 -0.022182235 0.04600528 0.00394712 -0.027859507 0.012429583 -0.001905394
-0.015965896 -0.008369838 -0.0077558453 -0.01649094 -0.027191784 -0.007113618 -0.005731998 0.019545412
-0.0043545323 -0.019112144 0.041946918 0.019887514 -0.019018399 -0.006726641 0.003759711 0.0009843908
0.006849511 0.01904455 -0.004214153 -0.015600595 -0.005005249 -0.0016426827 -0.020401085 0.0021924311
-0.017210554 -0.01822705 0.039651588 0.006552883 -0.0014926029 -0.022440603 0.006442806 -0.023501193
-0.0050493293 -0.02406462 0.015686715 0.03710485 -0.0037530821 -0.021415252 -0.00036441133 -0.02320905
0.03571837 -0.028100388 -0.017701425 -0.013474917 0.010106966 0.05065685 -0.035797507 0.0008119805
-0.013767634 0.015771363 -0.002269396 0.008029717 -0.0052183047 0.008596997 0.0030423263 0.007451254
-9.724105e-05 0.028226225 0.00028091666 0.008427465 0.0046325796 0.001565204 -0.021133251 0.0016263052
0.014267253 -0.007385275 0.00790875 -0.018271761 -0.018073544 0.035738602 -0.0057345396 0.004221631
-0.0037997111 -0.009287878 -0.03630416 -0.0018638608 0.0038354618 -0.012584527 -0.007981522 0.017442001
0.0033698902 0.015600126
