VLSI23_journal/intuitivechip_classifier_lcsvsnlcs_run3/SNN_ep-150-isize-2-8-1-hsize-242-bsize-32-lr-0.001-tmax_ms-400.0-Ts-10.0-k-6-dsetPath-VMODE_allchannels_ALLCLASS_auto_nospkfilter_cleaned_12x16_9mvpp_250mvofs_onedac_itail_50nA_N5b/chip-classifier-4-best.pt (torch, 261239 bytes, 8 tensors)

thr_h_1 f4 [242]
1.0 1.0 1.0 1.0 1.0 1.0 1.0 1.0
1.0 1.0 1.0 1.0 1.0 1.0 1.0 1.0
1.0 1.0 1.0 1.0 1.0 1.0 1.0 1.0
1.0 1.0 1.0 1.0 1.0 1.0 1.0 1.0
1.0 1.0 1.0 1.0 1.0 1.0 1.0 1.0
1.0 1.0 1.0 1.0 1.0 1.0 1.0 1.0
1.0 1.0 1.0 1.0 1.0 1.0 1.0 1.0
1.0 1.0 1.0 1.0 1.0 1.0 1.0 1.0
1.0 1.0 1.0 1.0 1.0 1.0 1.0 1.0
1.0 1.0 1.0 1.0 1.0 1.0 1.0 1.0
1.0 1.0 1.0 1.0 1.0 1.0 1.0 1.0
1.0 1.0 1.0 1.0 1.0 1.0 1.0 1.0
1.0 1.0 1.0 1.0 1.0 1.0 1.0 1.0
1.0 1.0 1.0 1.0 1.0 1.0 1.0 1.0
1.0 1.0 1.0 1.0 1.0 1.0 1.0 1.0
1.0 1.0 1.0 1.0 1.0 1.0 1.0 1.0
1.0 1.0 1.0 1.0 1.0 1.0 1.0 1.0
1.0 1.0 1.0 1.0 1.0 1.0 1.0 1.0
1.0 1.0 1.0 1.0 1.0 1.0 1.0 1.0
1.0 1.0 1.0 1.0 1.0 1.0 1.0 1.0
1.0 1.0 1.0 1.0 1.0 1.0 1.0 1.0
1.0 1.0 1.0 1.0 1.0 1.0 1.0 1.0
1.0 1.0 1.0 1.0 1.0 1.0 1.0 1.0
1.0 1.0 1.0 1.0 1.0 1.0 1.0 1.0
1.0 1.0 1.0 1.0 1.0 1.0 1.0 1.0
1.0 1.0 1.0 1.0 1.0 1.0 1.0 1.0
1.0 1.0 1.0 1.0 1.0 1.0 1.0 1.0
1.0 1.0 1.0 1.0 1.0 1.0 1.0 1.0
1.0 1.0 1.0 1.0 1.0 1.0 1.0 1.0
1.0 1.0 1.0 1.0 1.0 1.0 1.0 1.0
1.0 1.0
00000000: 0000 803f 0000 803f 0000 803f 0000 803f
00000010: 0000 803f 0000 803f 0000 803f 0000 803f
00000020: 0000 803f 0000 803f 0000 803f 0000 803f
00000030: 0000 803f 0000 803f 0000 803f 0000 803f
00000040: 0000 803f 0000 803f 0000 803f 0000 803f
00000050: 0000 803f 0000 803f 0000 803f 0000 803f
00000060: 0000 803f 0000 803f 0000 803f 0000 803f
00000070: 0000 803f 0000 803f 0000 803f 0000 803f
00000080: 0000 803f 0000 803f 0000 803f 0000 803f
00000090: 0000 803f 0000 803f 0000 803f 0000 803f
000000a0: 0000 803f 0000 803f 0000 803f 0000 803f
000000b0: 0000 803f 0000 803f 0000 803f 0000 803f
000000c0: 0000 803f 0000 803f 0000 803f 0000 803f
000000d0: 0000 803f 0000 803f 0000 803f 0000 803f
000000e0: 0000 803f 0000 803f 0000 803f 0000 803f
000000f0: 0000 803f 0000 803f 0000 803f 0000 803f
00000100: 0000 803f 0000 803f 0000 803f 0000 803f
00000110: 0000 803f 0000 803f 0000 803f 0000 803f
00000120: 0000 803f 0000 803f 0000 803f 0000 803f
00000130: 0000 803f 0000 803f 0000 803f 0000 803f
00000140: 0000 803f 0000 803f 0000 803f 0000 803f
00000150: 0000 803f 0000 803f 0000 803f 0000 803f
00000160: 0000 803f 0000 803f 0000 803f 0000 803f
00000170: 0000 803f 0000 803f 0000 803f 0000 803f
00000180: 0000 803f 0000 803f 0000 803f 0000 803f
00000190: 0000 803f 0000 803f 0000 803f 0000 803f
000001a0: 0000 803f 0000 803f 0000 803f 0000 803f
000001b0: 0000 803f 0000 803f 0000 803f 0000 803f
000001c0: 0000 803f 0000 803f 0000 803f 0000 803f
000001d0: 0000 803f 0000 803f 0000 803f 0000 803f
000001e0: 0000 803f 0000 803f 0000 803f 0000 803f
000001f0: 0000 803f 0000 803f 0000 803f 0000 803f
00000200: 0000 803f 0000 803f 0000 803f 0000 803f
00000210: 0000 803f 0000 803f 0000 803f 0000 803f
00000220: 0000 803f 0000 803f 0000 803f 0000 803f
00000230: 0000 803f 0000 803f 0000 803f 0000 803f
00000240: 0000 803f 0000 803f 0000 803f 0000 803f
00000250: 0000 803f 0000 803f 0000 803f 0000 803f
00000260: 0000 803f 0000 803f 0000 803f 0000 803f
00000270: 0000 803f 0000 803f 0000 803f 0000 803f
00000280: 0000 803f 0000 803f 0000 803f 0000 803f
00000290: 0000 803f 0000 803f 0000 803f 0000 803f
000002a0: 0000 803f 0000 803f 0000 803f 0000 803f
000002b0: 0000 803f 0000 803f 0000 803f 0000 803f
000002c0: 0000 803f 0000 803f 0000 803f 0000 803f
000002d0: 0000 803f 0000 803f 0000 803f 0000 803f
000002e0: 0000 803f 0000 803f 0000 803f 0000 803f
000002f0: 0000 803f 0000 803f 0000 803f 0000 803f
00000300: 0000 803f 0000 803f 0000 803f 0000 803f
00000310: 0000 803f 0000 803f 0000 803f 0000 803f
00000320: 0000 803f 0000 803f 0000 803f 0000 803f
00000330: 0000 803f 0000 803f 0000 803f 0000 803f
00000340: 0000 803f 0000 803f 0000 803f 0000 803f
00000350: 0000 803f 0000 803f 0000 803f 0000 803f
00000360: 0000 803f 0000 803f 0000 803f 0000 803f
00000370: 0000 803f 0000 803f 0000 803f 0000 803f
00000380: 0000 803f 0000 803f 0000 803f 0000 803f
00000390: 0000 803f 0000 803f 0000 803f 0000 803f
000003a0: 0000 803f 0000 803f 0000 803f 0000 803f
000003b0: 0000 803f 0000 803f 0000 803f 0000 803f
000003c0: 0000 803f 0000 803f

thr_o f4 [6]
1.0 1.0 1.0 1.0 1.0 1.0
00000000: 0000 803f 0000 803f 0000 803f 0000 803f
00000010: 0000 803f 0000 803f

i2h.weight f4 [242, 16]
0.12606892 -0.083846904 -0.0005686832 0.041881893 0.061066993 -0.0004322763 0.022550566 -0.0077303285
0.12506147 -0.054782905 -0.12417816 -0.044301063 0.10404026 0.11444108 -0.08598425 -0.11561042
0.075587705 0.08292332 -0.13849154 0.077873334 -0.092511244 -0.037203338 -0.10771577 -0.14989023
0.103242755 0.10071686 0.1434513 0.020621525 0.04987027 -0.008181616 0.093058944 -0.02447333
0.10296602 -0.076931536 0.09832822 0.14239375 -0.090452984 0.1166306 -0.07038034 0.05610336
-0.096076995 -0.00034513298 -0.067956895 -0.07554275 0.108446635 0.09919108 -0.06199491 0.02356422
0.1514929 -0.038269803 0.117829226 0.030401714 0.13736331 0.12481575 -0.11729826 -0.09028317
0.15541843 -0.009515636 -0.13273184 0.0061910516 -0.034826167 0.08736089 0.06681177 0.13610053
0.0052303746 0.088839054 0.04908126 -0.13706335 -0.087350525 -0.07750177 0.1113053 -0.07598643
-0.12126097 -0.1324573 -0.08884387 -0.019027626 0.12182518 -0.17465134 0.023995148 0.02995637
-0.020667542 0.06735442 -0.08931722 0.113219954 -0.040141206 -0.01029336 -0.052612614 0.09896191
-0.038136702 0.13396643 0.036692973 -0.035378534 -0.141684 -0.048245408 0.011997514 -0.05083696
0.089712724 -0.07181722 0.12904572 0.10189268 0.15868735 -0.07487116 0.08800217 -0.092860095
0.16716757 0.14599352 -0.14219032 0.04589455 -0.071991526 -0.053393636 -0.040404566 0.04367643
0.041346665 0.13591471 -0.06344957 -0.0798056 -0.11783219 -0.080678545 -0.11146569 -0.011226682
-0.23050153 0.05895139 -0.04765895 -0.021726359 -0.13837016 0.11017015 -0.10929829 0.17287716
0.07603386 -0.088093065 0.06963933 -0.15181509 -0.14630847 -0.048705313 0.067067884 0.061410166
-0.10185424 0.031151593 0.0610706 -0.023741834 0.030119518 -0.051070455 0.064813636 0.08952719
-0.1869014 0.041622803 0.118350714 -0.0111383945 0.09898908 0.09082422 0.12269149 -0.13062492
-0.10873946 0.08583284 -0.10483719 -0.118776046 0.017966136 -0.016279485 0.091693565 0.004461519
-0.07361 0.00558521 0.09635381 0.13523547 -0.1490007 0.104986176 0.11121264 0.12673123
-0.031541348 -0.13710567 -0.0073608677 -0.12613212 -0.12169358 -0.116454385 -0.07930715 0.033864327
0.1651344 -0.02208084 -0.0674077 0.042219605 0.15000679 0.101759605 -0.0787825 -0.03956717
0.14654838 -0.113137 0.10247243 -0.074591495 0.1658012 0.0126241455 0.000527223 -0.07649929
0.12526432 0.004596095 0.12600012 0.024094896 -0.09922705 0.10708296 0.15136805 -0.06991594
-0.045226514 0.03877966 0.059550177 0.048478197 -0.12578078 0.050595473 -0.001063965 0.026699679
0.12427679 0.087162614 -0.06677915 0.10785271 -0.035009854 -0.105017975 0.083163574 0.10601236
-0.037171375 0.011084541 0.07095669 0.13838008 0.049838617 0.09089024 -0.059059747 -0.020145858
0.012592149 -0.055786926 -0.12424297 -0.047376517 0.09943336 -0.12113822 0.124263346 -0.06263572
-0.08276104 -0.13058971 0.005186739 0.14213099 -0.042752154 -0.048464764 -0.03236738 0.1307684
0.023294691 -0.03345454 0.06240319 0.17717476 -0.017452367 0.11720639 -0.009643955 -0.036910955
-0.03233167 -0.06747015 -0.08940075 -0.17171215 -0.11667222 -0.1371119 0.015247103 -0.05364976
00000000: 3618 013e edb7 abbd af13 15ba 598c 2b3d
00000010: 6221 7a3d 25a3 e2b9 f7bb b83c b24e fdbb
00000020: 1d10 003e 0a64 60bd 1f51 febd 0875 35bd
00000030: 0f13 d53d 1660 ea3d 8318 b0bd 28c5 ecbd
00000040: bacd 9a3d b4d3 a93d bad0 0dbe 0e7c 9f3d
00000050: 8976 bdbd 8762 18bd 169a dcbd d37c 19be
00000060: f070 d33d a444 ce3d e6e4 123e 79ee a83c
00000070: c544 4c3d 2f0c 06bc b095 be3d 4b7c c8bc
00000080: d9df d23d 488e 9dbd 4e60 c93d abcf 113e
00000090: 6a3f b9bd 06dc ee3d 9123 90bd a3cc 653d
000000a0: 04c4 c4bd f7f2 b4b9 fc2c 8bbd 28b6 9abd
000000b0: 4519 de3d b124 cb3d 60ee 7dbd c009 c13c
000000c0: f420 1b3e ccc0 1cbd 7350 f13d 040d f93c
000000d0: f8a8 0c3e 669f ff3d 123a f0bd 62e6 b8bd
000000e0: 0226 1f3e 78e7 1bbc dbea 07be 4ede ca3b
000000f0: e2a5 0ebd 44ea b23d 9cd4 883d f05d 0b3e
00000100: 9063 ab3b 40f1 b53d 6e09 493d 565a 0cbe
00000110: d5e4 b2bd 3fb9 9ebd 08f4 e33d c69e 9bbd
00000120: ac57 f8bd e3a2 07be c6f3 b5bd d3df 9bbc
00000130: 7b7f f93d cdd7 32be 7991 c43c 1067 f53c
00000140: fa4e a9bc 1df1 893d f2eb b6bd dddf e73d
00000150: 1b6b 24bd 7ba5 28bc 5380 57bd 8bac ca3d
00000160: 3b35 1cbd 7f2e 093e 5f4b 163d 15e9 10bd
00000170: 9c15 11be fa9c 45bd 3991 443c 6b3a 50bd
00000180: 4ebb b73d e814 93bd 9024 043e 1cad d03d
00000190: f07e 223e 0d56 99bd 7b3a b43d 6f2d bebd
000001a0: fa2d 2b3e 537f 153e 579a 11be ecfb 3b3d
000001b0: 4b70 93bd 49b3 5abd 427f 25bd 0ee6 323d
000001c0: 1f5b 293d 3a2d 0b3e d9f1 81bd 1e71 a3bd
000001d0: 0152 f1bd cb3a a5bd 2048 e4bd 1ef0 37bc
000001e0: 9808 6cbe 0377 713d 0836 43bd 7afb b1bc
000001f0: e8b0 0dbe e3a0 e13d c8d7 dfbd b606 313e
00000200: a4b7 9b3d 236a b4bd 119f 8e3d 6a75 1bbe
00000210: e3d1 15be 397f 47bd e35a 893d 3a89 7b3d
00000220: f598 d0bd a031 ff3c 2a25 7a3d 3c7e c2bc
00000230: 35bd f63c 412f 51bd 03bd 843d 085a b73d
00000240: 1563 3fbe ac7c 2a3d dc61 f23d d07d 36bc
00000250: c9ba ca3d 0c02 ba3d ad45 fb3d 8ac2 05be
00000260: cbb2 debd 21c9 af3d e1b4 d6bd db40 f3bd
00000270: b82d 933c 8e5c 85bc d6c9 bb3d ef31 923b
00000280: d7c0 96bd 2304 b73b 2555 c53d 2b7b 0a3e
00000290: a493 18be fe02 d73d 74c3 e33d d5c5 013e
000002a0: 8031 01bd 6e65 0cbe 6f33 f1bb c728 01be
000002b0: 7c3a f9bd a37f eebd c96b a2bd 52b5 0a3d
000002c0: fe18 293e e1e2 b4bc 0c0d 8abd 77ee 2c3d
000002d0: 619b 193e 5767 d03d b858 a1bd 2f11 22bd
000002e0: c710 163e 5fb4 e7bd 11dd d13d 6dc3 98bd
000002f0: cac7 293e 81d5 4e3c 5635 0a3a a9ab 9cbd
00000300: 4a45 003e d79a 963b 2d06 013e a962 c53c
00000310: 8d37 cbbd 504e db3d 3a00 1b3e 1730 8fbd
00000320: 703f 39bd 6cd7 1e3d e3ea 733d 1391 463d
00000330: adcc 00be 333d 4f3d be74 8bba 49b9 da3c
00000340: d484 fe3d 5082 b23d 82c3 88bd e2e1 dc3d
00000350: 7e66 0fbd aa13 d7bd aa51 aa3d 021d d93d
00000360: 0341 18bd ef9b 353c be51 913d 82b3 0d3e
00000370: 9423 4c3d aa24 ba3d a2e8 71bd ed08 a5bc
00000380: 4d4f 4e3c d580 64bd 1973 febd e10d 42bd
00000390: b8a3 cb3d 5117 f8bd c87d fe3d 2847 80bd
000003a0: 9f7e a9bd 4fb9 05be 85f5 a93b c98a 113e
000003b0: e21c 2fbd fd82 46bd a893 04bd 27e8 053e
000003c0: 82d4 be3c a107 09bd 7d9a 7f3d 4d6d 353e
000003d0: 44f8 8ebc e709 f03d ae01 1ebc f12f 17bd
000003e0: 376e 04bd ca2d 8abd be17 b7bd 4fd5 2fbe
000003f0: d8f1 eebd 1067 0cbe fcce 793c dabf 5bbd

i2h.bias f4 [242]
0.005789809 0.0016570658 0.005012761 -0.0055006198 0.039666463 -0.020331291 0.028198404 0.020098303
-0.008103895 0.0078510055 0.019404104 0.053258736 -0.012763777 0.0026602973 -0.005928159 0.05163124
0.019152705 0.0013191705 0.0025278954 0.0014630985 -0.00079523347 0.011926042 0.084277876 -0.005140698
0.004653971 0.0558434 0.0024486054 0.002361233 0.008978786 0.041932587 -0.0038168961 0.016363764
-0.005284614 -0.0008018642 5.2908657e-05 0.004655611 0.0019765475 0.0061184433 0.033420827 0.01068285
-0.005165833 0.017047748 0.018900402 -0.016326407 -0.0013079536 0.0008008201 -0.0075192666 0.004504249
0.030514609 -0.0063970154 -0.006205293 -0.0024549328 0.0047228285 -0.0013827386 0.011224174 0.004139342
-0.010536961 0.0027022245 0.0036584416 0.022556862 0.0012794152 -0.010486468 0.0009192452 0.010476286
0.019472454 -0.010804829 -0.013021698 0.003447712 0.046001665 0.02136008 -0.010264005 0.0009894624
0.03136501 -0.004133994 0.00024370875 -0.0013323724 -0.009267667 -0.0065466384 0.0055313567 -0.01001308
0.0038891472 0.02071714 -0.00062782416 -0.01383192 -0.012188202 -0.0028829265 0.017256573 -0.00026337677
-0.0051365453 0.004887988 -0.0023624327 0.039360423 0.0015241505 0.0032081474 -0.015523512 0.00079042086
-0.015967375 0.021221349 -0.007532232 -0.039305232 0.0063992552 0.0024533088 0.023203177 0.0003478798
-0.010617437 -0.001516491 0.037987497 0.0045517185 0.015709504 -0.0082933195 0.005232764 -0.0028009089
-0.007884376 0.008604874 0.0069884895 0.009369877 -8.701252e-05 0.0061794003 -0.0038232827 -0.003382163
-0.0046661464 -0.006215481 -0.0042492864 0.0074057295 -0.008793729 -0.0012015313 0.023789514 0.028156115
-0.004248542 0.0029606207 0.011380772 0.00010794774 -0.0018241655 0.0018205422 -0.0019569488 -0.0004953391
0.014498828 0.007402537 0.011170493 0.019804936 0.0042061415 -0.003924206 0.014595416 -0.007936776
0.0057057096 0.002018042 -0.00034996957 -1.4920262e-05 0.00037154972 0.011023521 -0.005710493 -0.0015265695
0.08437194 -0.018874176 0.020964826 0.0004313894 -0.00086471974 -0.005218209 0.027034508 0.00021675276
0.009239663 0.019057667 0.0028443725 -0.0090852175 0.003530319 -0.0071750106 0.048223935 0.04753225
-0.010090079 0.016199352 -0.009499066 0.0017454927 -0.0034026003 0.030949349 0.001694231 0.0043399516
-0.0039325953 0.019217657 -0.0013838462 -0.009197156 0.045671206 0.0075310506 0.008599276 0.032055985
-0.0056464085 0.0035205067 0.0094230175 -0.0014065917 0.005521465 -0.011528474 -0.03406349 -0.0025480543
-0.003007884 -0.005105176 -0.0016499992 0.0023532833 -0.012268957 -0.001641265 0.020037454 -0.0027728046
-0.017600456 -0.0023300743 0.00092790206 -0.009263866 0.0028173532 0.02601753 -0.009320704 -0.0014231029
0.009210044 0.0025061953 0.03578224 -0.004263713 -0.011889254 -0.0054010577 -0.0011072294 -0.0060164733
-0.023806132 0.004442054 -0.037183244 -0.011037553 0.057012085 -0.0061965063 0.03044722 0.002036999
0.003338633 -0.0047856467 0.039413862 -0.0061345594 0.013109812 -0.014151146 -0.0232177 0.070442006
0.0022422734 0.029754559 0.012678946 0.025196185 -0.00092187774 0.0057996195 -0.0023674686 0.028744796
-0.009785503 0.008079162
00000000: 70b8 bd3b e731 d93a 1642 a43b 8b3e b4bb
00000010: 4d79 223d cf8d a6bc 5700 e73c 32a5 a43c
00000020: 33c6 04bc 81a1 003c 5bf5 9e3c d525 5a3d
00000030: 291f 51bc 6258 2e3b 0141 c2bb 477b 533d
00000040: 22e6 9c3c 04e8 ac3a 0cab 253b 70c5 bf3a
00000050: 3777 50ba 7265 433c e199 ac3d 4d73 a8bb
00000060: 5780 983b 0dbc 643d c878 203b ebbe 1a3b
00000070: c21b 133c 81c1 2b3d e424 7abb 4d0d 863c
00000080: 8e2a adbb 3234 52ba 3dea 5d38 188e 983b
00000090: f788 013b 397d c83b 47e4 083d 1f07 2f3c
000000a0: 2646 a9bb b8a7 8b3c 04d5 9a3c f5be 85bc
000000b0: a46f abba 21ee 513a 2e64 f6bb 6198 933b
000000c0: c6f9 f93c 0e9e d1bb c555 cbbb f0e2 20bb
000000d0: f5c1 9a3b 023d b5ba 99e5 373c 51a3 873b
000000e0: 38a3 2cbc ce17 313b 77c2 6f3b 2bc9 b83c
000000f0: 0db2 a73a 6fcf 2bbc 80f9 703a baa4 2b3c
00000100: b284 9f3c bd06 31bc f658 55bc 02f3 613b
00000110: 3e6c 3c3d 56fb ae3c 5b2a 28bc d9b0 813a
00000120: 9978 003d 7576 87bb 128c 7f39 00a3 aeba
00000130: 6ad7 17bc 2f85 d6bb 6240 b53b e70d 24bc
00000140: 10e1 7e3b feb6 a93c 9194 24ba 479f 62bc
00000150: 06b1 47bc 7bef 3cbb a85d 8d3c d515 8ab9
00000160: 7750 a8bb 6a2b a03b 0bd3 1abb 6538 213d
00000170: 01c6 c73a c83f 523b 5456 7ebc 3f34 4f3a
00000180: 03ce 82bc 65d8 ad3c f1d0 f6bb 86fe 20bd
00000190: d8b0 d13b b1c7 203b 9714 be3c a363 b639
000001a0: c2f4 2dbc fec4 c6ba c798 1b3d 9526 953b
000001b0: 38b1 803c b4e0 07bc 9b77 ab3b 748f 37bb
000001c0: 782d 01bc 75fb 0c3c b3ff e43b 1d84 193c
000001d0: 7e7a b6b8 917c ca3b 0a90 7abb 47a7 5dbb
000001e0: 79e6 98bb 3cab cbbb 993d 8bbb c3ab f23b
000001f0: 9313 10bc b37c 9dba 3ae2 c23c a7a7 e63c
00000200: 5a37 8bbb f906 423b 6b76 3a3c 0062 e238
00000210: d618 efba 429f ee3a 2740 00bb a5d9 01ba
00000220: 7e8c 6d3c fb90 f23b 7204 373c f63d a23c
00000230: acd3 893b a096 80bb 9d21 6f3c 4009 02bc
00000240: f6f6 ba3b 2041 043b 1f7c b7b9 0a52 7ab7
00000250: 8fcc c239 009c 343c 161f bbbb 2c17 c8ba
00000260: 32cb ac3d 049e 9abc 6dbe ab3c 1b2c e239
00000270: 5cae 62ba 82fd aabb 7977 dd3c 2048 6339
00000280: f561 173c d31e 9c3c a768 3a3b 2ada 14bc
00000290: ed5c 673b 5a1c ebbb 7686 453d 2db1 423d
000002a0: dc50 25bc 81b4 843c f8a1 1bbc 04c9 e43a
000002b0: 29fe 5ebb 7d89 fd3c f510 de3a 2736 8e3b
000002c0: 00dd 80bb 596e 9d3c 2c62 b5ba abaf 16bc
000002d0: bb11 3b3d 08c7 f63b fae3 0c3c 234d 033d
000002e0: 8205 b9bb 4db8 663b 0063 1a3c 635d b8ba
000002f0: 68ed b43b ede1 3cbc 2886 0bbd 42fd 26bb
00000300: eb1f 45bb 5249 a7bb c944 d8ba 8b39 1a3b
00000310: bc03 49bc b71f d7ba 9625 a43c f1b7 35bb
00000320: d52e 90bc 29b4 18bb 743e 733a 78c7 17bc
00000330: 58a3 383b b722 d53c deb5 18bc 6987 baba
00000340: b9e5 163c fb3e 243b 6690 123d 9eb6 8bbb
00000350: 25cb 42bc 5bfb b0bb 7420 91ba d625 c5bb
00000360: 1405 c3bc a68e 913b 754d 18bd dad6 34bc
00000370: 8185 693d 100c cbbb 736c f93c 2c7f 053b
00000380: f8cc 5a3b ead0 9cbb 6e70 213d 6a04 c9bb
00000390: 89ca 563c 35da 67bc 0c33 bebc e643 903d
000003a0: 1bf3 123b d5bf f33c 5bbb 4f3c 3b68 ce3c
000003b0: 2baa 71ba bc0a be3b 8827 1bbb 357a eb3c
000003c0: 6053 20bc 765e 043c

h2o.weight f4 [6, 242]
-0.04225326 0.08497969 0.0777612 0.0831365 -0.10282642 -0.056657694 -0.15241109 -0.15395212
0.08507175 -0.15374844 -0.042498577 -0.022436945 -0.003432038 -0.06593234 -0.060611945 0.07046909
-0.050792206 0.034196634 0.054821957 -0.13917664 0.14667964 0.039729103 -0.04711004 0.03249894
-0.15462862 0.094302915 -0.08185133 -0.12762251 -0.02661739 -0.15129316 -0.12000034 -0.060895063
-0.1088293 0.12799913 0.008756449 -0.08599476 -0.07134244 0.021059807 0.0012144396 0.01461381
-0.056082804 0.034761958 0.053061787 0.009325991 0.023042075 -0.00409047 0.112541325 -0.12032644
0.0038533534 -0.11194564 -0.074594036 -0.01716054 -0.097842 0.0964778 -0.089926444 -0.041086566
0.00042566963 -0.16231622 0.025977543 0.12508753 -0.037356485 -0.10493551 -0.059688777 -0.17270958
0.01755073 0.14143729 0.009436401 0.011577157 0.03507706 0.060977053 0.028595554 0.086373635
-0.14389457 -0.026112024 -0.011756308 -0.007610839 -0.10683549 0.07675435 -0.027074253 0.012820247
-0.077306546 -0.18042538 0.1011498 0.103950575 0.10733336 -0.094327934 -0.12615807 0.016714271
-0.1281515 0.05328629 -0.022147419 0.14239152 -0.09179082 -0.054093268 0.14334656 0.16822675
-0.13045508 -0.11097042 -0.039833967 -0.13979368 -0.049846765 -0.06434265 0.009558968 0.014567352
0.102115795 0.10492692 -0.06888415 0.044783004 0.13488583 0.1501394 0.107222624 0.09124733
-0.12377617 -0.07072673 0.13195723 -0.19670792 -0.0224145 -0.049176104 -0.050229378 0.11128808
0.1233386 -0.055134065 0.019278375 -0.057663374 0.06477721 0.12321183 -0.02959166 0.21209903
0.09544729 0.13316154 0.004814154 0.09117184 0.074708335 -0.052134525 -0.0946491 -0.120516695
-0.16729411 -0.0049498766 -0.11277731 -0.047281943 -0.12945102 0.043149482 -0.1122126 -0.039598253
0.012038994 -0.14000341 -0.117235295 0.05236536 0.06969243 0.04499985 0.1306561 0.13010527
-0.17336886 0.108158514 -0.09192307 0.07257616 -0.029598298 -0.03725245 -0.20207293 -0.18157384
-0.16967484 -0.040981766 -0.11603729 0.047588322 0.06541305 -0.02896971 -0.05845027 -0.049495775
0.09224862 0.109221205 -0.15794961 0.021760935 -0.050394095 0.06341911 -0.0035573894 -0.032146364
0.03853762 -0.13763638 -0.09091799 -0.015228286 -0.16598727 0.123714566 -0.10391076 0.000995039
0.10344014 0.03601701 0.017723078 -0.06637255 0.019856969 0.118435405 -0.09892966 0.058565073
0.0022486968 0.053198222 -0.11210477 0.13816886 -0.064843826 -0.14118873 0.011663926 0.12427972
-0.056615215 -0.05390944 0.07184425 -0.03680973 -0.030659003 -0.12291739 0.14733943 0.034298785
0.09049496 -0.03827843 -0.12128958 0.042413063 0.13217096 -0.044316705 0.10898795 0.016895514
-0.021230366 0.12693137 -0.035750657 -0.0512389 -0.12054105 0.07976528 -0.16749078 -0.15168683
-0.04393542 -0.067319445 0.13006881 0.15036426 -0.13941704 -0.10380332 -0.047692608 0.019214563
-0.1745964 -0.14762717 -0.063805334 -0.044430763 0.11210449 0.07461513 -0.0653216 0.1676902
-0.029220711 0.088316016 0.15588115 -0.108510464 0.07712137 0.095873035 -0.018351326 0.037145276
0.12567592 0.11267228 -0.13252586 0.080194354 0.031848725 0.14246157 -0.1364949 0.12074787
00000000: c111 2dbd d509 ae3d 4441 9f3d 7843 aa3d
00000010: a896 d2bd e611 68bd a711 1cbe a0a5 1dbe
00000020: 193a ae3d 3b70 1dbe fd12 2ebd afcd b7bc
00000030: 0bec 60bb 8907 87bd 3b44 78bd 1952 903d
00000040: 7d0b 50bd c511 0c3d fd8c 603d 5284 0ebe
00000050: 3033 163e fcba 223d 75f6 40bd 9c1d 053d
00000060: f756 1ebe e321 c13d aca1 a7bd 7aaf 02be
00000070: b60c dabc 98ec 1abe bdc2 f5bd 1a6d 79bd
00000080: e5e1 debd 3412 033e 3677 0f3c 051e b0bd
00000090: fc1b 92bd 9e85 ac3c d52d 9f3a c36e 6f3c
000000a0: 15b7 65bd 8e62 0e3d 5157 593d 0bcc 183c
000000b0: bcc2 bc3c 5909 86bb 117c e63d b56d f6bd
000000c0: 8b88 7c3b c143 e5bd c2c4 98bd 4394 8cbc
000000d0: 6361 c8bd 2796 c53d 5b2b b8bd 634a 28bd
000000e0: 692c df39 3936 26be dbce d43c f216 003e
000000f0: 1d03 19bd 6ee8 d6bd 387c 74bd c8da 30be
00000100: 8cc6 8f3c f0d4 103e 229b 1a3c 1eae 3d3c
00000110: f7ac 0f3d 13c3 793d 3941 ea3c a9e4 b03d
00000120: 1959 13be e2e8 d5bc 889d 40bc 5864 f9bb
00000130: 91cc dabd 6231 9d3d d3ca ddbc 030c 523c
00000140: e552 9ebd 6ec1 38be a027 cf3d 0ae4 d43d
00000150: 98d1 db3d 012f c1bd 952f 01be 5eec 883c
00000160: 263a 03be ba42 5a3d 816e b5bc 15cf 113e
00000170: d3fc bbbd e790 5dbd 71c9 123e a243 2c3e
00000180: 0496 05be 7644 e3bd f128 23bd 1326 0fbe
00000190: 1f2c 4cbd 14c6 83bd 389d 1c3c e7ab 6e3c
000001a0: 1622 d13d ede3 d63d 2213 8dbd 626e 373d
000001b0: 831f 0a3e 25be 193e 8997 db3d e1df ba3d
000001c0: 5c7e fdbd 2dd9 90bd cc1f 073e cd6d 49be
000001d0: 9d9e b7bc e26c 49bd 52bd 4dbd 01eb e33d
000001e0: f398 fc3d 42d4 61bd afed 9d3c 6e30 6cbd
000001f0: eaa9 843d 7c56 fc3d 356a f2bc 7d30 593e
00000200: de79 c33d 805b 083e 0dc0 9d3b 4db8 ba3d
00000210: af00 993d 038b 55bd 63d7 c1bd 75d1 f6bd
00000220: 264f 2bbe 9332 a2bb caf7 e6bd b6aa 41bd
00000230: cf8e 04be 83bd 303d b8cf e5bd c731 22bd
00000240: 333f 453c 0e5d 0fbe 0f19 f0bd 0f7d 563d
00000250: e8ba 8e3d c351 383d b6ca 053e 513a 053e
00000260: 9b87 31be 3682 dd3d 2a42 bcbd cfa2 943d
00000270: 2178 f2bc 0696 18bd 35ec 4ebe 7eee 39be
00000280: 3ebf 2dbe 7fdc 27bd f5a4 edbd f9eb 423d
00000290: 47f7 853d e351 edbc 8d69 6fbd 15bc 4abd
000002a0: d8ec bc3d 5eaf df3d 8bbd 21be fd43 b23c
000002b0: 0a6a 4ebd e1e1 813d 1723 69bb e8ab 03bd
000002c0: a0d9 1d3d 8df0 0cbe 3633 babd 1080 79bc
000002d0: 91f8 29be 105e fd3d 2acf d4bd f86b 823a
000002e0: 6dd8 d33d 9386 133d fd2f 913c 55ee 87bd
000002f0: 15ab a23c 438e f23d a29b cabd eee1 6f3d
00000300: df5e 133b 61e6 593d 3097 e5bd 237c 0d3e
00000310: d7cc 84bd c793 10be 0d1a 3f3c 5e86 fe3d
00000320: 5be5 67bd 25d0 5cbd 1423 933d cdc5 16bd
00000330: 9728 fbbc 1dbc fbbd 26e0 163e e27c 0c3d
00000340: 6c55 b93d d8c9 1cbd ac66 f8bd 52b9 2d3d
00000350: d357 073e 6f85 35bd 1335 df3d 7668 8a3c
00000360: 4eeb adbc 4cfa 013e 486f 12bd e1df 51bd
00000370: 3ade f6bd fb5b a33d b482 2bbe cb53 1bbe
00000380: a1f5 33bd c7de 89bd c230 053e 17f9 193e
00000390: 57c3 0ebe d696 d4bd 5359 43bd dc67 9d3c
000003a0: 66c9 32be 942b 17be 5fac 82bd 08fd 35bd
000003b0: 0a97 e53d d1cf 983d 55c7 85bd fbb6 2b3e
000003c0: 4660 efbc 07df b43d 4f9f 1f3e bc3a debd
000003d0: cff1 9d3d 1559 c43d 8555 96bc a525 183d
000003e0: 30b1 003e b9c0 e63d dcb4 07be f03c a43d
000003f0: cf73 023d 72e1 113e 52c5 0bbe a94a f73d

h2o.bias f4 [6]
-0.0037063118 0.02504245 0.0036206197 -0.00026965444 0.001982773 0.004725164
00000000: 98e5 72bb d325 cd3c eb47 6d3b 6860 8db9
00000010: 69f1 013b 8cd5 9a3b

h2h.weight f4 [242, 242]
-0.029929243 -0.15465833 -0.033654097 0.072987534 -0.0449237 0.017815238 0.043200217 -0.12895727
-0.07434818 -0.007717641 -0.052680723 0.27697986 -0.03912873 -0.03125197 0.013677419 -0.1273877
0.0931292 -0.0049263835 0.0035481239 -0.056018617 -0.066737905 0.08672266 -0.00019295274 -0.0045032385
0.091877386 -0.0427692 -0.12912695 0.062177915 0.088600986 0.1414208 -0.13777676 0.086216785
-0.032283034 0.084498666 0.035443816 0.020478781 -0.10536994 -0.118743256 0.2276131 0.065230004
-0.029899001 -0.0076624546 -0.14668597 -0.06614725 -0.09732008 0.0105930865 -0.011920598 -0.011363866
0.025870927 0.02824306 0.032668747 -0.057676017 -0.03762841 0.015647192 -0.058443382 0.123177335
0.088985406 0.04016948 -0.02679434 -0.111091286 0.002497198 0.061644457 -0.06949168 0.052064314
-0.073747426 -0.012837615 0.011759726 -0.08266408 0.06560151 0.039401963 0.117933236 0.13714848
-0.058033764 0.09173032 -0.023735933 0.057322796 -0.02772811 -0.08223845 -0.042198192 0.018048057
0.078772925 -0.014462856 0.038518745 -0.0446162 0.1141532 -0.025064621 0.19657484 0.109332375
-0.058618136 0.061870564 0.07568064 -0.052895114 -0.0050497213 -0.15093169 -0.029764984 0.022697605
-0.10411382 -0.012094906 -0.06546246 0.07573951 -0.046756107 -0.11613873 0.03810406 -0.0040671136
0.043864835 -0.06224101 -0.053130183 0.090027176 0.0656839 0.018953735 0.032451153 -0.038633663
-0.0007346537 -0.10656064 -0.09769826 -0.0012502164 0.0138990525 -0.039359756 -0.012652796 0.00660191
-0.023478616 -0.008593751 0.032039255 -0.016909543 0.052880093 -0.08360653 0.042354606 -0.035915546
-0.010533394 0.059241526 -0.03468445 -0.0867518 -0.024135504 -0.08771373 0.0073422296 0.008337106
-0.030782927 -0.016260218 -0.059884854 -0.13425222 -0.005180943 0.03065617 0.02928405 0.0061900383
0.011709371 0.13104987 0.121021934 -0.0027147064 -0.0050269673 0.004930513 0.028359506 -0.036679693
0.03591431 0.05405465 -0.035383232 -0.007475319 0.110170744 0.0006682429 0.033122055 0.003954717
0.114766315 0.038219195 -0.07148109 -0.06069397 0.043367494 0.15920292 -0.06799303 0.03093523
-0.12858334 0.113573566 0.12214525 -0.002026069 0.041938826 -0.030226348 0.052673932 0.010338663
-0.05858289 0.008650303 0.041689344 -0.010352432 0.06779555 -0.102018476 0.0030649242 0.05659044
0.04357639 -0.00014433786 0.103909805 -0.027536992 0.109898664 0.0058059203 0.092593975 -0.023912368
0.14433445 -0.008764401 -0.099474505 -0.006563426 -0.11453507 -0.04830922 0.17873727 0.0462529
-0.03349527 -0.016998215 0.054676007 -0.045723744 -0.055760965 -0.023838682 0.04019499 -0.12932189
-0.11270565 -0.05134519 -0.00035156496 -0.052165333 -0.062104423 0.09278966 0.02217344 -0.014914901
-0.121767074 0.10686252 -0.04402547 0.09991655 -0.1461646 -0.094959356 -0.006861383 -0.029344361
0.05537847 -0.019368675 -0.16448438 0.043575507 0.017316077 0.04508625 -0.0371743 -0.16992746
0.0796619 0.08982465 -0.0064407024 0.026344258 0.06763838 -0.02048305 0.096377485 -0.07090514
-0.05416732 -0.11150992 0.022657879 -0.074461184 -0.05791467 -0.010161129 0.15771039 -0.093352705
-0.048953023 0.11514676 -0.065081656 -0.00073351274 -0.08690004 -0.01043425 0.0808154 0.020245148
00000000: 2c2e f5bc c15e 1ebe e1d8 09bd 7d7a 953d
00000010: ea01 38bd 43f1 913c b6f2 303d 600d 04be
00000020: dc43 98bd 44e4 fcbb bec7 57bd 4ed0 8d3e
00000030: 7245 20bd 1102 00bd 4117 603c ec71 02be
00000040: 86ba be3d 806d a1bb a487 683b c773 65bd
00000050: e2ad 88bd a69b b13d 5b53 4ab9 e78f 93bb
00000060: 362a bc3d c22e 2fbd db39 04be 45ae 7e3d
00000070: 6f74 b53d 9dd0 103e 5a15 0dbe 6d92 b03d
00000080: 373b 04bd a30d ad3d 892d 113d 1ec3 a73c
00000090: 32cc d7bd aa2f f3bd 6913 693e 4f97 853d
000000a0: c0ee f4bc 5415 fbbb d934 16be 3678 87bd
000000b0: c04f c7bd a08e 2d3c 9d4e 43bc 822f 3abc
000000c0: 44ef d33c fd5d e73c aacf 053d b03d 6cbd
000000d0: 3f20 1abd 8a2e 803c 5462 6fbd 6644 fc3d
000000e0: fb3d b63d c188 243d ce7f dbbc d483 e3bd
000000f0: 08a8 233b e67e 7c3d a751 8ebd 6441 553d
00000100: e408 97bd dc54 52bc deab 403c c94b a9bd
00000110: 165a 863d f463 213d fb86 f13d a770 0c3e
00000120: d0b4 6dbd 1bdd bb3d dc71 c2bc 4fcb 6a3d
00000130: 1026 e3bc a26c a8bd 03d8 2cbd 85d9 933c
00000140: b353 a13d 9df5 6cbc d5c5 1d3d 7abf 36bd
00000150: 27c9 e93d 5254 cdbc ea4a 493e a7e9 df3d
00000160: 9219 70bd fd6b 7d3d 74fe 9a3d 8ca8 58bd
00000170: 2278 a5bb d68d 1abe b2d5 f3bc 54f0 b93c
00000180: a039 d5bd b629 46bc 2f11 86bd 511d 9b3d
00000190: 5583 3fbd 24da edbd 0113 1c3d 6c45 85bb
000001a0: 9dab 333d 6ef0 7ebd 099f 59bd 2b60 b83d
000001b0: 4885 863d dd44 9b3c 80eb 043d 553e 1ebd
000001c0: c695 40ba 773c dabd 0616 c8bd 4dde a3ba
000001d0: dab8 633c b237 21bd ac4d 4fbc d654 d83b
000001e0: 3a56 c0bc cecc 0cbc 983b 033d e285 8abc
000001f0: cc98 583d e739 abbd 067c 2d3d 2e1c 13bd
00000200: 4294 2cbc 3ea7 723d 4811 0ebd edaa b1bd
00000210: d2b7 c5bc 42a3 b3bd 1697 f03b 5b98 083c
00000220: 7a2c fcbc 2634 85bc d249 75bd 6a79 09be
00000230: e6c4 a9bb a622 fb3c 1be5 ef3c ced5 ca3b
00000240: a9d8 3f3c f031 063e 59da f73d 37e9 31bb
00000250: 42b9 a4bb 2490 a13b 3252 e83c 723d 16bd
00000260: e21a 133d 6968 5d3d 02ee 10bd 85f3 f4bb
00000270: 33a1 e13d 062d 2f3a feaa 073d 9296 813b
00000280: 9a0a eb3d bb8b 1c3d ad64 92bd 3e9a 78bd
00000290: 1da2 313d 1706 233e ee3f 8bbd e16b fd3c
000002a0: 5aab 03be 4299 e83d 4a27 fa3d ccc7 04bb
000002b0: 0cc8 2b3d 3f9d f7bc 9fc0 573d 7f63 293c
000002c0: 9df4 6fbd 00ba 0d3c 72c2 2a3d 3f9d 29bc
000002d0: 65d8 8a3d 10ef d0bd e5dc 483b 61cb 673d
000002e0: 287d 323d 6659 17b9 aace d43d 4295 e1bc
000002f0: 8d12 e13d 973f be3b e9a1 bd3d dfe3 c3bc
00000300: 69cc 133e 9098 0fbc 4ab9 cbbd 0212 d7bb
00000310: 5d91 eabd e3df 45bd e706 373e ae73 3d3d
00000320: 5632 09bd d73f 8bbc f3f3 5f3d d248 3bbd
00000330: 9c65 64bd 5749 c3bc 80a3 243d f56c 04be
00000340: 38d2 e6bd 554f 52bd 4052 b8b9 51ab 55bd
00000350: 3561 7ebd 8108 be3d 13a5 b53c a15d 74bc
00000360: 0461 f9bd bdda da3d 0d54 34bd 0ca1 cc3d
00000370: 2cac 15be 0d7a c2bd 74d5 e0bb 9663 f0bc
00000380: 89d4 623d 0eab 9ebc 986e 28be 3b7c 323d
00000390: 72da 8d3c 5cac 383d 1444 18bd 7701 2ebe
000003a0: c725 a33d fcf5 b73d 870c d3bb eacf d73c
000003b0: fe85 8a3d 12cc a7bc 8f61 c53d b736 91bd
000003c0: 8dde 5dbd 505f e4bd 049d b93c 1b7f 98bd
000003d0: ef37 6dbd dd7a 26bc d57e 213e b42f bfbd
000003e0: f782 48bd 11d2 eb3d 8849 85bd 3549 40ba
000003f0: a6f8 b1bd 6bf4 2abc 8b82 a53d 27d9 a53c

h2h.bias f4 [242]
0.005789809 0.0016570658 0.005012761 -0.0055006198 0.039666463 -0.020331291 0.028198404 0.020098303
-0.008103895 0.0078510055 0.019404104 0.053258736 -0.012763777 0.0026602973 -0.005928159 0.05163124
0.019152705 0.0013191705 0.0025278954 0.0014630985 -0.00079523347 0.011926042 0.084277876 -0.005140698
0.004653971 0.0558434 0.0024486054 0.002361233 0.008978786 0.041932587 -0.0038168961 0.016363764
-0.005284614 -0.0008018642 5.2908657e-05 0.004655611 0.0019765475 0.0061184433 0.033420827 0.01068285
-0.005165833 0.017047748 0.018900402 -0.016326407 -0.0013079536 0.0008008201 -0.0075192666 0.004504249
0.030514609 -0.0063970154 -0.006205293 -0.0024549328 0.0047228285 -0.0013827386 0.011224174 0.004139342
-0.010536961 0.0027022245 0.0036584416 0.022556862 0.0012794152 -0.010486468 0.0009192452 0.010476286
0.019472454 -0.010804829 -0.013021698 0.003447712 0.046001665 0.02136008 -0.010264005 0.0009894624
0.03136501 -0.004133994 0.00024370875 -0.0013323724 -0.009267667 -0.0065466384 0.0055313567 -0.01001308
0.0038891472 0.02071714 -0.00062782416 -0.01383192 -0.012188202 -0.0028829265 0.017256573 -0.00026337677
-0.0051365453 0.004887988 -0.0023624327 0.039360423 0.0015241505 0.0032081474 -0.015523512 0.00079042086
-0.015967375 0.021221349 -0.007532232 -0.039305232 0.0063992552 0.0024533088 0.023203177 0.0003478798
-0.010617437 -0.001516491 0.037987497 0.0045517185 0.015709504 -0.0082933195 0.005232764 -0.0028009089
-0.007884376 0.008604874 0.0069884895 0.009369877 -8.701252e-05 0.0061794003 -0.0038232827 -0.003382163
-0.0046661464 -0.006215481 -0.0042492864 0.0074057295 -0.008793729 -0.0012015313 0.023789514 0.028156115
-0.004248542 0.0029606207 0.011380772 0.00010794774 -0.0018241655 0.0018205422 -0.0019569488 -0.0004953391
0.014498828 0.007402537 0.011170493 0.019804936 0.0042061415 -0.003924206 0.014595416 -0.007936776
0.0057057096 0.002018042 -0.00034996957 -1.4920262e-05 0.00037154972 0.011023521 -0.005710493 -0.0015265695
0.08437194 -0.018874176 0.020964826 0.0004313894 -0.00086471974 -0.005218209 0.027034508 0.00021675276
0.009239663 0.019057667 0.0028443725 -0.0090852175 0.003530319 -0.0071750106 0.048223935 0.04753225
-0.010090079 0.016199352 -0.009499066 0.0017454927 -0.0034026003 0.030949349 0.001694231 0.0043399516
-0.0039325953 0.019217657 -0.0013838462 -0.009197156 0.045671206 0.0075310506 0.008599276 0.032055985
-0.0056464085 0.0035205067 0.0094230175 -0.0014065917 0.005521465 -0.011528474 -0.03406349 -0.0025480543
-0.003007884 -0.005105176 -0.0016499992 0.0023532833 -0.012268957 -0.001641265 0.020037454 -0.0027728046
-0.017600456 -0.0023300743 0.00092790206 -0.009263866 0.0028173532 0.02601753 -0.009320704 -0.0014231029
0.009210044 0.0025061953 0.03578224 -0.004263713 -0.011889254 -0.0054010577 -0.0011072294 -0.0060164733
-0.023806132 0.004442054 -0.037183244 -0.011037553 0.057012085 -0.0061965063 0.03044722 0.002036999
0.003338633 -0.0047856467 0.039413862 -0.0061345594 0.013109812 -0.014151146 -0.0232177 0.070442006
0.0022422734 0.029754559 0.012678946 0.025196185 -0.00092187774 0.0057996195 -0.0023674686 0.028744796
-0.009785503 0.008079162
00000000: 70b8 bd3b e731 d93a 1642 a43b 8b3e b4bb
00000010: 4d79 223d cf8d a6bc 5700 e73c 32a5 a43c
00000020: 33c6 04bc 81a1 003c 5bf5 9e3c d525 5a3d
00000030: 291f 51bc 6258 2e3b 0141 c2bb 477b 533d
00000040: 22e6 9c3c 04e8 ac3a 0cab 253b 70c5 bf3a
00000050: 3777 50ba 7265 433c e199 ac3d 4d73 a8bb
00000060: 5780 983b 0dbc 643d c878 203b ebbe 1a3b
00000070: c21b 133c 81c1 2b3d e424 7abb 4d0d 863c
00000080: 8e2a adbb 3234 52ba 3dea 5d38 188e 983b
00000090: f788 013b 397d c83b 47e4 083d 1f07 2f3c
000000a0: 2646 a9bb b8a7 8b3c 04d5 9a3c f5be 85bc
000000b0: a46f abba 21ee 513a 2e64 f6bb 6198 933b
000000c0: c6f9 f93c 0e9e d1bb c555 cbbb f0e2 20bb
000000d0: f5c1 9a3b 023d b5ba 99e5 373c 51a3 873b
000000e0: 38a3 2cbc ce17 313b 77c2 6f3b 2bc9 b83c
000000f0: 0db2 a73a 6fcf 2bbc 80f9 703a baa4 2b3c
00000100: b284 9f3c bd06 31bc f658 55bc 02f3 613b
00000110: 3e6c 3c3d 56fb ae3c 5b2a 28bc d9b0 813a
00000120: 9978 003d 7576 87bb 128c 7f39 00a3 aeba
00000130: 6ad7 17bc 2f85 d6bb 6240 b53b e70d 24bc
00000140: 10e1 7e3b feb6 a93c 9194 24ba 479f 62bc
00000150: 06b1 47bc 7bef 3cbb a85d 8d3c d515 8ab9
00000160: 7750 a8bb 6a2b a03b 0bd3 1abb 6538 213d
00000170: 01c6 c73a c83f 523b 5456 7ebc 3f34 4f3a
00000180: 03ce 82bc 65d8 ad3c f1d0 f6bb 86fe 20bd
00000190: d8b0 d13b b1c7 203b 9714 be3c a363 b639
000001a0: c2f4 2dbc fec4 c6ba c798 1b3d 9526 953b
000001b0: 38b1 803c b4e0 07bc 9b77 ab3b 748f 37bb
000001c0: 782d 01bc 75fb 0c3c b3ff e43b 1d84 193c
000001d0: 7e7a b6b8 917c ca3b 0a90 7abb 47a7 5dbb
000001e0: 79e6 98bb 3cab cbbb 993d 8bbb c3ab f23b
000001f0: 9313 10bc b37c 9dba 3ae2 c23c a7a7 e63c
00000200: 5a37 8bbb f906 423b 6b76 3a3c 0062 e238
00000210: d618 efba 429f ee3a 2740 00bb a5d9 01ba
00000220: 7e8c 6d3c fb90 f23b 7204 373c f63d a23c
00000230: acd3 893b a096 80bb 9d21 6f3c 4009 02bc
00000240: f6f6 ba3b 2041 043b 1f7c b7b9 0a52 7ab7
00000250: 8fcc c239 009c 343c 161f bbbb 2c17 c8ba
00000260: 32cb ac3d 049e 9abc 6dbe ab3c 1b2c e239
00000270: 5cae 62ba 82fd aabb 7977 dd3c 2048 6339
00000280: f561 173c d31e 9c3c a768 3a3b 2ada 14bc
00000290: ed5c 673b 5a1c ebbb 7686 453d 2db1 423d
000002a0: dc50 25bc 81b4 843c f8a1 1bbc 04c9 e43a
000002b0: 29fe 5ebb 7d89 fd3c f510 de3a 2736 8e3b
000002c0: 00dd 80bb 596e 9d3c 2c62 b5ba abaf 16bc
000002d0: bb11 3b3d 08c7 f63b fae3 0c3c 234d 033d
000002e0: 8205 b9bb 4db8 663b 0063 1a3c 635d b8ba
000002f0: 68ed b43b ede1 3cbc 2886 0bbd 42fd 26bb
00000300: eb1f 45bb 5249 a7bb c944 d8ba 8b39 1a3b
00000310: bc03 49bc b71f d7ba 9625 a43c f1b7 35bb
00000320: d52e 90bc 29b4 18bb 743e 733a 78c7 17bc
00000330: 58a3 383b b722 d53c deb5 18bc 6987 baba
00000340: b9e5 163c fb3e 243b 6690 123d 9eb6 8bbb
00000350: 25cb 42bc 5bfb b0bb 7420 91ba d625 c5bb
00000360: 1405 c3bc a68e 913b 754d 18bd dad6 34bc
00000370: 8185 693d 100c cbbb 736c f93c 2c7f 053b
00000380: f8cc 5a3b ead0 9cbb 6e70 213d 6a04 c9bb
00000390: 89ca 563c 35da 67bc 0c33 bebc e643 903d
000003a0: 1bf3 123b d5bf f33c 5bbb 4f3c 3b68 ce3c
000003b0: 2baa 71ba bc0a be3b 8827 1bbb 357a eb3c
000003c0: 6053 20bc 765e 043c
