VLSI23/plots/chip_spikeclassifier/TrainedALL_epochs-150-input_size-2-16-12-hidden_size-256-batch_size-32-lr-0.001-tmax_ms-400.0-Ts-100.0-kfolds-6-datasetPath-N_3b_allchannels_ALLCLASS_auto_nospkfilter_cleaned_12x16_vibration/chip-classifier-5-best.pt (torch, 667511 bytes, 8 tensors)

thr_h_1 f4 [256]
1.0 1.0 1.0 1.0 1.0 1.0 1.0 1.0
1.0 1.0 1.0 1.0 1.0 1.0 1.0 1.0
1.0 1.0 1.0 1.0 1.0 1.0 1.0 1.0
1.0 1.0 1.0 1.0 1.0 1.0 1.0 1.0
1.0 1.0 1.0 1.0 1.0 1.0 1.0 1.0
1.0 1.0 1.0 1.0 1.0 1.0 1.0 1.0
1.0 1.0 1.0 1.0 1.0 1.0 1.0 1.0
1.0 1.0 1.0 1.0 1.0 1.0 1.0 1.0
1.0 1.0 1.0 1.0 1.0 1.0 1.0 1.0
1.0 1.0 1.0 1.0 1.0 1.0 1.0 1.0
1.0 1.0 1.0 1.0 1.0 1.0 1.0 1.0
1.0 1.0 1.0 1.0 1.0 1.0 1.0 1.0
1.0 1.0 1.0 1.0 1.0 1.0 1.0 1.0
1.0 1.0 1.0 1.0 1.0 1.0 1.0 1.0
1.0 1.0 1.0 1.0 1.0 1.0 1.0 1.0
1.0 1.0 1.0 1.0 1.0 1.0 1.0 1.0
1.0 1.0 1.0 1.0 1.0 1.0 1.0 1.0
1.0 1.0 1.0 1.0 1.0 1.0 1.0 1.0
1.0 1.0 1.0 1.0 1.0 1.0 1.0 1.0
1.0 1.0 1.0 1.0 1.0 1.0 1.0 1.0
1.0 1.0 1.0 1.0 1.0 1.0 1.0 1.0
1.0 1.0 1.0 1.0 1.0 1.0 1.0 1.0
1.0 1.0 1.0 1.0 1.0 1.0 1.0 1.0
1.0 1.0 1.0 1.0 1.0 1.0 1.0 1.0
1.0 1.0 1.0 1.0 1.0 1.0 1.0 1.0
1.0 1.0 1.0 1.0 1.0 1.0 1.0 1.0
1.0 1.0 1.0 1.0 1.0 1.0 1.0 1.0
1.0 1.0 1.0 1.0 1.0 1.0 1.0 1.0
1.0 1.0 1.0 1.0 1.0 1.0 1.0 1.0
1.0 1.0 1.0 1.0 1.0 1.0 1.0 1.0
1.0 1.0 1.0 1.0 1.0 1.0 1.0 1.0
1.0 1.0 1.0 1.0 1.0 1.0 1.0 1.0
00000000: 0000 803f 0000 803f 0000 803f 0000 803f
00000010: 0000 803f 0000 803f 0000 803f 0000 803f
00000020: 0000 803f 0000 803f 0000 803f 0000 803f
00000030: 0000 803f 0000 803f 0000 803f 0000 803f
00000040: 0000 803f 0000 803f 0000 803f 0000 803f
00000050: 0000 803f 0000 803f 0000 803f 0000 803f
00000060: 0000 803f 0000 803f 0000 803f 0000 803f
00000070: 0000 803f 0000 803f 0000 803f 0000 803f
00000080: 0000 803f 0000 803f 0000 803f 0000 803f
00000090: 0000 803f 0000 803f 0000 803f 0000 803f
000000a0: 0000 803f 0000 803f 0000 803f 0000 803f
000000b0: 0000 803f 0000 803f 0000 803f 0000 803f
000000c0: 0000 803f 0000 803f 0000 803f 0000 803f
000000d0: 0000 803f 0000 803f 0000 803f 0000 803f
000000e0: 0000 803f 0000 803f 0000 803f 0000 803f
000000f0: 0000 803f 0000 803f 0000 803f 0000 803f
00000100: 0000 803f 0000 803f 0000 803f 0000 803f
00000110: 0000 803f 0000 803f 0000 803f 0000 803f
00000120: 0000 803f 0000 803f 0000 803f 0000 803f
00000130: 0000 803f 0000 803f 0000 803f 0000 803f
00000140: 0000 803f 0000 803f 0000 803f 0000 803f
00000150: 0000 803f 0000 803f 0000 803f 0000 803f
00000160: 0000 803f 0000 803f 0000 803f 0000 803f
00000170: 0000 803f 0000 803f 0000 803f 0000 803f
00000180: 0000 803f 0000 803f 0000 803f 0000 803f
00000190: 0000 803f 0000 803f 0000 803f 0000 803f
000001a0: 0000 803f 0000 803f 0000 803f 0000 803f
000001b0: 0000 803f 0000 803f 0000 803f 0000 803f
000001c0: 0000 803f 0000 803f 0000 803f 0000 803f
000001d0: 0000 803f 0000 803f 0000 803f 0000 803f
000001e0: 0000 803f 0000 803f 0000 803f 0000 803f
000001f0: 0000 803f 0000 803f 0000 803f 0000 803f
00000200: 0000 803f 0000 803f 0000 803f 0000 803f
00000210: 0000 803f 0000 803f 0000 803f 0000 803f
00000220: 0000 803f 0000 803f 0000 803f 0000 803f
00000230: 0000 803f 0000 803f 0000 803f 0000 803f
00000240: 0000 803f 0000 803f 0000 803f 0000 803f
00000250: 0000 803f 0000 803f 0000 803f 0000 803f
00000260: 0000 803f 0000 803f 0000 803f 0000 803f
00000270: 0000 803f 0000 803f 0000 803f 0000 803f
00000280: 0000 803f 0000 803f 0000 803f 0000 803f
00000290: 0000 803f 0000 803f 0000 803f 0000 803f
000002a0: 0000 803f 0000 803f 0000 803f 0000 803f
000002b0: 0000 803f 0000 803f 0000 803f 0000 803f
000002c0: 0000 803f 0000 803f 0000 803f 0000 803f
000002d0: 0000 803f 0000 803f 0000 803f 0000 803f
000002e0: 0000 803f 0000 803f 0000 803f 0000 803f
000002f0: 0000 803f 0000 803f 0000 803f 0000 803f
00000300: 0000 803f 0000 803f 0000 803f 0000 803f
00000310: 0000 803f 0000 803f 0000 803f 0000 803f
00000320: 0000 803f 0000 803f 0000 803f 0000 803f
00000330: 0000 803f 0000 803f 0000 803f 0000 803f
00000340: 0000 803f 0000 803f 0000 803f 0000 803f
00000350: 0000 803f 0000 803f 0000 803f 0000 803f
00000360: 0000 803f 0000 803f 0000 803f 0000 803f
00000370: 0000 803f 0000 803f 0000 803f 0000 803f
00000380: 0000 803f 0000 803f 0000 803f 0000 803f
00000390: 0000 803f 0000 803f 0000 803f 0000 803f
000003a0: 0000 803f 0000 803f 0000 803f 0000 803f
000003b0: 0000 803f 0000 803f 0000 803f 0000 803f
000003c0: 0000 803f 0000 803f 0000 803f 0000 803f
000003d0: 0000 803f 0000 803f 0000 803f 0000 803f
000003e0: 0000 803f 0000 803f 0000 803f 0000 803f
000003f0: 0000 803f 0000 803f 0000 803f 0000 803f

thr_o f4 [6]
1.0 1.0 1.0 1.0 1.0 1.0
00000000: 0000 803f 0000 803f 0000 803f 0000 803f
00000010: 0000 803f 0000 803f

i2h.weight f4 [256, 384]
-0.072114594 0.026963783 0.0068351547 0.03400909 0.008734413 0.050631817 0.06581917 0.098665
0.107713014 0.04182813 0.03124995 0.058308344 0.038447157 -0.025026347 0.018688006 0.10310171
0.061149087 -0.068393975 0.020741127 0.0010624648 -0.045003712 0.09788208 -0.010529059 0.0926606
-0.017173065 -0.044944994 -0.013682504 0.0464141 0.0370476 0.09402708 0.0064458186 0.0011537169
0.04352749 -0.04896868 0.10388818 0.07088143 -0.0932761 -0.015789429 -0.06687188 -0.050598036
-0.02723664 -0.07554846 0.053359378 -0.055216193 -0.07323555 0.060681563 -0.039297406 0.113500744
0.041094802 0.11883763 0.07047305 -0.03137651 0.024708174 0.037948105 0.060220674 -0.058245096
0.092749715 -0.08288089 -0.054002043 -0.053679675 0.03034546 0.078076266 0.0793116 0.08734148
-0.023882177 -0.026222808 -0.07325985 0.052159823 -0.051810555 0.082750455 0.06309813 0.0157547
0.035789143 0.045006994 -0.026248118 0.0022554705 -0.09265215 -0.05322447 0.07066504 -0.014414289
0.069331475 0.06864683 0.0034670369 0.06281007 0.02392517 -0.062814005 0.08212192 0.09062823
0.030753879 -0.007152491 0.019154726 0.01594108 0.013017899 0.022830646 0.011009059 -0.010615779
-0.06682089 -0.022256358 0.048798457 0.08229351 -0.032249633 -0.034763794 0.052439928 -0.054364048
-0.09207913 0.06426749 -0.08396131 0.04175037 -0.06067272 -0.07989127 0.069185294 0.07520266
0.08906156 0.102074265 0.015527972 0.083126575 -0.038370892 -0.022930505 -0.07856411 -0.03407157
-0.06283704 -0.095476486 -0.07911794 0.07046348 -0.07354603 0.03619718 0.0028164051 0.06525824
-0.00967129 -0.00615289 0.029284948 0.07297393 -0.04393402 -0.0280913 0.07386152 -0.0018356786
-0.010693493 -0.019044906 0.05151462 -0.016364872 -0.094771765 -0.09602917 -0.0043682023 -0.0027298762
-0.027001914 -0.010967958 -0.016617358 0.104376905 -0.01417626 0.038177446 -0.029500222 -0.078977324
0.064455226 -0.008284909 0.022051355 -0.016201584 -0.033986032 0.014248505 0.0065702475 -0.018783195
0.025708633 0.04616572 -0.0071641454 -0.04376905 -0.0035089415 -0.0685705 0.04141894 0.0033768797
0.0515038 0.025484992 -0.0574264 -0.020154895 -0.027047595 -0.042354375 0.012840876 0.08062786
-0.002649223 0.08757215 -0.07100389 -0.038910553 -0.07068625 0.00444734 0.025597215 -0.033561964
0.115895964 0.062007457 -0.09381415 -0.10253121 0.03552332 -0.0028716312 -0.09532103 0.07699198
-0.08428991 0.027498458 -0.05091593 -0.06254182 0.014747762 -0.05621048 0.045841318 0.0077235447
0.06935316 -0.077617064 0.10500413 0.004351812 -0.07966061 -0.0573913 0.000290681 0.07163779
0.09194572 -0.041380286 0.035132457 -0.034894865 0.05788986 -0.049268696 0.10858619 -0.029662348
0.06626683 0.12002795 0.066891395 0.003975306 -0.04302133 0.049557388 0.048045054 0.08737858
0.09499805 -0.07322653 -0.08219102 0.079015695 -0.067221224 -0.0691231 -0.048512116 -0.07115731
0.06934435 0.0049325805 -0.006589422 0.015663277 -0.052033644 -0.061748777 0.018635225 0.065777525
0.047133688 0.072839566 -0.029729307 -0.019003088 0.023691077 0.025024792 0.013279182 -0.058650874
-0.029559277 0.015299043 -0.018985212 0.09846739 -0.05431742 0.0074636103 -0.074041724 0.03269879
00000000: d1b0 93bd 27e3 dc3c 6ff9 df3b 1e4d 0b3d
00000010: c91a 0f3c 4f63 4f3d 33cc 863d e010 ca3d
00000020: a498 dc3d f953 2b3d e5ff ff3c bbd4 6e3d
00000030: c47a 1d3d 0e04 cdbc 9717 993c fd26 d33d
00000040: 7777 7a3d 2412 8cbd 4ce9 a93c 6742 8b3a
00000050: d055 38bd 6676 c83d 1382 2cbc d7c4 bd3d
00000060: 87ae 8cbc 3e18 38bd 952c 60bc b61c 3e3d
00000070: 39bf 173d 4591 c03d 7237 d33b 5138 973a
00000080: e249 323d 6293 48bd 53c3 d43d 482a 913d
00000090: 8a07 bfbd d558 81bc 20f4 88bd e33f 4fbd
000000a0: 601f dfbc 27b9 9abd 5d8f 5a3d 602a 62bd
000000b0: 85fc 95bd 3b8d 783d 51f6 20bd 1473 e83d
000000c0: 0653 283d 2561 f33d 2d54 903d a884 00bd
000000d0: cc68 ca3c 796f 1b3d f4a9 763d 6992 6ebd
000000e0: 90f3 bd3d 75bd a9bd 3f31 5dbd 38df 5bbd
000000f0: 0b97 f83c 73e6 9f3d 1f6e a23d 17e0 b23d
00000100: 8ea4 c3bc 37d1 d6bc 4309 96bd 8aa5 553d
00000110: 4e37 54bd 1279 a93d 9839 813d 0010 813c
00000120: a397 123d 4159 383d 4b06 d7bc 84d0 133b
00000130: 69c0 bdbd e701 5abd d5b8 903d e929 6cbc
00000140: a9fd 8d3d b696 8c3d 3a37 633b 91a2 803d
00000150: b8fe c33c a1a4 80bd 8a2f a83d 4b9b b93d
00000160: 8fef fb3c 715f eabb 5fea 9c3c de96 823c
00000170: 0749 553c 5607 bb3c 575f 343c ceed 2dbc
00000180: 64d9 88bd f752 b6bc e4e0 473d 8089 a83d
00000190: 3118 04bd 7b64 0ebd 40cb 563d d6ac 5ebd
000001a0: fc93 bcbd ac9e 833d e8f3 abbd 7002 2b3d
000001b0: f583 78bd 099e a3bd 05b1 8d3d da03 9a3d
000001c0: e865 b63d 500c d13d 0969 7e3c 443e aa3d
000001d0: cc2a 1dbd c1d8 bbbc 38e6 a0bd a18e 0bbd
000001e0: b5b0 80bd 2d89 c3bd 9608 a2bd 284f 903d
000001f0: 4d9f 96bd 7f43 143d 7093 383b 1da6 853d
00000200: 5574 1ebc 2f9e c9bb fde6 ef3c 5b73 953d
00000210: 29f4 33bd ba1f e6bc b544 973d 279b f0ba
00000220: c333 2fbc 1004 9cbc ff00 533d a00f 86bc
00000230: b317 c2bd f1aa c4bd 2323 8fbb b9e7 32bb
00000240: 1e33 ddbc f3b2 33bc 2021 88bc 8fc3 d53d
00000250: 8b43 68bc f45f 1c3d 73aa f1bc ddbe a1bd
00000260: 1a01 843d 6dbd 07bc 0ba5 b43c 2fb9 84bc
00000270: f034 0bbd 9072 693c 3b4b d73b 37df 99bc
00000280: e99a d23c 4418 3d3d 35c1 eabb 2d47 33bd
00000290: 45f6 65bb b16e 8cbd e8a6 293d a44e 5d3b
000002a0: a6f5 523d e7c5 d03c f237 6bbd e11b a5bc
000002b0: eb92 ddbc c87b 2dbd 8a62 523c 3820 a53d
000002c0: 969e 2dbb 0759 b33d 7d6a 91bd ac60 1fbd
000002d0: f4c3 90bd feba 913b 40b1 d13c 4578 09bd
000002e0: dd5a ed3d 88fb 7d3d a221 c0bd e2fb d1bd
000002f0: e780 113d fa31 3cbb ac37 c3bd f9ad 9d3d
00000300: 30a0 acbd 7244 e13c 398d 50bd ed15 80bd
00000310: 99a0 713c f63c 66bd 1bc4 3b3d ca15 fd3b
00000320: 0809 8e3d b2f5 9ebd 680c d73d a599 8e3b
00000330: 1a25 a3bd 2413 6bbd 8b66 9839 d5b6 923d
00000340: 0a4e bc3d 607e 29bd 0de7 0f3d ebed 0ebd
00000350: eb1d 6d3d f9cd 49bd 7062 de3d 74fe f2bc
00000360: e7b6 873d 37d1 f53d 5bfe 883d 4943 823b
00000370: 2237 30bd b0fc 4a3d e4ca 443d 8af3 b23d
00000380: 568e c23d caf7 95bd c453 a8bd fbd2 a13d
00000390: 48ab 89bd 6990 8dbd a4b4 46bd ecba 91bd
000003a0: 6904 8e3d 7ca1 a13b 14ec d7bb 4650 803c
000003b0: 3b21 55bd 49ec 7cbd e6a8 983c 5eb6 863d
000003c0: 410f 413d e92c 953d e08a f3bc 5dac 9bbc
000003d0: ca13 c23c cb00 cd3c ed90 593c e63b 70bd
000003e0: 4c26 f2bc d6a8 7a3c e086 9bbc 45a9 c93d
000003f0: f17b 5ebd 4d91 f43b 30a3 97bd 2bef 053d

i2h.bias f4 [256]
0.00038661354 0.03599985 -0.0557839 0.03599749 -0.013598247 -0.0547655 -0.0031870955 0.083999865
0.040898036 0.02937699 -0.037037905 -0.009263939 -0.0054578637 -0.010909667 -0.020767156 -0.043688763
0.010042166 -0.0011887355 -0.046772793 -0.02904744 0.1078136 0.008671632 0.0020736023 0.025057081
0.0076773986 0.017025832 0.016176423 0.052153 -0.041145083 -0.06291941 -0.027870424 -0.009466483
-0.018526651 0.015709834 0.09202149 0.03933592 -0.017573021 0.009130517 0.033169888 0.060912315
-0.035924412 0.006263499 0.077073544 0.004664016 0.014514766 0.058492914 0.00026256632 0.04555449
0.019509206 -0.010473549 -0.02398568 0.043797027 -0.02358241 0.044374187 0.046332277 -0.005570833
-0.04111899 0.16240598 -0.012587134 0.025687868 0.069850415 -0.01869821 0.04075811 0.05688259
-0.027188072 -0.016561365 0.012006805 -0.01718616 0.036040254 -0.0479926 0.01756558 -0.0009200637
0.043705292 0.1796158 -0.009572055 -0.027621213 -0.023665233 -0.039169986 -0.018961592 0.022800872
-0.03425515 -0.01765159 -0.02379753 -0.025023652 -0.022634612 -0.014971212 0.05084813 -0.04749711
-0.0010234003 0.0019210512 -0.025400782 0.0056885164 0.005181987 0.14731827 0.02261201 -0.021661738
0.01012301 0.0076917997 -0.011415386 -0.025439747 -0.07390037 0.05423367 -0.0051422175 0.019020235
0.010294578 -0.00314498 -0.007925844 0.07240504 0.036198508 0.07883891 -0.018294483 0.03676698
-0.0028737786 0.020943027 0.03867465 0.0067676404 0.05145933 0.0430041 0.052265044 -0.0611988
0.054260176 -0.003031511 0.041045714 0.029885285 -0.007530422 -0.025875226 0.023666056 0.007193966
0.10832567 -0.037233356 0.044099424 0.032289963 -0.02077546 0.115987085 -0.104386605 0.018646637
0.04795967 0.09596987 -0.017052978 -0.0036746522 -0.023221869 0.08055809 -0.04735919 -0.07114559
-0.03902628 0.025937054 0.07809838 0.0064674015 0.060303908 0.073263936 -0.05593454 0.037882254
0.08227106 0.018065099 -0.067075856 -0.013046676 0.022000998 0.067436054 -0.037013512 0.017289227
0.0327743 -0.032514922 0.035978097 -0.0006406963 0.36516938 0.038301237 -0.043574173 0.0608725
0.11518657 0.028458765 0.06306496 0.008985474 0.012751821 0.110182 0.026216429 -0.013953965
-0.035977524 0.03686605 0.08124705 0.007902733 -0.03475253 0.015296094 -0.017917821 -0.033878252
-0.07281385 -0.008624163 0.047887363 0.03593922 0.007469876 -0.057352033 0.048450943 -0.022282027
-0.027827056 0.054053087 0.0028529507 -0.024204753 -0.00594365 0.22820489 0.046694614 0.0701106
-0.06339667 0.03867121 -0.010196334 0.041263964 0.017054928 -0.008281813 -0.027010519 -0.01417772
-0.023786439 -0.0067499895 -0.02236881 -0.031522542 0.08675368 -0.05961113 0.014851628 0.015930275
0.02593042 -0.031432543 -0.016929153 -0.024943069 0.01648847 0.23886149 0.019250717 0.023905976
-0.041050375 0.01887232 -0.009940535 0.038587283 0.030780587 0.07186166 0.00764884 0.0006337592
0.034186304 0.09317332 0.07885433 0.06143004 -0.0676931 -0.017135108 0.04484688 -0.019390775
-0.022791019 0.08658899 0.057363212 0.09743061 0.06336704 0.03253413 0.22364031 0.02894415
0.030627618 0.006817891 -0.0005200452 0.04095339 -0.041592132 0.0105212005 -0.034237668 0.029258085
00000000: 64b2 ca39 9474 133d a97d 64bd 1b72 133d
00000010: 2fcb 5ebc ca51 60bd 97de 50bb 1f08 ac3d
00000020: b384 273d 03a8 f03c 0fb5 17bd c7c7 17bc
00000030: e1d7 b2bb 76be 32bc e21f aabc fdf2 32bd
00000040: e687 243c 58cf 9bba d494 3fbd e6f4 edbc
00000050: 60cd dc3d 7613 0e3c 46e5 073b 8244 cd3c
00000060: b092 fb3b c279 8b3c 6b84 843c 629e 553d
00000070: bf87 28bd e4db 80bd 8450 e4bc 4f19 1bbc
00000080: 34c5 97bc e9b1 803c c375 bc3d b41e 213d
00000090: 4cf5 8fbc 2a98 153c 26dd 073d 317f 793d
000000a0: 7a25 13bd 0a3e cd3b bcd8 9d3d 9ad4 983b
000000b0: 57cf 6d3c 4496 6f3d 0ea9 8939 5897 3a3d
000000c0: c5d1 9f3c 4099 2bbc 9e7d c4bc 8364 333d
000000d0: e62f c1bc b5c1 353d eac6 3d3d 898b b6bb
000000e0: 636c 28bd c14d 263e 443a 4ebc 5d6f d23c
000000f0: bc0d 8f3d fd2c 99bc faf1 263d b8fd 683d
00000100: 85b9 debc b3ab 87bc 31b8 443c fdc9 8cbc
00000110: f29e 133d e393 44bd b1e5 8f3c 6e30 71ba
00000120: 5204 333d 34ed 373e 1cd4 1cbc e245 e2bc
00000130: 97dd c1bc b570 20bd 5755 9bbc e5c8 ba3c
00000140: 214f 0cbd 119a 90bc 0af3 c2bc 67fe ccbc
00000150: 396c b9bc d049 75bc 2146 503d 548c 42bd
00000160: 9e23 86ba c8cb fb3a 4d15 d0bc bc66 ba3b
00000170: a8cd a93b 9ada 163e d23c b93c f573 b1bc
00000180: fbda 253c 7e0b fc3b 9907 3bbc 0467 d0bc
00000190: 1459 97bd 2024 5e3d 0c80 a8bb 53d0 9b3c
000001a0: 97aa 283c 021c 4ebb 66db 01bc 1849 943d
000001b0: e344 143d 4b76 a13d 50de 95bc f998 163d
000001c0: 0156 3cbb b690 ab3c 4f69 1e3d 15c3 dd3b
000001d0: 05c7 523d 1125 303d df13 563d 98ab 7abd
000001e0: eb3f 5e3d 51ac 46bb 8d1f 283d fcd1 f43c
000001f0: c2c1 f6bb 48f8 d3bc 51df c13c 5cbb eb3b
00000200: d9d9 dd3d 0182 18bd 99a1 343d 7b42 043d
00000210: 4c31 aabc a38a ed3d a5c8 d5bd d5c0 983c
00000220: 5c71 443d da8b c43d b0b2 8bbc 6fd2 70bb
00000230: ca3b bebc a4fb a43d b6fb 41bd c7b4 91bd
00000240: 05da 1fbd f279 d43c 0bf2 9f3d 7fec d33b
00000250: 3b01 773d 670b 963d 9e1b 65bd 6c2a 1b3d
00000260: bb7d a83d 42fd 933c 115f 89bd bac1 55bc
00000270: 703b b43c ea1b 8a3d 7b9b 17bd 23a2 8d3c
00000280: 583e 063d 5e2e 05bd c55d 133d 67f4 27ba
00000290: 7bf7 ba3e c2e1 1c3d d57a 32bd 7155 793d
000002a0: f0e6 eb3d 5b22 e93c 3428 813d cf37 133c
000002b0: 04ed 503c 1aa7 e13d d6c3 d63c 2c9f 64bc
000002c0: 2b5d 13bd db00 173d da64 a63d 777a 013c
000002d0: ab58 0ebd 789c 7a3c 65c8 92bc ecc3 0abd
000002e0: 6e1f 95bd 5d4c 0dbc 8a25 443d 0135 133d
000002f0: ddc5 f43b f7e9 6abd 7f74 463d cc88 b6bc
00000300: 91f5 e3bc c566 5d3d 92f8 3a3b 0c49 c6bc
00000310: f3c2 c2bb 8bae 693e da42 3f3d 2596 8f3d
00000320: 1dd6 81bd b465 1e3d 860e 27bc 6704 293d
00000330: c7b6 8b3c 71b0 07bc 2a45 ddbc ab49 68bc
00000340: c7db c2bc 042f ddbb cb3e b7bc c81d 01bd
00000350: eaab b13d cd2a 74bd 3e54 733c 3580 823c
00000360: 086c d43c 69bf 00bd 02af 8abc 6855 ccbc
00000370: d412 873c 1b98 743e aeb3 9d3c 77d6 c33c
00000380: 7024 28bd 209a 9a3c a0dd 22bc b30d 1e3d
00000390: 9227 fc3c 352c 933d 1fa3 fa3b dc22 263a
000003a0: f006 0c3d a7d1 be3d 617e a13d 119e 7b3d
000003b0: aea2 8abd ed5e 8cbc 5db1 373d 67d9 9ebc
000003c0: 3bb4 babc 9255 b13d b0f5 6a3d b389 c73d
000003d0: 94c6 813d 8242 053d f701 653e 481c ed3c
000003e0: c5e6 fa3c 9d68 df3b a553 08ba bebe 273d
000003f0: 835c 2abd 1d61 2c3c cc3c 0cbd a7ae ef3c

h2o.weight f4 [6, 256]
-0.025143117 0.08081389 0.023489231 0.089188084 -0.08314763 -0.025139347 0.037544824 0.11848192
0.031774256 -0.062173944 -0.11211921 -0.1274451 0.07498241 -0.07500587 -0.1434076 -0.18010935
-0.13179618 0.025199931 -0.025769109 0.15361781 -0.07198421 0.048276953 0.06556625 -0.046228062
-0.12885468 -0.0060561867 0.07558708 -0.040585753 -0.14460793 -0.040307622 -0.11524174 -0.06980229
0.026582466 0.12845716 0.10947792 -0.098865 0.06928481 -0.16320711 0.07605264 -0.12310553
-0.1371978 0.0040201414 -0.2425561 0.0344111 -0.02911699 0.051644318 -0.027573755 0.12270456
0.12734257 -0.12552108 -0.15291941 -0.03940101 -0.13110699 -0.12148472 0.15276964 -0.15754874
-0.14063676 -0.00853234 -0.11647951 0.095859215 0.14639638 -0.086687535 0.06220744 0.103625834
0.014041964 -0.02292861 0.12984832 -0.12989326 0.11685216 -0.11010011 -0.01210325 0.029224955
0.13352239 -0.09126873 -0.16432689 -0.27741522 -0.06979436 -0.13383293 0.010535678 0.11078039
-0.109970815 -0.18581723 -0.14260425 -0.1608454 -0.07755062 -0.06320098 0.027898258 -0.06674702
-0.06957037 -0.11622828 -0.1271441 0.050611123 0.034539834 0.112052426 -0.15780692 -0.029379299
0.109877475 -0.08286332 -0.15121359 -0.10860655 -0.11715305 0.10081749 -0.08075604 -0.12225502
0.072042726 0.037898894 -0.087554425 -0.08446546 0.03820098 -0.04150323 -0.16911852 -0.04754499
-0.04213577 -0.008230177 0.047330577 -0.015928484 -0.0770631 0.0925412 0.0856464 -0.03907214
-0.16323584 -0.057343513 0.062069047 0.14531158 0.057340015 -0.12141304 0.11239379 -0.11750691
0.11298372 -0.16963825 0.07738161 0.116767064 -0.12624858 -0.0052023875 0.045741204 -0.05784427
0.051780943 -0.06889949 -0.15739495 0.105439365 -0.1359812 -0.095654964 -0.16814111 -0.0871338
-0.036813047 0.042180117 0.21576265 0.08182356 0.1483769 0.08830253 -0.18335761 0.11928982
0.17818645 0.081938684 -0.15259385 -0.0682277 -0.09516299 0.1715016 -0.144633 0.052857637
0.073002614 -0.08110532 -0.19783324 0.014084197 0.08687393 0.14096648 0.040214468 0.069701955
0.13037454 0.08354557 0.06978497 -0.08177027 0.122276604 -0.12113219 0.107104205 0.022313002
-0.14355671 0.12280579 -0.08911201 -0.058649752 -0.14841342 0.04878999 -0.06224137 -0.1077798
-0.06847128 -0.018920543 0.0967267 0.13726926 0.12903969 -0.08449654 -0.13909177 -0.20154415
-0.15425633 0.08477059 -0.037844412 -0.19625124 -0.057460904 -0.11371244 -0.15084448 0.068043455
-0.13516761 0.05895175 -0.14095272 0.07620635 0.061246756 -0.05448702 -0.16011752 -0.12615088
-0.02077865 -0.11472366 -0.15296549 -0.15328425 0.061123867 -0.19020633 0.07925006 -0.042069227
-0.05950567 -0.14546736 -0.09914775 -0.073388875 0.15311979 -0.13426954 0.09944424 0.14362395
-0.1056454 0.09734426 0.032456316 0.140813 0.1024502 -0.1571964 0.095678374 -0.1275585
0.08752642 0.0842575 0.180529 0.06221358 -0.17161417 -0.016208272 0.16173032 -0.069396794
-0.060678758 -0.089324616 0.069126554 -0.12733814 0.019634308 0.0586589 0.14751077 0.057456344
-0.0146165015 0.13723128 0.010709004 0.12114542 -0.1416405 0.10009696 -0.06759331 0.14725614
00000000: f0f8 cdbc c181 a53d 7d6c c03c 3ea8 b63d
00000010: 4e49 aabd 08f1 cdbc 9ac8 193d a6a6 f23d
00000020: b925 023d 1baa 7ebd c29e e5bd f880 02be
00000030: 6190 993d ad9c 99bd 71d9 12be 966e 38be
00000040: 94f5 06be 1670 ce3c bd19 d3bc fd4d 1d3e
00000050: 756c 93bd 0ebe 453d 9947 863d a359 3dbd
00000060: 7bf2 03be fa72 c6bb 66cd 9a3d 3f3d 26bd
00000070: 1a14 14be 9b19 25bd dd03 ecbd 81f4 8ebd
00000080: 79c3 d93c 468a 033e f635 e03d bc79 cabd
00000090: 32e5 8d3d c41f 27be 7dc1 9b3d c11e fcbd
000000a0: 957d 0cbe 64bb 833b a060 78be a7f2 0c3d
000000b0: c186 eebc fe88 533d 5be2 e1bc 874c fb3d
000000c0: 1766 023e 9988 00be e896 1cbe f462 21bd
000000d0: e940 06be fbcc f8bd a56f 1c3e 7554 21be
000000e0: 1503 10be 3acb 0bbc cf8c eebd d651 c43d
000000f0: efe8 153e 3c89 b1bd 3bcd 7e3d c839 d43d
00000100: 4410 663c c8d4 bbbc f5f6 043e bd02 05be
00000110: 2f50 ef3d 2b7c e1bd b64c 46bc 2c69 ef3c
00000120: 18ba 083e 1aeb babd 4f45 28be 5e09 8ebe
00000130: 58f0 8ebd 800b 09be d69d 2c3c d4e0 e23d
00000140: 6138 e1bd df46 3ebe d906 12be a8b4 24be
00000150: dcd2 9ebd 846f 81bd e38a e43c a9b2 88bd
00000160: e97a 8ebd 1809 eebd 1032 02be 9c4d 4f3d
00000170: a479 0d3d be7b e53d 2398 21be dbac f0bc
00000180: 7107 e13d 3fb4 a9bd bcd7 1abe 1c6d debd
00000190: f0ed efbd 6679 ce3d 6c63 a5bd d760 fabd
000001a0: 238b 933d df3b 1b3d bc4f b3bd 3afc acbd
000001b0: a178 1c3d 4aff 29bd 682d 2dbe 89be 42bd
000001c0: 8f96 2cbd ddd7 06bc b5dd 413d 747c 82bc
000001d0: 42d3 9dbd 3e86 bd3d 6167 af3d 1c0a 20bd
000001e0: 4c27 27be 08e1 6abd 1d3c 7e3d 8fcc 143e
000001f0: 5ddd 6a3d 66a7 f8bd b72e e63d 76a7 f0bd
00000200: 0264 e73d a6b5 2dbe 407a 9e3d 9223 ef3d
00000210: 4f47 01be ca78 aabb 215b 3b3d 1dee 6cbd
00000220: 4118 543d 2d1b 8dbd 242c 21be 98f0 d73d
00000230: a83e 0bbe c0e6 c3bd 2f2d 2cbe 3573 b2bd
00000240: 47c9 16bd 0fc5 2c3d e2f0 5c3e 1c93 a73d
00000250: 1df0 173e f5d7 b43d 19c2 3bbe 394e f43d
00000260: 8276 363e 78cf a73d 9041 1cbe f7ba 8bbd
00000270: d0e4 c2bd 1e9e 2f3e ac1a 14be 4081 583d
00000280: 6582 953d 8c1a a6bd cc94 4abe 67c1 663c
00000290: f6ea b13d 8459 103e edb7 243d e6bf 8e3d
000002a0: e780 053e f119 ab3d 6ceb 8e3d 2c77 a7bd
000002b0: 286c fa3d 2714 f8bd 7359 db3d c2c9 b63c
000002c0: 8800 13be 9a81 fb3d 5c80 b6bd b93a 70bd
000002d0: b0f9 17be 03d8 473d cff0 7ebd a8bb dcbd
000002e0: ac3a 8cbd 41ff 9abc a618 c63d 5090 0c3e
000002f0: fb22 043e 860c adbd 136e 0ebe 9761 4ebe
00000300: 5ff5 1dbe 349c ad3d be02 1bbd 16f6 48be
00000310: 205c 6bbd 11e2 e8bd fa76 1abe 5e5a 8b3d
00000320: 6169 0abe 6477 713d e955 10be 1312 9c3d
00000330: e1dd 7a3d c82d 5fbd d9f5 23be b22d 01be
00000340: fd37 aabc 3df4 eabd fca2 1cbe 8cf6 1cbe
00000350: 055d 7a3d 73c5 42be db4d a23d c850 2cbd
00000360: 38bc 73bd 65f5 14be fa0d cbbd e84c 96bd
00000370: 6fcb 1c3e f47d 09be 6ca9 cb3d 2812 133e
00000380: 9e5c d8bd 6d5c c73d eaf0 043d 4831 103e
00000390: 69d1 d13d 18f8 20be 06f3 c33d b29e 02be
000003a0: 0d41 b33d 328f ac3d 98dc 383e abd3 7e3d
000003b0: a0bb 2fbe 36c7 84bc a29c 253e e81f 8ebd
000003c0: 4a8a 78bd d3ef b6bd 3992 8d3d ee64 02be
000003d0: 21d8 a03c 5144 703d 100d 173e 5857 6b3d
000003e0: 0d7a 6fbc 5b86 0c3e d174 2f3c 171b f83d
000003f0: 350a 11be a3ff cc3d 5c6e 8abd 50ca 163e

h2o.bias f4 [6]
0.008785971 -0.0062743435 -0.008392946 -0.011121898 -0.0027506198 0.061275594
00000000: 09f3 0f3c 0299 cdbb 9182 09bc 9f38 36bc
00000010: be43 34bb 1efc 7a3d

h2h.weight f4 [256, 256]
0.1493645 -0.00023734268 0.028726647 0.14941227 0.05823243 0.04601786 -0.015979895 0.11201455
0.07177603 0.0054422375 -0.061458796 -0.02160864 0.027080217 -0.02173889 0.060078073 -0.011541848
0.1126554 -0.02665046 0.10486805 -0.027038008 -0.06720516 0.02840731 0.017005598 0.08450624
0.07972462 -0.020238757 0.025653003 -0.07608072 -0.06600011 -0.0366794 -0.0047778757 -0.007612146
-0.02569339 -0.0038252773 -0.11357272 0.080010734 0.023884766 -0.094625555 0.09694968 -0.01909999
0.032811932 -0.091920115 -0.062105045 -0.0193737 0.10336103 0.003718695 -0.047321357 -0.08829127
0.004775668 0.008945607 0.038888887 0.024099622 0.09764155 -0.10139576 -0.1017113 0.07707177
0.00341275 -0.015955802 -0.018165492 0.14771397 -0.087018386 -0.04420814 0.018100487 -0.14245023
0.0354291 -0.12800595 0.015435469 -0.037654147 0.04203099 0.013218633 -0.020575346 -0.05673466
0.25398344 -0.0574384 0.052029714 -0.060677126 0.10110719 -0.03172119 0.025912289 0.06252823
0.0027507392 -0.0691416 -0.13122381 0.034723174 -0.10842364 0.053414635 0.05367804 0.05098802
0.016005142 0.007717377 0.14920335 0.09492814 0.025338268 -0.06856111 0.06584103 0.06936498
0.055110395 -0.06885202 -0.053470366 -0.09288713 -0.09033339 0.032531023 -0.06852553 -0.011683521
0.076518394 0.08414875 0.07497649 0.07361204 -0.024011726 0.0074256146 -0.0023331093 -0.010981991
-0.14259957 -0.13711682 -0.0021949906 0.10907351 0.10835418 0.1145152 -0.002709263 0.031151647
-0.040002417 0.14035717 0.0014361525 0.10297092 -0.00025162546 -0.05184509 -0.030124463 0.13389121
0.10148868 -0.039262217 0.10612184 -0.09506052 0.10696191 0.06898793 -0.017574979 -0.028761657
-0.14620306 -0.064415105 -0.011674757 -0.027022248 -0.06090654 -0.063887626 0.0084435465 0.09510973
-0.038792197 0.09492527 0.06818132 -0.11700593 0.016456742 -0.100852385 0.096933894 0.009202455
-0.0492165 0.010724695 -0.2261033 -0.028360663 -0.0010859666 -0.056246962 -0.030654624 -0.0053985943
0.0004030084 0.05489708 -0.16129345 0.101635754 0.06647662 0.11977442 -0.09700224 -0.020547628
-0.029198742 -0.0616469 0.007111676 0.061131585 0.020686034 0.018895509 0.032693464 -0.0036824485
0.070390165 0.16742364 -0.118645236 -0.0337634 0.14843854 -0.031548716 0.06513761 -0.017153893
0.023160553 0.00033680742 0.029663837 0.069432154 0.044895705 -0.010733121 0.09290615 -0.054444864
0.06340495 0.03381927 0.008139841 -0.027472721 0.015921256 -0.011673447 -0.13843036 0.029043797
-0.017465653 -0.019830802 0.010524818 0.067261316 0.075683944 0.014600606 -0.02007131 0.063454494
0.059542216 0.0026533897 0.043456964 -0.023530798 -0.057791144 0.03644478 -0.026044227 0.10279996
-0.06087465 0.09210547 0.05333413 0.13936238 -0.13309321 0.079503424 -0.04790862 0.0010341115
0.03932715 -0.061347008 -0.015536511 -0.04796618 -0.102086686 0.08747452 0.0647944 -0.07855096
0.0076307463 -0.037468206 0.019729136 0.007893937 0.06481464 0.024936227 -0.10585794 0.029888296
0.03305615 0.009303455 0.0069217733 -0.02893797 0.07876063 0.08203065 -0.09894737 0.03057622
0.14639163 -0.034931116 -0.06568515 0.04961088 -0.06687208 0.00032507314 0.025631612 0.031936377
00000000: 02f3 183e 31df 78b9 2554 eb3c 88ff 183e
00000010: 2185 6e3d 397d 3c3d 45e8 82bc e267 e53d
00000020: 50ff 923d cc54 b23b 38bc 7bbd 9a04 b1bc
00000030: 55d7 dd3c c215 b2bc 6d14 763d 051a 3dbc
00000040: e0b7 e63d 1152 dabc 0fc5 d63d d07e ddbc
00000050: dca2 89bd 72b6 e83c 534f 8b3c 9c11 ad3d
00000060: a946 a33d c0cb a5bc 3f26 d23c 35d0 9bbd
00000070: 112b 87bd 233d 16bd ba8f 9cbb 4f6f f9bb
00000080: f27a d2bc 81b1 7abb d098 e8bd abdc a33d
00000090: fca9 c33c 0bcb c1bd 8e8d c63d 9577 9cbc
000000a0: ce65 063d 9d40 bcbd dc61 7ebd 98b5 9ebc
000000b0: f3ae d33d 59b5 733b 0ad4 41bd 0ed2 b4bd
000000c0: 357d 9c3b 9890 123c f449 1f3d 926c c53c
000000d0: 4bf8 c73d 95a8 cfbd 044e d0bd ced7 9d3d
000000e0: 72a8 5f3b beb5 82bc cccf 94bc 5542 173e
000000f0: b236 b2bd 9813 35bd 7947 943c 79de 11be
00000100: 1b1e 113d fe13 03be 0de5 7c3c 3c3b 1abd
00000110: b028 2c3d f792 583c a18d a8bc 9a62 68bd
00000120: 1e0a 823e 8744 6bbd 1c1d 553d 9488 78bd
00000130: 4911 cf3d 14ee 01bd 0246 d43c cd0e 803d
00000140: bf45 343b 1c9a 8dbd 895f 06be e339 0e3d
00000150: 370d debd 4ec9 5a3d 81dd 5b3d d0d8 503d
00000160: 371d 833c 0de2 fc3b c3c8 183e af69 c23d
00000170: 3392 cf3c c469 8cbd a9d7 863d 3a0f 8e3d
00000180: 70bb 613d 4a02 8dbd be03 5bbd 9c3b bebd
00000190: b600 b9bd 403f 053d 1d57 8cbd 3d6c 3fbc
000001a0: adb5 9c3d 2e56 ac3d 468d 993d e9c1 963d
000001b0: 3db4 c4bc 9252 f33b 14e7 18bb cfed 33bc
000001c0: 9f05 12be 5a68 0cbe d5d9 0fbb ef61 df3d
000001d0: cce8 dd3d f286 ea3d e48d 31bb bd31 ff3c
000001e0: 93d9 23bd cab9 0f3e 483d bc3a 6be2 d23d
000001f0: 99ec 83b9 845b 54bd 94c7 f6bc c71a 093e
00000200: 4cd9 cf3d 6bd1 20bd 6856 d93d 17af c2bd
00000210: d90e db3d 8b49 8d3d 67f9 8fbc 919d ebbc
00000220: 41b6 15be 11ec 83bd 7b47 3fbc c35d ddbc
00000230: 2379 79bd 84d7 82bd cd56 0a3c e4c8 c23d
00000240: 91e4 1ebd 2e68 c23d a6a2 8b3d cea0 efbd
00000250: 4ad0 863c b28b cebd 4785 c63d e5c5 163c
00000260: 3e97 49bd a2b6 2f3c a087 67be 9f54 e8bc
00000270: fe56 8eba 3763 66bd 681f fbbc b1e6 b0bb
00000280: df4a d339 c3db 603d 1c2a 25be 6826 d03d
00000290: e524 883d 4b4c f53d 1ca9 c6bd 8053 a8bc
000002a0: 3332 efbc 7681 7cbd 1009 e93b 1d65 7a3d
000002b0: c275 a93c c1ca 9a3c 95e9 053d 3c55 71bb
000002c0: b828 903d 1a71 2b3e 46fc f2bd 7e4b 0abd
000002d0: 4600 183e 3a39 01bd de66 853d 5286 8cbc
000002e0: 33bb bd3c 8795 b039 9301 f33c 7232 8e3d
000002f0: 8fe4 373d f9d9 2fbc 9445 be3d 9401 5fbd
00000300: 74da 813d 1386 0a3d f85c 053c 790e e1bc
00000310: 4b6d 823c fc41 3fbc b0c0 0dbe 42ed ed3c
00000320: 2114 8fbc 3574 a2bc 4970 2c3c 4dc0 893d
00000330: 2f00 9b3d 6137 6f3c 976c a4bc 6ef4 813d
00000340: 8ae2 733d 7ee4 2d3b eeff 313d a9c3 c0bc
00000350: 68b6 6cbd 1f47 153d b45a d5bc c988 d23d
00000360: b257 79bd cba1 bc3d e474 5a3d 03b5 0e3e
00000370: 9649 08be b1d2 a23d d43b 44bd 068b 873a
00000380: 8115 213d 0047 7bbd da8c 7ebc 2f78 44bd
00000390: d312 d1bd d725 b33d edb2 843d 53df a0bd
000003a0: 570b fa3b 4378 19bd ff9e a13c 9255 013c
000003b0: 8abd 843d 0f47 cc3c 0ccc d8bd 4dd8 f43c
000003c0: e365 073d 856d 183c 0bd0 e23b 520f edbc
000003d0: 414d a13d afff a73d eba4 cabd fb7a fa3c
000003e0: b0e7 153e ee13 0fbd f085 86bd c734 4b3d
000003f0: 3bf4 88bd 946e aa39 63f9 d13c b8cf 023d

h2h.bias f4 [256]
0.00038661354 0.03599985 -0.0557839 0.03599749 -0.013598247 -0.0547655 -0.0031870955 0.083999865
0.040898036 0.02937699 -0.037037905 -0.009263939 -0.0054578637 -0.010909667 -0.020767156 -0.043688763
0.010042166 -0.0011887355 -0.046772793 -0.02904744 0.1078136 0.008671632 0.0020736023 0.025057081
0.0076773986 0.017025832 0.016176423 0.052153 -0.041145083 -0.06291941 -0.027870424 -0.009466483
-0.018526651 0.015709834 0.09202149 0.03933592 -0.017573021 0.009130517 0.033169888 0.060912315
-0.035924412 0.006263499 0.077073544 0.004664016 0.014514766 0.058492914 0.00026256632 0.04555449
0.019509206 -0.010473549 -0.02398568 0.043797027 -0.02358241 0.044374187 0.046332277 -0.005570833
-0.04111899 0.16240598 -0.012587134 0.025687868 0.069850415 -0.01869821 0.04075811 0.05688259
-0.027188072 -0.016561365 0.012006805 -0.01718616 0.036040254 -0.0479926 0.01756558 -0.0009200637
0.043705292 0.1796158 -0.009572055 -0.027621213 -0.023665233 -0.039169986 -0.018961592 0.022800872
-0.03425515 -0.01765159 -0.02379753 -0.025023652 -0.022634612 -0.014971212 0.05084813 -0.04749711
-0.0010234003 0.0019210512 -0.025400782 0.0056885164 0.005181987 0.14731827 0.02261201 -0.021661738
0.01012301 0.0076917997 -0.011415386 -0.025439747 -0.07390037 0.05423367 -0.0051422175 0.019020235
0.010294578 -0.00314498 -0.007925844 0.07240504 0.036198508 0.07883891 -0.018294483 0.03676698
-0.0028737786 0.020943027 0.03867465 0.0067676404 0.05145933 0.0430041 0.052265044 -0.0611988
0.054260176 -0.003031511 0.041045714 0.029885285 -0.007530422 -0.025875226 0.023666056 0.007193966
0.10832567 -0.037233356 0.044099424 0.032289963 -0.02077546 0.115987085 -0.104386605 0.018646637
0.04795967 0.09596987 -0.017052978 -0.0036746522 -0.023221869 0.08055809 -0.04735919 -0.07114559
-0.03902628 0.025937054 0.07809838 0.0064674015 0.060303908 0.073263936 -0.05593454 0.037882254
0.08227106 0.018065099 -0.067075856 -0.013046676 0.022000998 0.067436054 -0.037013512 0.017289227
0.0327743 -0.032514922 0.035978097 -0.0006406963 0.36516938 0.038301237 -0.043574173 0.0608725
0.11518657 0.028458765 0.06306496 0.008985474 0.012751821 0.110182 0.026216429 -0.013953965
-0.035977524 0.03686605 0.08124705 0.007902733 -0.03475253 0.015296094 -0.017917821 -0.033878252
-0.07281385 -0.008624163 0.047887363 0.03593922 0.007469876 -0.057352033 0.048450943 -0.022282027
-0.027827056 0.054053087 0.0028529507 -0.024204753 -0.00594365 0.22820489 0.046694614 0.0701106
-0.06339667 0.03867121 -0.010196334 0.041263964 0.017054928 -0.008281813 -0.027010519 -0.01417772
-0.023786439 -0.0067499895 -0.02236881 -0.031522542 0.08675368 -0.05961113 0.014851628 0.015930275
0.02593042 -0.031432543 -0.016929153 -0.024943069 0.01648847 0.23886149 0.019250717 0.023905976
-0.041050375 0.01887232 -0.009940535 0.038587283 0.030780587 0.07186166 0.00764884 0.0006337592
0.034186304 0.09317332 0.07885433 0.06143004 -0.0676931 -0.017135108 0.04484688 -0.019390775
-0.022791019 0.08658899 0.057363212 0.09743061 0.06336704 0.03253413 0.22364031 0.02894415
0.030627618 0.006817891 -0.0005200452 0.04095339 -0.041592132 0.0105212005 -0.034237668 0.029258085
00000000: 64b2 ca39 9474 133d a97d 64bd 1b72 133d
00000010: 2fcb 5ebc ca51 60bd 97de 50bb 1f08 ac3d
00000020: b384 273d 03a8 f03c 0fb5 17bd c7c7 17bc
00000030: e1d7 b2bb 76be 32bc e21f aabc fdf2 32bd
00000040: e687 243c 58cf 9bba d494 3fbd e6f4 edbc
00000050: 60cd dc3d 7613 0e3c 46e5 073b 8244 cd3c
00000060: b092 fb3b c279 8b3c 6b84 843c 629e 553d
00000070: bf87 28bd e4db 80bd 8450 e4bc 4f19 1bbc
00000080: 34c5 97bc e9b1 803c c375 bc3d b41e 213d
00000090: 4cf5 8fbc 2a98 153c 26dd 073d 317f 793d
000000a0: 7a25 13bd 0a3e cd3b bcd8 9d3d 9ad4 983b
000000b0: 57cf 6d3c 4496 6f3d 0ea9 8939 5897 3a3d
000000c0: c5d1 9f3c 4099 2bbc 9e7d c4bc 8364 333d
000000d0: e62f c1bc b5c1 353d eac6 3d3d 898b b6bb
000000e0: 636c 28bd c14d 263e 443a 4ebc 5d6f d23c
000000f0: bc0d 8f3d fd2c 99bc faf1 263d b8fd 683d
00000100: 85b9 debc b3ab 87bc 31b8 443c fdc9 8cbc
00000110: f29e 133d e393 44bd b1e5 8f3c 6e30 71ba
00000120: 5204 333d 34ed 373e 1cd4 1cbc e245 e2bc
00000130: 97dd c1bc b570 20bd 5755 9bbc e5c8 ba3c
00000140: 214f 0cbd 119a 90bc 0af3 c2bc 67fe ccbc
00000150: 396c b9bc d049 75bc 2146 503d 548c 42bd
00000160: 9e23 86ba c8cb fb3a 4d15 d0bc bc66 ba3b
00000170: a8cd a93b 9ada 163e d23c b93c f573 b1bc
00000180: fbda 253c 7e0b fc3b 9907 3bbc 0467 d0bc
00000190: 1459 97bd 2024 5e3d 0c80 a8bb 53d0 9b3c
000001a0: 97aa 283c 021c 4ebb 66db 01bc 1849 943d
000001b0: e344 143d 4b76 a13d 50de 95bc f998 163d
000001c0: 0156 3cbb b690 ab3c 4f69 1e3d 15c3 dd3b
000001d0: 05c7 523d 1125 303d df13 563d 98ab 7abd
000001e0: eb3f 5e3d 51ac 46bb 8d1f 283d fcd1 f43c
000001f0: c2c1 f6bb 48f8 d3bc 51df c13c 5cbb eb3b
00000200: d9d9 dd3d 0182 18bd 99a1 343d 7b42 043d
00000210: 4c31 aabc a38a ed3d a5c8 d5bd d5c0 983c
00000220: 5c71 443d da8b c43d b0b2 8bbc 6fd2 70bb
00000230: ca3b bebc a4fb a43d b6fb 41bd c7b4 91bd
00000240: 05da 1fbd f279 d43c 0bf2 9f3d 7fec d33b
00000250: 3b01 773d 670b 963d 9e1b 65bd 6c2a 1b3d
00000260: bb7d a83d 42fd 933c 115f 89bd bac1 55bc
00000270: 703b b43c ea1b 8a3d 7b9b 17bd 23a2 8d3c
00000280: 583e 063d 5e2e 05bd c55d 133d 67f4 27ba
00000290: 7bf7 ba3e c2e1 1c3d d57a 32bd 7155 793d
000002a0: f0e6 eb3d 5b22 e93c 3428 813d cf37 133c
000002b0: 04ed 503c 1aa7 e13d d6c3 d63c 2c9f 64bc
000002c0: 2b5d 13bd db00 173d da64 a63d 777a 013c
000002d0: ab58 0ebd 789c 7a3c 65c8 92bc ecc3 0abd
000002e0: 6e1f 95bd 5d4c 0dbc 8a25 443d 0135 133d
000002f0: ddc5 f43b f7e9 6abd 7f74 463d cc88 b6bc
00000300: 91f5 e3bc c566 5d3d 92f8 3a3b 0c49 c6bc
00000310: f3c2 c2bb 8bae 693e da42 3f3d 2596 8f3d
00000320: 1dd6 81bd b465 1e3d 860e 27bc 6704 293d
00000330: c7b6 8b3c 71b0 07bc 2a45 ddbc ab49 68bc
00000340: c7db c2bc 042f ddbb cb3e b7bc c81d 01bd
00000350: eaab b13d cd2a 74bd 3e54 733c 3580 823c
00000360: 086c d43c 69bf 00bd 02af 8abc 6855 ccbc
00000370: d412 873c 1b98 743e aeb3 9d3c 77d6 c33c
00000380: 7024 28bd 209a 9a3c a0dd 22bc b30d 1e3d
00000390: 9227 fc3c 352c 933d 1fa3 fa3b dc22 263a
000003a0: f006 0c3d a7d1 be3d 617e a13d 119e 7b3d
000003b0: aea2 8abd ed5e 8cbc 5db1 373d 67d9 9ebc
000003c0: 3bb4 babc 9255 b13d b0f5 6a3d b389 c73d
000003d0: 94c6 813d 8242 053d f701 653e 481c ed3c
000003e0: c5e6 fa3c 9d68 df3b a553 08ba bebe 273d
000003f0: 835c 2abd 1d61 2c3c cc3c 0cbd a7ae ef3c
