VLSI23_journal/intuitivechip_classifier_lcsvsnlcs_run3/SNN_ep-150-isize-2-8-1-hsize-242-bsize-32-lr-0.001-tmax_ms-400.0-Ts-10.0-k-6-dsetPath-VMODE_allchannels_ALLCLASS_auto_nospkfilter_cleaned_12x16_9mvpp_250mvofs_onedac_itail_50nA_N4b/chip-classifier-5.pt (torch, 261239 bytes, 8 tensors)

thr_h_1 f4 [242]
00000000: 0000 803f 0000 803f 0000 803f 0000 803f
00000010: 0000 803f 0000 803f 0000 803f 0000 803f
00000020: 0000 803f 0000 803f 0000 803f 0000 803f
00000030: 0000 803f 0000 803f 0000 803f 0000 803f
00000040: 0000 803f 0000 803f 0000 803f 0000 803f
00000050: 0000 803f 0000 803f 0000 803f 0000 803f
00000060: 0000 803f 0000 803f 0000 803f 0000 803f
00000070: 0000 803f 0000 803f 0000 803f 0000 803f
00000080: 0000 803f 0000 803f 0000 803f 0000 803f
00000090: 0000 803f 0000 803f 0000 803f 0000 803f
000000a0: 0000 803f 0000 803f 0000 803f 0000 803f
000000b0: 0000 803f 0000 803f 0000 803f 0000 803f
000000c0: 0000 803f 0000 803f 0000 803f 0000 803f
000000d0: 0000 803f 0000 803f 0000 803f 0000 803f
000000e0: 0000 803f 0000 803f 0000 803f 0000 803f
000000f0: 0000 803f 0000 803f 0000 803f 0000 803f
00000100: 0000 803f 0000 803f 0000 803f 0000 803f
00000110: 0000 803f 0000 803f 0000 803f 0000 803f
00000120: 0000 803f 0000 803f 0000 803f 0000 803f
00000130: 0000 803f 0000 803f 0000 803f 0000 803f
00000140: 0000 803f 0000 803f 0000 803f 0000 803f
00000150: 0000 803f 0000 803f 0000 803f 0000 803f
00000160: 0000 803f 0000 803f 0000 803f 0000 803f
00000170: 0000 803f 0000 803f 0000 803f 0000 803f
00000180: 0000 803f 0000 803f 0000 803f 0000 803f
00000190: 0000 803f 0000 803f 0000 803f 0000 803f
000001a0: 0000 803f 0000 803f 0000 803f 0000 803f
000001b0: 0000 803f 0000 803f 0000 803f 0000 803f
000001c0: 0000 803f 0000 803f 0000 803f 0000 803f
000001d0: 0000 803f 0000 803f 0000 803f 0000 803f
000001e0: 0000 803f 0000 803f 0000 803f 0000 803f
000001f0: 0000 803f 0000 803f 0000 803f 0000 803f
00000200: 0000 803f 0000 803f 0000 803f 0000 803f
00000210: 0000 803f 0000 803f 0000 803f 0000 803f
00000220: 0000 803f 0000 803f 0000 803f 0000 803f
00000230: 0000 803f 0000 803f 0000 803f 0000 803f
00000240: 0000 803f 0000 803f 0000 803f 0000 803f
00000250: 0000 803f 0000 803f 0000 803f 0000 803f
00000260: 0000 803f 0000 803f 0000 803f 0000 803f
00000270: 0000 803f 0000 803f 0000 803f 0000 803f
00000280: 0000 803f 0000 803f 0000 803f 0000 803f
00000290: 0000 803f 0000 803f 0000 803f 0000 803f
000002a0: 0000 803f 0000 803f 0000 803f 0000 803f
000002b0: 0000 803f 0000 803f 0000 803f 0000 803f
000002c0: 0000 803f 0000 803f 0000 803f 0000 803f
000002d0: 0000 803f 0000 803f 0000 803f 0000 803f
000002e0: 0000 803f 0000 803f 0000 803f 0000 803f
000002f0: 0000 803f 0000 803f 0000 803f 0000 803f
00000300: 0000 803f 0000 803f 0000 803f 0000 803f
00000310: 0000 803f 0000 803f 0000 803f 0000 803f
00000320: 0000 803f 0000 803f 0000 803f 0000 803f
00000330: 0000 803f 0000 803f 0000 803f 0000 803f
00000340: 0000 803f 0000 803f 0000 803f 0000 803f
00000350: 0000 803f 0000 803f 0000 803f 0000 803f
00000360: 0000 803f 0000 803f 0000 803f 0000 803f
00000370: 0000 803f 0000 803f 0000 803f 0000 803f
00000380: 0000 803f 0000 803f 0000 803f 0000 803f
00000390: 0000 803f 0000 803f 0000 803f 0000 803f
000003a0: 0000 803f 0000 803f 0000 803f 0000 803f
000003b0: 0000 803f 0000 803f 0000 803f 0000 803f
000003c0: 0000 803f 0000 803f
1.0 1.0 1.0 1.0 1.0 1.0 1.0 1.0
1.0 1.0 1.0 1.0 1.0 1.0 1.0 1.0
1.0 1.0 1.0 1.0 1.0 1.0 1.0 1.0
1.0 1.0 1.0 1.0 1.0 1.0 1.0 1.0
1.0 1.0 1.0 1.0 1.0 1.0 1.0 1.0
1.0 1.0 1.0 1.0 1.0 1.0 1.0 1.0
1.0 1.0 1.0 1.0 1.0 1.0 1.0 1.0
1.0 1.0 1.0 1.0 1.0 1.0 1.0 1.0
1.0 1.0 1.0 1.0 1.0 1.0 1.0 1.0
1.0 1.0 1.0 1.0 1.0 1.0 1.0 1.0
1.0 1.0 1.0 1.0 1.0 1.0 1.0 1.0
1.0 1.0 1.0 1.0 1.0 1.0 1.0 1.0
1.0 1.0 1.0 1.0 1.0 1.0 1.0 1.0
1.0 1.0 1.0 1.0 1.0 1.0 1.0 1.0
1.0 1.0 1.0 1.0 1.0 1.0 1.0 1.0
1.0 1.0 1.0 1.0 1.0 1.0 1.0 1.0
1.0 1.0 1.0 1.0 1.0 1.0 1.0 1.0
1.0 1.0 1.0 1.0 1.0 1.0 1.0 1.0
1.0 1.0 1.0 1.0 1.0 1.0 1.0 1.0
1.0 1.0 1.0 1.0 1.0 1.0 1.0 1.0
1.0 1.0 1.0 1.0 1.0 1.0 1.0 1.0
1.0 1.0 1.0 1.0 1.0 1.0 1.0 1.0
1.0 1.0 1.0 1.0 1.0 1.0 1.0 1.0
1.0 1.0 1.0 1.0 1.0 1.0 1.0 1.0
1.0 1.0 1.0 1.0 1.0 1.0 1.0 1.0
1.0 1.0 1.0 1.0 1.0 1.0 1.0 1.0
1.0 1.0 1.0 1.0 1.0 1.0 1.0 1.0
1.0 1.0 1.0 1.0 1.0 1.0 1.0 1.0
1.0 1.0 1.0 1.0 1.0 1.0 1.0 1.0
1.0 1.0 1.0 1.0 1.0 1.0 1.0 1.0
1.0 1.0

thr_o f4 [6]
00000000: 0000 803f 0000 803f 0000 803f 0000 803f
00000010: 0000 803f 0000 803f
1.0 1.0 1.0 1.0 1.0 1.0

i2h.weight f4 [242, 16]
00000000: aaa1 f03d e8a4 c63d 8139 cc3d fd19 fc3d
00000010: 96c1 5c3d d59f f93b 79ea debd fa39 62bb
00000020: c2d9 ef3d a9fb 34bc 0ae7 debd c3ba e6bd
00000030: d2ae 483d 2733 223d f2c5 57bd 2541 d2bc
00000040: 0e39 3abd 67ce 313d 01cf f03d eeb2 113d
00000050: 7ef4 12be f726 a93b 537a 16be 9168 093e
00000060: 52f7 d73d eec6 88bc d665 a2bd b9c4 d63d
00000070: ed84 22bd f234 08be d6ef 023e afe3 dcbd
00000080: 1079 e83c 1b59 cb3d 50e2 a7bd 5261 13be
00000090: 1357 a43c fc02 80bd ff35 fc3c 0dd4 f4bc
000000a0: 627a 9fbc f0c0 cbbd 457e 03bd 2f44 8cbd
000000b0: 1615 e43d 39d2 983d aeaa 84bd e34e 9abd
000000c0: 40a1 1a3e ee58 40bd 045c fdbd 52ab 15be
000000d0: 796b 84bd f7bf 06be 4746 44bc 9da7 04bc
000000e0: fca9 56bd 294f d7bd 828e a93d a5c9 a93d
000000f0: da27 af3c 6045 f03c 1082 d23d e838 bf3a
00000100: 6787 79bd 7cd8 49bd d4a6 b23d 4bd5 043e
00000110: 24bb 89bc 2a4c e5bd 82e2 1a3c 2f7b f4bd
00000120: deed f73c 35f4 1bbe 74e6 e1bd c407 793c
00000130: 905a 47bc 42c9 07be 17f9 23bd 1d92 dcbd
00000140: dc73 4abd 6574 af3d 1206 e4bd 141b 91bc
00000150: d159 1b3e 731c d63d de75 f93d e047 edbd
00000160: a747 5dbc c60a 01bc 541a 0ebe 8260 30bd
00000170: 6449 c7bd 5b49 2c3d c3c2 46bd 922b 4d3c
00000180: cea4 c63d 14d9 9abd 1d8a 97bd d2f2 99bd
00000190: aee0 e73a 97d5 82bd 7f12 d2bd b124 953d
000001a0: a93e 11bc faa6 86bd f861 08be cc93 2e3d
000001b0: 1842 f4bd c251 e0bd dc8d 0bbc a18b cfbd
000001c0: 6dfe dc3d 94ea f43d 5c44 1cbd 4738 fc3d
000001d0: 7315 92bd 53f4 c53d 1f53 99bd 42b7 a63d
000001e0: c3df 043d 1cee e3bc 4bf7 0abe e5bc a93d
000001f0: 7253 173e 6849 0bbe d83f 19be 3d88 11be
00000200: c4cf 693d 386b f6bd ba2a d93b f4c2 e33c
00000210: 30cb 933d 868b fd3d 5c16 2fbd 7494 9fbd
00000220: b683 51bd 80a1 013d c7ea e2bd 0bd8 63bd
00000230: a6d9 bd3d fa84 193e d2d4 bd3d 40ae 74bd
00000240: f544 6c3d 7e84 30bd f212 1e3c 409d 06be
00000250: 34fa 66bd 7e02 b1bb ae22 82bd d358 a7bc
00000260: f530 b53d 1c74 c23b 5f60 febd d83b 143e
00000270: 9016 1c3e c065 59bc d63c c5bd 9e5c 9ebd
00000280: 1932 b33d eacb 1bbe e324 f33d 2c14 2bbd
00000290: f12e 903c 0acf 45bd b84a f73d a41c 2f3e
000002a0: 0678 693d 2857 d8bd e477 9ebd cc83 363d
000002b0: 9cab 98bc efef cfbc dc02 a53d e174 e53d
000002c0: 9999 e73d 70d4 cbbb bc48 dbbd d891 a23c
000002d0: 152e f5bd 3407 fabd 0828 dcbd 9834 17be
000002e0: 855e a53b d802 eabd 1ba9 eabd 2674 583d
000002f0: e3b0 2b3c 993c 9a3d afe0 ed3d 1ed2 d0bd
00000300: 31e0 1b3e aaf1 ea3c 28e9 2a3d 84aa b83d
00000310: 1fc4 ddbc 223a cfbb 3ef8 dabc 66fa a33d
00000320: c065 edbd 7d33 103e 8a59 913c ff71 df3d
00000330: 86af 133e f114 db3d 6399 043d f43a f03d
00000340: 4871 b5bd 038b b03c 354a bf3d 633d 98bd
00000350: 505b 073a af9a ae3d a0cd e73c 19a7 20be
00000360: a118 afbc a476 1b3d 3ae9 163c ef22 4c3e
00000370: 8a85 aebd 11d2 0cbe a6a5 08bd c34d 213e
00000380: 2562 f63d b502 e4bd b171 2abd 1f7a 52bd
00000390: 2a62 adbd 5660 e4bd 6678 7f3c 5c85 d3bd
000003a0: 96a9 113e d544 0ebe a232 d83d a7db 25bd
000003b0: 3a1a db3c 11f8 033e c7fe f13d d3e7 293e
000003c0: ac95 94bd 8791 e23d 7bf0 593d 733e 893d
000003d0: c13f c8bc f26e 02be ba47 033e 2322 03be
000003e0: 8df3 fdbc 8a87 0fbd 15a3 c53d 24ff 023d
000003f0: d5e6 0c3e 97d5 50bb c1ac 213d 508f f63d
0.11749585 0.09699422 0.099719055 0.12309644 0.053895555 0.0076179304 -0.10884566 -0.003451942
0.11711456 -0.011046329 -0.10883911 -0.11266091 0.048994847 0.039599564 -0.05267901 -0.025665829
-0.045464568 0.04340973 0.11758233 0.03557103 -0.14351079 0.0051621157 -0.146951 0.13418795
0.105452195 -0.01669642 -0.0792958 0.104867406 -0.03967755 -0.13301447 0.12786803 -0.10785615
0.02837804 0.09929105 -0.081974626 -0.14392594 0.020061051 -0.06250569 0.030787466 -0.02988627
-0.019467536 -0.09948909 -0.032102842 -0.068489425 0.11136834 0.07461972 -0.06477867 -0.07534578
0.15100574 -0.04695981 -0.12371066 -0.14616135 -0.06465811 -0.13159166 -0.011979646 -0.008096603
-0.052408203 -0.105131455 0.08279134 0.08290414 0.021381307 0.029329956 0.10278714 0.0014589103
-0.060920145 -0.04927872 0.08723226 0.1297199 -0.016812868 -0.11196168 0.009453418 -0.11937558
0.030264791 -0.15229876 -0.110302836 0.015199605 -0.012167588 -0.13260368 -0.040032472 -0.107700564
-0.0494269 0.08567122 -0.1113397 -0.017713107 0.15170981 0.10454645 0.121806845 -0.11585975
-0.013505853 -0.007876104 -0.13877231 -0.043060787 -0.09730795 0.042062145 -0.048525583 0.012522595
0.09699403 -0.075609356 -0.0739939 -0.075170174 0.0017690861 -0.06388395 -0.10257434 0.07282389
-0.008865037 -0.06574817 -0.13318622 0.04262142 -0.11926669 -0.10953094 -0.008517709 -0.10134054
0.10790715 0.11958805 -0.03815113 0.123154216 -0.07132997 0.09665742 -0.07486557 0.081404224
0.03243996 -0.0278235 -0.13570897 0.08287982 0.14777926 -0.13602221 -0.1496576 -0.14212127
0.057082906 -0.12032169 0.006627408 0.027802922 0.07216489 0.123801276 -0.042745933 -0.07791987
-0.051151 0.03164816 -0.110799365 -0.055625957 0.09270029 0.14992133 0.09269108 -0.05973649
0.05768295 -0.043095104 0.009648072 -0.13145924 -0.056390956 -0.0054019084 -0.06354271 -0.020428097
0.088472284 0.0059342515 -0.12420725 0.14475954 0.15242982 -0.013268888 -0.09630744 -0.07732509
0.0874979 -0.15214506 0.1187227 -0.041767284 0.017600508 -0.04829315 0.12074798 0.1710077
0.05699923 -0.10563499 -0.07737711 0.044559285 -0.018636517 -0.025382964 0.08057186 0.112039335
0.11308593 -0.006220393 -0.10707232 0.019844934 -0.1197168 -0.12208405 -0.10749823 -0.14766157
0.005046668 -0.11426324 -0.114580356 0.052845143 0.010479185 0.07531089 0.116151206 -0.10196327
0.15222241 0.028679688 0.04172626 0.09016898 -0.027071057 -0.0063240686 -0.0267297 0.08006744
-0.11591673 0.14082141 0.01774289 0.10910415 0.14422426 0.10697354 0.032372843 0.117299944
-0.08859497 0.021550661 0.09340326 -0.074335836 0.0005163448 0.08525597 0.028296292 -0.15688743
-0.021374049 0.03795494 0.009210879 0.19935201 -0.08521564 -0.13752009 -0.0333611 0.1575232
0.12030438 -0.11133329 -0.04161233 -0.051385995 -0.08465989 -0.11151187 0.01559267 -0.10328171
0.14224848 -0.13893445 0.105565324 -0.04049268 0.026745904 0.12887599 0.11816173 0.1659234
-0.0725511 0.110629134 0.053207856 0.06701364 -0.024444463 -0.12737635 0.1282033 -0.12805991
-0.030999923 -0.03504137 0.09650246 0.031981602 0.1375993 -0.003186559 0.03947139 0.120390534

i2h.bias f4 [242]
00000000: c8f9 b8bb d8e7 d8bb eaf6 6c3c 6498 c7bc
00000010: a3d8 a63c 36a1 4fbb 5003 aebc 8966 a4bc
00000020: 5565 41bc 19e5 ce3c f786 3d3b beb0 d63a
00000030: dc22 62bc ad86 da3c a1e9 20bc 31e3 73bc
00000040: a9d2 d0bb dfc8 31bc eaf5 783b 0a9b 123c
00000050: 3da0 90bc 9ebe 2cbc 42a5 3c3c 6afa 293b
00000060: 8abd cabc 0092 ba3a 56f4 963a 96ce 383b
00000070: fa14 49bc 6976 2b3c 9720 743b 3bff 58bc
00000080: 7655 09bc 4ab0 36bc ea8e e23c 37bc 1b3c
00000090: 34d1 873c f121 b93a aaab 71bb 5480 2a3c
000000a0: d186 543c e515 81bc 7f69 623c 9e21 09bc
000000b0: 559d 07bd b38f 9d3b e74e f43b a7a2 c1b8
000000c0: 3c27 04bc 0b20 a8bc eda9 993c 08e4 873c
000000d0: 2bcc a83c fb28 d33b f9d6 2e3d ba64 a1bc
000000e0: 72e9 bc3c aed6 733a a474 1fbd 01a0 d939
000000f0: 5628 d5bb 9935 093c 4b07 3fbc abeb 023c
00000100: 27d7 3cbc 205c e8bb 01f8 d6bb d685 44bb
00000110: 7206 8a3b f319 9cbb 8b3a babb 3852 523b
00000120: 1bc5 903c 1b36 debb 84e7 8dbc 9553 3dbb
00000130: 9569 f3ba a0d3 c0bc 5e98 41bb b66e 9c3c
00000140: d454 f9bb 8c92 e33a c3a0 39bb 0e5a 8fbc
00000150: a705 cb3b 5613 ff3b 0087 903b 2b64 bebb
00000160: a17f 0bbc 55e4 a0bb d6ef 9e3b b92b 90bc
00000170: b9dc 063c d1f8 023c 2cc0 27bb 775c 613b
00000180: c12e ff3b 2d8a 71bc 0601 02bc 0e36 d3bb
00000190: 7145 1f3d 3890 853b a2f9 71bc d017 9338
000001a0: d758 cabc 9e92 0bbb 701a 99bc 5ac2 57bc
000001b0: b806 d4bc 1cd4 0e3d 9677 943b 1152 8d3c
000001c0: 2c5e 11bc c0d4 a53b a024 13bb c8e0 a6b8
000001d0: 5238 3e3c 789d d3bc c269 9e3b 773a 393c
000001e0: ea31 8f3a 796c b739 b52c ed3b 7f63 263d
000001f0: 4ea6 b3bb 9dd4 fcbb 223d 023d aeb3 bdbc
00000200: 8fc9 2cbc 7e06 20bb 5a73 183b 436a d13c
00000210: 742b 6bbb 867c 2d3c 1836 efbb ccd9 163b
00000220: 8f06 f73c 46f7 4c3c a856 9a3b 72c7 41bc
00000230: 65e9 973a 90a9 113b 2c2c 123c 3dba c039
00000240: 8ce8 7dbc e584 47bc a076 ac3c 2169 efbb
00000250: f5cc 993c 072f 8dbb 8edb b4bb eeef 9e3c
00000260: 38fb 41bc 92fc 8cbc 2044 93bc bc10 83bc
00000270: 6dd0 4e3a 96af 193d e8d6 ba3c 1fa9 55bc
00000280: 387c a1bc 01cc 54bc 3bc9 bbbb d133 023b
00000290: 3ac0 0a3d a5b1 b33c 7073 5d3c c7dc 40bb
000002a0: 3600 a5ba 689c 493d 28e6 8fba 5503 853c
000002b0: 674a 09bc 957e 2bbc c025 65bc 446a 0d3d
000002c0: 9440 b4ba 44ab 11bb 98a4 96bb f213 42bc
000002d0: f935 fcbb 2fff b53c 1ac9 00bc 94da 77bc
000002e0: d039 89bc d4c1 87bc d059 78bc 771d dfbc
000002f0: 2c8b 7ebc 6b80 823c 593c d03a 8eb3 333c
00000300: e2f9 7d3c 6063 bdbb bee5 a23a 41aa b43b
00000310: fa8a 883c 86d7 90bc a559 0a3b 21f8 9a3c
00000320: 0daf b4bb 8972 c6ba 575c 283b f3fa 7f3c
00000330: 7e44 2b3c f226 3b3c ba59 d63b 9b1c 873c
00000340: 922e ff3b 29da 0bbc 1d28 9cbc 822d b0b9
00000350: 366f c5bc c2e8 c43c bba5 14bc 194d 8dbb
00000360: 12c5 0abc e2d7 ce3b 48c5 8abc d691 4cbb
00000370: 1f5c 12bc e1e3 23bc ab0f 20bc a326 6dbc
00000380: c5b3 9abc f102 f6bb f45d 13bc 6dda d1bb
00000390: 891a d83a 96d9 f2ba 9ecb cf3a b55d 313d
000003a0: eb46 16bc c614 e53b 42f5 8ebc 3878 88ba
000003b0: ddf6 b4bc 08d1 e03a fcf3 653c 5062 ffbb
000003c0: 2d2f ddbb 590e 283c
-0.0056450106 -0.006619435 0.014463166 -0.024364658 0.020366972 -0.0031681783 -0.021241814 -0.020068424
-0.011803945 0.025255727 0.0028919557 0.0016379578 -0.013802256 0.026675547 -0.0098213265 -0.01488571
-0.006372769 -0.010851114 0.0037988373 0.008948097 -0.017654533 -0.010543494 0.01151401 0.0025936612
-0.024748582 0.0014234185 0.001151691 0.0028199307 -0.012273068 0.010465243 0.003725087 -0.013244445
-0.008382192 -0.011150429 0.027656037 0.009505323 0.016579248 0.0014124495 -0.0036876001 0.010406572
0.012971596 -0.01575751 0.013819098 -0.008369831 -0.033109028 0.00480839 0.007455695 -9.2332535e-05
-0.008065995 -0.020523092 0.018757785 0.016588226 0.020605167 0.0064440942 0.042685483 -0.01970135
0.023060534 0.0009301704 -0.038929597 0.00041508678 -0.0065050526 0.008374595 -0.011659454 0.007990758
-0.011525906 -0.0070910603 -0.006560326 -0.0029987 0.004212194 -0.0047638356 -0.0056832484 0.0032092463
0.017672112 -0.006781352 -0.01732231 -0.002888893 -0.0018570895 -0.02353841 -0.002954028 0.01909576
-0.0076089893 0.00173624 -0.0028324581 -0.017498996 0.006195742 0.0077842874 0.0044106245 -0.005810281
-0.008514316 -0.004910032 0.004850368 -0.017598974 0.008231335 0.007993893 -0.002559672 0.0034387389
0.007787556 -0.014742416 -0.007934814 -0.006445653 0.038884584 0.00407603 -0.01476899 7.013942e-05
-0.024700565 -0.0021297107 -0.018689364 -0.013168896 -0.02588211 0.034870252 0.0045308573 0.017251046
-0.00887255 0.005060762 -0.002245225 -7.9573656e-05 0.0116101075 -0.025831923 0.0048343847 0.011305443
0.001092491 0.00034985298 0.0072379955 0.04062223 -0.0054824715 -0.007715775 0.031796582 -0.023156967
-0.010546102 -0.0024417932 0.0023262114 0.025563365 -0.0035884054 0.010588771 -0.0073001496 0.0023018
0.030154495 0.012510126 0.0047100373 -0.011827337 0.0011589943 0.0022226311 0.008921664 0.00036759852
-0.015497338 -0.012177681 0.021052659 -0.0073062335 0.018774489 -0.0043085846 -0.005519337 0.019401517
-0.01183968 -0.017210279 -0.01797682 -0.01599919 0.0007889334 0.037520967 0.022807553 -0.01304081
-0.019712552 -0.012988091 -0.0057307757 0.001986731 0.033874728 0.021935293 0.013516292 -0.0029428469
-0.0012588564 0.049221426 -0.0010978626 0.01623694 -0.008379555 -0.010467191 -0.013986051 0.03452517
-0.0013752156 -0.0022227326 -0.004597258 -0.011845576 -0.0076968637 0.022216408 -0.007860446 -0.015127797
-0.0167512 -0.016571917 -0.015158132 -0.02723573 -0.015536111 0.015930375 0.0015887126 0.010968102
0.015501471 -0.0057796687 0.0012428088 0.00551346 0.016667832 -0.017680895 0.0021110561 0.018917145
-0.0055140317 -0.0015140335 0.0025689804 0.015623796 0.0104533415 0.0114228595 0.006541458 0.016493132
0.007787534 -0.0085359 -0.019062096 -0.00033603242 -0.024100881 0.024036769 -0.009072716 -0.0043121693
-0.008469837 0.0063123563 -0.016939774 -0.0031214855 -0.008933096 -0.010003061 -0.009769361 -0.014474544
-0.018884549 -0.007507675 -0.008994568 -0.006404212 0.00164874 -0.001852798 0.0015853529 0.043302257
-0.009172182 0.006991002 -0.017450932 -0.0010411805 -0.02209037 0.001715214 0.014035221 -0.007793702
-0.0067500086 0.010257327

h2o.weight f4 [6, 242]
00000000: 96c9 6abd 3d5b b3bd 2d35 943d cb8a 103e
00000010: 4bb8 0e3e 7ca8 10be 3282 ec3d c2f8 c33c
00000020: 8e33 f03d 7281 c43d 60d6 eabd d88b d3bc
00000030: 4c12 333d c917 023e 1ccd bebd 460f c1bd
00000040: 1555 153e 9f7f 4a3d 5fac e6bb 552d 823d
00000050: cc14 34be e57d 113d f6fc 07be d936 b53d
00000060: aa7e 103e c1fe 903d 9f7a 7ebd 1b5a 05be
00000070: 9549 403d f74c bdbd 2ae2 ad3d d283 9c3d
00000080: 44c2 f83d 08da 113d b658 883d 3002 413d
00000090: 141a 22bd a55c 6bbd cba9 013e d691 27bd
000000a0: b68f 213c 6b59 0b3e a8f1 02be e7f7 b03d
000000b0: 85b6 f33d ad5e d1bd 2db7 bf3d 37d0 b73d
000000c0: 98d1 e4bd 6563 8bbc d07a 353e 0078 1c3e
000000d0: aa6e 2dbe 5567 5c3c 5fab 923d 5565 2abd
000000e0: 6b3c 0f3d 49af a3bd a7e6 0f3e 2691 0a3d
000000f0: aa39 05be dfca e9bd cffd e63d ef2f eebd
00000100: 5186 c8bc 190c 5ebd ee9d aabb 0854 78bd
00000110: 5274 0ebe ad1c 96bd 14ab c7bd 4064 01be
00000120: 3daa 85bd 551e fb3d 115b 44bc 0b4e 6bbd
00000130: 762f fe3c 2275 e53d aa79 02be 7cf8 63bc
00000140: dc60 023b 9a3f 08be cb17 63bd 3947 153e
00000150: 3b46 cb3d 185f b93d 13c4 00be 017f 003e
00000160: 2a50 c1bd 5458 0c3e 1deb 03be 4bbf 2b3d
00000170: 1d56 b8bd 20dc aebc b2dd 06bd f1d1 64bd
00000180: 2f5b 15bd 8240 9ebd c7a6 073e 14ea 253e
00000190: 3af3 13be edf2 343d ff24 1f3b 6c3a de3d
000001a0: d14b 05bd de4f ea3d 94fd 1bbc 2f35 193e
000001b0: 6af2 133e d1a1 983d 646e 303e 84f1 7fbe
000001c0: 9bb0 653c 2cf7 16be 1e41 16be ad0e 24bd
000001d0: a26f c7bd 8585 de3d 1a29 d1bd 4370 443d
000001e0: cf5d c53d ae0a f7bc fd59 1bbe 63bc 70be
000001f0: 9ce5 993d 3887 253c 8ee6 043c e661 e13d
00000200: 4710 9d3d 0ade 583d ae76 a7bd 0585 49bd
00000210: 9ab7 0fbd 7b46 77bd 83d8 9a3d ff02 fd3d
00000220: ff7c b5ba a13a 32be 550b 193d 5e66 0b3e
00000230: 8931 b2bd 2bdd d63d e3e7 183e 2d2d 10bd
00000240: 11b4 1a3e f220 033e 2963 34be 8acc eabd
00000250: e72f 6bbd 2cf6 b23c 849d 683d cbde 39bd
00000260: ac1a 5d3a 1f92 0b3d 85db 0b3e df40 ec3d
00000270: 4c95 7ebd f229 2abe 5444 473d 5076 cc3d
00000280: 597a 953d bb18 8fbd b809 883b d4cf fabc
00000290: 95f8 b73c dc3b 1abd 1219 51bd 9661 7cbd
000002a0: 5bc8 0fbe 4158 4abe 644d aa3b a6f5 debd
000002b0: 6e86 b3bd 0928 0fbd 4864 203e 0508 49bd
000002c0: feef 7c3d 863c 57bc 6d15 733d ab20 f33d
000002d0: 365c 11bd 402b 79bd 849a 073e 8e80 703d
000002e0: 9efa 903c d16d 1e3e f3e2 7039 b4be efbd
000002f0: 6bbb 123e b092 5cbd a007 a43d 82e9 b6bc
00000300: 5967 47be 542d c23d 527f c13d 97c8 fe3d
00000310: 377c 0a3e dd97 433d b75b 9ebd f668 03be
00000320: 5af7 d13d 6ebb 7fbd fba2 bbbd d12b ed3d
00000330: f84c 9ebd 5372 213e a4c0 8a3b ef61 2e3e
00000340: edc0 b73d 057b 093e 6596 a53a 1dfe 363d
00000350: 5ec4 ad3d d5f9 ebbd b2a1 053e 37be ecbc
00000360: 3181 a03d b0f1 6bbe df37 583d 643b 3bbd
00000370: 8b2c 9f3d cc32 fe3d 7b2b 0a3e 1ae8 0c3e
00000380: c022 013d edcf c93d cc34 173e 30d2 ff3d
00000390: 29e4 1bbd 2072 7ebd e0d8 b0bd 0b1c 893d
000003a0: ece4 e43d 12c7 503e 57c6 dbbc 0fef 43bd
000003b0: 1323 b13d 82ea 6bbb a462 8bbd 7a39 813d
000003c0: b878 093d 6554 eabd 4d60 acbd c9b7 f0bd
000003d0: de0e 013e 1630 aa3d 6e80 f93d 572a 48bb
000003e0: 2e28 efbd 4e4c d43d 20fc 043e b842 043e
000003f0: 9286 7bbd 7708 753d 965d 1dbe 80fb 42be
-0.057321154 -0.08757637 0.07236705 0.14115445 0.1393749 -0.14126772 0.1154827 0.023922328
0.11728583 0.09595002 -0.1146667 -0.025823519 0.04371862 0.12704386 -0.09316465 -0.09426741
0.14583237 0.049438115 -0.007039591 0.06356303 -0.17586058 0.035520453 -0.1328009 0.08848352
0.14110819 0.070798405 -0.06212866 -0.13022654 0.046945173 -0.092431955 0.08490403 0.0764233
0.12146428 0.03560832 0.06657545 0.047121227 -0.03957565 -0.0574614 0.12662427 -0.040910564
0.0098609235 0.13608329 -0.12787497 0.086410336 0.11900047 -0.10223136 0.0936111 0.08975261
-0.11172789 -0.017015168 0.1772263 0.15280151 -0.16936746 0.013452371 0.07161593 -0.041600544
0.03496973 -0.07992417 0.1405283 0.03382983 -0.13010278 -0.11415648 0.11278879 -0.11630236
-0.02447811 -0.054210756 -0.005206815 -0.060627013 -0.1391156 -0.07329688 -0.097494274 -0.12635899
-0.06526611 0.12261645 -0.011984603 -0.057447474 0.03102849 0.11203982 -0.12741724 -0.013914224
0.0019894158 -0.13305512 -0.055442613 0.1457795 0.09925505 0.09051341 -0.12574796 0.12548448
-0.09439118 0.1370557 -0.12882657 0.041930478 -0.090008 -0.021345198 -0.03292627 -0.05586428
-0.036463913 -0.07727148 0.13247214 0.16202575 -0.14448252 0.044176985 0.0024283526 0.10850987
-0.032543007 0.11441015 -0.009520907 0.14961694 0.14447942 0.07452739 0.1722961 -0.24994475
0.014019157 -0.14742726 -0.14673278 -0.04005306 -0.09738089 0.108653106 -0.102129176 0.047958624
0.09637033 -0.03015646 -0.15171047 -0.23509364 0.07514498 0.010103039 0.008111609 0.11005001
0.0766912 0.052946128 -0.08176933 -0.049199123 -0.035087205 -0.06036995 0.075608276 0.12354087
-0.0013846456 -0.17405178 0.037364323 0.13613269 -0.08700854 0.10491403 0.14932208 -0.035199333
0.15107752 0.12805536 -0.17615952 -0.11464794 -0.05741873 0.0218459 0.056790844 -0.045378488
0.00084344554 0.0340749 0.13657959 0.11535811 -0.0621541 -0.16617563 0.048649147 0.09983504
0.072987266 -0.06987139 0.004151549 -0.030616678 0.0224574 -0.037654743 -0.0510493 -0.061616503
-0.14041273 -0.19760229 0.005197214 -0.108866975 -0.08765875 -0.03495029 0.15663254 -0.049079914
0.061752312 -0.0131369885 0.059346605 0.11871465 -0.03548833 -0.060832262 0.13242537 0.05871635
0.017697629 0.15471579 0.00022972729 -0.117062956 0.14329307 -0.05385083 0.08009267 -0.022328142
-0.19473018 0.09481302 0.094481125 0.12440603 0.13523947 0.04775225 -0.07732337 -0.12833008
0.10252257 -0.062434606 -0.091619454 0.11580623 -0.077295244 0.15766267 0.0042343903 0.17029546
0.089723445 0.13425834 0.0012633322 0.044675935 0.0848472 -0.11522261 0.13049963 -0.028899295
0.07837141 -0.23041415 0.052787658 -0.045710936 0.07772168 0.124120325 0.13493149 0.13760415
0.03152728 0.09854112 0.14766234 0.12491262 -0.038059387 -0.062120557 -0.086351156 0.06694802
0.11176476 0.2038844 -0.026827974 -0.047835406 0.08649268 -0.0035997932 -0.068059236 0.06309791
0.033562392 -0.11441878 -0.084168054 -0.11753804 0.12603328 0.08309953 0.12182699 -0.0030542815
-0.116775855 0.103661165 0.12986803 0.12916076 -0.061407633 0.059822526 -0.15367731 -0.19041252

h2o.bias f4 [6]
00000000: d353 15bc ba5a 5e3b 41a1 463c 94b3 0a3c
00000010: ffde 98ba 3fcd 403c
-0.0091142235 0.003392859 0.012123407 0.008465666 -0.0011663138 0.0117676845

h2h.weight f4 [242, 242]
00000000: 244e 1f3e 6d50 203b b839 17bc 1155 31bd
00000010: adf9 6d3c a22e dbbc b8c9 d93b 1640 e93c
00000020: 697f 83bd 290d 8c3d e4fc c03d bf64 7dbc
00000030: cf1a a43d 49da 99bc ddc4 2a3d 9d4a c7bd
00000040: 4911 663c 60b6 663d e4db 03be a568 cebb
00000050: 5b95 cf3d 22b0 18bd 368d 4e3d 27c4 a0bd
00000060: e4ee 0f3d 6429 dc3b d0c4 e9bc b157 a93b
00000070: 5cc2 8abd bd22 f93d 525e 5ebc 7520 71bd
00000080: fee2 81bc 4b60 acbd 9662 963d 7901 aabd
00000090: 8fa2 083e 5064 98bd 51df 233c 3152 5fbc
000000a0: ee77 c5ba fb8a db3b 65a3 f63c ce22 a83d
000000b0: ae97 d5bc 6dcd 0bbd b0db 7abd b760 f1bc
000000c0: 8847 26bd ed81 b83c 22b8 533d 8dea 1d3d
000000d0: c421 e1bc bd91 543d 7a20 31bd c4b4 e8bc
000000e0: f480 fa3d cb63 05be 42d3 933c 175f 323e
000000f0: 1192 a73d 9313 e3bd c15d 143d 399d c8bd
00000100: 16aa 09bd d7ac 8ebc 78d6 dc3c abd1 91bd
00000110: cbf6 04bd 9d3e 1cbc 8d16 323d 7790 7ebc
00000120: 7993 1a3d 06e5 94bc 0d45 263d 2338 a33c
00000130: 43e1 5d3d da23 1d3d d6d3 09bd 9648 363d
00000140: 2910 733c 9b82 b0bc f635 433d dc76 e93b
00000150: 335b 7d3d 0cc9 4dbd 70fa 84bd 78f5 29bd
00000160: c7dd 153e 9719 7b3d feb4 8a3c 56f8 a1bc
00000170: a311 723d 5869 af3c d496 83bc cf27 0b3d
00000180: 918c e5bc 6e05 61bd 0dcd aebd 7fd6 73bd
00000190: 17ea c8bd 45ff 3cbd 8df2 8ebc 9b44 973c
000001a0: a40a 1d3e 6449 fc3c 9599 843d 6aa2 ad3c
000001b0: 1db4 91bc 18b4 b03b 4a8c 533c b4f2 7e3b
000001c0: 81e9 f7bd 1918 adbd f585 8a3d 01f8 9bbd
000001d0: b070 92bc d2a1 1e3e 2d6d 0e3e 0906 2a3d
000001e0: 1f70 27bc d66b 97bb adf3 1bbb 34ed 8cbd
000001f0: e898 f13b 08fe 87bd adb0 083e 4733 8a3b
00000200: f232 6e3d 72c9 e3bb f9f1 1f3d fa66 9b3c
00000210: 19a6 cfbc e85a 3dbd a46d 343d 62d9 833c
00000220: 52ac c63d 763e a83c 0426 31bc f884 d9bc
00000230: 8c03 bbbd f1fe 9b3d 480f 133e f32b d3bc
00000240: 5935 0c3e 6250 9abb 704a 9ebd 9411 d5bd
00000250: 527f 8ebc 2211 0dbc 8377 c13c 5c5e d7bc
00000260: 08b9 c3bd f924 763c 1f6e 163e 1716 323d
00000270: 94fc 92bd df61 9bbd f29d 983d 51f8 653c
00000280: c376 1c3d 4687 0bbe 5651 83bd 04e4 51bc
00000290: 924a b4bc e229 0a3d 1036 943d 3a19 063e
000002a0: cffd 4f3c ae59 b93d fd87 2ebc fffc 3e3d
000002b0: c702 b2ba 6f51 bfbd bdef bbbd 23f9 b23d
000002c0: fd95 bb3c 2bfd 013d 2e4a 04be e390 623d
000002d0: fc1c b3bc 3138 c83d c9e9 04be 765a 783c
000002e0: 534b 14be 48ea eabb 477c 003e d72e 793e
000002f0: cb96 80bd 50e6 98bc 9da3 a63c ef16 adbc
00000300: dfdf b23d 6729 033d 0dea c9bc 32d3 69bc
00000310: 31bb 353c 6e48 dfbd af4e 853d 75a9 d43c
00000320: 154e 173e a2dd 863d 874d 84bd e8ff b6bd
00000330: bd30 e1bd ad79 7d3d 47a9 b3bd 1a29 423d
00000340: dd56 36bd 4cb8 49bd 8ae7 94bd 5724 aebd
00000350: 688f 113d a62d ed3d 9930 36bd f8ea 183b
00000360: 3a57 943d 6978 81bd b8c8 b43d 8b13 fd3c
00000370: 9899 593d ecc3 dfbd b173 b3bc 1634 283c
00000380: 1059 0a3d 284f 0bbc d481 9abd d7ce d63d
00000390: 7ff0 51bc 624b 1fbc 6ac0 d5bd 4a65 a73d
000003a0: 3daf 0e3d f470 253c e339 503c c940 ad3d
000003b0: bf57 0f3c d792 a03b 8a76 ca3d 98d4 6c3b
000003c0: c568 f0bc 2d5d 263e 25e7 743d 95d4 88bd
000003d0: 983b f83c 3115 56bd e1b6 0fbe df54 3dbd
000003e0: 0f3c 673d 10fb 0b3e a981 423d 056e ef3b
000003f0: 9207 07bc 6e6c f7bd b279 0fbd f84c 903d
0.15557152 0.0024462 -0.00923007 -0.043294016 0.014524859 -0.026755635 0.006646361 0.028472941
-0.06420786 0.068384476 0.09423235 -0.015465914 0.08012926 -0.018780844 0.04169165 -0.09731028
0.014042207 0.05632627 -0.1287685 -0.0062990957 0.10135909 -0.03727735 0.050427638 -0.07849913
0.035139933 0.0067188013 -0.02853623 0.0051679243 -0.06775352 0.12164829 -0.013572292 -0.058868844
-0.015855309 -0.08416804 0.073430225 -0.08301062 0.13343261 -0.07441008 0.010001973 -0.013630436
-0.0015065649 0.0066999174 0.03010721 0.082097635 -0.026073303 -0.034131456 -0.061244667 -0.029465063
-0.04059556 0.022522891 0.051689275 0.038553763 -0.027481921 0.0518968 -0.043243863 -0.028406508
0.12231627 -0.13026349 0.018045072 0.17419086 0.08182157 -0.11087718 0.036222223 -0.09795613
-0.033609472 -0.0174164 0.026957735 -0.07120069 -0.032461923 -0.009536413 0.043478537 -0.015537373
0.037738297 -0.018175613 0.040593196 0.019924229 0.054169904 0.03836427 -0.033649288 0.044502817
0.014835396 -0.021546653 0.047658883 0.007124765 0.061854552 -0.05024056 -0.0649308 -0.041493863
0.14635383 0.0613037 0.016932007 -0.019771736 0.05909885 0.021412537 -0.016063131 0.03397351
-0.028021129 -0.05493682 -0.08535204 -0.05953073 -0.09810274 -0.04614188 -0.017449642 0.01846533
0.1533609 0.030796714 0.06474606 0.02119561 -0.01778608 0.0053925626 0.0129118655 0.0038901987
-0.12105084 -0.08451862 0.067638315 -0.07615662 -0.017876 0.15491417 0.13908835 0.04150966
-0.010219603 -0.0046210093 -0.0023796365 -0.068811804 0.007372964 -0.066402495 0.13348646 0.0042175385
0.058154054 -0.0069515044 0.039049122 0.018970001 -0.025347756 -0.046229273 0.044049874 0.016094867
0.09700836 0.020537596 -0.010812286 -0.026552662 -0.09131536 0.076169856 0.14361298 -0.025777793
0.13692226 -0.0047092894 -0.077290416 -0.104037434 -0.017394695 -0.008610042 0.023616558 -0.026290111
-0.09556776 0.015023463 0.14690445 0.043478098 -0.07177082 -0.07587027 0.07452001 0.014036254
0.038199198 -0.13625821 -0.06411998 -0.012810711 -0.022008214 0.03373135 0.07236874 0.1309556
0.01269479 0.09050308 -0.010652539 0.046627995 -0.001358115 -0.09341704 -0.09176586 0.08738925
0.022898668 0.03173558 -0.12918922 0.055313956 -0.021864407 0.09776343 -0.12979807 0.015158286
-0.14481859 -0.007169042 0.12547408 0.24334274 -0.062787615 -0.018664509 0.020341689 -0.0211291
0.08734106 0.032021906 -0.024647737 -0.014271544 0.011091993 -0.10902487 0.06509148 0.02595971
0.1477588 0.06585242 -0.064601 -0.08935529 -0.10995624 0.061883617 -0.087725215 0.04740248
-0.044516433 -0.049248025 -0.07270725 -0.08503025 0.035537153 0.115809724 -0.04447994 0.0023333412
0.072432 -0.063217945 0.088273466 0.030893108 0.053124994 -0.10926041 -0.021905752 0.0102663245
0.033776343 -0.008502759 -0.07544294 0.1048867 -0.012813686 -0.0097225625 -0.10437091 0.08173616
0.03483509 0.010097731 0.012709114 0.084596224 0.008748948 0.004900317 0.09885891 0.0036137458
-0.029346833 0.16246481 0.05979075 -0.06681172 0.030301854 -0.052266303 -0.14034607 -0.046223518
0.05645376 0.13669991 0.047486935 0.0073068165 -0.008241551 -0.12081228 -0.035028167 0.070459306

h2h.bias f4 [242]
00000000: c8f9 b8bb d8e7 d8bb eaf6 6c3c 6498 c7bc
00000010: a3d8 a63c 36a1 4fbb 5003 aebc 8966 a4bc
00000020: 5565 41bc 19e5 ce3c f786 3d3b beb0 d63a
00000030: dc22 62bc ad86 da3c a1e9 20bc 31e3 73bc
00000040: a9d2 d0bb dfc8 31bc eaf5 783b 0a9b 123c
00000050: 3da0 90bc 9ebe 2cbc 42a5 3c3c 6afa 293b
00000060: 8abd cabc 0092 ba3a 56f4 963a 96ce 383b
00000070: fa14 49bc 6976 2b3c 9720 743b 3bff 58bc
00000080: 7655 09bc 4ab0 36bc ea8e e23c 37bc 1b3c
00000090: 34d1 873c f121 b93a aaab 71bb 5480 2a3c
000000a0: d186 543c e515 81bc 7f69 623c 9e21 09bc
000000b0: 559d 07bd b38f 9d3b e74e f43b a7a2 c1b8
000000c0: 3c27 04bc 0b20 a8bc eda9 993c 08e4 873c
000000d0: 2bcc a83c fb28 d33b f9d6 2e3d ba64 a1bc
000000e0: 72e9 bc3c aed6 733a a474 1fbd 01a0 d939
000000f0: 5628 d5bb 9935 093c 4b07 3fbc abeb 023c
00000100: 27d7 3cbc 205c e8bb 01f8 d6bb d685 44bb
00000110: 7206 8a3b f319 9cbb 8b3a babb 3852 523b
00000120: 1bc5 903c 1b36 debb 84e7 8dbc 9553 3dbb
00000130: 9569 f3ba a0d3 c0bc 5e98 41bb b66e 9c3c
00000140: d454 f9bb 8c92 e33a c3a0 39bb 0e5a 8fbc
00000150: a705 cb3b 5613 ff3b 0087 903b 2b64 bebb
00000160: a17f 0bbc 55e4 a0bb d6ef 9e3b b92b 90bc
00000170: b9dc 063c d1f8 023c 2cc0 27bb 775c 613b
00000180: c12e ff3b 2d8a 71bc 0601 02bc 0e36 d3bb
00000190: 7145 1f3d 3890 853b a2f9 71bc d017 9338
000001a0: d758 cabc 9e92 0bbb 701a 99bc 5ac2 57bc
000001b0: b806 d4bc 1cd4 0e3d 9677 943b 1152 8d3c
000001c0: 2c5e 11bc c0d4 a53b a024 13bb c8e0 a6b8
000001d0: 5238 3e3c 789d d3bc c269 9e3b 773a 393c
000001e0: ea31 8f3a 796c b739 b52c ed3b 7f63 263d
000001f0: 4ea6 b3bb 9dd4 fcbb 223d 023d aeb3 bdbc
00000200: 8fc9 2cbc 7e06 20bb 5a73 183b 436a d13c
00000210: 742b 6bbb 867c 2d3c 1836 efbb ccd9 163b
00000220: 8f06 f73c 46f7 4c3c a856 9a3b 72c7 41bc
00000230: 65e9 973a 90a9 113b 2c2c 123c 3dba c039
00000240: 8ce8 7dbc e584 47bc a076 ac3c 2169 efbb
00000250: f5cc 993c 072f 8dbb 8edb b4bb eeef 9e3c
00000260: 38fb 41bc 92fc 8cbc 2044 93bc bc10 83bc
00000270: 6dd0 4e3a 96af 193d e8d6 ba3c 1fa9 55bc
00000280: 387c a1bc 01cc 54bc 3bc9 bbbb d133 023b
00000290: 3ac0 0a3d a5b1 b33c 7073 5d3c c7dc 40bb
000002a0: 3600 a5ba 689c 493d 28e6 8fba 5503 853c
000002b0: 674a 09bc 957e 2bbc c025 65bc 446a 0d3d
000002c0: 9440 b4ba 44ab 11bb 98a4 96bb f213 42bc
000002d0: f935 fcbb 2fff b53c 1ac9 00bc 94da 77bc
000002e0: d039 89bc d4c1 87bc d059 78bc 771d dfbc
000002f0: 2c8b 7ebc 6b80 823c 593c d03a 8eb3 333c
00000300: e2f9 7d3c 6063 bdbb bee5 a23a 41aa b43b
00000310: fa8a 883c 86d7 90bc a559 0a3b 21f8 9a3c
00000320: 0daf b4bb 8972 c6ba 575c 283b f3fa 7f3c
00000330: 7e44 2b3c f226 3b3c ba59 d63b 9b1c 873c
00000340: 922e ff3b 29da 0bbc 1d28 9cbc 822d b0b9
00000350: 366f c5bc c2e8 c43c bba5 14bc 194d 8dbb
00000360: 12c5 0abc e2d7 ce3b 48c5 8abc d691 4cbb
00000370: 1f5c 12bc e1e3 23bc ab0f 20bc a326 6dbc
00000380: c5b3 9abc f102 f6bb f45d 13bc 6dda d1bb
00000390: 891a d83a 96d9 f2ba 9ecb cf3a b55d 313d
000003a0: eb46 16bc c614 e53b 42f5 8ebc 3878 88ba
000003b0: ddf6 b4bc 08d1 e03a fcf3 653c 5062 ffbb
000003c0: 2d2f ddbb 590e 283c
-0.0056450106 -0.006619435 0.014463166 -0.024364658 0.020366972 -0.0031681783 -0.021241814 -0.020068424
-0.011803945 0.025255727 0.0028919557 0.0016379578 -0.013802256 0.026675547 -0.0098213265 -0.01488571
-0.006372769 -0.010851114 0.0037988373 0.008948097 -0.017654533 -0.010543494 0.01151401 0.0025936612
-0.024748582 0.0014234185 0.001151691 0.0028199307 -0.012273068 0.010465243 0.003725087 -0.013244445
-0.008382192 -0.011150429 0.027656037 0.009505323 0.016579248 0.0014124495 -0.0036876001 0.010406572
0.012971596 -0.01575751 0.013819098 -0.008369831 -0.033109028 0.00480839 0.007455695 -9.2332535e-05
-0.008065995 -0.020523092 0.018757785 0.016588226 0.020605167 0.0064440942 0.042685483 -0.01970135
0.023060534 0.0009301704 -0.038929597 0.00041508678 -0.0065050526 0.008374595 -0.011659454 0.007990758
-0.011525906 -0.0070910603 -0.006560326 -0.0029987 0.004212194 -0.0047638356 -0.0056832484 0.0032092463
0.017672112 -0.006781352 -0.01732231 -0.002888893 -0.0018570895 -0.02353841 -0.002954028 0.01909576
-0.0076089893 0.00173624 -0.0028324581 -0.017498996 0.006195742 0.0077842874 0.0044106245 -0.005810281
-0.008514316 -0.004910032 0.004850368 -0.017598974 0.008231335 0.007993893 -0.002559672 0.0034387389
0.007787556 -0.014742416 -0.007934814 -0.006445653 0.038884584 0.00407603 -0.01476899 7.013942e-05
-0.024700565 -0.0021297107 -0.018689364 -0.013168896 -0.02588211 0.034870252 0.0045308573 0.017251046
-0.00887255 0.005060762 -0.002245225 -7.9573656e-05 0.0116101075 -0.025831923 0.0048343847 0.011305443
0.001092491 0.00034985298 0.0072379955 0.04062223 -0.0054824715 -0.007715775 0.031796582 -0.023156967
-0.010546102 -0.0024417932 0.0023262114 0.025563365 -0.0035884054 0.010588771 -0.0073001496 0.0023018
0.030154495 0.012510126 0.0047100373 -0.011827337 0.0011589943 0.0022226311 0.008921664 0.00036759852
-0.015497338 -0.012177681 0.021052659 -0.0073062335 0.018774489 -0.0043085846 -0.005519337 0.019401517
-0.01183968 -0.017210279 -0.01797682 -0.01599919 0.0007889334 0.037520967 0.022807553 -0.01304081
-0.019712552 -0.012988091 -0.0057307757 0.001986731 0.033874728 0.021935293 0.013516292 -0.0029428469
-0.0012588564 0.049221426 -0.0010978626 0.01623694 -0.008379555 -0.010467191 -0.013986051 0.03452517
-0.0013752156 -0.0022227326 -0.004597258 -0.011845576 -0.0076968637 0.022216408 -0.007860446 -0.015127797
-0.0167512 -0.016571917 -0.015158132 -0.02723573 -0.015536111 0.015930375 0.0015887126 0.010968102
0.015501471 -0.0057796687 0.0012428088 0.00551346 0.016667832 -0.017680895 0.0021110561 0.018917145
-0.0055140317 -0.0015140335 0.0025689804 0.015623796 0.0104533415 0.0114228595 0.006541458 0.016493132
0.007787534 -0.0085359 -0.019062096 -0.00033603242 -0.024100881 0.024036769 -0.009072716 -0.0043121693
-0.008469837 0.0063123563 -0.016939774 -0.0031214855 -0.008933096 -0.010003061 -0.009769361 -0.014474544
-0.018884549 -0.007507675 -0.008994568 -0.006404212 0.00164874 -0.001852798 0.0015853529 0.043302257
-0.009172182 0.006991002 -0.017450932 -0.0010411805 -0.02209037 0.001715214 0.014035221 -0.007793702
-0.0067500086 0.010257327
