TBCAS24/intuitivechip_classifier_lcsvsnlcs_run3/SNN_ep-150-isize-1-8-1-hsize-242-bsize-32-lr-0.001-tmax_ms-400.0-Ts-10.0-k-6-dsetPath-IMODE_allchannels_ALLCLASS_auto_nospkfilter_cleaned_12x16_9mvpp_250mvofs_onedac_itail_50nA_ith_10n_ispk_50u_islew_1n_vil_0p9_fast/chip-classifier-test-0-best.pt (torch, 253495 bytes, 8 tensors)

thr_h_1 f4 [242]
0	0x3f800000	1.0
1	0x3f800000	1.0
2	0x3f800000	1.0
3	0x3f800000	1.0
4	0x3f800000	1.0
5	0x3f800000	1.0
6	0x3f800000	1.0
7	0x3f800000	1.0
8	0x3f800000	1.0
9	0x3f800000	1.0
10	0x3f800000	1.0
11	0x3f800000	1.0
12	0x3f800000	1.0
13	0x3f800000	1.0
14	0x3f800000	1.0
15	0x3f800000	1.0
16	0x3f800000	1.0
17	0x3f800000	1.0
18	0x3f800000	1.0
19	0x3f800000	1.0
20	0x3f800000	1.0
21	0x3f800000	1.0
22	0x3f800000	1.0
23	0x3f800000	1.0
24	0x3f800000	1.0
25	0x3f800000	1.0
26	0x3f800000	1.0
27	0x3f800000	1.0
28	0x3f800000	1.0
29	0x3f800000	1.0
30	0x3f800000	1.0
31	0x3f800000	1.0
32	0x3f800000	1.0
33	0x3f800000	1.0
34	0x3f800000	1.0
35	0x3f800000	1.0
36	0x3f800000	1.0
37	0x3f800000	1.0
38	0x3f800000	1.0
39	0x3f800000	1.0
40	0x3f800000	1.0
41	0x3f800000	1.0
42	0x3f800000	1.0
43	0x3f800000	1.0
44	0x3f800000	1.0
45	0x3f800000	1.0
46	0x3f800000	1.0
47	0x3f800000	1.0
48	0x3f800000	1.0
49	0x3f800000	1.0
50	0x3f800000	1.0
51	0x3f800000	1.0
52	0x3f800000	1.0
53	0x3f800000	1.0
54	0x3f800000	1.0
55	0x3f800000	1.0
56	0x3f800000	1.0
57	0x3f800000	1.0
58	0x3f800000	1.0
59	0x3f800000	1.0
60	0x3f800000	1.0
61	0x3f800000	1.0
62	0x3f800000	1.0
63	0x3f800000	1.0
64	0x3f800000	1.0
65	0x3f800000	1.0
66	0x3f800000	1.0
67	0x3f800000	1.0
68	0x3f800000	1.0
69	0x3f800000	1.0
70	0x3f800000	1.0
71	0x3f800000	1.0
72	0x3f800000	1.0
73	0x3f800000	1.0
74	0x3f800000	1.0
75	0x3f800000	1.0
76	0x3f800000	1.0
77	0x3f800000	1.0
78	0x3f800000	1.0
79	0x3f800000	1.0
80	0x3f800000	1.0
81	0x3f800000	1.0
82	0x3f800000	1.0
83	0x3f800000	1.0
84	0x3f800000	1.0
85	0x3f800000	1.0
86	0x3f800000	1.0
87	0x3f800000	1.0
88	0x3f800000	1.0
89	0x3f800000	1.0
90	0x3f800000	1.0
91	0x3f800000	1.0
92	0x3f800000	1.0
93	0x3f800000	1.0
94	0x3f800000	1.0
95	0x3f800000	1.0
96	0x3f800000	1.0
97	0x3f800000	1.0
98	0x3f800000	1.0
99	0x3f800000	1.0
100	0x3f800000	1.0
101	0x3f800000	1.0
102	0x3f800000	1.0
103	0x3f800000	1.0
104	0x3f800000	1.0
105	0x3f800000	1.0
106	0x3f800000	1.0
107	0x3f800000	1.0
108	0x3f800000	1.0
109	0x3f800000	1.0
110	0x3f800000	1.0
111	0x3f800000	1.0
112	0x3f800000	1.0
113	0x3f800000	1.0
114	0x3f800000	1.0
115	0x3f800000	1.0
116	0x3f800000	1.0
117	0x3f800000	1.0
118	0x3f800000	1.0
119	0x3f800000	1.0
120	0x3f800000	1.0
121	0x3f800000	1.0
122	0x3f800000	1.0
123	0x3f800000	1.0
124	0x3f800000	1.0
125	0x3f800000	1.0
126	0x3f800000	1.0
127	0x3f800000	1.0
128	0x3f800000	1.0
129	0x3f800000	1.0
130	0x3f800000	1.0
131	0x3f800000	1.0
132	0x3f800000	1.0
133	0x3f800000	1.0
134	0x3f800000	1.0
135	0x3f800000	1.0
136	0x3f800000	1.0
137	0x3f800000	1.0
138	0x3f800000	1.0
139	0x3f800000	1.0
140	0x3f800000	1.0
141	0x3f800000	1.0
142	0x3f800000	1.0
143	0x3f800000	1.0
144	0x3f800000	1.0
145	0x3f800000	1.0
146	0x3f800000	1.0
147	0x3f800000	1.0
148	0x3f800000	1.0
149	0x3f800000	1.0
150	0x3f800000	1.0
151	0x3f800000	1.0
152	0x3f800000	1.0
153	0x3f800000	1.0
154	0x3f800000	1.0
155	0x3f800000	1.0
156	0x3f800000	1.0
157	0x3f800000	1.0
158	0x3f800000	1.0
159	0x3f800000	1.0
160	0x3f800000	1.0
161	0x3f800000	1.0
162	0x3f800000	1.0
163	0x3f800000	1.0
164	0x3f800000	1.0
165	0x3f800000	1.0
166	0x3f800000	1.0
167	0x3f800000	1.0
168	0x3f800000	1.0
169	0x3f800000	1.0
170	0x3f800000	1.0
171	0x3f800000	1.0
172	0x3f800000	1.0
173	0x3f800000	1.0
174	0x3f800000	1.0
175	0x3f800000	1.0
176	0x3f800000	1.0
177	0x3f800000	1.0
178	0x3f800000	1.0
179	0x3f800000	1.0
180	0x3f800000	1.0
181	0x3f800000	1.0
182	0x3f800000	1.0
183	0x3f800000	1.0
184	0x3f800000	1.0
185	0x3f800000	1.0
186	0x3f800000	1.0
187	0x3f800000	1.0
188	0x3f800000	1.0
189	0x3f800000	1.0
190	0x3f800000	1.0
191	0x3f800000	1.0
192	0x3f800000	1.0
193	0x3f800000	1.0
194	0x3f800000	1.0
195	0x3f800000	1.0
196	0x3f800000	1.0
197	0x3f800000	1.0
198	0x3f800000	1.0
199	0x3f800000	1.0
200	0x3f800000	1.0
201	0x3f800000	1.0
202	0x3f800000	1.0
203	0x3f800000	1.0
204	0x3f800000	1.0
205	0x3f800000	1.0
206	0x3f800000	1.0
207	0x3f800000	1.0
208	0x3f800000	1.0
209	0x3f800000	1.0
210	0x3f800000	1.0
211	0x3f800000	1.0
212	0x3f800000	1.0
213	0x3f800000	1.0
214	0x3f800000	1.0
215	0x3f800000	1.0
216	0x3f800000	1.0
217	0x3f800000	1.0
218	0x3f800000	1.0
219	0x3f800000	1.0
220	0x3f800000	1.0
221	0x3f800000	1.0
222	0x3f800000	1.0
223	0x3f800000	1.0
224	0x3f800000	1.0
225	0x3f800000	1.0
226	0x3f800000	1.0
227	0x3f800000	1.0
228	0x3f800000	1.0
229	0x3f800000	1.0
230	0x3f800000	1.0
231	0x3f800000	1.0
232	0x3f800000	1.0
233	0x3f800000	1.0
234	0x3f800000	1.0
235	0x3f800000	1.0
236	0x3f800000	1.0
237	0x3f800000	1.0
238	0x3f800000	1.0
239	0x3f800000	1.0
240	0x3f800000	1.0
241	0x3f800000	1.0

thr_o f4 [6]
0	0x3f800000	1.0
1	0x3f800000	1.0
2	0x3f800000	1.0
3	0x3f800000	1.0
4	0x3f800000	1.0
5	0x3f800000	1.0

i2h.weight f4 [242, 8]
0	0x3d81ce24	0.06338146
1	0xbd90fa5c	-0.07079002
2	0xbd8c92a1	-0.06863905
3	0x3dd9f742	0.10642864
4	0xbe1fc566	-0.15602645
5	0x3dba69c7	0.09102207
6	0x3c2321a0	0.009956747
7	0x3d97123b	0.07376524
8	0xbe00da56	-0.12583289
9	0xbdf74246	-0.120731875
10	0xbd430118	-0.047608465
11	0xbc4f5b2c	-0.012656014
12	0x3d916737	0.07099765
13	0xbd231a56	-0.039820038
14	0x3dfd97f2	0.12382497
15	0xbdf1449b	-0.117806636
16	0x3d9553a1	0.072913416
17	0xbe0dba79	-0.13840665
18	0xbe0cff74	-0.13769323
19	0xbd0bef18	-0.034163564
20	0xbde32b5c	-0.110922545
21	0x3cc3f9a8	0.023922756
22	0xbd3ec110	-0.046570837
23	0x3dfb3f51	0.12267936
24	0x3d4b7764	0.049674407
25	0xbd735a55	-0.05941232
26	0xbd034070	-0.032043874
27	0x3e04f414	0.12983733
28	0x3de0e4ab	0.10981115
29	0xbce3564a	-0.027751107
30	0xbe0dfae2	-0.13865235
31	0xbdf36814	-0.11885086
32	0x3cd8d995	0.026470939
33	0xbe1c9d8a	-0.15294471
34	0xbd9e212b	-0.0772117
35	0xbd86e1a4	-0.06586006
36	0x3db3113a	0.0874352
37	0x3d82959b	0.06376191
38	0x3e1d922e	0.15387794
39	0xbe085012	-0.13311794
40	0x3ccb864c	0.024844311
41	0xbe1ef8a9	-0.15524544
42	0x3e042303	0.12903981
43	0xbc00e682	-0.007867457
44	0x3e08b893	0.1335166
45	0x3db707bc	0.08937022
46	0xbd700cc0	-0.05860591
47	0x3d7557fe	0.05989837
48	0xbd9f5437	-0.077797346
49	0xbcf57f43	-0.02996791
50	0x3d988464	0.074471265
51	0x3d22c33b	0.039736968
52	0x3e0dbab2	0.1384075
53	0x3dd9f2bb	0.10642
54	0xbe1519c1	-0.14560606
55	0xbd111e3c	-0.035429224
56	0xbdfbe313	-0.1229917
57	0xbd91a954	-0.07112375
58	0xbd125017	-0.03572091
59	0x3d2c4ed2	0.042067356
60	0xbe00e301	-0.12586595
61	0xbd16e18a	-0.036836185
62	0x3d51a8a6	0.051186226
63	0xbd6c788d	-0.057732154
64	0xbbf19b46	-0.0073732464
65	0xbdc57a34	-0.09642449
66	0x3db1155e	0.086466536
67	0x3e112697	0.14174877
68	0xbdc7430e	-0.097295865
69	0xbdf4da1f	-0.11955666
70	0xbd945946	-0.0724359
71	0x3dfef61c	0.124492854
72	0xbc28eb23	-0.010309967
73	0xbdfbdecd	-0.12298355
74	0xbe063cbf	-0.1310911
75	0xbdf2ad25	-0.11849431
76	0x3d65ff7a	0.056151845
77	0x3dc3c8b4	0.095597655
78	0x3e0511b2	0.12995031
79	0xbce7a880	-0.02827859
80	0xbdd169f3	-0.10225286
81	0x3d22f386	0.039783023
82	0x3d9716ed	0.073774196
83	0x3e139cef	0.14415334
84	0xbb6d8d74	-0.0036247643
85	0x3dbd0646	0.09229712
86	0xbbfc7178	-0.007703956
87	0xbddc9ece	-0.10772477
88	0xbdb65ed5	-0.089048065
89	0xbdebe5d5	-0.11518446
90	0x3e047c06	0.12937936
91	0x3df54f0c	0.119779676
92	0x3c1c95dd	0.009557215
93	0x3e1990ac	0.14996594
94	0xbd8ea5c4	-0.06965211
95	0x3e3f70b2	0.18695334
96	0xbd5f81c0	-0.0545671
97	0x3cc46799	0.02397518
98	0xbcef3cb0	-0.029203743
99	0x3cc2be11	0.023772271
100	0x3e0cf108	0.13763821
101	0x3cf50c64	0.029913135
102	0xbba10787	-0.0049142274
103	0xbdd9ad13	-0.106287144
104	0xbc8eed6b	-0.017447194
105	0x3dd39d45	0.10332731
106	0xbdd7ab38	-0.10530704
107	0xbdfac39b	-0.1224434
108	0x3e053f96	0.13012537
109	0xbd6060ba	-0.054779746
110	0xbdce91c1	-0.10086394
111	0x3d9f620a	0.07782371
112	0x3c16c1d6	0.0092014875
113	0x3dcc3b5d	0.0997226
114	0x3df8a4a6	0.12140779
115	0x3d38b62e	0.045095615
116	0xbd2007ce	-0.039069943
117	0x3c8d95b1	0.017283292
118	0x3d7e9537	0.06215402
119	0xbe0337db	-0.12814276
120	0x3df1fbda	0.11815615
121	0xbd1d16c4	-0.03835179
122	0xbb8ff436	-0.004393126
123	0xbcb55c99	-0.02213888
124	0x3c37e402	0.011223795
125	0xbbb085eb	-0.005387058
126	0x3dbe6277	0.092961244
127	0x3cd8e408	0.026475921
128	0xbcacaf62	-0.021079723
129	0x3bd497a0	0.0064878017
130	0x3e0ca859	0.13736095
131	0xbde01f43	-0.10943463
132	0x3e0447d4	0.12918025
133	0x3cf6cd37	0.030127151
134	0xbd595810	-0.0530625
135	0xbdc8b929	-0.098009415
136	0x3d8b0a45	0.06789068
137	0xbe011e3b	-0.12609188
138	0x3e172bf1	0.14762856
139	0x3d853d06	0.0650578
140	0x3d7d8de0	0.06190288
141	0xbd347f54	-0.044066742
142	0xbcb2fc01	-0.02184868
143	0xbde5018d	-0.111819364
144	0xbd925090	-0.07144272
145	0xbc587df2	-0.013213621
146	0x3bb4ec8c	0.0055213626
147	0x3e012c40	0.12614536
148	0xbdd30137	-0.10302966
149	0xbe357f86	-0.17724428
150	0xbe189155	-0.1489919
151	0xbd7d0bea	-0.06177894
152	0xbdc0d2ba	-0.09415193
153	0x3cc49f7a	0.024001826
154	0x3de8e9e1	0.11372734
155	0xbdd98dbf	-0.10622739
156	0xbdec34b5	-0.115334906
157	0xbd0d501e	-0.034500234
158	0x3d1c60b8	0.038178176
159	0xbd9b320e	-0.075779065
160	0x3dee683b	0.11640974
161	0xbd321f87	-0.043487098
162	0xbdb27abb	-0.08714815
163	0xbc474c92	-0.012164252
164	0x3e03425b	0.12818281
165	0xbddf4531	-0.10901869
166	0x3db98779	0.090590425
167	0x3c27574b	0.010213683
168	0x3db72cdf	0.08944105
169	0x3b511119	0.003190106
170	0x3e119f7b	0.14220993
171	0x3cf2af41	0.029624583
172	0xbdbd668b	-0.09248074
173	0xbe2f32b3	-0.17109184
174	0xbd84d9c1	-0.06486846
175	0xbe1b90e5	-0.15191992
176	0xbd881646	-0.06644873
177	0xbc2416b0	-0.010015175
178	0xba64d70f	-0.0008729556
179	0x3ca6260d	0.020281816
180	0x3e07a918	0.13248098
181	0xbd683c46	-0.056698106
182	0x3daa5238	0.08316463
183	0x3e0fa004	0.14025885
184	0xbddb41ab	-0.107058845
185	0xbdc236c5	-0.09483103
186	0xbd5a9f08	-0.05337432
187	0x3d785d77	0.06063601
188	0xbd39bd87	-0.045346763
189	0xbe1b36d9	-0.15157641
190	0x3df113b0	0.11771333
191	0x3c3719aa	0.011175552
192	0xbdf6053e	-0.120127186
193	0xbe0c5382	-0.1370373
194	0xbdaac791	-0.083388455
195	0x3d8e8b9b	0.069602214
196	0xbe0f9a24	-0.14023644
197	0xbccd1f32	-0.02503929
198	0xbe28616e	-0.16443416
199	0xbd9e4a55	-0.077290215
200	0xbdd023c1	-0.101630695
201	0x3d78caf7	0.060740437
202	0xbde94248	-0.11389595
203	0x3d93b10b	0.07211503
204	0x3dfec24c	0.12439403
205	0x3da88c94	0.08229938
206	0x3db5d9ea	0.088794544
207	0xbe1787d8	-0.14797914
208	0xbd4933ab	-0.04912154
209	0xbcc9819e	-0.02459794
210	0xbe17d304	-0.1482659
211	0xbe3480c6	-0.17627248
212	0xbda9b391	-0.08286203
213	0xbccfabf2	-0.025350545
214	0x3de0557c	0.10953805
215	0xbd3c256d	-0.04593413
216	0x3d9d40f0	0.076784015
217	0xbd53f052	-0.05174286
218	0xbe10408d	-0.14087124
219	0xbd1b2903	-0.03788091
220	0x3d753f90	0.05987507
221	0x3dc8e490	0.0980922
222	0xbc83f17b	-0.016106358
223	0x3d1ed5e2	0.038778193
224	0x3dbc11e7	0.09183102
225	0x3d93044c	0.07178554
226	0xbde31594	-0.110881
227	0x3d902df1	0.07040013
228	0xbd1abc27	-0.037777092
229	0xbd8b42a1	-0.06799818
230	0xbd7127c0	-0.0588758
231	0xbd638ac7	-0.05555227
232	0xbe01ac10	-0.12663293
233	0xbdb12607	-0.08649831
234	0x3c361ccf	0.011115267
235	0xbd935677	-0.07194226
236	0xbd99bbcb	-0.07506522
237	0x3db3124d	0.08743725
238	0x3da2b85b	0.07945319
239	0xbc4e7569	-0.012601235
240	0x3db9faa7	0.09081011
241	0xbd454449	-0.048160825
242	0x3d98aec7	0.07455211
243	0x3dd3fff2	0.10351552
244	0xbe08d5b5	-0.13362773
245	0x3e0745f9	0.13210286
246	0xbdafa1bf	-0.085757725
247	0xbdeb4754	-0.11488214
248	0xbdb4cd7f	-0.08828258
249	0x3dde1d35	0.108454145
250	0x3c6f9d7a	0.014624948
251	0xbd0e4bdb	-0.03474031
252	0xbd8a33c7	-0.06748157
253	0x3e10ac81	0.14128305
254	0x3da03dfb	0.07824322
255	0xbd5823fa	-0.052768685

i2h.bias f4 [242]
0	0xbab95ba4	-0.0014141691
1	0xbbbd8f58	-0.00578491
2	0xbc5a1308	-0.0133102015
3	0x3d06e822	0.032936223
4	0xbbbf60eb	-0.005840411
5	0xbc797ae8	-0.015227057
6	0xbd04c220	-0.032411695
7	0xbc4382b5	-0.011933018
8	0xbc0a8cf0	-0.008456454
9	0x3c69c3da	0.014267886
10	0x3c71ef65	0.014766549
11	0x3d38982f	0.04506701
12	0x3a35cdc1	0.0006935262
13	0x3bf6821d	0.007522835
14	0x3c28410a	0.010269413
15	0xbc9bd7a3	-0.019023722
16	0xbd1130e3	-0.035447013
17	0x39b659b8	0.0003478059
18	0xbcfe20c8	-0.03102149
19	0xbcbb084c	-0.022831105
20	0x3bdf7efb	0.006820557
21	0x3c69875b	0.014253463
22	0x3ba8b81f	0.005148902
23	0xbb8c53c0	-0.0042824447
24	0x3d5de4cb	0.054173272
25	0xbc818ef6	-0.01581524
26	0x3c2694ce	0.010167314
27	0xb92fcd0a	-0.00016765684
28	0x3ccaa7f4	0.02473829
29	0x3c1b5cf1	0.009482608
30	0xbc3f09aa	-0.011660019
31	0xbbc5aae2	-0.0060323337
32	0xbba8620e	-0.005138642
33	0xbb3aa839	-0.0028481616
34	0x3a3aca1e	0.0007125455
35	0x3cc26180	0.023728132
36	0xbc3f6220	-0.01168111
37	0xbc2d99be	-0.010595737
38	0x3a4ec767	0.00078879896
39	0x3a935423	0.0011240285
40	0x3c1de01e	0.009635953
41	0x3bf162bc	0.0073665064
42	0x3b231916	0.0024886779
43	0x3a5d40dc	0.0008440146
44	0xb8e5e4ac	-0.000109621644
45	0x3c65c58c	0.01402415
46	0xbc0b3671	-0.008496867
47	0x3b3a3bf3	0.002841708
48	0xbc3927bb	-0.011300976
49	0x3a40296e	0.0007330392
50	0x3c88b1b3	0.016686296
51	0x3d37a8c4	0.04483868
52	0xbacd7aa3	-0.0015676807
53	0xbc0b6849	-0.00850875
54	0xb902a759	-0.00012460108
55	0x3b6a3f6b	0.0035743366
56	0x3cfbe929	0.030750828
57	0xbbc980c8	-0.006149385
58	0xbbd3cadf	-0.006463393
59	0xbaf67036	-0.0018801752
60	0x3bcc2589	0.0062300605
61	0xbc92c42a	-0.017915804
62	0xbb1e8068	-0.0024185423
63	0x3c2d82cf	0.010590269
64	0x3cf83c5c	0.03030222
65	0x3c291ddc	0.01032206
66	0x3bf8ee36	0.0075967563
67	0xbb9f41f2	-0.004860156
68	0x3cbe88bc	0.02325856
69	0x3d65fcef	0.05614942
70	0xbc2cadbb	-0.010539467
71	0x3ca7679a	0.020435143
72	0xbb7019cf	-0.0036636477
73	0x3bd98812	0.0066385353
74	0xbbb60afc	-0.0055555087
75	0xbc2472c5	-0.010037129
76	0xbb879fa7	-0.004138905
77	0xbb390940	-0.0028234273
78	0xbc18a5c9	-0.00931687
79	0xbadb70cc	-0.001674199
80	0xb916b26e	-0.00014371585
81	0x3adc53b7	0.0016809617
82	0x3d49b512	0.049244948
83	0x3da6d7e0	0.08146644
84	0x3a74656c	0.00093229744
85	0xbc11a50d	-0.008889449
86	0xbc5b317b	-0.013378496
87	0xbc84fd86	-0.01623417
88	0xbb1061df	-0.0022030992
89	0xbce2b3f6	-0.027673703
90	0x39dec351	0.00042488662
91	0x3a958a0a	0.0011408937
92	0x3c195be9	0.009360292
93	0x3c29a3bf	0.0103539815
94	0x3cdc1ff9	0.026870715
95	0x3babbf57	0.0052413153
96	0x3acef45a	0.0015789375
97	0xbb47e1a6	-0.0030499487
98	0x3c90ef97	0.01769237
99	0xbb7bdb66	-0.0038430332
100	0xbb72b6b4	-0.003703517
101	0xbb9d8b4e	-0.004807866
102	0x3c860316	0.016358893
103	0x3b013953	0.0019718006
104	0xbc453179	-0.012035721
105	0xbbf07fcc	-0.0073394533
106	0xbbd35111	-0.006448873
107	0x3cb39dbf	0.021925805
108	0xbb991a1f	-0.0046723033
109	0x3cb99047	0.022651805
110	0xbb83369e	-0.0040043136
111	0xbbef3d48	-0.0073010065
112	0x3c571fdc	0.013130154
113	0xbc81682d	-0.015796745
114	0x3b77f584	0.0037835548
115	0xba42e2eb	-0.0007434326
116	0xbc4f1c42	-0.0126410145
117	0x3ac4c064	0.001501095
118	0x3b90ae9a	0.0044153454
119	0xbbcdf046	-0.0062847463
120	0xbc411c4a	-0.01178653
121	0x3b8eeb87	0.004361573
122	0xbc8fc697	-0.01755075
123	0xbbd626cf	-0.006535388
124	0xbbb3fdcd	-0.005492902
125	0x3ae5b77f	0.0017526
126	0x3aad62eb	0.0013228332
127	0xbc059026	-0.008152043
128	0x3c4554bc	0.012044128
129	0xba43c2c8	-0.00074676843
130	0xbc290eac	-0.010318439
131	0x3d4edfaf	0.05050629
132	0xbbe6db31	-0.0070451726
133	0x3c88c439	0.016695129
134	0x3c564feb	0.013080577
135	0x3ccc3b06	0.024930488
136	0x3ac9b7d4	0.0015389868
137	0x3b643bec	0.0034825755
138	0x3c8a63ff	0.016893385
139	0xbaaf795d	-0.001338761
140	0x3bf0e177	0.0073510963
141	0xbc2df821	-0.010618241
142	0xbcd2381c	-0.02566152
143	0x3c039039	0.008029991
144	0x3a8ee5ce	0.0010902227
145	0x3bcfebf1	0.006345265
146	0xbc1cc9d4	-0.009569604
147	0xbc8ac331	-0.016938778
148	0xbbc27535	-0.0059343823
149	0xbc8a85f5	-0.016909579
150	0xbc0a1804	-0.008428577
151	0x3c083296	0.008312842
152	0x3c4b913a	0.012424761
153	0xbc422a43	-0.011850896
154	0xbb6fbef3	-0.003658232
155	0x3b1858c9	0.002324628
156	0x3b287def	0.0025709828
157	0x39cad5f4	0.0003868785
158	0x3c1433c9	0.00904555
159	0x3c0dd423	0.008656534
160	0x39d7ce52	0.00041161716
161	0x3c913628	0.017726019
162	0xbc3c8bb8	-0.011507921
163	0x3c0d61c9	0.008629271
164	0x3dc9a93d	0.09846733
165	0xbbb231b6	-0.005438055
166	0xbc266a89	-0.010157236
167	0x3c51f53b	0.012814815
168	0xbc968bba	-0.018377174
169	0x3caa4621	0.020785393
170	0xb970ad4d	-0.00022952743
171	0xbb408c74	-0.0029380592
172	0x3cf6d7f0	0.030132264
173	0x3bf82ade	0.0075734695
174	0x3bbe22dc	0.0058024954
175	0xbbac368e	-0.005255527
176	0xbc8fc3ac	-0.017549358
177	0x3c0a80bb	0.008453543
178	0x3bbeaf65	0.0058192485
179	0xbae180e0	-0.0017204545
180	0xbc0f069c	-0.008729603
181	0xbbeb5cb5	-0.0071826824
182	0xb92f63ed	-0.00016726526
183	0x3d897ba8	0.06713039
184	0xb9d5bf5f	-0.00040769108
185	0xbc04e8dc	-0.008112159
186	0x3c5b449f	0.01338306
187	0xbc31dc09	-0.010855683
188	0xbb08d1c5	-0.0020876986
189	0xbb8e588a	-0.004344051
190	0x3a0d015a	0.00053789245
191	0xbaafb050	-0.0013403986
192	0xbc56d3bb	-0.013112004
193	0xbbe2d39a	-0.0069221975
194	0xbc4d3793	-0.012525457
195	0xbb800367	-0.0039066556
196	0x3a3f5644	0.00072989264
197	0xb9c0e138	-0.00036788895
198	0xbb8d2d6b	-0.0043083928
199	0x3b11e0f5	0.002225933
200	0x3ca05eba	0.01957642
201	0xbcb54332	-0.022126768
202	0x3cd48690	0.02594307
203	0xbc6dea96	-0.014521262
204	0xbcd95974	-0.026531912
205	0xbc8debb6	-0.01732431
206	0x3bf86eb3	0.0075815558
207	0x3ab6b1b7	0.0013938461
208	0x3baf0830	0.005341552
209	0xbd10146c	-0.035175726
210	0xbbf16697	-0.007366966
211	0x3839dea5	4.431479e-05
212	0x3c42018b	0.011841188
213	0xbc6d0522	-0.014466556
214	0xbd17242f	-0.03689974
215	0x399640b8	0.0002865845
216	0xbc99dcf9	-0.018782126
217	0x3b542deb	0.0032376002
218	0xba4294a5	-0.00074226625
219	0x3c61048e	0.013733996
220	0x3ac362e8	0.0014906796
221	0xbc39c6f3	-0.011338937
222	0xbb6573ed	-0.0035011724
223	0x3d0b09ba	0.033944823
224	0xbc03a0a5	-0.008033906
225	0xbbda098a	-0.006653969
226	0xbbb5cebe	-0.005548327
227	0xbc91f4c2	-0.017816905
228	0xbc17d130	-0.009266183
229	0xbb3dfb8f	-0.0028989052
230	0xbb89414e	-0.004188693
231	0x3cd374f7	0.02581261
232	0xbb98acae	-0.004659257
233	0xbcbdd697	-0.023173613
234	0x3be0f74d	0.006865418
235	0x3c0f0d31	0.008731172
236	0xbc461da7	-0.012092031
237	0xbbd8c74a	-0.006615554
238	0x3c37968d	0.011205328
239	0xbb6263c5	-0.003454433
240	0x3ba707af	0.0050973515
241	0x3dad2feb	0.08456405

h2o.weight f4 [6, 242]
0	0x3daf36dd	0.08555386
1	0x3e1b2513	0.15150861
2	0xbe07879d	-0.13235326
3	0x3e0a8577	0.13527475
4	0x3de8eb18	0.113729656
5	0xbe0bee45	-0.13665111
6	0x3d6d0599	0.057866666
7	0xbcafb783	-0.02144981
8	0xbc1341c5	-0.008987849
9	0xbd64e123	-0.05587877
10	0x3e1c9a4a	0.15293232
11	0x3cd7cd65	0.026343057
12	0x3dce8f65	0.10085944
13	0x3d96a268	0.07355195
14	0xbde08f1f	-0.10964798
15	0x3dd3d6d4	0.103437096
16	0xba87f123	-0.0010371547
17	0xbda06470	-0.07831657
18	0xbddd5176	-0.10806553
19	0xba826d1f	-0.0009950734
20	0x3c8e1acb	0.01734676
21	0x3d38b313	0.045092653
22	0xbe267c21	-0.16258289
23	0xbd53c309	-0.051699672
24	0x3dbf1944	0.09330991
25	0x3cd474d3	0.025934612
26	0x3e018bf1	0.1265104
27	0xbe12ce99	-0.14336623
28	0xbdae979f	-0.08525013
29	0x3d94400a	0.07238777
30	0xbd9c0c86	-0.07619576
31	0x3e1819cc	0.1485359
32	0x3de8f778	0.11375326
33	0x3b8efd82	0.0043637166
34	0x3d70db45	0.05880286
35	0xbe30bb96	-0.17259058
36	0x3be8ffe5	0.007110583
37	0x3e25eafe	0.16202924
38	0x3d967893	0.073472165
39	0x3df9a396	0.12189405
40	0x3d0f81f2	0.035036035
41	0x3d66d956	0.05635961
42	0x3d3f95f5	0.04677387
43	0x3db037c8	0.086043894
44	0xbd9bcaf0	-0.07607067
45	0xbcb578b5	-0.022152284
46	0x3dfe4d0b	0.124170385
47	0xbda07516	-0.07834832
48	0xbd620bae	-0.05518692
49	0x3d808fc2	0.062774196
50	0xbe08d525	-0.13362558
51	0x3de279b6	0.11058371
52	0xbe19db16	-0.15024981
53	0xbda105c0	-0.07862425
54	0x3dd414c8	0.10355526
55	0xbda9dd73	-0.08294191
56	0xbdab1b35	-0.08354799
57	0xbdb53203	-0.088474296
58	0x3dd9f730	0.106428504
59	0xbcccceae	-0.025000896
60	0xbc39b38e	-0.011334313
61	0x3e033477	0.12812982
62	0xbdabfb75	-0.08397571
63	0xbd546874	-0.051857427
64	0x3e44a408	0.19203198
65	0x3ca5b1f2	0.020226452
66	0x3cc45f9f	0.023971377
67	0x3e0acbdf	0.13554333
68	0xbc818800	-0.01581192
69	0x3e25054f	0.16115306
70	0x3dada82a	0.084793404
71	0x3bd9815e	0.006637736
72	0x3d3aeed5	0.045637924
73	0xbdbf8046	-0.09350638
74	0x3d3e844d	0.04651289
75	0xbd3918c3	-0.04518963
76	0x3d744e52	0.059645005
77	0xbdde81a0	-0.10864568
78	0x3dd2f9df	0.103015654
79	0xbde78057	-0.11303776
80	0xbcc7c895	-0.024387637
81	0x3d68aa03	0.05680276
82	0x3e01a896	0.12661967
83	0x3e35d9a0	0.17758799
84	0xbcd4fa01	-0.025998117
85	0x3e0eaa3c	0.13932127
86	0xbba720d8	-0.005100351
87	0x3dccb91d	0.09996245
88	0xbdbada56	-0.091236755
89	0x3daa3a3e	0.0831189
90	0x3ccbce41	0.024878623
91	0x3d0493a4	0.032367364
92	0x3e072c4d	0.13200493
93	0xbd784f5f	-0.06062257
94	0x3df74d9e	0.12075351
95	0xbb1719ec	-0.0023056222
96	0xbdd445fa	-0.103649095
97	0x3cbb4d16	0.022863906
98	0xbce90258	-0.0284435
99	0x3d981ebc	0.07427737
100	0xbd37a0da	-0.044831134
101	0xbd2c8753	-0.042121243
102	0xbd8d479f	-0.06898426
103	0x3d9e52fd	0.077306725
104	0xbdbefee1	-0.09325958
105	0xbd449dec	-0.04800217
106	0x3e30cf01	0.17266466
107	0xbdca915e	-0.09891008
108	0xbe07d50f	-0.13264869
109	0x3c86ead5	0.016469399
110	0xbd7fc096	-0.062439524
111	0x3da7bafc	0.08189961
112	0x3d3775c7	0.044790056
113	0x3d896385	0.06708435
114	0x3dc4f4c9	0.096170016
115	0xbe01795f	-0.12643956
116	0xbd9f61b2	-0.07782306
117	0xbd3e0293	-0.046389174
118	0x3d782463	0.060581576
119	0xbdbb60c0	-0.09149313
120	0xbaa517d9	-0.0012595608
121	0x3d03f964	0.03222026
122	0xbdbcef4d	-0.092253305
123	0x3d8db250	0.06918776
124	0xbd81ed88	-0.063441336
125	0xbd0fa1a6	-0.03506627
126	0x3e00bc1c	0.12571758
127	0x3debc962	0.1151302
128	0x3d40a493	0.04703195
129	0x3c968bd8	0.01837723
130	0xbc092b34	-0.008372117
131	0x3cac06c3	0.020999318
132	0x3d8f51d0	0.06998026
133	0x3e2b1a42	0.16709235
134	0x3d36220f	0.044466075
135	0xbe4934ee	-0.19649097
136	0xbe13dba0	-0.14439249
137	0xbc457917	-0.012052796
138	0x3c657dd3	0.01400705
139	0xbde0cc88	-0.10976511
140	0xbc1b47a6	-0.009477532
141	0xbe01c291	-0.12671877
142	0x3e0ad684	0.13558394
143	0x3d08c3cf	0.033389863
144	0x3b976712	0.0046204412
145	0x3e10b316	0.14130816
146	0xbd84d49f	-0.06485867
147	0x3cb50f65	0.022102067
148	0x3dc35478	0.095375955
149	0x3d53ff91	0.0517574
150	0x3d78b91f	0.06072342
151	0x3d836c2e	0.06417118
152	0xbd936112	-0.07196249
153	0xbce5643c	-0.028001897
154	0x3d26c463	0.040714633
155	0xbd6cf867	-0.057854082
156	0x3e3f57a7	0.1868578
157	0x3dabec37	0.08394664
158	0x3de8f4d4	0.11374822
159	0xbe205d12	-0.15660504
160	0x3d07e072	0.033173032
161	0xbdc9334f	-0.098242395
162	0xbdf903e8	-0.12158948
163	0xbda0c62e	-0.078503
164	0x3e4719e5	0.19443472
165	0xbd8cb80f	-0.06871044
166	0xbe15e9d0	-0.14639974
167	0x3e35368a	0.17696586
168	0x3de1c546	0.11023955
169	0xbddab75a	-0.10679503
170	0x3dea1612	0.11429991
171	0x3d87707f	0.06613254
172	0x3c24aa94	0.010050435
173	0xbe2a36cb	-0.16622464
174	0xbe098149	-0.13428225
175	0x3e136117	0.14392506
176	0x3dc2828e	0.094975576
177	0x3d9232f7	0.07138627
178	0xbe0be0b3	-0.13659935
179	0xbdf0351f	-0.11728882
180	0x3dd3cc7f	0.10341739
181	0xbe120297	-0.142588
182	0x3dae105e	0.084992155
183	0xbdbfb03b	-0.09359785
184	0xbd719a0b	-0.058984797
185	0x3e19947a	0.14998046
186	0x3e6203fd	0.22071834
187	0xbdb7fd19	-0.089838214
188	0x3e1e96ee	0.15487263
189	0x3d00f910	0.031487525
190	0x3bc93489	0.006140296
191	0x3c0956e3	0.008382532
192	0xbd865a39	-0.06560177
193	0x3c2fd9f8	0.01073312
194	0x3d7916d3	0.060812782
195	0x3d560d7e	0.05225896
196	0xbd0fb708	-0.03508666
197	0x3d4fc4a7	0.05072465
198	0x3d969398	0.0735237
199	0x3d5cd997	0.053918447
200	0xbde582e1	-0.11206604
201	0xbcec1423	-0.028818196
202	0xbdff2711	-0.12458623
203	0x3d73346d	0.05937617
204	0x3d7e77d6	0.062126003
205	0x3d716541	0.058934454
206	0xbdae31b8	-0.08505577
207	0xbe0a0037	-0.13476644
208	0xbd49590b	-0.049157184
209	0x3d299349	0.041400228
210	0xbc5f9818	-0.013647102
211	0xbd40622e	-0.04696863
212	0x3e02b524	0.12764412
213	0x3e084f1f	0.13311432
214	0x3dc9d7a8	0.09855586
215	0xbd8529f1	-0.0650214
216	0x3df0a540	0.11750269
217	0xbe26777a	-0.16256514
218	0x3d1e43a4	0.038638726
219	0x3ce9c38b	0.028535625
220	0xbdac605e	-0.08416818
221	0x3e0d61bb	0.13806812
222	0xbe15f55b	-0.14644377
223	0xbc83d23d	-0.01609146
224	0xbd774109	-0.060364757
225	0x3c4d8669	0.012544253
226	0xbd9bd611	-0.07609189
227	0x3e078b73	0.1323679
228	0x3d40ed01	0.047101025
229	0xbe46a6cb	-0.19399564
230	0x3e09f6ed	0.13473101
231	0x3db66038	0.08905071
232	0xbdb1cfff	-0.0868225
233	0xbd49ebc7	-0.04929712
234	0x3d8e4e5c	0.069485396
235	0x3e2367ff	0.1595764
236	0xbda64185	-0.081179656
237	0x3e0d8733	0.13821106
238	0xbd643366	-0.05571308
239	0x3d6f0426	0.058353566
240	0xbddb0455	-0.10694186
241	0x3db30b72	0.087424174
242	0xbd02b889	-0.031914268
243	0xbd03643d	-0.032078017
244	0x3d2b49bd	0.04181837
245	0x3db71966	0.08940391
246	0x3db6bab3	0.08922329
247	0xbc3717ab	-0.0111750765
248	0xbc5137e0	-0.012769669
249	0x3e1db101	0.15399553
250	0xbde0337e	-0.10947321
251	0xbe15ab04	-0.14616019
252	0x3d31a492	0.043369837
253	0xbd2d69a4	-0.042337075
254	0x3e31b533	0.17354278
255	0xbca852fe	-0.020547386

h2o.bias f4 [6]
0	0xba3663f2	-0.0006957642
1	0xbc13f9db	-0.009031738
2	0x3c944350	0.018098503
3	0x3c5fc57d	0.013657925
4	0x3c19d1c1	0.009388388
5	0x3cba5b02	0.022748474

h2h.weight f4 [242, 242]
0	0xbd0a198c	-0.03371577
1	0x3d4246cf	0.04743081
2	0xbda308f8	-0.07960695
3	0xbcffaa2f	-0.03120908
4	0x3b5c3876	0.003360299
5	0x3c8238a2	0.015896145
6	0x3d1733de	0.0369147
7	0x3cf93e71	0.030425282
8	0x3d40cf5c	0.047072753
9	0xbd203aee	-0.0391187
10	0xbdaf6731	-0.08564604
11	0xbe206ca1	-0.15666439
12	0x3ce880fd	0.028381819
13	0xbd276532	-0.04086799
14	0xbd2997c8	-0.041404516
15	0xbc64d723	-0.013967308
16	0xbdaf2800	-0.08552551
17	0xbd909398	-0.07059401
18	0xbdbd9237	-0.09256404
19	0xbd46c393	-0.048526358
20	0xbd52dc5d	-0.051479686
21	0xbd91d1ae	-0.07120071
22	0x3c3a650c	0.0113766305
23	0xbde4c5ed	-0.11170564
24	0xbdee48a8	-0.11634952
25	0xbd02c6d9	-0.031927917
26	0xbd92d1d3	-0.07168927
27	0xbdbf8539	-0.09351582
28	0xbc3a5fdb	-0.011375393
29	0xbc940a3c	-0.018071286
30	0xbbc691c8	-0.006059859
31	0x3ad66421	0.0016356745
32	0x3e05dbfa	0.13072196
33	0x3b1321cf	0.0022450571
34	0x3c74334c	0.014904808
35	0xbdac1eec	-0.084043354
36	0xbdf4b2a3	-0.11948135
37	0x3c588daa	0.013217369
38	0xbd5efc48	-0.054439813
39	0x3d360990	0.044442713
40	0x3d99849d	0.07495997
41	0xbdd7b940	-0.105333805
42	0xbd8c26f2	-0.06843366
43	0x3dccabf0	0.09993732
44	0xbc7c886d	-0.015413386
45	0xbd31f090	-0.04344231
46	0xbd730bd7	-0.059337463
47	0x3d9e59a6	0.07731943
48	0x3d9d2453	0.07672944
49	0xbcd49085	-0.025947819
50	0xbd9ae008	-0.07562262
51	0xbd0e56b1	-0.034750644
52	0x3dadee14	0.084926754
53	0xbc05d17d	-0.008167622
54	0xbcaa0f38	-0.02075921
55	0xbd4da80a	-0.050209083
56	0xbc620bbb	-0.013796742
57	0x3bdd2238	0.006748464
58	0x3d00fc79	0.031490777
59	0x3cf4031a	0.029786635
60	0x3da8aad0	0.08235705
61	0x3d1fde92	0.03903062
62	0xbb97024a	-0.004608427
63	0x3cbf2459	0.023332762
64	0x3c92802f	0.017883388
65	0xbd372212	-0.044710226
66	0x3d1c0587	0.03809121
67	0xbd6c74be	-0.05772852
68	0x3ccde41e	0.025133189
69	0xbdfb96bc	-0.1228461
70	0x3ce49237	0.027901752
71	0x3dc6ce1e	0.097072825
72	0xbdd47787	-0.103743605
73	0x3ccfe2f7	0.02537678
74	0x3de9d51c	0.114176005
75	0xbd7124dd	-0.058873046
76	0x3caed466	0.021341514
77	0xbe22141a	-0.1582798
78	0xbcee5efe	-0.02909803
79	0x3d1595a4	0.03651966
80	0x3b83eb24	0.0040258337
81	0x3cd74508	0.026278034
82	0xbcc9b928	-0.024624422
83	0xbd1d9967	-0.038476374
84	0x3d69c4fe	0.057072632
85	0x3dffa91d	0.12483428
86	0xbd214d81	-0.039380554
87	0xbc831152	-0.01599947
88	0xbd52ea97	-0.051493254
89	0x3d84610d	0.064638235
90	0xbd9a9406	-0.075477645
91	0x3e15a9ad	0.14615507
92	0xbdac867b	-0.084240876
93	0x3d4da66d	0.050207544
94	0x3cfd8860	0.030948818
95	0x3de7e7bd	0.113234974
96	0xbdb9e086	-0.090760276
97	0xbd54d4ef	-0.05196088
98	0xbce1c896	-0.027561467
99	0x3d48d650	0.04903251
100	0x3e07da5e	0.13266894
101	0x3d883de4	0.0665243
102	0xbd279e8a	-0.04092268
103	0xbe01735d	-0.12641664
104	0xbd8abd09	-0.06774337
105	0xbe22a140	-0.15881824
106	0xbd73d211	-0.059526507
107	0x3d1f5540	0.03889966
108	0xbd6c533b	-0.057696562
109	0x3ccb9448	0.02485098
110	0xbd775dc8	-0.06039217
111	0xbe077f68	-0.13232195
112	0xbdb1c17d	-0.08679483
113	0xbd782e52	-0.06059105
114	0xbc12699a	-0.00893631
115	0xbce58669	-0.028018193
116	0x3e00f883	0.125948
117	0xbdbd8da7	-0.09255534
118	0xbe0d8997	-0.13822018
119	0x3d410e89	0.047133002
120	0xbd242bf2	-0.040080972
121	0xbc08b4bf	-0.0083438745
122	0x3cd4a787	0.02595879
123	0x3db7798e	0.089587316
124	0xbdfacdf0	-0.12246311
125	0xbde8e36b	-0.113715015
126	0x3ccb7c14	0.024839438
127	0xbdd74faf	-0.10513245
128	0xbd81f446	-0.063454196
129	0x3dc0f931	0.094225295
130	0x3d38e99d	0.045144666
131	0x3de264b2	0.11054362
132	0xbce70c23	-0.02820403
133	0xbdb190ac	-0.08670172
134	0xbd4844d2	-0.048893757
135	0x3c9a09e9	0.018803554
136	0x3ce64dde	0.028113302
137	0x3c144de7	0.0090517765
138	0xbdb2f476	-0.087380335
139	0xbd9b5273	-0.07584085
140	0xbd53e6a8	-0.051733643
141	0x3d1e414f	0.038636502
142	0xbcc9f4c2	-0.024652842
143	0x3cc8beef	0.024505107
144	0x3d8bda0b	0.06828698
145	0xbd302cb0	-0.043011367
146	0x3d17ef39	0.037093375
147	0xbcde0034	-0.027099706
148	0xbc9684c0	-0.018373847
149	0x3c050d87	0.008120901
150	0x3cf10c5b	0.029424837
151	0xbce109ff	-0.027470587
152	0xbe002e62	-0.12517694
153	0xbd0ff1e6	-0.0351428
154	0xbd7ae808	-0.06125644
155	0x3d1e2748	0.03861168
156	0xbe3b8727	-0.18313275
157	0xbcc92057	-0.024551554
158	0x3d01584a	0.03157834
159	0xbd2c9288	-0.04213193
160	0x3e008a9f	0.1255288
161	0x3dea0374	0.1142644
162	0xbcc64677	-0.024203522
163	0x3c4ac17e	0.012375234
164	0x3d441b54	0.047877625
165	0x3c1945a8	0.009354986
166	0xbd80793f	-0.06273126
167	0xbdb80f83	-0.089873336
168	0xbd096970	-0.03354782
169	0xbd817d84	-0.06322768
170	0x3d03183f	0.032005545
171	0x3ca17b6a	0.019712169
172	0x3dabeb98	0.08394545
173	0xbd1ea720	-0.0387336
174	0xbb5b823f	-0.003349438
175	0x3d7270d2	0.059189625
176	0x3ce4d0d5	0.02793161
177	0x3d8394c8	0.06424862
178	0xbcad7491	-0.021173747
179	0x3dc0ebc2	0.09419967
180	0x3df16078	0.11785978
181	0xbd49f9d7	-0.04931053
182	0xbc6a6acf	-0.014307692
183	0xbd287dd8	-0.04113564
184	0x3d54f39c	0.051990137
185	0x3c8aeac6	0.016957652
186	0x3cfb3ec3	0.030669576
187	0xbdd3f8c0	-0.1035018
188	0x3d94207c	0.072327584
189	0xbd42883d	-0.04749321
190	0xbd15aa0e	-0.03653913
191	0x3d336b71	0.043803636
192	0x3d638472	0.05554623
193	0x3cd99ccf	0.02656403
194	0xbdb89fe2	-0.0901487
195	0xbc8d43e0	-0.01724428
196	0x3b9cb6b7	0.0047825235
197	0xbda89baf	-0.08232819
198	0xbd7bb088	-0.06144765
199	0xbd253f75	-0.04034372
200	0xbccdfb80	-0.025144339
201	0x3d9581f3	0.073001765
202	0xba90e42a	-0.0011054326
203	0xbafe7266	-0.0019412756
204	0x3d1f6b53	0.03892071
205	0xbd0f6826	-0.035011433
206	0x3a5bb79c	0.0008381547
207	0xbd376d50	-0.044781983
208	0xbe042e40	-0.12908268
209	0xbda01384	-0.07816222
210	0xbd23372d	-0.03984754
211	0xbe06b7bc	-0.13156027
212	0xbde1beb0	-0.11022699
213	0x3de659f8	0.11247629
214	0xbd615b63	-0.055018794
215	0x3d81c7ad	0.06336913
216	0xbc81d593	-0.01584891
217	0xbd17df26	-0.037078045
218	0xbcdce2b5	-0.026963571
219	0xbd9bbfe0	-0.076049566
220	0xbda854e9	-0.0821932
221	0xbdbe72c5	-0.09299234
222	0xbd87d3c5	-0.06632189
223	0xbdc78eb7	-0.097440176
224	0x3dd3b538	0.10337299
225	0xbdb4f89e	-0.088364825
226	0x3d8b2b38	0.06795353
227	0x3cb4b211	0.022057565
228	0xbb8bfdaf	-0.004272185
229	0xbc641790	-0.013921633
230	0x3cb340a4	0.021881409
231	0xbccaa287	-0.024735702
232	0xbd310f61	-0.043227557
233	0x3d57766c	0.05260317
234	0x3d061770	0.032737195
235	0x3c392e75	0.01130258
236	0xbd1edd29	-0.038785134
237	0x39baac18	0.00035604904
238	0x3dfee996	0.12446897
239	0x3d8b0ce5	0.06789569
240	0xbc0c2230	-0.008553073
241	0xbe38be96	-0.18041453
242	0x3d524b93	0.051341604
243	0x3e1d0250	0.15332913
244	0x3de4c94b	0.11171206
245	0xbde58e44	-0.11208776
246	0x3d11c817	0.03559121
247	0x3d352701	0.04422665
248	0x3d30b9f9	0.043146107
249	0xbcaeacfc	-0.02132272
250	0xbc5a6102	-0.0133287925
251	0xbcf44493	-0.029817855
252	0x3cc4b86d	0.024013722
253	0xbd97a558	-0.07404584
254	0xbdfcfa4d	-0.123524286
255	0xbd446745	-0.047950048

h2h.bias f4 [242]
0	0xbab95ba4	-0.0014141691
1	0xbbbd8f58	-0.00578491
2	0xbc5a1308	-0.0133102015
3	0x3d06e822	0.032936223
4	0xbbbf60eb	-0.005840411
5	0xbc797ae8	-0.015227057
6	0xbd04c220	-0.032411695
7	0xbc4382b5	-0.011933018
8	0xbc0a8cf0	-0.008456454
9	0x3c69c3da	0.014267886
10	0x3c71ef65	0.014766549
11	0x3d38982f	0.04506701
12	0x3a35cdc1	0.0006935262
13	0x3bf6821d	0.007522835
14	0x3c28410a	0.010269413
15	0xbc9bd7a3	-0.019023722
16	0xbd1130e3	-0.035447013
17	0x39b659b8	0.0003478059
18	0xbcfe20c8	-0.03102149
19	0xbcbb084c	-0.022831105
20	0x3bdf7efb	0.006820557
21	0x3c69875b	0.014253463
22	0x3ba8b81f	0.005148902
23	0xbb8c53c0	-0.0042824447
24	0x3d5de4cb	0.054173272
25	0xbc818ef6	-0.01581524
26	0x3c2694ce	0.010167314
27	0xb92fcd0a	-0.00016765684
28	0x3ccaa7f4	0.02473829
29	0x3c1b5cf1	0.009482608
30	0xbc3f09aa	-0.011660019
31	0xbbc5aae2	-0.0060323337
32	0xbba8620e	-0.005138642
33	0xbb3aa839	-0.0028481616
34	0x3a3aca1e	0.0007125455
35	0x3cc26180	0.023728132
36	0xbc3f6220	-0.01168111
37	0xbc2d99be	-0.010595737
38	0x3a4ec767	0.00078879896
39	0x3a935423	0.0011240285
40	0x3c1de01e	0.009635953
41	0x3bf162bc	0.0073665064
42	0x3b231916	0.0024886779
43	0x3a5d40dc	0.0008440146
44	0xb8e5e4ac	-0.000109621644
45	0x3c65c58c	0.01402415
46	0xbc0b3671	-0.008496867
47	0x3b3a3bf3	0.002841708
48	0xbc3927bb	-0.011300976
49	0x3a40296e	0.0007330392
50	0x3c88b1b3	0.016686296
51	0x3d37a8c4	0.04483868
52	0xbacd7aa3	-0.0015676807
53	0xbc0b6849	-0.00850875
54	0xb902a759	-0.00012460108
55	0x3b6a3f6b	0.0035743366
56	0x3cfbe929	0.030750828
57	0xbbc980c8	-0.006149385
58	0xbbd3cadf	-0.006463393
59	0xbaf67036	-0.0018801752
60	0x3bcc2589	0.0062300605
61	0xbc92c42a	-0.017915804
62	0xbb1e8068	-0.0024185423
63	0x3c2d82cf	0.010590269
64	0x3cf83c5c	0.03030222
65	0x3c291ddc	0.01032206
66	0x3bf8ee36	0.0075967563
67	0xbb9f41f2	-0.004860156
68	0x3cbe88bc	0.02325856
69	0x3d65fcef	0.05614942
70	0xbc2cadbb	-0.010539467
71	0x3ca7679a	0.020435143
72	0xbb7019cf	-0.0036636477
73	0x3bd98812	0.0066385353
74	0xbbb60afc	-0.0055555087
75	0xbc2472c5	-0.010037129
76	0xbb879fa7	-0.004138905
77	0xbb390940	-0.0028234273
78	0xbc18a5c9	-0.00931687
79	0xbadb70cc	-0.001674199
80	0xb916b26e	-0.00014371585
81	0x3adc53b7	0.0016809617
82	0x3d49b512	0.049244948
83	0x3da6d7e0	0.08146644
84	0x3a74656c	0.00093229744
85	0xbc11a50d	-0.008889449
86	0xbc5b317b	-0.013378496
87	0xbc84fd86	-0.01623417
88	0xbb1061df	-0.0022030992
89	0xbce2b3f6	-0.027673703
90	0x39dec351	0.00042488662
91	0x3a958a0a	0.0011408937
92	0x3c195be9	0.009360292
93	0x3c29a3bf	0.0103539815
94	0x3cdc1ff9	0.026870715
95	0x3babbf57	0.0052413153
96	0x3acef45a	0.0015789375
97	0xbb47e1a6	-0.0030499487
98	0x3c90ef97	0.01769237
99	0xbb7bdb66	-0.0038430332
100	0xbb72b6b4	-0.003703517
101	0xbb9d8b4e	-0.004807866
102	0x3c860316	0.016358893
103	0x3b013953	0.0019718006
104	0xbc453179	-0.012035721
105	0xbbf07fcc	-0.0073394533
106	0xbbd35111	-0.006448873
107	0x3cb39dbf	0.021925805
108	0xbb991a1f	-0.0046723033
109	0x3cb99047	0.022651805
110	0xbb83369e	-0.0040043136
111	0xbbef3d48	-0.0073010065
112	0x3c571fdc	0.013130154
113	0xbc81682d	-0.015796745
114	0x3b77f584	0.0037835548
115	0xba42e2eb	-0.0007434326
116	0xbc4f1c42	-0.0126410145
117	0x3ac4c064	0.001501095
118	0x3b90ae9a	0.0044153454
119	0xbbcdf046	-0.0062847463
120	0xbc411c4a	-0.01178653
121	0x3b8eeb87	0.004361573
122	0xbc8fc697	-0.01755075
123	0xbbd626cf	-0.006535388
124	0xbbb3fdcd	-0.005492902
125	0x3ae5b77f	0.0017526
126	0x3aad62eb	0.0013228332
127	0xbc059026	-0.008152043
128	0x3c4554bc	0.012044128
129	0xba43c2c8	-0.00074676843
130	0xbc290eac	-0.010318439
131	0x3d4edfaf	0.05050629
132	0xbbe6db31	-0.0070451726
133	0x3c88c439	0.016695129
134	0x3c564feb	0.013080577
135	0x3ccc3b06	0.024930488
136	0x3ac9b7d4	0.0015389868
137	0x3b643bec	0.0034825755
138	0x3c8a63ff	0.016893385
139	0xbaaf795d	-0.001338761
140	0x3bf0e177	0.0073510963
141	0xbc2df821	-0.010618241
142	0xbcd2381c	-0.02566152
143	0x3c039039	0.008029991
144	0x3a8ee5ce	0.0010902227
145	0x3bcfebf1	0.006345265
146	0xbc1cc9d4	-0.009569604
147	0xbc8ac331	-0.016938778
148	0xbbc27535	-0.0059343823
149	0xbc8a85f5	-0.016909579
150	0xbc0a1804	-0.008428577
151	0x3c083296	0.008312842
152	0x3c4b913a	0.012424761
153	0xbc422a43	-0.011850896
154	0xbb6fbef3	-0.003658232
155	0x3b1858c9	0.002324628
156	0x3b287def	0.0025709828
157	0x39cad5f4	0.0003868785
158	0x3c1433c9	0.00904555
159	0x3c0dd423	0.008656534
160	0x39d7ce52	0.00041161716
161	0x3c913628	0.017726019
162	0xbc3c8bb8	-0.011507921
163	0x3c0d61c9	0.008629271
164	0x3dc9a93d	0.09846733
165	0xbbb231b6	-0.005438055
166	0xbc266a89	-0.010157236
167	0x3c51f53b	0.012814815
168	0xbc968bba	-0.018377174
169	0x3caa4621	0.020785393
170	0xb970ad4d	-0.00022952743
171	0xbb408c74	-0.0029380592
172	0x3cf6d7f0	0.030132264
173	0x3bf82ade	0.0075734695
174	0x3bbe22dc	0.0058024954
175	0xbbac368e	-0.005255527
176	0xbc8fc3ac	-0.017549358
177	0x3c0a80bb	0.008453543
178	0x3bbeaf65	0.0058192485
179	0xbae180e0	-0.0017204545
180	0xbc0f069c	-0.008729603
181	0xbbeb5cb5	-0.0071826824
182	0xb92f63ed	-0.00016726526
183	0x3d897ba8	0.06713039
184	0xb9d5bf5f	-0.00040769108
185	0xbc04e8dc	-0.008112159
186	0x3c5b449f	0.01338306
187	0xbc31dc09	-0.010855683
188	0xbb08d1c5	-0.0020876986
189	0xbb8e588a	-0.004344051
190	0x3a0d015a	0.00053789245
191	0xbaafb050	-0.0013403986
192	0xbc56d3bb	-0.013112004
193	0xbbe2d39a	-0.0069221975
194	0xbc4d3793	-0.012525457
195	0xbb800367	-0.0039066556
196	0x3a3f5644	0.00072989264
197	0xb9c0e138	-0.00036788895
198	0xbb8d2d6b	-0.0043083928
199	0x3b11e0f5	0.002225933
200	0x3ca05eba	0.01957642
201	0xbcb54332	-0.022126768
202	0x3cd48690	0.02594307
203	0xbc6dea96	-0.014521262
204	0xbcd95974	-0.026531912
205	0xbc8debb6	-0.01732431
206	0x3bf86eb3	0.0075815558
207	0x3ab6b1b7	0.0013938461
208	0x3baf0830	0.005341552
209	0xbd10146c	-0.035175726
210	0xbbf16697	-0.007366966
211	0x3839dea5	4.431479e-05
212	0x3c42018b	0.011841188
213	0xbc6d0522	-0.014466556
214	0xbd17242f	-0.03689974
215	0x399640b8	0.0002865845
216	0xbc99dcf9	-0.018782126
217	0x3b542deb	0.0032376002
218	0xba4294a5	-0.00074226625
219	0x3c61048e	0.013733996
220	0x3ac362e8	0.0014906796
221	0xbc39c6f3	-0.011338937
222	0xbb6573ed	-0.0035011724
223	0x3d0b09ba	0.033944823
224	0xbc03a0a5	-0.008033906
225	0xbbda098a	-0.006653969
226	0xbbb5cebe	-0.005548327
227	0xbc91f4c2	-0.017816905
228	0xbc17d130	-0.009266183
229	0xbb3dfb8f	-0.0028989052
230	0xbb89414e	-0.004188693
231	0x3cd374f7	0.02581261
232	0xbb98acae	-0.004659257
233	0xbcbdd697	-0.023173613
234	0x3be0f74d	0.006865418
235	0x3c0f0d31	0.008731172
236	0xbc461da7	-0.012092031
237	0xbbd8c74a	-0.006615554
238	0x3c37968d	0.011205328
239	0xbb6263c5	-0.003454433
240	0x3ba707af	0.0050973515
241	0x3dad2feb	0.08456405
