VLSI23/plots/chip_spikeclassifier/TrainedALL_epochs-150-input_size-2-16-12-hidden_size-200-batch_size-32-lr-0.001-tmax_ms-400.0-Ts-10.0-kfolds-6-datasetPath-N_3b_allchannels_ALLCLASS_auto_nospkfilter_cleaned_12x16_vibration/chip-classifier-test-1-best.pt (torch, 477175 bytes, 8 tensors)

thr_h_1 f4 [200]
1.0 1.0 1.0 1.0 1.0 1.0 1.0 1.0
1.0 1.0 1.0 1.0 1.0 1.0 1.0 1.0
1.0 1.0 1.0 1.0 1.0 1.0 1.0 1.0
1.0 1.0 1.0 1.0 1.0 1.0 1.0 1.0
1.0 1.0 1.0 1.0 1.0 1.0 1.0 1.0
1.0 1.0 1.0 1.0 1.0 1.0 1.0 1.0
1.0 1.0 1.0 1.0 1.0 1.0 1.0 1.0
1.0 1.0 1.0 1.0 1.0 1.0 1.0 1.0
1.0 1.0 1.0 1.0 1.0 1.0 1.0 1.0
1.0 1.0 1.0 1.0 1.0 1.0 1.0 1.0
1.0 1.0 1.0 1.0 1.0 1.0 1.0 1.0
1.0 1.0 1.0 1.0 1.0 1.0 1.0 1.0
1.0 1.0 1.0 1.0 1.0 1.0 1.0 1.0
1.0 1.0 1.0 1.0 1.0 1.0 1.0 1.0
1.0 1.0 1.0 1.0 1.0 1.0 1.0 1.0
1.0 1.0 1.0 1.0 1.0 1.0 1.0 1.0
1.0 1.0 1.0 1.0 1.0 1.0 1.0 1.0
1.0 1.0 1.0 1.0 1.0 1.0 1.0 1.0
1.0 1.0 1.0 1.0 1.0 1.0 1.0 1.0
1.0 1.0 1.0 1.0 1.0 1.0 1.0 1.0
1.0 1.0 1.0 1.0 1.0 1.0 1.0 1.0
1.0 1.0 1.0 1.0 1.0 1.0 1.0 1.0
1.0 1.0 1.0 1.0 1.0 1.0 1.0 1.0
1.0 1.0 1.0 1.0 1.0 1.0 1.0 1.0
1.0 1.0 1.0 1.0 1.0 1.0 1.0 1.0
00000000: 0000 803f 0000 803f 0000 803f 0000 803f
00000010: 0000 803f 0000 803f 0000 803f 0000 803f
00000020: 0000 803f 0000 803f 0000 803f 0000 803f
00000030: 0000 803f 0000 803f 0000 803f 0000 803f
00000040: 0000 803f 0000 803f 0000 803f 0000 803f
00000050: 0000 803f 0000 803f 0000 803f 0000 803f
00000060: 0000 803f 0000 803f 0000 803f 0000 803f
00000070: 0000 803f 0000 803f 0000 803f 0000 803f
00000080: 0000 803f 0000 803f 0000 803f 0000 803f
00000090: 0000 803f 0000 803f 0000 803f 0000 803f
000000a0: 0000 803f 0000 803f 0000 803f 0000 803f
000000b0: 0000 803f 0000 803f 0000 803f 0000 803f
000000c0: 0000 803f 0000 803f 0000 803f 0000 803f
000000d0: 0000 803f 0000 803f 0000 803f 0000 803f
000000e0: 0000 803f 0000 803f 0000 803f 0000 803f
000000f0: 0000 803f 0000 803f 0000 803f 0000 803f
00000100: 0000 803f 0000 803f 0000 803f 0000 803f
00000110: 0000 803f 0000 803f 0000 803f 0000 803f
00000120: 0000 803f 0000 803f 0000 803f 0000 803f
00000130: 0000 803f 0000 803f 0000 803f 0000 803f
00000140: 0000 803f 0000 803f 0000 803f 0000 803f
00000150: 0000 803f 0000 803f 0000 803f 0000 803f
00000160: 0000 803f 0000 803f 0000 803f 0000 803f
00000170: 0000 803f 0000 803f 0000 803f 0000 803f
00000180: 0000 803f 0000 803f 0000 803f 0000 803f
00000190: 0000 803f 0000 803f 0000 803f 0000 803f
000001a0: 0000 803f 0000 803f 0000 803f 0000 803f
000001b0: 0000 803f 0000 803f 0000 803f 0000 803f
000001c0: 0000 803f 0000 803f 0000 803f 0000 803f
000001d0: 0000 803f 0000 803f 0000 803f 0000 803f
000001e0: 0000 803f 0000 803f 0000 803f 0000 803f
000001f0: 0000 803f 0000 803f 0000 803f 0000 803f
00000200: 0000 803f 0000 803f 0000 803f 0000 803f
00000210: 0000 803f 0000 803f 0000 803f 0000 803f
00000220: 0000 803f 0000 803f 0000 803f 0000 803f
00000230: 0000 803f 0000 803f 0000 803f 0000 803f
00000240: 0000 803f 0000 803f 0000 803f 0000 803f
00000250: 0000 803f 0000 803f 0000 803f 0000 803f
00000260: 0000 803f 0000 803f 0000 803f 0000 803f
00000270: 0000 803f 0000 803f 0000 803f 0000 803f
00000280: 0000 803f 0000 803f 0000 803f 0000 803f
00000290: 0000 803f 0000 803f 0000 803f 0000 803f
000002a0: 0000 803f 0000 803f 0000 803f 0000 803f
000002b0: 0000 803f 0000 803f 0000 803f 0000 803f
000002c0: 0000 803f 0000 803f 0000 803f 0000 803f
000002d0: 0000 803f 0000 803f 0000 803f 0000 803f
000002e0: 0000 803f 0000 803f 0000 803f 0000 803f
000002f0: 0000 803f 0000 803f 0000 803f 0000 803f
00000300: 0000 803f 0000 803f 0000 803f 0000 803f
00000310: 0000 803f 0000 803f 0000 803f 0000 803f

thr_o f4 [6]
1.0 1.0 1.0 1.0 1.0 1.0
00000000: 0000 803f 0000 803f 0000 803f 0000 803f
00000010: 0000 803f 0000 803f

i2h.weight f4 [200, 384]
0.07848073 0.023235053 -0.042299405 0.037137292 0.072829604 -0.10357453 -0.104108274 -0.042039353
-0.043901265 -0.09047109 -0.025409274 -0.02556265 -0.11343934 -0.09035396 -0.040476143 0.009392613
0.09308734 -0.087340236 0.011462655 -0.03810515 -0.067680456 -0.055575464 -0.012359268 0.053901248
-0.11006604 0.08495039 0.10161849 0.02462184 0.009759507 -0.057324354 0.008855349 -0.019224523
-0.028896235 -0.055364788 0.041411415 0.028257227 0.036432046 -0.050262272 0.046033785 0.09799378
-0.021247003 0.010451466 -0.034639318 0.009831131 0.07196927 -0.07867069 0.08810163 0.010217084
0.022272132 -0.033214007 -0.06265998 0.02347978 0.059672754 -0.07741221 0.032886263 -0.044453505
-0.052050974 -0.008912382 0.0022203163 0.030232674 -0.08792799 -0.038645018 0.08701612 -0.053230952
-0.018811408 0.0023614648 0.069771 -0.01702605 -0.100141644 -0.11075748 -0.106413126 0.015016952
-0.026145428 0.07563675 -0.009530644 0.07493819 0.0039862525 -0.112213 -0.056499463 -0.097783096
0.04531405 0.073850356 -0.015055611 -0.04445197 -0.069690265 -0.04859647 0.046485838 -0.043714184
0.062065523 -0.04510116 -0.040574502 -0.07909814 -0.05656026 0.060096145 0.054597124 0.02176935
0.03842601 -0.06685802 0.02169966 0.067472756 -0.06916813 0.037292592 -0.033257872 0.002671674
-0.02008657 0.06222937 -0.055972952 -0.0024384505 -0.060694665 0.0022996874 0.050412342 0.023600727
0.08317563 -0.08782861 0.08589411 0.025138682 0.053790633 0.021991022 -0.087686904 -0.06432851
-0.025178358 0.078240715 0.05391162 -0.06409431 -0.08482616 0.031881616 -0.08260376 -0.009633541
0.04763453 -0.087532684 -0.06390845 -0.04858641 -0.09161237 -0.03946469 0.033474263 -0.089337565
-0.037561774 -0.041904517 -0.09976273 0.05115128 0.044661116 0.06706821 -0.062353905 -0.04761335
-0.09904629 -0.114411704 -0.08860446 -0.049718827 0.0029727947 -0.089463696 0.058690418 -0.104154095
-0.07114741 0.023657238 -0.05052165 -0.11124859 -0.09163979 0.0722392 0.057570495 -0.021973763
-0.056792818 0.100266345 -0.04506557 0.053136252 -0.033924747 0.026590627 -0.06416087 0.022511734
-0.05081997 -0.024659121 0.02483156 -0.0010869617 0.031323183 0.090812206 -0.040845197 -0.06692246
-0.0216924 -0.09417046 -0.05828948 -0.072760366 -0.061185073 0.04154779 -0.008390073 0.028228298
-0.01137867 0.0027655875 0.06253083 0.010117356 0.08839872 0.03925381 -0.021093294 -0.098840736
0.06346326 -0.06005474 -0.0770512 0.09647736 0.10474161 -0.00016337412 0.05830961 0.06302465
-0.04642806 0.061192777 0.0854077 -0.049434412 0.07565876 -0.036627844 -0.0535456 0.07116439
0.001960669 -0.021630118 0.046468582 -0.04837102 -0.09894001 -0.05790011 0.05512702 0.044333424
-0.11555463 -0.03273958 -0.049695287 -0.041118097 0.067757726 -0.09184174 0.0640176 0.048144065
0.022175655 -0.025398681 0.09637983 0.11185494 -0.054217525 -0.017327402 -0.07546709 -0.08801854
0.027931334 0.032163247 -0.076818176 0.09883971 0.10569917 0.03074695 0.03454482 0.025884641
0.058214806 0.02429725 -0.04189462 -0.008797731 0.120565295 0.07663364 0.08065924 -0.07553155
-0.04687254 0.010673285 0.06546318 0.08328992 0.03531978 0.08840108 -0.04827045 0.0062527917
00000000: 81ba a03d 7057 be3c 2442 2dbd 461d 183d
00000010: b027 953d e21e d4bd b836 d5bd 7531 2cbd
00000020: d0d1 33bd e848 b9bd 1c27 d0bc c368 d1bc
00000030: e252 e8bd 7f0b b9bd 50ca 25bd 79e3 193c
00000040: 93a4 be3d 70df b2bd dccd 3b3c 2514 1cbd
00000050: 0d9c 8abd 19a3 63bd 877e 4abc 8ec7 5c3d
00000060: 4e6a e1bd 78fa ad3d 5b1d d03d beb3 c93c
00000070: 57e6 1f3c f1cc 6abd 0716 113c bf7c 9dbc
00000080: ccb7 ecbc 30c6 62bd 049f 293d b37b e73c
00000090: c539 153d d0df 4dbd ec8d 3c3d f7b0 c83d
000000a0: 320e aebc a03c 2b3c f5e1 0dbd c112 213c
000000b0: a064 933d 191e a1bd a16e b43d 8e65 273c
000000c0: 0c74 b63c 690b 08bd e053 80bd ab58 c03c
000000d0: 6b6b 743d 4b8a 9ebd bfb3 063d e114 36bd
000000e0: 6733 55bd 3d05 12bc ba82 113b 83aa f73c
000000f0: 9713 b4bd 3d4a 1ebd 8235 b23d b308 5abd
00000100: 621a 9abc cec2 1a3b 19e4 8e3d 377a 8bbc
00000110: 1017 cdbd d1d4 e2bd 20ef d9bd a909 763c
00000120: f02e d6bc 71e7 9a3d 6b26 1cbc 3279 993d
00000130: 1c9f 823b eecf e5bd fb6b 67bd 8142 c8bd
00000140: 3a9b 393d db3e 973d cfab 76bc 4513 36bd
00000150: c5b9 8ebd 180d 47bd ef67 3e3d a50d 33bd
00000160: 6b38 7e3d febb 38bd 7331 26bd 35fe a1bd
00000170: bbab 67bd 6027 763d 3ca1 5f3d a355 b23c
00000180: 9864 1d3d dcec 88bd 7cc3 b13c 282f 8a3d
00000190: 05a8 8dbd 1ec0 183d 6839 08bd 4017 2f3b
000001a0: 978c a4bc 39e4 7e3d e543 65bd 69ce 1fbb
000001b0: f89a 78bd 5ab6 163b 2c7d 4e3d 5056 c13c
000001c0: fc57 aa3d 7cdf b3bd 40e9 af3d a3ef cd3c
000001d0: 9153 5c3d 8426 b43c 3195 b3bd aabe 83bd
000001e0: d842 cebc ab3c a03d 6ed2 5c3d e143 83bd
000001f0: 56b9 adbd 4c96 023d 292c a9bd 00d6 1dbc
00000200: 6d1c 433d 5644 b3bd 6fe2 82bd 8b02 47bd
00000210: 449f bbbd baa5 21bd 4f1c 093d 9df6 b6bd
00000220: 60da 19bd 12a4 2bbd 6750 ccbd 0184 513d
00000230: 93ee 363d 0f5b 893d cf66 7fbd 3706 43bd
00000240: c8d8 cabd af50 eabd 4176 b5bd f8a5 4bbd
00000250: 38d3 423b be38 b7bd 5d65 703d be4e d5bd
00000260: bcb5 91bd d3cc c13c caef 4ebd 4dd6 e3bd
00000270: a4ad bbbd 25f2 933d 0acf 6b3d 5202 b4bc
00000280: 969f 68bd 7158 cd3d ad96 38bd 66a5 593d
00000290: adf4 0abd 96d4 d93c c666 83bd 876a b83c
000002a0: 9a28 50bd ed01 cabc 8e6b cb3c 6278 8eba
000002b0: bd4c 003d c0fb b93d 4b4d 27bd a50e 89bd
000002c0: 43b4 b1bc 71dc c0bd f3c0 6ebd 6303 95bd
000002d0: 339d 7abd 042e 2a3d 8476 09bc 083f e73c
000002e0: 9a6d 3abc dc3e 353b 2a10 803d 44c3 253c
000002f0: 630a b53d 9ac8 203d d8cb acbc 036d cabd
00000300: 07f9 813d f6fb 75bd 05cd 9dbd ec95 c53d
00000310: c582 d63d 684f 2bb9 0fd6 6e3d 1113 813d
00000320: 592b 3ebd 47a5 7a3d 3bea ae3d bd7b 4abd
00000330: fbf2 9a3d 1407 16bd a252 5bbd a3be 913d
00000340: 917e 003b a531 b1bc d755 3e3d b120 46bd
00000350: 0fa1 cabd aa28 6dbd dfcc 613d f796 353d
00000360: e8a7 ecbd f019 06bd 498d 4bbd 736b 28bd
00000370: 90c4 8a3d 8617 bcbd a91b 833d b632 453d
00000380: b8a9 b53c e510 d0bc ca62 c53d 3414 e53d
00000390: 3213 5ebd 32f2 8dbc 7d8e 9abd 1043 b4bd
000003a0: 41d0 e43c 9cbd 033d d952 9dbd 796c ca3d
000003b0: ce78 d83d 07e1 fb3c df7e 0d3d 070c d43c
000003c0: a672 6e3d 070b c73c b199 2bbd 5c24 10bc
000003d0: f0ea f63d 19f2 9c3d ac30 a53d 49b0 9abd
000003e0: 6cfd 3fbd 01df 2e3c 8f11 863d e893 aa3d
000003f0: 79ab 103d a00b b53d 3cb7 45bd 38e4 cc3b

i2h.bias f4 [200]
-0.007219842 0.0057033184 0.02104581 0.015668068 0.029885748 -0.011864339 0.006581674 -0.004288264
-0.007486086 0.02953208 0.036828935 0.012272088 0.009737932 0.019694779 0.011872789 0.014725618
-0.0008151799 0.022034552 0.020397967 0.030854361 0.026485957 -0.0038324848 0.03023698 -0.0041839173
-0.012864298 0.008222947 0.0088063 0.0323147 0.016366346 0.025164464 -0.0018722579 0.0018307315
0.02092525 -0.022442935 0.038306944 -0.026820531 0.030517891 0.0031668202 0.002025322 0.006430984
0.0044006393 0.007064374 -0.021006115 0.0016391982 0.0052186637 0.023103785 0.0074104923 -0.0086216545
-0.008078676 0.0038380963 -0.0033297804 0.010241234 0.0057615414 0.0057217497 0.008882373 0.010851881
-0.006883474 -0.0067484006 0.022727128 0.014940227 0.028671196 -0.01946859 0.02052708 0.025888385
0.0037243967 0.016421037 -0.002756998 0.024083914 -0.017804692 4.551437e-05 0.01955873 0.021078864
0.0145960655 -0.009059751 -0.0024825563 -0.018261004 -0.0062262025 0.018795524 -0.0013954213 0.018708404
0.010612633 0.025294473 0.009785219 0.0043396866 0.0011648681 -0.0058486997 0.03555325 0.016861197
0.020911122 -0.020783188 0.018859463 -0.004723131 0.023889277 -0.004544512 0.0004887522 -0.015962694
-0.014935765 -0.0032746445 0.003390377 0.029895307 0.03140599 -0.0022345516 0.013248877 -0.017431194
0.03674379 0.025878891 0.001498907 -0.01347548 -0.008316524 -0.00078050536 -0.006922192 -0.001431906
-0.013444146 0.025329573 0.030999875 0.015281866 -0.005031211 0.022282273 0.008355973 0.0032100189
-0.013385133 0.024691662 0.011913809 -0.008832354 0.019486807 -0.0006235778 -0.015270709 0.022997804
0.012768918 -0.0027128828 -0.004799434 0.025081903 0.020293498 0.00085568515 0.016304143 0.013441469
0.024415318 0.010029359 0.020416683 0.042864718 0.02002401 -0.006106898 -0.013557263 0.007986788
-0.02463715 0.0051594265 0.027568528 0.0060004387 0.0056332056 0.010700435 0.048517827 -0.00495323
0.012206573 -0.008062901 -0.0028402773 0.019197037 0.0056964364 -0.0061517684 0.011854942 0.026093543
-0.021203436 -0.004895604 -0.019695222 0.005368197 -0.0014260702 0.025578236 0.00468754 0.01706166
-0.0049139974 0.005628817 0.00011387059 -0.0004948349 0.00013570402 -0.001626026 0.010714715 0.005337003
-0.014824344 -0.0031645622 0.017298896 0.022616275 -0.0037052496 -0.0137274815 0.008221608 0.004513306
0.0031287083 0.02487215 0.014216533 0.011319641 -0.009869408 -0.0037079977 -0.00632715 -0.005434542
0.018029839 -0.014733095 0.0076938164 -0.005328896 -0.011852711 0.0149587635 0.007307556 -0.010649917
00000000: 6d94 ecbb e7e2 ba3b 4368 ac3c 525a 803c
00000010: f5d2 f43c a562 42bc 15ab d73b 9184 8cbb
00000020: d74d f5bb 43ed f13c f0d9 163d de10 493c
00000030: d98b 1f3c f256 a13c 1686 423c b843 713c
00000040: ccb1 55ba ce81 b43c a319 a73c 49c2 fc3c
00000050: 14f9 d83c 6d2a 7bbb 8bb3 f73c 3e19 89bb
00000060: c7c4 52bc 8ab9 063c 4d48 103c 6b5c 043d
00000070: b712 863c b525 ce3c 8d66 f5ba 28f5 ef3a
00000080: 6e6b ab3c 3fda b7bc bee7 1c3d bbb6 dbbc
00000090: a800 fa3c 6d8a 4f3b 44bb 043b 01bb d23b
000000a0: 3d33 903b 447c e73b 0415 acbc 5dda d63a
000000b0: 5301 ab3b 2644 bd3c b7d3 f23b d741 0dbc
000000c0: 6c5c 04bc 9288 7b3b 7238 5abb d9ca 273c
000000d0: 50cb bc3b 847d bb3b 5f87 113c 16cc 313c
000000e0: c48e e1bb b021 ddbb 3e2e ba3c dbc7 743c
000000f0: dbdf ea3c 987c 9fbc 6828 a83c e113 d43c
00000100: 0215 743b 6985 863c c0ae 34bb a14b c53c
00000110: 25db 91bc afe6 3e38 a139 a03c 95ad ac3c
00000120: 5624 6f3c 5a6f 14bc 62b2 22bb 1a98 95bc
00000130: 2c05 ccbb 12f9 993c 92e6 b6ba 5e42 993c
00000140: 9ce0 2d3c 5b36 cf3c 2f52 203c ee33 8e3b
00000150: 7dae 983a 73a6 bfbb 49a0 113d 7e20 8a3c
00000160: cd4d ab3c 8141 aabc 297f 9a3c 7fc4 9abb
00000170: 72b3 c33c 21ea 94bb 9b1f 003a 32c4 82bc
00000180: 24b5 74bc 6b9b 56bb 1631 5e3b 01e7 f43c
00000190: 91a3 003d 8e71 12bb d111 593c ddcb 8ebc
000001a0: a880 163d f8ff d33c f976 c43a 42c8 5cbc
000001b0: 0842 08bc d49a 4cba 8ed3 e2bb cbae bbba
000001c0: d644 5cbc f77f cf3c 73f3 fd3c cb60 7a3c
000001d0: dbdc a4bb 5089 b63c 7ee7 083c 2e5f 523b
000001e0: 514d 5bbc 2b46 ca3c 2332 433c 94b5 10bc
000001f0: cca2 9f3c 9977 23ba ff31 7abc e465 bc3c
00000200: b934 513c 9fca 31bb 9244 9dbb 9078 cd3c
00000210: 8d3e a63c 0f50 603a 4490 853c 9b39 5c3c
00000220: a202 c83c 2e52 243c e340 a73c ea92 2f3d
00000230: 6509 a43c 601c c8bb 481f 5ebc 04db 023c
00000240: d9d3 c9bc 6810 a93b 65d7 e13c 549f c43b
00000250: c196 b83b e150 2f3c a1ba 463d b44e a2bb
00000260: 14fe 473c 421a 04bc f223 3abb 1b43 9d3c
00000270: 2ca9 ba3b c694 c9bb 3b3b 423c 20c2 d53c
00000280: d4b2 adbc 4e6b a0bb e057 a1bc b3e7 af3b
00000290: faea baba 7389 d13c ef99 993b e5c4 8b3c
000002a0: 9905 a1bb f071 b83b cfcd ee38 cfb7 01ba
000002b0: c54b 0e39 6120 d5ba c68c 2f3c 07e2 ae3b
000002c0: cee1 72bc 8b64 4fbb 6ab6 8d3c c445 b93c
000002d0: c6d3 72bb 3be9 60bc ecb3 063c 5be4 933b
000002e0: 040b 4d3b aec0 cb3c 76ec 683c 0476 393c
000002f0: 4cb3 21bc e101 73bb fb53 cfbb 3e14 b2bb
00000300: 50b3 933c 1463 71bc 691c fc3b 059e aebb
00000310: e031 42bc 9a15 753c 3974 ef3b fd7c 2ebc

h2o.weight f4 [6, 200]
0.11776627 0.114942506 -0.064868905 0.05318183 -0.026912114 -0.009473453 0.054403394 0.0822025
-0.14174718 0.14538513 -0.06776034 0.049176924 0.036091346 0.16501033 -0.06941737 0.13729858
0.08336418 0.11802085 0.09206398 0.1355668 0.0933628 -0.13406523 0.13296993 0.1305421
-0.10006819 -0.045946375 -0.1662301 0.09961639 0.13482572 0.08622042 0.039007492 -0.07060213
0.14986573 -0.14617914 0.09895834 -0.006304541 0.0911947 -0.084094174 0.05828089 -0.1594128
-0.11250036 0.06732349 -0.08464148 0.05281087 -0.1034392 -0.16203646 0.0059500164 -0.14840844
0.09392002 0.10844917 0.11090461 0.06403683 -0.16813956 -0.12420359 -0.099555075 -0.13455297
-0.117919914 -0.18876976 0.013911765 0.15764126 0.038814675 0.11263852 0.0440169 0.07825091
0.003736083 0.086808495 0.14960365 0.118354 -0.15047134 -0.15176065 0.08280391 0.12916511
-0.11012681 -0.05440735 -0.080769636 -0.10330466 -0.11719982 0.16162981 -0.047620956 -0.15829478
-0.19205083 0.056268252 0.06197708 -0.18136 -0.06445437 -0.14785358 -0.16159986 -0.077928916
0.049775172 0.10878621 -0.01907301 0.07024821 0.09581348 -0.12936315 -0.068671465 0.121459275
-0.1278831 0.0085267415 -0.11891569 0.0064839763 -0.1255787 -0.052342787 0.12730679 -0.18066731
0.08658224 0.13168775 -0.07359901 -0.18006821 -0.16781345 -0.063514836 -0.17435972 -0.1922045
-0.18548653 0.078662276 -0.05185713 0.14799327 0.13924396 -0.033586808 -0.12375635 0.058627833
0.0013093054 0.12116379 0.09632119 -0.17177382 -0.10609242 -0.18547721 0.064929515 0.030282624
-0.029868241 0.14888923 0.13257498 -0.018577438 -0.09374305 -0.14573686 0.0700674 -0.090374716
-0.04625718 -0.15968007 0.088834204 0.06632787 0.15325883 -0.14805645 -0.16674124 -0.11153439
-0.079879366 0.0076846876 -0.14478946 -0.10369538 0.07899757 0.11447058 0.12755251 -0.087231755
0.02198199 0.09286593 -0.13265015 -0.09246766 -0.16970555 -0.07968345 0.053021148 -0.1759816
-0.12280178 -0.1431228 -0.08555155 0.031383157 -0.0064076483 0.10771683 -0.0466611 0.040867176
0.010194184 0.01198269 0.13730256 0.020813856 -0.099372424 -0.11117879 -0.16493721 -0.03196341
-0.19592771 0.12083284 -0.12285689 -0.07749643 -0.016246315 0.014562178 0.086228974 -0.071494594
-0.04669244 0.15403242 0.04379688 0.13361944 -0.17568575 -0.061473247 -0.109983586 -0.0745575
-0.014077614 -0.13381073 0.13818824 -0.20451184 0.06580587 0.17337713 -0.108015135 0.019046452
-0.038091768 -0.096233256 -0.018654352 0.1555438 -0.15752614 0.038141653 -0.094674565 0.067753434
-0.05601431 0.12474388 -0.1220712 -0.012704967 0.13004175 -0.09971573 0.15435642 0.10297181
-0.0026531224 -0.049704053 -0.17963997 0.14232184 0.05128377 -0.07630908 0.038175125 -0.053074718
0.07252795 0.12522125 -0.011389595 0.10518871 0.11471982 0.05442876 -0.18897323 0.08527819
0.15665802 -0.11628319 -0.13304742 0.1269018 -0.011635564 -0.10204183 0.08853303 -0.15142243
0.12568142 -0.055523388 0.15079485 -0.20074181 0.077909596 0.03964157 0.14317389 -0.15128621
-0.0058621955 -0.064700924 -0.21776904 0.017642334 -0.15818477 0.21694958 0.02583705 0.03183
00000000: 712f f13d fa66 eb3d fdd9 84bd 31d5 593d
00000010: cb76 dcbc 8b36 1bbc 18d6 5e3d c959 a83d
00000020: 2c26 11be d7df 143e efc5 8abd be6d 493d
00000030: 85d4 133d 78f8 283e b22a 8ebd 0098 0c3e
00000040: d7ba aa3d eab4 f13d 0a8c bc3d 06d2 0a3e
00000050: ff34 bf3d 6548 09be 4529 083e d4ac 053e
00000060: 8df0 ccbd 4432 3cbd 3938 2abe ae03 cc3d
00000070: c10f 0a3e 5594 b03d 52c6 1f3d d997 90bd
00000080: 6776 193e fcaf 15be acaa ca3d 5396 cebb
00000090: 49c4 ba3d 9139 acbd f1b7 6e3d 1c3d 23be
000000a0: 9766 e6bd e6e0 893d 8358 adbd 3650 583d
000000b0: eed7 d3bd e3ec 25be 5bf8 c23b 62f8 17be
000000c0: 2459 c03d 991a de3d f521 e33d be25 833d
000000d0: c72c 2cbe 745e febd 88e3 cbbd 41c8 09be
000000e0: ff7f f1bd dc4c 41be 2cee 633c b66c 213e
000000f0: 23fc 1e3d 06af e63d 114b 343d 0342 a03d
00000100: 12d9 743b a7c8 b13d b331 193e 9563 f23d
00000110: 2915 1abe 2567 1bbe 1995 a93d dc43 043e
00000120: 2a8a e1bd 3eda 5ebd 8d6a a5bd 6591 d3bd
00000130: 7606 f0bd 4982 253e 310e 43bd 0718 22be
00000140: f9a8 44be 8a79 663d aedb 7d3d 70b6 39be
00000150: a700 84bd ee66 17be 6f7a 25be 3299 9fbd
00000160: 0de1 4b3d 4ecb de3d 003f 9cbc 4bde 8f3d
00000170: dc39 c43d c677 04be a0a3 8cbd a4bf f83d
00000180: caf3 02be bfb3 0b3c 128a f3bd 8977 d43b
00000190: b497 00be 6465 56bd b65c 023e da00 39be
000001a0: 0852 b13d 27d9 063e 14bb 96bd cd63 38be
000001b0: 4ad7 2bbe 1114 82bd 5b8b 32be 42d1 44be
000001c0: 2ef0 3dbe b019 a13d 2468 54bd 8c8b 173e
000001d0: f895 0e3e 5292 09bd f873 fdbd bd23 703d
000001e0: 009d ab3a b924 f83d 0b44 c53d 7ae5 2fbe
000001f0: fc46 d9bd bded 3dbe c4f9 843d 4413 f83c
00000200: 3eae f4bc 6b76 183e bcc1 073e b62f 98bc
00000210: 5bfc bfbd 0b3c 15be 7f7f 8f3d 6116 b9bd
00000220: 2b78 3dbd 2c83 23be b5ee b53d e8d6 873d
00000230: e2ef 1c3e 1c9c 17be 37be 2abe 246c e4bd
00000240: cb97 a3bd d5cf fb3b b043 14be 3e5e d4bd
00000250: 7ac9 a13d 8d6f ea3d 209d 023e 90a6 b2bd
00000260: 9313 b43c 7e30 be3d 71d5 07be af5f bdbd
00000270: 4bc7 2dbe 1431 a3bd b42c 593d 8534 34be
00000280: 807f fbbd c98e 12be a735 afbd a08b 003d
00000290: 40f7 d1bb a49a dc3d b61f 3fbd 5764 273d
000002a0: 8205 273c 0b53 443c 0b99 0c3e d281 aa3c
000002b0: c583 cbbd b5b1 e3bd 4de5 28be 11ec 02bd
000002c0: 46a1 48be 3577 f73d 659c fbbd 73b6 9ebd
000002d0: fe16 85bc 3496 6e3c d198 b03d c26b 92bd
000002e0: 9240 3fbd adba 1d3e 5b64 333d 89d3 083e
000002f0: f7e6 33be 5fcb 7bbd 133f e1bd 9ab1 98bd
00000300: cba5 66bc ae05 09be 3881 0d3e 8d6b 51be
00000310: 3ac5 863d c689 313e 0a37 ddbd 4e07 9c3c
00000320: 1d06 1cbd f115 c5bd 03d1 98bc e046 1f3e
00000330: 884e 21be 6c3a 1c3d bde4 c1bd 50c2 8a3d
00000340: 436f 65bd b879 ff3d 7700 fabd 7e28 50bc
00000350: aa29 053e c337 ccbd 9c0f 1e3e e2e2 d23d
00000360: 02e0 2dbb 7a96 4bbd 8af3 37be d1bc 113e
00000370: ee0e 523d ef47 9cbd 855d 1c3d e064 59bd
00000380: 8989 943d 003a 003e 6d9b 3abc 2e6d d73d
00000390: 3af2 ea3d b1f0 5e3d 3382 41be 55a6 ae3d
000003a0: f66a 203e e225 eebd 953d 08be 8cf2 013e
000003b0: 18a3 3ebc 4ffb d0bd ce50 b53d 7b0e 1bbe
000003c0: a1b2 003e 7e6c 63bd f769 1a3e 438f 4dbe
000003d0: 118f 9f3d 335f 223d 2d9c 123e c6ea 1abe
000003e0: a917 c0bb eb81 84bd d9fe 5ebe a886 903c
000003f0: 30fb 21be 0828 5e3e 39a8 d33c 2d60 023d

h2o.bias f4 [6]
0.015229573 0.009098583 0.008155175 -0.004853602 0.0020139923 -0.0015865898
00000000: 7585 793c 3912 153c 489d 053c f70a 9fbb
00000010: 2ffd 033b 1ff5 cfba

h2h.weight f4 [200, 200]
-0.018345725 -0.045273323 0.054151405 -0.024771716 0.02129211 -0.07460878 -0.04070891 -0.13837183
0.10850329 -0.09626546 -0.010046237 -0.030106416 0.04487858 -0.14654261 0.002789066 -0.0548972
-0.09181036 -0.016035449 -0.039692108 0.09189941 -0.042110946 -0.08949558 0.0042836745 0.025165748
0.102333926 -0.022551758 0.020691112 0.041432425 -0.014685471 0.08822206 -0.00019565661 0.03250456
-0.043970987 -0.054697104 -0.017438877 -0.039758466 -0.05728462 -0.010664253 0.059398126 -0.041794524
-0.011502647 -0.025431111 0.07189677 0.1393337 -0.13046692 0.057343382 0.022156501 -0.054171044
-0.0011838228 -0.040174004 -0.064391576 -0.045739274 -0.015793867 -0.12758268 0.08958421 0.014722889
-0.02054483 0.0050947466 -0.11217943 -0.08716665 0.034132596 -0.06086684 0.1538525 0.02076203
-0.029255958 0.042764533 -0.013109298 0.1096435 0.052328408 -0.038856022 0.13428168 -0.17146032
-0.03328946 0.0007476595 -0.059479196 -0.13662802 -0.060286116 0.04575348 0.069323115 0.014952831
0.032262582 -0.14890037 -0.021599296 0.08383212 0.056328833 -0.06716223 -0.07851474 0.022936353
0.01330817 0.09103936 -0.0094986865 0.05453005 -0.11091454 0.021394981 -0.022370672 -0.13756192
0.063467994 -0.012021015 -0.08972552 -0.0033973567 0.023734415 -0.08577908 -0.026271915 0.14121707
0.12390194 -0.0014348795 -0.11222579 0.0067121084 -0.0069481772 -0.0005791268 -0.03356234 -0.070091315
0.092146836 -0.097206764 0.055034425 0.015624467 -0.0051995977 0.06662933 0.016098324 0.058626253
0.0022634242 -0.047498517 -0.06562488 -0.029239371 0.06676605 0.062446088 -0.013850725 0.06819676
0.09529217 -0.08760799 0.03442887 0.05672181 -0.031641375 -0.032165065 0.030834908 0.059206
-0.13426115 0.005922221 -0.022840234 -0.019158747 0.1394913 -0.1394922 -0.0720624 0.052065082
0.035709888 0.037275832 -0.04202705 -0.1184768 -0.006479555 -0.015942946 -0.10334501 -0.033453595
-0.008783624 -0.029537613 0.05379293 -0.08933935 0.05459914 -0.008782718 -0.06368908 0.15075839
-0.15216082 0.111907065 -0.09586896 0.15235353 -0.09203117 -0.012663599 -0.06663963 0.0781898
-0.013213335 0.026541702 -0.017226337 0.040691253 0.0295787 0.05195971 -0.053622346 0.14262912
0.030454088 -0.15297996 0.103812054 -0.03373244 0.15396063 -0.08587252 0.017183268 -0.011129012
-0.071685635 -0.016867481 -0.09092915 0.013479404 -0.04241874 -0.0899861 0.094490364 0.060666285
0.04592688 0.0009226192 -0.15635198 0.024946535 -0.029077563 -0.09725105 -0.052132268 -0.09543546
-0.024270631 0.06039101 -0.086136825 0.0040326756 0.073959105 -0.06943071 -0.0215971 -0.052258786
0.042226408 -0.018634642 0.013475853 -0.04675535 -0.04045343 0.0713087 -0.04517501 0.0041336897
-0.17202824 0.071660616 -0.023356078 0.063477315 -0.18662731 -0.03682848 -0.09107788 -0.09794728
-0.021170773 0.010192935 -0.07670369 -0.047091126 0.07264604 -0.13041192 -0.09203043 0.05611733
-0.0071115373 -0.027252795 0.06533176 -0.08455787 -0.08262653 -0.0021448324 0.11215275 0.08037401
0.16681994 0.061303474 -0.18373904 0.022767272 0.009945711 0.10004774 -0.0052825892 -0.011435453
0.014915959 0.06276311 -0.051531196 -0.04756047 0.023803988 0.013849292 -0.031343255 -0.08249039
00000000: c649 96bc 8570 39bd ddcd 5d3d 0eee cabc
00000010: cb6c ae3c 7dcc 98bd 63be 26bd 58b1 0dbe
00000020: f936 de3d d326 c5bd f998 24bc bba1 f6bc
00000030: 9ad2 373d 440f 16be c3c8 363b e3db 60bd
00000040: 1207 bcbd c65c 83bc 3194 22bd c235 bc3d
00000050: 877c 2cbd 7549 b7bd 115e 8c3b 6628 ce3c
00000060: 7394 d13d 77be b8bc 6880 a93c 0cb5 293d
00000070: 549b 70bc c4ad b43d 2c29 4db9 8023 053d
00000080: ec1a 34bd 120a 60bd fadb 8ebc c6d9 22bd
00000090: 47a3 6abd 1eb9 2ebc 734b 733d bc30 2bbd
000000a0: 9975 3cbc e854 d0bc 9d3e 933d 7ead 0e3e
000000b0: 1f99 05be e5e0 6a3d 8d81 b53c 75e2 5dbd
000000c0: 802a 9bba 7f8d 24bd bbdf 83bd 1b59 3bbd
000000d0: 2462 81bc 09a5 02be ed77 b73d 4638 713c
000000e0: a24d a8bc d5f1 a63b 54be e5bd 6e84 b2bd
000000f0: 9fce 0b3d 824f 79bd 828b 1d3e 2215 aa3c
00000100: 31aa efbc dd29 2f3d 62c8 56bc c58c e03d
00000110: 5056 563d 7e27 1fbd 2381 093e 4b93 2fbe
00000120: 875a 08bd 94fe 433a 75a0 73bd 37e8 0bbe
00000130: 93ee 76bd 0068 3b3d 47f9 8d3d b8fc 743c
00000140: c525 043d 5779 18be 02f1 b0bc 2db0 ab3d
00000150: 10b9 663d 5a8c 89bd 56cc a0bd 05e5 bb3c
00000160: 830a 5a3c d872 ba3d 61a0 1bbc e75a 5f3d
00000170: 2a27 e3bd 8744 af3c b342 b7bc 08dd 0cbe
00000180: 82fb 813d cbf3 44bc 03c2 b7bd 30a6 5ebb
00000190: ad6e c23c f1ac afbd 3338 d7bc 359b 103e
000001a0: 4dc0 fd3d 9112 bcba a3d6 e5bd 3ff1 db3b
000001b0: 89ad e3bb 8bd0 17ba aa78 09bd 098c 8fbd
000001c0: 7bb7 bc3d 5714 c7bd c76b 613d c4fd 7f3c
000001d0: 6361 aabb f574 883d a2e0 833c 1522 703d
000001e0: f555 143b ce8d 42bd 5666 86bd 6887 efbc
000001f0: a4bc 883d 78c7 7f3d 27ee 62bc beaa 8b3d
00000200: 8b28 c33d d16b b3bd 4905 0d3d 2155 683d
00000210: 639a 01bd 84bf 03bd 7d99 fc3c fe81 723d
00000220: c17b 09be 310f c23b 711b bbbc cef2 9cbc
00000230: cfd6 0e3e 0bd7 0ebe 7495 93bd 3242 553d
00000240: 8844 123d 8bae 183d 8e24 2cbd f7a3 f2bd
00000250: 7252 d4bb c89a 82bc 8ca6 d3bd a306 09bd
00000260: 30e9 0fbc ddf8 f1bc fa55 5c3d 8df7 b6bd
00000270: 59a3 5f3d 64e5 0fbc 6c6f 82bd 6860 1a3e
00000280: 0cd0 1bbe 882f e53d f256 c4bd 9002 1c3e
00000290: d77a bcbd fc7a 4fbc 5c7a 88bd f921 a03d
000002a0: be7c 58bc fc6d d93c 3f1e 8dbc dfab 263d
000002b0: 084f f23c b4d3 543d 1ba3 5bbd 5e0d 123e
000002c0: da7a f93c c7a6 1cbe 6a9b d43d 072b 0abd
000002d0: dba7 1d3e efdd afbd edc3 8c3c 7656 36bc
000002e0: ebcf 92bd ac2d 8abc 1039 babd b8d8 5c3c
000002f0: 46bf 2dbd a24a b8bd 2a84 c13d 367d 783d
00000300: d31d 3c3d eddb 713a bc1a 20be ad5c cc3c
00000310: 1234 eebc 8f2b c7bd a588 55bd ab73 c3bd
00000320: 34d3 c6bc 905c 773d 8168 b0bd 8924 843b
00000330: df77 973d b031 8ebd 67ec b0bc 4f0d 56bd
00000340: 99f5 2c3d ada7 98bc d3c9 5c3c 8a82 3fbd
00000350: 7fb2 25bd 4c0a 923d 6e09 39bd e773 873b
00000360: 2c28 30be cdc2 923d 3f55 bfbc 6500 823d
00000370: 3b1b 3fbe 76d9 16bd 0a87 babd 9598 c8bd
00000380: 546e adbc 4500 273c d316 9dbd a0e2 40bd
00000390: 72c7 943d b48a 05be 737a bcbd 49db 653d
000003a0: e607 e9bb 4141 dfbc a8cc 853d ad2c adbd
000003b0: 1938 a9bd 5190 0cbb 57b0 e53d 219b a43d
000003c0: d9d2 2a3e 5a19 7b3d 1626 3cbe 6e82 ba3c
000003d0: 56f3 223c d4e5 cc3d 9219 adbb c45b 3bbc
000003e0: 1162 743c f289 803d 6012 53bd c4ce 42bd
000003f0: 9500 c33c 24e8 623c c961 00bd b9f0 a8bd

h2h.bias f4 [200]
-0.007219842 0.0057033184 0.02104581 0.015668068 0.029885748 -0.011864339 0.006581674 -0.004288264
-0.007486086 0.02953208 0.036828935 0.012272088 0.009737932 0.019694779 0.011872789 0.014725618
-0.0008151799 0.022034552 0.020397967 0.030854361 0.026485957 -0.0038324848 0.03023698 -0.0041839173
-0.012864298 0.008222947 0.0088063 0.0323147 0.016366346 0.025164464 -0.0018722579 0.0018307315
0.02092525 -0.022442935 0.038306944 -0.026820531 0.030517891 0.0031668202 0.002025322 0.006430984
0.0044006393 0.007064374 -0.021006115 0.0016391982 0.0052186637 0.023103785 0.0074104923 -0.0086216545
-0.008078676 0.0038380963 -0.0033297804 0.010241234 0.0057615414 0.0057217497 0.008882373 0.010851881
-0.006883474 -0.0067484006 0.022727128 0.014940227 0.028671196 -0.01946859 0.02052708 0.025888385
0.0037243967 0.016421037 -0.002756998 0.024083914 -0.017804692 4.551437e-05 0.01955873 0.021078864
0.0145960655 -0.009059751 -0.0024825563 -0.018261004 -0.0062262025 0.018795524 -0.0013954213 0.018708404
0.010612633 0.025294473 0.009785219 0.0043396866 0.0011648681 -0.0058486997 0.03555325 0.016861197
0.020911122 -0.020783188 0.018859463 -0.004723131 0.023889277 -0.004544512 0.0004887522 -0.015962694
-0.014935765 -0.0032746445 0.003390377 0.029895307 0.03140599 -0.0022345516 0.013248877 -0.017431194
0.03674379 0.025878891 0.001498907 -0.01347548 -0.008316524 -0.00078050536 -0.006922192 -0.001431906
-0.013444146 0.025329573 0.030999875 0.015281866 -0.005031211 0.022282273 0.008355973 0.0032100189
-0.013385133 0.024691662 0.011913809 -0.008832354 0.019486807 -0.0006235778 -0.015270709 0.022997804
0.012768918 -0.0027128828 -0.004799434 0.025081903 0.020293498 0.00085568515 0.016304143 0.013441469
0.024415318 0.010029359 0.020416683 0.042864718 0.02002401 -0.006106898 -0.013557263 0.007986788
-0.02463715 0.0051594265 0.027568528 0.0060004387 0.0056332056 0.010700435 0.048517827 -0.00495323
0.012206573 -0.008062901 -0.0028402773 0.019197037 0.0056964364 -0.0061517684 0.011854942 0.026093543
-0.021203436 -0.004895604 -0.019695222 0.005368197 -0.0014260702 0.025578236 0.00468754 0.01706166
-0.0049139974 0.005628817 0.00011387059 -0.0004948349 0.00013570402 -0.001626026 0.010714715 0.005337003
-0.014824344 -0.0031645622 0.017298896 0.022616275 -0.0037052496 -0.0137274815 0.008221608 0.004513306
0.0031287083 0.02487215 0.014216533 0.011319641 -0.009869408 -0.0037079977 -0.00632715 -0.005434542
0.018029839 -0.014733095 0.0076938164 -0.005328896 -0.011852711 0.0149587635 0.007307556 -0.010649917
00000000: 6d94 ecbb e7e2 ba3b 4368 ac3c 525a 803c
00000010: f5d2 f43c a562 42bc 15ab d73b 9184 8cbb
00000020: d74d f5bb 43ed f13c f0d9 163d de10 493c
00000030: d98b 1f3c f256 a13c 1686 423c b843 713c
00000040: ccb1 55ba ce81 b43c a319 a73c 49c2 fc3c
00000050: 14f9 d83c 6d2a 7bbb 8bb3 f73c 3e19 89bb
00000060: c7c4 52bc 8ab9 063c 4d48 103c 6b5c 043d
00000070: b712 863c b525 ce3c 8d66 f5ba 28f5 ef3a
00000080: 6e6b ab3c 3fda b7bc bee7 1c3d bbb6 dbbc
00000090: a800 fa3c 6d8a 4f3b 44bb 043b 01bb d23b
000000a0: 3d33 903b 447c e73b 0415 acbc 5dda d63a
000000b0: 5301 ab3b 2644 bd3c b7d3 f23b d741 0dbc
000000c0: 6c5c 04bc 9288 7b3b 7238 5abb d9ca 273c
000000d0: 50cb bc3b 847d bb3b 5f87 113c 16cc 313c
000000e0: c48e e1bb b021 ddbb 3e2e ba3c dbc7 743c
000000f0: dbdf ea3c 987c 9fbc 6828 a83c e113 d43c
00000100: 0215 743b 6985 863c c0ae 34bb a14b c53c
00000110: 25db 91bc afe6 3e38 a139 a03c 95ad ac3c
00000120: 5624 6f3c 5a6f 14bc 62b2 22bb 1a98 95bc
00000130: 2c05 ccbb 12f9 993c 92e6 b6ba 5e42 993c
00000140: 9ce0 2d3c 5b36 cf3c 2f52 203c ee33 8e3b
00000150: 7dae 983a 73a6 bfbb 49a0 113d 7e20 8a3c
00000160: cd4d ab3c 8141 aabc 297f 9a3c 7fc4 9abb
00000170: 72b3 c33c 21ea 94bb 9b1f 003a 32c4 82bc
00000180: 24b5 74bc 6b9b 56bb 1631 5e3b 01e7 f43c
00000190: 91a3 003d 8e71 12bb d111 593c ddcb 8ebc
000001a0: a880 163d f8ff d33c f976 c43a 42c8 5cbc
000001b0: 0842 08bc d49a 4cba 8ed3 e2bb cbae bbba
000001c0: d644 5cbc f77f cf3c 73f3 fd3c cb60 7a3c
000001d0: dbdc a4bb 5089 b63c 7ee7 083c 2e5f 523b
000001e0: 514d 5bbc 2b46 ca3c 2332 433c 94b5 10bc
000001f0: cca2 9f3c 9977 23ba ff31 7abc e465 bc3c
00000200: b934 513c 9fca 31bb 9244 9dbb 9078 cd3c
00000210: 8d3e a63c 0f50 603a 4490 853c 9b39 5c3c
00000220: a202 c83c 2e52 243c e340 a73c ea92 2f3d
00000230: 6509 a43c 601c c8bb 481f 5ebc 04db 023c
00000240: d9d3 c9bc 6810 a93b 65d7 e13c 549f c43b
00000250: c196 b83b e150 2f3c a1ba 463d b44e a2bb
00000260: 14fe 473c 421a 04bc f223 3abb 1b43 9d3c
00000270: 2ca9 ba3b c694 c9bb 3b3b 423c 20c2 d53c
00000280: d4b2 adbc 4e6b a0bb e057 a1bc b3e7 af3b
00000290: faea baba 7389 d13c ef99 993b e5c4 8b3c
000002a0: 9905 a1bb f071 b83b cfcd ee38 cfb7 01ba
000002b0: c54b 0e39 6120 d5ba c68c 2f3c 07e2 ae3b
000002c0: cee1 72bc 8b64 4fbb 6ab6 8d3c c445 b93c
000002d0: c6d3 72bb 3be9 60bc ecb3 063c 5be4 933b
000002e0: 040b 4d3b aec0 cb3c 76ec 683c 0476 393c
000002f0: 4cb3 21bc e101 73bb fb53 cfbb 3e14 b2bb
00000300: 50b3 933c 1463 71bc 691c fc3b 059e aebb
00000310: e031 42bc 9a15 753c 3974 ef3b fd7c 2ebc
