VLSI23_journal/intuitivechip_classifier_lcsvsnlcs_teensy/SNN_ep-150-isize-1-8-1-hsize-242-bsize-32-lr-0.001-tmax_ms-400.0-Ts-10.0-k-6-dsetPath-VMODE_allchannels_ALLCLASS_auto_nospkfilter_cleaned_1x8_18mvpp_250mvofs_onedac_itail_50nA_N4b_OFFdcard/chip-classifier-1-best.pt (torch, 253495 bytes, 8 tensors)

thr_h_1 f4 [242]
000000 00 00 80 3f 00 00 80 3f 00 00 80 3f 00 00 80 3f
       1.0 1.0 1.0 1.0
000010 00 00 80 3f 00 00 80 3f 00 00 80 3f 00 00 80 3f
       1.0 1.0 1.0 1.0
000020 00 00 80 3f 00 00 80 3f 00 00 80 3f 00 00 80 3f
       1.0 1.0 1.0 1.0
000030 00 00 80 3f 00 00 80 3f 00 00 80 3f 00 00 80 3f
       1.0 1.0 1.0 1.0
000040 00 00 80 3f 00 00 80 3f 00 00 80 3f 00 00 80 3f
       1.0 1.0 1.0 1.0
000050 00 00 80 3f 00 00 80 3f 00 00 80 3f 00 00 80 3f
       1.0 1.0 1.0 1.0
000060 00 00 80 3f 00 00 80 3f 00 00 80 3f 00 00 80 3f
       1.0 1.0 1.0 1.0
000070 00 00 80 3f 00 00 80 3f 00 00 80 3f 00 00 80 3f
       1.0 1.0 1.0 1.0
000080 00 00 80 3f 00 00 80 3f 00 00 80 3f 00 00 80 3f
       1.0 1.0 1.0 1.0
000090 00 00 80 3f 00 00 80 3f 00 00 80 3f 00 00 80 3f
       1.0 1.0 1.0 1.0
0000a0 00 00 80 3f 00 00 80 3f 00 00 80 3f 00 00 80 3f
       1.0 1.0 1.0 1.0
0000b0 00 00 80 3f 00 00 80 3f 00 00 80 3f 00 00 80 3f
       1.0 1.0 1.0 1.0
0000c0 00 00 80 3f 00 00 80 3f 00 00 80 3f 00 00 80 3f
       1.0 1.0 1.0 1.0
0000d0 00 00 80 3f 00 00 80 3f 00 00 80 3f 00 00 80 3f
       1.0 1.0 1.0 1.0
0000e0 00 00 80 3f 00 00 80 3f 00 00 80 3f 00 00 80 3f
       1.0 1.0 1.0 1.0
0000f0 00 00 80 3f 00 00 80 3f 00 00 80 3f 00 00 80 3f
       1.0 1.0 1.0 1.0
000100 00 00 80 3f 00 00 80 3f 00 00 80 3f 00 00 80 3f
       1.0 1.0 1.0 1.0
000110 00 00 80 3f 00 00 80 3f 00 00 80 3f 00 00 80 3f
       1.0 1.0 1.0 1.0
000120 00 00 80 3f 00 00 80 3f 00 00 80 3f 00 00 80 3f
       1.0 1.0 1.0 1.0
000130 00 00 80 3f 00 00 80 3f 00 00 80 3f 00 00 80 3f
       1.0 1.0 1.0 1.0
000140 00 00 80 3f 00 00 80 3f 00 00 80 3f 00 00 80 3f
       1.0 1.0 1.0 1.0
000150 00 00 80 3f 00 00 80 3f 00 00 80 3f 00 00 80 3f
       1.0 1.0 1.0 1.0
000160 00 00 80 3f 00 00 80 3f 00 00 80 3f 00 00 80 3f
       1.0 1.0 1.0 1.0
000170 00 00 80 3f 00 00 80 3f 00 00 80 3f 00 00 80 3f
       1.0 1.0 1.0 1.0
000180 00 00 80 3f 00 00 80 3f 00 00 80 3f 00 00 80 3f
       1.0 1.0 1.0 1.0
000190 00 00 80 3f 00 00 80 3f 00 00 80 3f 00 00 80 3f
       1.0 1.0 1.0 1.0
0001a0 00 00 80 3f 00 00 80 3f 00 00 80 3f 00 00 80 3f
       1.0 1.0 1.0 1.0
0001b0 00 00 80 3f 00 00 80 3f 00 00 80 3f 00 00 80 3f
       1.0 1.0 1.0 1.0
0001c0 00 00 80 3f 00 00 80 3f 00 00 80 3f 00 00 80 3f
       1.0 1.0 1.0 1.0
0001d0 00 00 80 3f 00 00 80 3f 00 00 80 3f 00 00 80 3f
       1.0 1.0 1.0 1.0
0001e0 00 00 80 3f 00 00 80 3f 00 00 80 3f 00 00 80 3f
       1.0 1.0 1.0 1.0
0001f0 00 00 80 3f 00 00 80 3f 00 00 80 3f 00 00 80 3f
       1.0 1.0 1.0 1.0
000200 00 00 80 3f 00 00 80 3f 00 00 80 3f 00 00 80 3f
       1.0 1.0 1.0 1.0
000210 00 00 80 3f 00 00 80 3f 00 00 80 3f 00 00 80 3f
       1.0 1.0 1.0 1.0
000220 00 00 80 3f 00 00 80 3f 00 00 80 3f 00 00 80 3f
       1.0 1.0 1.0 1.0
000230 00 00 80 3f 00 00 80 3f 00 00 80 3f 00 00 80 3f
       1.0 1.0 1.0 1.0
000240 00 00 80 3f 00 00 80 3f 00 00 80 3f 00 00 80 3f
       1.0 1.0 1.0 1.0
000250 00 00 80 3f 00 00 80 3f 00 00 80 3f 00 00 80 3f
       1.0 1.0 1.0 1.0
000260 00 00 80 3f 00 00 80 3f 00 00 80 3f 00 00 80 3f
       1.0 1.0 1.0 1.0
000270 00 00 80 3f 00 00 80 3f 00 00 80 3f 00 00 80 3f
       1.0 1.0 1.0 1.0
000280 00 00 80 3f 00 00 80 3f 00 00 80 3f 00 00 80 3f
       1.0 1.0 1.0 1.0
000290 00 00 80 3f 00 00 80 3f 00 00 80 3f 00 00 80 3f
       1.0 1.0 1.0 1.0
0002a0 00 00 80 3f 00 00 80 3f 00 00 80 3f 00 00 80 3f
       1.0 1.0 1.0 1.0
0002b0 00 00 80 3f 00 00 80 3f 00 00 80 3f 00 00 80 3f
       1.0 1.0 1.0 1.0
0002c0 00 00 80 3f 00 00 80 3f 00 00 80 3f 00 00 80 3f
       1.0 1.0 1.0 1.0
0002d0 00 00 80 3f 00 00 80 3f 00 00 80 3f 00 00 80 3f
       1.0 1.0 1.0 1.0
0002e0 00 00 80 3f 00 00 80 3f 00 00 80 3f 00 00 80 3f
       1.0 1.0 1.0 1.0
0002f0 00 00 80 3f 00 00 80 3f 00 00 80 3f 00 00 80 3f
       1.0 1.0 1.0 1.0
000300 00 00 80 3f 00 00 80 3f 00 00 80 3f 00 00 80 3f
       1.0 1.0 1.0 1.0
000310 00 00 80 3f 00 00 80 3f 00 00 80 3f 00 00 80 3f
       1.0 1.0 1.0 1.0
000320 00 00 80 3f 00 00 80 3f 00 00 80 3f 00 00 80 3f
       1.0 1.0 1.0 1.0
000330 00 00 80 3f 00 00 80 3f 00 00 80 3f 00 00 80 3f
       1.0 1.0 1.0 1.0
000340 00 00 80 3f 00 00 80 3f 00 00 80 3f 00 00 80 3f
       1.0 1.0 1.0 1.0
000350 00 00 80 3f 00 00 80 3f 00 00 80 3f 00 00 80 3f
       1.0 1.0 1.0 1.0
000360 00 00 80 3f 00 00 80 3f 00 00 80 3f 00 00 80 3f
       1.0 1.0 1.0 1.0
000370 00 00 80 3f 00 00 80 3f 00 00 80 3f 00 00 80 3f
       1.0 1.0 1.0 1.0
000380 00 00 80 3f 00 00 80 3f 00 00 80 3f 00 00 80 3f
       1.0 1.0 1.0 1.0
000390 00 00 80 3f 00 00 80 3f 00 00 80 3f 00 00 80 3f
       1.0 1.0 1.0 1.0
0003a0 00 00 80 3f 00 00 80 3f 00 00 80 3f 00 00 80 3f
       1.0 1.0 1.0 1.0
0003b0 00 00 80 3f 00 00 80 3f 00 00 80 3f 00 00 80 3f
       1.0 1.0 1.0 1.0
0003c0 00 00 80 3f 00 00 80 3f
       1.0 1.0

thr_o f4 [6]
000000 00 00 80 3f 00 00 80 3f 00 00 80 3f 00 00 80 3f
       1.0 1.0 1.0 1.0
000010 00 00 80 3f 00 00 80 3f
       1.0 1.0

i2h.weight f4 [242, 8]
000000 98 04 a0 3d b3 99 93 3d f6 c2 b4 3d 20 38 f7 3d
       0.07813376 0.0720705 0.08826248 0.12071252
000010 96 b9 06 be 48 3b 19 3e a8 83 4b bd 15 d1 b9 bd
       -0.13156733 0.1496402 -0.049686104 -0.09073082
000020 7c 1b e7 3d e6 0a 49 3d 3e 0c fe 3d 1e 5e db bd
       0.11284539 0.04908266 0.12404679 -0.10711311
000030 f2 c8 01 3e 8f 8a 42 3d 2f 0e 8f 3d ff 75 0f 3e
       0.12674311 0.04749542 0.06985127 0.14009856
000040 a8 8b 95 bd 9f fa 14 be ff 16 0c be e3 92 44 bd
       -0.07302028 -0.1454873 -0.13680647 -0.047991645
000050 71 ac f5 3d 66 e9 00 3d dc 3d 05 bd b0 1c 06 3d
       0.11995781 0.031472586 -0.032529697 0.032742202
000060 90 ba a6 3c 60 72 8b bd 86 2e f1 3c 80 ae 0c be
       0.020352632 -0.06808925 0.02944113 -0.13738441
000070 c5 50 d0 3d af 15 a0 3d e2 d2 ec 3c da 53 0e 3e
       0.101716556 0.07816636 0.02890915 0.13899174
000080 40 2c 17 be 47 22 66 3c 09 ac 00 3c 58 03 60 3c
       -0.14762974 0.014046258 0.007853516 0.013672672
000090 35 11 f2 bd 75 72 bb 3d 06 10 3b be 8b 7c e6 3c
       -0.11819688 0.0915269 -0.18267831 0.028135559
0000a0 c8 ed 4a bd e6 f6 b2 bd 38 99 1b be 0d 0b 00 be
       -0.049543172 -0.087384984 -0.15195167 -0.12504216
0000b0 f1 f4 d3 bc 41 f9 ad 3d 92 06 30 bd fa 97 a5 3d
       -0.025873633 0.08494807 -0.042975016 0.08085628
0000c0 49 72 52 3c 82 cc f9 3d d2 e8 c7 3d b8 f6 a0 bd
       0.0128446305 0.1219721 0.09761204 -0.07859558
0000d0 b0 89 41 bd ae a1 a4 bd 80 3b 92 bc 02 f0 97 3d
       -0.04725045 -0.080386505 -0.017850637 0.07418825
0000e0 62 61 97 3c 81 60 8e bd 5b e7 18 be e9 b1 3e 3d
       0.018479053 -0.069520004 -0.14932005 0.046556387
0000f0 88 b2 0e 3e bb 68 46 3d 3b 50 17 bc 91 ae 59 bd
       0.13935292 0.048439723 -0.009235437 -0.053144995
000100 44 1d 99 bd 5e 12 3a 3d e8 0e 90 bd ff d7 1a 3e
       -0.07476285 0.045427673 -0.07034093 0.15121458
000110 31 94 d6 bc f4 7c 71 3d df fe 81 3d 4e ac 1a be
       -0.02619371 0.058957055 0.06347441 -0.15104792
000120 1c 0c 75 3b 39 85 0e be 98 4b e4 bc 87 2c 82 bd
       0.003739125 -0.13918008 -0.027868077 -0.06356149
000130 4a e5 18 bc b9 ee b2 bd 0b 9c 18 3c d0 fb 13 3e
       -0.0093320105 -0.08736939 0.009314547 0.14451528
000140 c8 18 6e 3d ee 39 48 bd ab cb e3 bd 13 10 e2 3c
       0.058129102 -0.04888337 -0.11122831 0.027595555
000150 e2 ee b4 bc 67 40 d4 3d 60 0e 13 3d c0 7c 37 38
       -0.022086564 0.10363846 0.03590238 4.3746782e-05
000160 b0 b8 e9 3d 8d e9 0c 3e 4d 8a c0 3c 54 33 ba 3d
       0.114121795 0.13760968 0.023503447 0.09091821
000170 0e 30 44 3e 02 27 38 be 42 f5 bf 3c cf 97 a1 3c
       0.19158956 -0.1798363 0.023432378 0.019725708
000180 de 93 d0 3d 69 52 f9 bd 70 e4 af 3d c0 e6 25 3d
       0.101844534 -0.121739216 0.08588493 0.040503263
000190 74 18 d8 bd 0e 86 91 3d 19 ff c2 3d ea 59 83 3b
       -0.10551539 0.07105647 0.09521312 0.0040085213
0001a0 6a 55 8d bc 80 90 e6 3d b6 b2 eb bd db 8f c5 3d
       -0.017252643 0.1125803 -0.11508696 0.09646579
0001b0 e1 55 e9 3d 15 c5 12 3e ca dd ad 3d 6a bf 84 3d
       0.11393333 0.14332993 0.084895685 0.06481822
0001c0 d6 ec 74 3d c9 10 37 3d 02 d9 e2 3d 89 3e 34 3d
       0.059796177 0.044693742 0.11076547 0.04400495
0001d0 2b 96 91 3d 15 55 a1 3d 89 6f 32 3d 33 20 ca 3d
       0.071087204 0.07877556 0.0435634 0.09869423
0001e0 d9 b3 55 bd b5 1a 06 bd 27 81 35 3d 47 6a f6 3d
       -0.05217347 -0.032740314 0.044312622 0.120319895
0001f0 c2 b3 91 bd dc ec fd bd 29 0f b0 bc 25 4e c9 3d
       -0.07114364 -0.12398693 -0.021491604 0.09829358
000200 df c9 15 3e 8f 46 98 bd 49 98 38 3b 36 01 20 bd
       0.14627789 -0.07435333 0.002816694 -0.039063655
000210 26 65 ea bd 9a 29 d1 ba 76 e8 c8 bd b0 b1 c7 3d
       -0.11445074 -0.0015957833 -0.098099634 0.09750688
000220 57 c4 ed 3d 2a b0 2f 3d e5 e1 8f 3c aa 7a 58 3d
       0.116097145 0.042892613 0.01756377 0.052851357
000230 9f 92 86 3d 22 89 b5 ba ad 86 b5 bd a2 01 ce 3d
       0.065709345 -0.0013850073 -0.08863578 0.10058905
000240 6f 38 b0 bc 4f 10 db 3d 69 11 08 3e 2c 9b 0f be
       -0.021511285 0.1069647 0.13287891 -0.14024037
000250 4b 02 98 bc 87 f5 bd bc 73 08 1b be fc 39 0c 3d
       -0.01855578 -0.023188366 -0.15139942 0.034234986
000260 c0 97 85 bd 6a 22 c2 bd 9f 62 77 bd 69 0a 7b 3d
       -0.06523085 -0.0947922 -0.060396787 0.061289225
000270 53 c7 8e bd ad 35 0e be 0e 50 6e 3d 09 5f 18 3e
       -0.06971612 -0.13887663 0.058181815 0.14880003
000280 ed 6f a0 3d 2e 65 78 bd 5a 14 a3 3d d5 a8 d0 bd
       0.07833848 -0.060643367 0.07962866 -0.10188452
000290 95 b9 17 3e 1c 5f a9 3d 8c 68 52 3d 78 d4 f7 bd
       0.14816888 0.08270094 0.051369235 -0.12101072
0002a0 3b ea 36 bc 6d dc 86 3d 31 c0 9d bd 97 b3 9f 3b
       -0.011164243 0.06585012 -0.07702673 0.0048737037
0002b0 01 f1 a8 3d 91 29 31 be e3 69 89 bd 81 b3 43 bd
       0.08249093 -0.17301013 -0.067096494 -0.04777861
0002c0 80 1d 09 3e c3 55 04 3a 1f 2b 57 3a 1c 07 51 3d
       0.1339016 0.000504818 0.00082080247 0.05103217
0002d0 b5 79 bb 3d b7 1f 3b 3d 0a fd 16 be 82 52 dc 3d
       0.09154073 0.045684543 -0.14744964 0.107579246
0002e0 14 42 47 bd e7 b9 78 3d 14 04 0d 3e ad 24 79 bd
       -0.048647 0.060724165 0.13771087 -0.060825992
0002f0 45 46 09 3e 10 be 89 bd 9f 5e a0 3d e6 8a 1e 3d
       0.13405712 -0.06725705 0.078305475 0.038706683
000300 17 15 d4 3d 34 7e 02 be 6a fb 11 be 63 fb 1a be
       0.10355585 -0.12743455 -0.14256063 -0.15134959
000310 1d ab 76 3d 96 60 d4 3d 6f fe 41 bd 34 b6 3d 3d
       0.06022178 0.10369985 -0.047361787 0.04631634
000320 2d 98 a5 bd 0b d9 11 3e 27 1a 23 bd 29 42 1a be
       -0.08085666 0.14242952 -0.039819863 -0.150643
000330 47 a5 74 bd 7b d6 8f bd 56 56 15 3e eb 99 4a bd
       -0.059727933 -0.07023331 0.14583716 -0.049463194
000340 c8 e4 e5 bd 8e e2 90 bd 0f d7 72 3d bb d3 85 bb
       -0.11225277 -0.07074462 0.059287127 -0.004084078
000350 e7 d0 73 3d 2d 23 0d be 0f 9d 6b 3b 22 47 2c 3e
       0.059525397 -0.1378295 0.0035951769 0.1682401
000360 6f 4d bb 3c 8c f7 4c 3d f2 83 6d 3d 0d 19 d6 bd
       0.022864072 0.050040767 0.05798716 -0.10453997
000370 f7 1b 9e 3c e2 38 8e bd aa cb 01 3e 33 5c 53 bd
       0.019300444 -0.06944443 0.12675348 -0.0516016
000380 26 89 d5 3d 55 a8 10 be 7a d3 08 3d 6d 3d 79 bd
       0.104265496 -0.14126714 0.033404805 -0.060849596
000390 2c fe ab 3d 7e 5d 13 be f2 07 cd 3d 14 02 e8 bd
       0.08398089 -0.14391133 0.10011281 -0.11328521
0003a0 63 47 8e 3d 92 42 29 bd 6b bc 78 3c 0d 09 0e be
       0.0694721 -0.041323252 0.015181641 -0.1387064
0003b0 c2 b0 23 3d e4 d6 d0 bd b5 3d c9 bd 64 3c 54 ba
       0.03996349 -0.10197237 -0.09826223 -0.0008096157
0003c0 05 40 d3 3d 75 de 36 3b 99 25 ad bc 0b ff 7b 3d
       0.10314945 0.002790359 -0.021136092 0.061522525
0003d0 72 59 25 bc 36 75 0a be d3 6d c9 3c c4 1a 0c bd
       -0.010092126 -0.13521275 0.024588501 -0.034205213
0003e0 f4 2a af 3a b1 65 ac 3c c1 19 8a 3d c8 85 fd bd
       0.0013364241 0.021044584 0.067431934 -0.123790324
0003f0 28 49 06 3e cc 3d 16 3e e7 0d 08 be 2d 92 c8 3d
       0.13113844 0.14672011 -0.13286553 0.09793506

i2h.bias f4 [242]
000000 ef d2 d8 bb 22 fc 7d 3b b3 ee ae ba 3a e0 b7 b9
       -0.006616942 0.003875502 -0.0013346284 -0.00035071542
000010 26 49 b7 bc 68 d6 ad 3c 6f ce 92 3c e9 0f 10 3c
       -0.022373747 0.0212204 0.0179207 0.008792856
000020 86 9d 91 bb 58 7d 84 bc 91 d8 b7 3c 69 7a 30 3d
       -0.004443827 -0.01617305 0.022442134 0.04308549
000030 c6 39 b8 ba 6b 30 62 bc 4a 4a 00 bd 7c 5c de bc
       -0.0014055304 -0.013805489 -0.031320848 -0.02714371
000040 a3 b9 93 3b 1a 1d a0 bc b3 d8 a6 3c 1f 67 21 3c
       0.0045082136 -0.019545127 0.020367002 0.009851246
000050 a6 ab 54 3c e2 bd 21 3d ce 46 32 ba 4c 70 1e bc
       0.012980377 0.039487727 -0.0006800712 -0.009670328
000060 65 9b 82 bc 10 a9 63 3c d9 0e d9 3b b6 a5 1b bb
       -0.015943239 0.013895288 0.0066240844 -0.0023749894
000070 e7 99 50 3c 7b 7c 01 3d 71 6b 96 3b 98 9f d6 bb
       0.012732006 0.031612854 0.0045904447 -0.006549787
000080 7d b1 cc 3b 3e 66 77 3c 18 53 9b bb ac 4d 17 bc
       0.006246744 0.01510006 -0.00474013 -0.009234827
000090 75 b0 ab 3c 27 7d 18 bc f3 5f 38 bc 26 4f fb 3b
       0.020958165 -0.009307182 -0.011253345 0.0076693473
0000a0 b3 1e 8a 3c 24 10 15 bc 5e e8 09 ba 70 53 8c bb
       0.016860342 -0.0090980865 -0.00052607607 -0.0042824075
0000b0 8a 0b 6a 3b 82 33 43 bc f9 40 12 3d 5c 96 1f bb
       0.0035712444 -0.011914136 0.035706494 -0.0024351096
0000c0 fe 6b a9 ba b0 27 51 bb 2e f5 a3 bb 39 46 16 bc
       -0.0012925861 -0.0031914525 -0.005003593 -0.009172016
0000d0 a8 02 e8 3c 17 a7 66 bc 57 e8 b3 3c 25 19 15 3d
       0.02832158 -0.014077923 0.021961374 0.036400933
0000e0 ad df 66 bb ac 41 e5 bb f3 ff bb 3b 66 03 22 bc
       -0.0035228536 -0.006996354 0.0057372986 -0.009888506
0000f0 45 44 95 bc 15 7d 01 bc 88 28 af bc e4 ee ad bb
       -0.01822103 -0.007903357 -0.021381631 -0.005308019
000100 ac d7 57 bb 32 13 2b bc a6 d3 70 bc 1d ec 5a 3a
       -0.0032934947 -0.010441588 -0.014698898 0.00083512237
000110 96 20 05 bc ac dc 87 bb 5b b6 ce 39 dd 6a be 3c
       -0.008125445 -0.004146179 0.00039427247 0.023244316
000120 c9 a4 95 bc 73 36 b4 bc c7 23 3f 3c 42 aa 87 bc
       -0.018267052 -0.02199862 0.011666245 -0.016560677
000130 1e 2b c2 bb 28 b7 34 3d c3 99 0b 3d 99 e6 6b bc
       -0.00592555 0.044119984 0.034082185 -0.0143982405
000140 33 07 80 3b 3a 5b 9e bb 14 02 30 bc fa d4 b9 3c
       0.003907108 -0.0048326524 -0.010742683 0.022684563
000150 86 7b 02 3c e7 49 57 3c 0f ee 9f 3b 89 c8 d2 bb
       0.007964021 0.013140178 0.0048806737 -0.006432597
000160 5d 58 de bc 42 69 55 ba 53 26 27 3c 54 c9 7d 3c
       -0.027141744 -0.000814099 0.010202008 0.015489895
000170 04 6b dc bb c8 f7 e1 b9 9e 0a 01 bc 22 ec e5 bb
       -0.0067266244 -0.00043099956 -0.0078760665 -0.0070166746
000180 79 7d 99 bb 06 1d 1a 3b 17 69 95 bc 83 1c 44 bb
       -0.004684147 0.0023515834 -0.018238587 -0.002992422
000190 e7 12 38 3c 20 96 6b 3c da d8 f2 b9 63 61 07 3b
       0.011234975 0.014379054 -0.00046319404 0.0020657412
0001a0 56 18 99 3c 30 94 82 bc d0 23 cc bb 17 b1 ba bb
       0.018688362 -0.015939802 -0.006229855 -0.0056973803
0001b0 23 3a c7 3c 4a 21 1f 3d 24 6a 8e 3c ff 6f b4 bc
       0.024319714 0.038850106 0.017384596 -0.02202606
0001c0 21 a6 8f bc 20 71 95 3c e9 14 72 3b a4 e5 82 3c
       -0.017535271 0.018242419 0.0036938733 0.015978642
0001d0 0c a7 f1 3b f6 4a 2d bc ab b3 ea 3a 8b 33 b6 bc
       0.00737465 -0.010576954 0.0017906328 -0.022241374
0001e0 8e ed 9d ba c7 57 1e 3c 2b 5a ef bb 14 ff 3c 3c
       -0.0012048946 0.009664482 -0.00730445 0.011535425
0001f0 c1 08 8d 3b 12 9e 93 3c 96 12 7c ba 16 19 45 3b
       0.004304022 0.01801971 -0.00096158066 0.0030074767
000200 d5 fb bb bc 56 5c 06 ba 11 29 da 3c 53 ff 2a bb
       -0.022947231 -0.00051254535 0.02663091 -0.0026092126
000210 38 76 79 3c 6c 46 ae bb 51 c9 ef 3a ed dd f9 39
       0.015225939 -0.0053184535 0.001829425 0.0004765833
000220 c2 2e 19 bc 66 b2 81 3c c1 83 63 3b 88 54 03 3d
       -0.009349527 0.015832137 0.0034715983 0.032063037
000230 1e c9 43 bc 3a 62 82 bc 4e 32 39 3d ce 17 05 bc
       -0.011949806 -0.015915979 0.04521399 -0.008123351
000240 7a 03 3e bc 8c a5 11 3a ec 94 1f ba dd aa 06 3c
       -0.011597509 0.00055559794 -0.000608756 0.008219448
000250 99 cb ce bb 4f 27 5d bc 69 4e 4b bc be 9f b6 bc
       -0.006310892 -0.013498141 -0.012408831 -0.022292968
000260 0d f4 85 3c 77 f3 56 3c b4 54 26 3b 79 e0 de 3c
       0.016351724 0.01311957 0.0025380077 0.027206646
000270 9d 9d 63 3d 8f 98 2f 3b 8e b1 29 3b e4 cb 52 bc
       0.055570234 0.0026793813 0.0025893184 -0.012865994
000280 f8 eb ab bc b4 0e 1f 3c 86 fb a0 3c 4f 22 57 bc
       -0.020986542 0.009708095 0.019651186 -0.013130738
000290 25 6e fc ba c8 71 09 bc 86 c9 ea bb 2e 6f 09 bd
       -0.00192589 -0.008388944 -0.0071651367 -0.033553295
0002a0 de d6 f3 3a 1d 0e 3f 3d 4d 8f 8d 3c f8 ac cd 3c
       0.0018603464 0.04664432 0.017280245 0.025106892
0002b0 47 a5 9c bb ad e5 18 bc 71 09 b3 bc 7b aa 2b 3c
       -0.004780445 -0.009332103 -0.021855088 0.010477657
0002c0 0f 67 4b 3c 47 ea 38 3d 76 30 80 bc df 9f ae 3b
       0.012414708 0.0451453 -0.015648108 0.0053291167
0002d0 83 41 61 bc 1b 32 c9 3c 4b 03 9d bc df c5 54 3c
       -0.013748529 0.024560025 -0.01916661 0.012986629
0002e0 61 2d 8a 3c 6c 1a 21 3b 50 92 50 bb 08 5a b3 3c
       0.016867341 0.00245824 -0.003182549 0.021893516
0002f0 b3 59 1f 3c 06 56 de ba b3 68 af bc 1b 22 68 bc
       0.009725976 -0.0016962893 -0.02141223 -0.014168288
000300 b0 35 bb bb 05 65 3c bc 1b fc 11 39 44 2b 0b 3c
       -0.005713187 -0.011498694 0.00013922194 0.008494202
000310 25 a8 38 bc d8 bf b5 3b df 9c f2 bc f3 13 99 bc
       -0.0112705575 0.005546551 -0.029615818 -0.01868627
000320 87 38 4c 3c 9c 98 98 bb 3c 1c 0e bc 69 9c c7 bc
       0.012464649 -0.0046568643 -0.008673724 -0.024366574
000330 6e 3e e2 bb bf 92 81 3c 72 de 20 3c 06 15 8f bc
       -0.006904415 0.015817044 0.00981866 -0.01746608
000340 9e 4e 91 bb b4 a9 d0 3c 4d 0b 07 3c 8b 9d 19 bc
       -0.0044344207 0.025471546 0.00824244 -0.00937594
000350 65 98 da bb dd b0 52 bc 15 d8 07 3c 78 84 e9 bb
       -0.006670999 -0.01285955 0.008291264 -0.007126387
000360 c2 fe c5 bb 8a cc 26 3c 55 6b 71 bb 9d cf 8a bb
       -0.0060423324 0.010180602 -0.0036837657 -0.004236175
000370 6a 9a 3d 3c a0 92 d8 bb 70 e3 80 bc 3e b7 3c bc
       0.01157246 -0.006609276 -0.01573345 -0.011518298
000380 0c 34 ea bb 66 f6 95 3c 06 30 06 3c c0 54 ed b8
       -0.0071473178 0.018305968 0.008190161 -0.000113168266
000390 ac 27 ca bb a3 dd c0 bb c6 3b 3f bc 59 ad df bc
       -0.00616928 -0.005885796 -0.011671966 -0.027304338
0003a0 18 00 b5 3b e1 ed 12 3d 48 85 9b 3d 13 1c f5 3b
       0.005523693 0.03587139 0.07593781 0.0074801533
0003b0 30 80 6e 3c 3b 21 1f 3c e8 6d fe bc f8 37 8e 3c
       0.0145569295 0.009712513 -0.031058267 0.017360672
0003c0 12 d0 08 3c cf fe da ba
       0.008350389 -0.0016708019

h2o.weight f4 [6, 242]
000000 9f cf 53 3d 04 ab dd 3d 9b e3 96 bd 00 cf b2 bd
       0.051711675 0.10823634 -0.07367631 -0.08730888
000010 d4 0a 82 bd 27 eb 9a bb 54 d1 4d 3d f7 b5 10 3e
       -0.063497216 -0.0047277394 0.05024846 0.14131914
000020 16 39 cc bd 71 f5 d5 3d e7 df e3 3d ef 55 9f 3d
       -0.09971826 0.10447205 0.1112669 0.077800624
000030 f0 35 27 3c 3e 1f b0 bc d9 97 54 bd 11 f5 79 3d
       0.010205731 -0.021499272 -0.051902626 0.06102473
000040 e3 04 8c bc 53 a9 f2 3d b0 b4 48 bd b0 83 bb bd
       -0.017092174 0.11848702 -0.049000442 -0.09155977
000050 cf 84 84 3c 79 8b ce bd 18 63 d9 3d 85 c1 aa bd
       0.01617661 -0.10085196 0.10614604 -0.08337692
000060 5d a0 fd 3d 39 13 de bd 68 22 05 3d 69 fe 0d 3e
       0.123841025 -0.1084351 0.032503515 0.13866581
000070 68 29 d6 bd c8 7a bb bd 31 6f 98 bd 69 f0 01 be
       -0.10457116 -0.09154278 -0.07443083 -0.12689365
000080 c7 9e ac bd 45 22 d9 bc 6a 60 4d bd 05 09 04 3e
       -0.08428722 -0.026505599 -0.050140776 0.12894066
000090 31 93 40 be 0c 5b a8 bd 6f fb b9 3d 45 dc c5 bd
       -0.18806149 -0.08220491 0.0908116 -0.09661154
0000a0 88 1a 25 3e 17 92 dd 39 42 19 d0 3d 97 67 14 bd
       0.16123402 0.0004226125 0.101610675 -0.036231603
0000b0 cb 45 f6 3c f5 a8 0a bd 83 9c 86 bd 42 d6 b3 bd
       0.030062577 -0.033852536 -0.06572821 -0.08781101
0000c0 ad 24 ec 3d 1f a0 09 3e ae 44 12 3e 24 11 4e bd
       0.11530433 0.13439988 0.14284012 -0.050309315
0000d0 50 55 7d 3c 93 be b9 bd b4 80 d6 3d 73 2a d3 3d
       0.015462235 -0.09069552 0.10473767 0.10310831
0000e0 69 f9 0e 3e 8b 48 5b 3d 46 27 60 3d 9e 0a 11 bd
       0.1396233 0.05353598 0.054724954 -0.035410516
0000f0 b6 a4 37 be df ab cf bd 41 7d 4e 3d d4 84 71 bd
       -0.17933926 -0.10140204 0.05041242 -0.058964565
000100 82 a7 ec 3c bf e7 16 3e 50 d4 a2 3d 9f d2 11 be
       0.028888468 0.14736842 0.07950652 -0.14240502
000110 21 2b bd bd 98 f7 8d bd 1a f6 e8 bd 60 b3 38 3d
       -0.09236742 -0.069319904 -0.11375065 0.04509294
000120 1e 8b c1 bc f5 8b d8 bc e2 27 d2 3d 8d 6f b6 3c
       -0.023625907 -0.026433924 0.10261513 0.022269988
000130 8c 6d 76 bd c6 48 10 bd dd 77 fe 3d bf a8 50 be
       -0.060163066 -0.035225652 0.12425206 -0.20376872
000140 be 8d 18 be 02 97 0f 3e 0b 85 ce bc d9 75 2e 3e
       -0.1489782 0.14022449 -0.025209924 0.17037143
000150 30 f1 28 be 28 d8 39 3e aa a4 6c bc 89 99 b4 bc
       -0.16498256 0.18148863 -0.014443556 -0.022045868
000160 a9 dc ff bd 93 7d 25 3e cd 63 41 bc 59 57 5e bc
       -0.124932595 0.16161184 -0.0118035795 -0.01357063
000170 27 8e e5 3d 34 4d 89 3b 24 f2 98 bd 2d b2 c3 3c
       0.11208754 0.0041901115 -0.0746806 0.023888672
000180 2c 0d f0 bd 33 3e ea bd 7d c0 4a be 04 ca 88 3d
       -0.11721262 -0.11437645 -0.19799991 0.066791564
000190 2a 88 fa 3d 52 02 14 bd 99 45 1b 3d 0d 45 26 3e
       0.122330025 -0.036135025 0.03790817 0.16237278
0001a0 bb 66 06 3d 5f f1 91 bd df a1 d9 bd aa 78 01 be
       0.032812815 -0.07126116 -0.106265776 -0.12643686
0001b0 5f 6f a8 3c f1 08 13 3d 5a c1 78 3d 62 14 ee ba
       0.020560918 0.0358972 0.06073127 -0.0018164034
0001c0 60 d4 05 3e eb be 27 be d5 f8 eb 3d 6c 99 00 3e
       0.13069296 -0.16381423 0.1152207 0.12558526
0001d0 4c 62 65 bd 9a b7 d6 bd 22 07 1d 3e c4 96 3b bd
       -0.056001946 -0.10484238 0.15334752 -0.04579808
0001e0 8a f0 05 bd c0 04 12 3e 75 b5 ec bd 25 5e 64 bd
       -0.0327001 0.14259624 -0.11558048 -0.055753846
0001f0 73 3d 09 be 3f c3 0e 3e ca a3 98 bc 5f 00 3c 3d
       -0.13402347 0.13941668 -0.018632788 0.04589879
000200 5f aa 78 bd 9f 08 bf bd 38 e7 09 3e a6 53 ec bd
       -0.060709354 -0.09327816 0.13467109 -0.11539392
000210 0d 8f f2 bd 67 88 8c bd b9 20 a6 3d 7e 2a 0c bd
       -0.11843691 -0.06861954 0.0811171 -0.03422021
000220 f3 ba 7a bd b3 9b a3 3d f2 5f 14 3e 7d 7c 18 bd
       -0.061213445 0.07988682 0.14489725 -0.037228096
000230 46 aa f9 bd 45 a7 db 3c cd 94 6e be 2d 32 02 3e
       -0.1219068 0.026813159 -0.2329895 0.12714453
000240 1e 06 26 bc 60 89 13 bc 7a 2a 6a 3d f9 d4 e5 3c
       -0.010133294 -0.009004921 0.057169415 0.028055655
000250 c9 b4 1a 3e dc 01 ab 3b 93 02 57 3a 04 9b 07 3d
       0.15108027 0.0052187275 0.0008201983 0.03310682
000260 a5 eb df bd 4a dd ce 3c d6 e4 9c bd 63 70 2c 3d
       -0.109336175 0.025252003 -0.076608345 0.042099368
000270 eb c4 e7 3b cf cc 19 3e 0a 04 d9 3c 9d 58 0d be
       0.007073035 0.15019535 0.026491184 -0.13803335
000280 8f d7 d8 bb 2d 38 3c 3e 27 3d de bd 0a b6 6b 3d
       -0.0066174935 0.18380804 -0.10851508 0.057546653
000290 c3 35 cd bd 2e 76 0e 3e c3 8e 5f 3d 22 fb 08 be
       -0.1002002 0.1391227 0.054579508 -0.1337705
0002a0 69 38 a3 3c 1e fc 09 3e f7 35 f8 bd 6f a6 ef 3c
       0.01992436 0.13475081 -0.12119668 0.029254166
0002b0 e7 18 dc bd 20 18 7e bd 49 aa 1a be b3 d6 89 3c
       -0.10746937 -0.062034726 -0.15104021 0.01682601
0002c0 ad a2 83 3c 73 ca 31 3e 7b b6 44 be e1 9d 07 3d
       0.01606878 0.17362384 -0.19210236 0.03310955
0002d0 fb b2 90 bd ff e5 82 bd 93 4f 01 be 99 97 a8 3d
       -0.07065388 -0.063915245 -0.12628011 0.0823204
0002e0 81 4d 30 bb 2c f4 8d bd ae e7 63 3d a3 7f eb 3c
       -0.0026901665 -0.06931338 0.05564087 0.028747385
0002f0 ee ab e8 3d 73 81 21 3d 7c 2f 98 3c 2e 94 4d bd
       0.11360918 0.039430093 0.01857733 -0.050190143
000300 89 8e 22 3e 23 2d f1 3d 51 98 db bc 2a bb ab 3d
       0.15874685 0.11776187 -0.026806029 0.08385308
000310 1a 82 0a 3e 10 69 47 bd e9 04 13 be ca 2f c1 bd
       0.13526192 -0.04868418 -0.14357342 -0.09432943
000320 06 c7 26 3e 2f be 34 3e 02 b2 ab bd 59 6f 99 3d
       0.16286859 0.17650674 -0.08383562 0.07491941
000330 2d 52 81 bd f3 75 4b 3d 8f 5d 68 bc e0 d3 eb bd
       -0.06314502 0.049673032 -0.014182462 -0.11515021
000340 1f 98 e7 bd 75 b0 6a bd 57 88 04 be 84 65 a6 3d
       -0.11308312 -0.05729719 -0.12942635 0.08124831
000350 81 ac 2d be df 45 34 bd bc 07 54 be 3c 27 03 3e
       -0.16960336 -0.044011947 -0.20706075 0.12807935
000360 01 f9 cb bd cc c2 28 3e a8 93 7d bd 75 99 f9 3d
       -0.09959603 0.16480559 -0.061908394 0.12187473
000370 3c 75 5d be 7c 7e a6 bd 25 a3 2b be 37 7f 35 bd
       -0.21626753 -0.08129594 -0.16761453 -0.044310775
000380 6c 39 2a 3e 2b 94 58 3a a1 03 e2 bd 50 74 cd 3b
       0.16623467 0.0008261825 -0.110358484 0.006269969
000390 82 f2 86 3c dd 04 15 be 7e 1d 05 3e fc 1c 03 bd
       0.016473059 -0.14552636 0.12999532 -0.032010064
0003a0 13 70 09 3e 53 6f 1c be 39 e4 53 3d 13 63 a2 bc
       0.13421659 -0.15276842 0.051731322 -0.019822633
0003b0 04 9d f4 bc 6e 21 f0 bc 34 cf da bd b1 70 8b bc
       -0.029860027 -0.029312816 -0.10684052 -0.017021509
0003c0 11 88 c9 3c 84 54 0c 3e 7d a1 62 3d 13 e3 22 3e
       0.024601014 0.13704115 0.05532979 0.15906934
0003d0 7b 5d 33 3d a1 94 a3 bd af f7 bd 3d ce dd d5 3c
       0.04379032 -0.07987333 0.092757575 0.026106741
0003e0 bf c2 b5 3d 90 dd 10 be 9b 06 de bb 83 4c 1a bd
       0.088750355 -0.1414702 -0.00677569 -0.037670624
0003f0 7a c0 06 3e 24 51 26 be 31 cb cb 3d 06 e2 6c 3d
       0.13159361 -0.1624189 0.09950865 0.05783274

h2o.bias f4 [6]
000000 b0 be f3 3b 99 8c 1a 3c ec ca 3e 3a 22 0a b8 ba
       0.007438503 0.009432935 0.00072781625 -0.0014041106
000010 18 6d cf bb f7 0e 43 3c
       -0.0063301437 0.011905423

h2h.weight f4 [242, 242]
000000 c8 a3 c1 bc 96 12 69 bd 6b f2 5f 3c 29 b3 76 3c
       -0.023637667 -0.05690249 0.013668637 0.015057364
000010 bd cd 7e 3c 67 17 9a 3c ca 6e f6 3d 7f cb a6 3d
       0.0155519815 0.018809987 0.1203285 0.081442825
000020 39 2e fd 3a 47 22 03 bd d9 9b 28 be 1a 09 ee 3d
       0.0019316144 -0.03201511 -0.16465701 0.1162283
000030 58 6f 88 bc 98 8b ee bc 4d 6b dd bd fd ac 4e bd
       -0.016654655 -0.029119298 -0.108114816 -0.050457943
000040 22 14 8a bd a7 f9 f6 bd cf 3d 40 3e 94 f5 95 bd
       -0.06742121 -0.12059336 0.18773578 -0.07322231
000050 0c b9 2c 3b ee b6 a1 3c e9 9e 6c 3d 2d 37 97 bd
       0.0026355414 0.019740548 0.057768736 -0.07383571
000060 92 94 a3 3c 65 69 19 be 79 4b d8 3d d5 ce 96 bb
       0.019968305 -0.14981611 0.1056127 -0.004602293
000070 b7 89 05 bd 10 6b 58 3d 8b 84 22 bd 21 74 ba bd
       -0.03260204 0.052836478 -0.039677184 -0.09104181
000080 18 9b 32 bd 4a 86 10 3d 21 cd 4d bd 8d 96 d3 3d
       -0.04360494 0.035284318 -0.050244454 0.1033145
000090 6e 0d 01 3e 10 7e d5 3d c3 f6 54 bd ff 56 4c bb
       0.1260278 0.10424435 -0.051993143 -0.0031179783
0000a0 dd 1c 3a 3d ea e6 b8 bd 9d c5 9a 3c ab 06 02 bc
       0.045437682 -0.09028418 0.018893057 -0.00793616
0000b0 b0 64 18 bc 09 32 2b bd 6a d5 3f bc d1 9f 9e bd
       -0.0093013495 -0.041795764 -0.011708597 -0.07745326
0000c0 3f 12 ee bb c7 b8 a5 bd 25 f5 0b 3d 1d f9 9d bb
       -0.0072653587 -0.08091884 0.034169335 -0.0048209564
0000d0 f5 e3 54 3d d3 d8 5c bd e6 5a 2f ba ae 19 8f bd
       0.05197521 -0.053917717 -0.0006689265 -0.0698732
0000e0 12 35 8c 3d 2c e5 c4 3b b3 0b 9b bd f3 51 92 3d
       0.0684606 0.0060087647 -0.07570591 0.07144537
0000f0 0c 83 86 bc 0a 26 17 be ce 6c ec bc 43 2f 30 bc
       -0.01641991 -0.14760605 -0.028860476 -0.010753456
000100 9a 9e 19 bd bb df d1 3d 9c d4 f2 3c d2 5c 77 bc
       -0.03750477 0.10247751 0.029642396 -0.015097814
000110 a8 d7 f5 3d e0 32 e1 b8 47 ae 9a bd f0 7e c0 bb
       0.12004024 -0.00010738312 -0.07552772 -0.005874507
000120 dc 92 07 3e d9 59 41 3d af 26 fe bd c8 fe a4 3c
       0.13239616 0.047204826 -0.12409722 0.02014102
000130 f8 72 9a bd 75 b9 97 3d 4a ef 83 ba ff 74 40 ba
       -0.0754146 0.0740842 -0.001006582 -0.00073416525
000140 20 a1 e1 bd ee c3 08 bc 37 d2 46 3d 10 07 3f bd
       -0.1101706 -0.0083474945 0.04854032 -0.046637595
000150 0c 17 31 bd 56 dc 8f 3d b9 0f 23 3d 42 e0 98 bc
       -0.04323487 0.070244476 0.039809916 -0.018661622
000160 b3 57 c9 bd 78 c4 c0 bd bb 4a 31 bd 0d 18 48 bc
       -0.098311804 -0.094124734 -0.04328416 -0.012212765
000170 24 70 50 bd dc f4 24 bd b1 31 54 bc 8b ea 88 3d
       -0.050888196 -0.04027258 -0.0129513005 0.066853605
000180 7d c9 c9 bd 9f 13 20 3d b0 72 bf 3d 61 e0 19 bd
       -0.09852884 0.039081212 0.09348047 -0.0375675
000190 95 72 2e bd c5 10 e8 3d db a7 05 be f1 c3 3e 39
       -0.042589743 0.113313235 -0.13052313 0.00018192806
0001a0 26 46 41 3d 5f 90 9a bd fc 7d 80 bb fb f9 3b 3d
       0.04718604 -0.07547068 -0.0039212685 0.045892697
0001b0 d9 01 97 bd 9b 67 8c bd 9a 87 bb 3d 27 4d 49 bd
       -0.07373399 -0.06855699 0.09156723 -0.049145844
0001c0 fa a9 87 3d 29 66 f8 bc db 0d dd 3d 7c 08 f2 bc
       0.06624217 -0.030322151 0.10793658 -0.029545061
0001d0 61 ce 30 3d 34 46 b6 3d 53 ad 25 bc be 60 d2 3d
       0.04316557 0.08900109 -0.0101121245 0.10272358
0001e0 16 3d a0 bd 99 f3 28 3d 01 c0 2d 3d 30 af 66 3c
       -0.07824151 0.041247938 0.042419437 0.014079854
0001f0 ea 92 d7 bc 2b 5b 88 bc 53 ce 4a 3d 63 14 36 bb
       -0.026315171 -0.016645035 0.049513172 -0.0027783148
000200 bb 38 9b 3d dd b9 d3 3b bf 9f 64 3d 82 b2 75 3b
       0.0757918 0.0064613656 0.05581641 0.0037490432
000210 e5 27 f9 3c 9f 8d a7 3d 2b 67 99 bc e0 0e ef bc
       0.030414531 0.08181309 -0.018725952 -0.029181898
000220 68 89 9f bc f7 dc 90 3c a1 0a 19 bd 33 29 5a bd
       -0.0194747 0.01768349 -0.037363652 -0.053261947
000230 b9 77 91 3b e9 02 f6 bc 92 da 02 3e a2 64 31 bd
       0.004439321 -0.030030685 0.1277869 -0.04330886
000240 f7 4d 77 bc 66 b6 50 bd d7 99 8d bd 58 21 ac 3c
       -0.015094272 -0.0509552 -0.06914108 0.021011993
000250 92 be c8 3c 46 55 6f 3d d0 93 74 bc 02 0d d0 bd
       0.024504934 0.058430932 -0.014927819 -0.10158731
000260 e3 e9 1b bd 71 dc e0 bc a9 45 07 be ab 5a 90 3c
       -0.03806485 -0.027448865 -0.13210167 0.017621359
000270 07 d5 87 be 15 8a b7 3d 74 16 1d bd a8 9a 05 be
       -0.26529714 0.08961884 -0.03835149 -0.13047278
000280 97 06 fe 3c 05 1d 0d 3d ce b7 ce 3c 6c 7d 7c 3d
       0.031009002 0.034451503 0.02523413 0.06164305
000290 8b c3 01 3d 59 18 e2 bd 94 81 c8 3d c9 87 ed bb
       0.031680625 -0.110398 0.0979034 -0.007248853
0002a0 e6 86 19 bc 58 11 c9 bd e5 be 58 3d 77 81 2a bd
       -0.009370541 -0.09817761 0.052916426 -0.041627374
0002b0 2f fe f8 3a c3 a1 54 bd 7c bd 79 bd 80 f8 16 3c
       0.0018996651 -0.05191208 -0.060971722 0.00921452
0002c0 84 3b bb 3c 20 ce f0 bc 70 04 29 3d 9b 8f 76 3d
       0.022855528 -0.029395163 0.041263998 0.060195547
0002d0 93 f2 8c bd 1e d2 be 3c 97 c2 12 bc d1 f3 89 3d
       -0.06882205 0.023293551 -0.008957527 0.067359574
0002e0 91 7b bd 3c b4 16 0b ba c4 f0 d7 3d 96 0f b1 bd
       0.02313021 -0.0005305812 0.10543969 -0.08645551
0002f0 29 91 81 bd fa 6a 65 3c 28 e8 44 bd 3b f5 e6 bb
       -0.06326515 0.014002556 -0.048072964 -0.0070482767
000300 c1 58 bf bd 08 38 17 3e 32 d8 24 be a3 d7 78 3a
       -0.093431 0.14767468 -0.16098097 0.00094925816
000310 da c0 4d 3c a2 aa 6d bd fc 57 57 3d 20 70 ed 3c
       0.012558186 -0.058024056 0.052574143 0.02898413
000320 b8 24 01 bb ae 5d 0f be f4 84 22 bd 63 66 3a bc
       -0.0019705724 -0.1400058 -0.039677575 -0.01137695
000330 f6 2f 92 bd 06 85 86 3d e8 9b e2 bc be 19 35 3d
       -0.07138054 0.06568341 -0.027662233 0.044214003
000340 8a b5 b6 3d a8 2e 4d 3d 07 c8 0e 3d ba 91 cf 3d
       0.089213446 0.050093323 0.03485873 0.10135217
000350 a7 ef 83 bb 2c 4b 10 be 5a a7 31 bd 97 aa b2 3c
       -0.0040263715 -0.14091176 -0.04337249 0.02180986
000360 ff a8 5e 3d 91 ce 13 bd a1 77 7f 3c 72 51 98 3d
       0.054360386 -0.03608567 0.015592487 0.074374095
000370 d4 a8 b9 3d 0a 9b 2c 3d e1 f3 86 bd 92 e0 65 3d
       0.090654045 0.042140044 -0.06589485 0.05612237
000380 1f f5 69 3d 60 9a 17 3d 32 8b b2 bb ba 12 96 3d
       0.05711853 0.037012458 -0.0054487223 0.073277906
000390 d5 c0 f8 bc 8e ae 40 3d 96 5e 4a be d5 ea 2c 3d
       -0.030365387 0.04704147 -0.19762644 0.04221614
0003a0 90 cb 82 bd f2 dc e6 3d d6 bf 10 3e e7 0b 29 be
       -0.06386483 0.11272611 0.1413568 -0.16508447
0003b0 97 a8 bc bd 7c a1 28 bd 00 13 2d bd 7f c3 eb 3b
       -0.092118435 -0.04116963 -0.042254448 0.007194936
0003c0 bd 75 d9 bd 6d 97 96 bc 2b 04 73 3d ad c3 7b bd
       -0.1061816 -0.018382752 0.059330147 -0.061465908
0003d0 14 11 b3 3d c8 13 63 3d de ad 75 3d 6c 5a ad 3c
       0.08743492 0.055438787 0.059980266 0.02116128
0003e0 2c db 29 3d 6c f5 9a 3d 0e c5 2e 3e 43 77 e3 bd
       0.041468784 0.07566342 0.17067358 -0.11106732
0003f0 48 d8 a8 bd 8a 27 ad 3d 75 01 79 3d 8a e8 89 3c
       -0.082443774 0.08454807 0.060792405 0.016834516

h2h.bias f4 [242]
000000 ef d2 d8 bb 22 fc 7d 3b b3 ee ae ba 3a e0 b7 b9
       -0.006616942 0.003875502 -0.0013346284 -0.00035071542
000010 26 49 b7 bc 68 d6 ad 3c 6f ce 92 3c e9 0f 10 3c
       -0.022373747 0.0212204 0.0179207 0.008792856
000020 86 9d 91 bb 58 7d 84 bc 91 d8 b7 3c 69 7a 30 3d
       -0.004443827 -0.01617305 0.022442134 0.04308549
000030 c6 39 b8 ba 6b 30 62 bc 4a 4a 00 bd 7c 5c de bc
       -0.0014055304 -0.013805489 -0.031320848 -0.02714371
000040 a3 b9 93 3b 1a 1d a0 bc b3 d8 a6 3c 1f 67 21 3c
       0.0045082136 -0.019545127 0.020367002 0.009851246
000050 a6 ab 54 3c e2 bd 21 3d ce 46 32 ba 4c 70 1e bc
       0.012980377 0.039487727 -0.0006800712 -0.009670328
000060 65 9b 82 bc 10 a9 63 3c d9 0e d9 3b b6 a5 1b bb
       -0.015943239 0.013895288 0.0066240844 -0.0023749894
000070 e7 99 50 3c 7b 7c 01 3d 71 6b 96 3b 98 9f d6 bb
       0.012732006 0.031612854 0.0045904447 -0.006549787
000080 7d b1 cc 3b 3e 66 77 3c 18 53 9b bb ac 4d 17 bc
       0.006246744 0.01510006 -0.00474013 -0.009234827
000090 75 b0 ab 3c 27 7d 18 bc f3 5f 38 bc 26 4f fb 3b
       0.020958165 -0.009307182 -0.011253345 0.0076693473
0000a0 b3 1e 8a 3c 24 10 15 bc 5e e8 09 ba 70 53 8c bb
       0.016860342 -0.0090980865 -0.00052607607 -0.0042824075
0000b0 8a 0b 6a 3b 82 33 43 bc f9 40 12 3d 5c 96 1f bb
       0.0035712444 -0.011914136 0.035706494 -0.0024351096
0000c0 fe 6b a9 ba b0 27 51 bb 2e f5 a3 bb 39 46 16 bc
       -0.0012925861 -0.0031914525 -0.005003593 -0.009172016
0000d0 a8 02 e8 3c 17 a7 66 bc 57 e8 b3 3c 25 19 15 3d
       0.02832158 -0.014077923 0.021961374 0.036400933
0000e0 ad df 66 bb ac 41 e5 bb f3 ff bb 3b 66 03 22 bc
       -0.0035228536 -0.006996354 0.0057372986 -0.009888506
0000f0 45 44 95 bc 15 7d 01 bc 88 28 af bc e4 ee ad bb
       -0.01822103 -0.007903357 -0.021381631 -0.005308019
000100 ac d7 57 bb 32 13 2b bc a6 d3 70 bc 1d ec 5a 3a
       -0.0032934947 -0.010441588 -0.014698898 0.00083512237
000110 96 20 05 bc ac dc 87 bb 5b b6 ce 39 dd 6a be 3c
       -0.008125445 -0.004146179 0.00039427247 0.023244316
000120 c9 a4 95 bc 73 36 b4 bc c7 23 3f 3c 42 aa 87 bc
       -0.018267052 -0.02199862 0.011666245 -0.016560677
000130 1e 2b c2 bb 28 b7 34 3d c3 99 0b 3d 99 e6 6b bc
       -0.00592555 0.044119984 0.034082185 -0.0143982405
000140 33 07 80 3b 3a 5b 9e bb 14 02 30 bc fa d4 b9 3c
       0.003907108 -0.0048326524 -0.010742683 0.022684563
000150 86 7b 02 3c e7 49 57 3c 0f ee 9f 3b 89 c8 d2 bb
       0.007964021 0.013140178 0.0048806737 -0.006432597
000160 5d 58 de bc 42 69 55 ba 53 26 27 3c 54 c9 7d 3c
       -0.027141744 -0.000814099 0.010202008 0.015489895
000170 04 6b dc bb c8 f7 e1 b9 9e 0a 01 bc 22 ec e5 bb
       -0.0067266244 -0.00043099956 -0.0078760665 -0.0070166746
000180 79 7d 99 bb 06 1d 1a 3b 17 69 95 bc 83 1c 44 bb
       -0.004684147 0.0023515834 -0.018238587 -0.002992422
000190 e7 12 38 3c 20 96 6b 3c da d8 f2 b9 63 61 07 3b
       0.011234975 0.014379054 -0.00046319404 0.0020657412
0001a0 56 18 99 3c 30 94 82 bc d0 23 cc bb 17 b1 ba bb
       0.018688362 -0.015939802 -0.006229855 -0.0056973803
0001b0 23 3a c7 3c 4a 21 1f 3d 24 6a 8e 3c ff 6f b4 bc
       0.024319714 0.038850106 0.017384596 -0.02202606
0001c0 21 a6 8f bc 20 71 95 3c e9 14 72 3b a4 e5 82 3c
       -0.017535271 0.018242419 0.0036938733 0.015978642
0001d0 0c a7 f1 3b f6 4a 2d bc ab b3 ea 3a 8b 33 b6 bc
       0.00737465 -0.010576954 0.0017906328 -0.022241374
0001e0 8e ed 9d ba c7 57 1e 3c 2b 5a ef bb 14 ff 3c 3c
       -0.0012048946 0.009664482 -0.00730445 0.011535425
0001f0 c1 08 8d 3b 12 9e 93 3c 96 12 7c ba 16 19 45 3b
       0.004304022 0.01801971 -0.00096158066 0.0030074767
000200 d5 fb bb bc 56 5c 06 ba 11 29 da 3c 53 ff 2a bb
       -0.022947231 -0.00051254535 0.02663091 -0.0026092126
000210 38 76 79 3c 6c 46 ae bb 51 c9 ef 3a ed dd f9 39
       0.015225939 -0.0053184535 0.001829425 0.0004765833
000220 c2 2e 19 bc 66 b2 81 3c c1 83 63 3b 88 54 03 3d
       -0.009349527 0.015832137 0.0034715983 0.032063037
000230 1e c9 43 bc 3a 62 82 bc 4e 32 39 3d ce 17 05 bc
       -0.011949806 -0.015915979 0.04521399 -0.008123351
000240 7a 03 3e bc 8c a5 11 3a ec 94 1f ba dd aa 06 3c
       -0.011597509 0.00055559794 -0.000608756 0.008219448
000250 99 cb ce bb 4f 27 5d bc 69 4e 4b bc be 9f b6 bc
       -0.006310892 -0.013498141 -0.012408831 -0.022292968
000260 0d f4 85 3c 77 f3 56 3c b4 54 26 3b 79 e0 de 3c
       0.016351724 0.01311957 0.0025380077 0.027206646
000270 9d 9d 63 3d 8f 98 2f 3b 8e b1 29 3b e4 cb 52 bc
       0.055570234 0.0026793813 0.0025893184 -0.012865994
000280 f8 eb ab bc b4 0e 1f 3c 86 fb a0 3c 4f 22 57 bc
       -0.020986542 0.009708095 0.019651186 -0.013130738
000290 25 6e fc ba c8 71 09 bc 86 c9 ea bb 2e 6f 09 bd
       -0.00192589 -0.008388944 -0.0071651367 -0.033553295
0002a0 de d6 f3 3a 1d 0e 3f 3d 4d 8f 8d 3c f8 ac cd 3c
       0.0018603464 0.04664432 0.017280245 0.025106892
0002b0 47 a5 9c bb ad e5 18 bc 71 09 b3 bc 7b aa 2b 3c
       -0.004780445 -0.009332103 -0.021855088 0.010477657
0002c0 0f 67 4b 3c 47 ea 38 3d 76 30 80 bc df 9f ae 3b
       0.012414708 0.0451453 -0.015648108 0.0053291167
0002d0 83 41 61 bc 1b 32 c9 3c 4b 03 9d bc df c5 54 3c
       -0.013748529 0.024560025 -0.01916661 0.012986629
0002e0 61 2d 8a 3c 6c 1a 21 3b 50 92 50 bb 08 5a b3 3c
       0.016867341 0.00245824 -0.003182549 0.021893516
0002f0 b3 59 1f 3c 06 56 de ba b3 68 af bc 1b 22 68 bc
       0.009725976 -0.0016962893 -0.02141223 -0.014168288
000300 b0 35 bb bb 05 65 3c bc 1b fc 11 39 44 2b 0b 3c
       -0.005713187 -0.011498694 0.00013922194 0.008494202
000310 25 a8 38 bc d8 bf b5 3b df 9c f2 bc f3 13 99 bc
       -0.0112705575 0.005546551 -0.029615818 -0.01868627
000320 87 38 4c 3c 9c 98 98 bb 3c 1c 0e bc 69 9c c7 bc
       0.012464649 -0.0046568643 -0.008673724 -0.024366574
000330 6e 3e e2 bb bf 92 81 3c 72 de 20 3c 06 15 8f bc
       -0.006904415 0.015817044 0.00981866 -0.01746608
000340 9e 4e 91 bb b4 a9 d0 3c 4d 0b 07 3c 8b 9d 19 bc
       -0.0044344207 0.025471546 0.00824244 -0.00937594
000350 65 98 da bb dd b0 52 bc 15 d8 07 3c 78 84 e9 bb
       -0.006670999 -0.01285955 0.008291264 -0.007126387
000360 c2 fe c5 bb 8a cc 26 3c 55 6b 71 bb 9d cf 8a bb
       -0.0060423324 0.010180602 -0.0036837657 -0.004236175
000370 6a 9a 3d 3c a0 92 d8 bb 70 e3 80 bc 3e b7 3c bc
       0.01157246 -0.006609276 -0.01573345 -0.011518298
000380 0c 34 ea bb 66 f6 95 3c 06 30 06 3c c0 54 ed b8
       -0.0071473178 0.018305968 0.008190161 -0.000113168266
000390 ac 27 ca bb a3 dd c0 bb c6 3b 3f bc 59 ad df bc
       -0.00616928 -0.005885796 -0.011671966 -0.027304338
0003a0 18 00 b5 3b e1 ed 12 3d 48 85 9b 3d 13 1c f5 3b
       0.005523693 0.03587139 0.07593781 0.0074801533
0003b0 30 80 6e 3c 3b 21 1f 3c e8 6d fe bc f8 37 8e 3c
       0.0145569295 0.009712513 -0.031058267 0.017360672
0003c0 12 d0 08 3c cf fe da ba
       0.008350389 -0.0016708019
