TBCAS24/intuitivechip_classifier_lcsvsnlcs_run2/SNN_ep-150-isize-2-8-1-hsize-242-bsize-32-lr-0.001-tmax_ms-100.0-Ts-10.0-k-6-dsetPath-VMODE_allchannels_ALLCLASS_auto_nospkfilter_cleaned_12x16_9mvpp_250mvofs_onedac_itail_50nA_N4b/chip-classifier-1-best.pt (torch, 261239 bytes, 8 tensors)

thr_h_1 f4 [242]
0	0x3f800000	1.0
1	0x3f800000	1.0
2	0x3f800000	1.0
3	0x3f800000	1.0
4	0x3f800000	1.0
5	0x3f800000	1.0
6	0x3f800000	1.0
7	0x3f800000	1.0
8	0x3f800000	1.0
9	0x3f800000	1.0
10	0x3f800000	1.0
11	0x3f800000	1.0
12	0x3f800000	1.0
13	0x3f800000	1.0
14	0x3f800000	1.0
15	0x3f800000	1.0
16	0x3f800000	1.0
17	0x3f800000	1.0
18	0x3f800000	1.0
19	0x3f800000	1.0
20	0x3f800000	1.0
21	0x3f800000	1.0
22	0x3f800000	1.0
23	0x3f800000	1.0
24	0x3f800000	1.0
25	0x3f800000	1.0
26	0x3f800000	1.0
27	0x3f800000	1.0
28	0x3f800000	1.0
29	0x3f800000	1.0
30	0x3f800000	1.0
31	0x3f800000	1.0
32	0x3f800000	1.0
33	0x3f800000	1.0
34	0x3f800000	1.0
35	0x3f800000	1.0
36	0x3f800000	1.0
37	0x3f800000	1.0
38	0x3f800000	1.0
39	0x3f800000	1.0
40	0x3f800000	1.0
41	0x3f800000	1.0
42	0x3f800000	1.0
43	0x3f800000	1.0
44	0x3f800000	1.0
45	0x3f800000	1.0
46	0x3f800000	1.0
47	0x3f800000	1.0
48	0x3f800000	1.0
49	0x3f800000	1.0
50	0x3f800000	1.0
51	0x3f800000	1.0
52	0x3f800000	1.0
53	0x3f800000	1.0
54	0x3f800000	1.0
55	0x3f800000	1.0
56	0x3f800000	1.0
57	0x3f800000	1.0
58	0x3f800000	1.0
59	0x3f800000	1.0
60	0x3f800000	1.0
61	0x3f800000	1.0
62	0x3f800000	1.0
63	0x3f800000	1.0
64	0x3f800000	1.0
65	0x3f800000	1.0
66	0x3f800000	1.0
67	0x3f800000	1.0
68	0x3f800000	1.0
69	0x3f800000	1.0
70	0x3f800000	1.0
71	0x3f800000	1.0
72	0x3f800000	1.0
73	0x3f800000	1.0
74	0x3f800000	1.0
75	0x3f800000	1.0
76	0x3f800000	1.0
77	0x3f800000	1.0
78	0x3f800000	1.0
79	0x3f800000	1.0
80	0x3f800000	1.0
81	0x3f800000	1.0
82	0x3f800000	1.0
83	0x3f800000	1.0
84	0x3f800000	1.0
85	0x3f800000	1.0
86	0x3f800000	1.0
87	0x3f800000	1.0
88	0x3f800000	1.0
89	0x3f800000	1.0
90	0x3f800000	1.0
91	0x3f800000	1.0
92	0x3f800000	1.0
93	0x3f800000	1.0
94	0x3f800000	1.0
95	0x3f800000	1.0
96	0x3f800000	1.0
97	0x3f800000	1.0
98	0x3f800000	1.0
99	0x3f800000	1.0
100	0x3f800000	1.0
101	0x3f800000	1.0
102	0x3f800000	1.0
103	0x3f800000	1.0
104	0x3f800000	1.0
105	0x3f800000	1.0
106	0x3f800000	1.0
107	0x3f800000	1.0
108	0x3f800000	1.0
109	0x3f800000	1.0
110	0x3f800000	1.0
111	0x3f800000	1.0
112	0x3f800000	1.0
113	0x3f800000	1.0
114	0x3f800000	1.0
115	0x3f800000	1.0
116	0x3f800000	1.0
117	0x3f800000	1.0
118	0x3f800000	1.0
119	0x3f800000	1.0
120	0x3f800000	1.0
121	0x3f800000	1.0
122	0x3f800000	1.0
123	0x3f800000	1.0
124	0x3f800000	1.0
125	0x3f800000	1.0
126	0x3f800000	1.0
127	0x3f800000	1.0
128	0x3f800000	1.0
129	0x3f800000	1.0
130	0x3f800000	1.0
131	0x3f800000	1.0
132	0x3f800000	1.0
133	0x3f800000	1.0
134	0x3f800000	1.0
135	0x3f800000	1.0
136	0x3f800000	1.0
137	0x3f800000	1.0
138	0x3f800000	1.0
139	0x3f800000	1.0
140	0x3f800000	1.0
141	0x3f800000	1.0
142	0x3f800000	1.0
143	0x3f800000	1.0
144	0x3f800000	1.0
145	0x3f800000	1.0
146	0x3f800000	1.0
147	0x3f800000	1.0
148	0x3f800000	1.0
149	0x3f800000	1.0
150	0x3f800000	1.0
151	0x3f800000	1.0
152	0x3f800000	1.0
153	0x3f800000	1.0
154	0x3f800000	1.0
155	0x3f800000	1.0
156	0x3f800000	1.0
157	0x3f800000	1.0
158	0x3f800000	1.0
159	0x3f800000	1.0
160	0x3f800000	1.0
161	0x3f800000	1.0
162	0x3f800000	1.0
163	0x3f800000	1.0
164	0x3f800000	1.0
165	0x3f800000	1.0
166	0x3f800000	1.0
167	0x3f800000	1.0
168	0x3f800000	1.0
169	0x3f800000	1.0
170	0x3f800000	1.0
171	0x3f800000	1.0
172	0x3f800000	1.0
173	0x3f800000	1.0
174	0x3f800000	1.0
175	0x3f800000	1.0
176	0x3f800000	1.0
177	0x3f800000	1.0
178	0x3f800000	1.0
179	0x3f800000	1.0
180	0x3f800000	1.0
181	0x3f800000	1.0
182	0x3f800000	1.0
183	0x3f800000	1.0
184	0x3f800000	1.0
185	0x3f800000	1.0
186	0x3f800000	1.0
187	0x3f800000	1.0
188	0x3f800000	1.0
189	0x3f800000	1.0
190	0x3f800000	1.0
191	0x3f800000	1.0
192	0x3f800000	1.0
193	0x3f800000	1.0
194	0x3f800000	1.0
195	0x3f800000	1.0
196	0x3f800000	1.0
197	0x3f800000	1.0
198	0x3f800000	1.0
199	0x3f800000	1.0
200	0x3f800000	1.0
201	0x3f800000	1.0
202	0x3f800000	1.0
203	0x3f800000	1.0
204	0x3f800000	1.0
205	0x3f800000	1.0
206	0x3f800000	1.0
207	0x3f800000	1.0
208	0x3f800000	1.0
209	0x3f800000	1.0
210	0x3f800000	1.0
211	0x3f800000	1.0
212	0x3f800000	1.0
213	0x3f800000	1.0
214	0x3f800000	1.0
215	0x3f800000	1.0
216	0x3f800000	1.0
217	0x3f800000	1.0
218	0x3f800000	1.0
219	0x3f800000	1.0
220	0x3f800000	1.0
221	0x3f800000	1.0
222	0x3f800000	1.0
223	0x3f800000	1.0
224	0x3f800000	1.0
225	0x3f800000	1.0
226	0x3f800000	1.0
227	0x3f800000	1.0
228	0x3f800000	1.0
229	0x3f800000	1.0
230	0x3f800000	1.0
231	0x3f800000	1.0
232	0x3f800000	1.0
233	0x3f800000	1.0
234	0x3f800000	1.0
235	0x3f800000	1.0
236	0x3f800000	1.0
237	0x3f800000	1.0
238	0x3f800000	1.0
239	0x3f800000	1.0
240	0x3f800000	1.0
241	0x3f800000	1.0

thr_o f4 [6]
0	0x3f800000	1.0
1	0x3f800000	1.0
2	0x3f800000	1.0
3	0x3f800000	1.0
4	0x3f800000	1.0
5	0x3f800000	1.0

i2h.weight f4 [242, 16]
0	0x3d8c9bf7	0.068656854
1	0x3e07e5e0	0.13271284
2	0x3d50221b	0.050813776
3	0xbd5a85aa	-0.05335013
4	0x3dd9d92c	0.106371254
5	0xbdbba399	-0.09162063
6	0xbe0a7ce7	-0.13524209
7	0x3b854c1a	0.00406791
8	0x3d874f95	0.06606976
9	0xbdcd4624	-0.10023144
10	0xbca5d7ae	-0.020244446
11	0xbc0de936	-0.008661559
12	0x3d6218f4	0.05519958
13	0xbe929da9	-0.2863591
14	0xbe66c745	-0.22536953
15	0x3ce27484	0.02764345
16	0x3ca4f248	0.02013506
17	0x3c966257	0.018357439
18	0x3c63db64	0.013907287
19	0xbd6fe8f3	-0.058571767
20	0xbdc12a91	-0.09431947
21	0x3d9d7a19	0.07689304
22	0x3e175d92	0.14781788
23	0xbd010dc9	-0.031507287
24	0xbdf9506b	-0.12173542
25	0x3db2f1d6	0.08737533
26	0x3df68383	0.120368026
27	0x3c5e6a35	0.013575126
28	0x3e39b183	0.18134122
29	0x3e084fe1	0.13311721
30	0x3d19d01c	0.037551984
31	0xbdfbecc9	-0.123010226
32	0x3dc59fa9	0.096495934
33	0x3e1363bc	0.14393514
34	0xbd3be3f5	-0.045871694
35	0xbd90f8df	-0.070787184
36	0xbc4ba55a	-0.01242956
37	0xbe0ae520	-0.13563967
38	0xbd1afbd6	-0.037837826
39	0x3da3999e	0.079882845
40	0xbdcb00fd	-0.09912298
41	0x3deeaaa6	0.11653642
42	0xb919e8c0	-0.00014677923
43	0xbc21858b	-0.009858499
44	0xbe0c53f7	-0.13703905
45	0x3e02e6f7	0.12783419
46	0x3dab21ad	0.083560325
47	0xbdcf047a	-0.10108276
48	0xbd148994	-0.036264017
49	0x3e067574	0.13130742
50	0x3d5b1141	0.05348325
51	0x3e18d492	0.14924839
52	0xbdad72d1	-0.08469165
53	0x3b6cd74f	0.0036139076
54	0x3d6ae767	0.05734959
55	0xbc54b676	-0.012982955
56	0xbd9afe6a	-0.07568057
57	0x3da19542	0.07889797
58	0xbda972a1	-0.08273817
59	0xbd1dfb98	-0.038570017
60	0x3d765b25	0.060145516
61	0x3dabf2e1	0.08395935
62	0xbe1096f8	-0.1412009
63	0x3d3fa768	0.04679051
64	0x3de1e71c	0.11030409
65	0xbe02dad9	-0.12778796
66	0x3e16a159	0.14709987
67	0xbd6296bc	-0.055319533
68	0x3da57d9c	0.08080599
69	0x3ceeae37	0.029135806
70	0xbd83582c	-0.06413302
71	0xbdfbc36f	-0.122931354
72	0xbc5e84ed	-0.013581497
73	0xbc774d2c	-0.015094083
74	0xbca15f7b	-0.019698849
75	0xbda87c33	-0.08226814
76	0x3d9d43b8	0.07678932
77	0xbd7420ad	-0.059601475
78	0x3c31b2fa	0.010845894
79	0xbd94ff55	-0.07275263
80	0xbdb01fff	-0.08599853
81	0x3db21d44	0.08696988
82	0xbdfe6c66	-0.12423019
83	0x3d9995df	0.07499289
84	0x3ddfcd0c	0.109277815
85	0xbdb0a2b7	-0.086247854
86	0xbd3748ac	-0.04474704
87	0xbd40db51	-0.047084156
88	0xbc2702a7	-0.010193503
89	0xbddb26ae	-0.10700737
90	0x3c6aed79	0.014338844
91	0x3c9a4df7	0.018836005
92	0x3e14389c	0.1447472
93	0x3d83e68a	0.06440456
94	0x3d6110ff	0.05494785
95	0x3cda6b75	0.026662568
96	0xbd8d0bfe	-0.06887053
97	0xbcf08583	-0.029360538
98	0xbdd3d017	-0.10342424
99	0x3ddfb975	0.10924045
100	0xbddc13b0	-0.107459426
101	0xbd536e95	-0.05161913
102	0x3df6084b	0.120133005
103	0x3dd1e552	0.102488175
104	0xbe01cb65	-0.12675245
105	0x3db86e21	0.090053804
106	0xbc0c741d	-0.008572605
107	0x3b711380	0.0036785305
108	0xbe076657	-0.13222633
109	0xbddcb5a1	-0.107768305
110	0xbd501c1d	-0.05080806
111	0x3d7f0afa	0.062266327
112	0x3d775c89	0.060390983
113	0xbc84c9a6	-0.016209435
114	0xbdf6d91f	-0.12053131
115	0x3c19fd1d	0.009398726
116	0xbdcf9617	-0.10136049
117	0xbcbb23e8	-0.02284427
118	0x3e113c76	0.1418322
119	0xbdd670aa	-0.10470708
120	0x3e073d8c	0.13207072
121	0xbe0739a0	-0.13205576
122	0xbdbfe1a1	-0.09369207
123	0xbd50d864	-0.050987616
124	0xbd71b9b9	-0.05901501
125	0xbe08eaad	-0.13370772
126	0x3d1db77b	0.03850506
127	0xbe268b39	-0.16264047
128	0xbde16e72	-0.11007394
129	0x3c8661b2	0.016404007
130	0xbd5a85df	-0.053350326
131	0x3df5bdf6	0.11999123
132	0xbde4d531	-0.111734755
133	0xbb9e0c3a	-0.004823235
134	0x3d86e511	0.0658666
135	0xbd508494	-0.050907686
136	0xbd71105c	-0.058853492
137	0xbd0104ec	-0.031498834
138	0x3e154fa6	0.14581165
139	0x3e036a31	0.12833478
140	0x3cddbbd7	0.027067108
141	0xbdee2517	-0.11628168
142	0x3e1dba00	0.15402985
143	0xbd22f3b3	-0.03978319
144	0x3ce9a8f5	0.028522948
145	0xbdb4e654	-0.08832994
146	0xbcc9bed8	-0.024627134
147	0x3de8056e	0.11329161
148	0x3dce7399	0.10080642
149	0x3dc0a732	0.0940689
150	0x3d61c195	0.055116255
151	0xbd2a90cd	-0.041642
152	0xbe1c17bd	-0.1524343
153	0x3d4ad149	0.049515996
154	0x3df43c63	0.1192558
155	0x3df3280f	0.11872875
156	0xbdda1758	-0.10648984
157	0xbe0d731d	-0.13813443
158	0xbb4079d8	-0.00293695
159	0x3cee75a0	0.029108822
160	0x3d9d08a5	0.076676644
161	0xbc95e70c	-0.018298648
162	0xbd442040	-0.04788232
163	0x3a6ef53e	0.00091155234
164	0xbd1a14a4	-0.03761734
165	0xbd0e096e	-0.03467696
166	0xbc9e03d9	-0.019288944
167	0xbc78dcc3	-0.015189352
168	0xbe0b0dd4	-0.13579494
169	0xbc8341c4	-0.01602257
170	0x3d0c9219	0.034319017
171	0x3ce36126	0.027756285
172	0x3e047fbd	0.12939353
173	0x3ce954aa	0.028482754
174	0xbc061abf	-0.008185088
175	0x3da6c231	0.08142508
176	0x3b6dbf67	0.0036277415
177	0xbd3ce55b	-0.046117168
178	0xbdcc524c	-0.099766344
179	0x3da3b718	0.07993907
180	0xbdb5508b	-0.08853253
181	0xbd532003	-0.0515442
182	0xbc8212bb	-0.015878072
183	0xbe156343	-0.14588647
184	0x3dc1c676	0.094616815
185	0xbd5c275b	-0.05374847
186	0x3d9757f8	0.073898256
187	0x3c89486c	0.016758166
188	0xbd060a67	-0.032724764
189	0x3e106ff9	0.14105214
190	0xbe1156bb	-0.14193241
191	0x3d6efcc6	0.058346532
192	0xbde68f02	-0.11257745
193	0x3db3b644	0.08774999
194	0x3d445406	0.047931693
195	0xbdb7b97a	-0.08970924
196	0xbd4ee3eb	-0.05051033
197	0xbd9cea92	-0.07661928
198	0xbbd85587	-0.0066019925
199	0x3d5e8ec6	0.054335378
200	0xbba7d62b	-0.0051219664
201	0x3da9c3af	0.08289277
202	0xbb3790be	-0.0028009857
203	0x3d75158f	0.059835013
204	0xbd867398	-0.065650165
205	0xbd00d8e8	-0.031456858
206	0xbdd3d8ca	-0.103440836
207	0x3df7f056	0.12106387
208	0x3bce80b3	0.0063019632
209	0xbd072ae1	-0.032999877
210	0x3e086075	0.13318045
211	0xbdee901e	-0.11648582
212	0xbda85d75	-0.082209505
213	0x3ddb4b84	0.10707763
214	0xbdb346b9	-0.08753724
215	0x3e02eda3	0.12785964
216	0xbd07a708	-0.033118278
217	0xbc47e6f0	-0.012201056
218	0xbbabc7dc	-0.005242331
219	0x3dcbce41	0.09951449
220	0xbd260cf0	-0.040539682
221	0xbd782090	-0.06057793
222	0x3d72870f	0.059210833
223	0x3dc928b3	0.09822216
224	0x3dec31f8	0.11532968
225	0x3c449990	0.011999503
226	0xbd6db698	-0.058035463
227	0xbdb6c864	-0.0892494
228	0xbda18f16	-0.078886196
229	0xbd946b66	-0.07247047
230	0xbe10fc1b	-0.1415867
231	0xbe0ff54a	-0.14058414
232	0xbdd1a646	-0.10236792
233	0x3e02d706	0.12777337
234	0x3dacc18a	0.08435352
235	0x3da038a3	0.078233026
236	0xbb853ba7	-0.004065949
237	0x3da456e0	0.080243826
238	0x3d7f77dc	0.062370166
239	0x3c88d387	0.016702427
240	0xbe19f11a	-0.15033379
241	0xbcde57ca	-0.02714147
242	0xbdc4a52c	-0.096018165
243	0xbdb1e95a	-0.086870864
244	0x3d8b22c7	0.067937426
245	0xbc8cf7d7	-0.017208023
246	0xbd9d9ea5	-0.07696275
247	0x3d77b236	0.06047269
248	0xbd1484cb	-0.036259454
249	0x3e0f7fb9	0.14013566
250	0xbdc618ed	-0.09672723
251	0xbdfe352c	-0.124124855
252	0xbd5300aa	-0.051514305
253	0xbe3756ee	-0.17904255
254	0xbdfbdb9f	-0.12297749
255	0xbdd68913	-0.104753636

i2h.bias f4 [242]
0	0xbd123077	-0.03569075
1	0xbcc4b48c	-0.024011873
2	0x3d295e2e	0.041349582
3	0xbbf2e598	-0.0074126236
4	0xbc9bb85d	-0.01900881
5	0xbbf5d0ff	-0.007501721
6	0x3d8fdab0	0.07024133
7	0xbc29b61a	-0.010358358
8	0xbc125f01	-0.0089337835
9	0xbc8f43e9	-0.017488437
10	0x3cbac104	0.022797115
11	0x3cc25746	0.023723256
12	0x3d0dd813	0.034629893
13	0x3b0b95b8	0.0021298956
14	0x3bb64980	0.005562961
15	0x3d006328	0.031344563
16	0xbb27c562	-0.0025599827
17	0xbca9a208	-0.020707145
18	0xbbc02288	-0.0058634914
19	0xbc900f36	-0.017585378
20	0x3d5a6d37	0.05332681
21	0xbbb5a64f	-0.005543507
22	0x3c105d60	0.008811325
23	0xbc34c67b	-0.01103365
24	0x3c0dd40c	0.008656513
25	0x3c69dae2	0.014273377
26	0xbcdca310	-0.026933223
27	0x3b93020a	0.004486327
28	0xbc997523	-0.018732613
29	0x3da1a037	0.07891887
30	0x3c88dde5	0.01670737
31	0x3d4f3240	0.05058503
32	0xbc782371	-0.015145169
33	0xbc68751c	-0.014188077
34	0x3cc97567	0.024592115
35	0x3da10b9e	0.07863544
36	0x3c53a3eb	0.012917499
37	0x3c71c798	0.0147570595
38	0x3b941cf2	0.004520052
39	0x3b1baa16	0.0023752502
40	0x3b6571ff	0.0035010574
41	0xbd2e2969	-0.04251996
42	0xbbffb6e7	-0.007803786
43	0xbcf66586	-0.030077707
44	0x3d90f42d	0.07077823
45	0x3d50d992	0.05098874
46	0xbbaa69c1	-0.005200595
47	0x3c5198b6	0.012792757
48	0xbcb67cbe	-0.022276279
49	0xbcd216d5	-0.025645653
50	0xbcc7797d	-0.024349922
51	0x3c42d777	0.011892191
52	0xbb838335	-0.004013444
53	0xbc0dcf82	-0.008655431
54	0x3c64a88b	0.013956199
55	0x3c86a6d5	0.016436974
56	0x3c9b8e30	0.018988699
57	0xbd2d9d36	-0.042386256
58	0xbbfb7a2f	-0.0076744775
59	0x3c4d7e98	0.012542389
60	0xbcc4ebff	-0.024038313
61	0x3d114402	0.035465248
62	0x3d08e555	0.033421833
63	0x3c6c7089	0.014431127
64	0x3c0cce7b	0.008594151
65	0xbb00fdcb	-0.0019682522
66	0xba9c3715	-0.0011918271
67	0xbd247efe	-0.04016017
68	0x3d0dc84c	0.034614846
69	0xbbb8fc9e	-0.0056453487
70	0xbcbb996f	-0.022900311
71	0x3dc80e65	0.097683705
72	0x3c42ee37	0.011897615
73	0x3bf5e4f7	0.0075041014
74	0x3dd6d1cf	0.104892366
75	0x3b6709f7	0.0035253742
76	0xbb8d1f08	-0.0043066777
77	0xbc35b0f2	-0.01108955
78	0xbd6401ec	-0.055665895
79	0x3d553d31	0.05206031
80	0xbc06fff4	-0.008239735
81	0xbc4a4ad2	-0.01234694
82	0x3c2c491d	0.010515478
83	0xbc3edc6d	-0.011649233
84	0x3cdb79b8	0.026791438
85	0x3cbb12ae	0.022836056
86	0xbc74f379	-0.0149506265
87	0xbbfd4ac1	-0.0077298586
88	0x3bc70fa5	0.006074863
89	0xbd0e3e8b	-0.034727614
90	0xb7d2d3e6	-2.5132624e-05
91	0xbcefa64f	-0.029254107
92	0x3a795596	0.00095113495
93	0xbc329dfa	-0.010901922
94	0xbb770777	-0.0037693658
95	0x3d21c812	0.039497443
96	0x3d01f0b9	0.03172371
97	0x3ca240e0	0.019806325
98	0xbcbbe6db	-0.022937229
99	0x3d48541f	0.04890835
100	0x3d8aebaf	0.06783234
101	0xbc776338	-0.015099339
102	0xbceafd82	-0.028685335
103	0x3d35b20f	0.044359263
104	0xbd143a89	-0.036188636
105	0x3cfe61d8	0.031052515
106	0x3cb96dd8	0.022635385
107	0x3d2eba71	0.042658273
108	0xbbf62ecf	-0.0075129042
109	0x39cb0b7b	0.0003872773
110	0x3c9edaec	0.0193915
111	0xbc8ccba0	-0.01718694
112	0xbc8f9ad5	-0.017529884
113	0x3bbe098c	0.005799478
114	0x3c81d389	0.015847938
115	0x3c421fa7	0.011848367
116	0xbcbc3f4d	-0.022979403
117	0x3b4fbb85	0.0031697464
118	0xbc73a12c	-0.014869969
119	0x3b049b14	0.0020234035
120	0xbbfcc3dd	-0.0077137784
121	0xbbe9b861	-0.0071325754
122	0xbc0b868e	-0.008515967
123	0xbcce4686	-0.025180113
124	0xbc0ca3bc	-0.008583959
125	0x3da8e0fe	0.08246039
126	0xbd6f26e3	-0.058386695
127	0x3d788ae1	0.06067932
128	0x3ccaaad6	0.024739664
129	0xbc38d6b8	-0.011281662
130	0x3d022122	0.03176988
131	0x3e127508	0.14302456
132	0x3c5f1b70	0.013617381
133	0x3c3568a3	0.011072311
134	0xbba46500	-0.005016923
135	0xbc562666	-0.013070678
136	0x3d987702	0.07444574
137	0x3c0a1059	0.008426749
138	0x3d3929c8	0.04520586
139	0xbbada410	-0.005299099
140	0xbce907a3	-0.028446024
141	0x3e135e4a	0.14391437
142	0x3d6518d5	0.055931885
143	0xbc5b41c0	-0.013382375
144	0xbaf77c0f	-0.0018881577
145	0xbb65211b	-0.003496236
146	0x3ad937dd	0.0016572435
147	0x39c848a3	0.0003820109
148	0x3cade841	0.021228911
149	0x3bb8d3a7	0.0056404653
150	0x3c99bf19	0.01876788
151	0xbbd7c997	-0.0065853107
152	0x3cead310	0.028665096
153	0x3b7e2ff6	0.0038785911
154	0xbc35d05e	-0.011097042
155	0x3c0a5c49	0.008444854
156	0xbcd01284	-0.025399454
157	0x3c733f17	0.014846585
158	0x3aa31454	0.0012441971
159	0xbd1d7588	-0.038442165
160	0x3d2086fb	0.039191227
161	0xbd22567f	-0.03963327
162	0xbce189ad	-0.02753147
163	0xbba3e306	-0.0050014285
164	0xbc4140a6	-0.011795199
165	0x3d234c54	0.039867714
166	0xbd87911e	-0.06619476
167	0xbd61f3b7	-0.055164065
168	0x3a185e11	0.0005812357
169	0xbcbae7e2	-0.022815648
170	0xbc8d9ab0	-0.017285675
171	0xbbdaed09	-0.006681089
172	0xbb4c01f0	-0.0031129085
173	0x3becd304	0.0072273035
174	0x3aa0a8a5	0.0012257291
175	0x3c893074	0.016746737
176	0xbd3dca4d	-0.046335507
177	0xbb85148f	-0.0040612887
178	0x3c971da1	0.018446745
179	0xbc820a21	-0.01587397
180	0x3d6492f7	0.05580422
181	0xbba3979b	-0.004992438
182	0x3cbe2ebc	0.023215644
183	0xbc8cb70d	-0.01717713
184	0xbcd77167	-0.026299192
185	0xbc9ae850	-0.018909603
186	0xbcdddcfc	-0.027082913
187	0x3d0d0cbe	0.03443598
188	0x3cf2fe05	0.029662142
189	0x3d88c0cb	0.06677397
190	0xbba9b5f9	-0.0051791635
191	0x3cb31c03	0.021863943
192	0x3d6c46d4	0.057684734
193	0x3d3f6779	0.04672954
194	0x3c5f46da	0.013627732
195	0xbb11283d	-0.0022149228
196	0x3b329580	0.0027249753
197	0x3d9ce844	0.07661489
198	0xbc3d8fa3	-0.01156989
199	0xbb90f9fe	-0.0044243326
200	0x3cee1a05	0.029065141
201	0x3c2ee6c7	0.010675139
202	0xbbfb698a	-0.0076724933
203	0xbc8d11f8	-0.017220482
204	0x3d17bed8	0.037047237
205	0x3c0bc916	0.008531829
206	0x3bae8b9e	0.0053267023
207	0xbc247dd5	-0.010039766
208	0xbc672d0f	-0.014109864
209	0xbcda6f53	-0.026664412
210	0x3cf48172	0.02984688
211	0xbc802fd5	-0.015647808
212	0xbd944199	-0.07239074
213	0xbc86b525	-0.016443798
214	0xbd01c15b	-0.03167854
215	0x3a49f231	0.0007703631
216	0x3b1bc7c0	0.0023770183
217	0x3c1872a8	0.00930468
218	0x3d3b0a08	0.045663863
219	0x387b49aa	5.991167e-05
220	0x3a02ad7a	0.00049849565
221	0xbcac0285	-0.020997295
222	0xbb99f71b	-0.0046986467
223	0x3dc95030	0.09829748
224	0x3d08a77b	0.033362847
225	0x3d98f0fb	0.074678384
226	0x3de9fe03	0.11425402
227	0x3c76f261	0.015072436
228	0xbd8980a8	-0.06713992
229	0x3c312fd6	0.010814628
230	0x3ac9c9bd	0.0015395206
231	0xbc611ae2	-0.0137393195
232	0x3a9560c3	0.0011396635
233	0x3cd98735	0.02655373
234	0xbc52d5e1	-0.0128683755
235	0x3c71058a	0.014710793
236	0x3b5b5767	0.0033468844
237	0x3c987f54	0.018615402
238	0xbccca22d	-0.024979675
239	0x3ce12df3	0.02748773
240	0xbb27aa00	-0.0025583506
241	0x3c95e32b	0.018296799

h2o.weight f4 [6, 242]
0	0x3c35ed18	0.011103891
1	0xbcefd973	-0.029278493
2	0x3e04faa6	0.1298624
3	0x3cd3ea2d	0.0258685
4	0xbe0339b1	-0.12814976
5	0x3c85355e	0.016260799
6	0x3e13da47	0.14438735
7	0x3de4a106	0.11163525
8	0x3d8592f0	0.06522167
9	0x3dd4e29c	0.10394785
10	0x3db85e84	0.090024024
11	0xbdd88470	-0.105721354
12	0xbc573196	-0.013134381
13	0x3d1777e9	0.03697959
14	0x3ce4f5a5	0.027949164
15	0xbe2fd2c0	-0.17170238
16	0x3e3aefcc	0.18255538
17	0xbe16ae20	-0.14714861
18	0xbc8e57c3	-0.017375832
19	0x3d9bc845	0.07606558
20	0xbdede903	-0.11616709
21	0xbe223217	-0.1583942
22	0x3d189b3e	0.037257425
23	0xbdc9966b	-0.09843143
24	0xbe8b656a	-0.2722581
25	0x3d4c6ca2	0.049908288
26	0x3e1a7778	0.15084636
27	0x3dc79617	0.09745424
28	0x3e07a306	0.13245782
29	0xbe901bbd	-0.28146163
30	0x3c0c3ff1	0.008560167
31	0x3e1738e0	0.1476779
32	0x3ddcbc61	0.10778118
33	0xbdf861ad	-0.12128005
34	0xbd099148	-0.033585817
35	0x3d1f0695	0.038824636
36	0xbde2dd05	-0.110773124
37	0xbd30a169	-0.043122683
38	0x3d075d3a	0.033047892
39	0x3d83f883	0.06443884
40	0x3e243959	0.16037501
41	0x3d653c0e	0.055965476
42	0x3ba96fef	0.005170814
43	0x3d2f5cbf	0.04281306
44	0xbd2d8018	-0.042358488
45	0x3e1627aa	0.14663568
46	0xbd906b4c	-0.07051715
47	0xbddfeef5	-0.10934249
48	0xbc0ca0a7	-0.008583224
49	0x3d0db030	0.034591854
50	0xbd672b86	-0.05643799
51	0x3d969d4e	0.07354222
52	0xbe1c5c97	-0.15269695
53	0x3b861028	0.0040912814
54	0x3d8891ef	0.066684596
55	0xbd0c0dcb	-0.03419284
56	0x3da5a537	0.08088153
57	0x3e2832e9	0.1642567
58	0xbdc12bc4	-0.09432176
59	0x3e301ca0	0.1719842
60	0x3cb10a46	0.021611344
61	0xbdb747f5	-0.089492716
62	0xbe25b257	-0.16181313
63	0xbd0683d4	-0.032840565
64	0xbd4e9824	-0.05043806
65	0x3da7be8f	0.08190643
66	0x3c21277b	0.009836073
67	0xbd420002	-0.04736329
68	0xbd97f519	-0.074197955
69	0xbd6613f2	-0.056171365
70	0x3e21b61a	0.15792122
71	0xbe5af8f6	-0.21384034
72	0xbdaf133b	-0.0854859
73	0xbe1ea041	-0.1549082
74	0xbe0d63a9	-0.13807549
75	0xba5b4219	-0.00083640363
76	0xbd5fdfa2	-0.054656632
77	0x3db38cec	0.08767113
78	0x3db369d2	0.08760418
79	0xbd17d2c8	-0.03706625
80	0xbd22fb29	-0.039790306
81	0xbd14e34e	-0.036349587
82	0xbdc31bf6	-0.095268175
83	0x3e0d3cdf	0.13792752
84	0xbd4ca644	-0.04996325
85	0xbd43db7d	-0.047816742
86	0x3e379f0f	0.1793177
87	0x3cf39eb9	0.02973877
88	0x3e0df65d	0.13863511
89	0x3e17edeb	0.14836852
90	0x3dae5498	0.08512229
91	0x3e273acd	0.16331024
92	0x3c657098	0.014003895
93	0x3d2e0702	0.042487152
94	0xbe0d2675	-0.13784201
95	0xbe3dcda4	-0.18535477
96	0x3c8fe327	0.01756437
97	0x3e4fa407	0.20277415
98	0xbe0e553b	-0.138997
99	0xbe090701	-0.13381578
100	0xbe0d0359	-0.13770808
101	0x3da56f5e	0.08077882
102	0xbbacc293	-0.0052722185
103	0xbe2200e4	-0.15820652
104	0xbdca1a9b	-0.09868356
105	0x3d580b28	0.052745014
106	0xbdcbead4	-0.09956899
107	0xbd968672	-0.07349862
108	0x3ba05679	0.004893121
109	0x3c4ba57a	0.012429589
110	0x3ca27ac6	0.019833934
111	0x3ccfaad3	0.02535001
112	0x3e2fb9df	0.17160748
113	0x3de1a611	0.11018003
114	0x3d5cb362	0.05388201
115	0xbdc9acef	-0.098474376
116	0x3cc2ea24	0.023793288
117	0x3dcf81ed	0.10132203
118	0xbdd2ae24	-0.10287121
119	0xbdc23b90	-0.09484017
120	0x3def6833	0.11689796
121	0xbd01f317	-0.03172597
122	0x3e079137	0.13238989
123	0xbca7ed82	-0.020498995
124	0x3ca572cf	0.020196347
125	0xbe221ca2	-0.15831235
126	0xbc81f5d3	-0.015864288
127	0xbe43e8aa	-0.19131723
128	0xbca2d627	-0.019877506
129	0x3dd7aafa	0.10530658
130	0x3da16d22	0.078821436
131	0xbd0d3296	-0.03447207
132	0x3c7cf907	0.015440232
133	0x3b71b96b	0.00368842
134	0x3c4ce9e1	0.012506933
135	0x3af8994e	0.0018966587
136	0xbde5851d	-0.1120703
137	0xbcc022f5	-0.023454169
138	0xbd70e29e	-0.05880987
139	0x3b651436	0.0034954674
140	0xbd93d4ad	-0.07218299
141	0xbe2c3df7	-0.16820513
142	0xbcd6068b	-0.026126167
143	0xbd98635e	-0.07440828
144	0x3e14b800	0.14523315
145	0xbd607198	-0.05479583
146	0xbc8cb5a1	-0.017176451
147	0xbd59ca4e	-0.05317145
148	0xbd73ec7d	-0.059551705
149	0x3da9eef4	0.0829753
150	0xbcf4a04c	-0.029861592
151	0x3def7802	0.116928115
152	0xbe04486a	-0.12918249
153	0x3b9308fd	0.0044871555
154	0x3c878a7c	0.016545527
155	0xbe2df13f	-0.1698656
156	0x3d21d646	0.039510988
157	0x3da845ea	0.0821646
158	0x3de299fc	0.110645264
159	0xbc470d7e	-0.012149213
160	0x3a02b92b	0.00049866986
161	0x3e1ceb7a	0.15324202
162	0x3d1a9b6c	0.037745878
163	0xbdf4a345	-0.11945204
164	0x3dba8d69	0.09109003
165	0x3e22502d	0.15850897
166	0x3d026e46	0.031843446
167	0x3d283f99	0.041076276
168	0xbc13e6cc	-0.009027194
169	0xbc4c1ac5	-0.012457554
170	0x3e2cc9f1	0.1687391
171	0x3c53e7d8	0.012933694
172	0x3e12ae88	0.14324391
173	0xbd4f193d	-0.05056118
174	0x3e021752	0.12704208
175	0x3e0c26a2	0.13686612
176	0x3de12e29	0.109951325
177	0x3d483f19	0.0488883
178	0xbe0c2d2b	-0.13689105
179	0x3ddcf1f1	0.10788334
180	0xbe413f97	-0.18871914
181	0xbdff479d	-0.12464831
182	0xbe0e1f63	-0.1387916
183	0xbe01ca89	-0.12674917
184	0xbd65be43	-0.05608965
185	0xbd56d4b2	-0.052448936
186	0xbdd90334	-0.10596314
187	0xbe3564c3	-0.17714219
188	0xbdea2701	-0.11433221
189	0xbc4ab272	-0.012371646
190	0xbd8d45f3	-0.068981074
191	0xbd9e62b4	-0.0773367
192	0x3dee6351	0.11640037
193	0xbcef3aca	-0.029202837
194	0xbd41f307	-0.04735091
195	0x3d18cb3b	0.03730319
196	0x3d2980ee	0.041382723
197	0x3d5daa15	0.05411728
198	0xbdc59db4	-0.0964922
199	0xbd9f9e56	-0.07793872
200	0x3ddec4ba	0.10877366
201	0xbdaa2b8a	-0.08309086
202	0xbe1d0c4d	-0.15336724
203	0xbda8bc4c	-0.0823904
204	0xbe4a79f7	-0.19773088
205	0xbd460ccf	-0.04835206
206	0xbd9ceaf4	-0.07662001
207	0xbd968674	-0.07349864
208	0x3d197f7f	0.037475105
209	0xbe0e7e2d	-0.1391532
210	0x3ddcb499	0.10776634
211	0xbce816cb	-0.028331181
212	0x3d9b4411	0.07581342
213	0xbdadf7ec	-0.08494553
214	0xbc942984	-0.018086202
215	0xbdcae3d4	-0.09906736
216	0x3d2b4a00	0.04181862
217	0x3dea67c8	0.11445576
218	0x3e29b971	0.16574647
219	0xbda86320	-0.082220316
220	0x3e1c17a3	0.15243392
221	0xbdfbbf25	-0.12292317
222	0x3e297fd5	0.1655267
223	0x3d7f6502	0.062352188
224	0xbe4eaf0c	-0.20183963
225	0x3d2bcc50	0.041942894
226	0xbe6195cf	-0.22029804
227	0xbdd2142b	-0.10257753
228	0x3e45f4f6	0.19331726
229	0xbe06f4cb	-0.13179319
230	0x3bc4c6e2	0.006005154
231	0xbd1994ed	-0.037495542
232	0x3dbc32bd	0.09189365
233	0xbe34c736	-0.17654118
234	0xbd8fd096	-0.070222065
235	0xbce22f5f	-0.027610479
236	0x3ca2829e	0.019837674
237	0xbd4b235a	-0.04959426
238	0xbd36d3b2	-0.044635482
239	0xbde3ad6a	-0.111170605
240	0xbd9d84f8	-0.076913774
241	0xbd9f2927	-0.07771521
242	0x3e568b63	0.2095161
243	0x3c082970	0.008310661
244	0x3dc78815	0.097427525
245	0xbda39abf	-0.079885
246	0xbda845fe	-0.08216475
247	0x3d24ece0	0.040264964
248	0xbc894602	-0.016757015
249	0xbdf0df55	-0.11761347
250	0xbdea5b6a	-0.11443217
251	0xbe0b3b5a	-0.1359686
252	0x3adce4eb	0.0016852891
253	0x3e2cd305	0.16877373
254	0x3d9ce2dc	0.076604575
255	0xbe32451c	-0.17409176

h2o.bias f4 [6]
0	0xbcad4aa7	-0.021153761
1	0x3c25dc97	0.0101233935
2	0x3d1e2001	0.03860474
3	0x3d80c3c2	0.06287338
4	0xbb10d23f	-0.0022097973
5	0x3cc4288f	0.023945121

h2h.weight f4 [242, 242]
0	0x3e376ac5	0.17911823
1	0x3e12466f	0.14284681
2	0x3d63b0b6	0.055588447
3	0xbd1f9f7c	-0.038970456
4	0x3d70a2d6	0.058749042
5	0x3c12c69d	0.008958486
6	0xbd84f9e6	-0.06492977
7	0xbe25f24a	-0.16205707
8	0xbdc0ad03	-0.09407999
9	0xbcc37d8f	-0.023863582
10	0x3d733a6f	0.0593819
11	0x3c8ff900	0.017574787
12	0xbbde511e	-0.0067845723
13	0xbdaee877	-0.08540433
14	0xbd4a8b99	-0.049449537
15	0x3d9fcbf6	0.07802574
16	0x3be8ecbb	0.0071082986
17	0xbd35139c	-0.044208154
18	0x3d125bfd	0.035732258
19	0xbca6f58f	-0.020380763
20	0x3c1556cc	0.009114932
21	0x3d412a3d	0.047159422
22	0xbd489d23	-0.048977982
23	0xbdc63df3	-0.096797846
24	0xbe18f9b3	-0.14939003
25	0x3d871101	0.0659504
26	0xbcebcada	-0.02878325
27	0x3cf3a357	0.029740972
28	0x3d80f940	0.06297541
29	0xbd7e3e30	-0.062071025
30	0xbced52d0	-0.028970152
31	0x3c48dbda	0.012259448
32	0xbb0f1f80	-0.0021838844
33	0x3adb7042	0.001674183
34	0xbd24150c	-0.040059134
35	0x3d5ba789	0.05362657
36	0x3d1b2ebb	0.037886363
37	0xbe1621b1	-0.1466129
38	0x3c8731f7	0.016503317
39	0x3caaaa3d	0.020833129
40	0x3d9eaf82	0.07748319
41	0xbdb47b39	-0.08812565
42	0x3dca4192	0.09875788
43	0xbc9684ab	-0.018373808
44	0xbd76fd1e	-0.060299985
45	0x3cd69f6e	0.026199069
46	0xbb1354bf	-0.0022480933
47	0xbca8310c	-0.0205312
48	0x3d49923d	0.04921173
49	0xbd36a9ab	-0.0445954
50	0xbdd4d337	-0.103918485
51	0x3dc06550	0.09394324
52	0x3c4225a2	0.011849793
53	0x3d901602	0.07035448
54	0x3dcd21e6	0.10016231
55	0x3d8647a8	0.06556636
56	0x3d248957	0.04017004
57	0xbc8cca22	-0.017186228
58	0x3d929978	0.07158178
59	0x3c54755c	0.012967434
60	0xbc9513f2	-0.018197987
61	0x3e2ca745	0.16860683
62	0x3d8b2ef2	0.067960635
63	0x3cb5a9c5	0.022175679
64	0xbc48ff5f	-0.012267916
65	0x3e0b2924	0.13589913
66	0xbc9223ea	-0.01783939
67	0x3dbcafbb	0.092132054
68	0xbd45da8f	-0.048304137
69	0x3d5cf8a9	0.05394808
70	0x3d4ce46d	0.05002253
71	0xbcf26a00	-0.02959156
72	0x3d9c8aa3	0.0764363
73	0xbda6d411	-0.08145917
74	0x3dbe0cfa	0.09279819
75	0x3dda40f1	0.10656918
76	0x3e1b8bbb	0.15190022
77	0xbda7863f	-0.08179902
78	0x3dcb048b	0.09912976
79	0x3cecea8a	0.02892043
80	0x3d96fabf	0.07372045
81	0xbe01f8df	-0.12692593
82	0x3d4a15bc	0.049337134
83	0xba4f0c8a	-0.0007898292
84	0x3da665ee	0.0812491
85	0x3c08e7dd	0.008356062
86	0xbcaa98b3	-0.020824766
87	0x3d932f50	0.071867585
88	0xbd8dcd24	-0.06923893
89	0xbe0825e8	-0.1329571
90	0xbcdbd8d5	-0.026836792
91	0x3d29b8e8	0.041436106
92	0x3e0a18e8	0.13486063
93	0xbd3dde31	-0.046354476
94	0x3d56ec89	0.05247167
95	0x3cfcda24	0.030865736
96	0xbd4fc78c	-0.050727412
97	0x3d8733b3	0.06601658
98	0x3c8d3c91	0.017240794
99	0xbce46d05	-0.027884016
100	0xbdfb194e	-0.12260686
101	0x3da509eb	0.08058532
102	0xbd1c5204	-0.038164154
103	0x3dca241b	0.09870168
104	0x3c73e012	0.0148849655
105	0xbc468c24	-0.012118373
106	0x3c568b3d	0.01309472
107	0xbe16de99	-0.14733352
108	0x3e0723c7	0.13197242
109	0x3da75b2b	0.08171686
110	0xbe16d7cd	-0.14730759
111	0x3e2383a6	0.15968189
112	0x3da5a3e7	0.080879025
113	0x3b0d0fe1	0.0021524357
114	0x3dae23a2	0.0850289
115	0xbd06d042	-0.032913454
116	0x3e220833	0.1582344
117	0x3d5c727c	0.05382012
118	0xbd183bed	-0.037166525
119	0x3db5c9c9	0.08876378
120	0x3d8229cf	0.063556306
121	0x3da44e62	0.08022763
122	0x3cfc97d6	0.03083412
123	0x3d7b483b	0.06134818
124	0xbdd163dd	-0.102241255
125	0x3c91ea32	0.017811868
126	0xbd00a358	-0.031405777
127	0xbbb5ba06	-0.0055458574
128	0x3c3770f7	0.0111963665
129	0xbb71f781	-0.0036921205
130	0xbd4fbc4e	-0.05071669
131	0xbcf0fec5	-0.029418359
132	0x3d9143f5	0.0709304
133	0xbd79a2f3	-0.060946416
134	0xbd2fd6be	-0.042929403
135	0x3e27957c	0.16365618
136	0xbdc256c4	-0.094892055
137	0x3da2eb40	0.079550266
138	0xbdc106d9	-0.09425134
139	0x3dd5fa25	0.10448102
140	0x3d3836dc	0.044974193
141	0xbe4ab061	-0.19793846
142	0x3a2f516e	0.0006687854
143	0x3d816df6	0.063198015
144	0x3d4b6b92	0.049663134
145	0x3d6e5fb9	0.058196757
146	0x3d5d819a	0.054078676
147	0x3d2b9009	0.04188541
148	0x3d5545b1	0.052068416
149	0xbbde2666	-0.00677948
150	0x3d118e98	0.03553638
151	0x3d8b9b91	0.06816781
152	0x3e6da02b	0.2320563
153	0xbc03d175	-0.008045544
154	0x3c49788d	0.012296808
155	0xbddaaa61	-0.106770284
156	0x3de05398	0.10953444
157	0xbd1b8963	-0.03797282
158	0x3dd6030b	0.10449799
159	0xbcfd8bcd	-0.030950451
160	0xbe601d5c	-0.218862
161	0x3c9d5196	0.019203942
162	0xbd0e31dc	-0.03471552
163	0xbda18a2d	-0.07887683
164	0x3c58f7ba	0.013242656
165	0x3cdd713e	0.027031537
166	0xbdbb484c	-0.09144649
167	0x3d6efb99	0.05834541
168	0x3e021b2c	0.12705678
169	0x3da58fa3	0.08084037
170	0xbcc0f90a	-0.023556251
171	0xbd578ff5	-0.052627522
172	0xbd8065b6	-0.062694
173	0xbd9b9121	-0.075960405
174	0x3cee4212	0.02908424
175	0x3d25e3b3	0.040500354
176	0x3d38ab9d	0.04508554
177	0x3dafedf8	0.08590311
178	0x3e282b3a	0.1642274
179	0xbd26f3d1	-0.040759865
180	0xbda47190	-0.08029473
181	0xbcb00d74	-0.02149079
182	0xbd527862	-0.051384337
183	0x3cbe3fb6	0.02322374
184	0x3de684d9	0.112558074
185	0x3d92a0d9	0.071595855
186	0x3d93b6b1	0.0721258
187	0x3d85a549	0.06525666
188	0x3d84c229	0.064823456
189	0xbe0e0eec	-0.1387288
190	0x3e2ac0b1	0.16675068
191	0x3d957400	0.07297516
192	0x3d30b584	0.043141857
193	0xba1ae2c2	-0.00059084233
194	0x3d876b5d	0.06612275
195	0xbd9704bd	-0.07373951
196	0xbd63278d	-0.05545764
197	0x3c958f4b	0.018256804
198	0x3ddb54aa	0.10709508
199	0x3d155ec1	0.036467317
200	0x3d183fa0	0.037170053
201	0xbda320be	-0.079652295
202	0x3db3081d	0.08741782
203	0x3dc3fea2	0.09570052
204	0x3d2fd24f	0.042925175
205	0x3e04119a	0.1289734
206	0xbda23afe	-0.07921408
207	0x3c81bebd	0.015838021
208	0x3d3e39f5	0.04644199
209	0xbd1d1037	-0.03834554
210	0x3d86843a	0.06568189
211	0xbd5ce363	-0.05392779
212	0x3e10c0c2	0.14136031
213	0xbc80f0a6	-0.01573975
214	0x3e01b9e7	0.12668572
215	0x3d9ac529	0.075571366
216	0xbcc43e5e	-0.02395552
217	0xbc9204fa	-0.017824639
218	0x3cb68920	0.022282183
219	0xbdfa1041	-0.122101314
220	0x3d9e4ef4	0.07729903
221	0x3d148e35	0.03626843
222	0x3dd9278c	0.10603246
223	0x3d7da147	0.061921384
224	0xbcf9bdf5	-0.030486086
225	0x3d8fd2dc	0.0702264
226	0x3c06032b	0.008179466
227	0x3da34606	0.0797234
228	0x3dc5b3d1	0.09653438
229	0xbce7482e	-0.02823266
230	0xbd749d31	-0.059720222
231	0x3dad4462	0.084603086
232	0xbcdc3796	-0.026881974
233	0xbd565c39	-0.052334044
234	0x3cce1150	0.02515474
235	0x3e0d0b8d	0.13773938
236	0xbbe3b8b7	-0.00694951
237	0x3cb6dc7f	0.022321938
238	0x3d688caa	0.056774773
239	0x3dc574a1	0.09641386
240	0xbd5d45e7	-0.054021742
241	0xbd5e5f12	-0.054289885
242	0x3d385e18	0.04501161
243	0xbd17d3aa	-0.037067093
244	0xbd8b09ce	-0.067889795
245	0x3d10fe07	0.03539851
246	0xbc9b9d20	-0.018995821
247	0x3bda62e0	0.006664619
248	0x3d7d79ec	0.061883852
249	0x3de40fc1	0.11135817
250	0x3c66e256	0.014092049
251	0xbddcdc0f	-0.1078416
252	0xbe26c3fe	-0.16285703
253	0x3d9a24d0	0.07526553
254	0xbd9a0c91	-0.07521928
255	0xbb8a792a	-0.0042258697

h2h.bias f4 [242]
0	0xbd123077	-0.03569075
1	0xbcc4b48c	-0.024011873
2	0x3d295e2e	0.041349582
3	0xbbf2e598	-0.0074126236
4	0xbc9bb85d	-0.01900881
5	0xbbf5d0ff	-0.007501721
6	0x3d8fdab0	0.07024133
7	0xbc29b61a	-0.010358358
8	0xbc125f01	-0.0089337835
9	0xbc8f43e9	-0.017488437
10	0x3cbac104	0.022797115
11	0x3cc25746	0.023723256
12	0x3d0dd813	0.034629893
13	0x3b0b95b8	0.0021298956
14	0x3bb64980	0.005562961
15	0x3d006328	0.031344563
16	0xbb27c562	-0.0025599827
17	0xbca9a208	-0.020707145
18	0xbbc02288	-0.0058634914
19	0xbc900f36	-0.017585378
20	0x3d5a6d37	0.05332681
21	0xbbb5a64f	-0.005543507
22	0x3c105d60	0.008811325
23	0xbc34c67b	-0.01103365
24	0x3c0dd40c	0.008656513
25	0x3c69dae2	0.014273377
26	0xbcdca310	-0.026933223
27	0x3b93020a	0.004486327
28	0xbc997523	-0.018732613
29	0x3da1a037	0.07891887
30	0x3c88dde5	0.01670737
31	0x3d4f3240	0.05058503
32	0xbc782371	-0.015145169
33	0xbc68751c	-0.014188077
34	0x3cc97567	0.024592115
35	0x3da10b9e	0.07863544
36	0x3c53a3eb	0.012917499
37	0x3c71c798	0.0147570595
38	0x3b941cf2	0.004520052
39	0x3b1baa16	0.0023752502
40	0x3b6571ff	0.0035010574
41	0xbd2e2969	-0.04251996
42	0xbbffb6e7	-0.007803786
43	0xbcf66586	-0.030077707
44	0x3d90f42d	0.07077823
45	0x3d50d992	0.05098874
46	0xbbaa69c1	-0.005200595
47	0x3c5198b6	0.012792757
48	0xbcb67cbe	-0.022276279
49	0xbcd216d5	-0.025645653
50	0xbcc7797d	-0.024349922
51	0x3c42d777	0.011892191
52	0xbb838335	-0.004013444
53	0xbc0dcf82	-0.008655431
54	0x3c64a88b	0.013956199
55	0x3c86a6d5	0.016436974
56	0x3c9b8e30	0.018988699
57	0xbd2d9d36	-0.042386256
58	0xbbfb7a2f	-0.0076744775
59	0x3c4d7e98	0.012542389
60	0xbcc4ebff	-0.024038313
61	0x3d114402	0.035465248
62	0x3d08e555	0.033421833
63	0x3c6c7089	0.014431127
64	0x3c0cce7b	0.008594151
65	0xbb00fdcb	-0.0019682522
66	0xba9c3715	-0.0011918271
67	0xbd247efe	-0.04016017
68	0x3d0dc84c	0.034614846
69	0xbbb8fc9e	-0.0056453487
70	0xbcbb996f	-0.022900311
71	0x3dc80e65	0.097683705
72	0x3c42ee37	0.011897615
73	0x3bf5e4f7	0.0075041014
74	0x3dd6d1cf	0.104892366
75	0x3b6709f7	0.0035253742
76	0xbb8d1f08	-0.0043066777
77	0xbc35b0f2	-0.01108955
78	0xbd6401ec	-0.055665895
79	0x3d553d31	0.05206031
80	0xbc06fff4	-0.008239735
81	0xbc4a4ad2	-0.01234694
82	0x3c2c491d	0.010515478
83	0xbc3edc6d	-0.011649233
84	0x3cdb79b8	0.026791438
85	0x3cbb12ae	0.022836056
86	0xbc74f379	-0.0149506265
87	0xbbfd4ac1	-0.0077298586
88	0x3bc70fa5	0.006074863
89	0xbd0e3e8b	-0.034727614
90	0xb7d2d3e6	-2.5132624e-05
91	0xbcefa64f	-0.029254107
92	0x3a795596	0.00095113495
93	0xbc329dfa	-0.010901922
94	0xbb770777	-0.0037693658
95	0x3d21c812	0.039497443
96	0x3d01f0b9	0.03172371
97	0x3ca240e0	0.019806325
98	0xbcbbe6db	-0.022937229
99	0x3d48541f	0.04890835
100	0x3d8aebaf	0.06783234
101	0xbc776338	-0.015099339
102	0xbceafd82	-0.028685335
103	0x3d35b20f	0.044359263
104	0xbd143a89	-0.036188636
105	0x3cfe61d8	0.031052515
106	0x3cb96dd8	0.022635385
107	0x3d2eba71	0.042658273
108	0xbbf62ecf	-0.0075129042
109	0x39cb0b7b	0.0003872773
110	0x3c9edaec	0.0193915
111	0xbc8ccba0	-0.01718694
112	0xbc8f9ad5	-0.017529884
113	0x3bbe098c	0.005799478
114	0x3c81d389	0.015847938
115	0x3c421fa7	0.011848367
116	0xbcbc3f4d	-0.022979403
117	0x3b4fbb85	0.0031697464
118	0xbc73a12c	-0.014869969
119	0x3b049b14	0.0020234035
120	0xbbfcc3dd	-0.0077137784
121	0xbbe9b861	-0.0071325754
122	0xbc0b868e	-0.008515967
123	0xbcce4686	-0.025180113
124	0xbc0ca3bc	-0.008583959
125	0x3da8e0fe	0.08246039
126	0xbd6f26e3	-0.058386695
127	0x3d788ae1	0.06067932
128	0x3ccaaad6	0.024739664
129	0xbc38d6b8	-0.011281662
130	0x3d022122	0.03176988
131	0x3e127508	0.14302456
132	0x3c5f1b70	0.013617381
133	0x3c3568a3	0.011072311
134	0xbba46500	-0.005016923
135	0xbc562666	-0.013070678
136	0x3d987702	0.07444574
137	0x3c0a1059	0.008426749
138	0x3d3929c8	0.04520586
139	0xbbada410	-0.005299099
140	0xbce907a3	-0.028446024
141	0x3e135e4a	0.14391437
142	0x3d6518d5	0.055931885
143	0xbc5b41c0	-0.013382375
144	0xbaf77c0f	-0.0018881577
145	0xbb65211b	-0.003496236
146	0x3ad937dd	0.0016572435
147	0x39c848a3	0.0003820109
148	0x3cade841	0.021228911
149	0x3bb8d3a7	0.0056404653
150	0x3c99bf19	0.01876788
151	0xbbd7c997	-0.0065853107
152	0x3cead310	0.028665096
153	0x3b7e2ff6	0.0038785911
154	0xbc35d05e	-0.011097042
155	0x3c0a5c49	0.008444854
156	0xbcd01284	-0.025399454
157	0x3c733f17	0.014846585
158	0x3aa31454	0.0012441971
159	0xbd1d7588	-0.038442165
160	0x3d2086fb	0.039191227
161	0xbd22567f	-0.03963327
162	0xbce189ad	-0.02753147
163	0xbba3e306	-0.0050014285
164	0xbc4140a6	-0.011795199
165	0x3d234c54	0.039867714
166	0xbd87911e	-0.06619476
167	0xbd61f3b7	-0.055164065
168	0x3a185e11	0.0005812357
169	0xbcbae7e2	-0.022815648
170	0xbc8d9ab0	-0.017285675
171	0xbbdaed09	-0.006681089
172	0xbb4c01f0	-0.0031129085
173	0x3becd304	0.0072273035
174	0x3aa0a8a5	0.0012257291
175	0x3c893074	0.016746737
176	0xbd3dca4d	-0.046335507
177	0xbb85148f	-0.0040612887
178	0x3c971da1	0.018446745
179	0xbc820a21	-0.01587397
180	0x3d6492f7	0.05580422
181	0xbba3979b	-0.004992438
182	0x3cbe2ebc	0.023215644
183	0xbc8cb70d	-0.01717713
184	0xbcd77167	-0.026299192
185	0xbc9ae850	-0.018909603
186	0xbcdddcfc	-0.027082913
187	0x3d0d0cbe	0.03443598
188	0x3cf2fe05	0.029662142
189	0x3d88c0cb	0.06677397
190	0xbba9b5f9	-0.0051791635
191	0x3cb31c03	0.021863943
192	0x3d6c46d4	0.057684734
193	0x3d3f6779	0.04672954
194	0x3c5f46da	0.013627732
195	0xbb11283d	-0.0022149228
196	0x3b329580	0.0027249753
197	0x3d9ce844	0.07661489
198	0xbc3d8fa3	-0.01156989
199	0xbb90f9fe	-0.0044243326
200	0x3cee1a05	0.029065141
201	0x3c2ee6c7	0.010675139
202	0xbbfb698a	-0.0076724933
203	0xbc8d11f8	-0.017220482
204	0x3d17bed8	0.037047237
205	0x3c0bc916	0.008531829
206	0x3bae8b9e	0.0053267023
207	0xbc247dd5	-0.010039766
208	0xbc672d0f	-0.014109864
209	0xbcda6f53	-0.026664412
210	0x3cf48172	0.02984688
211	0xbc802fd5	-0.015647808
212	0xbd944199	-0.07239074
213	0xbc86b525	-0.016443798
214	0xbd01c15b	-0.03167854
215	0x3a49f231	0.0007703631
216	0x3b1bc7c0	0.0023770183
217	0x3c1872a8	0.00930468
218	0x3d3b0a08	0.045663863
219	0x387b49aa	5.991167e-05
220	0x3a02ad7a	0.00049849565
221	0xbcac0285	-0.020997295
222	0xbb99f71b	-0.0046986467
223	0x3dc95030	0.09829748
224	0x3d08a77b	0.033362847
225	0x3d98f0fb	0.074678384
226	0x3de9fe03	0.11425402
227	0x3c76f261	0.015072436
228	0xbd8980a8	-0.06713992
229	0x3c312fd6	0.010814628
230	0x3ac9c9bd	0.0015395206
231	0xbc611ae2	-0.0137393195
232	0x3a9560c3	0.0011396635
233	0x3cd98735	0.02655373
234	0xbc52d5e1	-0.0128683755
235	0x3c71058a	0.014710793
236	0x3b5b5767	0.0033468844
237	0x3c987f54	0.018615402
238	0xbccca22d	-0.024979675
239	0x3ce12df3	0.02748773
240	0xbb27aa00	-0.0025583506
241	0x3c95e32b	0.018296799
