VLSI23_journal/intuitivechip_classifier_lcsvsnlcs/SNN_ep-150-isize-2-8-1-hsize-234-bsize-32-lr-0.001-tmax_ms-300.0-Ts-10.0-k-6-dsetPath-VMODE_allchannels_ALLCLASS_auto_nospkfilter_cleaned_12x16_9mvpp_250mvofs_onedac_itail_50nA_N5b/chip-classifier-2-best.pt (torch, 245111 bytes, 8 tensors)

thr_h_1 f4 [234]
00000000: 0000 803f 0000 803f 0000 803f 0000 803f
00000010: 0000 803f 0000 803f 0000 803f 0000 803f
00000020: 0000 803f 0000 803f 0000 803f 0000 803f
00000030: 0000 803f 0000 803f 0000 803f 0000 803f
00000040: 0000 803f 0000 803f 0000 803f 0000 803f
00000050: 0000 803f 0000 803f 0000 803f 0000 803f
00000060: 0000 803f 0000 803f 0000 803f 0000 803f
00000070: 0000 803f 0000 803f 0000 803f 0000 803f
00000080: 0000 803f 0000 803f 0000 803f 0000 803f
00000090: 0000 803f 0000 803f 0000 803f 0000 803f
000000a0: 0000 803f 0000 803f 0000 803f 0000 803f
000000b0: 0000 803f 0000 803f 0000 803f 0000 803f
000000c0: 0000 803f 0000 803f 0000 803f 0000 803f
000000d0: 0000 803f 0000 803f 0000 803f 0000 803f
000000e0: 0000 803f 0000 803f 0000 803f 0000 803f
000000f0: 0000 803f 0000 803f 0000 803f 0000 803f
00000100: 0000 803f 0000 803f 0000 803f 0000 803f
00000110: 0000 803f 0000 803f 0000 803f 0000 803f
00000120: 0000 803f 0000 803f 0000 803f 0000 803f
00000130: 0000 803f 0000 803f 0000 803f 0000 803f
00000140: 0000 803f 0000 803f 0000 803f 0000 803f
00000150: 0000 803f 0000 803f 0000 803f 0000 803f
00000160: 0000 803f 0000 803f 0000 803f 0000 803f
00000170: 0000 803f 0000 803f 0000 803f 0000 803f
00000180: 0000 803f 0000 803f 0000 803f 0000 803f
00000190: 0000 803f 0000 803f 0000 803f 0000 803f
000001a0: 0000 803f 0000 803f 0000 803f 0000 803f
000001b0: 0000 803f 0000 803f 0000 803f 0000 803f
000001c0: 0000 803f 0000 803f 0000 803f 0000 803f
000001d0: 0000 803f 0000 803f 0000 803f 0000 803f
000001e0: 0000 803f 0000 803f 0000 803f 0000 803f
000001f0: 0000 803f 0000 803f 0000 803f 0000 803f
00000200: 0000 803f 0000 803f 0000 803f 0000 803f
00000210: 0000 803f 0000 803f 0000 803f 0000 803f
00000220: 0000 803f 0000 803f 0000 803f 0000 803f
00000230: 0000 803f 0000 803f 0000 803f 0000 803f
00000240: 0000 803f 0000 803f 0000 803f 0000 803f
00000250: 0000 803f 0000 803f 0000 803f 0000 803f
00000260: 0000 803f 0000 803f 0000 803f 0000 803f
00000270: 0000 803f 0000 803f 0000 803f 0000 803f
00000280: 0000 803f 0000 803f 0000 803f 0000 803f
00000290: 0000 803f 0000 803f 0000 803f 0000 803f
000002a0: 0000 803f 0000 803f 0000 803f 0000 803f
000002b0: 0000 803f 0000 803f 0000 803f 0000 803f
000002c0: 0000 803f 0000 803f 0000 803f 0000 803f
000002d0: 0000 803f 0000 803f 0000 803f 0000 803f
000002e0: 0000 803f 0000 803f 0000 803f 0000 803f
000002f0: 0000 803f 0000 803f 0000 803f 0000 803f
00000300: 0000 803f 0000 803f 0000 803f 0000 803f
00000310: 0000 803f 0000 803f 0000 803f 0000 803f
00000320: 0000 803f 0000 803f 0000 803f 0000 803f
00000330: 0000 803f 0000 803f 0000 803f 0000 803f
00000340: 0000 803f 0000 803f 0000 803f 0000 803f
00000350: 0000 803f 0000 803f 0000 803f 0000 803f
00000360: 0000 803f 0000 803f 0000 803f 0000 803f
00000370: 0000 803f 0000 803f 0000 803f 0000 803f
00000380: 0000 803f 0000 803f 0000 803f 0000 803f
00000390: 0000 803f 0000 803f 0000 803f 0000 803f
000003a0: 0000 803f 0000 803f
1.0 1.0 1.0 1.0 1.0 1.0 1.0 1.0
1.0 1.0 1.0 1.0 1.0 1.0 1.0 1.0
1.0 1.0 1.0 1.0 1.0 1.0 1.0 1.0
1.0 1.0 1.0 1.0 1.0 1.0 1.0 1.0
1.0 1.0 1.0 1.0 1.0 1.0 1.0 1.0
1.0 1.0 1.0 1.0 1.0 1.0 1.0 1.0
1.0 1.0 1.0 1.0 1.0 1.0 1.0 1.0
1.0 1.0 1.0 1.0 1.0 1.0 1.0 1.0
1.0 1.0 1.0 1.0 1.0 1.0 1.0 1.0
1.0 1.0 1.0 1.0 1.0 1.0 1.0 1.0
1.0 1.0 1.0 1.0 1.0 1.0 1.0 1.0
1.0 1.0 1.0 1.0 1.0 1.0 1.0 1.0
1.0 1.0 1.0 1.0 1.0 1.0 1.0 1.0
1.0 1.0 1.0 1.0 1.0 1.0 1.0 1.0
1.0 1.0 1.0 1.0 1.0 1.0 1.0 1.0
1.0 1.0 1.0 1.0 1.0 1.0 1.0 1.0
1.0 1.0 1.0 1.0 1.0 1.0 1.0 1.0
1.0 1.0 1.0 1.0 1.0 1.0 1.0 1.0
1.0 1.0 1.0 1.0 1.0 1.0 1.0 1.0
1.0 1.0 1.0 1.0 1.0 1.0 1.0 1.0
1.0 1.0 1.0 1.0 1.0 1.0 1.0 1.0
1.0 1.0 1.0 1.0 1.0 1.0 1.0 1.0
1.0 1.0 1.0 1.0 1.0 1.0 1.0 1.0
1.0 1.0 1.0 1.0 1.0 1.0 1.0 1.0
1.0 1.0 1.0 1.0 1.0 1.0 1.0 1.0
1.0 1.0 1.0 1.0 1.0 1.0 1.0 1.0
1.0 1.0 1.0 1.0 1.0 1.0 1.0 1.0
1.0 1.0 1.0 1.0 1.0 1.0 1.0 1.0
1.0 1.0 1.0 1.0 1.0 1.0 1.0 1.0
1.0 1.0

thr_o f4 [6]
00000000: 0000 803f 0000 803f 0000 803f 0000 803f
00000010: 0000 803f 0000 803f
1.0 1.0 1.0 1.0 1.0 1.0

i2h.weight f4 [234, 16]
00000000: 8da3 823c af55 133e 68ab b53d 7f1b fb3d
00000010: 856a 843c 1828 393e 55ae 4dbe 927f 16be
00000020: 5ded 243e a647 ec3d c0d8 efbd 1c5d f93c
00000030: 61de 243e 99a7 87bd 54d9 71be 7266 2fbe
00000040: 8843 1ebe d1ed 97bc af03 023d ec99 143e
00000050: 71e0 a43d ec1f 1a3d 3098 e1bd 0e3b 0abc
00000060: 6b08 96bd b333 eebc 56d0 ba3d 9578 0f3e
00000070: 49b4 e6bd c6db cbbd 5587 193e d1ec 9a3d
00000080: 5811 503b 7123 703d f0c9 a8bd 868d 853c
00000090: e941 993d a2eb a73d 56c9 6bbc e39d eebd
000000a0: 88da 7c3c 2150 0e3e dd29 45bd 6d70 95bd
000000b0: dbc3 f43d 51f5 ba3d 9c65 8b3c 9883 c4bd
000000c0: 7655 1dbe eee5 c1bd 598d 9b3d 914b 0bbe
000000d0: 3c5a ab3d 0cfc 113e c6bd e73d 8906 e03d
000000e0: bee6 e33d c10c 363d 2352 e4bc 27b4 a93c
000000f0: 1b28 cd3d 447d 9abd 5cef bc3d 94a8 b23c
00000100: 4ee2 10be 76ff 1c3e 2b45 3c3d 6b5e fdbc
00000110: 003c a83c 08ab 8bbc 2835 10bd 1fca c5bb
00000120: 56ab 823d cc51 053d c613 153e 46d8 ab3d
00000130: 89c6 233e 88a9 9cbc ab13 583d b0d5 dcbd
00000140: fed1 ef3d a7de 063e 3076 703d 6fc1 8c3d
00000150: 9328 d1bc be4c db3d 276b c03d c39e ed3d
00000160: 47ed e4bd 8b8e a0bd c115 a73d 543a 893d
00000170: dbb5 ad3d d87c 8d3d cd45 1fbd 83cf 9ebb
00000180: ede3 883d ffe9 3fbd 643f e1bd 5045 093e
00000190: e3b0 b4bd 9db5 edbd 10b9 16be 168c e43c
000001a0: da54 9e3d 43b0 adbd 7411 a93d a295 c73c
000001b0: 786b 943b 2012 053e a996 923d e9fa 0f3e
000001c0: fa59 bbbd d42e 143e bda2 073e 4b5d cebd
000001d0: 6569 0a3e 143f d83d 46ae f7bc ae8b 55bd
000001e0: ba76 a73d 6f37 183e 9c7c 84bc bbff d0bd
000001f0: 9615 363c 02c0 1d3e 9cb8 b8bc 3c65 a8bd
00000200: 11e8 70bd 4619 eb3c b744 87bd 78a7 e23d
00000210: 96ce e3bd 19dc 1fbd 9743 e9bc d42f 063d
00000220: d612 8abd 0347 4fbd ef85 823c c01f 2fbd
00000230: 4178 04be 7128 dabd a530 123e 89f1 e6bd
00000240: cfd9 4b3d 750b 1c3e a582 03bd 57cc a33d
00000250: b5c6 e03b 6955 f63d 51b4 bf3d 30e3 54bd
00000260: ea7b 9dbd 5e0e c5bd f70b ca3d bd7f bcbb
00000270: 5557 f6bb 56af 3e39 f7b5 e23a efc9 e33c
00000280: 1d14 f73d 7c07 233d 83c4 003e 8950 e13d
00000290: a9d3 053e 7d88 31bd d2c5 823d 2296 643d
000002a0: 89e0 acbd e9ff b23d 56b5 9bbd 5ad4 d1bd
000002b0: af34 e03d c375 073e 404f 02be 4256 ac3d
000002c0: 51a3 ea3c 3c4b 01be f7fe 97bd 976b 9abd
000002d0: 6f6e 9dbd e032 4ebd dfd4 f43d 7ca5 113e
000002e0: 2a78 0b3e 6651 553d 3c97 e73d a991 18be
000002f0: 4a58 8b3b b718 c93d 939b ed3d 4237 a73c
00000300: 55a0 153e d24d e43d c895 e9bb e9b9 023d
00000310: edb4 0f3e 5b84 0f3d af46 133d 14c3 323d
00000320: e451 c6bd 1be7 0b3e 7447 c03a 00f7 b9bc
00000330: baff b53c fea5 0c3e 973f d6bd a64e ba3d
00000340: 451f 303d e942 013e fe30 cf3d 3763 9f3d
00000350: 7bb8 edbd 466a 10bc 7909 08bc 72c9 5fbd
00000360: b5c0 60bd a246 5a3d 10f7 c9bd be0d e5bc
00000370: ea48 1dbe 463c 4f3d 0c8b 933d a5af bdbc
00000380: 49ac e13c 9f74 ee3d e490 1c3e 7e3e a7bc
00000390: 0b6e 44bd cc79 ba3d 5e6d 023d 5214 96bc
000003a0: 959e a5bd f21f 053e 512e e9bd 159b 1f3e
000003b0: d1c5 f6bd ae4f 033e 57fd 813d b741 d83d
000003c0: cd5d 1a3e 5833 ffba 0a99 aabd cb1a 91bd
000003d0: bcbb ebbb ac36 e2bd ff5e cc3d f800 203e
000003e0: 497a b3bd 48db d23d d039 873b 9c53 753d
000003f0: 6892 77bd 91b6 1c3e 1e98 91bd 5f4b 963d
0.015947128 0.14388154 0.08870584 0.12261104 0.016164074 0.18081701 -0.20086034 -0.14697102
0.16106172 0.11537103 -0.11711264 0.030439906 0.16100456 -0.066237636 -0.2361806 -0.17128924
-0.15455449 -0.018546017 0.031741794 0.14511842 0.08050621 0.0376281 -0.110153556 -0.008436931
-0.07325824 -0.029077386 0.09121768 0.14010842 -0.112648554 -0.09954028 0.14993031 0.075647004
0.003174862 0.05862755 -0.082416415 0.016302835 0.074832745 0.0819924 -0.014391264 -0.11651208
0.015432961 0.13897754 -0.048135627 -0.07296834 0.11951419 0.09128822 0.017016225 -0.09595412
-0.15364632 -0.09467684 0.07595319 -0.13603045 0.0836682 0.14256305 0.11315493 0.109387465
0.11127995 0.044445757 -0.027871197 0.020715786 0.10017415 -0.07543424 0.09225342 0.0218089
-0.14148828 0.15331826 0.0459644 -0.030928811 0.020536423 -0.017049327 -0.035206944 -0.0060360576
0.06380336 0.03254871 0.14558324 0.0839086 0.15993704 -0.019123808 0.05275313 -0.10782945
0.11709975 0.13170873 0.058706462 0.06872832 -0.025532043 0.10707997 0.09395438 0.11602547
-0.111780696 -0.07839688 0.08158446 0.06700578 0.08481952 0.06908578 -0.038884927 -0.0048465147
0.066840984 -0.046854015 -0.10998419 0.13405347 -0.08822801 -0.116069056 -0.14719033 0.02789883
0.07731028 -0.08480885 0.08255282 0.024363343 0.004529413 0.12995195 0.071576424 0.14060558
-0.09148021 0.14470989 0.13245673 -0.10076388 0.13516767 0.10558906 -0.030234467 -0.052135162
0.08176942 0.14864896 -0.0161727 -0.10205027 0.011113545 0.15405276 -0.022548966 -0.08222434
-0.058815066 0.028698575 -0.06604903 0.110670984 -0.111233875 -0.03902826 -0.028474612 0.032760456
-0.06741874 -0.05060483 0.015933005 -0.04275489 -0.12936498 -0.10652245 0.14276369 -0.11276538
0.049768265 0.15238746 -0.032107014 0.07997959 0.006859625 0.120280094 0.093605645 -0.051974475
-0.0768965 -0.09621881 0.09865563 -0.0057525323 -0.007517735 0.0001818513 0.0017296661 0.02780625
0.12064383 0.03980206 0.12574963 0.11001689 0.13069023 -0.043343056 0.063853875 0.05580724
-0.08441264 0.08740217 -0.076029465 -0.10245581 0.109475486 0.13228516 -0.12725544 0.0841489
0.028642328 -0.12626356 -0.074216776 -0.075400524 -0.07687079 -0.050341487 0.119546644 0.14223284
0.13620058 0.05207958 0.113081425 -0.14899315 0.0042524682 0.09819167 0.11601939 0.020412091
0.14611943 0.111476555 -0.007128451 0.03191558 0.14033861 0.035038333 0.03595608 0.043643072
-0.09683588 0.13662378 0.0014669732 -0.022700787 0.022216666 0.13735196 -0.104613476 0.09097032
0.04299857 0.1262318 0.101167664 0.077825956 -0.116074525 -0.0088144 -0.00830304 -0.054635473
-0.05487128 0.053290017 -0.098615766 -0.027960654 -0.15359846 0.05059459 0.072042555 -0.023155043
0.027547972 0.116433375 0.15289646 -0.02041554 -0.047956508 0.09105262 0.031842582 -0.018320236
-0.08086888 0.13000467 -0.11385787 0.15586503 -0.12049449 0.12823364 0.06347149 0.10559409
0.15074845 -0.0019470258 -0.08329971 -0.070851885 -0.0071940105 -0.11045584 0.099790566 0.1562537
-0.087635584 0.10295731 0.004126765 0.05989419 -0.06044236 0.15304019 -0.07109092 0.07338595

i2h.bias f4 [234]
00000000: 5ffd 3f3d f61f f8bb f3a4 a5bb 956a 063d
00000010: a1ac 053c 955f 1bbc a907 67bc 963c 093c
00000020: 70fe b9bb 2226 99bc 8338 59bc 1b34 673c
00000030: 982f f8ba de14 ab3b 49f0 4c39 444e 3fbc
00000040: decd ecbc fa98 16bc be60 f2ba 09c1 9b3b
00000050: 4497 ff3b b19b 563b 6413 0f3b 014c 0c3c
00000060: 1499 b6bb 0801 703c aab1 273d de27 50bc
00000070: 5ea5 5fbc 9695 473b 73b2 3aba b46e de3d
00000080: 3e19 443b 138b 2e3d d9dc 643c 15a9 a93c
00000090: 4551 ddbb dbbc 8d3d 953b 2c3e 6d0b 923a
000000a0: 3055 38bc 4df7 2d3c 9a2d 40bc 2007 393c
000000b0: 31e7 f33b 6826 493c be41 293d bad2 b73b
000000c0: 292a f63d c02f 38bb 8ff7 9bbc 796c ae3b
000000d0: 550f 6bbc ec5d 173d fdfb 0e3e e21c e9bb
000000e0: 320d 67bb 01b5 cc3b 8397 0dbc a9aa d33b
000000f0: b4ff 27bb 8c8e 0c3e 3292 bc3c 9000 6cba
00000100: 086a 8bbb b108 8d3b ce19 973a 5ef8 e43c
00000110: 7b4b 1bbb 24f2 b23c 24b2 023b 7453 67bc
00000120: 4225 723b c009 133d f8e5 c13a 8fda 313d
00000130: f971 963d 1e48 b33b 1447 da3c 2404 513c
00000140: d4c2 723d 7ecc cf3c c618 30bb a762 25bc
00000150: 7048 8cbb 1af9 993a 57d0 df3c 8473 82bc
00000160: 3383 593b b802 2abc 4f4f 273d e0c7 24bb
00000170: 3ebb f93c 04b6 08bc b98f eb3c 9189 883d
00000180: 8fd3 bebc f143 edbb a6b0 123c 9bad 8eb9
00000190: 3d54 98bb f8f9 88bc 18a8 cabb 0570 31bc
000001a0: ced4 0f3c adb1 ec3b 3fd0 a83c a79a 8fbc
000001b0: 201a af3b bc16 813a d4fd 4ebb 85ab 2dbc
000001c0: 3437 27bc 5710 b4bb 62f8 19bc d90a 97bb
000001d0: e287 303c 8c9c 41bd ddfe 1c3d 4858 db3d
000001e0: c0c2 293d 926e f1bb f02c 48bc 143c 82bb
000001f0: 38b6 563c 97dd 4d3c 8efd b63c b2f6 343d
00000200: 2ca5 0c3c e1ec ccbb 723a fbbb 926d d3bb
00000210: 78e5 cb3d a2c5 b93d f7ef a4bc 02df fabb
00000220: 359d de3b 10a0 4dbb c8f1 9ebb 0250 9fbc
00000230: 8fbd cbbc 7bb2 05bc c083 8b3b 7e66 9dbb
00000240: b263 4b3c e476 80bc c38e 1abb 1621 043e
00000250: 2525 8f3b 58a4 003d b7b2 163c ce24 1e3c
00000260: 7805 823c ae58 be3b 72e8 ca3b 5fa1 8a3b
00000270: 243c 6b3b a5d5 28bd 4f12 b43c 4731 2dbc
00000280: b192 423c 4e82 d63b b767 093d 20cb 963b
00000290: 03f2 c83c 3dc8 cfbc 9b87 90bb 98a8 a53d
000002a0: cdc4 ffbb c15f 91bb 5486 a63c 93bf e2bb
000002b0: 029e b93b f066 7d3c b3c9 193c 5a94 613b
000002c0: c3a6 cbbb ebe1 133c 5ced 7bbc 88f4 cb3b
000002d0: 7b7f 97bc d663 853b a5d3 1d3c 33fe 04bc
000002e0: 2607 32bc b004 db3c 4cb2 483d ab18 d1bb
000002f0: 82db 393c 16d1 be3b 35af 4fbc 478f 1cbc
00000300: b95d 813c 27c5 10bb 38e9 d83d 5627 47bb
00000310: 0f84 dabb bb77 e43b 7c31 06bc 3c19 cbbb
00000320: e614 cd3b 7b70 ba3c 7be2 47bc 8c7b 4b3c
00000330: cac1 c1ba a7df 0fbc c222 4f3c 738a 893c
00000340: cd1e cfbb 1ed5 113c 72db 4bbc 13ba fd3b
00000350: dc7f 98bb 8627 dabb 965b 7fbb c7bf 563c
00000360: 57a1 18bc 942b 06bb 4c97 29bc ffe9 77bc
00000370: b0e5 cbbb 8a6d 05bc 5d1b 6b3d f0bb 7b3c
00000380: 824b c4b8 3f6a 41bd 0904 43bc e5ae 2a3d
00000390: 4503 153c 1459 4a3c 4627 753b ee57 f83b
000003a0: aad7 f2ba 1054 683b
0.046872493 -0.0075721694 -0.005055064 0.03281649 0.008158834 -0.009483238 -0.014100947 0.008376261
-0.0056760833 -0.018694941 -0.013258102 0.014111544 -0.0018935082 0.0052209934 0.00019544469 -0.011676375
-0.028906759 -0.009191746 -0.0018491966 0.004753236 0.0078000147 0.0032746608 0.0021831626 0.008563043
-0.0055724476 0.014648683 0.040940918 -0.012704818 -0.013650266 0.003045415 -0.0007121928 0.10860959
0.0029922272 0.0426131 0.01396867 0.020710507 -0.006754073 0.06920787 0.16819604 0.0011142321
-0.011250779 0.010618043 -0.011729622 0.011293203 0.0074433316 0.012277223 0.041322462 0.0056098374
0.1201976 -0.0028104633 -0.019038944 0.0053229895 -0.014346917 0.036954805 0.13963313 -0.007114039
-0.0035255668 0.0062471633 -0.00864208 0.0064595533 -0.0025634589 0.13726252 0.02301893 -0.00090027694
-0.0042545833 0.0043040146 0.0011528076 0.027950462 -0.0023696113 0.021843977 0.0019942606 -0.014119018
0.0036948477 0.03589797 0.0014793267 0.043421324 0.07345957 0.0054712435 0.02664522 0.012757335
0.059267834 0.025366064 -0.0026870235 -0.010094321 -0.004281096 0.0011747212 0.027321024 -0.015924223
0.0033189773 -0.010376625 0.04084712 -0.002514355 0.030484792 -0.008344177 0.028755056 0.06666864
-0.023294238 -0.0072407653 0.008953249 -0.00027213697 -0.004648714 -0.016720757 -0.006184589 -0.01082993
0.008778764 0.007223329 0.020607112 -0.017529799 0.0053436905 0.0009848694 -0.0031584399 -0.0105999755
-0.010206033 -0.005495112 -0.009397598 -0.0046094474 0.0107745845 -0.047268435 0.038328994 0.10710198
0.041445494 -0.0073679173 -0.012217745 -0.003974447 0.013104968 0.012565038 0.022337701 0.04418058
0.008584302 -0.006253824 -0.0076668793 -0.006452271 0.09955877 0.090708986 -0.020133955 -0.007655979
0.006793643 -0.0031375922 -0.0048506 -0.01944733 -0.024870662 -0.008160229 0.004257649 -0.004803478
0.012413906 -0.015681691 -0.0023583628 0.12903246 0.0043684416 0.03140673 0.009197882 0.00965233
0.015871748 0.0058089113 0.0061922604 0.0042306627 0.0035894 -0.041219372 0.021981386 -0.010570831
0.011875794 0.0065462952 0.033546176 0.004601851 0.024529463 -0.025364036 -0.0044106967 0.08088797
-0.007805443 -0.0044364636 0.020327725 -0.00691981 0.005664588 0.015466437 0.009386468 0.00344207
-0.006214948 0.009026031 -0.015376415 0.0062242188 -0.018493405 0.0040707393 0.0096329795 -0.008117246
-0.010865962 0.026735634 0.048998162 -0.0063811145 0.011343839 0.005823265 -0.01267605 -0.009555644
0.01579176 -0.0022090168 0.10591358 -0.0030388436 -0.0066685746 0.006972281 -0.008190509 -0.0061980765
0.006258595 0.022758713 -0.012199993 0.012419593 -0.0014782485 -0.00878135 0.012642564 0.01678965
-0.0063208104 0.008900909 -0.012442457 0.007743129 -0.004653914 -0.0066575436 -0.0038964502 0.013107247
-0.00931581 -0.0020472752 -0.010351013 -0.015131473 -0.0062224492 -0.008143792 0.057399143 0.015364632
-9.360073e-05 -0.047220465 -0.0119028175 0.0416707 0.009095018 0.012350339 0.0037407442 0.0075788414
-0.0018527408 0.0035450496

h2o.weight f4 [6, 234]
00000000: 76d2 9f3d 5429 2cbd 47a6 763d baa6 493d
00000010: 157d cbbd 54c8 81bd fdab e43d 0d18 bfbd
00000020: 0f00 1a3e f8c0 47bd 1f92 42bd 75ae 8d3d
00000030: f0b1 f13d 5f4e 0cbe df59 923a 9c69 0cbd
00000040: eb3e 3c3d 1768 c5bc 101f b1bd a5cd d1bd
00000050: 0380 0d3d d093 b43d 7e81 6dbd 328f 5abd
00000060: 6674 68bd 7a19 df3d 9f23 1abe e6b7 dd3d
00000070: e6f1 a2bb 3017 0ebe aa25 15be ba8b 7f3d
00000080: 8f86 0e3e 32c0 113d 955c e3bd 67f2 21bd
00000090: 1040 d4bd 6d03 6d3e 837f 8b3d 5be0 86bc
000000a0: d211 2a3d bf55 d33c 4b20 123e 3e73 06be
000000b0: 6ae5 0fbd 100a 09be 0867 54bd 243b e2bd
000000c0: c265 74be b1ee 09be ea1f 9bbc 9d1e 36bd
000000d0: 766b 173e c852 2dbe 0a09 2bbe 6991 1a3d
000000e0: 56f9 e83d dcb3 8e3d 9f13 d2bd bfc0 bd3d
000000f0: db38 7fbc ed8e 3a3e ae8d c23d 0ff0 00be
00000100: 5153 fabb 593d d9bd 1792 00bd f9c8 87bd
00000110: 562a 93bc dbea d0bd 078f 0bbe cbed 1fbe
00000120: 25c1 c2bd 185c d0bc 600d f4bc 77b1 cb3c
00000130: ceb9 4cbe fbdc 14bd 5bc9 2abe 4af2 23bd
00000140: d641 82bd 64b2 21be 9967 14be 4855 fa3d
00000150: 8dd2 053e d848 bd3b 17d6 1cbd 2679 77bd
00000160: e4cf 983a 3d2a 48bd 9717 0cbe 64a4 bfbd
00000170: 47ce adbd 3fba dd3c fde6 49bd e053 93bd
00000180: b953 173e 5860 653d dd54 e33d ace2 e33d
00000190: acdd 0e3e 6c7c 70bc 968d 31bc cfb2 64bc
000001a0: b399 09be 2da0 333b 5213 193e 7a31 9f3d
000001b0: 7821 bbbd 1649 69bc a8d1 0d3e b828 913c
000001c0: aa94 18be 4186 6d3c 6df3 883d fbec 0ebe
000001d0: cb2b 203e 2a33 e43d b03c 573d ac5f cbbb
000001e0: 5599 3cbe b238 b33c 717c 49bd b01c c23d
000001f0: a9ba c9bc 38ab d73d 3ca6 00be d656 963c
00000200: b5d2 0bbe cd89 b33d 0370 49bd a9c7 f3bd
00000210: 4a19 2f3e 156c 36be 43af fa3d cd18 47bd
00000220: 32c9 cabd 496a b53d e4fc 18be 470e 633d
00000230: 63f0 b23d 93d2 da3d 7b2c e3bd f9b9 e3bd
00000240: f7a7 fcbd a134 29bd 319d d33d f8ef aebd
00000250: 03b4 42bd 948e 823d a182 14bd 8b24 05be
00000260: 6804 9cbd 6b19 30bc 8750 4ebd 8356 ccbd
00000270: 25c8 9ebd c92e dabd ab27 c0bd 5b52 c63d
00000280: ac22 69bd 2ca9 2abe ab5c ac3d f894 0dbd
00000290: b503 043e bd12 163e 6e7e 183e ed09 5bbd
000002a0: 7d98 043e 528f c8bd 68b3 03be c3cb d53b
000002b0: 7977 ecbd 6b9a 1b3c b8a5 17be 5ed9 13be
000002c0: b925 a5bd d2cd f4bc 47fa 783d b7e5 c0bd
000002d0: e7c3 54bd 60f6 ba3d 2270 b3bd 79b3 e13d
000002e0: e047 c73d c731 713d 0412 d63b 5abe 5fbd
000002f0: 134d 5c3d 894d 18be dc95 823d eb87 bc3d
00000300: c624 edbc d163 eebd b345 b5bc 1ea4 163e
00000310: e313 e23d 8553 5abd 77af 193e df3e ce3d
00000320: b973 0bbe bf5c 2e3e 0d68 423d 9d2c 3cbd
00000330: c806 033e ed47 12be 587e 05bd ab00 bfbd
00000340: a8e7 c4bd 2884 803d c89c 9b3d 6b71 10bc
00000350: e7a4 293d e4c9 1bbc 7a1d 77bd dd28 b6bc
00000360: 9f52 25bd 9e12 9a3d ddf5 d23d f321 0cbe
00000370: 22de 263d 6b97 2d3d 99d0 2cbe 3831 07be
00000380: d554 343d e906 ddbd 4f3b fe3d 4574 16be
00000390: 1dee ccbc d2aa 0cbe ac62 6fbd 92dd 41bd
000003a0: 16b8 d53d a030 43bd df1f a9bd a65e bfbd
000003b0: 91d4 34bd 4104 c33c 52ca 01be 7cad 07be
000003c0: 7e57 9bbd 736a 0e3c 1b1b b33d b7dc 09be
000003d0: 1ab2 a2bd 11de c7bd fc41 143d 1466 26be
000003e0: a8b4 743d 23d1 2abe fb5f c2bd 0c7f f53b
000003f0: 2598 25bb b397 a23d 7cfb a3bd 179c 383d
0.07803814 -0.0420316 0.06021717 0.04923127 -0.09935967 -0.06337038 0.11165617 -0.09330759
0.15039085 -0.048768014 -0.047502633 0.06918041 0.11801517 -0.13701771 0.00111657 -0.034280404
0.04595844 -0.024097485 -0.08648503 -0.10244302 0.03454591 0.088172555 -0.05798482 -0.053359218
-0.05675163 0.10893531 -0.15052651 0.108260915 -0.004972684 -0.13876033 -0.14565149 0.062389113
0.13918518 0.035583682 -0.11101643 -0.039537814 -0.103637815 0.23145838 0.0681143 -0.016464403
0.0415209 0.025797723 0.14270131 -0.13129899 -0.035130896 -0.13382745 -0.05185607 -0.110464364
-0.23866943 -0.1346996 -0.018936116 -0.04446279 0.14787087 -0.1692611 -0.16702667 0.03773633
0.11375682 0.06967899 -0.10257649 0.09265279 -0.01557752 0.18218584 0.094996795 -0.12591575
-0.0076393266 -0.10607404 -0.031389322 -0.06630129 -0.017964523 -0.10201045 -0.1362878 -0.15618055
-0.09509496 -0.025434539 -0.029791534 0.024864895 -0.19992754 -0.036343556 -0.16678374 -0.040025987
-0.063602135 -0.15790707 -0.14492644 0.12223297 0.130686 0.005776506 -0.03829011 -0.06041827
0.0011658636 -0.048868407 -0.13680874 -0.09357527 -0.0848661 0.027066348 -0.049292553 -0.07193732
0.14778031 0.056000084 0.11100171 0.111272186 0.13951749 -0.014678102 -0.010836979 -0.013958647
-0.13437538 0.0027408705 0.14948776 0.07773109 -0.09137243 -0.014238616 0.13849509 0.017719612
-0.14900461 0.014497341 0.06687055 -0.13957588 0.15641706 0.11142571 0.05254811 -0.0062064733
-0.18417867 0.02187762 -0.049190942 0.09478128 -0.02462514 0.10530704 -0.12563413 0.018351953
-0.13654597 0.08766518 -0.04917909 -0.119033165 0.17099491 -0.17814668 0.1224046 -0.048607636
-0.09901656 0.08858163 -0.1494022 0.055433538 0.087372564 0.10684695 -0.11092468 -0.11119456
-0.12336724 -0.041309956 0.10332716 -0.08541864 -0.047534954 0.06374851 -0.03625739 -0.13002221
-0.07618028 -0.010748248 -0.050369766 -0.09977438 -0.07753018 -0.10653455 -0.09382566 0.09683677
-0.05691783 -0.16666096 0.084161125 -0.034565896 0.12892039 0.14655586 0.14891979 -0.053476263
0.12948795 -0.09792961 -0.12861407 0.0065245344 -0.11546225 0.009497265 -0.1480931 -0.14438388
-0.08063836 -0.029883299 0.060785558 -0.09418815 -0.05194464 0.091290236 -0.08761622 0.1102056
0.09730506 0.058885362 0.0065329093 -0.054624893 0.05378444 -0.14873327 0.0637624 0.09205612
-0.028948199 -0.11640132 -0.022127962 0.14711043 0.11038949 -0.053302307 0.15008341 0.100705855
-0.13618363 0.17027567 0.04746251 -0.045940984 0.12795556 -0.1428525 -0.032591194 -0.09326299
-0.096144974 0.06275207 0.07598263 -0.008816103 0.04141703 -0.009508584 -0.060330845 -0.022236282
-0.040361997 0.07523082 0.10300801 -0.13684826 0.040739186 0.04238073 -0.16876449 -0.13202369
0.044026215 -0.10792334 0.12413656 -0.14692791 -0.025015885 -0.13737038 -0.05844371 -0.047330447
0.10435502 -0.047653794 -0.08258032 -0.09344225 -0.04414803 0.02380574 -0.12674835 -0.13249773
-0.07585047 0.008692372 0.08745404 -0.13463102 -0.079441264 -0.09759153 0.03619574 -0.16249877
0.0597426 -0.16681342 -0.09490963 0.007491952 -0.0025267687 0.079390906 -0.08006951 0.045070734

h2o.bias f4 [6]
00000000: 766d cebb fd10 c73c ec2a 3e3c 26dd eebb
00000010: 7ca6 4338 ae3a 393c
-0.00629967 0.024300093 0.011606913 -0.0072895465 4.6646674e-05 0.011305494

h2h.weight f4 [234, 234]
00000000: 24e7 09bd 80b9 c23c 5eee 2abd 35ed 9bbc
00000010: 0594 353c 3cdd 073c d2a2 833d be4e 073c
00000020: e462 c7bc 5e91 a73d 9491 cf3d 4cb7 ecba
00000030: f7da 103e 0e78 033e d0ca 7b3d 95ca d5bd
00000040: 8ca5 91bd 90f6 f9bc bdc5 3dbd be3d d2bd
00000050: d609 4b3e 2858 67bc 040e 1a3e e727 83bd
00000060: e16d e3bc 6a62 d5bc 3260 b33b 627d d13d
00000070: 03aa 983d bc42 c83d 5af4 6e3c 5f5f 0abd
00000080: b876 3ebe e1c4 813d 01f5 603e 9d7c 9f3d
00000090: 752d 223e b7f0 0abe cec2 983b 1a9b a43d
000000a0: 80ea 9a3c 5f50 4d3d 017b c33d 79d8 66bc
000000b0: a95c 3dbd 36db 18bc 9446 963d 598d 903d
000000c0: b20b 073d 5f4b a53d e58b 96bc 53dc 6abc
000000d0: dd80 f93c 896c cbbd 6205 2cbc 693c adbc
000000e0: 3c6a cdbd 9cb3 353c 48c4 8bbd 2737 e93c
000000f0: 7a18 0b3d bcff 9c3d 913d adbc fd7b bb3d
00000100: ab58 cd3c 8fea 56bb d3ba 11bd 9bf3 ffbc
00000110: 50f3 293d 4de4 023e 6085 e43d 30e2 52bd
00000120: 5da9 a0bd e11f 863d d1dc ec3c d859 093e
00000130: ac5d 11bd ddbf edbc 9772 953d 22f6 283d
00000140: 6bb3 68bd b039 163c c319 26bc 3525 8bbc
00000150: 615a cebd 0616 56bc f78a 973d e79f 1bbd
00000160: ba7e ef3d 36e2 9a3c 67f2 ea3c 0c76 243d
00000170: bf14 e8bc 8f8f 93bc e865 173e f8ec c3bd
00000180: 4c07 703d 6e65 773d c1f6 d03d bc24 a43d
00000190: 2c3d 44ba f894 6e3d 46c3 bd3d 8349 23bc
000001a0: 2e71 283c 0aaf 72bc 7f55 4abd e471 0f3e
000001b0: 688c 663d 3829 c93d 1930 643c 6536 d63d
000001c0: a3b4 903d dde9 cabc e1b0 c2bc a8da 413d
000001d0: 062b 603d 249a 76bd a23c 25bd ddb8 3e3c
000001e0: b78d bbbc d157 b13d af15 baba c284 19ba
000001f0: b59c 303d d1bf a0bd 23a3 abbd 6034 a23d
00000200: fca1 d03c 140b ee3d 9847 48bd 5556 053d
00000210: d8f7 493c 1a01 38bd a8fa 363c e9d7 94bd
00000220: 8412 60bd ca95 2f3c 19a3 e53d afe8 3abd
00000230: 30a2 05bc bad3 5fbd 6d47 e43c 7f2f ec3d
00000240: fb6d bdbc e1cc b9bd ec15 18be 1b4a 4e3e
00000250: 2565 6f3d b300 2d3d e6ad 06be 31f3 c5bc
00000260: f6b1 aebc c063 06bd e913 923d 3aa3 ae3d
00000270: 4632 52bc 76b5 4cbd 4625 523d 3191 cbbd
00000280: a0bb 94bd c87f c8bd 85c2 24bd 6a1a 8c3d
00000290: c736 953d 0bb8 293d 4981 1d3d 5dc3 0b3e
000002a0: 7f76 c93d 98b7 64bd 3891 cbba 7b93 0e3d
000002b0: 1d9a 883d ba68 e0bc 583c 9bbd ab16 223e
000002c0: 5198 f33d 7005 023e cb94 1dbd c84d b1bd
000002d0: e183 423e 50d0 9c3c 8e4d 463e b041 90bd
000002e0: 598a b9bd 3bf1 acbd 6f1b be3d 4a74 2dbc
000002f0: 4b73 b6bd e919 3bbe cb86 583d 4dd9 dabd
00000300: 1df2 e3bd 4c19 ccbc c021 2a3d 7aba 84bd
00000310: afa5 16be fedc a03d a38d dcbc 7268 093e
00000320: 79fb 99bc 13ff cbbc 64d7 293c 879c bc3c
00000330: 9760 cbbd 2b8d 693d b730 0cbd c8b4 80bc
00000340: eca6 dd3c 0660 6fbd 6199 32bd f494 a13d
00000350: 84c7 b03b d661 fdbc f43e e83c b46e aa3d
00000360: 1cda 03be 1c21 d1bd bcca 4c3d d76e 4c3d
00000370: 371f 893d 547c 003e 1d56 983d db0a 443a
00000380: a757 ae3d ec6f 01bc bded 423b 8b87 07be
00000390: 2ab1 3dbd e2e5 a03d 68e4 393e fb27 1c3d
000003a0: 908b 683d 6fee cb3d f709 ac3d af6c b83d
000003b0: 7dfe 4d3d 5819 af3d 010d ac3d 8cff 45bd
000003c0: 41ef dabb d20a 36bd 07d4 c2bb a600 95bc
000003d0: 9cc9 89bd 8276 0c3d f1f6 0fbd 80b6 e2bd
000003e0: d8ca 0bbd 5c8b e1bc 12b9 cfbd adf8 83bc
000003f0: c7ec 0b3b 33bc 973c a0b9 d33d 3163 b5bc
-0.0336677 0.023770094 -0.04173123 -0.019034008 0.011082654 0.0082924925 0.0642754 0.00825852
-0.024339147 0.081820235 0.10135189 -0.0018059998 0.14146028 0.12838766 0.061472714 -0.1043903
-0.07111654 -0.030513078 -0.046331156 -0.10265683 0.19827971 -0.014120139 0.15044409 -0.06404095
-0.027762355 -0.026047904 0.005474114 0.10228993 0.07454302 0.097783536 0.014584625 -0.03378236
-0.18599975 0.0633638 0.21968462 0.0778744 0.15837653 -0.13568388 0.0046618944 0.08037396
0.018910646 0.050125476 0.095449455 -0.014089697 -0.046230946 -0.009329608 0.073376805 0.0705821
0.032970138 0.080710165 -0.018377254 -0.014334756 0.030456955 -0.09932811 -0.01049933 -0.02114697
-0.10030028 0.0110901855 -0.06824547 0.028468681 0.03395889 0.07665965 -0.021147521 0.09154508
0.025066694 -0.0032793616 -0.03557856 -0.03124409 0.041491807 0.12782402 0.11158252 -0.05148524
-0.078448035 0.06549049 0.028913887 0.13413179 -0.035489723 -0.029022152 0.07297247 0.041250356
-0.05681173 0.009169027 -0.010137978 -0.016985515 -0.10075832 -0.013066774 0.07399552 -0.03799429
0.11694093 0.018906694 0.02868004 0.04015164 -0.028330205 -0.01801279 0.14784968 -0.095666826
0.05860071 0.060399465 0.102033146 0.08014819 -0.0007485922 0.058247536 0.09265761 -0.009966257
0.01028089 -0.01481224 -0.04939794 0.1400829 0.056286246 0.09822315 0.013927483 0.10459594
0.07065704 -0.024769718 -0.023765983 0.047327667 0.05472853 -0.060205594 -0.040341027 0.0116407545
-0.022894723 0.08659328 -0.0014197136 -0.0005856269 0.043118197 -0.07849086 -0.08380725 0.07920146
0.025467865 0.11623207 -0.048896402 0.032553036 0.012327157 -0.044922926 0.01116816 -0.07267744
-0.054705158 0.010716865 0.11212749 -0.04563206 -0.008156344 -0.054645278 0.02786609 0.11532497
-0.023123732 -0.09072281 -0.14852113 0.20145456 0.05844607 0.042236995 -0.13152274 -0.024163814
-0.021325093 -0.032809973 0.07132704 0.08527227 -0.012829369 -0.049977742 0.051305078 -0.099398024
-0.07262349 -0.09789997 -0.04022457 0.068409756 0.072858386 0.041435283 0.038453374 0.13648744
0.098370545 -0.05583915 -0.001553095 0.034808617 0.0667002 -0.027393688 -0.07579869 0.1582896
0.118942864 0.12697387 -0.03847198 -0.08657414 0.1899562 0.0191423 0.19365522 -0.07043779
-0.09059591 -0.084444486 0.09282576 -0.0105868075 -0.08908709 -0.18271603 0.052862924 -0.10685978
-0.11130164 -0.024914406 0.041536093 -0.0648088 -0.14711641 0.07854651 -0.026923006 0.13418749
-0.01879667 -0.024901902 0.0103662945 0.023023857 -0.099305324 0.057019394 -0.034226146 -0.015711203
0.027057134 -0.058441184 -0.043603305 0.07889739 0.005394878 -0.03093044 0.02835033 0.08321896
-0.12876171 -0.10211393 0.04999803 0.049910393 0.06695407 0.12547427 0.074383 0.0007478424
0.08512812 -0.007900219 0.0029743754 -0.132353 -0.046311535 0.07856347 0.18153536 0.038124066
0.056773722 0.09957587 0.08400338 0.09005105 0.050291527 0.08549756 0.08400918 -0.04833941
-0.0066813533 -0.044443913 -0.005945686 -0.018188786 -0.06727907 0.034292705 -0.03514761 -0.11069965
-0.034128994 -0.027532272 -0.10142721 -0.016109789 0.0021350847 0.018522358 0.103381395 -0.022142025

h2h.bias f4 [234]
00000000: 5ffd 3f3d f61f f8bb f3a4 a5bb 956a 063d
00000010: a1ac 053c 955f 1bbc a907 67bc 963c 093c
00000020: 70fe b9bb 2226 99bc 8338 59bc 1b34 673c
00000030: 982f f8ba de14 ab3b 49f0 4c39 444e 3fbc
00000040: decd ecbc fa98 16bc be60 f2ba 09c1 9b3b
00000050: 4497 ff3b b19b 563b 6413 0f3b 014c 0c3c
00000060: 1499 b6bb 0801 703c aab1 273d de27 50bc
00000070: 5ea5 5fbc 9695 473b 73b2 3aba b46e de3d
00000080: 3e19 443b 138b 2e3d d9dc 643c 15a9 a93c
00000090: 4551 ddbb dbbc 8d3d 953b 2c3e 6d0b 923a
000000a0: 3055 38bc 4df7 2d3c 9a2d 40bc 2007 393c
000000b0: 31e7 f33b 6826 493c be41 293d bad2 b73b
000000c0: 292a f63d c02f 38bb 8ff7 9bbc 796c ae3b
000000d0: 550f 6bbc ec5d 173d fdfb 0e3e e21c e9bb
000000e0: 320d 67bb 01b5 cc3b 8397 0dbc a9aa d33b
000000f0: b4ff 27bb 8c8e 0c3e 3292 bc3c 9000 6cba
00000100: 086a 8bbb b108 8d3b ce19 973a 5ef8 e43c
00000110: 7b4b 1bbb 24f2 b23c 24b2 023b 7453 67bc
00000120: 4225 723b c009 133d f8e5 c13a 8fda 313d
00000130: f971 963d 1e48 b33b 1447 da3c 2404 513c
00000140: d4c2 723d 7ecc cf3c c618 30bb a762 25bc
00000150: 7048 8cbb 1af9 993a 57d0 df3c 8473 82bc
00000160: 3383 593b b802 2abc 4f4f 273d e0c7 24bb
00000170: 3ebb f93c 04b6 08bc b98f eb3c 9189 883d
00000180: 8fd3 bebc f143 edbb a6b0 123c 9bad 8eb9
00000190: 3d54 98bb f8f9 88bc 18a8 cabb 0570 31bc
000001a0: ced4 0f3c adb1 ec3b 3fd0 a83c a79a 8fbc
000001b0: 201a af3b bc16 813a d4fd 4ebb 85ab 2dbc
000001c0: 3437 27bc 5710 b4bb 62f8 19bc d90a 97bb
000001d0: e287 303c 8c9c 41bd ddfe 1c3d 4858 db3d
000001e0: c0c2 293d 926e f1bb f02c 48bc 143c 82bb
000001f0: 38b6 563c 97dd 4d3c 8efd b63c b2f6 343d
00000200: 2ca5 0c3c e1ec ccbb 723a fbbb 926d d3bb
00000210: 78e5 cb3d a2c5 b93d f7ef a4bc 02df fabb
00000220: 359d de3b 10a0 4dbb c8f1 9ebb 0250 9fbc
00000230: 8fbd cbbc 7bb2 05bc c083 8b3b 7e66 9dbb
00000240: b263 4b3c e476 80bc c38e 1abb 1621 043e
00000250: 2525 8f3b 58a4 003d b7b2 163c ce24 1e3c
00000260: 7805 823c ae58 be3b 72e8 ca3b 5fa1 8a3b
00000270: 243c 6b3b a5d5 28bd 4f12 b43c 4731 2dbc
00000280: b192 423c 4e82 d63b b767 093d 20cb 963b
00000290: 03f2 c83c 3dc8 cfbc 9b87 90bb 98a8 a53d
000002a0: cdc4 ffbb c15f 91bb 5486 a63c 93bf e2bb
000002b0: 029e b93b f066 7d3c b3c9 193c 5a94 613b
000002c0: c3a6 cbbb ebe1 133c 5ced 7bbc 88f4 cb3b
000002d0: 7b7f 97bc d663 853b a5d3 1d3c 33fe 04bc
000002e0: 2607 32bc b004 db3c 4cb2 483d ab18 d1bb
000002f0: 82db 393c 16d1 be3b 35af 4fbc 478f 1cbc
00000300: b95d 813c 27c5 10bb 38e9 d83d 5627 47bb
00000310: 0f84 dabb bb77 e43b 7c31 06bc 3c19 cbbb
00000320: e614 cd3b 7b70 ba3c 7be2 47bc 8c7b 4b3c
00000330: cac1 c1ba a7df 0fbc c222 4f3c 738a 893c
00000340: cd1e cfbb 1ed5 113c 72db 4bbc 13ba fd3b
00000350: dc7f 98bb 8627 dabb 965b 7fbb c7bf 563c
00000360: 57a1 18bc 942b 06bb 4c97 29bc ffe9 77bc
00000370: b0e5 cbbb 8a6d 05bc 5d1b 6b3d f0bb 7b3c
00000380: 824b c4b8 3f6a 41bd 0904 43bc e5ae 2a3d
00000390: 4503 153c 1459 4a3c 4627 753b ee57 f83b
000003a0: aad7 f2ba 1054 683b
0.046872493 -0.0075721694 -0.005055064 0.03281649 0.008158834 -0.009483238 -0.014100947 0.008376261
-0.0056760833 -0.018694941 -0.013258102 0.014111544 -0.0018935082 0.0052209934 0.00019544469 -0.011676375
-0.028906759 -0.009191746 -0.0018491966 0.004753236 0.0078000147 0.0032746608 0.0021831626 0.008563043
-0.0055724476 0.014648683 0.040940918 -0.012704818 -0.013650266 0.003045415 -0.0007121928 0.10860959
0.0029922272 0.0426131 0.01396867 0.020710507 -0.006754073 0.06920787 0.16819604 0.0011142321
-0.011250779 0.010618043 -0.011729622 0.011293203 0.0074433316 0.012277223 0.041322462 0.0056098374
0.1201976 -0.0028104633 -0.019038944 0.0053229895 -0.014346917 0.036954805 0.13963313 -0.007114039
-0.0035255668 0.0062471633 -0.00864208 0.0064595533 -0.0025634589 0.13726252 0.02301893 -0.00090027694
-0.0042545833 0.0043040146 0.0011528076 0.027950462 -0.0023696113 0.021843977 0.0019942606 -0.014119018
0.0036948477 0.03589797 0.0014793267 0.043421324 0.07345957 0.0054712435 0.02664522 0.012757335
0.059267834 0.025366064 -0.0026870235 -0.010094321 -0.004281096 0.0011747212 0.027321024 -0.015924223
0.0033189773 -0.010376625 0.04084712 -0.002514355 0.030484792 -0.008344177 0.028755056 0.06666864
-0.023294238 -0.0072407653 0.008953249 -0.00027213697 -0.004648714 -0.016720757 -0.006184589 -0.01082993
0.008778764 0.007223329 0.020607112 -0.017529799 0.0053436905 0.0009848694 -0.0031584399 -0.0105999755
-0.010206033 -0.005495112 -0.009397598 -0.0046094474 0.0107745845 -0.047268435 0.038328994 0.10710198
0.041445494 -0.0073679173 -0.012217745 -0.003974447 0.013104968 0.012565038 0.022337701 0.04418058
0.008584302 -0.006253824 -0.0076668793 -0.006452271 0.09955877 0.090708986 -0.020133955 -0.007655979
0.006793643 -0.0031375922 -0.0048506 -0.01944733 -0.024870662 -0.008160229 0.004257649 -0.004803478
0.012413906 -0.015681691 -0.0023583628 0.12903246 0.0043684416 0.03140673 0.009197882 0.00965233
0.015871748 0.0058089113 0.0061922604 0.0042306627 0.0035894 -0.041219372 0.021981386 -0.010570831
0.011875794 0.0065462952 0.033546176 0.004601851 0.024529463 -0.025364036 -0.0044106967 0.08088797
-0.007805443 -0.0044364636 0.020327725 -0.00691981 0.005664588 0.015466437 0.009386468 0.00344207
-0.006214948 0.009026031 -0.015376415 0.0062242188 -0.018493405 0.0040707393 0.0096329795 -0.008117246
-0.010865962 0.026735634 0.048998162 -0.0063811145 0.011343839 0.005823265 -0.01267605 -0.009555644
0.01579176 -0.0022090168 0.10591358 -0.0030388436 -0.0066685746 0.006972281 -0.008190509 -0.0061980765
0.006258595 0.022758713 -0.012199993 0.012419593 -0.0014782485 -0.00878135 0.012642564 0.01678965
-0.0063208104 0.008900909 -0.012442457 0.007743129 -0.004653914 -0.0066575436 -0.0038964502 0.013107247
-0.00931581 -0.0020472752 -0.010351013 -0.015131473 -0.0062224492 -0.008143792 0.057399143 0.015364632
-9.360073e-05 -0.047220465 -0.0119028175 0.0416707 0.009095018 0.012350339 0.0037407442 0.0075788414
-0.0018527408 0.0035450496
