TBCAS24/intuitivechip_classifier_lcsvsnlcs_teensy_run2/SNN_ep-150-isize-1-8-1-hsize-242-bsize-32-lr-0.001-tmax_ms-400.0-Ts-10.0-k-6-dsetPath-VMODE_allchannels_ALLCLASS_auto_corr_cleaned_1x8_180mvpp_250mvofs_onedac_itail_50nA_N3b_OFFdcard/chip-classifier-4-best.pt (torch, 253495 bytes, 8 tensors)

thr_h_1 f4 [242]
1.0 1.0 1.0 1.0 1.0 1.0 1.0 1.0
1.0 1.0 1.0 1.0 1.0 1.0 1.0 1.0
1.0 1.0 1.0 1.0 1.0 1.0 1.0 1.0
1.0 1.0 1.0 1.0 1.0 1.0 1.0 1.0
1.0 1.0 1.0 1.0 1.0 1.0 1.0 1.0
1.0 1.0 1.0 1.0 1.0 1.0 1.0 1.0
1.0 1.0 1.0 1.0 1.0 1.0 1.0 1.0
1.0 1.0 1.0 1.0 1.0 1.0 1.0 1.0
1.0 1.0 1.0 1.0 1.0 1.0 1.0 1.0
1.0 1.0 1.0 1.0 1.0 1.0 1.0 1.0
1.0 1.0 1.0 1.0 1.0 1.0 1.0 1.0
1.0 1.0 1.0 1.0 1.0 1.0 1.0 1.0
1.0 1.0 1.0 1.0 1.0 1.0 1.0 1.0
1.0 1.0 1.0 1.0 1.0 1.0 1.0 1.0
1.0 1.0 1.0 1.0 1.0 1.0 1.0 1.0
1.0 1.0 1.0 1.0 1.0 1.0 1.0 1.0
1.0 1.0 1.0 1.0 1.0 1.0 1.0 1.0
1.0 1.0 1.0 1.0 1.0 1.0 1.0 1.0
1.0 1.0 1.0 1.0 1.0 1.0 1.0 1.0
1.0 1.0 1.0 1.0 1.0 1.0 1.0 1.0
1.0 1.0 1.0 1.0 1.0 1.0 1.0 1.0
1.0 1.0 1.0 1.0 1.0 1.0 1.0 1.0
1.0 1.0 1.0 1.0 1.0 1.0 1.0 1.0
1.0 1.0 1.0 1.0 1.0 1.0 1.0 1.0
1.0 1.0 1.0 1.0 1.0 1.0 1.0 1.0
1.0 1.0 1.0 1.0 1.0 1.0 1.0 1.0
1.0 1.0 1.0 1.0 1.0 1.0 1.0 1.0
1.0 1.0 1.0 1.0 1.0 1.0 1.0 1.0
1.0 1.0 1.0 1.0 1.0 1.0 1.0 1.0
1.0 1.0 1.0 1.0 1.0 1.0 1.0 1.0
1.0 1.0
00000000: 0000 803f 0000 803f 0000 803f 0000 803f
00000010: 0000 803f 0000 803f 0000 803f 0000 803f
00000020: 0000 803f 0000 803f 0000 803f 0000 803f
00000030: 0000 803f 0000 803f 0000 803f 0000 803f
00000040: 0000 803f 0000 803f 0000 803f 0000 803f
00000050: 0000 803f 0000 803f 0000 803f 0000 803f
00000060: 0000 803f 0000 803f 0000 803f 0000 803f
00000070: 0000 803f 0000 803f 0000 803f 0000 803f
00000080: 0000 803f 0000 803f 0000 803f 0000 803f
00000090: 0000 803f 0000 803f 0000 803f 0000 803f
000000a0: 0000 803f 0000 803f 0000 803f 0000 803f
000000b0: 0000 803f 0000 803f 0000 803f 0000 803f
000000c0: 0000 803f 0000 803f 0000 803f 0000 803f
000000d0: 0000 803f 0000 803f 0000 803f 0000 803f
000000e0: 0000 803f 0000 803f 0000 803f 0000 803f
000000f0: 0000 803f 0000 803f 0000 803f 0000 803f
00000100: 0000 803f 0000 803f 0000 803f 0000 803f
00000110: 0000 803f 0000 803f 0000 803f 0000 803f
00000120: 0000 803f 0000 803f 0000 803f 0000 803f
00000130: 0000 803f 0000 803f 0000 803f 0000 803f
00000140: 0000 803f 0000 803f 0000 803f 0000 803f
00000150: 0000 803f 0000 803f 0000 803f 0000 803f
00000160: 0000 803f 0000 803f 0000 803f 0000 803f
00000170: 0000 803f 0000 803f 0000 803f 0000 803f
00000180: 0000 803f 0000 803f 0000 803f 0000 803f
00000190: 0000 803f 0000 803f 0000 803f 0000 803f
000001a0: 0000 803f 0000 803f 0000 803f 0000 803f
000001b0: 0000 803f 0000 803f 0000 803f 0000 803f
000001c0: 0000 803f 0000 803f 0000 803f 0000 803f
000001d0: 0000 803f 0000 803f 0000 803f 0000 803f
000001e0: 0000 803f 0000 803f 0000 803f 0000 803f
000001f0: 0000 803f 0000 803f 0000 803f 0000 803f
00000200: 0000 803f 0000 803f 0000 803f 0000 803f
00000210: 0000 803f 0000 803f 0000 803f 0000 803f
00000220: 0000 803f 0000 803f 0000 803f 0000 803f
00000230: 0000 803f 0000 803f 0000 803f 0000 803f
00000240: 0000 803f 0000 803f 0000 803f 0000 803f
00000250: 0000 803f 0000 803f 0000 803f 0000 803f
00000260: 0000 803f 0000 803f 0000 803f 0000 803f
00000270: 0000 803f 0000 803f 0000 803f 0000 803f
00000280: 0000 803f 0000 803f 0000 803f 0000 803f
00000290: 0000 803f 0000 803f 0000 803f 0000 803f
000002a0: 0000 803f 0000 803f 0000 803f 0000 803f
000002b0: 0000 803f 0000 803f 0000 803f 0000 803f
000002c0: 0000 803f 0000 803f 0000 803f 0000 803f
000002d0: 0000 803f 0000 803f 0000 803f 0000 803f
000002e0: 0000 803f 0000 803f 0000 803f 0000 803f
000002f0: 0000 803f 0000 803f 0000 803f 0000 803f
00000300: 0000 803f 0000 803f 0000 803f 0000 803f
00000310: 0000 803f 0000 803f 0000 803f 0000 803f
00000320: 0000 803f 0000 803f 0000 803f 0000 803f
00000330: 0000 803f 0000 803f 0000 803f 0000 803f
00000340: 0000 803f 0000 803f 0000 803f 0000 803f
00000350: 0000 803f 0000 803f 0000 803f 0000 803f
00000360: 0000 803f 0000 803f 0000 803f 0000 803f
00000370: 0000 803f 0000 803f 0000 803f 0000 803f
00000380: 0000 803f 0000 803f 0000 803f 0000 803f
00000390: 0000 803f 0000 803f 0000 803f 0000 803f
000003a0: 0000 803f 0000 803f 0000 803f 0000 803f
000003b0: 0000 803f 0000 803f 0000 803f 0000 803f
000003c0: 0000 803f 0000 803f

thr_o f4 [6]
1.0 1.0 1.0 1.0 1.0 1.0
00000000: 0000 803f 0000 803f 0000 803f 0000 803f
00000010: 0000 803f 0000 803f

i2h.weight f4 [242, 8]
-0.09496967 -0.11247569 0.086157456 0.054120235 0.08786556 -0.064485915 0.10500478 -0.15419461
0.053814184 -0.04360163 -0.14711589 -0.045741454 -0.032079972 0.08453269 0.03727523 -0.15649112
0.14467293 0.15201874 -0.08903766 -0.05356616 0.15116088 -0.058387056 0.12751654 0.07710103
0.016825128 0.13278967 0.07305935 0.010870093 -0.093709536 -0.01626607 0.071645655 -0.051151864
-0.13779916 0.063488096 -0.047241 -0.16437902 -0.11374045 0.14063866 -0.06613676 -0.117741026
-0.030620959 0.025786376 0.058082785 -0.06183641 -0.1995701 -0.0996239 -0.09690143 -0.1814183
0.015838223 -0.040457506 0.06794261 -0.12418949 -0.10068719 0.07393107 -0.115172006 -0.1020838
-0.022802442 -0.06917962 -0.012192524 -0.119480945 -0.05640183 0.052290805 0.06641378 -0.08541744
-0.06531725 -0.032850478 0.10003918 -0.067771405 -0.048043348 -0.06329062 0.10268035 0.04562136
-0.06899784 0.115841 -0.010215831 -0.032703634 -0.02527903 -0.12869051 0.12857485 -0.09290612
0.020942088 -0.12225937 -0.05782969 -0.050310597 0.10967952 -0.13189071 0.0869916 -0.0068345703
0.025463328 0.15651901 -0.003453898 0.11899124 -0.14507107 -0.04917526 -0.030546715 -0.14182481
-0.0014315186 0.10467933 0.0659188 -0.111638136 0.10204278 -0.06121611 0.11699839 0.1009083
-0.122349374 0.121514 -0.03963378 0.0073539787 0.14410172 -0.059782766 -0.06370361 0.01462952
0.06724203 -0.15063754 -0.107116714 -0.044519465 0.0984002 -0.019003643 -0.08248785 -0.0712669
-0.00037632565 0.0045119138 0.12845604 0.1038633 -0.031610165 0.066314995 -0.08213796 -0.07849415
0.12645298 0.14269938 0.026184956 -0.06540611 -0.10421206 -0.037030514 -0.15266955 0.094338246
-0.12130955 0.067087054 0.08706392 -0.06960534 0.008019607 -0.1167024 -0.025145555 0.091627605
0.14610621 -0.012020303 0.010429842 0.020355083 -0.1490212 -0.042405896 -0.09646832 0.12465151
0.059437465 -0.026499812 0.13147423 -0.027139504 0.01805854 -0.14537315 -0.120049685 0.09344629
0.13483995 0.11767696 -0.06840482 -0.001718956 -0.043416295 0.12996659 -0.11540721 0.09824029
-0.08940853 -0.015720433 0.15807037 -0.024298223 -0.14962377 -0.1255553 0.13521244 0.12470147
0.04746698 0.029761953 0.1079537 -0.1146141 0.08199405 0.02346363 0.05663335 -0.0888785
-0.1370795 -0.09908296 0.07919738 -0.07241443 -0.1117506 0.124950856 0.03129703 0.10716502
-0.056535807 -0.13199595 -0.08050651 -0.024616055 0.09814095 0.093634725 0.059153188 0.0074243112
0.16322348 0.14091286 -0.08282263 0.0016133125 0.09540233 -0.070808135 -0.043552063 0.1336717
0.12510799 -0.12943655 0.08815469 0.09533061 -0.036609966 0.06258109 -0.06767297 -0.05596384
0.14496529 0.13292816 -0.123604186 -0.15895057 -0.10054993 0.05704716 0.019901259 -0.09322509
0.0037209226 0.051672433 -0.13879369 -0.040437404 -0.13832124 -0.013112468 0.07421024 0.10361236
-0.12807007 0.06306057 0.02607648 -0.12174348 -0.15865125 0.0090593975 0.14085257 -0.028889108
-0.0152897425 -0.08227799 0.13839455 0.13824649 0.10334558 0.08545384 0.10971948 0.15513544
-0.006274408 -0.0018977392 0.04761197 0.02534857 0.024878472 -0.0068552564 -0.066032976 0.00055745174
00000000: 757f c2bd a859 e6bd 5273 b03d 2ead 5d3d
00000010: dcf2 b33d 3111 84bd bf0c d73d 31e5 1dbe
00000020: 436c 5c3d 9f97 32bd 8ca5 16be 645b 3bbd
00000030: 4a66 03bd 7a1f ad3d e9ad 183d 353f 20be
00000040: 2425 143e cdaa 1b3e 6059 b6bd 3168 5bbd
00000050: ebc9 1a3e 4427 6fbd b293 023e 25e7 9d3d
00000060: dad4 893c 04fa 073e 24a0 953d 7918 323c
00000070: c9ea bfbd 6c40 85bc f5ba 923d 9e84 51bd
00000080: 391b 0dbe 0c06 823d c77f 41bd f952 28be
00000090: c1f0 e8bd 9503 103e b672 87bd 3522 f1bd
000000a0: ced8 fabc f33d d33c 37e8 6d3d 2d48 7dbd
000000b0: 1b5c 4cbe 9e07 ccbd 4274 c6bd b8c5 39be
000000c0: 29bf 813c c5b6 25bd 7f25 8b3d 0f57 febd
000000d0: 1635 cebd 2c69 973d 4ddf ebbd 5011 d1bd
000000e0: 30cc babc 0bae 8dbd 27c3 47bc 6db2 f4bd
000000f0: 9b05 67bd e22e 563d f303 883d 57ef aebd
00000100: 0dc5 85bd 398e 06bd 57e1 cc3d bccb 8abd
00000110: 1ac9 44bd 839e 81bd 134a d23d 77dd 3a3d
00000120: bd4e 8dbd 0c3e ed3d 4d60 27bc 3ff4 05bd
00000130: f815 cfbc 72c7 03be 20a9 033e 9045 bebd
00000140: be8e ab3c 1f63 fabd d3de 6cbd 7c12 4ebd
00000150: a89f e03d 5c0e 07be a728 b23d 88f4 dfbb
00000160: 7898 d03c 8546 203e cb5a 62bb aeb1 f33d
00000170: 838d 14be ff6b 49bd 1b3d fabc 863a 11be
00000180: cba1 bbba 1e62 d63d 7000 873d 89a2 e4bd
00000190: cefb d03d bebd 7abd da9c ef3d 03a9 ce3d
000001a0: 4f92 fabd 55dc f83d 0857 22bd a5f9 f03b
000001b0: 678f 133e c6de 74bd 0a77 82bd a7b0 6f3c
000001c0: 30b6 893d ba40 1abe 0260 dbbd 0b5a 36bd
000001d0: 0b86 c93d 87ad 9bbc 64ef a8bd 61f4 91bd
000001e0: 934d c5b9 add8 933b fb89 033e 48b6 d43d
000001f0: a979 01bd 28d0 873d f237 a8bd 8ac1 a0bd
00000200: e47c 013e c91f 123e d581 d63c a3f3 85bd
00000210: 226d d5bd 4fad 17bd 6855 1cbe 6934 c13d
00000220: 2471 f8bd f064 893d 924e b23d 3f8d 8ebd
00000230: ab64 033c ab01 efbd 0dfe cdbc 41a7 bb3d
00000240: de9c 153e cef0 44bc eee1 2a3c b4bf a63c
00000250: 0399 18be ceb1 2dbd 2f91 c5bd 4a49 ff3d
00000260: b374 733d 2216 d9bc 2ea1 063e aa53 debc
00000270: 81ef 933c b3dc 14be 9cdc f5bd c560 bf3d
00000280: 7c13 0a3e 9e00 f13d d417 8cbd 984e e1ba
00000290: 49d5 31bd f615 053e 9e5a ecbd 3532 c93d
000002a0: d21b b7bd 23c8 80bc 33dd 213e 110d c7bc
000002b0: f936 19be 9291 00be 2175 0a3e 7c63 ff3d
000002c0: bc6c 423d 57cf f33c d416 dd3d ccba eabd
000002d0: 7fec a73d cc36 c03c 5ff8 673d ee05 b6bd
000002e0: 925e 0cbe 02ec cabd 3c32 a23d 044e 94bd
000002f0: 80dd e4bd 3ce6 ff3d 5131 003d 5679 db3d
00000300: 1792 67bd f229 07be 99e0 a4bd 9ca7 c9bc
00000310: 1ffe c83d 90c3 bf3d 9d4a 723d a347 f33b
00000320: 0e24 273e 764b 103e e99e a9bd c975 d33a
00000330: 4c62 c33d db03 91bd a663 32bd 3ce1 083e
00000340: 4f1c 003e 048b 04be 728a b43d b23c c33d
00000350: 55f4 15bd 842a 803d 2098 8abd 573a 65bd
00000360: c871 143e 521e 083e 3124 fdbd f0c3 22be
00000370: 1fed cdbd 48aa 693d f707 a33c ccec bebd
00000380: b9da 733b 79a6 533d ef1f 0ebe b1a1 25bd
00000390: 15a4 0dbe add5 56bc 8afb 973d b832 d43d
000003a0: cd24 03be e625 813d 589e d53c a554 f9bd
000003b0: 7975 22be de6d 143c a83b 103e daa8 ecbc
000003c0: d481 7abc 5d81 a8bd 4db7 0d3e 7d90 0d3e
000003d0: d9a6 d33d 6c02 af3d 9bb4 e03d d3db 1e3e
000003e0: 8d99 cdbb 90bd f8ba c504 433d cea7 cf3c
000003f0: f0cd cb3c 0fa2 e0bb 4c3c 87bd f421 123a

i2h.bias f4 [242]
0.004447979 -0.020211494 -0.006246164 -0.0012026941 -0.018060256 0.0051872986 -0.007303975 -0.004869368
0.014781454 -0.011076935 -0.009881681 -0.003923515 -0.013215087 -0.0059260107 -0.014870925 -0.003003211
-0.0048365584 0.009434272 0.0043146964 0.011471262 -2.3603794e-05 0.0025470245 0.009592428 0.01839411
0.01303366 -0.010218491 -0.004852243 0.014736493 0.008524925 -0.005460867 0.009722956 -0.0013363959
0.0060081105 0.001761523 0.012613939 -0.055027664 -0.012431062 -0.013722948 0.008942338 -0.0015599396
0.028860234 0.001413052 -0.012978404 -0.015907971 0.018473556 -0.013949082 -0.0030693759 -0.0028452508
0.019262785 0.0070861992 0.0056103007 -0.010410075 0.0051897946 0.013807746 -0.0046671275 -0.008173871
0.0005731373 0.011760963 0.009424614 -0.0049929214 -0.0065997425 0.007575697 0.013266227 0.011654975
0.0016348512 -0.013531248 0.0001512501 0.012853412 0.014216773 -0.005750317 -0.060150865 -0.0023088218
-0.014165323 2.3086948e-05 0.018558118 0.007341421 -0.0154196285 -0.010050998 -0.004691505 -0.009996446
-0.015603601 -0.012572499 0.005940425 -0.0030934755 -0.008208319 0.0075747073 0.0124169905 0.011319835
0.05012568 -0.008400419 0.0415531 0.02225198 0.0027143357 -0.006145398 0.00301952 0.012503618
-0.0144369695 -0.012800965 0.01890287 0.005188154 0.020569416 0.022570804 0.003599448 -0.0011547632
0.0040339 0.015486588 -0.0023799438 -0.0041259807 -0.0011619325 0.026048405 -0.010318284 -0.020593392
-0.0066421973 -0.035435464 0.004178437 -0.0044248784 0.019988226 0.0028834601 0.010984574 0.033864886
-0.007977821 -0.0044202753 0.0025377632 -0.0011115473 0.009255016 0.02311255 0.005476351 -0.01378904
0.0067087635 -0.014122968 0.0015520743 -0.008750424 -0.042019453 -0.037549682 -0.0053021815 -0.012276817
0.0008975198 -0.04158349 -0.022697516 0.0101602655 -0.012576669 0.003889744 0.006046744 0.010930739
0.027140336 0.0039892793 0.0130091095 -0.00036156288 -0.00089314254 0.016704403 -0.002174612 0.010337013
-0.00035885884 -0.013641506 -6.7152985e-05 -0.013200481 -0.012384479 0.012162806 0.009817096 0.007220674
0.0020359375 -0.016474333 0.0033599047 -0.0155503955 -0.004356456 -0.006223286 -0.007129562 0.002911579
0.006534979 -0.011798998 -0.0059790974 -0.0077983937 -0.007674971 -0.0103879785 -0.01474172 -0.010204741
-0.026318183 -0.013420729 -0.010789297 -0.0014214996 0.0168132 -0.009777426 -0.021288028 -0.012181173
-0.004800267 0.027915403 -0.016513526 -0.005571504 0.0208641 0.014566237 0.00345939 -0.011324911
-0.013918463 -0.018305963 0.002850806 -0.012472772 0.0115058245 -0.010704834 -0.009470761 0.002004364
-0.0008964114 -0.0165919 -0.008907875 -0.013427285 -0.012024914 0.0013452296 0.007618144 0.022731453
0.0027262522 -0.009185626 0.011787234 0.007828231 0.01392442 -0.006727192 -0.024272192 0.010101433
0.026201412 0.0019836552 -0.0037042673 0.009280185 0.022610568 0.0014264776 0.004483703 0.0021615897
-0.041498996 -0.015609901 0.008129413 0.00399175 0.0052599567 -0.0031789443 0.009408317 -0.011605047
-0.001877431 0.018378505 -0.028209759 -0.00082649564 0.012044923 -0.0021979157 0.012100761 0.005065731
0.0029357725 -0.025131304
00000000: 5ac0 913b 9392 a5bc 9fac ccbb b8a3 9dba
00000010: 1af3 93bc 37fa a93b 2f56 efbb 388f 9fbb
00000020: e92d 723c 087c 35bc c6e6 21bc d490 80bb
00000030: 1884 58bc fb2e c2bb 2ea5 73bc 85d1 44bb
00000040: fe7b 9ebb 3492 1a3c 4c62 8d3b f6f1 3b3c
00000050: c300 c6b7 fbeb 263b 8f29 1d3c 3faf 963c
00000060: 228b 553c 756b 27bc 90ff 9ebb 5571 713c
00000070: 21ac 0b3c 13f1 b2bb 094d 1f3c 012a afba
00000080: afdf c43b e7e2 e63a b2aa 4e3c b064 61bd
00000090: a7ab 4bbc 37d6 60bc e282 123c e376 ccba
000000a0: 4c6c ec3c 2836 b93a 5fa3 54bc 6f51 82bc
000000b0: db55 973c b18a 64bc 9527 49bb 6377 3abb
000000c0: fdcc 9d3c 5933 e83b 9dd6 b73b 058f 2abc
000000d0: 270f aa3b e239 623c b4ee 98bb b3eb 05bc
000000e0: 983e 163a 0eb1 403c b269 1a3c a99b a3bb
000000f0: a742 d8bb 8d3d f83b 975a 593c 82f4 3e3c
00000100: 8148 d63a 2bb2 5dbc e498 1e39 1e97 523c
00000110: 78ed 683c 286d bcbb c160 76bd 9a4f 17bb
00000120: ac15 68bc d8aa c137 3207 983c 4e90 f03b
00000130: 9ca2 7cbc f1ac 24bc 32bb 99bb 22c8 23bc
00000140: 3fa6 7fbc e2fc 4dbc e6a7 c23b e8bb 4abb
00000150: 2f7c 06bc 4035 f83b a270 4b3c d476 393c
00000160: 9650 4d3d e9a1 09bc 9533 2a3d c949 b63c
00000170: ffe2 313b 565f c9bb 24e3 453b fadb 4c3c
00000180: 0a89 6cbc 24bb 51bc 31da 9a3c 6401 aa3b
00000190: 3181 a83c 68e6 b83c b7e4 6b3b 6c5b 97ba
000001a0: ce2e 843b 75bb 7d3c d5f8 1bbb 3c33 87bb
000001b0: fc4b 98ba 7763 d53c 050e 29bc 79b3 a8bc
000001c0: caa6 d9bb c724 11bd 45eb 883b 92fe 90bb
000001d0: 59be a33c 6ff8 3c3b a5f8 333c e8b5 0a3d
000001e0: 68b5 02bc f5d7 90bb 9a50 263b 57b1 91ba
000001f0: 5aa2 173c 8856 bd3c f672 b33b 6deb 61bc
00000200: 30d5 db3b 0564 67bc f96e cb3a f05d 0fbc
00000210: 971c 2cbd b2cd 19bd ecbd adbb b424 49bc
00000220: 8947 6b3a 7353 2abd 24f0 b9bc 3e77 263c
00000230: 600e 4ebc 13eb 7e3b c423 c63b d816 333c
00000240: 6955 de3c 80b8 823b 2924 553c 2690 bdb9
00000250: c821 6aba acd7 883c ef83 0ebb 935c 293c
00000260: 3825 bcb9 a080 5fbc 7cd4 8cb8 d546 58bc
00000270: 45e8 4abc 8146 473c e3d7 203c 679b ec3b
00000280: 5d6d 053b 2ef5 86bc d931 5c3b 16c7 7ebc
00000290: 9ac0 8ebb b5ec cbbb 1a9f e9bb 31d0 3e3b
000002a0: 6123 d63b 9650 41bc 4eec c3bb ab89 ffbb
000002b0: 537e fbbb 5732 2abc 4187 71bc c931 27bc
000002c0: 3b99 d7bc 9ee2 5bbc 97c5 30bc 9d51 baba
000002d0: d6bb 893c 7f31 20bc 3b64 aebc 8b93 47bc
000002e0: 8f4b 9dbb d8ae e43c 6047 87bc 2a91 b6bb
000002f0: 30eb aa3c 3aa7 6e3c efb6 623b 1f8c 39bc
00000300: 440a 64bc 63f6 95bc 97d4 3a3b 995a 4cbc
00000310: ed82 3c3c 5463 2fbc 402b 1bbc a65b 033b
00000320: 27fd 6aba bceb 87bc 56f2 11bc 1dfe 5bbc
00000330: 2504 45bc 6a52 b03a a0a1 f93b 5037 ba3c
00000340: ecaa 323b 4f7f 16bc 3e1f 413c fb41 003c
00000350: 4023 643c c76f dcbb 7ad6 c6bc 7b80 253c
00000360: 58a4 d63c 3600 023b 4bc3 72bb eb0b 183c
00000370: cc39 b93c a5f8 ba3a 07ec 923b 75a9 0d3b
00000380: dafa 29bd acc0 7fbc 3b31 053c 3acd 823b
00000390: b75b ac3b d655 50bb 5725 1a3c 1823 3ebc
000003a0: 2114 f6ba 858e 963c 2718 e7bc 2fa9 58ba
000003b0: 1258 453c e80a 10bb 4542 463c 6efe a53b
000003c0: 1766 403b 2ae0 cdbc

h2o.weight f4 [6, 242]
-0.082246654 0.18464273 0.092714235 0.15954097 -0.043560214 -0.07711803 -0.058346 -0.07581327
-0.055152893 0.14569506 0.025914488 0.025244763 0.0976463 0.1393866 0.09255116 0.105312265
0.08393036 -0.13379896 -0.016889742 -0.009709424 -0.14510602 0.036393296 -0.09804065 -0.031456005
-0.1328161 0.09459126 0.13323861 0.16024795 0.13742343 0.02641001 0.14813879 0.063045464
0.015823362 -0.0054860055 -0.20027485 0.067342944 0.054157075 0.049291737 0.05381194 -0.08636962
-0.1307338 0.070355095 0.16976203 -0.03832679 -0.032309335 0.07758194 0.10793091 -0.095010564
0.13661775 -0.07216195 -0.08627732 0.007412046 0.036123246 -0.11175862 -0.118300304 0.006497409
0.1437067 -0.06666468 -0.07904442 0.058847845 0.053956714 -0.096459076 -0.063041985 0.059262447
-0.07001923 0.086251244 0.14814419 -0.03820323 -0.07869521 0.050670993 0.16246633 -0.06990515
0.017519861 0.11112233 -0.021326486 -0.010822617 -0.0133653125 0.14645734 0.061151654 -0.13404368
0.009986398 0.07737257 -0.06677033 -0.26331544 0.0658541 0.17449269 -0.10923741 0.040594414
-0.015556404 0.14133887 -0.1774604 0.052857082 -0.09862678 0.065739505 -0.12506886 0.09399704
-0.054281693 -0.03343475 0.11005548 0.16497189 -0.119245246 0.024483196 -0.13993524 -0.02372351
0.086241774 -0.1417928 0.03382711 -0.093057044 0.10712507 -0.059413236 0.024558034 0.18532704
0.08290227 0.15735595 -0.10398014 -0.08271987 -0.11570809 -0.008675803 0.079812534 -0.08015945
0.08127345 -0.07422465 -0.016100923 0.025434552 -0.113886416 -0.08463712 0.0024573463 0.14141637
-0.081921406 0.13296025 -0.09161849 0.1609635 0.2501169 0.02118278 0.16896854 -0.032188896
-0.06318828 0.14721487 0.11141445 -0.08152042 0.08820754 -0.049931947 0.11871167 0.17562439
-0.1529512 -0.111256965 0.030639822 -0.121082276 0.015944565 -0.09593593 -0.022231746 0.189505
0.061033674 0.13627072 -0.13545474 0.030568186 -0.09187801 5.060693e-05 -0.14274997 -0.09213956
-0.055615034 0.04314714 0.049940363 0.11427004 0.054057255 -0.11581801 0.07931796 0.1277463
0.16891885 0.09837486 0.16525799 -0.0559355 -0.098651126 0.072213516 -0.03626394 -0.012300632
0.05223988 0.10343359 0.14428146 0.16227666 -0.10150433 0.03257342 0.06576817 -0.07710935
0.07587806 -0.2060322 -0.005147932 0.09564733 -0.05825923 -0.030905409 0.030151226 0.08257028
-0.011662573 0.12790273 0.19817351 0.03753889 -0.19590198 0.14535949 0.11536547 0.083811134
-0.12962918 0.13055398 -0.10460798 0.004552572 0.13069157 -0.20434837 0.13350634 -0.13955826
-0.054233845 -0.14504322 -0.1170179 -0.077370256 0.073269196 0.12070678 0.018554604 0.069322094
-0.15460874 0.08137506 -0.091973 -0.16017663 0.028403323 0.16653895 0.025813658 -0.06496964
0.049487263 0.15276884 0.07007604 -0.13944824 0.09883995 0.11589383 0.115654334 0.14777245
-0.010614602 -0.119155355 0.05178798 0.07572377 -0.21353325 0.11429533 -0.010826789 -0.12760529
-0.0011317686 -0.091036364 0.013217025 0.071380675 0.10407578 0.14885025 -0.062395997 0.00043450872
0.085048296 -0.12615079 0.012173907 -0.06556363 0.088736504 0.060356185 -0.033056505 0.10008551
00000000: ef70 a8bd fc12 3d3e f6e0 bd3d b55e 233e
00000010: 326c 32bd 0ff0 9dbd 37fc 6ebd fd43 9bbd
00000020: 00e8 61bd 1631 153e 9f4a d43c 1bce ce3c
00000030: c9fa c73d 5cbb 0e3e 768b bd3d f5ad d73d
00000040: aee3 ab3d 9802 09be 5b5c 8abc 4714 1fbc
00000050: ac96 14be 2311 153d 89c9 c8bd 03d8 00bd
00000060: f200 08be 10b9 c13d b46f 083e 0a18 243e
00000070: bab8 0c3e ce59 d83c b2b1 173e fb1d 813d
00000080: ff9f 813c f3c3 b3bb da14 4dbe 19eb 893d
00000090: cfd3 5d3d 22e6 493d e969 5c3d 8ee2 b0bd
000000a0: 15df 05be 5516 903d 19d6 2d3e 8dfc 1cbd
000000b0: cb56 04bd 48e3 9e3d e20a dd3d e694 c2bd
000000c0: 86e5 0b3e a5c9 93bd 2ab2 b0bd c0e0 f23b
000000d0: f8f5 133d b4e1 e4bd 6e47 f2bd 38e8 d43b
000000e0: d927 133e 7e87 88bd 0ae2 a1bd 700a 713d
000000f0: b701 5d3d 568c c5bd 281c 81bd 2ebd 723d
00000100: 3e66 8fbd 7ea4 b03d 1cb3 173e fd7a 1cbd
00000110: f42a a1bd 638c 4f3d 935d 263e 6e2a 8fbd
00000120: d085 8f3c 1b94 e33d e2b4 aebc 5951 31bc
00000130: 2ffa 5abc eaf8 153e 287a 7a3d bf42 09be
00000140: fd9d 233c 8375 9e3d e2be 88bd 48d1 86be
00000150: 84de 863d 36ae 323e ddb7 dfbd 5446 263d
00000160: 4ae0 7ebc 23bb 103e 2eb8 35be ab80 583d
00000170: d6fc c9bd 6fa2 863d 0d12 00be 8581 c03d
00000180: 7b56 5ebd e0f2 08bd c464 e13d 64ee 283e
00000190: da36 f4bd fc90 c83c 2f4b 0fbe ce57 c2bc
000001a0: 879f b03d 2232 11be 4c8e 0a3d b194 bebd
000001b0: 6464 db3d 4b5b 73bd ee2d c93c 5fc6 3d3e
000001c0: aac8 a93d eb21 213e 8af3 d4bd 0969 a9bd
000001d0: 5df8 ecbd f524 0ebc c174 a33d a32a a4bd
000001e0: b272 a63d 1803 98bd 15e6 83bc 1f5c d03c
000001f0: 483d e9bd 3a56 adbd 6e0b 213b 74cf 103e
00000200: 69c6 a7bd bb26 083e 7aa2 bbbd 9ed3 243e
00000210: 530f 803e 8287 ad3c 1706 2d3e 81d8 03bd
00000220: db68 81bd 7fbf 163e 422d e43d 2ef4 a6bd
00000230: 28a6 b43d 7185 4cbd 1b1f f33d e1d6 333e
00000240: 3d9f 1cbe b1da e3bd 5d00 fb3c fcf9 f7bd
00000250: 2d9e 823c 0f7a c4bd 5a1f b6bc 990d 423e
00000260: 72fe 793d 8d8a 0b3e a6b4 0abe 226a fa3c
00000270: 8a2a bcbd c742 5438 0c2d 12be aab3 bcbd
00000280: 97cc 63bd 0ebb 303d 448e 4c3d 6906 ea3d
00000290: 246b 5d3d fe31 edbd 7471 a23d edcf 023e
000002a0: 10f9 2c3e c278 c93d 6439 293e 9f1c 65bd
000002b0: 9a09 cabd aee4 933d 7f89 14bd 9788 49bc
000002c0: 7cf9 553d fdd4 d33d 85be 133e da2b 263e
000002d0: 81e1 cfbd b56b 053d 76b1 863d 82eb 9dbd
000002e0: f565 9b3d 1bfa 52be fcaf a8bb bfe2 c33d
000002f0: 3ba1 6ebd 572d fdbc b4ff f63c 9b1a a93d
00000300: 6014 3fbc eff8 023e ffed 4a3e 61c2 193d
00000310: 879a 48be 1ed9 143e bb44 ec3d 2ca5 ab3d
00000320: 83bd 04be f1af 053e b53c d6bd be2d 953b
00000330: 03d4 053e b340 51be e3b5 083e 5ce8 0ebe
00000340: 4f24 5ebd 3686 14be 15a7 efbd 4c74 9ebd
00000350: 290e 963d 1e35 f73d d3ff 973c bef8 8d3d
00000360: c151 1ebe f8a7 a63d 575c bcbd 5805 24be
00000370: 16ae e83c 3089 2a3e 2a77 d33c cd0e 85bd
00000380: 28b3 4a3d 6f6f 1c3e 0784 8f3d 85cb 0ebe
00000390: 9a6c ca3d bf59 ed3d 2edc ec3d a951 173e
000003a0: dee8 2dbc b907 f4bd a21f 543d 1015 9b3d
000003b0: 76a8 5abe ac13 ea3d d862 31bc f6aa 02be
000003c0: da57 94ba 4671 babd 398c 583c 0830 923d
000003d0: af25 d53d 336c 183e f292 7fbd c6ce e339
000003e0: cd2d ae3d ac2d 01be 1175 473c 3946 86bd
000003f0: 7cbb b53d 0c38 773d 4266 07bd a2f9 cc3d

h2o.bias f4 [6]
-0.007891855 0.020900527 0.001304017 0.008364162 -0.0040365234 0.042883415
00000000: d74c 01bc 9537 ab3c 8deb aa3a d709 093c
00000010: d044 84bb 85a6 2f3d

h2h.weight f4 [242, 242]
0.045946967 0.1118507 -0.03692333 -0.020899845 -0.1889537 0.0357234 -0.10153578 -0.062449347
0.005921125 -0.011938017 -0.034200497 -0.059916314 -0.07457459 0.026945168 0.07356243 -0.062530346
-0.01463498 -0.093658604 0.0012100985 -0.03208147 -0.06548445 0.08910213 0.022395778 -0.056040566
0.11120996 0.10098895 -0.10333992 0.008759186 -0.114549324 -0.029976726 0.03312213 -0.04963469
0.09183362 -0.03365102 0.037702378 0.099101834 -0.03596787 0.0059927846 0.013201683 -0.13813561
0.04216846 -0.06104516 -0.12698247 -0.039816998 0.043723863 -0.11316066 -0.012389318 -0.041856308
0.1016943 0.06871884 -0.0443765 -0.06600722 -0.15180025 -0.023748016 0.14405598 -0.12382396
0.08644437 0.09376621 -0.04731513 -0.012047699 -0.033240095 -0.018938519 0.009897069 -0.02253374
0.1152243 0.0060045696 -0.054301947 0.021480849 0.052683912 -0.062406786 -0.11809354 -0.09245331
-0.03144033 0.0662351 -0.0543731 -0.0036992615 -0.050387982 -0.06718251 -0.03529458 -0.13283816
0.027366366 0.11409727 0.035327543 -0.042892393 -0.10424524 -0.0011868377 0.108908854 -0.059828345
0.07499831 0.05465502 0.09607108 -0.008537132 -0.017479518 0.025911829 -0.035685487 -0.10585416
0.007828805 0.07646831 0.04113536 -0.0659169 0.042820685 -0.018067263 -0.0208018 -0.100679845
0.010148365 -0.029860158 0.022659685 -0.052772295 -0.004012282 -0.0014094576 0.06950232 0.12575878
-0.016876262 0.08379777 -0.049544092 -0.021897005 0.013209655 -0.05006387 0.0021323534 0.10024404
-0.037055265 0.06350367 -0.014921499 -0.0059361267 -0.02969368 0.01890426 0.07538072 -0.00432342
0.016194379 -0.07222883 0.0047160205 -0.12356186 0.029835032 0.03576013 -0.04612406 -0.10316355
-0.11143937 -0.08712631 -0.043602414 0.035246383 -0.074893266 0.032395694 -0.031503785 -0.07424272
-0.0050472775 -0.031958554 -0.04476197 0.063669376 0.09114173 -0.117877044 -0.07863125 0.006121101
0.0912929 0.041163776 -0.013410142 -0.02503228 -0.09575506 -0.017838502 -0.013161224 -0.0738461
-0.032771364 -0.017013257 0.0409919 0.066390276 0.022356352 -0.14881898 -0.04944107 -0.056037247
0.022825055 0.001227281 -0.03151148 -0.036887094 -0.17136365 0.049338855 0.0070572696 0.042490996
-0.018511308 -0.0011781352 -0.056855302 -0.028080484 0.033101775 -0.02482516 -0.0765935 -0.052228086
-0.11208986 0.019872896 0.06148916 0.014685614 -0.11285329 -0.051032405 -0.103274606 -0.03192985
-0.029166747 0.03871399 -0.022690067 0.099594615 -0.14188586 -0.011082302 -0.042241786 0.019431604
0.022309538 0.06920046 0.0033065244 -0.052780237 -0.10737665 -0.030175338 -0.06157523 -0.056990393
0.03235565 -0.012086347 -0.06902249 0.10826129 0.0848633 0.06908174 0.073946044 -0.009462848
-0.0286691 -0.022815391 -0.07916183 -0.025494024 0.10722351 0.026587585 0.11719672 -0.0962126
0.013374294 0.02911109 -0.03835413 0.15826695 0.07288644 0.11182164 -0.043623585 -0.028196506
0.0762043 0.097180255 0.032913294 -0.083045274 -0.030245699 -0.012958371 0.04655492 0.03434665
0.0688933 0.08306941 -0.05764567 -0.04857615 0.045617692 0.061983537 -0.03319501 -0.041527275
0.14574064 -0.086085804 -0.02296121 -0.02470924 0.05602562 0.061748814 0.012057788 0.0074000834
00000000: e332 3c3d fb11 e53d eb3c 17bd 2736 abbc
00000010: 147d 41be b352 123d fef1 cfbd e3ca 7fbd
00000020: ff05 c23b ac97 43bc d215 0cbd cf6a 75bd
00000030: 90ba 98bd 1dbc dc3c e6a7 963d e90f 80bd
00000040: 8ec7 6fbc 15d0 bfbd 2b9c 9e3a dc67 03bd
00000050: b61c 86bd 2d7b b63d 5a77 b73c cb8a 65bd
00000060: 0cc2 e33d 4bd3 ce3d e1a3 d3bd b082 0f3c
00000070: d698 eabd c091 f5bc 12ab 073d bf4d 4bbd
00000080: 4413 bc3d a7d5 09bd cf6d 1a3d e7f5 ca3d
00000090: 0c53 13bd 1f5f c43b df4b 583c 6c73 0dbe
000000a0: d6b8 2c3d 7d0a 7abd b107 02be 2617 23bd
000000b0: cb17 333d c7c0 e7bd 91fc 4abc 8571 2bbd
000000c0: 1a45 d03d 77bc 8c3d 22c4 35bd cb2e 87bd
000000d0: 8671 1bbe 338b c2bc 6983 133e 6b97 fdbd
000000e0: bf09 b13d 8008 c03d 82cd 41bd b663 45bc
000000f0: c426 08bd f424 9bbc 5127 223c ae98 b8bc
00000100: b8fa eb3d fbc1 c43b b86b 5ebd 9bf8 af3c
00000110: 16cb 573d 429e 7fbd 07db f1bd 2958 bdbd
00000120: 93c7 00bd 45a6 873d 54b6 5ebd 4f6f 72bb
00000130: a163 4ebd fc96 89bd 0d91 10bd ba06 08be
00000140: 6e2f e03c d4ab e93d 9db3 103d efaf 2fbd
00000150: 877e d5bd aa8f 9bba 9b0b df3d 910e 75bd
00000160: b798 993d f1dd 5f3d eac0 c43d 54df 0bbc
00000170: 3531 8fbc 0b45 d43c f22a 12bd 11ca d8bd
00000180: 6344 003c 6b9b 9c3d 8d7d 283d 71ff 86bd
00000190: be64 2f3d cc01 94bc 8968 aabc 3c31 cebd
000001a0: 5445 263c 4a9d f4bc cea0 b93c c327 58bd
000001b0: 7679 83bb 8dbd b8ba 3b57 8e3d e9c6 003e
000001c0: 1640 8abc 2a9e ab3d bfee 4abd 5961 b3bc
000001d0: 4f6d 583c c60f 4dbd f4be 0b3b bf4c cd3d
000001e0: 43c7 17bd 360e 823d 4e79 74bc d783 c2bb
000001f0: 2940 f3bc 1bdd 9a3c 3561 9a3d 7aab 8dbb
00000200: 13aa 843c b5ec 93bd d988 9a3b 000e fdbd
00000210: 9968 f43c 3779 123d 95ec 3cbd 6947 d3bd
00000220: 533a e4bd 476f b2bd 7298 32bd 835e 103d
00000230: a461 99bd 59b1 043d 1d0a 01bd 910c 98bd
00000240: a263 a5bb f9e6 02bd 5458 37bd 1765 823d
00000250: 84a8 ba3d 8569 f1bd 6c09 a1bd 8493 c83b
00000260: c6f7 ba3d 599b 283d 36b6 5bbc 7f10 cdbc
00000270: 3b1b c4bd 0d22 92bc 2da2 57bc a03c 97bd
00000280: 443b 06bd 635f 8bbc 1fe7 273d a0f7 873d
00000290: ab24 b73c 0164 18be b882 4abd 5087 65bd
000002a0: 9cfb ba3c b8dc a03a 2f12 01bd ec16 17bd
000002b0: f479 2fbe 8a17 4a3d ab40 e73b 0a0b 2e3d
000002c0: 07a5 97bc a86b 9aba 1be1 68bd 0b09 e6bc
000002d0: ba95 073d 225e cbbc 0edd 9cbd 1eed 55bd
000002e0: 5e8f e5bd 7ccc a23c 0fdc 7b3d ee9b 703c
000002f0: a01f e7bd 5b07 51bd a381 d3bd e0c8 02bd
00000300: 1aef eebc 9092 1e3d 85e0 b9bc 43f8 cb3d
00000310: 874a 11be 8b92 35bc b905 2dbd 072f 9f3c
00000320: 7ec2 b63c f9b8 8d3d 46b2 583b 1730 58bd
00000330: 4ae8 dbbd 4532 f7bc 4f36 7cbd c26e 69bd
00000340: 5c87 043d d005 46bc aa5b 8dbd 18b8 dd3d
00000350: cfcc ad3d ba7a 8d3d 0671 973d 100a 1bbc
00000360: 76db eabc 58e7 babc 991f a2bd d8d8 d0bc
00000370: 0098 db3d 35ce d93c d504 f03d 1d0b c5bd
00000380: db1f 5b3c 617a ee3c 3819 1dbd bb10 223e
00000390: 7c45 953d be02 e53d a5ae 32bd 5cfc e6bc
000003a0: 0011 9c3d 7106 c73d 17d0 063d a413 aabd
000003b0: d4c5 f7bc 594f 54bc 5fb0 3e3d 13af 0c3d
000003c0: ee17 8d3d 4b20 aa3d de1d 6cbd c9f7 46bd
000003d0: 9ed9 3a3d 73e2 7d3d 7ef7 07bd 8118 2abd
000003e0: 093d 153e c14d b0bd 2619 bcbc 086b cabc
000003f0: 1f7b 653d 53ec 7c3d 078e 453c 667c f23b

h2h.bias f4 [242]
0.004447979 -0.020211494 -0.006246164 -0.0012026941 -0.018060256 0.0051872986 -0.007303975 -0.004869368
0.014781454 -0.011076935 -0.009881681 -0.003923515 -0.013215087 -0.0059260107 -0.014870925 -0.003003211
-0.0048365584 0.009434272 0.0043146964 0.011471262 -2.3603794e-05 0.0025470245 0.009592428 0.01839411
0.01303366 -0.010218491 -0.004852243 0.014736493 0.008524925 -0.005460867 0.009722956 -0.0013363959
0.0060081105 0.001761523 0.012613939 -0.055027664 -0.012431062 -0.013722948 0.008942338 -0.0015599396
0.028860234 0.001413052 -0.012978404 -0.015907971 0.018473556 -0.013949082 -0.0030693759 -0.0028452508
0.019262785 0.0070861992 0.0056103007 -0.010410075 0.0051897946 0.013807746 -0.0046671275 -0.008173871
0.0005731373 0.011760963 0.009424614 -0.0049929214 -0.0065997425 0.007575697 0.013266227 0.011654975
0.0016348512 -0.013531248 0.0001512501 0.012853412 0.014216773 -0.005750317 -0.060150865 -0.0023088218
-0.014165323 2.3086948e-05 0.018558118 0.007341421 -0.0154196285 -0.010050998 -0.004691505 -0.009996446
-0.015603601 -0.012572499 0.005940425 -0.0030934755 -0.008208319 0.0075747073 0.0124169905 0.011319835
0.05012568 -0.008400419 0.0415531 0.02225198 0.0027143357 -0.006145398 0.00301952 0.012503618
-0.0144369695 -0.012800965 0.01890287 0.005188154 0.020569416 0.022570804 0.003599448 -0.0011547632
0.0040339 0.015486588 -0.0023799438 -0.0041259807 -0.0011619325 0.026048405 -0.010318284 -0.020593392
-0.0066421973 -0.035435464 0.004178437 -0.0044248784 0.019988226 0.0028834601 0.010984574 0.033864886
-0.007977821 -0.0044202753 0.0025377632 -0.0011115473 0.009255016 0.02311255 0.005476351 -0.01378904
0.0067087635 -0.014122968 0.0015520743 -0.008750424 -0.042019453 -0.037549682 -0.0053021815 -0.012276817
0.0008975198 -0.04158349 -0.022697516 0.0101602655 -0.012576669 0.003889744 0.006046744 0.010930739
0.027140336 0.0039892793 0.0130091095 -0.00036156288 -0.00089314254 0.016704403 -0.002174612 0.010337013
-0.00035885884 -0.013641506 -6.7152985e-05 -0.013200481 -0.012384479 0.012162806 0.009817096 0.007220674
0.0020359375 -0.016474333 0.0033599047 -0.0155503955 -0.004356456 -0.006223286 -0.007129562 0.002911579
0.006534979 -0.011798998 -0.0059790974 -0.0077983937 -0.007674971 -0.0103879785 -0.01474172 -0.010204741
-0.026318183 -0.013420729 -0.010789297 -0.0014214996 0.0168132 -0.009777426 -0.021288028 -0.012181173
-0.004800267 0.027915403 -0.016513526 -0.005571504 0.0208641 0.014566237 0.00345939 -0.011324911
-0.013918463 -0.018305963 0.002850806 -0.012472772 0.0115058245 -0.010704834 -0.009470761 0.002004364
-0.0008964114 -0.0165919 -0.008907875 -0.013427285 -0.012024914 0.0013452296 0.007618144 0.022731453
0.0027262522 -0.009185626 0.011787234 0.007828231 0.01392442 -0.006727192 -0.024272192 0.010101433
0.026201412 0.0019836552 -0.0037042673 0.009280185 0.022610568 0.0014264776 0.004483703 0.0021615897
-0.041498996 -0.015609901 0.008129413 0.00399175 0.0052599567 -0.0031789443 0.009408317 -0.011605047
-0.001877431 0.018378505 -0.028209759 -0.00082649564 0.012044923 -0.0021979157 0.012100761 0.005065731
0.0029357725 -0.025131304
00000000: 5ac0 913b 9392 a5bc 9fac ccbb b8a3 9dba
00000010: 1af3 93bc 37fa a93b 2f56 efbb 388f 9fbb
00000020: e92d 723c 087c 35bc c6e6 21bc d490 80bb
00000030: 1884 58bc fb2e c2bb 2ea5 73bc 85d1 44bb
00000040: fe7b 9ebb 3492 1a3c 4c62 8d3b f6f1 3b3c
00000050: c300 c6b7 fbeb 263b 8f29 1d3c 3faf 963c
00000060: 228b 553c 756b 27bc 90ff 9ebb 5571 713c
00000070: 21ac 0b3c 13f1 b2bb 094d 1f3c 012a afba
00000080: afdf c43b e7e2 e63a b2aa 4e3c b064 61bd
00000090: a7ab 4bbc 37d6 60bc e282 123c e376 ccba
000000a0: 4c6c ec3c 2836 b93a 5fa3 54bc 6f51 82bc
000000b0: db55 973c b18a 64bc 9527 49bb 6377 3abb
000000c0: fdcc 9d3c 5933 e83b 9dd6 b73b 058f 2abc
000000d0: 270f aa3b e239 623c b4ee 98bb b3eb 05bc
000000e0: 983e 163a 0eb1 403c b269 1a3c a99b a3bb
000000f0: a742 d8bb 8d3d f83b 975a 593c 82f4 3e3c
00000100: 8148 d63a 2bb2 5dbc e498 1e39 1e97 523c
00000110: 78ed 683c 286d bcbb c160 76bd 9a4f 17bb
00000120: ac15 68bc d8aa c137 3207 983c 4e90 f03b
00000130: 9ca2 7cbc f1ac 24bc 32bb 99bb 22c8 23bc
00000140: 3fa6 7fbc e2fc 4dbc e6a7 c23b e8bb 4abb
00000150: 2f7c 06bc 4035 f83b a270 4b3c d476 393c
00000160: 9650 4d3d e9a1 09bc 9533 2a3d c949 b63c
00000170: ffe2 313b 565f c9bb 24e3 453b fadb 4c3c
00000180: 0a89 6cbc 24bb 51bc 31da 9a3c 6401 aa3b
00000190: 3181 a83c 68e6 b83c b7e4 6b3b 6c5b 97ba
000001a0: ce2e 843b 75bb 7d3c d5f8 1bbb 3c33 87bb
000001b0: fc4b 98ba 7763 d53c 050e 29bc 79b3 a8bc
000001c0: caa6 d9bb c724 11bd 45eb 883b 92fe 90bb
000001d0: 59be a33c 6ff8 3c3b a5f8 333c e8b5 0a3d
000001e0: 68b5 02bc f5d7 90bb 9a50 263b 57b1 91ba
000001f0: 5aa2 173c 8856 bd3c f672 b33b 6deb 61bc
00000200: 30d5 db3b 0564 67bc f96e cb3a f05d 0fbc
00000210: 971c 2cbd b2cd 19bd ecbd adbb b424 49bc
00000220: 8947 6b3a 7353 2abd 24f0 b9bc 3e77 263c
00000230: 600e 4ebc 13eb 7e3b c423 c63b d816 333c
00000240: 6955 de3c 80b8 823b 2924 553c 2690 bdb9
00000250: c821 6aba acd7 883c ef83 0ebb 935c 293c
00000260: 3825 bcb9 a080 5fbc 7cd4 8cb8 d546 58bc
00000270: 45e8 4abc 8146 473c e3d7 203c 679b ec3b
00000280: 5d6d 053b 2ef5 86bc d931 5c3b 16c7 7ebc
00000290: 9ac0 8ebb b5ec cbbb 1a9f e9bb 31d0 3e3b
000002a0: 6123 d63b 9650 41bc 4eec c3bb ab89 ffbb
000002b0: 537e fbbb 5732 2abc 4187 71bc c931 27bc
000002c0: 3b99 d7bc 9ee2 5bbc 97c5 30bc 9d51 baba
000002d0: d6bb 893c 7f31 20bc 3b64 aebc 8b93 47bc
000002e0: 8f4b 9dbb d8ae e43c 6047 87bc 2a91 b6bb
000002f0: 30eb aa3c 3aa7 6e3c efb6 623b 1f8c 39bc
00000300: 440a 64bc 63f6 95bc 97d4 3a3b 995a 4cbc
00000310: ed82 3c3c 5463 2fbc 402b 1bbc a65b 033b
00000320: 27fd 6aba bceb 87bc 56f2 11bc 1dfe 5bbc
00000330: 2504 45bc 6a52 b03a a0a1 f93b 5037 ba3c
00000340: ecaa 323b 4f7f 16bc 3e1f 413c fb41 003c
00000350: 4023 643c c76f dcbb 7ad6 c6bc 7b80 253c
00000360: 58a4 d63c 3600 023b 4bc3 72bb eb0b 183c
00000370: cc39 b93c a5f8 ba3a 07ec 923b 75a9 0d3b
00000380: dafa 29bd acc0 7fbc 3b31 053c 3acd 823b
00000390: b75b ac3b d655 50bb 5725 1a3c 1823 3ebc
000003a0: 2114 f6ba 858e 963c 2718 e7bc 2fa9 58ba
000003b0: 1258 453c e80a 10bb 4542 463c 6efe a53b
000003c0: 1766 403b 2ae0 cdbc
