VLSI23_journal/intuitivechip_classifier_lcsvsnlcs_teensy_run2/SNN_ep-150-isize-1-8-1-hsize-242-bsize-32-lr-0.001-tmax_ms-400.0-Ts-10.0-k-6-dsetPath-VMODE_allchannels_ALLCLASS_auto_nospkfilter_cleaned_1x8_180mvpp_250mvofs_onedac_itail_50nA_N2b_OFFdcard/chip-classifier-2.pt (torch, 253495 bytes, 8 tensors)

thr_h_1 f4 [242]
1.0 1.0 1.0 1.0 1.0 1.0 1.0 1.0
1.0 1.0 1.0 1.0 1.0 1.0 1.0 1.0
1.0 1.0 1.0 1.0 1.0 1.0 1.0 1.0
1.0 1.0 1.0 1.0 1.0 1.0 1.0 1.0
1.0 1.0 1.0 1.0 1.0 1.0 1.0 1.0
1.0 1.0 1.0 1.0 1.0 1.0 1.0 1.0
1.0 1.0 1.0 1.0 1.0 1.0 1.0 1.0
1.0 1.0 1.0 1.0 1.0 1.0 1.0 1.0
1.0 1.0 1.0 1.0 1.0 1.0 1.0 1.0
1.0 1.0 1.0 1.0 1.0 1.0 1.0 1.0
1.0 1.0 1.0 1.0 1.0 1.0 1.0 1.0
1.0 1.0 1.0 1.0 1.0 1.0 1.0 1.0
1.0 1.0 1.0 1.0 1.0 1.0 1.0 1.0
1.0 1.0 1.0 1.0 1.0 1.0 1.0 1.0
1.0 1.0 1.0 1.0 1.0 1.0 1.0 1.0
1.0 1.0 1.0 1.0 1.0 1.0 1.0 1.0
1.0 1.0 1.0 1.0 1.0 1.0 1.0 1.0
1.0 1.0 1.0 1.0 1.0 1.0 1.0 1.0
1.0 1.0 1.0 1.0 1.0 1.0 1.0 1.0
1.0 1.0 1.0 1.0 1.0 1.0 1.0 1.0
1.0 1.0 1.0 1.0 1.0 1.0 1.0 1.0
1.0 1.0 1.0 1.0 1.0 1.0 1.0 1.0
1.0 1.0 1.0 1.0 1.0 1.0 1.0 1.0
1.0 1.0 1.0 1.0 1.0 1.0 1.0 1.0
1.0 1.0 1.0 1.0 1.0 1.0 1.0 1.0
1.0 1.0 1.0 1.0 1.0 1.0 1.0 1.0
1.0 1.0 1.0 1.0 1.0 1.0 1.0 1.0
1.0 1.0 1.0 1.0 1.0 1.0 1.0 1.0
1.0 1.0 1.0 1.0 1.0 1.0 1.0 1.0
1.0 1.0 1.0 1.0 1.0 1.0 1.0 1.0
1.0 1.0
00000000: 0000 803f 0000 803f 0000 803f 0000 803f
00000010: 0000 803f 0000 803f 0000 803f 0000 803f
00000020: 0000 803f 0000 803f 0000 803f 0000 803f
00000030: 0000 803f 0000 803f 0000 803f 0000 803f
00000040: 0000 803f 0000 803f 0000 803f 0000 803f
00000050: 0000 803f 0000 803f 0000 803f 0000 803f
00000060: 0000 803f 0000 803f 0000 803f 0000 803f
00000070: 0000 803f 0000 803f 0000 803f 0000 803f
00000080: 0000 803f 0000 803f 0000 803f 0000 803f
00000090: 0000 803f 0000 803f 0000 803f 0000 803f
000000a0: 0000 803f 0000 803f 0000 803f 0000 803f
000000b0: 0000 803f 0000 803f 0000 803f 0000 803f
000000c0: 0000 803f 0000 803f 0000 803f 0000 803f
000000d0: 0000 803f 0000 803f 0000 803f 0000 803f
000000e0: 0000 803f 0000 803f 0000 803f 0000 803f
000000f0: 0000 803f 0000 803f 0000 803f 0000 803f
00000100: 0000 803f 0000 803f 0000 803f 0000 803f
00000110: 0000 803f 0000 803f 0000 803f 0000 803f
00000120: 0000 803f 0000 803f 0000 803f 0000 803f
00000130: 0000 803f 0000 803f 0000 803f 0000 803f
00000140: 0000 803f 0000 803f 0000 803f 0000 803f
00000150: 0000 803f 0000 803f 0000 803f 0000 803f
00000160: 0000 803f 0000 803f 0000 803f 0000 803f
00000170: 0000 803f 0000 803f 0000 803f 0000 803f
00000180: 0000 803f 0000 803f 0000 803f 0000 803f
00000190: 0000 803f 0000 803f 0000 803f 0000 803f
000001a0: 0000 803f 0000 803f 0000 803f 0000 803f
000001b0: 0000 803f 0000 803f 0000 803f 0000 803f
000001c0: 0000 803f 0000 803f 0000 803f 0000 803f
000001d0: 0000 803f 0000 803f 0000 803f 0000 803f
000001e0: 0000 803f 0000 803f 0000 803f 0000 803f
000001f0: 0000 803f 0000 803f 0000 803f 0000 803f
00000200: 0000 803f 0000 803f 0000 803f 0000 803f
00000210: 0000 803f 0000 803f 0000 803f 0000 803f
00000220: 0000 803f 0000 803f 0000 803f 0000 803f
00000230: 0000 803f 0000 803f 0000 803f 0000 803f
00000240: 0000 803f 0000 803f 0000 803f 0000 803f
00000250: 0000 803f 0000 803f 0000 803f 0000 803f
00000260: 0000 803f 0000 803f 0000 803f 0000 803f
00000270: 0000 803f 0000 803f 0000 803f 0000 803f
00000280: 0000 803f 0000 803f 0000 803f 0000 803f
00000290: 0000 803f 0000 803f 0000 803f 0000 803f
000002a0: 0000 803f 0000 803f 0000 803f 0000 803f
000002b0: 0000 803f 0000 803f 0000 803f 0000 803f
000002c0: 0000 803f 0000 803f 0000 803f 0000 803f
000002d0: 0000 803f 0000 803f 0000 803f 0000 803f
000002e0: 0000 803f 0000 803f 0000 803f 0000 803f
000002f0: 0000 803f 0000 803f 0000 803f 0000 803f
00000300: 0000 803f 0000 803f 0000 803f 0000 803f
00000310: 0000 803f 0000 803f 0000 803f 0000 803f
00000320: 0000 803f 0000 803f 0000 803f 0000 803f
00000330: 0000 803f 0000 803f 0000 803f 0000 803f
00000340: 0000 803f 0000 803f 0000 803f 0000 803f
00000350: 0000 803f 0000 803f 0000 803f 0000 803f
00000360: 0000 803f 0000 803f 0000 803f 0000 803f
00000370: 0000 803f 0000 803f 0000 803f 0000 803f
00000380: 0000 803f 0000 803f 0000 803f 0000 803f
00000390: 0000 803f 0000 803f 0000 803f 0000 803f
000003a0: 0000 803f 0000 803f 0000 803f 0000 803f
000003b0: 0000 803f 0000 803f 0000 803f 0000 803f
000003c0: 0000 803f 0000 803f

thr_o f4 [6]
1.0 1.0 1.0 1.0 1.0 1.0
00000000: 0000 803f 0000 803f 0000 803f 0000 803f
00000010: 0000 803f 0000 803f

i2h.weight f4 [242, 8]
-0.172491 0.028204495 0.04921784 0.115525104 0.089657374 0.048499007 -0.12047093 0.041891392
0.040539674 -0.06628872 -0.09759122 0.06458452 0.08845939 0.04044425 0.077356674 -0.09266657
0.12638411 -0.07819932 0.12615795 0.146198 -0.15145329 0.1785978 -0.15541583 0.047280256
0.17442282 0.12697668 0.10053688 -0.124045424 -0.11869888 -0.009564736 0.1313643 -0.11234812
0.15169014 -0.007824876 0.052760668 -0.17404248 0.09054904 0.011705609 0.034727566 -0.1198852
-0.11465827 -0.006931411 0.06434526 -0.10255032 0.14977169 0.06603432 0.0066922554 0.07554753
-0.0735791 0.12055718 1.6185964e-05 -0.14046274 0.081649095 0.13570969 -0.13933495 0.026822127
0.037915874 0.092243 0.0965586 -0.11811293 -0.0969556 0.1312621 -0.13903338 0.0004917384
0.07059779 -0.1041891 0.0766141 0.061884172 -0.13491823 0.09101477 -0.071880266 -0.06566666
0.06011279 -0.08891515 -0.1812237 -0.04535569 -0.083022796 0.03399638 0.045633327 0.083248176
0.1209839 0.039599996 0.09547743 -0.15327027 0.06462318 0.03914139 -0.018533694 -0.1156375
-0.0639787 0.028311938 -0.05919187 -0.20542435 -0.16112204 0.06526968 -0.14404967 -0.020768017
-0.08171519 0.1473419 0.08039031 -0.034574676 0.042254485 -0.06726643 -0.054119855 -0.062873214
0.112245336 0.06927715 0.069112696 0.09273354 -0.11743386 -0.035109397 -0.10812114 0.122933164
0.04260514 0.049953032 0.05905336 0.06558955 -0.061673127 -0.041634433 -0.057841435 0.14226986
-0.058038887 -0.13263641 0.09353475 -0.074561514 0.10320922 -0.02300686 0.11428856 0.07135097
0.08450409 -0.049262144 0.034773346 0.0839797 0.07072772 0.007037431 0.11894393 0.088849455
0.12764728 0.10361254 -0.12554654 -0.039226484 0.10078419 0.12343812 0.13032867 0.102239236
0.030699056 0.17479815 0.077057 -0.14006376 0.071242526 -0.17119421 0.041908123 -0.07817759
0.14606914 -0.11514223 0.098566584 0.10169294 0.1374115 0.17966576 0.030859787 -0.12483277
-0.15137832 0.13883348 0.0349698 0.07503828 0.14296736 0.08797801 -0.08839793 0.16663952
-0.12086848 0.06414279 0.08264056 0.14577137 -0.12853444 0.19940665 -0.07945652 -0.050997116
0.10520577 0.08250358 -0.06725652 0.0037711272 -0.06244578 0.1699077 -0.020139776 -0.10912571
-0.005742041 -0.10294954 -0.039224062 0.020306228 -0.034942232 -0.1343485 -0.07515417 0.105037615
-0.060650006 0.107617445 0.03751627 -0.017200567 0.12283681 -0.109907344 0.13392988 -0.09768473
-0.115923114 0.112874486 0.024190996 -0.09888739 0.12622842 0.13495424 0.12311705 -0.15005462
0.055894032 0.10112434 -0.04917055 0.112825885 -0.003053407 -0.059475463 0.018744836 -0.09093202
0.026790543 -0.11491149 -0.12349169 -0.11560436 -0.078495726 0.107528426 -0.048149 -0.088071615
-0.13509479 0.15202415 0.04628938 0.04933846 0.10490742 0.01580896 -0.12742662 0.01472389
0.14290252 0.12065244 0.096605316 -0.10149443 0.11908332 -0.15144846 -0.14923939 -0.056358393
-0.052329615 -0.010089062 -0.050784253 0.13936709 0.15090553 -0.053951282 -0.17863889 0.06795798
0.09543479 0.10235579 0.04891473 0.14795277 -0.08797284 -0.14401245 -0.029297343 0.15561667
00000000: 7ba1 30be 1d0d e73c a598 493d 6d98 ec3d
00000010: 499e b73d e5a6 463d 77b9 f6bd 4f96 2b3d
00000020: ee0c 263d 61c2 87bd e8dd c7bd e444 843d
00000030: 322a b53d dfa8 253d 2d6d 9e3d f8c7 bdbd
00000040: d66a 013e f726 a0bd 8d2f 013e eeb4 153e
00000050: 9216 1bbe 57e2 363e 5425 1fbe f1a8 413d
00000060: e59b 323e 2d06 023e 48e6 cd3d 870b febd
00000070: 6618 f3bd 69b5 1cbc 5d84 063e c516 e6bd
00000080: a954 1b3e e933 00bc 921b 583d 3138 32be
00000090: c671 b93d e2c8 3f3c 7e3e 0e3d 5f86 f5bd
000000a0: f4d1 eabd e420 e3bb 73c7 833d e705 d2bd
000000b0: c05d 193e 003d 873d b54a db3b aab8 9a3d
000000c0: a4b0 96bd afe6 f63d 18c7 8737 77d5 0fbe
000000d0: a437 a73d 7bf7 0a3e d2ad 0ebe 14ba db3c
000000e0: ad4d 1b3d e6e9 bc3d 84c0 c53d 31e5 f1bd
000000f0: a890 c6bd 9269 063e c45e 0ebe 01e8 003a
00000100: 9395 903d 1861 d5bd dae7 9c3d 427a 7d3d
00000110: 0128 0abe f465 ba3d f635 93bd 3e7c 86bd
00000120: d438 763d 2519 b6bd b592 39be e3c6 39bd
00000130: db07 aabd ca3f 0b3d 03ea 3a3d 057e aa3d
00000140: 68c6 f73d 9b33 223d ac89 c33d e2f2 1cbe
00000150: 2859 843d b952 203d f9d3 97bc 5bd3 ecbd
00000160: 4407 83bd 70ee e73c 2d73 72bd c35a 52be
00000170: 2dfd 24be 1cac 853d c281 13be b021 aabc
00000180: 4b5a a7bd cce0 163e ada3 a43d 2d9e 0dbd
00000190: 0a13 2d3d fbc2 89bd c8ac 5dbd acc3 80bd
000001a0: e2e0 e53d 2ee1 8d3d f58a 8d3d 15eb bd3d
000001b0: 2a81 f0bd dfce 0fbd 9e6e ddbd 62c4 fb3d
000001c0: ba82 2e3d 8d9b 4c3d f0e1 713d d053 863d
000001d0: f69c 7cbd de88 2abd 24eb 6cbd 31af 113e
000001e0: 2fba 6dbd d7d1 07be 268f bf3d b5b3 98bd
000001f0: 5b5f d33d e278 bcbc 1f10 ea3d 7520 923d
00000200: 7b10 ad3d 1ac7 49bd 7f6e 0e3d 8dfd ab3d
00000210: b2d9 903d 409a e63b e098 f33d b4f6 b53d
00000220: f8b5 023e d032 d43d 468f 00be f3ab 20bd
00000230: f167 ce3d 20cd fc3d e174 053e ce62 d13d
00000240: 967c fb3c 49fe 323e 0fd0 9d3d e06c 0fbe
00000250: 9ae7 913d 894d 2fbe daa7 2b3d 931b a0bd
00000260: 2693 153e b1cf ebbd 47dd c93d 6344 d03d
00000270: 9ab5 0c3e 4dfa 373e aacd fc3c 53a8 ffbd
00000280: eb02 1bbe 5d2a 0e3e 7e3c 0f3d abad 993d
00000290: 0966 123e d12d b43d f909 b5bd 8da3 2a3e
000002a0: e589 f7bd 4c5d 833d 743f a93d 1745 153e
000002b0: 889e 03be 4231 4c3e 1aba a2bd 5ae2 50bd
000002c0: 1f76 d73d a3f7 a83d c9bd 89bd 0425 773b
000002d0: 25c7 7fbd 49fc 2d3e 2cfc a4bc 4d7d dfbd
000002e0: bb27 bcbb 35d7 d2bd 69a9 20bd 3f59 a63c
000002f0: 961f 0fbd a792 09be 6eea 99bd f61d d73d
00000300: 246c 78bd 8966 dc3d a9aa 193d 34e8 8cbc
00000310: de91 fb3d 1a17 e1bd ea24 093e ef0e c8bd
00000320: 1969 edbd bd2a e73d 322c c63c 7985 cabd
00000330: 0642 013e 7231 0a3e cb24 fc3d eba7 19be
00000340: 24f1 643d 471a cf3d 0f67 49bd 4211 e73d
00000350: ab1b 48bb 8b9c 73bd c58e 993c 913a babd
00000360: d777 db3c b756 ebbd 36e9 fcbd fbc1 ecbd
00000370: 5ec2 a0bd dd37 dc3d e337 45bd e45e b4bd
00000380: 4a56 0abe 38ac 1b3e ef99 3d3d 2017 4a3d
00000390: b4d9 d63d cb81 813c 207c 02be 793c 713c
000003a0: 0a55 123e a018 f73d 02d9 c53d 50dc cfbd
000003b0: f5e1 f33d 4e15 1bbe 36d2 18be 0fd8 66bd
000003c0: 9457 56bd 984c 25bc 2603 50bd 3fb6 0e3e
000003d0: fb86 1a3e 05fc 5cbd 1ded 36be 8e2d 8b3d
000003e0: 5173 c33d ea9f d13d d05a 483d ee80 173e
000003f0: 1b2b b4bd 0078 13be fb00 f0bc fa59 1f3e

i2h.bias f4 [242]
0.0001566511 -0.020509696 0.02546006 0.041831706 0.0049686288 -0.0025506872 0.028790737 -0.018981833
-0.022468809 0.00085000216 0.0032264586 -0.031063061 -0.007338757 0.029744143 -0.007335279 -0.010399315
-0.040640213 -0.022135742 0.037195362 0.011510508 -0.003156555 0.01865252 0.014940488 0.005183634
0.008448099 -0.02483828 -0.010421715 -0.0059216334 -0.021133857 0.021007206 0.00012145758 0.0024053445
-4.5758017e-05 0.030989615 0.01666678 0.009348273 -0.0038423256 -0.0345599 -0.023623232 -0.03122967
0.017712183 0.0031368867 0.026796818 0.032971155 0.031103082 0.024312137 0.014779652 0.005952287
-0.009802837 -0.011273671 0.016215919 -0.033322413 -0.008701866 -0.004224457 0.0028733495 -0.01499513
-0.008706423 0.008084678 0.019450657 -0.00902525 0.004049269 -0.0015847232 0.009702566 0.013459561
-0.012442553 0.018105045 -0.029054983 0.002726099 0.012230068 -0.0077176658 0.0025377658 -0.00447547
0.01797103 0.034353025 0.02611293 -0.00787115 -0.01800252 0.0026806567 0.005088556 0.037734445
-0.0007539094 0.04437353 0.023438526 -0.01789115 -0.010691986 0.019196201 0.00043205483 -0.005933158
0.015420162 -0.010080572 0.020761972 -0.006098853 -0.01346474 -0.011564451 0.0069473 0.006137416
0.018584555 0.02402052 -0.0021602933 0.017187454 0.014872922 0.012904542 -0.0141516095 -0.03770016
0.0065506655 0.023070762 0.006366582 -0.027601287 -0.012615901 0.016141973 -0.019940395 0.025046026
-0.003413409 0.020173801 -0.0031884094 -0.020637441 -0.021284968 -0.03489724 0.0017102556 -0.005724662
0.0106126005 0.042230606 -0.01890748 -0.003158921 -0.022183504 0.0019734565 -0.025955794 -0.029360022
-0.00022888654 -0.010630922 -0.011102208 0.013019914 0.004542661 -0.006504303 0.02269267 0.028780524
0.028589604 0.022038788 -0.017089931 0.009105934 0.020753117 -0.010880506 -0.01558582 -0.0022693404
-0.028603246 0.008005112 -0.017546477 0.01735648 -0.0034481816 -0.01884741 0.023618076 0.008428639
0.0015588036 0.040835515 -0.020995125 0.014437545 -0.00097935 0.018783756 -0.005922818 0.0069276206
0.0008084598 -0.014103226 0.023488512 -9.603642e-05 -0.019947568 -0.0015818779 -0.022702022 0.009573536
0.027190374 -0.013649604 -0.016795214 0.018033218 0.029059485 -0.031230543 0.03654143 -0.0030144858
0.012737595 -0.018414712 0.00962392 -0.008368167 -0.006178271 -0.013099318 -0.014656183 0.018179566
0.007332526 0.00017802329 -0.01257948 0.014741701 0.03872775 0.014444613 0.015487816 -0.0037284077
-0.015047643 -0.011678974 -0.017928245 -0.0053684595 0.00017082221 0.01972581 -0.024302663 -0.0043395753
0.0125286635 -0.0044003767 -0.011924768 -0.028553084 -0.0047990517 -0.010207842 -0.024779612 0.03713756
0.012404049 0.06263879 0.015763046 -0.0039991415 -0.018721517 -0.0043026484 -0.027118912 -0.003260296
0.010270596 -0.018176217 0.033394493 0.009850087 0.014177894 0.0025924826 -0.018879464 0.0073593683
-0.0038908813 0.0089542465 0.008032882 0.026642865 0.009506886 -0.0051119 0.033901256 -0.03478252
0.015628954 -0.017819261 -0.020025237 0.025200894 -0.022294091 0.024828674 -0.016922278 -0.0073573627
0.015425675 0.014469788
00000000: b642 2439 f303 a8bc 9e91 d03c b957 2b3d
00000010: e1cf a23b 6e29 27bb 8dda eb3c ca7f 9bbc
00000020: 8210 b8bc aed2 5e3a fe72 533b f677 febc
00000030: f579 f0bb fda9 f33c c85c f0bb e361 2abc
00000040: 5a76 26bd 0456 b5bc 2a5a 183d 9296 3c3c
00000050: 34de 4ebb 2bcd 983c f3c8 743c 79db a93b
00000060: e569 0a3c a679 cbbc d7bf 2abc 430a c2bb
00000070: e920 adbc 4e17 ac3c 0bb7 fe38 fca2 1d3b
00000080: 4cec 3fb8 efdd fd3c c588 883c 8029 193c
00000090: 87cf 7bbb af8e 0dbd 8285 c1bc 5dd5 ffbc
000000a0: 2419 913c 3a94 4d3b 0085 db3c c30c 073d
000000b0: e4cb fe3c 3f2a c73c 5a26 723c 670b c33b
000000c0: 149c 20bc 34b5 38bc 3fd7 843c 157d 08bd
000000d0: 4592 0ebc 506d 8abb ce4e 3c3b 22ae 75bc
000000e0: 63a5 0ebc 9975 043c fc56 9f3c a4de 13bc
000000f0: bbaf 843b 7db6 cfba 83f7 1e3c 7e85 5c3c
00000100: dadb 4bbc 0851 943c b704 eebc 5aa8 323b
00000110: a060 483c 79e4 fcbb a550 263b f7a6 92bb
00000120: fb37 933c c2b5 0c3d c9ea d53c fff5 00bc
00000130: 057a 93bc f5ad 2f3b e7bd a63b 6f8f 1a3d
00000140: 01a2 45ba 05c1 353d 2702 c03c 7690 92bc
00000150: 712d 2fbc 5a41 9d3c 6b85 e239 f06a c2bb
00000160: d9a4 7c3c fc28 25bc 0315 aa3c e3d8 c7bb
00000170: 369b 5cbc d378 3dbc 2da6 e33b 611c c93b
00000180: a33e 983c aec6 c43c b593 0dbb b4cc 8c3c
00000190: 8ead 733c 926d 533c 27dc 67bc 7c6b 1abd
000001a0: f7a6 d63b e5fe bc3c c39e d03b 181c e2bc
000001b0: edb2 4ebc 2c3c 843c 0a5a a3bc 532d cd3c
000001c0: 80b3 5fbb 8743 a53c a2f4 50bb da0f a9bc
000001d0: d05d aebc 69f0 0ebd a82a e03a f295 bbbb
000001e0: 79e0 2d3c 00fa 2c3d dce3 9abc e605 4fbb
000001f0: 2eba b5bc 1b55 013b 3fa1 d4bc 6e84 f0bc
00000200: 4301 70b9 522d 2ebc 09e6 35bc 7a51 553c
00000210: 9ada 943b 0c22 d5bb fae5 b93c 22c5 eb3c
00000220: bf34 ea3c b08a b43c 2f00 8cbc 0e31 153c
00000230: 7102 aa3c 2644 32bc ab5b 7fbc 37b9 14bb
00000240: 5b51 eabc e027 033c a1bd 8fbc 2d2f 8e3c
00000250: e3fa 61bb e265 9abc b27a c13c 4618 0a3c
00000260: c550 cc3a 2443 273d f8fd abbc 748b 6c3c
00000270: 885d 80ba 64e0 993c 3314 c2bb 1801 e33b
00000280: d2ee 533a 3811 67bc fb6a c03c 2967 c9b8
00000290: 1569 a3bc 0457 cfba 97f9 b9bc 52da 1c3c
000002a0: 59be de3c 97a2 5fbc 1e96 89bc 66ba 933c
000002b0: 280e ee3c 32d7 ffbc 77ac 153d ae8e 45bb
000002c0: 58b1 503c 73da 96bc a5ad 1d3c a31a 09bc
000002d0: 1873 cabb 869e 56bc 7d20 70bc 50ed 943c
000002e0: b045 f03b c3ab 3a39 2a1a 4ebc 2d87 713c
000002f0: fda0 1e3d 19a9 6c3c 9cc0 7d3c 4d58 74bb
00000300: 648a 76bc 2b59 3fbc 41de 92bc e7e9 afbb
00000310: bd1e 3339 0698 a13c 6116 c7bc ff32 8ebb
00000320: 0645 4d3c 0931 90bb 1a60 43bc 28e8 e9bc
00000330: 5d41 9dbb cb3e 27bc 9dfe cabc 8e1d 183d
00000340: 5a3a 4b3c c448 803d 8121 813c 3b0b 83bb
00000350: de5d 99bc 3bfd 8cbb 7b28 debc b1aa 55bb
00000360: 0046 283c 4ae6 94bc aac8 083d 4262 213c
00000370: 664a 683c a4e6 293b 1ba9 9abc db26 f13b
00000380: 28fe 7ebb d5b4 123c 599c 033c 2342 da3c
00000390: c5c2 1b3c ba81 a7bb 0bdc 0a3d 1e78 0ebd
000003a0: 4b08 803c b3f9 91bc f70b a4bc 1b72 ce3c
000003b0: 19a2 b6bc 8165 cb3c 97a0 8abc 0816 f1bb
000003c0: f8bb 7c3c b112 6d3c

h2o.weight f4 [6, 242]
0.04727191 -0.08696953 -0.06823689 -0.029640304 -0.0029679714 -0.11043708 0.02184278 0.11843487
-0.14636695 -0.08431631 0.038708106 -0.06434316 -0.1336665 -0.10764794 0.12945841 -0.120026805
0.0017572218 0.0815464 0.17419095 -0.090621255 0.019678708 0.08377284 -0.018176552 0.12992334
0.14479329 0.043030504 -0.0819732 0.10242547 0.026438775 -0.08472415 0.15378262 -0.111155555
-0.062871054 -0.1460528 -0.04250776 -0.11274147 0.046883266 0.06057878 0.008931666 -0.016914481
0.011665081 -0.14110278 -0.0039829384 -0.1067749 -0.14544474 0.11002156 -0.06534633 0.13963814
-0.042762786 -0.11248403 -0.1207076 0.08574052 0.10692192 0.05453994 0.07950339 -0.04964658
-0.0738029 -0.1195963 -0.001489553 0.098532334 0.113944836 -0.08664439 -0.07537203 -0.06930145
0.12860173 -0.13073401 0.10330623 0.03390684 0.08425919 -0.057862733 0.032563653 0.13632885
-0.033489257 0.1585661 -0.020496046 0.03371844 0.11032437 0.024113052 -0.03482412 -0.030083403
-0.053527992 -0.087571464 0.07620451 -0.02474891 0.0071609747 -0.09027338 -0.0956807 -0.08747372
0.1236489 -0.1500971 -0.033215437 -0.11923845 0.07643856 -0.09942749 -0.0308287 0.14515665
0.074404374 -0.11578604 0.01003538 -0.08182959 -0.11658345 0.028224431 -0.052964494 -0.12355606
-0.045076672 0.04829405 -0.1699391 0.0054412656 -0.07174746 -0.15638913 0.00015186727 -0.120844945
-0.06988845 -0.14686733 0.084897146 0.11459909 0.09514222 -0.019706458 0.09599317 0.0025705684
-0.072311044 0.07789407 0.08943018 -0.08607664 0.052720275 0.06087934 0.10298305 0.11248039
-0.0281261 0.13358758 -0.07749694 -0.060095575 -0.08058893 0.072732635 0.018752921 -0.055757355
-0.13027035 -0.008446095 0.059874233 -0.10433282 0.11015237 0.07267643 -0.1382061 -0.055042878
-0.117454626 0.0029857773 -0.132836 0.061914008 -0.07413095 0.0023897216 0.108335234 0.051612005
0.053789437 -0.018092938 -0.029330201 0.054102316 -0.03484738 -0.11536449 0.106714964 -0.051182967
0.06891677 -0.115690455 -0.01645398 0.031471208 0.1326408 0.038396403 0.04566842 -0.07960442
0.11947163 0.027820824 0.055674106 0.026563779 -0.017020587 -0.06759217 0.093899414 0.116867594
0.0149668045 0.161034 0.09518116 0.044002116 0.08702223 0.0116710905 0.15261674 0.086075716
-0.13873704 0.09218217 -0.04443414 -0.12724528 -0.017583763 -0.045924217 -0.04485637 -0.039116982
0.0127425855 -0.04665064 -0.109868884 -0.017212277 -0.10069743 0.038211975 -0.11988148 0.093647026
-0.0066139493 0.14605501 -0.061644938 0.04376181 0.040406097 0.15408063 0.0882922 -0.088948555
0.0018968865 0.08721872 0.032245006 0.04752446 -0.059823494 -0.016835462 0.0028943566 0.17992352
-0.15158913 -0.13772182 -0.022143016 0.14287883 -0.02263869 -0.14966877 -0.07188215 0.08459302
0.14371267 0.08645453 0.14939171 -0.09179613 0.12795043 -0.049713064 -0.07423631 0.06440157
0.0033659576 0.17349458 -0.07772837 0.0038279316 0.14536126 0.021716971 0.11437953 0.13375942
-0.11296319 0.049082987 -0.03216631 -0.07334194 -0.13197343 -0.06516822 -0.1339746 0.09905141
0.047189895 0.086670645 0.13116615 -0.13441028 0.11988008 0.08014671 -0.121822566 -0.1567718
00000000: 31a0 413d 151d b2bd c8bf 8bbd 39d0 f2bc
00000010: 4c82 42bb d62c e2bd a1ef b23c fb8d f23d
00000020: 38e1 15be 08ae acbd 648c 1e3d 59c6 83bd
00000030: dfdf 08be 8676 dcbd bf90 043e 9dd0 f5bd
00000040: 9452 e63a cd01 a73d 1d5f 323e a397 b9bd
00000050: 3e35 a13c 1891 ab3d fee6 94bc a00a 053e
00000060: b144 143e c140 303d 91e1 a7bd 72c4 d13d
00000070: 2196 d83c db83 adbd 3179 1d3e 86a5 e3bd
00000080: 8ac2 80bd dd8e 15be 9e1c 2ebd 00e5 e6bd
00000090: ab08 403d 7421 783d 1f56 123c 3d90 8abc
000000a0: e51e 3f3c 3f7d 10be 4f83 82bb ccac dabd
000000b0: 77ef 14be fc52 e13d 4cd4 85bd 4dfd 0e3e
000000c0: 0828 2fbd 075e e6bd 8c35 f7bd ba98 af3d
000000d0: e1f9 da3d 4665 5f3d acd2 a23d 365a 4bbd
000000e0: fa25 97bd e8ee f4bd 1b3d c3ba 52cb c93d
000000f0: e95b e93d 9d72 b1bd a75c 9abd ebed 8dbd
00000100: 2cb0 033e 23df 05be 3792 d33d e6e1 0a3d
00000110: 1590 ac3d 7901 6dbd 7761 053d ca99 0b3e
00000120: 082c 09bd 275f 223e 53e7 a7bc 591c 0a3d
00000130: bef1 e13d bc88 c53c bda3 0ebd 7871 f6bc
00000140: 2b40 5bbd ab58 b3bd 1c11 9c3d 3abe cabc
00000150: 9ca6 ea3b 40e1 b8bd 3ef4 c3bd 6c25 b3bd
00000160: a23b fd3d 0eb3 19be e90c 08bd 4a33 f4bd
00000170: d28b 9c3d a4a0 cbbd 788c fcbc f2a3 143e
00000180: 5261 983d 3b21 edbd 6f6b 243c 4696 a7bd
00000190: 4ec3 eebd ec36 e73c 4cf1 58bd f60a fdbd
000001a0: 51a2 38bd fbcf 453d 8404 2ebe a54c b23b
000001b0: 55f0 92bd 7924 20be 8f3e 1f39 8e7d f7bd
000001c0: ad21 8fbd 6464 16be 8ede ad3d edb2 ea3d
000001d0: edd9 c23d 706f a1bc 1198 c43d fb76 283b
000001e0: d017 94bd ed86 9f3d 2c27 b73d f348 b0bd
000001f0: 37f1 573d 9d5c 793d c7e8 d23d 1e5c e63d
00000200: b568 e6bc 2fcb 083e b7b6 9ebd c726 76bd
00000210: cf0b a5bd d9f4 943d ba9f 993c d361 64bd
00000220: 9765 05be 7d61 0abc af3e 753d 72ac d5bd
00000230: 9197 e13d 61d7 943d e685 0dbe a474 61bd
00000240: 0d8c f0bd 08ad 433b 2906 08be 8b99 7d3d
00000250: f8d1 97bd e09c 1c3b ddde dd3d 1c67 533d
00000260: 5052 5c3d a437 94bc e445 f0bc 649a 5d3d
00000270: 20bc 0ebd 3844 ecbd 608d da3d 3ba5 51bd
00000280: 3c24 8d3d 1eef ecbd 7fca 86bc f4e7 003d
00000290: fdd2 073e 8c45 1d3d cf0e 3b3d a407 a3bd
000002a0: 8bad f43d 7fe8 e33c 880a 643d 489c d93c
000002b0: c26e 8bbc c36d 8abd 564e c03d 4758 ef3d
000002c0: 5437 753c 19e6 243e 57ee c23d 903b 343d
000002d0: b638 b23d 1a38 3f3c 9047 1c3e 7748 b03d
000002e0: 1511 0ebe 01ca bc3d 9300 36bd 964c 02be
000002f0: d30b 90bc 081b 3cbd 50bb 37bd 2139 20bd
00000300: 47c6 503c be14 3fbd f002 e1bd c300 8dbc
00000310: 743a cebd 2984 1c3d 6c84 f5bd 03ca bf3d
00000320: d4b9 d8bb 728f 153e 677f 7cbd 953f 333d
00000330: dd80 253d 50c7 1d3e 8ad2 b43d a92a b6bd
00000340: f3a0 f83a ba9f b23d 5713 043d 02a9 423d
00000350: 7b09 75bd 86ea 89bc 3faf 3d3b df3d 383e
00000360: 2e3a 1bbe f306 0dbe 4565 b5bc d44e 123e
00000370: c674 b9bc c542 19be f336 93bd 1b3f ad3d
00000380: 6a29 133e 130f b13d 24fa 183e 9cff bbbd
00000390: 7005 033e ed9f 4bbd 3509 98bd f8e4 833d
000003a0: 6697 5c3b 90a8 313e 0d30 9fbd 09de 7a3b
000003b0: 95d9 143e cae7 b13c d13f ea3d 3bf8 083e
000003c0: 3f59 e7bd 3e0b 493d d2c0 03bd 4d34 96bd
000003d0: 0b24 07be ea76 85bd a330 09be 77db ca3d
000003e0: 314a 413d 6180 b13d 6b50 063e d9a2 09be
000003f0: b083 f53d f523 a43d 1c7e f9bd c988 20be

h2o.bias f4 [6]
-0.016473638 0.0045791552 0.010006078 0.03725354 0.034489024 0.016213072
00000000: b9f3 86bc bd0c 963b 88f0 233c 2b97 183d
00000010: 5d44 0d3d 47d1 843c

h2h.weight f4 [242, 242]
0.020911679 -0.0062249587 0.03797544 -0.026672224 -0.054225728 -0.06068117 0.042163245 0.07293721
0.04469913 -0.025066402 0.013739548 0.0043709055 0.026387483 -0.026895817 -0.07490723 0.041478686
0.10118398 -0.1483019 0.022838451 -0.03875194 -0.026336793 -0.04288382 -0.0046781306 -0.0192111
0.09251226 0.1424145 0.010462556 -0.11714689 -0.036009323 0.03363956 0.012289308 0.1276215
-0.08259569 -0.047556102 -0.007222938 -0.10702989 0.1226435 -0.065923326 0.018586496 0.09595775
0.091542296 0.04751096 -0.15104441 0.05751948 0.09500525 0.08521792 -0.05737111 0.07128499
-0.010319557 0.056171037 0.114291325 0.04090144 0.0105570145 0.015114165 0.013070726 -0.011770019
0.02622333 -0.035671268 -0.026077332 -0.035839863 -0.060702115 -0.03148219 -0.026537301 -0.029002093
-0.0376195 -0.027670959 -0.039358392 0.031749155 -0.025865126 0.0030593285 -0.121384345 -0.0657344
0.003704719 0.044863153 0.026449826 -0.00041456873 -0.0044460613 0.029110443 0.08641852 0.06361977
0.04278194 0.098681934 -0.14603738 0.060996458 0.03956277 0.06423878 0.0010007666 -0.020348713
0.06473729 0.05329124 -0.11927144 0.07072628 0.069671236 -0.0024078388 -0.010675986 0.091146626
0.0077741337 0.03096721 0.11531328 -0.032444738 -0.07981159 0.008747695 -0.038470883 -0.03371571
0.0476022 -0.07472602 -0.15844408 -0.060174216 -0.06376906 0.033633012 -0.013583683 -0.10522227
-0.05993106 0.008061345 0.07410581 -0.07757188 -0.0320264 0.050197706 0.05809816 0.006891
0.08369641 -0.07876611 0.03845661 0.084137194 0.005939646 0.08274164 -0.012099482 -0.0058587
0.03579487 -0.055746924 0.05194394 -0.11127916 0.010083392 0.099390775 -0.060108643 -0.11935244
0.05209215 -0.05449363 0.09736264 -0.07831949 -0.0020975478 0.08682107 0.017661534 0.04480325
0.009305311 0.025585188 -0.026681518 0.018471008 -0.04410911 0.11594369 -0.05289434 0.04386873
-0.049694706 0.0076252734 0.0018064398 -0.03827825 0.04134428 0.122888185 -0.016708616 0.071008734
-0.03947549 0.018868 0.0072778896 0.15621647 0.12287015 -0.0017787311 -0.1034807 0.00719365
0.008837549 0.056700367 -0.014485112 -0.098087944 -0.08970693 0.10508285 -0.026547996 -0.02762918
-0.11285069 0.022894237 0.0024848508 0.02849524 -0.101623416 -0.09254697 0.080933414 -0.111020975
-0.0057951584 0.011378906 -0.053963393 0.071142405 -0.121382855 -0.017403636 0.038897518 0.055661835
0.08822778 0.0043303506 -0.019022655 -0.06420057 0.072810434 -0.023166018 -0.067934684 -0.0139387
-0.012165565 -0.04002474 0.060391393 -0.047108937 -0.03863389 0.011467506 0.042551167 0.0015222987
-0.011376589 -0.254932 0.01862463 0.0893676 2.7027854e-05 -0.0023048294 -0.109206714 -0.030074952
0.058250736 -0.0037166786 -0.02402886 0.04308139 0.078495935 0.012546586 -0.022568092 -0.21960133
-0.037897382 0.07538816 -0.09888208 0.2552096 -0.06954237 -0.01708617 0.046364922 0.083690256
-0.026519908 0.12508664 -0.022468084 -0.097655654 -0.008173184 -0.039010894 -0.17239186 -0.035168454
0.034117114 0.12203096 -0.00047243357 -0.06816506 0.044076 -0.033776943 -0.005568149 -0.03682404
0.032031547 -0.035228163 -0.013755596 -0.058194704 -0.02840065 -0.021582292 0.08193384 -0.21840987
00000000: f84e ab3c bdfa cbbb 238c 1b3d b57f dabc
00000010: cc1b 5ebd d28c 78bd 5eb3 2c3d 1b60 953d
00000020: 6f16 373d 0e58 cdbc d71b 613c d039 8f3b
00000030: 902a d83c 9e54 dcbc f668 99bd 8ee5 293d
00000040: 8c39 cf3d 74dc 17be b417 bb3c 5bba 1ebd
00000050: 42c0 d7bc f2a6 2fbd 014b 99bb 9960 9dbc
00000060: 1177 bd3d 1bd5 113e 246b 2b3c b5ea efbd
00000070: 837e 13bd a3c9 093d 1859 493c 36af 023e
00000080: ee27 a9bd 30ca 42bd 65ae ecbb 7d32 dbbd
00000090: 842c fb3d cf02 87bd b542 983c 7f85 c43d
000000a0: 877a bb3d da9a 423d 63ab 1abe 8c99 6b3d
000000b0: 1d92 c23d bc86 ae3d f8fd 6abd ddfd 913d
000000c0: 5c13 29bc 9a13 663d 9211 ea3d 4588 273d
000000d0: 54f7 2c3c 67a1 773c 9926 563c 0ad7 40bc
000000e0: 4fd2 d63c 091c 12bd 21a0 d5bc d2cc 12bd
000000f0: c8a2 78bd 78f3 00bd c164 d9bc cc95 edbc
00000100: e816 1abd 35ae e2bc 4436 21bd 670b 023d
00000110: 1ae3 d3bc 047f 483b 5b98 f8bd c29f 86bd
00000120: dfca 723b 6dc2 373d 4ead d83c 795a d9b9
00000130: 44b0 91bb 0679 ee3c 31fc b03d 154b 823d
00000140: 1e3c 2f3d c119 ca3d d38a 15be 6cd7 793d
00000150: 920c 223d 9f8f 833d 282c 833a 58b2 a6bc
00000160: fc94 843d ea47 5a3d 9644 f4bd f1d8 903d
00000170: cbaf 8e3d d5cc 1dbb 55ea 2ebc 15ab ba3d
00000180: 29be fe3b f2ae fd3c 5e29 ec3d c6e4 04bd
00000190: 4274 a3bd 7e52 0f3c a593 1dbd 7c19 0abd
000001a0: 86fa 423d f509 99bd 2a3f 22be 3d79 76bd
000001b0: 5a99 82bd c5c2 093d 198e 5ebc c67e d7bd
000001c0: 457a 75bd bb13 043c c9c4 973d 01de 9ebd
000001d0: 1d2e 03bd 1c9c 4d3d 56f8 6d3d e6cd e13b
000001e0: 0669 ab3d 2050 a1bd ae84 1d3d 1f50 ac3d
000001f0: 5da1 c23b 7374 a93d e83c 46bc 56fa bfbb
00000200: a49d 123d e356 64bd 2bc3 543d 54e6 e3bd
00000210: d034 253c 648d cb3d 7b34 76bd 0d6f f4bd
00000220: 945e 553d b634 5fbd 1066 c73d f865 a0bd
00000230: 0377 09bb 3fcf b13d ecae 903c 9d83 373d
00000240: 4e75 183c 0798 d13c 3393 dabc 8350 973c
00000250: c1ab 34bd e373 ed3d bca7 58bd b3af 333d
00000260: ad8c 4bbd 6edd f93b 10c6 ec3a a7c9 1cbd
00000270: 9f58 293d cdac fb3d 82e0 88bc 076d 913d
00000280: 0db1 21bd 1091 9a3c 5d7b ee3b 36f7 1f3e
00000290: 58a3 fb3d 5024 e9ba b0ed d3bd b6b8 eb3b
000002a0: 5ecb 103c a53e 683d f752 6dbc 55e2 c8bd
000002b0: 44b8 b7bd ad35 d73d 2f7b d9bc 9756 e2bc
000002c0: 431e e7bd b28c bb3c e1d8 223b d96e e93c
000002d0: f01f d0bd 4489 bdbd 6bc0 a53d f75e e3bd
000002e0: 50e5 bdbb 976e 3a3c b808 5dbd 1cb3 913d
000002f0: 9397 f8bd 1292 8ebc 0153 1f3d aafd 633d
00000300: c4b0 b43d 9de5 8d3b 66d5 9bbc 977b 83bd
00000310: a31d 953d a9c6 bdbc 5721 8bbd 255f 64bc
00000320: 1452 47bc fbf0 23bd f75c 773d 4df5 40bd
00000330: 923e 1ebd 35e2 3b3c 224a 2e3d de87 c73a
00000340: df64 3abc 7286 82be ae92 983c 5c06 b73d
00000350: e0b9 e237 9f0c 17bb c5a7 dfbd bf5f f6bc
00000360: 5398 6e3d 8593 73bb 2cd8 c4bc 1d76 303d
00000370: 7ac2 a03d 3290 4d3c b8e0 b8bc 2cdf 60be
00000380: 493a 1bbd 1c65 9a3d b082 cabd d5aa 823e
00000390: 3b6c 8ebd 4cf8 8bbc 25e9 3d3d cc65 ab3d
000003a0: 4740 d9bc b616 003e fd0e b8bc b0ff c7bd
000003b0: d1e8 05bc e3c9 1fbd 7e87 30be cc0c 10bd
000003c0: 63be 0b3d 5eeb f93d f6b0 f7b9 1f9a 8bbd
000003d0: 0989 343d b159 0abd 0575 b6bb ced4 16bd
000003e0: 8333 033d 684b 10bd 275f 61bc 925d 6ebd
000003f0: 7ba8 e8bc 59cd b0bc eecc a73d d6a6 5fbe

h2h.bias f4 [242]
0.0001566511 -0.020509696 0.02546006 0.041831706 0.0049686288 -0.0025506872 0.028790737 -0.018981833
-0.022468809 0.00085000216 0.0032264586 -0.031063061 -0.007338757 0.029744143 -0.007335279 -0.010399315
-0.040640213 -0.022135742 0.037195362 0.011510508 -0.003156555 0.01865252 0.014940488 0.005183634
0.008448099 -0.02483828 -0.010421715 -0.0059216334 -0.021133857 0.021007206 0.00012145758 0.0024053445
-4.5758017e-05 0.030989615 0.01666678 0.009348273 -0.0038423256 -0.0345599 -0.023623232 -0.03122967
0.017712183 0.0031368867 0.026796818 0.032971155 0.031103082 0.024312137 0.014779652 0.005952287
-0.009802837 -0.011273671 0.016215919 -0.033322413 -0.008701866 -0.004224457 0.0028733495 -0.01499513
-0.008706423 0.008084678 0.019450657 -0.00902525 0.004049269 -0.0015847232 0.009702566 0.013459561
-0.012442553 0.018105045 -0.029054983 0.002726099 0.012230068 -0.0077176658 0.0025377658 -0.00447547
0.01797103 0.034353025 0.02611293 -0.00787115 -0.01800252 0.0026806567 0.005088556 0.037734445
-0.0007539094 0.04437353 0.023438526 -0.01789115 -0.010691986 0.019196201 0.00043205483 -0.005933158
0.015420162 -0.010080572 0.020761972 -0.006098853 -0.01346474 -0.011564451 0.0069473 0.006137416
0.018584555 0.02402052 -0.0021602933 0.017187454 0.014872922 0.012904542 -0.0141516095 -0.03770016
0.0065506655 0.023070762 0.006366582 -0.027601287 -0.012615901 0.016141973 -0.019940395 0.025046026
-0.003413409 0.020173801 -0.0031884094 -0.020637441 -0.021284968 -0.03489724 0.0017102556 -0.005724662
0.0106126005 0.042230606 -0.01890748 -0.003158921 -0.022183504 0.0019734565 -0.025955794 -0.029360022
-0.00022888654 -0.010630922 -0.011102208 0.013019914 0.004542661 -0.006504303 0.02269267 0.028780524
0.028589604 0.022038788 -0.017089931 0.009105934 0.020753117 -0.010880506 -0.01558582 -0.0022693404
-0.028603246 0.008005112 -0.017546477 0.01735648 -0.0034481816 -0.01884741 0.023618076 0.008428639
0.0015588036 0.040835515 -0.020995125 0.014437545 -0.00097935 0.018783756 -0.005922818 0.0069276206
0.0008084598 -0.014103226 0.023488512 -9.603642e-05 -0.019947568 -0.0015818779 -0.022702022 0.009573536
0.027190374 -0.013649604 -0.016795214 0.018033218 0.029059485 -0.031230543 0.03654143 -0.0030144858
0.012737595 -0.018414712 0.00962392 -0.008368167 -0.006178271 -0.013099318 -0.014656183 0.018179566
0.007332526 0.00017802329 -0.01257948 0.014741701 0.03872775 0.014444613 0.015487816 -0.0037284077
-0.015047643 -0.011678974 -0.017928245 -0.0053684595 0.00017082221 0.01972581 -0.024302663 -0.0043395753
0.0125286635 -0.0044003767 -0.011924768 -0.028553084 -0.0047990517 -0.010207842 -0.024779612 0.03713756
0.012404049 0.06263879 0.015763046 -0.0039991415 -0.018721517 -0.0043026484 -0.027118912 -0.003260296
0.010270596 -0.018176217 0.033394493 0.009850087 0.014177894 0.0025924826 -0.018879464 0.0073593683
-0.0038908813 0.0089542465 0.008032882 0.026642865 0.009506886 -0.0051119 0.033901256 -0.03478252
0.015628954 -0.017819261 -0.020025237 0.025200894 -0.022294091 0.024828674 -0.016922278 -0.0073573627
0.015425675 0.014469788
00000000: b642 2439 f303 a8bc 9e91 d03c b957 2b3d
00000010: e1cf a23b 6e29 27bb 8dda eb3c ca7f 9bbc
00000020: 8210 b8bc aed2 5e3a fe72 533b f677 febc
00000030: f579 f0bb fda9 f33c c85c f0bb e361 2abc
00000040: 5a76 26bd 0456 b5bc 2a5a 183d 9296 3c3c
00000050: 34de 4ebb 2bcd 983c f3c8 743c 79db a93b
00000060: e569 0a3c a679 cbbc d7bf 2abc 430a c2bb
00000070: e920 adbc 4e17 ac3c 0bb7 fe38 fca2 1d3b
00000080: 4cec 3fb8 efdd fd3c c588 883c 8029 193c
00000090: 87cf 7bbb af8e 0dbd 8285 c1bc 5dd5 ffbc
000000a0: 2419 913c 3a94 4d3b 0085 db3c c30c 073d
000000b0: e4cb fe3c 3f2a c73c 5a26 723c 670b c33b
000000c0: 149c 20bc 34b5 38bc 3fd7 843c 157d 08bd
000000d0: 4592 0ebc 506d 8abb ce4e 3c3b 22ae 75bc
000000e0: 63a5 0ebc 9975 043c fc56 9f3c a4de 13bc
000000f0: bbaf 843b 7db6 cfba 83f7 1e3c 7e85 5c3c
00000100: dadb 4bbc 0851 943c b704 eebc 5aa8 323b
00000110: a060 483c 79e4 fcbb a550 263b f7a6 92bb
00000120: fb37 933c c2b5 0c3d c9ea d53c fff5 00bc
00000130: 057a 93bc f5ad 2f3b e7bd a63b 6f8f 1a3d
00000140: 01a2 45ba 05c1 353d 2702 c03c 7690 92bc
00000150: 712d 2fbc 5a41 9d3c 6b85 e239 f06a c2bb
00000160: d9a4 7c3c fc28 25bc 0315 aa3c e3d8 c7bb
00000170: 369b 5cbc d378 3dbc 2da6 e33b 611c c93b
00000180: a33e 983c aec6 c43c b593 0dbb b4cc 8c3c
00000190: 8ead 733c 926d 533c 27dc 67bc 7c6b 1abd
000001a0: f7a6 d63b e5fe bc3c c39e d03b 181c e2bc
000001b0: edb2 4ebc 2c3c 843c 0a5a a3bc 532d cd3c
000001c0: 80b3 5fbb 8743 a53c a2f4 50bb da0f a9bc
000001d0: d05d aebc 69f0 0ebd a82a e03a f295 bbbb
000001e0: 79e0 2d3c 00fa 2c3d dce3 9abc e605 4fbb
000001f0: 2eba b5bc 1b55 013b 3fa1 d4bc 6e84 f0bc
00000200: 4301 70b9 522d 2ebc 09e6 35bc 7a51 553c
00000210: 9ada 943b 0c22 d5bb fae5 b93c 22c5 eb3c
00000220: bf34 ea3c b08a b43c 2f00 8cbc 0e31 153c
00000230: 7102 aa3c 2644 32bc ab5b 7fbc 37b9 14bb
00000240: 5b51 eabc e027 033c a1bd 8fbc 2d2f 8e3c
00000250: e3fa 61bb e265 9abc b27a c13c 4618 0a3c
00000260: c550 cc3a 2443 273d f8fd abbc 748b 6c3c
00000270: 885d 80ba 64e0 993c 3314 c2bb 1801 e33b
00000280: d2ee 533a 3811 67bc fb6a c03c 2967 c9b8
00000290: 1569 a3bc 0457 cfba 97f9 b9bc 52da 1c3c
000002a0: 59be de3c 97a2 5fbc 1e96 89bc 66ba 933c
000002b0: 280e ee3c 32d7 ffbc 77ac 153d ae8e 45bb
000002c0: 58b1 503c 73da 96bc a5ad 1d3c a31a 09bc
000002d0: 1873 cabb 869e 56bc 7d20 70bc 50ed 943c
000002e0: b045 f03b c3ab 3a39 2a1a 4ebc 2d87 713c
000002f0: fda0 1e3d 19a9 6c3c 9cc0 7d3c 4d58 74bb
00000300: 648a 76bc 2b59 3fbc 41de 92bc e7e9 afbb
00000310: bd1e 3339 0698 a13c 6116 c7bc ff32 8ebb
00000320: 0645 4d3c 0931 90bb 1a60 43bc 28e8 e9bc
00000330: 5d41 9dbb cb3e 27bc 9dfe cabc 8e1d 183d
00000340: 5a3a 4b3c c448 803d 8121 813c 3b0b 83bb
00000350: de5d 99bc 3bfd 8cbb 7b28 debc b1aa 55bb
00000360: 0046 283c 4ae6 94bc aac8 083d 4262 213c
00000370: 664a 683c a4e6 293b 1ba9 9abc db26 f13b
00000380: 28fe 7ebb d5b4 123c 599c 033c 2342 da3c
00000390: c5c2 1b3c ba81 a7bb 0bdc 0a3d 1e78 0ebd
000003a0: 4b08 803c b3f9 91bc f70b a4bc 1b72 ce3c
000003b0: 19a2 b6bc 8165 cb3c 97a0 8abc 0816 f1bb
000003c0: f8bb 7c3c b112 6d3c
