VLSI23_journal/intuitivechip_classifier_lcsvsnlcs/SNN_ep-150-isize-1-8-1-hsize-242-bsize-32-lr-0.001-tmax_ms-100.0-Ts-10.0-k-6-dsetPath-VMODE_allchannels_ALLCLASS_auto_nospkfilter_cleaned_12x16_9mvpp_250mvofs_onedac_itail_50nA_N3b_OFFdcard/chip-classifier-0-best.pt (torch, 253495 bytes, 8 tensors)

thr_h_1 f4 [242]
1.0 1.0 1.0 1.0 1.0 1.0 1.0 1.0
1.0 1.0 1.0 1.0 1.0 1.0 1.0 1.0
1.0 1.0 1.0 1.0 1.0 1.0 1.0 1.0
1.0 1.0 1.0 1.0 1.0 1.0 1.0 1.0
1.0 1.0 1.0 1.0 1.0 1.0 1.0 1.0
1.0 1.0 1.0 1.0 1.0 1.0 1.0 1.0
1.0 1.0 1.0 1.0 1.0 1.0 1.0 1.0
1.0 1.0 1.0 1.0 1.0 1.0 1.0 1.0
1.0 1.0 1.0 1.0 1.0 1.0 1.0 1.0
1.0 1.0 1.0 1.0 1.0 1.0 1.0 1.0
1.0 1.0 1.0 1.0 1.0 1.0 1.0 1.0
1.0 1.0 1.0 1.0 1.0 1.0 1.0 1.0
1.0 1.0 1.0 1.0 1.0 1.0 1.0 1.0
1.0 1.0 1.0 1.0 1.0 1.0 1.0 1.0
1.0 1.0 1.0 1.0 1.0 1.0 1.0 1.0
1.0 1.0 1.0 1.0 1.0 1.0 1.0 1.0
1.0 1.0 1.0 1.0 1.0 1.0 1.0 1.0
1.0 1.0 1.0 1.0 1.0 1.0 1.0 1.0
1.0 1.0 1.0 1.0 1.0 1.0 1.0 1.0
1.0 1.0 1.0 1.0 1.0 1.0 1.0 1.0
1.0 1.0 1.0 1.0 1.0 1.0 1.0 1.0
1.0 1.0 1.0 1.0 1.0 1.0 1.0 1.0
1.0 1.0 1.0 1.0 1.0 1.0 1.0 1.0
1.0 1.0 1.0 1.0 1.0 1.0 1.0 1.0
1.0 1.0 1.0 1.0 1.0 1.0 1.0 1.0
1.0 1.0 1.0 1.0 1.0 1.0 1.0 1.0
1.0 1.0 1.0 1.0 1.0 1.0 1.0 1.0
1.0 1.0 1.0 1.0 1.0 1.0 1.0 1.0
1.0 1.0 1.0 1.0 1.0 1.0 1.0 1.0
1.0 1.0 1.0 1.0 1.0 1.0 1.0 1.0
1.0 1.0
00000000: 0000 803f 0000 803f 0000 803f 0000 803f
00000010: 0000 803f 0000 803f 0000 803f 0000 803f
00000020: 0000 803f 0000 803f 0000 803f 0000 803f
00000030: 0000 803f 0000 803f 0000 803f 0000 803f
00000040: 0000 803f 0000 803f 0000 803f 0000 803f
00000050: 0000 803f 0000 803f 0000 803f 0000 803f
00000060: 0000 803f 0000 803f 0000 803f 0000 803f
00000070: 0000 803f 0000 803f 0000 803f 0000 803f
00000080: 0000 803f 0000 803f 0000 803f 0000 803f
00000090: 0000 803f 0000 803f 0000 803f 0000 803f
000000a0: 0000 803f 0000 803f 0000 803f 0000 803f
000000b0: 0000 803f 0000 803f 0000 803f 0000 803f
000000c0: 0000 803f 0000 803f 0000 803f 0000 803f
000000d0: 0000 803f 0000 803f 0000 803f 0000 803f
000000e0: 0000 803f 0000 803f 0000 803f 0000 803f
000000f0: 0000 803f 0000 803f 0000 803f 0000 803f
00000100: 0000 803f 0000 803f 0000 803f 0000 803f
00000110: 0000 803f 0000 803f 0000 803f 0000 803f
00000120: 0000 803f 0000 803f 0000 803f 0000 803f
00000130: 0000 803f 0000 803f 0000 803f 0000 803f
00000140: 0000 803f 0000 803f 0000 803f 0000 803f
00000150: 0000 803f 0000 803f 0000 803f 0000 803f
00000160: 0000 803f 0000 803f 0000 803f 0000 803f
00000170: 0000 803f 0000 803f 0000 803f 0000 803f
00000180: 0000 803f 0000 803f 0000 803f 0000 803f
00000190: 0000 803f 0000 803f 0000 803f 0000 803f
000001a0: 0000 803f 0000 803f 0000 803f 0000 803f
000001b0: 0000 803f 0000 803f 0000 803f 0000 803f
000001c0: 0000 803f 0000 803f 0000 803f 0000 803f
000001d0: 0000 803f 0000 803f 0000 803f 0000 803f
000001e0: 0000 803f 0000 803f 0000 803f 0000 803f
000001f0: 0000 803f 0000 803f 0000 803f 0000 803f
00000200: 0000 803f 0000 803f 0000 803f 0000 803f
00000210: 0000 803f 0000 803f 0000 803f 0000 803f
00000220: 0000 803f 0000 803f 0000 803f 0000 803f
00000230: 0000 803f 0000 803f 0000 803f 0000 803f
00000240: 0000 803f 0000 803f 0000 803f 0000 803f
00000250: 0000 803f 0000 803f 0000 803f 0000 803f
00000260: 0000 803f 0000 803f 0000 803f 0000 803f
00000270: 0000 803f 0000 803f 0000 803f 0000 803f
00000280: 0000 803f 0000 803f 0000 803f 0000 803f
00000290: 0000 803f 0000 803f 0000 803f 0000 803f
000002a0: 0000 803f 0000 803f 0000 803f 0000 803f
000002b0: 0000 803f 0000 803f 0000 803f 0000 803f
000002c0: 0000 803f 0000 803f 0000 803f 0000 803f
000002d0: 0000 803f 0000 803f 0000 803f 0000 803f
000002e0: 0000 803f 0000 803f 0000 803f 0000 803f
000002f0: 0000 803f 0000 803f 0000 803f 0000 803f
00000300: 0000 803f 0000 803f 0000 803f 0000 803f
00000310: 0000 803f 0000 803f 0000 803f 0000 803f
00000320: 0000 803f 0000 803f 0000 803f 0000 803f
00000330: 0000 803f 0000 803f 0000 803f 0000 803f
00000340: 0000 803f 0000 803f 0000 803f 0000 803f
00000350: 0000 803f 0000 803f 0000 803f 0000 803f
00000360: 0000 803f 0000 803f 0000 803f 0000 803f
00000370: 0000 803f 0000 803f 0000 803f 0000 803f
00000380: 0000 803f 0000 803f 0000 803f 0000 803f
00000390: 0000 803f 0000 803f 0000 803f 0000 803f
000003a0: 0000 803f 0000 803f 0000 803f 0000 803f
000003b0: 0000 803f 0000 803f 0000 803f 0000 803f
000003c0: 0000 803f 0000 803f

thr_o f4 [6]
1.0 1.0 1.0 1.0 1.0 1.0
00000000: 0000 803f 0000 803f 0000 803f 0000 803f
00000010: 0000 803f 0000 803f

i2h.weight f4 [242, 8]
0.06283134 -0.06360649 -0.06863905 0.12436598 -0.1583647 0.09374594 0.007098902 0.04835373
-0.123579256 -0.109775886 -0.047608465 0.008650258 0.042450354 -0.034409985 0.11858424 -0.12932572
0.08443741 -0.12280553 -0.13769323 0.015217321 -0.118189245 0.09722566 -0.073257424 0.14130062
0.02955515 -0.079259306 -0.032043874 0.122263215 0.07282732 -0.02965382 -0.11968245 -0.08125267
0.027565556 -0.14854187 -0.0772117 -0.04639562 0.06594301 0.05289603 0.15206683 -0.12636457
0.04477439 -0.13966422 0.12903981 -0.022317981 0.08992848 0.10059236 -0.04243965 0.07857348
-0.055624533 0.0057661533 0.074471265 0.040485624 0.10237708 0.21017447 -0.09820685 -0.011346874
-0.114248596 -0.058543522 -0.03572091 0.05228444 -0.16568732 0.022440925 0.06687587 -0.023871722
0.0029144813 -0.089131616 0.086466536 0.22193906 -0.04907117 -0.14102198 -0.018029666 0.08330732
-0.014491665 -0.122051395 -0.1310911 -0.11981178 0.022461208 0.07317383 0.1001878 -0.042865608
-0.11465106 0.020415017 0.073774196 0.1202274 -0.079199225 0.06921884 -0.014623134 -0.095917955
-0.11414877 -0.14712296 0.12937936 0.15159424 0.1002618 0.08855265 -0.15418503 0.15738077
-0.05397543 0.023584668 -0.029203743 -0.005621582 0.06449118 0.02088011 0.0013210935 -0.089534804
-0.018763402 0.10453276 -0.10530704 -0.21357326 0.036316566 -0.06731839 -0.12639607 0.14912371
0.004898572 0.097540975 0.12140779 0.024781037 -0.012175512 0.07902737 0.03885638 -0.17511037
0.13131131 -0.0077283415 -0.004393126 0.036189653 0.022378469 -0.0068017533 0.14161086 0.062244292
0.017848304 0.03644169 0.13736095 -0.027349897 0.23939393 0.10037737 -0.004536509 -0.07441336
0.066604115 -0.12809335 0.14762856 0.07647884 0.16670994 0.051123977 -0.057794977 -0.12239497
-0.081691206 0.034844335 0.0055213626 0.20153236 -0.061179932 -0.001164264 -0.08636034 -0.1332903
-0.10731793 0.049916167 0.11372734 -0.043300275 0.03171631 0.08445888 0.011460249 -0.14682631
0.14823617 -0.021633912 -0.08714815 0.0021626414 0.08908769 -0.090670235 0.11340381 0.0010344092
0.09194319 -0.005897903 0.14220993 0.12250878 -0.018566413 -0.22182378 -0.04402677 -0.20899227
-0.070391625 -0.012218442 -0.0008729556 -0.013608341 0.15366133 -0.07643926 0.105799034 0.11688183
-0.09540347 -0.08079921 -0.05337432 0.0781073 0.045420747 -0.12035241 0.09969751 -0.012398004
-0.104527354 -0.123801835 -0.083388455 0.08888558 -0.15090103 -0.0015894484 -0.080960184 -0.029218154
-0.08897874 0.07904137 -0.11389595 0.027589038 0.049989935 0.12595163 0.06413542 -0.14499345
-0.07571801 -0.04759476 -0.1482659 -0.08868052 -0.0750754 0.09667607 0.071643144 -0.0859727
0.084852636 -0.042456236 -0.14087124 -0.08999997 -0.026387801 0.15427859 -0.03514359 0.03422938
0.051886868 0.030251294 -0.110881 0.1397797 0.11902337 -0.0145387435 -0.13870466 -0.0032158708
-0.12862359 -0.095662445 0.011115267 -0.11687331 -0.1735489 0.006694164 0.040072344 -0.019700585
0.10340995 -0.037437957 0.07455211 0.10135108 -0.18726638 0.24637085 -0.07999486 -0.102778815
-0.08499166 0.10931868 0.014624948 -0.021010814 -0.04678304 0.17969446 0.08078258 -0.05762662
00000000: b8ad 803d 1f44 82bd a192 8cbd 97b3 fe3d
00000010: 5b2a 22be dffd bf3d e89d e83b 900e 463d
00000020: 1f17 fdbd 2ed2 e0bd 1801 43bd d0b9 0d3c
00000030: 6ce0 2d3d 7cf1 0cbd 4bdc f23d f66d 04be
00000040: 85ed ac3d 7781 fbbd 74ff 0cbe 1252 793c
00000050: 340d f2bd 3f1e c73d fd07 96bd 1cb1 103e
00000060: a41d f23c b452 a2bd 7040 03bd 2365 fa3d
00000070: 7d26 953d 91ec f2bc 131c f5bd cd67 a6bd
00000080: 29d1 e13c 5c1b 18be 2b21 9ebd 5509 3ebd
00000090: 210d 873d 82a9 583d 68b7 1b3e b765 01be
000000a0: 5a65 373d 2304 0fbe 0323 043e 33d4 b6bc
000000b0: 6c2c b83d 5e03 ce3d 33d5 2dbd 22eb a03d
000000c0: 8dd6 63bd 00f2 bc3b 6484 983d 41d4 253d
000000d0: 13ab d13d fa37 573e ac20 c9bd 3de8 39bc
000000e0: 2bfb e9bd 55cb 6fbd 1750 12bd 3528 563d
000000f0: f0a9 29be 08d6 b73c 37f6 883d a18e c3bc
00000100: e200 3f3b a38a b6bd 5e15 b13d fe43 633e
00000110: dafe 48bd 1168 10be f3b2 93bc 079d aa3d
00000120: 736e 6dbc 15f6 f9bd bf3c 06be e15f f5bd
00000130: 9100 b83c 29dc 953d 432f cd3d d993 2fbd
00000140: 2dce eabd 653d a73c ed16 973d c839 f63d
00000150: 3433 a2bd 9bc2 8d3d df95 6fbc a270 c4bd
00000160: d5c6 e9bd 67a7 16be 067c 043e 853b 1b3e
00000170: 0f56 cd3d 175b b53d aee2 1dbe 6d28 213e
00000180: 5715 5dbd a234 c13c b03c efbc 3f35 b8bb
00000190: f413 843d c40c ab3c 8b28 ad3a 065e b7bd
000001a0: b5b5 99bc 4615 d63d 38ab d7bd f3b2 5abe
000001b0: aec0 143d 39de 89bd f96d 01be e3b3 183e
000001c0: 3384 a03b 90c3 c73d a6a4 f83d 9a01 cb3c
000001d0: cc7b 47bc 1ad9 a13d de27 1f3d 2250 33be
000001e0: 7976 063e 073e fdbb 36f4 8fbb 9a3b 143d
000001f0: 0d53 b73c 3ee1 debb 7002 113e dff3 7e3d
00000200: 9b36 923c e243 153d 59a8 0c3e e40c e0bc
00000210: af23 753e a792 cd3d ffa6 94bb 0866 98bd
00000220: bd67 883d e72a 03be f12b 173e f0a0 9c3d
00000230: 03b6 2a3e 6067 513d 6dba 6cbd 37aa fabd
00000240: b84d a7bd efb8 0e3d 8cec b43b 805e 4e3e
00000250: cf97 7abd 389a 98ba b1dd b0bd 417d 08be
00000260: 81c9 dbbd e574 4c3d e1e9 e83d a15b 31bd
00000270: f6e8 013d c7f8 ac3d c5c3 3b3c a359 16be
00000280: 39cb 173e 9a39 b1bc bb7a b2bd 1abb 0d3b
00000290: 9b73 b63d 51b1 b9bd 4240 e83d 0395 873a
000002a0: b64c bc3d 3243 c1bb 7b9f 113e e2e5 fa3d
000002b0: 9718 98bc c625 63be 6a55 34bd 1202 56be
000002c0: 7c29 90bd dc2f 48bc 0fd7 64ba 85f5 5ebc
000002d0: 6559 1d3e 308c 9cbd 2aad d83d be5f ef3d
000002e0: e562 c3bd 0e7a a5bd 089f 5abd b8f6 9f3d
000002f0: 1b0b 3a3d 537b f6bd 352e cc3d ff20 4bbc
00000300: 7012 d6bd d18b fdbd 91c7 aabd a509 b63d
00000310: cd85 1abe 0a55 d0ba 74ce a5bd e95a efbc
00000320: 7c3a b6bd 71e0 a13d 4842 e9bd 6802 e23c
00000330: 3fc2 4c3d 77f9 003e 6e59 833d 2a79 14be
00000340: 0b12 9bbd b9f2 42bd 04d3 17be 229e b5bd
00000350: 22c1 99bd 1afe c53d a4b9 923d 7412 b0bd
00000360: 38c7 ad3d 97e6 2dbd 8d40 10be e751 b8bd
00000370: 3b2b d8bc 35fb 1d3e baf2 0fbd 1b34 0c3d
00000380: 5387 543d 90d1 f73c 9415 e3bd 6922 0f3e
00000390: 86c2 f33d e933 6ebc 9808 0ebe 5cc1 52bb
000003a0: e7b5 03be acea c3bd cf1c 363c 465b efbd
000003b0: ceb6 31be b85a db3b e622 243d 1f63 a1bc
000003c0: 99c8 d33d 8b58 19bd c7ae 983d 2891 cf3d
000003d0: c2c2 3fbe a448 7c3e 58d4 a3bd b37d d2bd
000003e0: 1c10 aebd 79e2 df3d 7a9d 6f3c df1e acbc
000003f0: 939f 3fbd d301 383e 5671 a53d e409 6cbd

i2h.bias f4 [242]
-0.015465424 -0.040655337 0.036232967 -0.042211182 -0.03266425 -0.02509706 0.041240018 0.00776465
0.050039027 -0.01566176 -0.04293437 -0.014123237 -0.024877459 -0.00066562067 0.045463074 -0.02421069
0.032508995 0.04325847 0.039173413 0.047133088 -0.047440764 -0.0140976515 0.021578675 -0.017871067
-0.023488376 -0.027494298 -0.019700935 0.007504693 0.021477336 -0.03830456 0.055263817 -0.007395703
-0.050715026 0.04040916 0.08848526 0.065130726 -0.013183282 0.028645331 -0.005003982 -0.028559027
0.015571153 0.015440616 0.047843195 -0.038548227 -0.044412795 -0.039920714 -0.0070728273 0.063269384
-0.012942716 0.032184705 -0.018429479 0.042954143 0.08829137 0.031561967 0.083042644 -0.0060568964
0.028237427 -0.032915343 0.01433896 0.073758274 -0.05026763 0.025807837 0.03382875 -0.029517075
0.0020371021 0.0037707656 -0.058145158 0.06868149 0.06587495 0.0044088643 -0.012055538 0.09222803
0.03244688 -0.061056573 0.036004502 0.017123125 -0.043812495 0.057445284 -0.007457236 0.020632405
0.0123225 0.05753972 -0.06993859 -0.052950967 0.03515597 -0.03562121 0.09094177 0.00062143494
0.042464826 -0.03239593 -0.032039445 0.042963758 0.0021988158 -0.004623216 -0.022103628 0.059976857
0.047904808 0.02819961 0.020384792 -0.013192854 0.045228694 0.0020409194 0.05840204 -0.03384394
-0.020925133 0.04598993 0.021993225 0.013875499 0.038228054 0.018888801 -0.009972225 -0.021220602
0.021236245 -0.027854243 -0.0020247682 0.0008320681 -0.004613357 -0.021099249 0.050301094 0.017068911
-0.036639955 0.0038057696 -0.031879306 -0.02138675 0.035406124 0.02512852 -0.028075133 0.011890153
-0.016316295 0.018057121 0.013654286 0.072236925 0.017771028 0.03158496 0.041785687 0.07488677
-0.033456415 0.025893679 0.04779058 0.043911744 0.041838158 0.0355015 0.0118772 -0.01714477
-0.009603389 -0.03599 0.0059492267 -0.0056613428 -0.024088645 -0.03290347 -0.025284493 0.06272925
-0.06725846 -0.038150366 -0.031122921 0.031073812 0.012288329 0.003340545 -0.013865142 0.040072154
0.0049770377 -0.08341909 0.052920736 0.079044625 0.046920814 -0.04654375 0.027599188 -0.010322916
-0.0065349713 0.03745179 0.051499464 -0.05056434 0.030280562 0.07905515 -0.04028855 -0.059008945
-0.00026452378 -0.00071604847 0.055538446 0.04885818 0.08206051 -0.01680851 0.018074218 0.047866974
0.01872448 0.00043671642 0.012661712 0.055753075 -0.017616017 0.037824005 -0.02945912 0.035669062
-0.025882326 -0.014332509 0.0017848636 0.08384255 -0.030670287 -0.034546573 -0.044480767 0.08100399
0.029253073 -0.02896854 0.043342702 0.030399427 -0.003052808 -0.022197828 0.06692983 0.011459802
0.090847746 -0.00906696 0.049629595 0.02399244 0.018242182 0.038424715 -0.037800852 0.0004875233
0.0013644843 0.005986728 0.03517937 0.046392404 -0.022423632 -0.008747218 0.035943363 0.0015819665
0.0143368915 -0.040345535 0.021073056 0.00026855478 -0.02506445 0.06487239 -0.010223268 -0.0032373075
0.025262421 0.01952096 -0.051318817 -0.05259506 -0.005929572 0.020537836 0.040512588 -0.014713344
-0.020591924 -0.02954432
00000000: b162 7dbc 3686 26bd 0569 143d a2e5 2cbd
00000010: f3ca 05bd 5998 cdbc 4beb 283d 9b6e fe3b
00000020: b9f5 4c3d 174d 80bc f3db 2fbd 2665 67bc
00000030: d0cb cbbc 0c7d 2eba 7d37 3a3d 7f55 c6bc
00000040: 2728 053d cb2f 313d 4d74 203d a00e 413d
00000050: 3f51 42bd d6f9 66bc c3c5 b03c 5866 92bc
00000060: b26a c0bc b93b e1bc db63 a1bc eee9 f53b
00000070: 3df1 af3c 3ee5 1cbd 505c 623d a757 f2bb
00000080: 8fba 4fbd 1384 253d c337 b53d 4263 853d
00000090: b1fe 57bc 9da9 ea3c 72f8 a3bb 9ff4 e9bc
000000a0: 261e 7f3c a3fa 7c3c 3af7 433d bfe4 1dbd
000000b0: 31ea 35bd e783 23bd 2dc3 e7bb 6193 813d
000000c0: af0d 54bc 1cd4 033d 6bf9 96bc aff0 2f3d
000000d0: 1bd2 b43d 1f47 013d 4312 aa3d ee78 c6bb
000000e0: 2d52 e73c 3dd2 06bd f5ed 6a3c 940e 973d
000000f0: 6ee5 4dbd f56a d33c 0490 0a3d cbcd f1bc
00000100: e780 053b f31e 773b 9e29 6ebd e2a8 8c3d
00000110: 72e9 863d 3c78 903b 9784 45bc 0de2 bc3d
00000120: 05e7 043d 7516 7abd 7579 133d cc45 8c3c
00000130: bb74 33bd bf4b 6b3d d45b f4bb 4a05 a93c
00000140: 50e4 493c c5ae 6b3d f73b 8fbd 1de3 58bd
00000150: b5ff 0f3d 8ce7 11bd ae3f ba3d cbe7 223a
00000160: 99ef 2d3d 98b1 04bd cb3b 03bd c4fa 2f3d
00000170: 021a 103b 597e 97bb ab12 b5bc 4baa 753d
00000180: d537 443d de02 e73c 02fe a63c d726 58bc
00000190: b941 393d f2c0 053b fa36 6f3d f19f 0abd
000001a0: 2f6b abbc f05f 3c3d 232b b43c 1056 633c
000001b0: 0595 1c3d b0bc 9a3c 8b62 23bc d4d6 adbc
000001c0: a2f7 ad3c 952e e4bc f9b1 04bb 251f 5a3a
000001d0: a52b 97bb 55d8 acbc 8508 4e3d 1ad4 8b3c
000001e0: c713 16bd 386a 793b e093 02bd 4433 afbc
000001f0: 0306 113d 53da cd3c d2fd e5bc ebce 423c
00000200: c0a9 85bc 87ec 933c 3ab6 5f3c f4f0 933d
00000210: 8c94 913c 3b5f 013d 7827 2b3d 3c5e 993d
00000220: 9809 09bd fb1e d43c 0ec0 433d cddc 333d
00000230: 7d5e 2b3d 056a 113d 9698 423c 3073 8cbc
00000240: 8857 1dbc 406a 13bd bbf1 c23b c982 b9bb
00000250: 8d55 c5bc cac5 06bd 6d21 cfbc 3178 803d
00000260: cebe 89bd 8f43 1cbd 7ff5 febc 828e fe3c
00000270: fd54 493c 0ced 5a3b 9f2a 63bc b322 243d
00000280: 6b16 a33b a1d7 aabd 6ac3 583d 26e2 a13d
00000290: 0a30 403d a9a4 3ebd b117 e23c 7321 29bc
000002a0: 5023 d6bb 0c67 193d 1af1 523d 8e1c 4fbd
000002b0: f10e f83c abe7 a13d 9b05 25bd 5db3 71bd
000002c0: c8af 8ab9 33b5 3bba 487c 633d 841f 483d
000002d0: 570f a83d 00b2 89bc 6210 943c 2910 443d
000002e0: 1564 993c 16f7 e439 1273 4f3c 565d 643d
000002f0: 774f 90bc 58ed 1a3d 4154 f1bc b919 123d
00000300: 2c07 d4bc e6d2 6abc 16f2 e93a a5b5 ab3d
00000310: 4140 fbbc b580 0dbd 7731 36bd 6be5 a53d
00000320: 24a4 ef3c 6e4f edbc 1e88 313d 3808 f93c
00000330: 9f11 48bb 38d8 b5bc 8212 893d e5c1 3b3c
00000340: 620e ba3d 968d 14bc 6748 4b3d cb8b c43c
00000350: a170 953c 3c63 1d3d 11d5 1abd 459a ff39
00000360: 7fd8 b23a 502c c43b 3e18 103d f605 3e3d
00000370: c4b1 b7bc 7e50 0fbc 5939 133d fd59 cf3a
00000380: 48e5 6a3c 5c41 25bd 67a1 ac3c d0cc 8c39
00000390: f653 cdbc d1db 843d 7e7f 27bc 0229 54bb
000003a0: 23f3 ce3c 6cea 9f3c ae33 52bd eb6d 57bd
000003b0: db4c c2bb f73e a83c 87f0 253d 3d10 71bc
000003c0: 65b0 a8bc ee06 f2bc

h2o.weight f4 [6, 242]
0.0923427 0.16164987 -0.15753607 0.15421969 0.123947605 -0.13234016 0.055170897 -0.005011132
0.05040853 -0.06729311 0.04436403 0.0485581 0.09556887 -0.03236091 -0.0986935 0.11642917
0.012185014 -0.08294902 -0.08693129 -0.015202671 0.02360882 -0.01034268 -0.13339023 -0.02773486
0.11030731 0.036487028 0.13081145 -0.14475307 -0.14196612 0.003301965 -0.0649467 0.17746058
0.20129682 -0.074049465 0.070500314 -0.19600056 0.012104093 0.16836752 0.093368486 0.12487054
0.051484834 0.052902445 0.042171337 0.10058135 -0.11425314 -0.07295487 0.12649162 -0.19036147
-0.047537673 0.03641165 -0.04124612 0.04687879 -0.13375436 -0.15362091 0.043433208 -0.09109854
-0.051493995 -0.13856749 0.116579324 -0.12186081 -0.048582837 0.1389832 -0.065264925 -0.055690553
0.16502506 -0.02746775 0.0059695463 0.17312467 -0.14619286 -0.0071230787 0.054209568 -0.17580016
0.050406408 -0.12580398 0.045874976 -0.05319714 0.099576674 -0.15127677 0.11032883 -0.11326394
-0.025621466 0.0660279 0.15785186 0.045221638 -0.06434745 0.15076791 -0.0044490625 0.115792565
-0.08959485 0.09325013 0.023714727 0.0378939 0.047366213 -0.06804817 -0.009240085 -0.01650455
-0.08395712 -0.012822432 -0.0640536 0.087036654 -0.045545645 -0.032692082 -0.26503736 0.086801015
-0.0881372 -0.018355565 0.14716072 -0.14461884 -0.13214006 -0.057347666 -0.05363945 0.0983546
0.12913671 0.06986562 0.12691687 -0.20106636 -0.15943529 -0.061965246 -0.026102383 -0.083214685
0.007875362 0.039512552 -0.08849114 0.08439904 -0.09010125 -0.013341903 0.12232831 0.10765818
-0.1603776 0.052547336 -0.021435872 -0.120461605 0.07745779 0.10127167 -0.03959029 -0.20885698
-0.14021519 -0.0028762426 0.034815405 -0.15451084 -0.15172404 -0.120863035 0.1368721 -0.010286762
0.009096256 0.14699155 -0.07040611 0.02373794 0.10381833 0.05528444 0.06483446 0.060908955
-0.067496054 -0.05954637 0.04899847 -0.14468323 0.13609271 0.08092801 0.12647282 -0.25060415
0.03041853 -0.09211349 -0.113443345 -0.07991575 0.06131162 -0.069707915 -0.13691977 0.18341699
0.1174262 -0.07413327 0.1168352 0.052822392 0.0026124928 -0.17165639 -0.14025839 0.20262888
0.11312981 0.098667294 -0.1506057 -0.12073711 0.09302288 -0.13349839 0.09160605 -0.07294621
-0.051305477 0.15174788 0.15770663 -0.08520079 0.17212644 0.047003698 0.01568277 0.046437226
-0.05902373 0.012027165 0.07502867 -0.007890454 -0.034520704 0.09430075 0.12160129 -0.028737564
-0.23335165 -0.012509477 -0.11858271 0.044597246 0.044486634 0.08964172 -0.20203379 -0.23253012
-0.19316825 0.058127448 -0.0118608875 -0.052961882 0.031021962 0.13563126 0.09248527 -0.047216054
0.091139585 -0.091322094 0.037627805 0.014972656 -0.0764777 0.14939639 -0.13234882 0.025991904
-0.08841933 -0.11381745 -0.112753004 0.15240467 0.063416 -0.32175398 0.12348176 0.11728379
-0.19443905 -0.049880672 0.11862682 0.123121955 -0.12101978 0.14587577 -0.07273049 0.048797067
-0.10090554 -0.15044245 -0.06435346 -0.058715094 0.069013596 0.08932796 0.06671471 0.014599465
-0.039992686 0.17631519 -0.1733269 -0.16774313 0.045957033 -0.06901851 0.16023092 -0.10483136
00000000: 2b1e bd3d 8b87 253e 2351 21be c4eb 1d3e
00000010: 3ed8 fd3d 2e84 07be e1fa 613d 6c34 a4bb
00000020: 2d79 4e3d f8d0 89bd 0fb7 353d dce4 463d
00000030: 9db9 c33d e08c 04bd d11f cabd 6b72 ee3d
00000040: a7a3 473c 2de1 a9bd 0809 b2bd a014 79bc
00000050: 4967 c13c 5874 29bc 7397 08be 3834 e3bc
00000060: cde8 e13d 6c73 153d 70f3 053e 263a 14be
00000070: 915f 11be c865 583b c702 85bd 3ab8 353e
00000080: c120 4e3e 3fa7 97bd 7862 903d 5fb4 48be
00000090: 3f50 463c 8968 2c3e fa37 bf3d 20bc ff3d
000000a0: c3e1 523d 3cb0 583d dabb 2c3d 98fd cd3d
000000b0: 8dfd e9bd 5d69 95bd 0587 013e 1eee 42be
000000c0: ddb6 42bd 6224 153d b1f1 28bd f903 403d
000000d0: e7f6 08be cd4e 1dbe 05e7 313d df91 babd
000000e0: 5eeb 52bd a3e4 0dbe 24c1 ee3d 2992 f9bd
000000f0: ccfe 46bd 9d51 0e3e 9ea9 85bd c71b 64bd
00000100: 54fc 283e 0c04 e1bc 2f9c c33b 9847 313e
00000110: 95b3 15be b768 e9bb da0a 5e3d f504 34be
00000120: f376 4e3d c2d2 00be 66e7 3b3d 3fe5 59bd
00000130: dbee cb3d 4ce8 1abe 15f4 e13d edf6 e7bd
00000140: 1ce4 d1bc a339 873d eba3 213e 533a 393d
00000150: 99c8 83bd e762 1a3e 71c9 91bb a724 ed3d
00000160: 817d b7bd edf9 be3d 6345 c23c a236 1b3d
00000170: 1303 423d d75c 8bbd ba63 17bc 8d34 87bc
00000180: b6f1 abbd 2e15 52bc 892e 83bd 4640 b23d
00000190: 128e 3abd 22e8 05bd fab2 87be bbc4 b13d
000001a0: 4781 b4bd 695e 96bc 4db1 163e f616 14be
000001b0: b94f 07be 63e5 6abd 0ab5 5bbd 236e c93d
000001c0: 6a3c 043e b515 8f3d 7ff6 013e 57e4 4dbe
000001d0: 0143 23be 45cf 7dbd aad4 d5bc 766c aabd
000001e0: aa07 013c ead7 213d d83a b5bd 67d9 ac3d
000001f0: 0187 b8bd ff97 5abc 4487 fa3d e47b dc3d
00000200: 073a 24be e03b 573d 489a afbc 93b4 f6bd
00000210: 31a2 9e3d 8567 cf3d 6e29 22bd 9bde 55be
00000220: 9294 0fbe 587f 3cbb 999a 0e3d 1738 1ebe
00000230: 8c5d 1bbe 0a87 f7bd 3328 0c3e cf89 28bc
00000240: 7708 153c f484 163e 1431 90bd 1176 c23c
00000250: b49e d43d f071 623d eec7 843d ab7b 793d
00000260: 5f3b 8abd e5e6 73bd 9fb2 483d d727 14be
00000270: e35b 0b3e 96bd a53d 1782 013e 304f 80be
00000280: 4830 f93c ffa5 bcbd fc54 e8bd deaa a3bd
00000290: e521 7b3d 06c3 8ebd b234 0cbe aad1 3b3e
000002a0: 267d f03d 2fd3 97bd 4b47 ef3d 4b5c 583d
000002b0: 5b36 2b3b b1c6 2fbe e59f 0fbe f27d 4f3e
000002c0: 9ab0 e73d 1412 ca3d 6138 1abe 0545 f7bd
000002d0: c882 be3d cdb3 08be f49b bb3d d364 95bd
000002e0: b125 52bd cc63 1b3e d97d 213e c07d aebd
000002f0: ea41 303e f386 403d 2779 803c f634 3e3d
00000300: dec2 71bd 960d 453c a2a8 993d f646 01bc
00000310: 9565 0dbd c020 c13d 190a f93d 0a6b ebbc
00000320: bcf3 6ebe 8df4 4cbc 7edb f2bd 9aab 363d
00000330: 9e37 363d 1496 b73d f2e1 4ebe 601c 6ebe
00000340: e6cd 45be 0c17 6e3d 2b54 42bc 8fee 58bd
00000350: c521 fe3c ece2 0a3e eb68 bd3d 9f65 41bd
00000360: 64a7 ba3d 1407 bbbd 9d1f 1a3d df4f 753c
00000370: 57a0 9cbd 5efb 183e 7386 07be f9ec d43c
00000380: 3215 b5bd 2019 e9bd 0ceb e6bd f80f 1c3e
00000390: 3fe0 813d f0bc a4be 01e4 fc3d 7c32 f03d
000003a0: 081b 47be ad4f 4cbd 9ef2 f23d 5d27 fc3d
000003b0: 38d9 f7bd 7560 153e b9f3 94bd 6fdf 473d
000003c0: 90a7 cebd 960d 1abe bfcb 83bd 3d7f 70bd
000003d0: 0057 8d3d 94f1 b63d b9a1 883d 9832 6f3c
000003e0: 5fcf 23bd f88b 343e 9b7c 31be dbc4 2bbe
000003f0: 713d 3c3d 9459 8dbd 9313 243e d3b1 d6bd

h2o.bias f4 [6]
-0.03553266 -0.010743458 0.054318774 0.046611477 0.057099726 0.038654238
00000000: b28a 11bd 5405 30bc 5d7d 5e3d adeb 3e3d
00000010: 67e1 693d e853 1e3d

h2h.weight f4 [242, 242]
0.017061235 0.07423359 -0.05404649 0.003936785 0.027502129 0.015562626 0.03983642 0.049646154
0.097712606 -0.019327804 -0.019927703 -0.13244957 0.06088296 -0.12648542 -0.024248522 0.016132198
-0.052884698 -0.06540276 -0.06442122 -0.022810068 -0.039452482 -0.07059243 0.008804238 -0.07022782
-0.04020646 -0.02047005 0.005239721 -0.089718126 0.06403461 -0.01115687 -0.03496967 0.046813264
0.2004378 -0.045537304 0.025031399 -0.09892011 -0.13861077 0.020336626 -0.0048803184 0.10032882
0.009550268 -0.04076236 -0.083047576 0.13102718 0.0009914882 -0.06457561 -0.040427435 0.17040896
0.070273764 -0.030238569 -0.003465462 0.018935474 0.12003158 -0.04474607 -0.050424594 -0.023079121
0.02896279 0.051507905 0.06735378 0.058995124 0.1277393 0.034108356 -0.00086284697 0.043188848
-0.0015530277 -0.09741298 0.112822354 -0.065754056 -0.032524414 -0.14374924 0.033086397 0.20113866
-0.082736865 -0.023979971 0.12856251 -0.11590677 0.08983941 -0.17248526 0.010577266 0.024947127
0.016938867 0.034379665 0.12253716 -0.067885384 0.11674956 0.13934074 -0.036956143 -0.017582493
-0.030544695 0.064521566 -0.02096383 0.16735613 -0.061771907 0.08540089 0.04723441 0.09217165
-0.050997585 -0.09657913 -0.045843802 0.065041095 0.11814279 0.064568534 0.0117699085 -0.11403528
-0.054599997 -0.10769826 -0.00014228173 0.052008275 -0.050541062 0.035318747 -0.029695489 -0.11148245
-0.081849135 -0.0021489123 0.08838843 0.013433417 0.0518097 -0.08944056 -0.10497331 0.06327291
0.03191962 0.05189944 0.034208868 0.08700383 -0.14358237 -0.11785054 0.03846374 -0.07850194
-0.010362511 0.13709323 0.016190631 0.21554673 0.013003681 -0.13841076 -0.056185357 0.048408236
0.065283425 0.0035958944 -0.09576356 -0.036237873 -0.12801322 0.08425944 -0.026118213 0.022015326
0.06622155 -0.03287098 0.031002125 -0.046029855 0.0288787 0.011296139 0.047673885 0.05576194
-0.12321485 -0.03300881 -0.018344032 0.08763356 -0.12572053 -0.016324675 0.093637176 0.0027729739
0.1332857 0.10102487 -0.016661623 0.05264531 0.0076027904 0.00958244 -0.0607796 -0.032490615
0.0015476336 0.010684594 0.028149225 0.032762557 0.058268882 -0.012685281 0.017171608 0.1292653
0.044428393 0.16025032 -0.04337821 0.09354678 0.1366199 -0.040722318 -0.013070591 -0.019703928
0.06672594 0.009761976 0.06397858 -0.08976515 0.12044035 -0.0436514 -0.0140594095 0.10552226
0.0325124 0.03160113 -0.03867369 0.008840138 0.007828563 0.029233217 -0.015468847 -0.019740645
-0.056966785 0.061160695 0.001430397 -0.045791198 0.033292316 -0.03394789 -0.029108638 -0.019224346
-0.10137222 -0.06135434 -0.09563341 -0.090716675 -0.094132304 0.10473254 -0.05804894 0.08465305
0.0067530023 0.026091969 0.018293547 -0.029759932 -0.07741451 -0.07498875 -0.053390663 -0.115075424
0.10031866 -0.15436344 0.059145626 0.039716598 0.012751664 0.033054758 0.03679875 -0.036434222
-0.09366157 0.044349544 0.1004981 0.015096928 -0.0416178 0.023971416 0.071856044 0.06864059
0.018619116 -0.14782007 0.068669975 0.16353728 0.032079738 -0.061787322 0.040796097 0.04671384
0.023429414 -0.006255323 0.0070486185 -0.018928187 0.056801468 -0.072863676 -0.10575119 -0.119255915
00000000: 01c4 8b3c c807 983d da5f 5dbd 2500 813b
00000010: 254c e13c 62fa 7e3c 842b 233d c459 4b3d
00000020: 8c1d c83d 5855 9ebc 6c3f a3bc dca0 07be
00000030: 6960 793d 6585 01be d6a4 c6bc ac27 843c
00000040: a09d 58bd e2f1 85bd 46ef 83bd 2edc babc
00000050: ed98 21bd c492 90bd a73f 103c 9ad3 8fbd
00000060: 87af 24bd ceb0 a7bc f7b1 ab3b 23be b7bd
00000070: 9424 833d 4ecb 36bc 5b3c 0fbd 44bf 3f3d
00000080: 913f 4d3e 5385 3abd a60e cd3c a096 cabd
00000090: fbef 0dbe ff98 a63c 14eb 9fbb 3279 cd3d
000000a0: ba78 1c3c 6ff6 26bd d914 aabd fd2b 063e
000000b0: d3f4 813a 3840 84bd 3d97 25bd b07f 2e3e
000000c0: b1eb 8f3d e0b6 f7bc ce1c 63bb 911e 9b3c
000000d0: 1ed3 f53d a847 37bd 058a 4ebd 6d10 bdbc
000000e0: 5f43 ed3c f4f9 523d c7f0 893d dfa4 713d
000000f0: 17ce 023e 34b5 0b3d ae30 62ba cae6 303d
00000100: f68e cbba 7580 c7bd 680f e73d 10aa 86bd
00000110: 5238 05bd 0033 13be 9a85 073d 4bf7 4d3e
00000120: f271 a9bd a571 c4bc e4a5 033e 8760 edbd
00000130: b9fd b73d fa9f 30be 454c 2d3c eb5d cc3c
00000140: 61c3 8a3c b1d1 0c3d c3f4 fa3d 7e07 8bbd
00000150: 651a ef3d 57af 0e3e 535f 17bd 2909 90bc
00000160: de38 fabc e223 843d 57bc abbc 685f 2b3e
00000170: 8a04 7dbd a9e6 ae3d de78 413d 7dc4 bc3d
00000180: d8e2 50bd 47cb c5bd b6c6 3bbd 4434 853d
00000190: d9f4 f13d 823c 843d 93d6 403c 548b e9bd
000001a0: 3fa4 5fbd e890 dcbd 7631 15b9 a106 553d
000001b0: 2504 4fbd 64aa 103d f443 f3bc e950 e4bd
000001c0: 85a0 a7bd c4d4 0cbb fe04 b53d d617 5c3c
000001d0: 6836 543d 9d2c b7bd 3ffc d6bd 3a95 813d
000001e0: 26be 023d 8294 543d 991e 0c3d 102f b23d
000001f0: 4207 13be a05b f1bd 288c 1d3d a0c5 a0bd
00000200: 85c7 29bc 2b62 0c3e 37a2 843c 48b8 5c3e
00000210: 640d 553c 8dbb 0dbe 9e22 66bd b747 463d
00000220: 51b3 853d 19a9 6b3b af1f c4bd 2a6e 14bd
00000230: e615 03be 3790 ac3d ddf5 d5bc 7c59 b43c
00000240: 2a9f 873d b9a3 06bd 2bf8 fd3c cd89 3cbd
00000250: 0693 ec3c 7113 393c b145 433d a266 643d
00000260: 1158 fcbd 3f34 07bd 3946 96bc 3979 b33d
00000270: e2bc 00be 53bb 85bc d9c4 bf3d c8ba 353b
00000280: 0c7c 083e 21e6 ce3d f57d 88bc 9ca2 573d
00000290: d420 f93b abff 1c3c 08f4 78bd e114 05bd
000002a0: f7d9 ca3a 6f0e 2f3c 3499 e63c 0832 063d
000002b0: 5aab 6e3d edd5 4fbc 79ab 8c3c 1f5e 043e
000002c0: 8cfa 353d a918 243e 5aad 31bd 7495 bf3d
000002d0: 16e6 0b3e 72cc 26bd 0826 56bc 226a a1bc
000002e0: 9ca7 883d b2f0 1f3c 3407 833d cad6 b7bd
000002f0: 6ea9 f63d cfcb 32bd 7059 66bc 0e1c d83d
00000300: b92b 053d 3070 013d 4e68 1ebd 3ad6 103c
00000310: 6043 003c 807a ef3c 0c71 7dbc 22b7 a1bc
00000320: 0156 69bd a383 7a3d 297c bb3a 8d8f 3bbd
00000330: 865d 083d f10c 0bbd 3d75 eebc 607c 9dbc
00000340: 3d9c cfbd b04e 7bbd 73db c3bd aac9 b9bd
00000350: 70c8 c0bd 047e d63d bac4 6dbd 945e ad3d
00000360: 4a48 dd3b d3be d53c 59dc 953c 1acb f3bc
00000370: 808b 9ebd b493 99bd 2bb0 5abd aaac ebbd
00000380: df73 cd3d 7311 1ebe af42 723d dfad 223d
00000390: 5bec 503c 6d64 073d 49ba 163d 0d3c 15bd
000003a0: a3d1 bfbd dea7 353d f3d1 cd3d 1b59 773c
000003b0: 6d77 2abd b45f c43c 4329 933d 7093 8c3d
000003c0: 1e87 983c 255e 17be d8a2 8c3d 5176 273e
000003d0: 0b66 033d b414 7dbd cf19 273d 0357 3f3d
000003e0: 0bef bf3c 74f9 ccbb 19f8 e63b 490f 9bbc
000003f0: a8a8 683d 8d39 95bd 1494 d8bd 723c f4bd

h2h.bias f4 [242]
-0.015465424 -0.040655337 0.036232967 -0.042211182 -0.03266425 -0.02509706 0.041240018 0.00776465
0.050039027 -0.01566176 -0.04293437 -0.014123237 -0.024877459 -0.00066562067 0.045463074 -0.02421069
0.032508995 0.04325847 0.039173413 0.047133088 -0.047440764 -0.0140976515 0.021578675 -0.017871067
-0.023488376 -0.027494298 -0.019700935 0.007504693 0.021477336 -0.03830456 0.055263817 -0.007395703
-0.050715026 0.04040916 0.08848526 0.065130726 -0.013183282 0.028645331 -0.005003982 -0.028559027
0.015571153 0.015440616 0.047843195 -0.038548227 -0.044412795 -0.039920714 -0.0070728273 0.063269384
-0.012942716 0.032184705 -0.018429479 0.042954143 0.08829137 0.031561967 0.083042644 -0.0060568964
0.028237427 -0.032915343 0.01433896 0.073758274 -0.05026763 0.025807837 0.03382875 -0.029517075
0.0020371021 0.0037707656 -0.058145158 0.06868149 0.06587495 0.0044088643 -0.012055538 0.09222803
0.03244688 -0.061056573 0.036004502 0.017123125 -0.043812495 0.057445284 -0.007457236 0.020632405
0.0123225 0.05753972 -0.06993859 -0.052950967 0.03515597 -0.03562121 0.09094177 0.00062143494
0.042464826 -0.03239593 -0.032039445 0.042963758 0.0021988158 -0.004623216 -0.022103628 0.059976857
0.047904808 0.02819961 0.020384792 -0.013192854 0.045228694 0.0020409194 0.05840204 -0.03384394
-0.020925133 0.04598993 0.021993225 0.013875499 0.038228054 0.018888801 -0.009972225 -0.021220602
0.021236245 -0.027854243 -0.0020247682 0.0008320681 -0.004613357 -0.021099249 0.050301094 0.017068911
-0.036639955 0.0038057696 -0.031879306 -0.02138675 0.035406124 0.02512852 -0.028075133 0.011890153
-0.016316295 0.018057121 0.013654286 0.072236925 0.017771028 0.03158496 0.041785687 0.07488677
-0.033456415 0.025893679 0.04779058 0.043911744 0.041838158 0.0355015 0.0118772 -0.01714477
-0.009603389 -0.03599 0.0059492267 -0.0056613428 -0.024088645 -0.03290347 -0.025284493 0.06272925
-0.06725846 -0.038150366 -0.031122921 0.031073812 0.012288329 0.003340545 -0.013865142 0.040072154
0.0049770377 -0.08341909 0.052920736 0.079044625 0.046920814 -0.04654375 0.027599188 -0.010322916
-0.0065349713 0.03745179 0.051499464 -0.05056434 0.030280562 0.07905515 -0.04028855 -0.059008945
-0.00026452378 -0.00071604847 0.055538446 0.04885818 0.08206051 -0.01680851 0.018074218 0.047866974
0.01872448 0.00043671642 0.012661712 0.055753075 -0.017616017 0.037824005 -0.02945912 0.035669062
-0.025882326 -0.014332509 0.0017848636 0.08384255 -0.030670287 -0.034546573 -0.044480767 0.08100399
0.029253073 -0.02896854 0.043342702 0.030399427 -0.003052808 -0.022197828 0.06692983 0.011459802
0.090847746 -0.00906696 0.049629595 0.02399244 0.018242182 0.038424715 -0.037800852 0.0004875233
0.0013644843 0.005986728 0.03517937 0.046392404 -0.022423632 -0.008747218 0.035943363 0.0015819665
0.0143368915 -0.040345535 0.021073056 0.00026855478 -0.02506445 0.06487239 -0.010223268 -0.0032373075
0.025262421 0.01952096 -0.051318817 -0.05259506 -0.005929572 0.020537836 0.040512588 -0.014713344
-0.020591924 -0.02954432
00000000: b162 7dbc 3686 26bd 0569 143d a2e5 2cbd
00000010: f3ca 05bd 5998 cdbc 4beb 283d 9b6e fe3b
00000020: b9f5 4c3d 174d 80bc f3db 2fbd 2665 67bc
00000030: d0cb cbbc 0c7d 2eba 7d37 3a3d 7f55 c6bc
00000040: 2728 053d cb2f 313d 4d74 203d a00e 413d
00000050: 3f51 42bd d6f9 66bc c3c5 b03c 5866 92bc
00000060: b26a c0bc b93b e1bc db63 a1bc eee9 f53b
00000070: 3df1 af3c 3ee5 1cbd 505c 623d a757 f2bb
00000080: 8fba 4fbd 1384 253d c337 b53d 4263 853d
00000090: b1fe 57bc 9da9 ea3c 72f8 a3bb 9ff4 e9bc
000000a0: 261e 7f3c a3fa 7c3c 3af7 433d bfe4 1dbd
000000b0: 31ea 35bd e783 23bd 2dc3 e7bb 6193 813d
000000c0: af0d 54bc 1cd4 033d 6bf9 96bc aff0 2f3d
000000d0: 1bd2 b43d 1f47 013d 4312 aa3d ee78 c6bb
000000e0: 2d52 e73c 3dd2 06bd f5ed 6a3c 940e 973d
000000f0: 6ee5 4dbd f56a d33c 0490 0a3d cbcd f1bc
00000100: e780 053b f31e 773b 9e29 6ebd e2a8 8c3d
00000110: 72e9 863d 3c78 903b 9784 45bc 0de2 bc3d
00000120: 05e7 043d 7516 7abd 7579 133d cc45 8c3c
00000130: bb74 33bd bf4b 6b3d d45b f4bb 4a05 a93c
00000140: 50e4 493c c5ae 6b3d f73b 8fbd 1de3 58bd
00000150: b5ff 0f3d 8ce7 11bd ae3f ba3d cbe7 223a
00000160: 99ef 2d3d 98b1 04bd cb3b 03bd c4fa 2f3d
00000170: 021a 103b 597e 97bb ab12 b5bc 4baa 753d
00000180: d537 443d de02 e73c 02fe a63c d726 58bc
00000190: b941 393d f2c0 053b fa36 6f3d f19f 0abd
000001a0: 2f6b abbc f05f 3c3d 232b b43c 1056 633c
000001b0: 0595 1c3d b0bc 9a3c 8b62 23bc d4d6 adbc
000001c0: a2f7 ad3c 952e e4bc f9b1 04bb 251f 5a3a
000001d0: a52b 97bb 55d8 acbc 8508 4e3d 1ad4 8b3c
000001e0: c713 16bd 386a 793b e093 02bd 4433 afbc
000001f0: 0306 113d 53da cd3c d2fd e5bc ebce 423c
00000200: c0a9 85bc 87ec 933c 3ab6 5f3c f4f0 933d
00000210: 8c94 913c 3b5f 013d 7827 2b3d 3c5e 993d
00000220: 9809 09bd fb1e d43c 0ec0 433d cddc 333d
00000230: 7d5e 2b3d 056a 113d 9698 423c 3073 8cbc
00000240: 8857 1dbc 406a 13bd bbf1 c23b c982 b9bb
00000250: 8d55 c5bc cac5 06bd 6d21 cfbc 3178 803d
00000260: cebe 89bd 8f43 1cbd 7ff5 febc 828e fe3c
00000270: fd54 493c 0ced 5a3b 9f2a 63bc b322 243d
00000280: 6b16 a33b a1d7 aabd 6ac3 583d 26e2 a13d
00000290: 0a30 403d a9a4 3ebd b117 e23c 7321 29bc
000002a0: 5023 d6bb 0c67 193d 1af1 523d 8e1c 4fbd
000002b0: f10e f83c abe7 a13d 9b05 25bd 5db3 71bd
000002c0: c8af 8ab9 33b5 3bba 487c 633d 841f 483d
000002d0: 570f a83d 00b2 89bc 6210 943c 2910 443d
000002e0: 1564 993c 16f7 e439 1273 4f3c 565d 643d
000002f0: 774f 90bc 58ed 1a3d 4154 f1bc b919 123d
00000300: 2c07 d4bc e6d2 6abc 16f2 e93a a5b5 ab3d
00000310: 4140 fbbc b580 0dbd 7731 36bd 6be5 a53d
00000320: 24a4 ef3c 6e4f edbc 1e88 313d 3808 f93c
00000330: 9f11 48bb 38d8 b5bc 8212 893d e5c1 3b3c
00000340: 620e ba3d 968d 14bc 6748 4b3d cb8b c43c
00000350: a170 953c 3c63 1d3d 11d5 1abd 459a ff39
00000360: 7fd8 b23a 502c c43b 3e18 103d f605 3e3d
00000370: c4b1 b7bc 7e50 0fbc 5939 133d fd59 cf3a
00000380: 48e5 6a3c 5c41 25bd 67a1 ac3c d0cc 8c39
00000390: f653 cdbc d1db 843d 7e7f 27bc 0229 54bb
000003a0: 23f3 ce3c 6cea 9f3c ae33 52bd eb6d 57bd
000003b0: db4c c2bb f73e a83c 87f0 253d 3d10 71bc
000003c0: 65b0 a8bc ee06 f2bc
