VLSI23/plots/chip_spikeclassifier/TrainedALL_epochs-150-input_size-2-16-12-hidden_size-256-batch_size-32-lr-0.001-tmax_ms-400.0-Ts-10.0-kfolds-6-datasetPath-N_4b_allchannels_ALLCLASS_auto_nospkfilter_cleaned_12x16_180mvpp_250mvofs/chip-classifier-4-best.pt (torch, 667511 bytes, 8 tensors)

thr_h_1 f4 [256]
1.0 1.0 1.0 1.0 1.0 1.0 1.0 1.0
1.0 1.0 1.0 1.0 1.0 1.0 1.0 1.0
1.0 1.0 1.0 1.0 1.0 1.0 1.0 1.0
1.0 1.0 1.0 1.0 1.0 1.0 1.0 1.0
1.0 1.0 1.0 1.0 1.0 1.0 1.0 1.0
1.0 1.0 1.0 1.0 1.0 1.0 1.0 1.0
1.0 1.0 1.0 1.0 1.0 1.0 1.0 1.0
1.0 1.0 1.0 1.0 1.0 1.0 1.0 1.0
1.0 1.0 1.0 1.0 1.0 1.0 1.0 1.0
1.0 1.0 1.0 1.0 1.0 1.0 1.0 1.0
1.0 1.0 1.0 1.0 1.0 1.0 1.0 1.0
1.0 1.0 1.0 1.0 1.0 1.0 1.0 1.0
1.0 1.0 1.0 1.0 1.0 1.0 1.0 1.0
1.0 1.0 1.0 1.0 1.0 1.0 1.0 1.0
1.0 1.0 1.0 1.0 1.0 1.0 1.0 1.0
1.0 1.0 1.0 1.0 1.0 1.0 1.0 1.0
1.0 1.0 1.0 1.0 1.0 1.0 1.0 1.0
1.0 1.0 1.0 1.0 1.0 1.0 1.0 1.0
1.0 1.0 1.0 1.0 1.0 1.0 1.0 1.0
1.0 1.0 1.0 1.0 1.0 1.0 1.0 1.0
1.0 1.0 1.0 1.0 1.0 1.0 1.0 1.0
1.0 1.0 1.0 1.0 1.0 1.0 1.0 1.0
1.0 1.0 1.0 1.0 1.0 1.0 1.0 1.0
1.0 1.0 1.0 1.0 1.0 1.0 1.0 1.0
1.0 1.0 1.0 1.0 1.0 1.0 1.0 1.0
1.0 1.0 1.0 1.0 1.0 1.0 1.0 1.0
1.0 1.0 1.0 1.0 1.0 1.0 1.0 1.0
1.0 1.0 1.0 1.0 1.0 1.0 1.0 1.0
1.0 1.0 1.0 1.0 1.0 1.0 1.0 1.0
1.0 1.0 1.0 1.0 1.0 1.0 1.0 1.0
1.0 1.0 1.0 1.0 1.0 1.0 1.0 1.0
1.0 1.0 1.0 1.0 1.0 1.0 1.0 1.0
00000000: 0000 803f 0000 803f 0000 803f 0000 803f
00000010: 0000 803f 0000 803f 0000 803f 0000 803f
00000020: 0000 803f 0000 803f 0000 803f 0000 803f
00000030: 0000 803f 0000 803f 0000 803f 0000 803f
00000040: 0000 803f 0000 803f 0000 803f 0000 803f
00000050: 0000 803f 0000 803f 0000 803f 0000 803f
00000060: 0000 803f 0000 803f 0000 803f 0000 803f
00000070: 0000 803f 0000 803f 0000 803f 0000 803f
00000080: 0000 803f 0000 803f 0000 803f 0000 803f
00000090: 0000 803f 0000 803f 0000 803f 0000 803f
000000a0: 0000 803f 0000 803f 0000 803f 0000 803f
000000b0: 0000 803f 0000 803f 0000 803f 0000 803f
000000c0: 0000 803f 0000 803f 0000 803f 0000 803f
000000d0: 0000 803f 0000 803f 0000 803f 0000 803f
000000e0: 0000 803f 0000 803f 0000 803f 0000 803f
000000f0: 0000 803f 0000 803f 0000 803f 0000 803f
00000100: 0000 803f 0000 803f 0000 803f 0000 803f
00000110: 0000 803f 0000 803f 0000 803f 0000 803f
00000120: 0000 803f 0000 803f 0000 803f 0000 803f
00000130: 0000 803f 0000 803f 0000 803f 0000 803f
00000140: 0000 803f 0000 803f 0000 803f 0000 803f
00000150: 0000 803f 0000 803f 0000 803f 0000 803f
00000160: 0000 803f 0000 803f 0000 803f 0000 803f
00000170: 0000 803f 0000 803f 0000 803f 0000 803f
00000180: 0000 803f 0000 803f 0000 803f 0000 803f
00000190: 0000 803f 0000 803f 0000 803f 0000 803f
000001a0: 0000 803f 0000 803f 0000 803f 0000 803f
000001b0: 0000 803f 0000 803f 0000 803f 0000 803f
000001c0: 0000 803f 0000 803f 0000 803f 0000 803f
000001d0: 0000 803f 0000 803f 0000 803f 0000 803f
000001e0: 0000 803f 0000 803f 0000 803f 0000 803f
000001f0: 0000 803f 0000 803f 0000 803f 0000 803f
00000200: 0000 803f 0000 803f 0000 803f 0000 803f
00000210: 0000 803f 0000 803f 0000 803f 0000 803f
00000220: 0000 803f 0000 803f 0000 803f 0000 803f
00000230: 0000 803f 0000 803f 0000 803f 0000 803f
00000240: 0000 803f 0000 803f 0000 803f 0000 803f
00000250: 0000 803f 0000 803f 0000 803f 0000 803f
00000260: 0000 803f 0000 803f 0000 803f 0000 803f
00000270: 0000 803f 0000 803f 0000 803f 0000 803f
00000280: 0000 803f 0000 803f 0000 803f 0000 803f
00000290: 0000 803f 0000 803f 0000 803f 0000 803f
000002a0: 0000 803f 0000 803f 0000 803f 0000 803f
000002b0: 0000 803f 0000 803f 0000 803f 0000 803f
000002c0: 0000 803f 0000 803f 0000 803f 0000 803f
000002d0: 0000 803f 0000 803f 0000 803f 0000 803f
000002e0: 0000 803f 0000 803f 0000 803f 0000 803f
000002f0: 0000 803f 0000 803f 0000 803f 0000 803f
00000300: 0000 803f 0000 803f 0000 803f 0000 803f
00000310: 0000 803f 0000 803f 0000 803f 0000 803f
00000320: 0000 803f 0000 803f 0000 803f 0000 803f
00000330: 0000 803f 0000 803f 0000 803f 0000 803f
00000340: 0000 803f 0000 803f 0000 803f 0000 803f
00000350: 0000 803f 0000 803f 0000 803f 0000 803f
00000360: 0000 803f 0000 803f 0000 803f 0000 803f
00000370: 0000 803f 0000 803f 0000 803f 0000 803f
00000380: 0000 803f 0000 803f 0000 803f 0000 803f
00000390: 0000 803f 0000 803f 0000 803f 0000 803f
000003a0: 0000 803f 0000 803f 0000 803f 0000 803f
000003b0: 0000 803f 0000 803f 0000 803f 0000 803f
000003c0: 0000 803f 0000 803f 0000 803f 0000 803f
000003d0: 0000 803f 0000 803f 0000 803f 0000 803f
000003e0: 0000 803f 0000 803f 0000 803f 0000 803f
000003f0: 0000 803f 0000 803f 0000 803f 0000 803f

thr_o f4 [6]
1.0 1.0 1.0 1.0 1.0 1.0
00000000: 0000 803f 0000 803f 0000 803f 0000 803f
00000010: 0000 803f 0000 803f

i2h.weight f4 [256, 384]
0.06575004 -0.077237956 -0.060570896 -0.07339761 0.022649793 -0.07416861 0.068409786 0.0645487
0.034194324 -0.04805635 0.046826597 0.087739535 0.041425176 -0.058344793 -0.056015097 0.019647766
0.031249924 0.019828122 0.042590138 -0.021253495 -0.060967866 0.0005614363 0.018224165 0.0071801553
-0.03891466 0.034607925 0.044665873 0.010976646 -0.09674239 -0.06866395 -0.04686466 0.061215095
-0.056052417 0.035677176 -0.023685167 0.07076886 0.056552947 0.0069847624 0.025150336 0.0020327892
0.06253298 -0.060939472 -0.065950505 0.035435688 0.060200483 -0.04542322 -0.028519886 -0.029046364
0.025371766 -0.036437273 0.016866159 -0.038504206 0.03360025 0.05711723 -0.04336182 0.0049492014
-0.020346215 0.025655625 -0.019157609 -0.08913645 -0.046977237 -0.09010779 0.026211506 -0.086200684
0.031537075 0.028755007 0.070027135 0.07273178 -0.014465577 0.05644086 0.04875862 -0.00843539
-0.08012492 0.011322769 -0.06257732 0.021733357 0.082584165 -0.030684134 -0.014717211 -0.091070935
-0.029183045 0.088763565 0.010174804 -0.08191849 0.032829005 -0.07007273 0.016647639 -0.059405766
-0.07485245 0.060269598 0.044162374 0.028733293 0.022229116 -0.03370687 0.044627205 -0.0740824
-0.0036457316 -0.0051446036 -0.029835738 0.066214144 0.024260523 0.096310355 0.022576569 -0.022558881
0.060315236 -0.0050682505 -0.080909684 0.07927177 0.056521647 -0.05188244 -0.10340216 -0.03603045
-0.011164676 0.02603805 -0.068720795 -0.06365673 0.02862639 -0.07435144 0.08521449 0.0042583104
-0.080464534 0.056712944 -0.090858854 0.030768035 0.06302349 -0.027033675 0.052671466 0.08423827
-0.09700745 -0.049980354 0.0062333336 -0.022806978 0.057759427 -0.08094637 -0.017462464 -0.0026643183
0.08885056 -0.10107705 0.0093728155 -0.02360278 0.066039816 0.006135129 0.028956003 0.058435317
0.04231248 -0.064001866 0.031008225 0.057355545 -0.08586319 -0.07925623 0.015429197 -0.09679784
-0.08703445 -0.09123712 -0.045428816 0.07751666 -0.044007186 0.051557973 -0.018907266 -0.08702652
-0.080114804 0.055375315 0.0677632 0.0199795 0.07071563 0.0902467 0.09043203 -0.0087681245
0.012650031 -0.0876821 -0.036098115 -0.048313327 0.09408532 -0.031186806 0.033961244 -0.03175262
0.06963396 0.09734336 -0.016852988 0.03693469 -0.023478081 0.029578578 -0.04924016 0.045184523
-0.03782337 -0.016054465 0.06533612 -0.039900545 -0.055616926 0.06703384 0.050031368 -0.031014714
-0.09250182 -0.0013287858 0.09131377 0.07516235 0.07065358 0.029084451 0.08144122 0.010274494
-0.092282824 -0.076763764 -0.046312965 -0.07940688 0.026026255 0.045958027 0.12412793 -0.0014787745
-0.071469106 -0.013815232 0.07279277 -0.024759127 0.019986952 -0.045846038 0.08822147 0.060504947
-0.038710926 0.08739266 0.039702445 0.09179246 -0.016868535 -0.063106604 0.04291818 -0.087124296
-0.021558745 0.022149768 -0.08266738 0.037456773 0.040502757 0.080192216 -0.008748616 -0.04861845
-0.015422718 -0.033619594 -0.021432877 0.06374187 -0.0520819 0.045651942 0.0290046 0.065058
0.009953348 -0.032473855 0.08412919 -0.016247265 -0.04274855 0.08649915 0.08619515 -0.010966705
-0.00057619263 -0.05610241 0.041956745 -0.054263823 -0.030549468 0.055508047 -0.048119176 -0.098818645
00000000: f5a7 863d ef2e 9ebd 3019 78bd 7c51 96bd
00000010: 0f8c b93c b6e5 97bd 6e1a 8c3d 1c32 843d
00000020: 590f 0c3d bcd6 44bd 3fcd 3f3d c9b0 b33d
00000030: 72ad 293d f3fa 6ebd 1670 65bd 5af4 a03c
00000040: d7ff ff3c 966e a23c ff72 2e3d cf1b aebc
00000050: 71b9 79bd 5a2d 133a d84a 953c 8247 eb3b
00000060: fb64 1fbd 0ac1 0d3d 90f3 363d 64d7 333c
00000070: e020 c6bd af9f 8cbd 28f5 3fbd aebc 7a3d
00000080: 3897 65bd 3b22 123d 6507 c2bc 44ef 903d
00000090: 10a4 673d 6fe0 e43b 1408 ce3c 8b38 053b
000000a0: 4b11 803d ab9b 79bd 0f11 87bd 0325 113d
000000b0: c894 763d b30d 3abd 89a2 e9bc a4f2 edbc
000000c0: 73d8 cf3c 403f 15bd e62a 8a3c 96b6 1dbd
000000d0: 6aa0 093d c2f3 693d 2a9c 31bd e92c a23b
000000e0: 1bad a6bc bf2b d23c 6bf0 9cbc 2c8d b6bd
000000f0: 346b 40bd 6f8a b8bd 83b9 d63c fc89 b0bd
00000100: 052d 013d 9f8f eb3c 636a 8f3d 66f4 943d
00000110: 0701 6dbc 882e 673d 1eb7 473d 9734 0abc
00000120: 8918 a4bd 2383 393c 8a28 80bd 270a b23c
00000130: e321 a93d 4b5d fbbc 7520 71bc 6683 babd
00000140: 4811 efbc acc9 b53d 39b4 263c e2c4 a7bd
00000150: b577 063d 4b82 8fbd a160 883c 7653 73bd
00000160: 3e4c 99bd 41dd 763d 9be3 343d 1562 eb3c
00000170: d619 b63c 3710 0abd 04cb 363d 83b8 97bd
00000180: 3aed 6ebb 1094 a8bb 146a f4bc 489b 873d
00000190: 01be c63c 5d3e c53d 7ff2 b83c 67cd b8bc
000001a0: 1c0d 773d 9113 a6bb fab3 a5bd 3d59 a23d
000001b0: 3e83 673d ae82 54bd 83c4 d3bd aa94 13bd
000001c0: 0cec 36bc c04d d53c 7dbd 8cbd 765e 82bd
000001d0: e481 ea3c 9145 98bd ef84 ae3d 4c89 8b3b
000001e0: 97ca a4bd d54b 683d 3514 babd 3f0d fc3c
000001f0: 7612 813d ba75 ddbc 09be 573d 1d85 ac3d
00000200: d8ab c6bd 33b8 4cbd fe40 cc3b b3d5 babc
00000210: 2695 6c3d 36c7 a5bd 710d 8fbc d89b 2ebb
00000220: 48f7 b53d 7c01 cfbd 7090 193c 9e5a c1bc
00000230: e23f 873d 3109 c93b 2435 ed3c df59 6f3d
00000240: da4f 2d3d 6913 83bd f604 fe3c a6ed 6a3d
00000250: 0ad9 afbd 1751 a2bd beca 7c3c f23d c6bd
00000260: 1e3f b2bd 87da babd 9113 3abd 0ec1 9e3d
00000270: e140 34bd 742e 533d 69e3 9abc f63a b2bd
00000280: 3b13 a4bd 3ad1 623d 6fc7 8a3d 0cac a33c
00000290: 5bd3 903d 43d3 b83d 6e34 b93d 2ea8 0fbc
000002a0: 1342 4f3c ac92 b3bd 9edb 13bd 32e4 45bd
000002b0: ceaf c03d 797b ffbc f21a 0b3d 090f 02bd
000002c0: 409c 8e3d f55b c73d 470f 8abc d448 173d
000002d0: 1b55 c0bc c64e f23c 0db0 49bd 6813 393d
000002e0: aeec 1abd a784 83bc f2ce 853d c16e 23bd
000002f0: 93ce 63bd 0a49 893d b1ed 4c3d 9212 febc
00000300: 9871 bdbd a72a aeba b702 bb3d b8ee 993d
00000310: d3b2 903d 8442 ee3c a8ca a63d 5a56 283c
00000320: c7fe bcbd 5236 9dbd aab2 3dbd 13a0 a2bd
00000330: 0335 d53c 7c3e 3c3d c936 fe3d 70d3 c1ba
00000340: 655e 92bd 4859 62bc 6014 953d a7d3 cabc
00000350: adbb a33c 0ec9 3bbd 75ad b43d 09d4 773d
00000360: 598f 1ebd ecfa b23d 089f 223d affd bb3d
00000370: e22f 8abc 093e 81bd f9ca 2f3d 396e b2bd
00000380: f79b b0bc 6e73 b53c 844d a9bd 466c 193d
00000390: 38e6 253d d13b a43d 5b56 0fbc 2424 47bd
000003a0: 91af 7cbc b3b4 09bd 0094 afbc 198b 823d
000003b0: d553 55bd 88fd 3a3d 0e9b ed3c 213d 853d
000003c0: 5e13 233c 4e03 05bd ed4b ac3d fc18 85bc
000003d0: 1b19 2fbd 7726 b13d 1587 b03d b2ad 33bc
000003e0: a20b 17ba a4cb 65bd d6da 2b3d be43 5ebd
000003f0: e142 fabc 685c 633d 9d18 45bd 6e61 cabd

i2h.bias f4 [256]
0.029706305 0.038527716 -0.010019877 0.0137461405 -0.00029052637 0.019417543 0.007432283 -0.0065939277
-0.0033726203 0.015959203 -0.005628499 -0.00012024543 0.008798533 0.0045244503 -0.025981415 0.003888965
0.008269893 0.013172064 0.00051454164 0.011549691 -0.0032926581 0.006995829 -0.014128303 0.0109367175
0.011907147 -0.0024518638 0.0067532947 0.004524314 0.010107157 0.0032049888 0.0023480104 0.01588122
-0.012349355 0.0068812277 -0.014367537 -0.0010281057 -0.00576261 0.0032934623 -0.0101190945 0.010773442
0.0012516655 0.014745937 0.02595734 -0.010517748 -0.024611391 -0.0007857654 -0.00582882 -0.0088672545
0.014176648 -0.0069484944 0.02009224 -0.0075688167 0.014152297 -0.0048910407 0.003741379 0.011043412
0.012602031 0.013124451 0.0029753137 -0.010573544 -0.0007894576 0.011919231 0.00059228425 -0.0017620726
-0.0064976304 -0.0036960903 0.015146 0.006519427 0.009488167 -0.005629117 0.024686141 0.039440017
-0.0056973896 0.0059736697 0.003305463 0.0019190506 0.015082493 0.024476804 -0.005687795 0.009108115
-0.00065950415 0.0072017554 0.013183442 -0.013174491 0.017652392 0.015961507 0.0106084 -0.0069562895
-0.008740825 -0.013150849 0.0036484906 -0.019709578 -0.002429108 0.030448046 -0.008884031 -0.0052086236
-0.02517851 0.0062790704 0.0014206683 0.0065629473 -0.0073901755 -0.0036584013 0.00060389965 0.0135364225
-0.0059944815 0.017011428 0.031814046 -0.0024819917 -0.010654962 -0.0010116877 0.005583252 -0.006506898
0.016423283 0.0036556036 0.010508132 0.023685401 0.009051184 -0.026566703 0.008709605 -0.018783193
0.0025315788 -0.010195315 0.0082514 0.031889547 0.0005007981 0.018972216 -0.0021746485 -0.03352752
-0.010285063 -0.012714 0.0015074279 0.004069431 -0.009511057 0.0031324371 0.011761225 0.010189552
0.008819927 0.0019513699 0.011855164 -0.00053071324 0.0030894808 0.030192235 0.007520977 0.007241674
-0.016255017 0.007071236 0.010052915 0.0034255008 0.0048015304 0.00093712343 0.015124312 0.0072587705
0.006107181 0.009916425 0.009082745 -0.013622389 0.0025707835 -0.004709289 0.031026788 -0.0034009693
-0.008921092 0.008209923 -0.009060879 0.0024445918 0.030272098 0.008548825 -0.00087803986 0.0182982
-0.007433189 0.0139623275 -0.01739323 0.018687727 -0.0051442613 -0.0012119449 0.027673919 -0.0048659854
-0.010403311 -0.0068526957 -0.00665366 0.0059324084 -0.009333949 -0.0008354468 0.0028679871 0.0029564789
0.006027588 0.007553083 0.014889743 0.0043587014 0.010468084 -0.004977179 -0.0034988313 0.016571097
0.0032023815 0.0134384455 0.004959068 0.018216394 0.00051376177 -0.02504516 0.008378077 0.008133483
-0.019548519 0.0028834178 -0.010167257 -0.01945399 0.008292846 -0.009946916 0.0250539 0.014535126
0.00802375 0.019326217 0.0115184765 0.00025871975 0.018775905 -0.018533057 0.0048275874 -0.002981125
0.004680738 0.015435438 -0.00793511 0.003914277 0.009251418 0.028996164 -0.012079731 0.008832547
-0.0025125104 0.020650787 -0.0008921394 0.014202281 0.012348614 -0.013023496 -0.013860192 0.024214247
0.0036549778 -0.020780303 0.014891961 0.046573374 0.036535416 0.0031780112 0.013360684 0.0047720443
0.026643941 0.05405758 0.023182435 -0.0056168176 0.019158794 0.018115621 0.02605481 0.0028213833
0.025800537 0.014293482 -0.006259243 0.041746445 0.007061644 0.010161693 -0.012521711 0.0153177725
00000000: a35a f33c 3dcf 1d3d 692a 24bc 7e37 613c
00000010: ca51 98b9 8a11 9f3c 828a f33b e011 d8bb
00000020: 2e07 5dbb e0bc 823c 466f b8bb 462c fcb8
00000030: b927 103c d741 943b fad6 d4bc 01de 7e3b
00000040: 727e 073c a4cf 573c 4ee2 063a ea3a 3d3c
00000050: a3c9 57bb 443d e53b 667a 67bc eb2f 333c
00000060: 3216 433c 73af 20bb be4a dd3b b240 943b
00000070: 7d98 253c ca0a 523b 14e1 193b 5519 823c
00000080: f354 4abc ec7b e13b d165 6bbc 81c1 86ba
00000090: 47d4 bcbb 21d7 573b 8fca 25bc 1783 303c
000000a0: ed0e a43a f198 713c 7da4 d43c a252 2cbc
000000b0: d49d c9bc d3fb 4dba b0ff bebb f647 11bc
000000c0: 2c45 683c 32b0 e3bb 7b98 a43c d603 f8bb
000000d0: 09df 673c 0645 a0bb ec31 753b 6def 343c
000000e0: c078 4e3c f007 573c 7bfd 423b a83c 2dbc
000000f0: 9af3 4eba e148 433c 8643 1b3a 58f5 e6ba
00000100: 13ea d4bb 1b3a 72bb ee26 783c eba0 d53b
00000110: 4274 1b3c 7574 b8bb 973a ca3c db8b 213d
00000120: 2bb1 babb c6be c33b 77a0 583b a788 fb3a
00000130: 901c 773c 9483 c83c af60 babb 343a 153c
00000140: 93e2 2cba b4fc eb3b 5dff 573c d2d9 57bc
00000150: c09b 903c b5c1 823c dbce 2d3c 96f1 e3bb
00000160: ad35 0fbc a976 57bc 841b 6f3b fb75 a1bc
00000170: ab31 1fbb 2e6e f93c 548e 11bc 1aad aabb
00000180: 2a43 cebc a9c0 cd3b b835 ba3a fe0d d73b
00000190: 4929 f2bb cac1 6fbb 054f 1e3a dfc7 5d3c
000001a0: 5b6d c4bb 8d5b 8b3c 724f 023d e9a8 22bb
000001b0: 2692 2ebc 9b9a 84ba b6f3 b63b d137 d5bb
000001c0: 1f8a 863c da92 6f3b 4d2a 2c3c e307 c23c
000001d0: 6b4b 143c 6aa2 d9bc bbb2 0e3c 36df 99bc
000001e0: d8e8 253b 400a 27bc e130 073c 9d9e 023d
000001f0: fe47 033a 9f6b 9b3c 8c84 0ebb 2754 09bd
00000200: ae82 28bc 624e 50bc e394 c53a dd58 853b
00000210: 44d4 1bbc 9349 4d3b 27b2 403c 14f2 263c
00000220: 7581 103c 1cc5 ff3a 293c 423c 901f 0bba
00000230: e378 4a3b b555 f73c 8772 f63b 904b ed3b
00000240: 3e29 85bc d4b5 e73b fbb4 243c 5e7e 603b
00000250: 2856 9d3b 4aa9 753a f6cb 773c fbda ed3b
00000260: bf1e c83b 8078 223c cbcf 143c 7130 5fbc
00000270: 977a 283b 6150 9abb e42b fe3c cce2 5ebb
00000280: c629 12bc ea82 063c 1574 14bc 7235 203b
00000290: 31fd f73c 5f10 0c3c 422c 66ba 1be6 953c
000002a0: 1c92 f3bb 3fc2 643c 3f7c 8ebc 0117 993c
000002b0: 3191 a8bb 1fda 9eba 6ab4 e23c d872 9fbb
000002c0: a672 2abc 948c e0bb f206 dabb a664 c23b
000002d0: 6bed 18bc e301 5bba d7f4 3b3b 7cc1 413b
000002e0: 1383 c53b da7f f73b 1cf4 733c 70d3 8e3b
000002f0: 5482 2b3c 9b17 a3bb a64c 65bb 1cc0 873c
00000300: 0cdf 513b ed2c 5c3c ad7f a23b 8c3a 953c
00000310: f8ad 063a 822b cdbc 3444 093c 4d42 053c
00000320: 3724 a0bc b9f7 3c3b 9194 26bc f95d 9fbc
00000330: b8de 073c 64f8 22bc d63d cd3c bd24 6e3c
00000340: 0c76 033c 0452 9e3c feb7 3c3c c7a4 8739
00000350: edcf 993c a3d2 97bc bd30 9e3b fa5e 43bb
00000360: e060 993b ebe4 7c3c 4302 02bc 5643 803b
00000370: 4293 173c 5d89 ed3c 10ea 45bc 63b6 103c
00000380: eea8 24bb d72b a93c 76de 69ba afb0 683c
00000390: d751 4a3c 8060 55bc dc15 63bc f55c c63c
000003a0: 5a88 6f3b 743b aabc 69fd 733c b9c3 3e3d
000003b0: 29a6 153d 2e46 503b c5e6 5a3c cf5e 9c3b
000003c0: 6544 da3c 7b6b 5d3d 17e9 bd3c 480d b8bb
000003d0: e7f2 9c3c 3667 943c e670 d53c f5e6 383b
000003e0: a65b d33c 352f 6a3c 561a cdbb 52fe 2a3d
000003f0: 5d65 e73b 3b7d 263c dd27 4dbc 65f7 7a3c

h2o.weight f4 [6, 256]
-0.077065185 0.04636122 -0.12683412 -0.10428391 -0.0192071 0.11640427 -0.048809495 -0.09413191
-0.029496603 -0.14509386 -0.103252284 -0.039203443 -0.027372692 0.008671263 0.123393625 -0.1116775
-0.0496231 -0.03178699 -0.01611274 0.0043489775 0.13122314 -0.14615646 0.092532106 -0.035150692
0.0004890428 -0.11415434 0.08597578 0.13197586 -0.06491175 0.12737969 0.07310202 -0.07206892
-0.11337833 -0.111411534 -0.098937266 -0.046641115 -0.109032534 -0.037678342 0.06367008 0.09321324
0.12595257 -0.10504147 0.120400004 -0.119135685 -0.13887462 0.030356025 0.005589368 0.09496594
-0.16374898 -0.038119934 0.11622264 -0.048455417 0.119985044 -0.0493216 -0.13614412 0.06714411
0.006366054 0.025441933 -0.028416058 -0.14968154 0.01080901 0.15032315 0.029401202 -0.11403811
-0.08642591 -0.018869404 0.10252681 0.07709957 -0.15165667 -0.018535327 0.025017897 0.007918998
0.06803448 -0.13528611 0.13261978 -0.07449642 0.025647664 0.11902774 0.109713435 -0.12767714
0.11600722 -0.08550102 0.122777045 -0.14620973 -0.14272045 -0.09305173 -0.05011563 0.08625619
0.09717509 0.13752203 0.10408503 -0.14765097 -0.13893992 0.0068071596 -0.022634208 -0.036607455
-0.0982344 0.02882096 0.08273312 0.13959283 0.03765559 0.029352292 0.09508311 0.03580167
0.07793617 0.12918015 -0.050046787 -0.14705312 -0.05767647 -0.10466741 0.15671858 -0.16071378
0.071274884 0.12548853 0.145418 0.01235894 -0.05649726 -0.0976128 0.02267326 -0.0461728
-0.007901421 0.13148762 0.06405423 -0.1394299 0.10124796 -0.037845712 0.052774884 -0.062416997
0.05247281 -0.086550884 0.15123059 0.12087192 -0.08942009 -0.014483675 0.068835445 0.061182063
-0.11196093 0.015000442 0.16286069 -0.007831938 0.11321441 -0.120958075 0.0007530461 -0.031807013
-0.00719714 -0.06642105 0.05083511 -0.15123875 0.098329745 0.050669834 -0.029523188 -0.003950998
0.14550513 0.06509334 0.15168768 -0.022000091 0.0039078807 -0.09340311 -0.0032507847 -0.059398904
-0.040170822 0.111550294 -0.19105248 -0.0057375655 -0.07252235 -0.028378692 0.10493319 -0.11722814
0.08148914 -0.005565116 -0.023403665 0.14619878 -0.1058662 -0.06004536 0.06182972 -0.08524273
0.077124596 0.07501702 -0.026651153 0.0628892 -0.151548 0.10499483 0.05782863 0.14875764
0.054336123 0.013708206 0.13567056 -0.13432543 0.1540639 -0.13724309 -0.08144087 -0.04765987
0.03686783 0.13392037 -0.070739366 0.12828243 -0.13297051 0.071824245 -0.06276778 -0.13391949
0.09287228 -0.011168714 0.08744033 -0.035982903 0.020386241 -0.04021652 -0.07581475 -0.04888352
0.04930799 -0.083314426 -0.121926636 0.13436799 0.06939854 -0.05962238 0.080602944 -0.07496972
0.13002032 0.016752778 0.028607657 -0.011835916 -0.14093307 0.06899888 0.1409059 0.118452586
0.09416486 0.09783315 0.11642156 -0.0034206123 -0.1416939 0.057863574 -0.09406493 0.09200231
-0.05615292 0.04298531 -0.08721887 -0.10249947 -0.054866765 0.13010526 0.1415416 0.017615533
-0.029926421 -0.041155107 -0.14946733 0.007538973 0.14263771 -0.016482439 0.14308132 0.09866419
0.019610777 -0.020592162 -0.10837062 0.08466462 0.13637765 0.020813048 -0.029714797 -0.043740727
00000000: 5ad4 9dbd 43e5 3d3d cee0 01be cd92 d5bd
00000010: 3558 9dbc 5d65 ee3d 77ec 47bd 3bc8 c0bd
00000020: dca2 f1bc 7c93 14be ef75 d3bd ca93 20bd
00000030: b23c e0bc ea11 0e3c ccb5 fc3d 2cb7 e4bd
00000040: 9741 4bbd 1333 02bd ddfe 83bc de81 8e3b
00000050: 5c5f 063e 0aaa 15be 7981 bd3d 2cfa 0fbd
00000060: 1b33 003a c0c9 e9bd 1214 b03d ae24 073e
00000070: 74f0 84bd d26f 023e 83b6 953d df98 93bd
00000080: e632 e8bd bb2b e4bd 9f9f cabd c10a 3fbd
00000090: 734c dfbd 9b54 1abd 7565 823d 95e6 be3d
000000a0: b6f9 003e fb1f d7bd 4794 f63d 69fd f3bd
000000b0: 2635 0ebe 33ad f83c 0427 b73b 817d c23d
000000c0: d0ad 27be a623 1cbd 2306 ee3d 3079 46bd
000000d0: b8ba f53d 7205 4abd 5d69 0bbe da82 893d
000000e0: 559a d03b 9a6b d03c cbc8 e8bc 1e46 19be
000000f0: 4618 313c 50ee 193e cada f03c d08c e9bd
00000100: 1100 b1bd 0294 9abc 93f9 d13d 61e6 9d3d
00000110: e34b 1bbe 66d7 97bc 55f2 cc3c afbe 013c
00000120: a955 8b3d 7188 0abe 7bcd 073e 9491 98bd
00000130: 0d1b d23c d1c4 f33d 70b1 e03d ccbd 02be
00000140: 3195 ed3d 291b afbd 8872 fb3d 01b8 15be
00000150: 4f25 12be e891 bebd 0c46 4dbd 16a7 b03d
00000160: bc03 c73d 93d2 0c3e 882a d53d d131 17be
00000170: 4446 0ebe 980e df3b 606b b9bc b3f1 15bd
00000180: 1e2f c9bd ef19 ec3c fb6f a93d 6cf1 0e3e
00000190: bf3c 1a3d 3874 f03c efba c23d c6a4 123d
000001a0: 009d 9f3d cd47 043e dcfd 4cbd 1895 16be
000001b0: 2a3e 6cbd de5b d6bd d67a 203e 2792 24be
000001c0: 91f8 913d 1180 003e 75e8 143e 277d 4a3c
000001d0: ac69 67bd 38e9 c7bd 46bd b93c b11f 3dbd
000001e0: f674 01bc b1a4 063e dd2e 833d b6c6 0ebe
000001f0: 175b cf3d 1b04 1bbd 7a2a 583d f7a8 7fbd
00000200: bbed 563d 9741 b1bd 31dc 1a3e b28b f73d
00000210: e121 b7bd f04c 6dbc 99f9 8c3d 0b9a 7a3d
00000220: c64b e5bd 6ac4 753c f4c4 263e 8751 00bc
00000230: f5dc e73d deb8 f7bd 1168 453a 1248 02bd
00000240: fcd5 ebbb c207 88bd 7a38 503d 55de 1abe
00000250: 1b61 c93d 2c8b 4f3d 9dda f1bc 6077 81bb
00000260: 4cff 143e a84f 853d 0454 1b3e 8939 b4bc
00000270: ae0d 803b 214a bfbd 1e0b 55bb 444c 73bd
00000280: 298a 24bd 7b74 e43d 43a3 43be 3002 bcbb
00000290: 9986 94bd 6e7a e8bc 36e7 d63d 4f15 f0bd
000002a0: c7e3 a63d 945b b6bb 0bb9 bfbc 22b5 153e
000002b0: 61d0 d8bd 20f2 75bd 2941 7d3d be93 aebd
000002c0: 80f3 9d3d 86a2 993d 8553 dabc 0ecc 803d
000002d0: 662f 1bbe 8807 d73d b7dd 6c3d ec53 183e
000002e0: 8e8f 5e3d 6298 603c 39ed 0a3e 9b8c 09be
000002f0: edc2 1d3e 7489 0cbe 79ca a6bd ff36 43bd
00000300: b902 173d 6c22 093e cddf 90bd 785c 033e
00000310: 6c29 08be 9718 933d 658c 80bd 3122 09be
00000320: d233 be3d fbfc 36bc ea13 b33d cf62 13bd
00000330: 0c01 a73c 14ba 24bd c344 9bbd 163a 48bd
00000340: 2df7 493d c1a0 aabd acb4 f9bd c397 093e
00000350: d220 8e3d 9936 74bd 2813 a53d b989 99bd
00000360: 0c24 053e 1f3d 893c 9b5a ea3c 6eeb 41bc
00000370: c250 10be 494f 8d3d a349 103e 4597 f23d
00000380: 82d9 c03d bf5c c83d 6d6e ee3d 5a2c 60bb
00000390: 3518 11be 5b02 6d3d 1da5 c0bd b56b bc3d
000003a0: 9b00 66bd 5d11 303d cf9f b2bd 3eeb d1bd
000003b0: f9bb 60bd 503a 053e 48f0 103e 734e 903c
000003c0: 4128 f5bc 4292 28bd f70d 19be 7d09 f73b
000003d0: 9f0f 123e 2e06 87bc e983 123e 7310 ca3d
000003e0: c8a6 a03c e5b0 a8bc 6af1 ddbd a564 ad3d
000003f0: 95a6 0b3e 2080 aa3c 726c f3bc 7a29 33bd

h2o.bias f4 [6]
0.0049532955 0.016886855 0.01169262 0.019134529 0.00017728549 0.0056696218
00000000: 414f a23b 4d56 8a3c 6792 3f3c 04c0 9c3c
00000010: b6e5 3939 3cc8 b93b

h2h.weight f4 [256, 256]
0.048325967 -0.026906803 -0.031139174 -0.04192599 0.017668573 -0.02571817 -0.025356343 0.033506203
-0.062239975 0.07273496 -0.03759516 -0.049575813 -0.014448533 -0.11948507 0.01454383 0.0770319
-0.048916243 -0.09801433 -0.048666507 -0.11732574 0.07259623 -0.050407633 -0.057763048 0.118507616
0.066423796 0.062261816 0.007880536 0.0243965 -0.10338403 -0.095422044 0.014438969 0.081159174
0.11420036 0.04921691 0.06304707 0.1099866 0.020061677 -0.1275392 0.10519681 -0.025283795
0.050280042 0.046719328 0.03496504 0.104234405 0.03148351 -0.029040065 -0.06129376 -0.011103374
0.010315983 -0.015833585 0.021621201 -0.105741315 -0.21572642 0.008124799 0.032046407 -0.15252067
-0.15422858 0.014489705 -0.074287966 -0.008029112 0.12020536 -0.13797759 -0.04207099 0.013285714
-0.043349225 0.041597687 0.08889686 -0.13192213 -0.05696729 0.03663837 -0.0459347 0.03835007
0.0823955 0.01967117 0.052030995 0.058291964 0.020834565 -0.015030409 0.010342237 0.11320095
-0.023550982 -0.0021187207 -0.033574335 0.02767846 -0.09511912 -0.048024718 0.060121592 -0.12950604
-0.053299975 0.10540872 0.00067517575 -0.029009689 -0.055730343 0.017063726 0.05267336 0.016976468
0.0225853 0.08981847 0.016292254 -0.11484006 0.108349994 -0.094793394 -0.048540607 -0.08370581
-0.20630023 -0.0056987647 0.03503701 0.04822766 -0.03557751 0.05404128 -0.04462456 -0.044344064
0.08034223 0.0019306623 0.020582568 -0.0037281772 0.026098434 0.049963437 -0.018989056 -0.047632564
-0.06570258 0.04844594 -0.053685542 0.09292572 -0.04042816 0.0680661 0.0625203 -0.043167714
0.0726031 0.011518074 -0.054360796 0.01251722 -0.0025335497 0.15128669 0.015057852 -0.010594329
-0.05898073 -0.047447868 0.11372563 -0.0014824972 -0.14201601 0.10588148 0.034741875 -0.06026317
-0.03850202 -0.04320154 0.07226918 0.06876418 0.05764073 -0.08100004 0.020610634 0.019434717
0.003227479 0.0025952102 0.039213628 0.015142577 -0.07670978 -0.0014179929 -0.11554214 -0.04144909
0.05075548 -0.01772422 0.06907665 0.0138855735 -0.011377366 0.093708605 -0.06371805 0.17936035
-0.06290451 -0.015071604 0.024056396 -0.05512647 0.0835433 -0.013216681 0.13639589 -0.03141588
0.034017514 -0.06970276 -0.009177866 0.028831225 0.10677396 -0.07176527 -0.001625596 -0.089714535
-0.037601773 -0.028438773 0.08524854 -0.022583496 -0.08388242 -0.06414854 0.030322677 -0.06282181
0.019817943 0.08212704 -0.07594058 -0.035150457 0.09214719 0.00763733 -0.014843406 0.06267914
0.067595534 0.11760087 -0.07452101 0.09169767 0.08273108 0.0014909474 0.033344105 -0.067998976
0.04184384 0.004605173 0.062387165 -0.021155735 -0.0957352 -0.0342755 0.044628825 0.018820468
-0.07500613 0.06333948 0.040613357 0.02029676 -0.011147401 0.095699504 0.016389564 0.07188023
-0.026440391 0.05954268 0.048324395 0.028221985 -0.016589621 0.0063785263 0.06481353 -0.018573418
0.06719093 0.09834771 0.017399 0.104974724 -0.021005625 -0.051776305 -0.013938133 0.011811437
0.01745655 0.070680894 -0.05832909 0.064107336 -0.09747339 -0.08455087 -0.04158642 0.11390029
-0.005611224 0.017782323 0.06803697 0.027057149 -0.0064204987 0.040912565 0.05994456 -0.016065272
00000000: 73f1 453d a86b dcbc 9517 ffbc 96ba 2bbd
00000010: afbd 903c e9ae d2bc 1bb8 cfbc cd3d 093d
00000020: 58ef 7ebd 11f6 943d 62fd 19bd 0210 4bbd
00000030: 8ab9 6cbc 97b4 f4bd 3f49 6e3c e7c2 9d3d
00000040: 665c 48bd bdbb c8bd 8856 47bd 7a48 f0bd
00000050: 55ad 943d 3c78 4ebd f298 6cbd 1fb4 f23d
00000060: 3309 883d 3f06 7f3d 5d1d 013c 2bdb c73c
00000070: 02bb d3bd a26c c3bd 6d91 6c3c c836 a63d
00000080: e1e1 e93d ac97 493d d21e 813d a840 e13d
00000090: 6358 a43c a399 02be 6d71 d73d f61f cfbc
000000a0: 72f2 4d3d c45c 3f3d 8037 0f3d d978 d53d
000000b0: daf4 003d 6ee5 edbc 2a0f 7bbd edea 35bc
000000c0: 5e04 293c 6fb5 81bc f21e b13c e78e d8bd
000000d0: 63e7 5cbe e01d 053c 1843 033d 612e 1cbe
000000e0: 19ee 1dbe 3a66 6d3c 4a24 98bd 898c 03bc
000000f0: 3a2e f63d ff49 0dbe a152 2cbd 53ac 593c
00000100: f58e 31bd 5662 2a3d 8f0f b63d 9816 07be
00000110: 8856 69bd 1e12 163d 0626 3cbd f714 1d3d
00000120: f9be a83d 6f25 a13c 741e 553d 8ec3 6e3d
00000130: 40ad aa3c 1b42 76bc 7c72 293c e6d5 e73d
00000140: fded c0bc 3cda 0abb 3e85 09bd f0bd e23c
00000150: d0cd c2bd 91b5 44bd 0f42 763d 3b9d 04be
00000160: 1351 5abd 87e0 d73d 47fe 303a baa5 edbc
00000170: 8045 64bd 3ac9 8b3c 05c0 573d 3c12 8b3c
00000180: cf04 b93c bff2 b73d 5577 853c 4431 ebbd
00000190: 9ae6 dd3d 0a23 c2bd 84d2 46bd f46d abbd
000001a0: 5e40 53be b4bc babb f882 0f3d 5e8a 453d
000001b0: b9b9 11bd 645a 5d3d 3ec8 36bd 1fa2 35bd
000001c0: 788a a43d 470e fd3a c69c a83c 6f54 74bb
000001d0: 62cc d53c 76a6 4c3d f08e 9bbc 5d1a 43bd
000001e0: 138f 86bd 406f 463d 5fe5 5bbd d74f be3d
000001f0: 0098 25bd 3d66 8b3d a50a 803d a1d0 30bd
00000200: efb0 943d 4eb6 3c3c 6da9 5ebd 0715 4d3c
00000210: e909 26bb e6ea 1a3e 35b5 763c d693 2dbc
00000220: c795 71bd b258 42bd fce8 e83d 5a50 c2ba
00000230: a56c 11be 64d8 d83d 7f4d 0e3d 84d6 76bd
00000240: 4bb4 1dbd 19f4 30bd dd01 943d 3cd4 8c3d
00000250: b018 6c3d 59e3 a5bd a2d7 a83c 8e35 9f3c
00000260: 1d84 533b 6714 2a3b 789e 203d 9218 783c
00000270: 041a 9dbd f2db b9ba 5ca1 ecbd 85c6 29bd
00000280: fae4 4f3d 6232 91bc 0f78 8d3d 5180 633c
00000290: 2268 3abc 4cea bf3d 9c7e 82bd 3daa 373e
000002a0: 14d4 80bd e4ee 76bc eb11 c53c 4bcc 61bd
000002b0: c018 ab3d c78a 58bc 5dab 0b3e f0ad 00bd
000002c0: f355 0b3d 52c0 8ebd c35e 16bc 762f ec3c
000002d0: 4eac da3d abf9 92bd f311 d5ba 41bc b7bd
000002e0: 5104 1abd 6ef8 e8bc c996 ae3d 0601 b9bc
000002f0: 8cca abbd 4f60 83bd 4367 f83c b9a8 80bd
00000300: 3d59 a23c 3932 a83d bc86 9bbd edf9 0fbd
00000310: aab7 bc3d 9142 fa3b c231 73bc ec5d 803d
00000320: 876f 8a3d bad8 f03d 799e 98bd fdcb bb3d
00000330: ea6e a93d e56b c33a d493 083d 0c43 8bbd
00000340: 7264 2b3d fee6 963b af89 7f3d cb4e adbc
00000350: d110 c4bd 7764 0cbd b7cc 363d 622d 9a3c
00000360: d09c 99bd 21b8 813d 315a 263d 6445 a63c
00000370: 97a3 36bc 1afe c33d 6843 863c f135 933d
00000380: 8599 d8bc 06e3 733d cdef 453d cb31 e73c
00000390: f5e6 87bc f502 d13b f5bc 843d 4827 98bc
000003a0: 669b 893d 866a c93d 5988 8e3c fdfc d63d
000003b0: fd13 acbc 6413 54bd c45c 64bc c284 413c
000003c0: 0a01 8f3c 25c1 903d 7cea 6ebd b54a 833d
000003d0: 21a0 c7bd 0229 adbd 8656 2abd 8e44 e93d
000003e0: 5cde b7bb 3cac 913c f856 8b3d f4a6 dd3c
000003f0: 0c63 d2bb ef93 273d 6d88 753d 519b 83bc

h2h.bias f4 [256]
0.029706305 0.038527716 -0.010019877 0.0137461405 -0.00029052637 0.019417543 0.007432283 -0.0065939277
-0.0033726203 0.015959203 -0.005628499 -0.00012024543 0.008798533 0.0045244503 -0.025981415 0.003888965
0.008269893 0.013172064 0.00051454164 0.011549691 -0.0032926581 0.006995829 -0.014128303 0.0109367175
0.011907147 -0.0024518638 0.0067532947 0.004524314 0.010107157 0.0032049888 0.0023480104 0.01588122
-0.012349355 0.0068812277 -0.014367537 -0.0010281057 -0.00576261 0.0032934623 -0.0101190945 0.010773442
0.0012516655 0.014745937 0.02595734 -0.010517748 -0.024611391 -0.0007857654 -0.00582882 -0.0088672545
0.014176648 -0.0069484944 0.02009224 -0.0075688167 0.014152297 -0.0048910407 0.003741379 0.011043412
0.012602031 0.013124451 0.0029753137 -0.010573544 -0.0007894576 0.011919231 0.00059228425 -0.0017620726
-0.0064976304 -0.0036960903 0.015146 0.006519427 0.009488167 -0.005629117 0.024686141 0.039440017
-0.0056973896 0.0059736697 0.003305463 0.0019190506 0.015082493 0.024476804 -0.005687795 0.009108115
-0.00065950415 0.0072017554 0.013183442 -0.013174491 0.017652392 0.015961507 0.0106084 -0.0069562895
-0.008740825 -0.013150849 0.0036484906 -0.019709578 -0.002429108 0.030448046 -0.008884031 -0.0052086236
-0.02517851 0.0062790704 0.0014206683 0.0065629473 -0.0073901755 -0.0036584013 0.00060389965 0.0135364225
-0.0059944815 0.017011428 0.031814046 -0.0024819917 -0.010654962 -0.0010116877 0.005583252 -0.006506898
0.016423283 0.0036556036 0.010508132 0.023685401 0.009051184 -0.026566703 0.008709605 -0.018783193
0.0025315788 -0.010195315 0.0082514 0.031889547 0.0005007981 0.018972216 -0.0021746485 -0.03352752
-0.010285063 -0.012714 0.0015074279 0.004069431 -0.009511057 0.0031324371 0.011761225 0.010189552
0.008819927 0.0019513699 0.011855164 -0.00053071324 0.0030894808 0.030192235 0.007520977 0.007241674
-0.016255017 0.007071236 0.010052915 0.0034255008 0.0048015304 0.00093712343 0.015124312 0.0072587705
0.006107181 0.009916425 0.009082745 -0.013622389 0.0025707835 -0.004709289 0.031026788 -0.0034009693
-0.008921092 0.008209923 -0.009060879 0.0024445918 0.030272098 0.008548825 -0.00087803986 0.0182982
-0.007433189 0.0139623275 -0.01739323 0.018687727 -0.0051442613 -0.0012119449 0.027673919 -0.0048659854
-0.010403311 -0.0068526957 -0.00665366 0.0059324084 -0.009333949 -0.0008354468 0.0028679871 0.0029564789
0.006027588 0.007553083 0.014889743 0.0043587014 0.010468084 -0.004977179 -0.0034988313 0.016571097
0.0032023815 0.0134384455 0.004959068 0.018216394 0.00051376177 -0.02504516 0.008378077 0.008133483
-0.019548519 0.0028834178 -0.010167257 -0.01945399 0.008292846 -0.009946916 0.0250539 0.014535126
0.00802375 0.019326217 0.0115184765 0.00025871975 0.018775905 -0.018533057 0.0048275874 -0.002981125
0.004680738 0.015435438 -0.00793511 0.003914277 0.009251418 0.028996164 -0.012079731 0.008832547
-0.0025125104 0.020650787 -0.0008921394 0.014202281 0.012348614 -0.013023496 -0.013860192 0.024214247
0.0036549778 -0.020780303 0.014891961 0.046573374 0.036535416 0.0031780112 0.013360684 0.0047720443
0.026643941 0.05405758 0.023182435 -0.0056168176 0.019158794 0.018115621 0.02605481 0.0028213833
0.025800537 0.014293482 -0.006259243 0.041746445 0.007061644 0.010161693 -0.012521711 0.0153177725
00000000: a35a f33c 3dcf 1d3d 692a 24bc 7e37 613c
00000010: ca51 98b9 8a11 9f3c 828a f33b e011 d8bb
00000020: 2e07 5dbb e0bc 823c 466f b8bb 462c fcb8
00000030: b927 103c d741 943b fad6 d4bc 01de 7e3b
00000040: 727e 073c a4cf 573c 4ee2 063a ea3a 3d3c
00000050: a3c9 57bb 443d e53b 667a 67bc eb2f 333c
00000060: 3216 433c 73af 20bb be4a dd3b b240 943b
00000070: 7d98 253c ca0a 523b 14e1 193b 5519 823c
00000080: f354 4abc ec7b e13b d165 6bbc 81c1 86ba
00000090: 47d4 bcbb 21d7 573b 8fca 25bc 1783 303c
000000a0: ed0e a43a f198 713c 7da4 d43c a252 2cbc
000000b0: d49d c9bc d3fb 4dba b0ff bebb f647 11bc
000000c0: 2c45 683c 32b0 e3bb 7b98 a43c d603 f8bb
000000d0: 09df 673c 0645 a0bb ec31 753b 6def 343c
000000e0: c078 4e3c f007 573c 7bfd 423b a83c 2dbc
000000f0: 9af3 4eba e148 433c 8643 1b3a 58f5 e6ba
00000100: 13ea d4bb 1b3a 72bb ee26 783c eba0 d53b
00000110: 4274 1b3c 7574 b8bb 973a ca3c db8b 213d
00000120: 2bb1 babb c6be c33b 77a0 583b a788 fb3a
00000130: 901c 773c 9483 c83c af60 babb 343a 153c
00000140: 93e2 2cba b4fc eb3b 5dff 573c d2d9 57bc
00000150: c09b 903c b5c1 823c dbce 2d3c 96f1 e3bb
00000160: ad35 0fbc a976 57bc 841b 6f3b fb75 a1bc
00000170: ab31 1fbb 2e6e f93c 548e 11bc 1aad aabb
00000180: 2a43 cebc a9c0 cd3b b835 ba3a fe0d d73b
00000190: 4929 f2bb cac1 6fbb 054f 1e3a dfc7 5d3c
000001a0: 5b6d c4bb 8d5b 8b3c 724f 023d e9a8 22bb
000001b0: 2692 2ebc 9b9a 84ba b6f3 b63b d137 d5bb
000001c0: 1f8a 863c da92 6f3b 4d2a 2c3c e307 c23c
000001d0: 6b4b 143c 6aa2 d9bc bbb2 0e3c 36df 99bc
000001e0: d8e8 253b 400a 27bc e130 073c 9d9e 023d
000001f0: fe47 033a 9f6b 9b3c 8c84 0ebb 2754 09bd
00000200: ae82 28bc 624e 50bc e394 c53a dd58 853b
00000210: 44d4 1bbc 9349 4d3b 27b2 403c 14f2 263c
00000220: 7581 103c 1cc5 ff3a 293c 423c 901f 0bba
00000230: e378 4a3b b555 f73c 8772 f63b 904b ed3b
00000240: 3e29 85bc d4b5 e73b fbb4 243c 5e7e 603b
00000250: 2856 9d3b 4aa9 753a f6cb 773c fbda ed3b
00000260: bf1e c83b 8078 223c cbcf 143c 7130 5fbc
00000270: 977a 283b 6150 9abb e42b fe3c cce2 5ebb
00000280: c629 12bc ea82 063c 1574 14bc 7235 203b
00000290: 31fd f73c 5f10 0c3c 422c 66ba 1be6 953c
000002a0: 1c92 f3bb 3fc2 643c 3f7c 8ebc 0117 993c
000002b0: 3191 a8bb 1fda 9eba 6ab4 e23c d872 9fbb
000002c0: a672 2abc 948c e0bb f206 dabb a664 c23b
000002d0: 6bed 18bc e301 5bba d7f4 3b3b 7cc1 413b
000002e0: 1383 c53b da7f f73b 1cf4 733c 70d3 8e3b
000002f0: 5482 2b3c 9b17 a3bb a64c 65bb 1cc0 873c
00000300: 0cdf 513b ed2c 5c3c ad7f a23b 8c3a 953c
00000310: f8ad 063a 822b cdbc 3444 093c 4d42 053c
00000320: 3724 a0bc b9f7 3c3b 9194 26bc f95d 9fbc
00000330: b8de 073c 64f8 22bc d63d cd3c bd24 6e3c
00000340: 0c76 033c 0452 9e3c feb7 3c3c c7a4 8739
00000350: edcf 993c a3d2 97bc bd30 9e3b fa5e 43bb
00000360: e060 993b ebe4 7c3c 4302 02bc 5643 803b
00000370: 4293 173c 5d89 ed3c 10ea 45bc 63b6 103c
00000380: eea8 24bb d72b a93c 76de 69ba afb0 683c
00000390: d751 4a3c 8060 55bc dc15 63bc f55c c63c
000003a0: 5a88 6f3b 743b aabc 69fd 733c b9c3 3e3d
000003b0: 29a6 153d 2e46 503b c5e6 5a3c cf5e 9c3b
000003c0: 6544 da3c 7b6b 5d3d 17e9 bd3c 480d b8bb
000003d0: e7f2 9c3c 3667 943c e670 d53c f5e6 383b
000003e0: a65b d33c 352f 6a3c 561a cdbb 52fe 2a3d
000003f0: 5d65 e73b 3b7d 263c dd27 4dbc 65f7 7a3c
