VLSI23_journal/intuitivechip_classifier_lcsvsnlcs_teensy/SNN_ep-150-isize-2-8-1-hsize-242-bsize-32-lr-0.001-tmax_ms-400.0-Ts-10.0-k-6-dsetPath-VMODE_allchannels_ALLCLASS_auto_corr_cleaned_1x8_18mvpp_250mvofs_onedac_itail_50nA_N3b/chip-classifier-0-best.pt (torch, 261239 bytes, 8 tensors)

thr_h_1 f4 [242]
00000000: 0000 803f 0000 803f 0000 803f 0000 803f
00000010: 0000 803f 0000 803f 0000 803f 0000 803f
00000020: 0000 803f 0000 803f 0000 803f 0000 803f
00000030: 0000 803f 0000 803f 0000 803f 0000 803f
00000040: 0000 803f 0000 803f 0000 803f 0000 803f
00000050: 0000 803f 0000 803f 0000 803f 0000 803f
00000060: 0000 803f 0000 803f 0000 803f 0000 803f
00000070: 0000 803f 0000 803f 0000 803f 0000 803f
00000080: 0000 803f 0000 803f 0000 803f 0000 803f
00000090: 0000 803f 0000 803f 0000 803f 0000 803f
000000a0: 0000 803f 0000 803f 0000 803f 0000 803f
000000b0: 0000 803f 0000 803f 0000 803f 0000 803f
000000c0: 0000 803f 0000 803f 0000 803f 0000 803f
000000d0: 0000 803f 0000 803f 0000 803f 0000 803f
000000e0: 0000 803f 0000 803f 0000 803f 0000 803f
000000f0: 0000 803f 0000 803f 0000 803f 0000 803f
00000100: 0000 803f 0000 803f 0000 803f 0000 803f
00000110: 0000 803f 0000 803f 0000 803f 0000 803f
00000120: 0000 803f 0000 803f 0000 803f 0000 803f
00000130: 0000 803f 0000 803f 0000 803f 0000 803f
00000140: 0000 803f 0000 803f 0000 803f 0000 803f
00000150: 0000 803f 0000 803f 0000 803f 0000 803f
00000160: 0000 803f 0000 803f 0000 803f 0000 803f
00000170: 0000 803f 0000 803f 0000 803f 0000 803f
00000180: 0000 803f 0000 803f 0000 803f 0000 803f
00000190: 0000 803f 0000 803f 0000 803f 0000 803f
000001a0: 0000 803f 0000 803f 0000 803f 0000 803f
000001b0: 0000 803f 0000 803f 0000 803f 0000 803f
000001c0: 0000 803f 0000 803f 0000 803f 0000 803f
000001d0: 0000 803f 0000 803f 0000 803f 0000 803f
000001e0: 0000 803f 0000 803f 0000 803f 0000 803f
000001f0: 0000 803f 0000 803f 0000 803f 0000 803f
00000200: 0000 803f 0000 803f 0000 803f 0000 803f
00000210: 0000 803f 0000 803f 0000 803f 0000 803f
00000220: 0000 803f 0000 803f 0000 803f 0000 803f
00000230: 0000 803f 0000 803f 0000 803f 0000 803f
00000240: 0000 803f 0000 803f 0000 803f 0000 803f
00000250: 0000 803f 0000 803f 0000 803f 0000 803f
00000260: 0000 803f 0000 803f 0000 803f 0000 803f
00000270: 0000 803f 0000 803f 0000 803f 0000 803f
00000280: 0000 803f 0000 803f 0000 803f 0000 803f
00000290: 0000 803f 0000 803f 0000 803f 0000 803f
000002a0: 0000 803f 0000 803f 0000 803f 0000 803f
000002b0: 0000 803f 0000 803f 0000 803f 0000 803f
000002c0: 0000 803f 0000 803f 0000 803f 0000 803f
000002d0: 0000 803f 0000 803f 0000 803f 0000 803f
000002e0: 0000 803f 0000 803f 0000 803f 0000 803f
000002f0: 0000 803f 0000 803f 0000 803f 0000 803f
00000300: 0000 803f 0000 803f 0000 803f 0000 803f
00000310: 0000 803f 0000 803f 0000 803f 0000 803f
00000320: 0000 803f 0000 803f 0000 803f 0000 803f
00000330: 0000 803f 0000 803f 0000 803f 0000 803f
00000340: 0000 803f 0000 803f 0000 803f 0000 803f
00000350: 0000 803f 0000 803f 0000 803f 0000 803f
00000360: 0000 803f 0000 803f 0000 803f 0000 803f
00000370: 0000 803f 0000 803f 0000 803f 0000 803f
00000380: 0000 803f 0000 803f 0000 803f 0000 803f
00000390: 0000 803f 0000 803f 0000 803f 0000 803f
000003a0: 0000 803f 0000 803f 0000 803f 0000 803f
000003b0: 0000 803f 0000 803f 0000 803f 0000 803f
000003c0: 0000 803f 0000 803f
1.0 1.0 1.0 1.0 1.0 1.0 1.0 1.0
1.0 1.0 1.0 1.0 1.0 1.0 1.0 1.0
1.0 1.0 1.0 1.0 1.0 1.0 1.0 1.0
1.0 1.0 1.0 1.0 1.0 1.0 1.0 1.0
1.0 1.0 1.0 1.0 1.0 1.0 1.0 1.0
1.0 1.0 1.0 1.0 1.0 1.0 1.0 1.0
1.0 1.0 1.0 1.0 1.0 1.0 1.0 1.0
1.0 1.0 1.0 1.0 1.0 1.0 1.0 1.0
1.0 1.0 1.0 1.0 1.0 1.0 1.0 1.0
1.0 1.0 1.0 1.0 1.0 1.0 1.0 1.0
1.0 1.0 1.0 1.0 1.0 1.0 1.0 1.0
1.0 1.0 1.0 1.0 1.0 1.0 1.0 1.0
1.0 1.0 1.0 1.0 1.0 1.0 1.0 1.0
1.0 1.0 1.0 1.0 1.0 1.0 1.0 1.0
1.0 1.0 1.0 1.0 1.0 1.0 1.0 1.0
1.0 1.0 1.0 1.0 1.0 1.0 1.0 1.0
1.0 1.0 1.0 1.0 1.0 1.0 1.0 1.0
1.0 1.0 1.0 1.0 1.0 1.0 1.0 1.0
1.0 1.0 1.0 1.0 1.0 1.0 1.0 1.0
1.0 1.0 1.0 1.0 1.0 1.0 1.0 1.0
1.0 1.0 1.0 1.0 1.0 1.0 1.0 1.0
1.0 1.0 1.0 1.0 1.0 1.0 1.0 1.0
1.0 1.0 1.0 1.0 1.0 1.0 1.0 1.0
1.0 1.0 1.0 1.0 1.0 1.0 1.0 1.0
1.0 1.0 1.0 1.0 1.0 1.0 1.0 1.0
1.0 1.0 1.0 1.0 1.0 1.0 1.0 1.0
1.0 1.0 1.0 1.0 1.0 1.0 1.0 1.0
1.0 1.0 1.0 1.0 1.0 1.0 1.0 1.0
1.0 1.0 1.0 1.0 1.0 1.0 1.0 1.0
1.0 1.0 1.0 1.0 1.0 1.0 1.0 1.0
1.0 1.0

thr_o f4 [6]
00000000: 0000 803f 0000 803f 0000 803f 0000 803f
00000010: 0000 803f 0000 803f
1.0 1.0 1.0 1.0 1.0 1.0

i2h.weight f4 [242, 16]
00000000: d7e4 973d c21b 183e f4d1 04be 289e d13d
00000010: 9cee e83d 3a7c 0bbe c085 3f3d e40c 41bb
00000020: be8f 57bb 539a 9bbd 9fdd f63c d344 ac3c
00000030: ed34 c13d 94e0 a83d 78b2 debd e2b1 ef3d
00000040: 0848 85ba dd8e 92bd 99fc d8bd 2877 37bc
00000050: 1412 663c eecd 0b3c e137 ecbd ef7f 3ebd
00000060: fbf7 ca3d 1b03 dd3c b9b3 0d3e d4b9 21be
00000070: 3a33 24bd 81e8 d039 af27 98bd 32ee 1f3e
00000080: 2184 013e 0395 633c 8324 6c3d 609e 0ebe
00000090: c35e 933b 8a2f 133e 32e7 a03d 30d3 c43d
000000a0: 17c7 2a3d 99d5 973c 039a e43c 2196 883d
000000b0: c197 a7bd eeea 69bd 9821 f53d e61d e4bd
000000c0: 664d 71bd 3f77 863d 4d82 77bd 0ea7 063e
000000d0: 33f8 26be 81d9 c6bd 242b e23d 8820 dabd
000000e0: e19e 8cbd 36df b0bd 21fe dc3d 352a 83b9
000000f0: ac45 27bd 37a2 f33d 40fc a5bd 0ad0 b0bd
00000100: 6f03 163e 6abb d43c a5f7 a23c c617 103e
00000110: 6ff1 92bc 267b 003e f2e7 b73d dc16 79bb
00000120: 5335 0c3d 1a1c 9cbd 06b9 503d 4d6d 72bd
00000130: afd0 683d de28 0cbe 14c4 8b3d 62f3 08be
00000140: 5809 0cbd 2ef8 4e3d 3b9b d33d ea74 0a3e
00000150: 8531 cd3b d581 e03d a3bb acbc 3e91 b63d
00000160: 2f40 b3bd fbaf ad3d 2a17 ee3c f1fd 033c
00000170: e5d3 fc3c abe8 f2bd 2085 ba3d 0873 bcbd
00000180: e852 d7bd 3b27 163d 72fe babc 0179 9f3c
00000190: 5584 4e3b 36ad e1bd 3f2c ebbd ca08 b93d
000001a0: 8c98 babd df6c 25bd ee7f f93d a710 fdbd
000001b0: 8a9f 33bd f176 8dbd 5c25 aabd 7b96 143d
000001c0: d5eb df3d 071f 6d3d e969 dc3d abc8 20be
000001d0: c48b dfbd a233 9fbd aa24 3a3d dc45 98bd
000001e0: 172c 8bbb ed3a 093d 761b c6bd 82e2 453d
000001f0: 0435 7abd 6e36 a5bb d627 dc3d 4601 ff3d
00000200: 3b4d b7bd e91c e73c d7b4 80bb 8f9d 99bc
00000210: 7bc2 4f3d e7cf b83d 6ec7 3fbd f703 2fbe
00000220: 2744 14be d33b 0fbc 6e68 fc3c 03e2 d4bd
00000230: cc16 81bd 8281 e8bd 373e 093e 4845 08bd
00000240: 582f f5bb 00cc 163e 119f 91bd 7088 023d
00000250: 3b14 fe3d f665 5a3d 5026 a33d 114c 8b3d
00000260: 184e 39bd 6a1b 89bd 50d2 0b3d 3995 aebd
00000270: 4402 1c3e 4011 9a3d c05b f53d 23b8 81bd
00000280: 45d8 433c d1f4 b8bd 4624 f4bd b34d a1bd
00000290: 3f8a 173e 9ddc 9fbd 1b06 18be 7fee 013e
000002a0: 0e60 d93d 4e6f b3bd 3e1f e83d f819 b43c
000002b0: 0886 39bb 0645 e9bd 9504 20be f74e 113e
000002c0: 02b4 be3d 858e cd3d baca 10be 3795 2ebe
000002d0: 8213 bf3d d68e 2fbe b1be 533d 90da d6bd
000002e0: 50e0 84bd 4a37 193e 3259 f13d 44f2 f0bd
000002f0: 7253 ff3d 9119 1e3c 6ad9 f9bc 1776 f7bc
00000300: c100 7abd 200d f73b d3f1 8e3d 60a8 d23b
00000310: eb0b 50bd 0b2a 033d ae8a 8d3d ff37 b8bc
00000320: 4793 febd 40f1 93bc 3bf3 f4bd 2939 2b3d
00000330: d3f9 283d 37ad 4d3d a1f3 0ebe 148f 18be
00000340: 625d d7bc aa41 263d 64dc 3ebc 7e77 92bd
00000350: 2ccb e23d 37b4 dd3d ae21 c83d e7d8 94bd
00000360: 3752 8e3d 4cc3 d8bd df4d ee3c 412f 71ba
00000370: 4ddd bfbd aead f43d 89e9 06be 997f 933c
00000380: 3511 6abd d0cd 903c aaba 8cbd 7458 1b3e
00000390: 827e 313d 31f7 3abe beb4 d13d 319c ce3d
000003a0: b006 b8bd 19f8 45bd 5e85 8b3d e3cd 283e
000003b0: 9e21 60bd 1b74 083e e999 d6bd e889 dd3c
000003c0: f0c9 efbd b10b 43b8 08e9 57bd e716 a5bc
000003d0: e52c 7a3d 0599 883d 6558 be3d 1c71 1cbd
000003e0: d8d3 a7bc ed9a 1a3e 042b e3bd 7632 08be
000003f0: 55c2 3f3d 1202 8cbd 7d44 153e f4f6 8fbd
0.074166946 0.14854339 -0.12970716 0.10235244 0.11373636 -0.13621607 0.046758413 -0.0029457146
-0.0032892074 -0.075977944 0.030134974 0.021028912 0.09433923 0.0824596 -0.10873884 0.1170385
-0.0010168562 -0.07156155 -0.10595054 -0.011197843 0.014042396 0.008532984 -0.115340956 -0.046508726
0.0991058 0.02697902 0.1383809 -0.15793544 -0.040087916 0.0003984608 -0.07429444 0.15618208
0.1264806 0.013890508 0.057652008 -0.13927603 0.0044973805 0.14373603 0.07856597 0.09610593
0.041693773 0.018534468 0.02790547 0.0666926 -0.08183242 -0.057108812 0.11969298 -0.11138515
-0.058911704 0.06565713 -0.060427 0.13149664 -0.16305618 -0.09709454 0.11043385 -0.10650736
-0.06866241 -0.08636324 0.10790659 -0.00025017714 -0.04083793 0.118961744 -0.081047535 -0.0863343
0.14649747 0.025968272 0.019893477 0.14071569 -0.01793739 0.12546977 0.08979787 -0.003800801
0.03423054 -0.076225474 0.050957702 -0.05918627 0.05683964 -0.13687465 0.06824508 -0.13374093
-0.0341886 0.05052965 0.10332342 0.13521162 0.0062620067 0.109622635 -0.021085566 0.089144215
-0.087524764 0.08480831 0.02906378 0.00805615 0.030862758 -0.11860784 0.09107423 -0.09201628
-0.1051386 0.036658507 -0.022826407 0.019466879 0.0031511982 -0.110193655 -0.11483049 0.090348795
-0.09111127 -0.04038703 0.12182604 -0.12356692 -0.04385332 -0.06907452 -0.08307907 0.03627632
0.10933653 0.057890918 0.10762388 -0.15701549 -0.1091533 -0.0777352 0.04544512 -0.074351996
-0.0042471993 0.03350346 -0.096732065 0.048311718 -0.061085716 -0.005041889 0.107497856 0.12451415
-0.089502774 0.028212028 -0.003927808 -0.018751888 0.05072258 0.09024029 -0.04682105 -0.17091356
-0.14479123 -0.008742291 0.030811515 -0.10394671 -0.06303176 -0.11352827 0.1340264 -0.033269197
-0.0074824505 0.14726257 -0.07110418 0.0318684 0.124062024 0.053319894 0.07966292 0.06801618
-0.04524049 -0.06694682 0.034136117 -0.08524556 0.1523524 0.075228214 0.119803905 -0.063339494
0.011953418 -0.0903107 -0.11920981 -0.07876148 0.1479883 -0.078057505 -0.14846079 0.12688635
0.10614024 -0.08761464 0.11334084 0.02198504 -0.0028308649 -0.11390118 -0.15626748 0.14190279
0.093116775 0.10036949 -0.14139834 -0.17049108 0.09329893 -0.17144331 0.05169553 -0.10490906
-0.06488097 0.14962497 0.11784591 -0.117649585 0.12467088 0.00964965 -0.030499179 -0.030207677
-0.061035875 0.0075394064 0.06979718 0.0064287633 -0.050792616 0.032022517 0.06911217 -0.022487639
-0.12430435 -0.018059373 -0.11960455 0.04180256 0.041253876 0.05021402 -0.13960125 -0.1489833
-0.026289646 0.040589966 -0.011649225 -0.071516976 0.11073908 0.10825389 0.09772049 -0.07267933
0.06949275 -0.10584125 0.029089866 -0.0009200462 -0.09368382 0.11947189 -0.13175024 0.01800518
-0.057145316 0.017676264 -0.06871541 0.15170461 0.043333538 -0.18258359 0.10239552 0.10088385
-0.089856505 -0.048332307 0.06812547 0.1648479 -0.05471956 0.1332554 -0.10478575 0.027043298
-0.117084384 -4.650251e-05 -0.05271247 -0.020152522 0.06107797 0.06669811 0.09294204 -0.038193807
-0.020486757 0.15098162 -0.11092189 -0.133005 0.04681619 -0.068363324 0.14576907 -0.070295244

i2h.bias f4 [242]
00000000: a35f bdbc b836 7a3c cdb7 3fbc bf9e e93a
00000010: cc0a 95bc 83be 37bb 7d6c ccbc 4811 443c
00000020: 3710 723b acd9 c1bc a3a2 40bc a059 cdbc
00000030: 527f 783c 6798 213c dcaa de3b 909b abbc
00000040: c479 8cbc b29d e73c a9db eabc bdf2 55bc
00000050: 789b 003c 238a e23c 37b5 123c 9724 ddbb
00000060: fef1 53bc 481d 92bc e063 793c 555a 7d3c
00000070: c20e 8b3b 47fa bebc 9413 1f3d 5279 833b
00000080: 26f6 ac3b 6252 f5b9 d715 283c 32f9 50ba
00000090: d481 193b 777e 1abb fe9f 503a 203f 88bc
000000a0: aa62 fe3c 5243 7dbc e428 84bc 91c1 a0bc
000000b0: 2e97 dd3b d605 7f3c 0604 f03b 59ac 9dbc
000000c0: f692 8b3c 8ce6 dcbb dd94 20bc 1c53 17bc
000000d0: 69ea ae3c 38c6 883c ee06 83bc 39db 2abc
000000e0: 000f f93c 76c2 ed3b dc43 253c 790c b8bb
000000f0: 63b6 a13c 6527 93bb 4402 5e3c 8dd3 b53c
00000100: 3f12 173c 8172 133c 576c 12ba 9a86 aa3c
00000110: f805 88bc 0a94 aabb 9411 01bc 4fbc 853b
00000120: d585 3dbb 173b 91bb 9554 a3ba 413d 80bc
00000130: 640d 7f3c e20b 70bc b763 083c 5c4b 1abb
00000140: e129 473c 8ec3 763b 8eaa 9e3b 0b5c 303c
00000150: 10a9 90bc 5713 d73a 244e 2cbc 9368 2abc
00000160: 51c5 9c3c 5aa4 323c 665f fb3b 677d 963c
00000170: 5d21 143c 99b7 b6bc 8452 e5bc 9ed3 233c
00000180: 6eda 193d 9b41 8b3c 22d1 703c 8d88 8a3c
00000190: 0cf0 69bc 5e08 503c 5535 08bb 5341 6c3c
000001a0: 0be8 943c f2ca d73c b0ed ac3b 04c3 d0bc
000001b0: 6157 193c 1ebf f6bc 7dcc b43c 8997 cb3c
000001c0: 8e22 89bc ec27 84bb 8ee6 20bc aa41 95bc
000001d0: a6f5 3abc 9a12 5d3c e08f 173c 2100 37bc
000001e0: 57a7 e53a babb 5c3b cfed a4bc 4dbc aebb
000001f0: f17f 2cbc 677e 603c 416d 48bc 1ba9 c33c
00000200: 17c8 e1bc b1ab d8ba 3337 06bd d752 9c3c
00000210: d468 563c dced 9a3c 3497 53bc e6cc b5bc
00000220: d4cb d53c 41dd 803c 70cf f03b c029 d2bb
00000230: fafd 3fbc 7501 04ba 8617 2fbb 3213 483c
00000240: 4087 803c 500e 363c cb50 523c a1dc 47ba
00000250: 3099 dd3b 3c55 8abb 8271 8e3c 4b5e d53b
00000260: 8e48 983c 93c1 66bc cadf 0fbb f151 0ebb
00000270: 2927 c9bc d85e 8eb8 c363 80bb 4ce4 823b
00000280: 24be 143c 36b8 913c 77ee 9fbb 094b 98bc
00000290: 0d5f 643c e318 bfbb b966 27bc d6ac 343c
000002a0: f189 fc3c 47ba 17bc 0a8c 06bc 6a85 4dbb
000002b0: b0c1 cb3c ed7f 7cb9 c67a c0b9 8dcc ff3c
000002c0: 897e 953c df85 7f3c ff03 4a3b 77b4 d4bc
000002d0: ef9c 853c 6002 5e3c 11b4 603c 9d3b c73c
000002e0: 0700 b6bb dcfa c5bc dd63 a53a ba75 9c3c
000002f0: 4a5e 70bc 1e9b 91bc 556a e83b e6c6 623c
00000300: 2c69 cf3c c2c1 f03c 5f15 df3c 8477 a33b
00000310: 813d ba3c 5ca2 0d3c 6d8e 393c 0460 90bc
00000320: 5926 f0bc bef7 c03c b71f bc3c 7bb2 68ba
00000330: 2dc9 c1ba 7f69 aa3b e45c a13c dc2f 0f3c
00000340: 110a 0bbb 350a c5bc e979 ba3a fc8e 83bb
00000350: eacc fdbb 3291 583c e376 b03c d4c2 89bc
00000360: 12c5 593c 0f35 3c3c 90f2 e6bb eb31 0c3c
00000370: 12fe 183b ecde edbb 975c 96bc 5f53 90bc
00000380: 9df3 733c a5d1 d3bc 5ca9 be3c 659b c5bc
00000390: 503a 96bb e898 7d3c 21e9 8abc 79d1 cf3c
000003a0: ae30 5bbc 76fa ed3b d3f1 3a3c eda7 a8bc
000003b0: 04ae 493c e248 323c 9197 df3c 6588 9abb
000003c0: 05b9 4dbc 9ba4 743b
-0.023116892 0.015271835 -0.011701536 0.0017823799 -0.018193625 -0.0028037138 -0.024954075 0.011967011
0.0036935934 -0.023663364 -0.011757526 -0.02506715 0.015167074 0.009862996 0.0067952704 -0.020948201
-0.017147906 0.028273437 -0.028669195 -0.013058362 0.007849567 0.02765376 0.008954338 -0.0067487466
-0.012936113 -0.017836228 0.015221566 0.015463431 0.0042437026 -0.0233127 0.03883703 0.0040122652
0.0052783666 -0.00046791421 0.010259113 -0.00079717033 0.002342333 -0.0023573914 0.0007958411 -0.016631663
0.031052906 -0.015457945 -0.01613278 -0.01962355 0.006762407 0.015565356 0.0073246984 -0.01924722
0.01703785 -0.0067413505 -0.009801117 -0.009236123 0.02135201 0.01669608 -0.015994515 -0.010428243
0.03040266 0.0072558476 0.01008698 -0.005616721 0.01974029 -0.00449078 0.013550345 0.022195602
0.009220659 0.008999468 -0.0005585602 0.020816136 -0.016604409 -0.005205636 -0.007877726 0.004081286
-0.0028918881 -0.004432093 -0.001246112 -0.015654208 0.015567157 -0.014651271 0.008324555 -0.0023543453
0.012155981 0.003765318 0.004842109 0.010764132 -0.01765874 0.0016408962 -0.010516677 -0.010400909
0.019137057 0.010903442 0.0076712845 0.018370343 0.009041158 -0.022304343 -0.027993448 0.009999184
0.037561826 0.016999057 0.014698299 0.016910816 -0.014278423 0.012697307 -0.0020783741 0.014419871
0.018177053 0.026341889 0.005277358 -0.025483616 0.009359212 -0.030120429 0.022070164 0.024852531
-0.01674011 -0.0040330794 -0.0098205935 -0.018219788 -0.011411106 0.0134932045 0.009250611 -0.011169464
0.0017521185 0.003368123 -0.020132927 -0.005332506 -0.0105285505 0.013702012 -0.012233079 0.023884347
-0.02756123 -0.001653066 -0.032767486 0.01908247 0.013086516 0.018912248 -0.012914468 -0.02219243
0.02609817 0.015730502 0.007348947 -0.0064136684 -0.011718268 -0.00050356175 -0.0026716902 0.012211608
0.015689492 0.011111811 0.012836645 -0.0007624124 0.006762646 -0.0042215865 0.01738811 0.0065114847
0.018589284 -0.014084238 -0.0021953457 -0.0021716321 -0.024554806 -6.788754e-05 -0.0039181425 0.0039945003
0.009078536 0.017788034 -0.004880722 -0.018590467 0.0139386775 -0.005831824 -0.010217362 0.011027535
0.030827494 -0.009260721 -0.008212099 -0.0031360039 0.02487263 -0.00024080249 -0.00036712567 0.031225467
0.018248813 0.015595882 0.0030825136 -0.025964959 0.016310183 0.013550371 0.013714806 0.024320418
-0.0055542025 -0.02416747 0.0012618263 0.019099105 -0.014670918 -0.017774161 0.007092754 0.013841366
0.025318705 0.029389266 0.02723187 0.0049886126 0.022734405 0.0086446665 0.011325461 -0.017623909
-0.02931516 0.023555633 0.022964342 -0.00088766933 -0.0014784687 0.0052005644 0.019697614 0.008739438
-0.0021215717 -0.024052719 0.0014227006 -0.004014848 -0.007745375 0.013218211 0.021541065 -0.016816534
0.013291614 0.0114872595 -0.0070479587 0.008556823 0.0023344797 -0.0072592404 -0.018354697 -0.01761788
0.014889625 -0.025856802 0.023274116 -0.02412195 -0.004584588 0.01547835 -0.016956868 0.025368439
-0.013378305 0.0072625233 0.011410194 -0.020587886 0.012309555 0.010881634 0.027293952 -0.0047159665
-0.012556319 0.0037329558

h2o.weight f4 [6, 242]
00000000: d182 433e ed56 8bbd 7092 03bd 2128 28be
00000010: 026f 5cbd 553b 1dbc d8e2 fb3c e15a 86bc
00000020: 3fba ef3d e569 313e 79fa dd3d b6cc 143e
00000030: d0d3 eebd 4996 e13d 2bec e63d 30ef 0f3e
00000040: 508b fa3c 5aec c83c fe37 d6bd cdeb 093d
00000050: 9129 763d 41c1 cabd a4bd a63d 770e 383c
00000060: 67a5 803d 85d2 193e 7d52 c73d 9ff8 ab3d
00000070: 737a 21be 94b7 2d3e 56eb 1f3d d35a 4b3d
00000080: 51b6 05be d41e dbbd 5297 43bd 2155 0cbe
00000090: 475a 92bd 5594 85bd cd46 1f3e d00e 813d
000000a0: c7df 103e 74dd f53c e6ae 9fbd 71e0 8fbd
000000b0: 392f 363d 73e1 7dbd 0eee 20be 1eee c3bc
000000c0: d03e 2cbe cbda e5bc 45e9 093e 037b 213e
000000d0: bcd1 213e 776c 47bd 0c3a 37be 176f 0fbe
000000e0: 19c4 1a3e 35f0 88bd aa56 bf3d e8ad 1dbe
000000f0: c018 24be 3a9f 3ebd 3d53 503e d4d3 743c
00000100: b963 0b3d bff7 24be 6653 993d b0be fbbc
00000110: 59a9 62bc a33c e43c 4d3a d43d 592e 8f3d
00000120: 30c2 07be d841 efbd b947 6fbd 226a 57bd
00000130: 8ab2 71bd dd09 a93d 6530 103d b150 033e
00000140: 0af4 5fbd 30d4 d3bd 5964 c9bd d566 033c
00000150: 7576 c5bd 3db2 88bd 8f67 18be b64a 27bc
00000160: 057a c73c f3d1 2ebe 348d ff3d 7605 fbbd
00000170: 1817 ba3c b255 99bd fdb1 fb3b b091 00be
00000180: 7fd1 84bd 6e44 013e 0e78 523c 2905 ba3b
00000190: 2dd5 8c3d 0a42 923d 3a94 cfbc c788 aa3d
000001a0: dc54 d43d b18d 093e 1b5c 82bd d751 e3bd
000001b0: b33f 063e 7218 30bd e6de 593d bc57 d0bd
000001c0: d8f8 823d be96 9bbd c5b0 8bbc 4eab a9bd
000001d0: a6e0 063e 3c06 87bd c2d6 42bd b77f 6f3d
000001e0: 7c54 e43d 21ee 1f3e 5c1a 693d bc03 b63d
000001f0: 574b a9bd 1f0b 1a3e d321 e1bd 2b85 c2bd
00000200: f0ad b83d bdec 22bd 52a5 9c3d e327 bdbd
00000210: ad2e a6bd 94c7 98bd 7a08 24be d6f7 403d
00000220: 83a7 b8bc f52e 45bd ae8e e03c 34b8 393e
00000230: fbfd 2b3e 1c05 1bbe 7794 103e 2a7e 10be
00000240: b5d6 e8bc 793d e6bd 7eaf dcbd f7f4 67bd
00000250: 446d 773d c330 483d d4db 453d ab56 e5bd
00000260: 9faa 0dbe d1b5 87bd 3def 9e3c ecd4 a23c
00000270: 0eb3 41be 1d25 ac3d f7de bbbd 1470 d7bd
00000280: e24c 88bd 9c38 0d3d bdec ee3d 5997 06bd
00000290: 84bf cdba 2eda 043d 7b58 903d 016c eb3b
000002a0: a171 cbbd f88b 06be 4afd 993d 7e5f b73c
000002b0: c331 f33d 41fb b63d 1b78 863d a345 1dbd
000002c0: 81c7 133e 1816 e63d ed7d 14be 90ba 1c3d
000002d0: 0804 2abd ed3b d23d c521 be3d 13b4 b5bd
000002e0: d6ab e93d fe3e acbd 03bc aabd 14fd 73bd
000002f0: c251 83bc 22ee be3d b588 d0bd 5e30 7abd
00000300: dc8b 1c3e 1a2b 50bd 8bf0 82bd b76d 51bc
00000310: 2156 c23d 3469 913d 394d 57bd ae0f ef3d
00000320: 1637 0e3e 0ea8 03bd 278d c7bd e2bf 11be
00000330: 6a20 dfbc 8997 49bd 5ca7 9c3d 2b4d 17be
00000340: 5b60 80bd c2e3 8abd 501a e3bd 63b4 b83d
00000350: 1a51 eb3d 4b21 f63d ee63 01be 58c7 95bd
00000360: 5e03 9d3d 3d3d 29bd 16f6 3b3d 04e1 babd
00000370: 7347 203d eae5 cb3d fbbb 0cbe eb0e 283e
00000380: a676 16be 0d01 40bd f948 d7bd 1437 94bd
00000390: dc71 8bbd 45cf b93d cc9e 32be 66aa b6bb
000003a0: a544 2f3e bd24 8b3b f262 abbd da30 0f3e
000003b0: 2ad0 0c3e ce0b 9ebd 57af edbd 4e9f fd3d
000003c0: d9fd 63bd 8750 40bd 5124 b1bc 27c6 0f3d
000003d0: d523 b0bb 7b60 b93d cb79 c9bd ac5e 9abd
000003e0: a95b a0bc fcc7 ca3d 2a20 10be 9147 ed3d
000003f0: 7552 bcbd 2d91 b8bd e23b 863d 787f a7ba
0.19092871 -0.06803689 -0.032122076 -0.16421558 -0.053816803 -0.009596665 0.030747816 -0.016400756
0.117054455 0.17325552 0.108387895 0.14531216 -0.11661494 0.11014993 0.11275514 0.14056087
0.030584008 0.024526764 -0.104598984 0.033672143 0.060098235 -0.099001415 0.0814164 0.011233917
0.06281548 0.15021713 0.0973253 0.0839703 -0.15769367 0.16964561 0.039042793 0.049647164
-0.1305783 -0.106992394 -0.047751732 -0.13704349 -0.07146125 -0.06522433 0.15554352 0.063016534
0.14147864 0.030012824 -0.07797031 -0.07025231 0.04447863 -0.061982583 -0.1571581 -0.023917254
-0.16820836 -0.02805843 0.13467892 0.15769581 0.15802664 -0.048687425 -0.17893237 -0.14007221
0.15113868 -0.06686441 0.09342702 -0.15398371 -0.16025066 -0.04653857 0.20344253 0.014943082
0.03403065 -0.16110133 0.0748661 -0.030730575 -0.013834321 0.027860945 0.103626825 0.06991262
-0.1325767 -0.116824806 -0.05841801 -0.05259145 -0.05900816 0.082538344 0.035202403 0.1282375
-0.054676093 -0.10343206 -0.09833593 0.008020123 -0.096417345 -0.06674621 -0.14883254 -0.010210684
0.024350176 -0.17072277 0.12478104 -0.12256901 0.02271609 -0.07487048 0.00768113 -0.12555575
-0.06485271 0.1262376 0.012846006 0.0056768847 0.068765976 0.07141502 -0.025339235 0.083268695
0.10367748 0.13432957 -0.06365224 -0.11099594 0.13110237 -0.042992063 0.05319109 -0.10172984
0.063951194 -0.07597111 -0.017052064 -0.08284627 0.13171634 -0.06592986 -0.04756809 0.058471408
0.111489266 0.15618183 0.056909904 0.08887431 -0.08266323 0.15043305 -0.109927796 -0.09498056
0.09017551 -0.039776552 0.0764872 -0.092361234 -0.081143714 -0.074599415 -0.16018859 0.047111355
-0.022540813 -0.048140485 0.027411785 0.18136674 0.16796105 -0.15138668 0.14119135 -0.14110628
-0.028422693 -0.11242194 -0.1077566 -0.0566301 0.06040694 0.048874628 0.048305348 -0.11198171
-0.13834618 -0.066264756 0.019401187 0.01987692 -0.1891596 0.08405516 -0.091733865 -0.10519424
-0.06655289 0.034477815 0.11666248 -0.03285918 -0.0015697335 0.032434635 0.07048126 0.007184506
-0.09933782 -0.13139331 0.07519014 0.022384401 0.11874726 0.08934642 0.06565877 -0.03839649
0.14431573 0.11234683 -0.14501162 0.038263857 -0.04150775 0.10265336 0.09283785 -0.08872237
0.11409728 -0.08410452 -0.08336642 -0.059567526 -0.016030196 0.09322764 -0.10182325 -0.061081283
0.15287727 -0.050822355 -0.06393536 -0.012782506 0.09489084 0.07100144 -0.05256388 0.116729125
0.13888201 -0.03214269 -0.097437195 -0.14233354 -0.027237136 -0.04921678 0.07649109 -0.14775531
-0.06268378 -0.067817226 -0.11089003 0.09018781 0.11490078 0.12018069 -0.12635776 -0.073134124
0.07666658 -0.041318167 0.045888983 -0.091249496 0.03913064 0.09955962 -0.13743584 0.16411941
-0.14693698 -0.046876002 -0.10511965 -0.07237068 -0.06808826 0.09072737 -0.17443389 -0.0055745123
0.1711603 0.004246323 -0.08368482 0.13983479 0.13751283 -0.07717095 -0.11605709 0.123839006
-0.05566201 -0.046951797 -0.021623762 0.035101082 -0.0053753653 0.09051605 -0.09837683 -0.075375885
-0.019574957 0.09901425 -0.1407477 0.11585916 -0.09195415 -0.09012065 0.065543905 -0.0012779078

h2o.bias f4 [6]
00000000: 95aa f9bb 53cb 1e3b 6803 92bb 16c5 dc3b
00000010: 508c 033c c343 0e3c
-0.007619212 0.0024230077 -0.0044559725 0.0067373617 0.008029059 0.008683148

h2h.weight f4 [242, 242]
00000000: 17b6 813d a081 c8ba ced8 13bc 7ac5 e2bd
00000010: 3bd7 033d 1c66 483b 29f8 063d cf11 093b
00000020: 34ba 5abd 6b0a 81bc 2afd c33b 9d06 5ebd
00000030: d835 12bc a5ad b7bc 02a2 df39 3a18 d03b
00000040: d8a6 a7bd fde4 aebb 52bc 9fbd e5c1 a23c
00000050: c38d 0f3e ae18 5bbc 03db a3bc afb3 54bc
00000060: f839 b3bc 5473 f2bc 328e f4bc e504 103e
00000070: 8295 9fbd 30bc e6bd f0c0 acbd af18 06bc
00000080: 81b9 c33d af29 47bd 8deb 2f3d 3218 113d
00000090: c8bc 773c a7f6 0e3d ba22 50bd bc00 43bc
000000a0: b0e5 083d bda7 d4bc b96b 86bc ba41 0f3c
000000b0: 6728 ac3c 9ee5 0dbc 0a12 34bd 71f5 2cbc
000000c0: 4067 aa3d 7a92 04be 554a 203d 26f2 58bb
000000d0: 550b 96bc de5e 83bd b4a1 79bd 9262 c7bc
000000e0: 548d 5dbd 34ad 21bd 13af 3c3d 9e3f bf3c
000000f0: bfd4 d1bd 60df 38bd 7b55 cfbc 183e 993d
00000100: c751 a4bd c363 203d 3e7d ab3c 53ac 9bbd
00000110: 1342 453c 5685 143d 6f91 003c a0a6 05bc
00000120: 0f15 10be 0052 24bd 7875 b33d 1ec9 5abd
00000130: d4cd 8f3c 91de 8f3c c9f6 a7bc 229b a6bc
00000140: 2dc9 ae3b e9e2 37be 855c 99bd 2d92 9cbb
00000150: 0c7e c8bc db49 063d c58e 3f3c 3ca7 3fbb
00000160: 2248 9f3d 925a c2b8 9145 d4bd 366c 843c
00000170: bc31 d2bb 6e51 7fbc c44c 94bd 27ca 1f3e
00000180: f09c 18bd d96c 563c deab d4bd 7c91 3cbc
00000190: d24b c8bc 9b03 2dbd fb3e 433d d2b4 323d
000001a0: 8b39 80bd 6ec9 b03b fe04 e83d 6821 2a3d
000001b0: 8118 c0ba b0a5 213e 6ca8 813a 41cf 683d
000001c0: 8c03 8ebd a0ec 873d 967e 6e3d 0bd3 83bc
000001d0: 8291 bb3d b2bc d23d bc27 9a3d 8301 d1bd
000001e0: cdec 1ebd ed1d d93c a9bb 0ebd dfa2 b8bd
000001f0: 9d2b 9cbd b759 6fbd 1ac9 babd c091 0e3c
00000200: 26f4 9f3c 5695 a43d 7c8f 723d 83d1 ff3d
00000210: 0213 edbd 4d2c e7bd 7241 67bc 4608 23be
00000220: 3968 0e3d 1a93 0abe a69b 6cbd 2112 973d
00000230: 3156 883d 845d 1ebc 231e 893b 5a76 04be
00000240: be50 fc3d ca6a e2bc 6c78 19bd e66f 00bd
00000250: 8fb8 19bd a925 0b3d 19cc bf3d f608 71bb
00000260: ebd8 97bd f298 b93d 4d83 f5bd 08f6 aabc
00000270: 0416 dd3d b353 1b3e f8d6 87bd 164e c13d
00000280: a2ab 163e 1fd9 dbbd a96a 133c 2193 44bd
00000290: 056d 823d 78d3 a8bd 4cf5 a0bc 073c 3dbd
000002a0: 7e1e 0c3e f192 323d 1760 97bd f6b4 a2bb
000002b0: 6d83 24bc cf9c b73d a909 263e 7919 d93d
000002c0: 7b13 92bc dab2 13bd 4f83 ddbd b526 963d
000002d0: 4626 563e 6976 b8bc ec6a a13d 4d4f 333d
000002e0: 1f53 a8bc c21d 0a3d 6093 7f3c f2ca 853d
000002f0: 43b7 af3c 3440 e7bb 4e8d 27bd 13d4 0ebd
00000300: f129 b63d a5ff 15bd 176f 69bd bb14 9ebd
00000310: 49dd 9e3d 5c2f 423c 470b 9a3c 2370 913b
00000320: fd15 1cbd 8d97 76bd 7fc0 02be ba3f b83c
00000330: 9ac5 c23d 2e5a 903c 3897 0abd 82de 46bd
00000340: e26e eabb a5b7 383d fcc4 5dbd 6e2b febb
00000350: 1946 a73c 774f 8f3c e2da 973d be2f 1ebd
00000360: b1c1 d43d 89f8 7dbd e406 743b 926b 1cbd
00000370: 2c3e f03c d109 9a3d aa09 ffbd a767 84bd
00000380: a77f 0fbe 6f13 483b d37c 2e3d 1baf eb3b
00000390: 6bf3 9d3d ebfc babd 69cb 0a3d d88d 233c
000003a0: f5a4 30bd aaf2 bbbd d9e5 e2bd 7cb7 b33d
000003b0: 7b9c 703c c007 c03d 51f2 23bc 2664 2fbd
000003c0: 4033 0a3e f286 68bb 5f33 1f3c 33be 83ba
000003d0: c9f3 19bd 7512 9dbd 6689 48bc 4935 5abc
000003e0: aa23 003d ed27 aebd 7e0e 413c 9e89 12bd
000003f0: 0681 b43d 007b 77bd 4db9 f63d d913 cb3c
0.06333559 -0.001529742 -0.009023858 -0.11072822 0.03218768 0.003057844 0.032951508 0.0020915156
-0.053400233 -0.015752038 0.0059811072 -0.054205526 -0.00892397 -0.022421667 0.0004265458 0.0063505443
-0.0818612 -0.005337356 -0.07799591 0.019867847 0.14018922 -0.013372583 -0.020001894 -0.012982293
-0.021878228 -0.029596008 -0.02985296 0.14064367 -0.07792188 -0.11266363 -0.084352374 -0.008184596
0.095568664 -0.048623737 0.042949248 0.035423465 0.015120693 0.034903195 -0.050814368 -0.011902031
0.033422172 -0.02595889 -0.016408788 0.008743698 0.02101536 -0.008660702 -0.043962516 -0.010556565
0.083204746 -0.12946501 0.03913339 -0.0033103316 -0.01831595 -0.06414579 -0.060945228 -0.024338994
-0.05408986 -0.03947182 0.0460654 0.023345765 -0.10245656 -0.045134902 -0.025309315 0.074825466
-0.0802341 0.03915764 0.020933744 -0.076012276 0.012039679 0.03625997 0.007847174 -0.008157402
-0.14070533 -0.040117264 0.0876264 -0.053414457 0.017554201 0.017562183 -0.020503419 -0.020337645
0.0053340406 -0.17957653 -0.0748835 -0.0047781677 -0.024474166 0.032785278 0.011691754 -0.0029243967
0.0777743 -9.267511e-05 -0.10364831 0.01616488 -0.00641462 -0.015583379 -0.072412044 0.15604459
-0.037259042 0.013087475 -0.103843436 -0.011509296 -0.024450216 -0.042239767 0.047667485 0.043629475
-0.062609755 0.005395106 0.11329077 0.041535765 -0.001465574 0.15785861 0.0009892113 0.056838278
-0.0693427 0.066369295 0.05822619 -0.016091844 0.09158613 0.10289897 0.0752711 -0.102053665
-0.03880005 0.026503528 -0.034846935 -0.0901544 -0.07625506 -0.058435168 -0.09120388 0.008701742
0.019525599 0.08036296 0.05921887 0.12491133 -0.11575891 -0.112877466 -0.0141147245 -0.15921125
0.034767363 -0.13532677 -0.057765625 0.07376505 0.06657065 -0.009665851 0.004184501 -0.12935773
0.12320088 -0.027638812 -0.03746836 -0.031356715 -0.037529524 0.033971462 0.093651004 -0.0036779023
-0.07414421 0.09062375 -0.11987934 -0.02086927 0.10795215 0.15168647 -0.06632799 0.09438722
0.1471391 -0.10734772 0.008997598 -0.047991876 0.0636845 -0.082434595 -0.019648217 -0.046199825
0.13683507 0.043597165 -0.073913746 -0.00496542 -0.0100411 0.08965456 0.16214623 0.10600562
-0.017831555 -0.036059238 -0.10816061 0.073316015 0.20913038 -0.0225174 0.07881722 0.0437768
-0.020547448 0.033719786 0.015599102 0.06532849 0.02144969 -0.007057214 -0.040906243 -0.03487022
0.088947184 -0.036620755 -0.05699071 -0.07718798 0.077570505 0.011852112 0.018804206 0.0044384166
-0.038106907 -0.060203124 -0.12768744 0.022491325 0.09510346 0.017621126 -0.03383562 -0.048552044
-0.0071543315 0.045097012 -0.054142937 -0.007756642 0.020419167 0.017493946 0.074147955 -0.03861975
0.10388506 -0.0620046 0.0037235552 -0.038188525 0.02932652 0.075214036 -0.12453015 -0.064650826
-0.14013539 0.0030529161 0.04259951 0.007192505 0.07712444 -0.091302715 0.033885393 0.009982549
-0.043126065 -0.09177144 -0.11078996 0.08775231 0.014685745 0.09376478 -0.010006503 -0.04282012
0.13496113 -0.0035480824 0.009716838 -0.0010051191 -0.037586007 -0.07669536 -0.01223979 -0.013318368
0.031284012 -0.08503709 0.01178324 -0.035775773 0.08813672 -0.060420036 0.12047062 0.024789738

h2h.bias f4 [242]
00000000: a35f bdbc b836 7a3c cdb7 3fbc bf9e e93a
00000010: cc0a 95bc 83be 37bb 7d6c ccbc 4811 443c
00000020: 3710 723b acd9 c1bc a3a2 40bc a059 cdbc
00000030: 527f 783c 6798 213c dcaa de3b 909b abbc
00000040: c479 8cbc b29d e73c a9db eabc bdf2 55bc
00000050: 789b 003c 238a e23c 37b5 123c 9724 ddbb
00000060: fef1 53bc 481d 92bc e063 793c 555a 7d3c
00000070: c20e 8b3b 47fa bebc 9413 1f3d 5279 833b
00000080: 26f6 ac3b 6252 f5b9 d715 283c 32f9 50ba
00000090: d481 193b 777e 1abb fe9f 503a 203f 88bc
000000a0: aa62 fe3c 5243 7dbc e428 84bc 91c1 a0bc
000000b0: 2e97 dd3b d605 7f3c 0604 f03b 59ac 9dbc
000000c0: f692 8b3c 8ce6 dcbb dd94 20bc 1c53 17bc
000000d0: 69ea ae3c 38c6 883c ee06 83bc 39db 2abc
000000e0: 000f f93c 76c2 ed3b dc43 253c 790c b8bb
000000f0: 63b6 a13c 6527 93bb 4402 5e3c 8dd3 b53c
00000100: 3f12 173c 8172 133c 576c 12ba 9a86 aa3c
00000110: f805 88bc 0a94 aabb 9411 01bc 4fbc 853b
00000120: d585 3dbb 173b 91bb 9554 a3ba 413d 80bc
00000130: 640d 7f3c e20b 70bc b763 083c 5c4b 1abb
00000140: e129 473c 8ec3 763b 8eaa 9e3b 0b5c 303c
00000150: 10a9 90bc 5713 d73a 244e 2cbc 9368 2abc
00000160: 51c5 9c3c 5aa4 323c 665f fb3b 677d 963c
00000170: 5d21 143c 99b7 b6bc 8452 e5bc 9ed3 233c
00000180: 6eda 193d 9b41 8b3c 22d1 703c 8d88 8a3c
00000190: 0cf0 69bc 5e08 503c 5535 08bb 5341 6c3c
000001a0: 0be8 943c f2ca d73c b0ed ac3b 04c3 d0bc
000001b0: 6157 193c 1ebf f6bc 7dcc b43c 8997 cb3c
000001c0: 8e22 89bc ec27 84bb 8ee6 20bc aa41 95bc
000001d0: a6f5 3abc 9a12 5d3c e08f 173c 2100 37bc
000001e0: 57a7 e53a babb 5c3b cfed a4bc 4dbc aebb
000001f0: f17f 2cbc 677e 603c 416d 48bc 1ba9 c33c
00000200: 17c8 e1bc b1ab d8ba 3337 06bd d752 9c3c
00000210: d468 563c dced 9a3c 3497 53bc e6cc b5bc
00000220: d4cb d53c 41dd 803c 70cf f03b c029 d2bb
00000230: fafd 3fbc 7501 04ba 8617 2fbb 3213 483c
00000240: 4087 803c 500e 363c cb50 523c a1dc 47ba
00000250: 3099 dd3b 3c55 8abb 8271 8e3c 4b5e d53b
00000260: 8e48 983c 93c1 66bc cadf 0fbb f151 0ebb
00000270: 2927 c9bc d85e 8eb8 c363 80bb 4ce4 823b
00000280: 24be 143c 36b8 913c 77ee 9fbb 094b 98bc
00000290: 0d5f 643c e318 bfbb b966 27bc d6ac 343c
000002a0: f189 fc3c 47ba 17bc 0a8c 06bc 6a85 4dbb
000002b0: b0c1 cb3c ed7f 7cb9 c67a c0b9 8dcc ff3c
000002c0: 897e 953c df85 7f3c ff03 4a3b 77b4 d4bc
000002d0: ef9c 853c 6002 5e3c 11b4 603c 9d3b c73c
000002e0: 0700 b6bb dcfa c5bc dd63 a53a ba75 9c3c
000002f0: 4a5e 70bc 1e9b 91bc 556a e83b e6c6 623c
00000300: 2c69 cf3c c2c1 f03c 5f15 df3c 8477 a33b
00000310: 813d ba3c 5ca2 0d3c 6d8e 393c 0460 90bc
00000320: 5926 f0bc bef7 c03c b71f bc3c 7bb2 68ba
00000330: 2dc9 c1ba 7f69 aa3b e45c a13c dc2f 0f3c
00000340: 110a 0bbb 350a c5bc e979 ba3a fc8e 83bb
00000350: eacc fdbb 3291 583c e376 b03c d4c2 89bc
00000360: 12c5 593c 0f35 3c3c 90f2 e6bb eb31 0c3c
00000370: 12fe 183b ecde edbb 975c 96bc 5f53 90bc
00000380: 9df3 733c a5d1 d3bc 5ca9 be3c 659b c5bc
00000390: 503a 96bb e898 7d3c 21e9 8abc 79d1 cf3c
000003a0: ae30 5bbc 76fa ed3b d3f1 3a3c eda7 a8bc
000003b0: 04ae 493c e248 323c 9197 df3c 6588 9abb
000003c0: 05b9 4dbc 9ba4 743b
-0.023116892 0.015271835 -0.011701536 0.0017823799 -0.018193625 -0.0028037138 -0.024954075 0.011967011
0.0036935934 -0.023663364 -0.011757526 -0.02506715 0.015167074 0.009862996 0.0067952704 -0.020948201
-0.017147906 0.028273437 -0.028669195 -0.013058362 0.007849567 0.02765376 0.008954338 -0.0067487466
-0.012936113 -0.017836228 0.015221566 0.015463431 0.0042437026 -0.0233127 0.03883703 0.0040122652
0.0052783666 -0.00046791421 0.010259113 -0.00079717033 0.002342333 -0.0023573914 0.0007958411 -0.016631663
0.031052906 -0.015457945 -0.01613278 -0.01962355 0.006762407 0.015565356 0.0073246984 -0.01924722
0.01703785 -0.0067413505 -0.009801117 -0.009236123 0.02135201 0.01669608 -0.015994515 -0.010428243
0.03040266 0.0072558476 0.01008698 -0.005616721 0.01974029 -0.00449078 0.013550345 0.022195602
0.009220659 0.008999468 -0.0005585602 0.020816136 -0.016604409 -0.005205636 -0.007877726 0.004081286
-0.0028918881 -0.004432093 -0.001246112 -0.015654208 0.015567157 -0.014651271 0.008324555 -0.0023543453
0.012155981 0.003765318 0.004842109 0.010764132 -0.01765874 0.0016408962 -0.010516677 -0.010400909
0.019137057 0.010903442 0.0076712845 0.018370343 0.009041158 -0.022304343 -0.027993448 0.009999184
0.037561826 0.016999057 0.014698299 0.016910816 -0.014278423 0.012697307 -0.0020783741 0.014419871
0.018177053 0.026341889 0.005277358 -0.025483616 0.009359212 -0.030120429 0.022070164 0.024852531
-0.01674011 -0.0040330794 -0.0098205935 -0.018219788 -0.011411106 0.0134932045 0.009250611 -0.011169464
0.0017521185 0.003368123 -0.020132927 -0.005332506 -0.0105285505 0.013702012 -0.012233079 0.023884347
-0.02756123 -0.001653066 -0.032767486 0.01908247 0.013086516 0.018912248 -0.012914468 -0.02219243
0.02609817 0.015730502 0.007348947 -0.0064136684 -0.011718268 -0.00050356175 -0.0026716902 0.012211608
0.015689492 0.011111811 0.012836645 -0.0007624124 0.006762646 -0.0042215865 0.01738811 0.0065114847
0.018589284 -0.014084238 -0.0021953457 -0.0021716321 -0.024554806 -6.788754e-05 -0.0039181425 0.0039945003
0.009078536 0.017788034 -0.004880722 -0.018590467 0.0139386775 -0.005831824 -0.010217362 0.011027535
0.030827494 -0.009260721 -0.008212099 -0.0031360039 0.02487263 -0.00024080249 -0.00036712567 0.031225467
0.018248813 0.015595882 0.0030825136 -0.025964959 0.016310183 0.013550371 0.013714806 0.024320418
-0.0055542025 -0.02416747 0.0012618263 0.019099105 -0.014670918 -0.017774161 0.007092754 0.013841366
0.025318705 0.029389266 0.02723187 0.0049886126 0.022734405 0.0086446665 0.011325461 -0.017623909
-0.02931516 0.023555633 0.022964342 -0.00088766933 -0.0014784687 0.0052005644 0.019697614 0.008739438
-0.0021215717 -0.024052719 0.0014227006 -0.004014848 -0.007745375 0.013218211 0.021541065 -0.016816534
0.013291614 0.0114872595 -0.0070479587 0.008556823 0.0023344797 -0.0072592404 -0.018354697 -0.01761788
0.014889625 -0.025856802 0.023274116 -0.02412195 -0.004584588 0.01547835 -0.016956868 0.025368439
-0.013378305 0.0072625233 0.011410194 -0.020587886 0.012309555 0.010881634 0.027293952 -0.0047159665
-0.012556319 0.0037329558
