VLSI23/plots/chip_spikeclassifier/TrainedALL_epochs-50-input_size-2-16-12-hidden_size-256-batch_size-32-lr-0.001-tmax_ms-400.0-Ts-5.0-kfolds-6/chip-classifier-4-best.pt (torch, 667511 bytes, 8 tensors)

thr_h_1 f4 [256]
1.0 1.0 1.0 1.0 1.0 1.0 1.0 1.0
1.0 1.0 1.0 1.0 1.0 1.0 1.0 1.0
1.0 1.0 1.0 1.0 1.0 1.0 1.0 1.0
1.0 1.0 1.0 1.0 1.0 1.0 1.0 1.0
1.0 1.0 1.0 1.0 1.0 1.0 1.0 1.0
1.0 1.0 1.0 1.0 1.0 1.0 1.0 1.0
1.0 1.0 1.0 1.0 1.0 1.0 1.0 1.0
1.0 1.0 1.0 1.0 1.0 1.0 1.0 1.0
1.0 1.0 1.0 1.0 1.0 1.0 1.0 1.0
1.0 1.0 1.0 1.0 1.0 1.0 1.0 1.0
1.0 1.0 1.0 1.0 1.0 1.0 1.0 1.0
1.0 1.0 1.0 1.0 1.0 1.0 1.0 1.0
1.0 1.0 1.0 1.0 1.0 1.0 1.0 1.0
1.0 1.0 1.0 1.0 1.0 1.0 1.0 1.0
1.0 1.0 1.0 1.0 1.0 1.0 1.0 1.0
1.0 1.0 1.0 1.0 1.0 1.0 1.0 1.0
1.0 1.0 1.0 1.0 1.0 1.0 1.0 1.0
1.0 1.0 1.0 1.0 1.0 1.0 1.0 1.0
1.0 1.0 1.0 1.0 1.0 1.0 1.0 1.0
1.0 1.0 1.0 1.0 1.0 1.0 1.0 1.0
1.0 1.0 1.0 1.0 1.0 1.0 1.0 1.0
1.0 1.0 1.0 1.0 1.0 1.0 1.0 1.0
1.0 1.0 1.0 1.0 1.0 1.0 1.0 1.0
1.0 1.0 1.0 1.0 1.0 1.0 1.0 1.0
1.0 1.0 1.0 1.0 1.0 1.0 1.0 1.0
1.0 1.0 1.0 1.0 1.0 1.0 1.0 1.0
1.0 1.0 1.0 1.0 1.0 1.0 1.0 1.0
1.0 1.0 1.0 1.0 1.0 1.0 1.0 1.0
1.0 1.0 1.0 1.0 1.0 1.0 1.0 1.0
1.0 1.0 1.0 1.0 1.0 1.0 1.0 1.0
1.0 1.0 1.0 1.0 1.0 1.0 1.0 1.0
1.0 1.0 1.0 1.0 1.0 1.0 1.0 1.0
00000000: 0000 803f 0000 803f 0000 803f 0000 803f
00000010: 0000 803f 0000 803f 0000 803f 0000 803f
00000020: 0000 803f 0000 803f 0000 803f 0000 803f
00000030: 0000 803f 0000 803f 0000 803f 0000 803f
00000040: 0000 803f 0000 803f 0000 803f 0000 803f
00000050: 0000 803f 0000 803f 0000 803f 0000 803f
00000060: 0000 803f 0000 803f 0000 803f 0000 803f
00000070: 0000 803f 0000 803f 0000 803f 0000 803f
00000080: 0000 803f 0000 803f 0000 803f 0000 803f
00000090: 0000 803f 0000 803f 0000 803f 0000 803f
000000a0: 0000 803f 0000 803f 0000 803f 0000 803f
000000b0: 0000 803f 0000 803f 0000 803f 0000 803f
000000c0: 0000 803f 0000 803f 0000 803f 0000 803f
000000d0: 0000 803f 0000 803f 0000 803f 0000 803f
000000e0: 0000 803f 0000 803f 0000 803f 0000 803f
000000f0: 0000 803f 0000 803f 0000 803f 0000 803f
00000100: 0000 803f 0000 803f 0000 803f 0000 803f
00000110: 0000 803f 0000 803f 0000 803f 0000 803f
00000120: 0000 803f 0000 803f 0000 803f 0000 803f
00000130: 0000 803f 0000 803f 0000 803f 0000 803f
00000140: 0000 803f 0000 803f 0000 803f 0000 803f
00000150: 0000 803f 0000 803f 0000 803f 0000 803f
00000160: 0000 803f 0000 803f 0000 803f 0000 803f
00000170: 0000 803f 0000 803f 0000 803f 0000 803f
00000180: 0000 803f 0000 803f 0000 803f 0000 803f
00000190: 0000 803f 0000 803f 0000 803f 0000 803f
000001a0: 0000 803f 0000 803f 0000 803f 0000 803f
000001b0: 0000 803f 0000 803f 0000 803f 0000 803f
000001c0: 0000 803f 0000 803f 0000 803f 0000 803f
000001d0: 0000 803f 0000 803f 0000 803f 0000 803f
000001e0: 0000 803f 0000 803f 0000 803f 0000 803f
000001f0: 0000 803f 0000 803f 0000 803f 0000 803f
00000200: 0000 803f 0000 803f 0000 803f 0000 803f
00000210: 0000 803f 0000 803f 0000 803f 0000 803f
00000220: 0000 803f 0000 803f 0000 803f 0000 803f
00000230: 0000 803f 0000 803f 0000 803f 0000 803f
00000240: 0000 803f 0000 803f 0000 803f 0000 803f
00000250: 0000 803f 0000 803f 0000 803f 0000 803f
00000260: 0000 803f 0000 803f 0000 803f 0000 803f
00000270: 0000 803f 0000 803f 0000 803f 0000 803f
00000280: 0000 803f 0000 803f 0000 803f 0000 803f
00000290: 0000 803f 0000 803f 0000 803f 0000 803f
000002a0: 0000 803f 0000 803f 0000 803f 0000 803f
000002b0: 0000 803f 0000 803f 0000 803f 0000 803f
000002c0: 0000 803f 0000 803f 0000 803f 0000 803f
000002d0: 0000 803f 0000 803f 0000 803f 0000 803f
000002e0: 0000 803f 0000 803f 0000 803f 0000 803f
000002f0: 0000 803f 0000 803f 0000 803f 0000 803f
00000300: 0000 803f 0000 803f 0000 803f 0000 803f
00000310: 0000 803f 0000 803f 0000 803f 0000 803f
00000320: 0000 803f 0000 803f 0000 803f 0000 803f
00000330: 0000 803f 0000 803f 0000 803f 0000 803f
00000340: 0000 803f 0000 803f 0000 803f 0000 803f
00000350: 0000 803f 0000 803f 0000 803f 0000 803f
00000360: 0000 803f 0000 803f 0000 803f 0000 803f
00000370: 0000 803f 0000 803f 0000 803f 0000 803f
00000380: 0000 803f 0000 803f 0000 803f 0000 803f
00000390: 0000 803f 0000 803f 0000 803f 0000 803f
000003a0: 0000 803f 0000 803f 0000 803f 0000 803f
000003b0: 0000 803f 0000 803f 0000 803f 0000 803f
000003c0: 0000 803f 0000 803f 0000 803f 0000 803f
000003d0: 0000 803f 0000 803f 0000 803f 0000 803f
000003e0: 0000 803f 0000 803f 0000 803f 0000 803f
000003f0: 0000 803f 0000 803f 0000 803f 0000 803f

thr_o f4 [6]
1.0 1.0 1.0 1.0 1.0 1.0
00000000: 0000 803f 0000 803f 0000 803f 0000 803f
00000010: 0000 803f 0000 803f

i2h.weight f4 [256, 384]
0.08489607 0.025315542 -0.08907938 0.091666095 -0.053682808 -0.026656406 0.0031039289 0.09594266
-0.034643106 -0.012039742 0.028426249 0.055463076 -0.07078921 -0.031687893 -0.07735473 0.024752388
-0.09946265 0.031148776 0.030881489 0.044674896 0.076299466 -0.04496671 -0.0092738625 -0.03620335
-0.09966227 -0.089726985 -0.06356927 -0.037045255 0.017861072 0.027900407 -0.09280427 0.012085911
-0.093667634 0.021524614 -0.08594398 0.065174736 -0.092045724 0.062543385 -0.023941273 0.0044698836
0.06835014 0.07991646 0.02009868 -0.07126116 0.005260939 -0.029280717 -0.069651864 -0.083273076
0.07963269 -0.087608606 0.08797041 0.07562224 0.04735992 -0.049698412 -0.080387816 0.036941744
0.0021817293 -0.038715508 0.07307526 -0.08112537 0.040811367 0.03676236 0.0754308 0.028170396
-0.03554388 0.07711707 0.055132307 0.012762909 0.09593676 0.060399868 -0.0032654123 -0.020277925
-0.012349205 -0.005333157 -0.06305493 -0.061252344 0.06181439 -0.05323324 0.012039028 -0.025889521
-0.0051488033 0.012273239 0.08547891 0.10423934 -0.06011799 0.04322586 -0.0775633 0.0128218485
0.062033206 0.050164986 -0.08155553 0.04368954 0.07818073 -0.07136605 -0.036412667 0.03694666
-0.08689781 -0.06523592 0.05365298 0.013099505 0.0807455 0.023202686 -0.07229973 0.06229866
-0.06352697 -0.0445878 -0.01054741 0.04800188 -0.002170522 0.014923445 -0.030069945 0.046807412
0.0060251765 0.0121752415 0.09152061 -0.0021367776 0.13380109 0.05201264 -0.085282706 0.091357544
0.08537796 -0.074735805 0.009470459 0.008347863 0.009158089 0.035694543 0.057257365 0.014227203
0.045143995 0.03020743 -0.012884077 0.03470681 -0.056792554 0.07548374 -0.026366476 0.034163814
0.033693414 -0.05249209 0.10408808 0.03092544 -0.06666203 -0.057460394 0.060824536 0.07186846
0.11022628 -0.048293732 0.09460908 0.06673747 0.017077874 0.06546633 0.08882331 0.0786298
0.05802148 0.015942581 -0.05016528 0.09259797 -0.07407859 -0.050534528 0.09098071 -0.057259962
-0.06807443 -0.07913757 -0.06889227 0.04475846 0.0044386783 0.041157737 -0.067561075 0.04883228
0.013338882 0.065471634 0.045016862 -0.051689684 0.045354933 0.027348563 0.016940437 0.07403502
0.009851659 -0.036308065 -0.097365834 -0.040886953 -0.10202709 -0.016046492 -0.04443255 0.0478537
0.0460412 0.02066505 -0.037970062 0.05935979 0.042952243 -0.07477412 -0.0590585 0.073484756
-0.01083393 -0.053966552 0.022426303 -0.0022520497 0.10764071 -0.027500542 0.043074112 -0.032469258
-0.036116295 -0.03151324 0.027802136 -0.0028308989 0.022262756 0.049669214 -0.04982274 -0.017208697
-0.011811223 0.08165385 -0.04827558 -0.09067906 0.041620016 -0.08642951 -0.027076287 -0.083636396
0.004376894 0.022523345 0.019516842 -0.052469242 0.043373466 -0.018991623 -0.07737894 0.0199205
0.05451436 -0.03390551 -0.043909185 -0.018651823 0.03306256 -0.04872155 0.076040626 0.020038696
-0.08723452 -0.060474165 0.0012919683 0.03969767 -0.00044636565 0.06544151 0.0070876516 -0.049232725
0.02444289 -0.070451096 0.054208554 -0.0017075507 0.0036794993 -0.034118477 0.06970566 -0.07065418
-0.054332145 0.04916697 -0.009248128 -0.024961712 0.017485233 -0.043488912 -0.0027962362 -0.061965957
00000000: fedd ad3d 8a62 cf3c 406f b6bd 6fbb bb3d
00000010: 81e2 5bbd 895e dabc 496b 4b3b 967d c43d
00000020: eee5 0dbd 5742 45bc 2ade e83c 402d 633d
00000030: eff9 90bd 2acb 01bd 286c 9ebd 85c5 ca3c
00000040: 13b3 cbbd b82b ff3c 2dfb fc3c 06fd 363d
00000050: e542 9c3d 032f 38bd 66f1 17bc f749 14bd
00000060: bb1b ccbd c8c2 b7bd 9b30 82bd c4bc 17bd
00000070: 6251 923c 658f e43c 2a10 bebd fc03 463c
00000080: d1d4 bfbd 6354 b03c 6603 b0bd 557a 853d
00000090: 7882 bcbd bf16 803d 7d20 c4bc 1a78 923b
000000a0: 28fb 8b3d 3eab a33d fda5 a43c 5ff1 91bd
000000b0: f463 ac3b 1dde efbc a3a5 8ebd 138b aabd
000000c0: 7716 a33d 246c b3bd d529 b43d d5df 9a3d
000000d0: 7afc 413d 9090 4bbd 5ea2 a4bd 3a50 173d
000000e0: 58fb 0e3b 2794 1ebd 7ba8 953d 0f25 a6bd
000000f0: d229 273d 2194 163d 777b 9a3d 9ac5 e63c
00000100: 7696 11bd 8eef 9d3d 6ad2 613d 851b 513c
00000110: 7e7a c43d da65 773d 8700 56bb e41d a6bc
00000120: 5254 4abc c3c1 aebb f122 81bd bde3 7abd
00000130: 1631 7d3d 190b 5abd 583f 453c 4316 d4bc
00000140: 4bb7 a8bb b215 493c 910f af3d 6f7b d53d
00000150: 483e 76bd 990d 313d 82d9 9ebd bb12 523c
00000160: 8816 7e3d cd79 4d3d 9606 a7bd cef3 323d
00000170: 381d a03d 5d28 92bd 7325 15bd 6255 173d
00000180: 7bf7 b1bd 699a 85bd 3ac3 5b3d 4e9f 563c
00000190: e65d a53d 8f13 be3c e111 94bd e12c 7f3d
000001a0: 6e1a 82bd b2a1 36bd 0bcf 2cbc 9f9d 443d
000001b0: 513f 0ebb 7781 743c 3f55 f6bc 21b9 3f3d
000001c0: d86e c53b aa7a 473c 286f bb3d 2e09 0cbb
000001d0: 2703 093e 350b 553d b3a8 aebd aa19 bb3d
000001e0: a4da ae3d 160f 99bd fc29 1b3c 7ac5 083c
000001f0: cf0b 163c 7134 123d b386 6a3d 3719 693c
00000200: e9e8 383d 9275 f73c bc17 53bc ba28 0e3d
00000210: 4f9f 68bd 3897 9a3d 82fe d7bc 5bef 0b3d
00000220: 1b02 0a3d f201 57bd 222c d53d 5957 fd3c
00000230: 1a86 88bd 975b 6bbd 2623 793d c52f 933d
00000240: 51be e13d a6cf 45bd 68c2 c13d a8ad 883d
00000250: e6e6 8b3c 3613 863d ffe8 b53d a908 a13d
00000260: eea7 6d3d 049a 823c 1c7a 4dbd 01a4 bd3d
00000270: 84b6 97bd 4bfd 4ebd 1854 ba3d 6c89 6abd
00000280: 9b6a 8bbd e112 a2bd 6417 8dbd a654 373d
00000290: 5572 913b 0495 283d 765d 8abd 5b04 483d
000002a0: 538b 5a3c fe15 863d 9a63 383d 90b8 53bd
000002b0: 18c6 393d 180a e03c acc6 8a3c ac9f 973d
000002c0: da68 213c c4b7 14bd bd67 c7bd 1479 27bd
000002d0: 94f3 d0bd ef73 83bc e8fe 35bd 3e02 443d
000002e0: b395 3c3d c049 a93c 7f86 1bbd 4023 733d
000002f0: b1ee 2f3d 2c23 99bd 53e7 71bd 2d7f 963d
00000300: cc80 31bc 080c 5dbd 5eb7 b73c 2097 13bb
00000310: bc72 dc3d d148 e1bc 7b6e 303d 7cfe 04bd
00000320: aeee 13bd 0714 01bd 4ec1 e33c 9a86 39bb
00000330: 6260 b63c f271 4b3d ee12 4cbd 41f9 8cbc
00000340: dc83 41bc 223a a73d 9dbc 45bd f1b5 b9bd
00000350: c079 2a3d f401 b1bd 17cf ddbc 8f49 abbd
00000360: 0c6c 8f3b e182 b83c c9e1 9f3c fde9 56bd
00000370: 60a8 313d 5294 9bbc da78 9ebd 5130 a33c
00000380: 734a 5f3d 81e0 0abd 1eda 33bd b5cb 98bc
00000390: 9b6c 073d 3f90 47bd 30bb 9b3d 3128 a43c
000003a0: 03a8 b2bd c2b3 77bd 4357 a93a 069a 223d
000003b0: 2f06 eab9 3306 863d 883f e83b 41a8 49bd
000003c0: 753c c83c aa48 90bd ca09 5e3d e5cf dfba
000003d0: c123 713b d1bf 0bbd d7c1 8e3d 24b3 90bd
000003e0: 628b 5ebd 4e63 493d 7685 17bc 817c ccbc
000003f0: 313d 8f3c 6e21 32bd 0f41 37bb 04d0 7dbd

i2h.bias f4 [256]
0.0057986053 0.016952636 0.0024963568 0.017287923 0.0015976497 -0.007458734 -0.007853083 -0.0007800611
-0.012830705 -0.0128445085 0.034477934 -0.010932709 -0.004441494 -0.0055745286 0.008993195 0.013948989
0.00067065924 -0.0015027662 0.0014434826 -0.0024985026 -0.01087486 -0.002670365 0.00627747 0.0076896097
0.012747187 -0.006718756 -0.00333556 0.0057285037 -0.0003727079 -0.011747369 -0.002067405 7.541596e-05
-0.0061751534 -0.0062064813 -0.0007246225 0.006370128 0.006705502 -0.0076405834 -0.009988226 0.0055486034
-0.0050335866 -0.00903627 -0.012424519 0.010132225 -0.0046607438 -0.0055708736 -0.019903237 -0.004963689
-0.0047200243 -0.00014899508 -0.015342264 -0.009018615 0.00379874 -0.0052016205 0.006720234 -0.008535363
-0.0023007598 0.022302357 -0.004254488 0.0006706301 -0.02109526 0.004389798 -0.005597439 -0.014204073
-0.001380993 0.016404288 -0.008434326 0.00095499307 -0.0029366016 0.0067766714 -0.00028416482 0.0135031445
-0.01968798 0.0021689308 0.00013893824 -0.004189346 0.00016926222 0.02356962 -0.00499555 -0.0021105567
-0.005483185 -0.015730629 -0.0064684614 0.00035266165 -0.007642233 0.010249965 -0.0063078282 0.025147002
-0.007666028 -0.010582343 0.012022484 0.00023416303 -0.0042167706 0.0047374503 0.011429596 -0.011928141
-0.0006217093 0.0041350317 -0.017940097 0.009706477 0.00058337714 -0.004884585 0.005612387 0.018170895
-0.0065092007 -0.004097898 0.01682427 0.014018713 -0.018006241 -0.0024238732 0.0005210192 0.006217663
-0.011072554 -0.0046225865 0.014717178 0.034253467 -0.00047915638 -0.012983352 0.006341419 -0.010733497
-0.011595547 -0.004303486 0.020962456 -0.011102394 -0.007888823 0.010924985 0.0010590282 0.015232234
-0.011290501 0.003157292 -0.01609758 -0.0070226328 -0.00296342 -0.0042839167 -0.009669406 0.00011232373
0.006831455 0.001267469 -0.018936671 0.010307488 -0.003757219 -0.0071808775 -0.0045682895 -0.0042425604
0.01477794 -0.0024006637 0.041784562 0.005949517 0.00082625996 0.008943535 -0.0136646405 -0.007832654
0.0038075307 0.0017913862 -0.008279279 -0.0069780936 0.001789448 0.0070350408 0.005485128 -0.0022259073
-0.009159157 -0.006274955 -0.00845717 0.0038873556 0.01873043 0.006165079 -0.010659014 0.005482049
0.005275903 0.009326807 -0.009388983 0.0070917406 -0.011213853 -0.004654071 0.0072334018 0.0018769796
0.020972896 -0.0028929512 0.0011735135 -0.013121295 -0.0044596368 0.0044752825 -0.0005386787 -0.014520932
0.00513531 0.0041849464 -0.0056973854 -0.006029125 -0.015657656 0.006617277 -0.00458855 -0.0066839573
0.0105198715 0.015581021 -0.002092814 -0.0074017593 -0.0015198078 -0.0025197486 0.0047929077 -0.009506811
-0.0019419901 0.008696792 -0.016572276 0.0012734917 0.003545032 -0.010166392 -0.004012717 0.00092799764
-0.0018760257 -0.0030900831 -0.0071774395 -0.010007668 -0.0007997088 -0.002166598 -0.010736229 -0.005910552
-0.0054858425 -0.007537334 0.015306941 0.014789089 0.008023229 0.0012480153 -0.0004440106 -0.014764808
-0.007065719 -0.0028308555 -0.005604056 -0.019830558 0.025906099 -0.0063486802 -0.007930189 -0.00543117
0.011567931 0.04620797 0.022904947 -0.0030011598 0.007982283 -0.008744339 0.004752553 -0.009335962
-0.009597792 -0.008608383 -0.0013019347 -0.008261091 0.013596778 -0.0040654326 -0.01105489 0.0065850606
0.004864811 0.008838919 -0.008115891 0.011396706 -0.008048302 0.0070160553 0.011058314 0.029209422
00000000: 3a02 be3b 41e0 8a3c eb99 233b 679f 8d3c
00000010: 3a68 d13a 6568 f4bb 38aa 00bc 047d 4cba
00000020: e137 52bc c671 52bc bc38 0d3d 1b1f 33bc
00000030: f489 91bb 89aa b6bb 3258 133c 4d8a 643c
00000040: 2ecf 2f3a 77f8 c4ba 3d33 bd3a ebbd 23bb
00000050: 782c 32bc 4a01 2fbb 3cb3 cd3b 1ff9 fb3b
00000060: 94d9 503c 0329 dcbb 6999 5abb 2cb6 bb3b
00000070: 0268 c3b9 0978 40bc 4d7d 07bb a328 9e38
00000080: f158 cabb bd5f cbbb 98f4 3dba 82bc d03b
00000090: d4b9 db3b dc5d fabb a8a5 23bc 0fd1 b53b
000000a0: c9f0 a4bb dd0c 14bc 3690 4bbc a201 263c
000000b0: 27b9 98bb e08b b6bb 1d0c a3bc 71a6 a2bb
000000c0: 6faa 9abb 903b 1cb9 1f5e 7bbc d0c2 13bc
000000d0: 48f4 783b 5b72 aabb 6935 dc3b e8d7 0bbc
000000e0: 58c8 16bb 6fb3 b63c 3b69 8bbb 39cd 2f3a
000000f0: f7cf acbc 4bd8 8f3b b96a b7bb 33b8 68bc
00000100: 7002 b5ba 4962 863c 2130 0abc 8058 7a3a
00000110: 0074 40bb d70e de3b f5fb 94b9 4b3c 5d3c
00000120: b048 a1bc 9f24 0e3b f3af 1139 c846 89bb
00000130: fb7b 3139 1315 c13c b6b1 a3bb 4451 0abb
00000140: 4aac b3bb 85dd 80bc 63f5 d3bb 72e5 b839
00000150: b26b fabb 78ef 273c e6b1 cebb 1601 ce3c
00000160: 4e33 fbbb 9061 2dbc f4f9 443c a989 7539
00000170: d62c 8abb 9d3c 9b3b 3343 3b3c 406e 43bc
00000180: 34fa 22ba 297f 873b 1cf7 92bc ea07 1f3c
00000190: c7ed 183a de0e a0bb 1de8 b73b 21db 943c
000001a0: 224b d5bb a947 86bb 0dd3 893c beae 653c
000001b0: d381 93bc d8d9 1ebb 0295 083a 8abd cb3b
000001c0: a869 35bc 1179 97bb 5220 713c 5d4d 0c3d
000001d0: 4837 fbb9 20b8 54bc aecb cf3b 8ddb 2fbc
000001e0: 40fb 3dbc 4204 8dbb 75b9 ab3c d1e6 35bc
000001f0: 1f40 01bc b5fe 323c 17cf 8a3a 9f90 793c
00000200: cbfb 38bc 92ea 4e3b 12df 83bc 1d1e e6bb
00000210: f035 42bb 1960 8cbb 6e6c 1ebc 588f eb38
00000220: 66da df3b 3421 a63a 1421 9bbc bde0 283c
00000230: ad3b 76bb 914d ebbb 97b1 95bb 2d05 8bbb
00000240: 2c1f 723c 7454 1dbb 4a26 2b3d 2af4 c23b
00000250: 5e99 583a e887 123c a8e1 5fbc 8854 00bc
00000260: c487 793b f2cc ea3a d0a5 07bc 7ea8 e4bb
00000270: e98b ea3a 3386 e63b 97bc b33b 87e0 11bb
00000280: 4a10 16bc 239e cdbb f18f 0abc 01c3 7e3b
00000290: 8f70 993c 6e04 ca3b 25a3 2ebc c3a2 b33b
000002a0: 7be1 ac3b 77cf 183c 40d4 19bc d561 e83b
000002b0: 4fba 37bc 2d81 98bb 2c06 ed3b fc04 f63a
000002c0: 5acf ab3c ab97 3dbb 94d0 993a b3fa 56bc
000002d0: 2522 92bb 64a5 923b 1e36 0dba 34e9 6dbc
000002e0: 1a46 a83b e021 893b 22b1 babb f78f c5bb
000002f0: 7c44 80bc bed5 d83b 8c5b 96bb 1905 dbbb
00000300: 8a5b 2c3c 8a47 7f3c 9827 09bb 758a f2bb
00000310: 4a34 c7ba 5e22 25bb d30d 9d3b 75c2 1bbc
00000320: 608a feba fd7c 0e3c 95c2 87bc 4aeb a63a
00000330: c553 683b f090 26bc 1c7d 83bb de44 733a
00000340: fae4 f5ba fe82 4abb ba30 ebbb 34f7 23bc
00000350: 8da3 51ba 7cfd 0dbb 02e7 2fbc 4ead c1bb
00000360: 95c2 b3bb befb f6bb f7c9 7a3c ef4d 723c
00000370: dd73 033c 7294 a33a 18ca e8b9 18e8 71bc
00000380: 8c87 e7bb e085 39bb 3ba2 b7bb b273 a2bc
00000390: 0739 d43c 9708 d0bb a0ed 01bc f5f7 b1bb
000003a0: 6b87 3d3c 9144 3d3d 28a3 bb3c 1baf 44bb
000003b0: 1fc8 023c 6b44 0fbc 4ebb 9b3b ddf5 18bc
000003c0: 0f40 1dbc 2d0a 0dbc aea5 aaba 8759 07bc
000003d0: 05c5 5e3c 5237 85bb 921f 35bc 7ec7 d73b
000003e0: fe68 9f3b 1dd1 103c 84f8 04bc 40b9 3a3c
000003f0: 06dd 03bc f0e6 e53b ee2d 353c 9948 ef3c

h2o.weight f4 [6, 256]
0.13625056 0.14777677 -0.12196722 -0.11008125 -0.014207613 -0.033962656 -0.13613118 0.11500706
0.037422903 0.0034578822 -0.09380586 -0.15590136 0.09417734 0.13763644 -0.04240982 -0.05675471
0.087771505 0.10690105 -0.13263148 -0.12022148 -0.12730664 0.07043721 0.11874754 -0.041832644
-0.11927904 0.032250624 0.09806154 -0.065283604 0.01469817 0.06589643 0.10066944 -0.1057919
0.000379121 0.13006325 0.06590601 0.14610563 0.06842371 -0.08306492 0.0055055413 -0.014576879
-0.041393816 -0.008008274 0.15102193 -0.10501438 -0.10146337 -0.051088955 -0.13507709 -0.021516295
-0.13859507 0.12507893 -0.019850887 -0.11342549 0.014622863 -0.046186317 -0.085729085 -0.043680806
0.10916192 0.07359124 0.035107173 0.13607177 0.02814791 -0.05081046 0.12465371 0.018080963
0.0032367327 -0.13253984 0.14911704 -0.08040654 -0.022575624 0.0962009 -0.11465515 -0.09821162
-0.107262455 -0.089626394 0.042539466 -0.104547106 -0.08292492 -0.1282083 0.061119046 0.1285089
-0.12024935 0.043304164 0.046502557 0.022243798 -0.01597638 0.035612386 -0.026184028 -0.066791944
0.048819806 -0.004312857 -0.05036532 0.009389214 0.052710723 -0.040762145 0.09523149 0.06729784
-0.07180795 0.13601734 -0.013843278 -0.10691082 -0.0517256 0.13979258 -0.05262731 0.018531283
-0.006460313 -0.091239505 -0.1453535 -0.018976603 0.14148262 0.025774268 0.0035380004 -0.02360117
0.109176755 0.028126411 -0.099918395 0.07215853 0.14675227 0.04517968 0.05772552 0.039004132
0.013362814 0.061733644 -0.14723715 -0.040116496 0.09886747 -0.12569581 -0.121689335 0.07239433
0.0405379 -0.07146202 0.110322386 0.11383393 -0.078676514 -0.09585105 -0.0055254954 -0.034358792
-0.10492093 -0.081217475 0.099492654 -0.067238234 0.125225 -0.1402243 -0.06618875 0.008638912
0.0033068638 0.12076929 -0.0031537055 0.047974486 0.15644728 0.13217197 0.024702763 -0.061611913
-0.088365495 0.05953769 -0.008790348 0.0026195277 -0.14653303 -0.048228085 0.05155049 0.10373882
-0.07289598 -1.5519101e-05 0.02338393 -0.095771976 -0.036688894 -0.108062774 -0.023674741 -0.11123296
0.06453211 0.056309775 -0.05672749 0.1581577 -0.04865249 -0.0033846388 0.091945656 0.0655505
-0.005994089 0.08399159 -0.010293322 0.008309825 0.14426576 -0.018946499 0.13934146 0.031206854
0.122594014 0.0043746466 -0.015272396 -0.104698904 0.07718452 -0.1293487 -0.06418093 0.15075614
-0.107277475 0.008924188 0.062295236 -0.1125305 -0.07374246 -0.10071922 0.07599 -0.018670537
-0.14007723 0.018021762 0.073249176 0.093610734 -0.066178836 -0.11462426 0.0042893374 -0.06841953
0.013537717 -0.0018477853 -0.13051312 0.11728565 -0.0779632 0.14673074 -0.046780705 0.11809192
0.043569233 -0.013325851 -0.124484554 0.118868425 -0.028272608 0.026230438 0.1322615 0.12153676
0.001143143 -0.10992365 0.03966256 0.1485628 -0.027278973 -0.07906569 0.011233207 -0.071772344
-0.00510736 -0.011485574 0.13825804 0.04547126 -0.1098619 0.0971654 -0.09174145 0.05411586
0.065074995 0.08627041 -0.09438524 0.013304566 0.13836531 -0.054347027 0.02544189 0.028063238
0.024609698 -0.12382472 -0.11026893 0.021316975 -0.15549697 0.001177397 0.03465441 -0.06864019
00000000: 4485 0b3e cb52 173e f3c9 f9bd 4772 e1bd
00000010: 0cc7 68bc 6d1c 0bbd f965 0bbe d288 eb3d
00000020: c248 193d a39d 623b 491d c0bd 9ba4 1fbe
00000030: 0de0 c03d 91f0 0c3e ebb5 2dbd a077 68bd
00000040: 8cc1 b33d f0ee da3d 8cd0 07be ae36 f6bd
00000050: ac5c 02be 6241 903d e931 f33d b558 2bbd
00000060: 9248 f4bd 3b19 043d 7dd4 c83d 69b3 85bd
00000070: 98d0 703c b5f4 863d c82b ce3d 6ca9 d8bd
00000080: c2c4 c639 4d2f 053e bbf9 863d b79c 153e
00000090: bb21 8c3d f11d aabd d467 b43b ddd3 6ebc
000000a0: 908c 29bd 2335 03bc 7ea5 1a3e c711 d7bd
000000b0: 07cc cfbd a742 51bd a651 0abe f142 b0bc
000000c0: deeb 0dbe b114 003e 549e a2bc a04b e8bd
000000d0: bc94 6f3c dd2d 3dbd bb92 afbd a5ea 32bd
000000e0: 4990 df3d 01b7 963d 8acc 0f3d 6656 0b3e
000000f0: 7296 e63c a11e 50bd 724a ff3d 871e 943c
00000100: 5d1f 543b 86b8 07be 23b2 183e 2fac a4bd
00000110: 84f0 b8bc fa04 c53d 52d0 eabd 2c23 c9bd
00000120: 6bac dbbd 0b8e b7bd dd3d 2e3d cb1c d6bd
00000130: 8ad4 a9bd 0949 03be f757 7a3d d697 033e
00000140: 4b45 f6bd b55f 313d 7779 3e3d a038 b63c
00000150: e6e0 82bc 4bde 113d e37f d6bc 37ca 88bd
00000160: 47f7 473d de52 8dbb de4b 4ebd 38d5 193c
00000170: 33e7 573d 35f6 26bd ba08 c33d 73d3 893d
00000180: 0c10 93bd 2148 0b3e ebce 62bc 0ff4 dabd
00000190: 39de 53bd c925 0f3e bc8f 57bd ebce 973c
000001a0: 09b1 d3bb c7db babd 8cd7 14be d274 9bbc
000001b0: d2e0 103e 8f24 d33c ccdd 673b 3e57 c1bc
000001c0: 1098 df3d 5c69 e63c 04a2 ccbd dac7 933d
000001d0: 3a46 163e 540e 393d 9871 6c3d ccc2 1f3d
000001e0: b4ef 5a3c 6bdc 7c3d 56c5 16be 3251 24bd
000001f0: 077b ca3d 67b6 00be 4238 f9bd 7a43 943d
00000200: 120b 263d ae5a 92bd b4f0 e13d c321 e93d
00000210: 2721 a1bd 8e4d c4bd 370f b5bb cebb 0cbd
00000220: c9e0 d6bd 5955 a6bd cec2 cb3d 33b4 89bd
00000230: fb3a 003e f596 0fbe f88d 87bd 398a 0d3c
00000240: f8b7 583b e455 f73d 66ae 4ebb e580 443d
00000250: b733 203e 1758 073e 735d ca3c c65c 7cbd
00000260: f8f8 b4bd cbdd 733d 6405 10bc 62ac 2b3b
00000270: c10c 16be d08a 45bd 9b26 533d 0575 d43d
00000280: 7d4a 95bd 042f 82b7 a88f bf3c 1924 c4bd
00000290: 1847 16bd 0450 ddbd 88f1 c1bc 1bce e3bd
000002a0: 6929 843d 14a5 663d 165b 68bd 18f4 213e
000002b0: d547 47bd d1d0 5dbb 014e bc3d 573f 863d
000002c0: 106a c4bb c803 ac3d 52a5 28bc ef25 083c
000002d0: 67ba 133e b035 9bbc 87af 0e3e 84a5 ff3c
000002e0: 9212 fb3d 3259 8f3b 1239 7abc 616c d6bd
000002f0: eb12 9e3d fc73 04be 4b71 83bd d15f 1a3e
00000300: 4bb4 dbbd c236 123c 4a29 7f3d 6476 e6bd
00000310: 4906 97bd e145 cebd a5a0 9b3d f4f2 98bc
00000320: 6870 0fbe 60a2 933c aa03 963d fcb6 bf3d
00000330: c588 87bd 20c0 eabd 928d 8c3b 8a1f 8cbd
00000340: 4dcd 5d3c 6331 f2ba 3ba5 05be 7533 f03d
00000350: 2cab 9fbd 9540 163e 209d 3fbd 2dda f13d
00000360: a775 323d ac54 5abc c2f1 febd 4a71 f33d
00000370: f59b e7bc 37e1 d63c 8f6f 073e 44e8 f83d
00000380: 84d5 953a a71f e1bd 3575 223d d920 183e
00000390: 2778 dfbc 31ed a1bd 7c0b 383c 61fd 92bd
000003a0: a45b a7bb fd2d 3cbc 8493 0d3e 1240 3a3d
000003b0: 47ff e0bd a7fe c63d f1e2 bbbd 98a8 5d3d
000003c0: 0a46 853d 8aae b03d 0c4d c1bd 65fb 593c
000003d0: a3af 0d3e fd9a 5ebd 836b d03c e0e4 e53c
000003e0: 479a c93c d197 fdbd add4 e1bd f0a0 ae3c
000003f0: 993a 1fbe e352 9a3a c8f1 0d3d 3a93 8cbd

h2o.bias f4 [6]
0.0007791954 0.0021996049 0.0046261675 0.0054984 -0.0051172758 0.008894541
00000000: eb42 4c3a 3f27 103b 1b97 973b ec2b b43b
00000010: d2ae a7bb 69ba 113c

h2h.weight f4 [256, 256]
0.014364347 -0.11934652 -0.0777464 0.091538146 -0.036364067 0.04071477 0.09363575 0.051808156
-0.01950563 0.048262995 -0.036457863 0.15305874 0.10473192 0.014157864 -0.060077403 0.066454604
0.09427435 0.13951896 0.05460211 0.08580773 0.04210019 0.09089833 0.04674876 -0.05532535
0.032558393 0.001390724 -0.0009926403 0.022479288 -0.10084785 0.013508788 -0.014253683 -0.15853752
0.06555003 0.019502746 0.08838538 0.110075064 0.084379606 0.01047058 -0.011933131 0.050008878
-0.022112986 -0.0056388183 0.07563034 0.063023254 0.052524686 -0.030084122 0.10037316 0.012990156
0.07511772 0.019921383 -0.030948944 -0.0718277 0.072689265 -0.0848768 -0.024892619 -0.08840979
-0.048870537 0.06797342 -0.014833669 -0.006367104 0.021111581 -0.007367881 -0.04654302 0.050887685
-0.037661467 0.07748559 0.009743813 0.0021960505 -0.07550447 0.019959634 0.010277203 0.07003753
0.018050034 -0.13362207 0.012966855 0.046177708 0.018504012 0.010444067 0.01727685 0.0128520345
0.009043191 0.013741012 0.06242015 -0.07507653 -0.019270433 -0.003309125 -0.07870327 -0.13317856
0.08806649 0.012563521 -0.060142606 0.064697936 -0.053879015 -0.049513716 -0.074359655 0.03171985
-0.08893518 -0.06208222 0.007822182 0.10308152 0.1019372 -0.047160696 0.049359426 -0.101281255
0.0141729545 -0.02603575 0.025093095 0.03255756 -0.0012406737 0.0053661647 -0.024950765 -0.05741033
-0.040530525 -0.06685782 0.1093135 0.109805666 0.008837974 -0.03701444 0.06421257 0.045471165
0.014228029 -0.09056361 0.013777949 0.051222533 0.063292615 0.017040523 -0.01270877 0.01371413
0.008424934 -0.0490501 0.04630801 -0.0016183542 0.06463967 0.028409932 0.006357898 0.009635095
0.18142661 -0.07429829 -0.019220432 0.021599578 0.0169709 0.043808665 -0.028934851 0.050990697
0.010239879 -0.008273486 -0.03728163 -0.0072935633 0.09595266 -0.044671617 -0.032580793 0.018434666
-0.001226163 -0.033830084 0.010158236 0.016404543 -0.0009969223 0.013773093 -0.03448993 0.020092165
-0.045750406 0.018123744 -0.0107615935 0.12215208 0.004152286 -0.033495545 -0.02805365 -0.04261198
0.043277416 -0.047180995 -0.082317874 0.034806762 0.041539926 -0.0931239 -0.04434752 -0.13160935
-0.06971822 0.09200593 0.06265608 0.03962439 -0.09353442 0.04150758 0.117351234 0.0436152
-0.018417398 0.050123088 -0.02808664 -0.040181518 -0.22889303 -0.027046248 0.046045903 -0.005054866
-0.017179081 -0.008009779 0.04880728 0.10816702 0.11258674 -0.032938313 0.10672409 0.06843181
0.08628705 0.004040523 -0.12708426 0.012789207 0.101089805 0.012939219 -0.06769662 -0.009447258
0.013267674 -0.14189042 0.0083384635 0.0723014 0.1105991 -0.03696436 -0.028727554 -0.07103521
-0.018092308 0.03704997 0.12461295 -0.041482236 0.056688868 0.09415479 0.08028616 -0.006801536
-0.023251928 -0.06302246 -0.06924704 -0.014118966 0.13870274 -0.023603816 -0.002750692 -0.025995633
-0.062242765 0.048960406 -0.06024475 -0.006266392 0.058414165 0.053005464 -0.08006781 -0.0087578185
-0.08802045 -0.06144744 0.016983265 0.06365897 0.18915749 -0.0044535925 -0.043437604 -0.13076831
-0.078549504 0.0010065418 0.13098843 -0.0888658 -0.04585886 0.0030550736 0.040015437 0.048629828
00000000: 7058 6b3c f36b f4bd 8139 9fbd 5a78 bb3d
00000010: 7df2 14bd 88c4 263d 1ac4 bf3d ca34 543d
00000020: 45ca 9fbc 6baf 453d d754 15bd 6ebb 1c3e
00000030: b07d d63d 63f6 673c b913 76bd 5a19 883d
00000040: e912 c13d 0fde 0e3e 76a6 5f3d f7bb af3d
00000050: 4071 2c3d e728 ba3d a17b 3f3d d69c 62bd
00000060: f35b 053d f448 b63a 7b1b 82ba 7c26 b83c
00000070: 5189 cebd f753 5d3c 4888 69bc a957 22be
00000080: 183f 863d 39c4 9f3c 6503 b53d 096f e13d
00000090: 37cf ac3d cc8c 2b3c 2e83 43bc 1cd6 4c3d
000000a0: 4b26 b5bc d6c5 b8bb 14e4 9a3d 5612 813d
000000b0: 2024 573d fa72 f6bc 7190 cd3d aad4 543c
000000c0: 52d7 993d 2b32 a33c a488 fdbc 671a 93bd
000000d0: 1cde 943d e3d3 adbd 9beb cbbc 3110 b5bd
000000e0: 792c 48bd a635 8b3d eb08 73bc 24a3 d0bb
000000f0: 32f2 ac3c 446e f1bb e5a3 3ebd 9b6f 503d
00000100: e942 1abd c4b0 9e3d 84a4 1f3c 9deb 0f3b
00000110: 16a2 9abd 6382 a33c b761 283c d66f 8f3d
00000120: aadd 933c 39d4 08be ef72 543c d624 3d3d
00000130: ba95 973c 981d 2b3c 2e88 8d3c 5791 523c
00000140: e429 143c fb21 613c 45ac 7f3d b9c1 99bd
00000150: 07dd 9dbc e8dd 58bb 2e2f a1bd f65f 08be
00000160: 345c b43d 3ad7 4d3c 1858 76bd 5a80 843d
00000170: 3eb0 5cbd e5ce 4abd e049 98bd acec 013d
00000180: a623 b6bd ed49 7ebd 9c28 003c 671c d33d
00000190: 73c4 d03d 932b 41bd 1c2d 4a3d 8c6c cfbd
000001a0: ae35 683c ed48 d5bc 0990 cd3c 135b 053d
000001b0: 1a9e a2ba a7d6 af3b 8c65 ccbc 1827 6bbd
000001c0: 5603 26bd c1ec 88bd c2df df3d cbe1 e03d
000001d0: 26cd 103c 749c 17bd e181 833d f93f 3a3d
000001e0: ae1c 693c 6a79 b9bd e8bc 613c b8ce 513d
000001f0: 8f9f 813d 9198 8b3c 7238 50bc 3bb1 603c
00000200: bc08 0a3c c2e8 48bd 78ad 3d3d f51e d4ba
00000210: ce61 843d f2bb e83c ea55 d03b 84dc 1d3c
00000220: e6c7 393e b429 98bd 2b74 9dbc 99f1 b03c
00000230: 8f06 8b3c b770 333d c808 edbc 9fdb 503d
00000240: 2ac5 273c 848d 07bc 9fb4 18bd d8fe eebb
00000250: d482 c43d 96f9 36bd 7073 05bd 4c04 973c
00000260: 34b7 a0ba 6a91 0abd bb6e 263c d262 863c
00000270: 29ab 82ba 8aa8 613c 5045 0dbd 5398 a43c
00000280: c764 3bbd 3f78 943c 6551 30bc df2a fa3d
00000290: e60f 883b a032 09bd c5d0 e5bc e689 2ebd
000002a0: a943 313d dc40 41bd 4696 a8bd 8991 0e3d
000002b0: c525 2a3d beb7 bebd bfa5 35bd 9ac4 06be
000002c0: 6dc8 8ebd 9b6d bc3d d551 803d 2f4d 223d
000002d0: f98e bfbd da03 2a3d d855 f03d daa5 323d
000002e0: 15e0 96bc de4d 4d3d f415 e6bc 6095 24bd
000002f0: ef62 6abe 1890 ddbc a19a 3c3d 4aa3 a5bb
00000300: 25bb 8cbc 733b 03bc 24ea 473d ac86 dd3d
00000310: e093 e63d 53ea 06bd 2992 da3d fa25 8c3d
00000320: 44b7 b03d 5d66 843b 6022 02be d289 513c
00000330: 2c08 cf3d 05ff 533c 87a4 8abd acc8 1abc
00000340: a860 593c b94b 11be 0d9e 083c c212 943d
00000350: c881 e23d f167 17bd 0c56 ebbc e87a 91bd
00000360: 5236 94bc b6c1 173d 1335 ff3d 47e9 29bd
00000370: 9632 683d 3ad4 c03d 126d a43d 6bdf debb
00000380: d47a bebc eb11 81bd 64d1 8dbd 3c53 67bc
00000390: 1708 0e3e ca5c c1bc f444 34bb cbf4 d4bc
000003a0: 45f2 7ebd b58a 483d 33c3 76bd 4e56 cdbb
000003b0: b143 6f3d 421c 593d 98fa a3bd f47c 0fbc
000003c0: 1144 b4bd 50b0 7bbd 7d20 8b3c a25f 823d
000003d0: 80b2 413e 71ef 91bb a1eb 31bd 21e8 05be
000003e0: 90de a0bd f0ed 833a d521 063e 46ff b5bd
000003f0: 80d6 3bbd a137 483b 3ae7 233d 1230 473d

h2h.bias f4 [256]
0.0057986053 0.016952636 0.0024963568 0.017287923 0.0015976497 -0.007458734 -0.007853083 -0.0007800611
-0.012830705 -0.0128445085 0.034477934 -0.010932709 -0.004441494 -0.0055745286 0.008993195 0.013948989
0.00067065924 -0.0015027662 0.0014434826 -0.0024985026 -0.01087486 -0.002670365 0.00627747 0.0076896097
0.012747187 -0.006718756 -0.00333556 0.0057285037 -0.0003727079 -0.011747369 -0.002067405 7.541596e-05
-0.0061751534 -0.0062064813 -0.0007246225 0.006370128 0.006705502 -0.0076405834 -0.009988226 0.0055486034
-0.0050335866 -0.00903627 -0.012424519 0.010132225 -0.0046607438 -0.0055708736 -0.019903237 -0.004963689
-0.0047200243 -0.00014899508 -0.015342264 -0.009018615 0.00379874 -0.0052016205 0.006720234 -0.008535363
-0.0023007598 0.022302357 -0.004254488 0.0006706301 -0.02109526 0.004389798 -0.005597439 -0.014204073
-0.001380993 0.016404288 -0.008434326 0.00095499307 -0.0029366016 0.0067766714 -0.00028416482 0.0135031445
-0.01968798 0.0021689308 0.00013893824 -0.004189346 0.00016926222 0.02356962 -0.00499555 -0.0021105567
-0.005483185 -0.015730629 -0.0064684614 0.00035266165 -0.007642233 0.010249965 -0.0063078282 0.025147002
-0.007666028 -0.010582343 0.012022484 0.00023416303 -0.0042167706 0.0047374503 0.011429596 -0.011928141
-0.0006217093 0.0041350317 -0.017940097 0.009706477 0.00058337714 -0.004884585 0.005612387 0.018170895
-0.0065092007 -0.004097898 0.01682427 0.014018713 -0.018006241 -0.0024238732 0.0005210192 0.006217663
-0.011072554 -0.0046225865 0.014717178 0.034253467 -0.00047915638 -0.012983352 0.006341419 -0.010733497
-0.011595547 -0.004303486 0.020962456 -0.011102394 -0.007888823 0.010924985 0.0010590282 0.015232234
-0.011290501 0.003157292 -0.01609758 -0.0070226328 -0.00296342 -0.0042839167 -0.009669406 0.00011232373
0.006831455 0.001267469 -0.018936671 0.010307488 -0.003757219 -0.0071808775 -0.0045682895 -0.0042425604
0.01477794 -0.0024006637 0.041784562 0.005949517 0.00082625996 0.008943535 -0.0136646405 -0.007832654
0.0038075307 0.0017913862 -0.008279279 -0.0069780936 0.001789448 0.0070350408 0.005485128 -0.0022259073
-0.009159157 -0.006274955 -0.00845717 0.0038873556 0.01873043 0.006165079 -0.010659014 0.005482049
0.005275903 0.009326807 -0.009388983 0.0070917406 -0.011213853 -0.004654071 0.0072334018 0.0018769796
0.020972896 -0.0028929512 0.0011735135 -0.013121295 -0.0044596368 0.0044752825 -0.0005386787 -0.014520932
0.00513531 0.0041849464 -0.0056973854 -0.006029125 -0.015657656 0.006617277 -0.00458855 -0.0066839573
0.0105198715 0.015581021 -0.002092814 -0.0074017593 -0.0015198078 -0.0025197486 0.0047929077 -0.009506811
-0.0019419901 0.008696792 -0.016572276 0.0012734917 0.003545032 -0.010166392 -0.004012717 0.00092799764
-0.0018760257 -0.0030900831 -0.0071774395 -0.010007668 -0.0007997088 -0.002166598 -0.010736229 -0.005910552
-0.0054858425 -0.007537334 0.015306941 0.014789089 0.008023229 0.0012480153 -0.0004440106 -0.014764808
-0.007065719 -0.0028308555 -0.005604056 -0.019830558 0.025906099 -0.0063486802 -0.007930189 -0.00543117
0.011567931 0.04620797 0.022904947 -0.0030011598 0.007982283 -0.008744339 0.004752553 -0.009335962
-0.009597792 -0.008608383 -0.0013019347 -0.008261091 0.013596778 -0.0040654326 -0.01105489 0.0065850606
0.004864811 0.008838919 -0.008115891 0.011396706 -0.008048302 0.0070160553 0.011058314 0.029209422
00000000: 3a02 be3b 41e0 8a3c eb99 233b 679f 8d3c
00000010: 3a68 d13a 6568 f4bb 38aa 00bc 047d 4cba
00000020: e137 52bc c671 52bc bc38 0d3d 1b1f 33bc
00000030: f489 91bb 89aa b6bb 3258 133c 4d8a 643c
00000040: 2ecf 2f3a 77f8 c4ba 3d33 bd3a ebbd 23bb
00000050: 782c 32bc 4a01 2fbb 3cb3 cd3b 1ff9 fb3b
00000060: 94d9 503c 0329 dcbb 6999 5abb 2cb6 bb3b
00000070: 0268 c3b9 0978 40bc 4d7d 07bb a328 9e38
00000080: f158 cabb bd5f cbbb 98f4 3dba 82bc d03b
00000090: d4b9 db3b dc5d fabb a8a5 23bc 0fd1 b53b
000000a0: c9f0 a4bb dd0c 14bc 3690 4bbc a201 263c
000000b0: 27b9 98bb e08b b6bb 1d0c a3bc 71a6 a2bb
000000c0: 6faa 9abb 903b 1cb9 1f5e 7bbc d0c2 13bc
000000d0: 48f4 783b 5b72 aabb 6935 dc3b e8d7 0bbc
000000e0: 58c8 16bb 6fb3 b63c 3b69 8bbb 39cd 2f3a
000000f0: f7cf acbc 4bd8 8f3b b96a b7bb 33b8 68bc
00000100: 7002 b5ba 4962 863c 2130 0abc 8058 7a3a
00000110: 0074 40bb d70e de3b f5fb 94b9 4b3c 5d3c
00000120: b048 a1bc 9f24 0e3b f3af 1139 c846 89bb
00000130: fb7b 3139 1315 c13c b6b1 a3bb 4451 0abb
00000140: 4aac b3bb 85dd 80bc 63f5 d3bb 72e5 b839
00000150: b26b fabb 78ef 273c e6b1 cebb 1601 ce3c
00000160: 4e33 fbbb 9061 2dbc f4f9 443c a989 7539
00000170: d62c 8abb 9d3c 9b3b 3343 3b3c 406e 43bc
00000180: 34fa 22ba 297f 873b 1cf7 92bc ea07 1f3c
00000190: c7ed 183a de0e a0bb 1de8 b73b 21db 943c
000001a0: 224b d5bb a947 86bb 0dd3 893c beae 653c
000001b0: d381 93bc d8d9 1ebb 0295 083a 8abd cb3b
000001c0: a869 35bc 1179 97bb 5220 713c 5d4d 0c3d
000001d0: 4837 fbb9 20b8 54bc aecb cf3b 8ddb 2fbc
000001e0: 40fb 3dbc 4204 8dbb 75b9 ab3c d1e6 35bc
000001f0: 1f40 01bc b5fe 323c 17cf 8a3a 9f90 793c
00000200: cbfb 38bc 92ea 4e3b 12df 83bc 1d1e e6bb
00000210: f035 42bb 1960 8cbb 6e6c 1ebc 588f eb38
00000220: 66da df3b 3421 a63a 1421 9bbc bde0 283c
00000230: ad3b 76bb 914d ebbb 97b1 95bb 2d05 8bbb
00000240: 2c1f 723c 7454 1dbb 4a26 2b3d 2af4 c23b
00000250: 5e99 583a e887 123c a8e1 5fbc 8854 00bc
00000260: c487 793b f2cc ea3a d0a5 07bc 7ea8 e4bb
00000270: e98b ea3a 3386 e63b 97bc b33b 87e0 11bb
00000280: 4a10 16bc 239e cdbb f18f 0abc 01c3 7e3b
00000290: 8f70 993c 6e04 ca3b 25a3 2ebc c3a2 b33b
000002a0: 7be1 ac3b 77cf 183c 40d4 19bc d561 e83b
000002b0: 4fba 37bc 2d81 98bb 2c06 ed3b fc04 f63a
000002c0: 5acf ab3c ab97 3dbb 94d0 993a b3fa 56bc
000002d0: 2522 92bb 64a5 923b 1e36 0dba 34e9 6dbc
000002e0: 1a46 a83b e021 893b 22b1 babb f78f c5bb
000002f0: 7c44 80bc bed5 d83b 8c5b 96bb 1905 dbbb
00000300: 8a5b 2c3c 8a47 7f3c 9827 09bb 758a f2bb
00000310: 4a34 c7ba 5e22 25bb d30d 9d3b 75c2 1bbc
00000320: 608a feba fd7c 0e3c 95c2 87bc 4aeb a63a
00000330: c553 683b f090 26bc 1c7d 83bb de44 733a
00000340: fae4 f5ba fe82 4abb ba30 ebbb 34f7 23bc
00000350: 8da3 51ba 7cfd 0dbb 02e7 2fbc 4ead c1bb
00000360: 95c2 b3bb befb f6bb f7c9 7a3c ef4d 723c
00000370: dd73 033c 7294 a33a 18ca e8b9 18e8 71bc
00000380: 8c87 e7bb e085 39bb 3ba2 b7bb b273 a2bc
00000390: 0739 d43c 9708 d0bb a0ed 01bc f5f7 b1bb
000003a0: 6b87 3d3c 9144 3d3d 28a3 bb3c 1baf 44bb
000003b0: 1fc8 023c 6b44 0fbc 4ebb 9b3b ddf5 18bc
000003c0: 0f40 1dbc 2d0a 0dbc aea5 aaba 8759 07bc
000003d0: 05c5 5e3c 5237 85bb 921f 35bc 7ec7 d73b
000003e0: fe68 9f3b 1dd1 103c 84f8 04bc 40b9 3a3c
000003f0: 06dd 03bc f0e6 e53b ee2d 353c 9948 ef3c
