TBCAS24/intuitivechip_classifier_lcsvsnlcs_run2/SNN_ep-150-isize-1-8-1-hsize-242-bsize-32-lr-0.001-tmax_ms-200.0-Ts-10.0-k-6-dsetPath-VMODE_allchannels_ALLCLASS_auto_nospkfilter_cleaned_12x16_9mvpp_250mvofs_onedac_itail_50nA_N5b_OFFdcard/chip-classifier-test-2-best.pt (torch, 253495 bytes, 8 tensors)

thr_h_1 f4 [242]
0	0x3f800000	1.0
1	0x3f800000	1.0
2	0x3f800000	1.0
3	0x3f800000	1.0
4	0x3f800000	1.0
5	0x3f800000	1.0
6	0x3f800000	1.0
7	0x3f800000	1.0
8	0x3f800000	1.0
9	0x3f800000	1.0
10	0x3f800000	1.0
11	0x3f800000	1.0
12	0x3f800000	1.0
13	0x3f800000	1.0
14	0x3f800000	1.0
15	0x3f800000	1.0
16	0x3f800000	1.0
17	0x3f800000	1.0
18	0x3f800000	1.0
19	0x3f800000	1.0
20	0x3f800000	1.0
21	0x3f800000	1.0
22	0x3f800000	1.0
23	0x3f800000	1.0
24	0x3f800000	1.0
25	0x3f800000	1.0
26	0x3f800000	1.0
27	0x3f800000	1.0
28	0x3f800000	1.0
29	0x3f800000	1.0
30	0x3f800000	1.0
31	0x3f800000	1.0
32	0x3f800000	1.0
33	0x3f800000	1.0
34	0x3f800000	1.0
35	0x3f800000	1.0
36	0x3f800000	1.0
37	0x3f800000	1.0
38	0x3f800000	1.0
39	0x3f800000	1.0
40	0x3f800000	1.0
41	0x3f800000	1.0
42	0x3f800000	1.0
43	0x3f800000	1.0
44	0x3f800000	1.0
45	0x3f800000	1.0
46	0x3f800000	1.0
47	0x3f800000	1.0
48	0x3f800000	1.0
49	0x3f800000	1.0
50	0x3f800000	1.0
51	0x3f800000	1.0
52	0x3f800000	1.0
53	0x3f800000	1.0
54	0x3f800000	1.0
55	0x3f800000	1.0
56	0x3f800000	1.0
57	0x3f800000	1.0
58	0x3f800000	1.0
59	0x3f800000	1.0
60	0x3f800000	1.0
61	0x3f800000	1.0
62	0x3f800000	1.0
63	0x3f800000	1.0
64	0x3f800000	1.0
65	0x3f800000	1.0
66	0x3f800000	1.0
67	0x3f800000	1.0
68	0x3f800000	1.0
69	0x3f800000	1.0
70	0x3f800000	1.0
71	0x3f800000	1.0
72	0x3f800000	1.0
73	0x3f800000	1.0
74	0x3f800000	1.0
75	0x3f800000	1.0
76	0x3f800000	1.0
77	0x3f800000	1.0
78	0x3f800000	1.0
79	0x3f800000	1.0
80	0x3f800000	1.0
81	0x3f800000	1.0
82	0x3f800000	1.0
83	0x3f800000	1.0
84	0x3f800000	1.0
85	0x3f800000	1.0
86	0x3f800000	1.0
87	0x3f800000	1.0
88	0x3f800000	1.0
89	0x3f800000	1.0
90	0x3f800000	1.0
91	0x3f800000	1.0
92	0x3f800000	1.0
93	0x3f800000	1.0
94	0x3f800000	1.0
95	0x3f800000	1.0
96	0x3f800000	1.0
97	0x3f800000	1.0
98	0x3f800000	1.0
99	0x3f800000	1.0
100	0x3f800000	1.0
101	0x3f800000	1.0
102	0x3f800000	1.0
103	0x3f800000	1.0
104	0x3f800000	1.0
105	0x3f800000	1.0
106	0x3f800000	1.0
107	0x3f800000	1.0
108	0x3f800000	1.0
109	0x3f800000	1.0
110	0x3f800000	1.0
111	0x3f800000	1.0
112	0x3f800000	1.0
113	0x3f800000	1.0
114	0x3f800000	1.0
115	0x3f800000	1.0
116	0x3f800000	1.0
117	0x3f800000	1.0
118	0x3f800000	1.0
119	0x3f800000	1.0
120	0x3f800000	1.0
121	0x3f800000	1.0
122	0x3f800000	1.0
123	0x3f800000	1.0
124	0x3f800000	1.0
125	0x3f800000	1.0
126	0x3f800000	1.0
127	0x3f800000	1.0
128	0x3f800000	1.0
129	0x3f800000	1.0
130	0x3f800000	1.0
131	0x3f800000	1.0
132	0x3f800000	1.0
133	0x3f800000	1.0
134	0x3f800000	1.0
135	0x3f800000	1.0
136	0x3f800000	1.0
137	0x3f800000	1.0
138	0x3f800000	1.0
139	0x3f800000	1.0
140	0x3f800000	1.0
141	0x3f800000	1.0
142	0x3f800000	1.0
143	0x3f800000	1.0
144	0x3f800000	1.0
145	0x3f800000	1.0
146	0x3f800000	1.0
147	0x3f800000	1.0
148	0x3f800000	1.0
149	0x3f800000	1.0
150	0x3f800000	1.0
151	0x3f800000	1.0
152	0x3f800000	1.0
153	0x3f800000	1.0
154	0x3f800000	1.0
155	0x3f800000	1.0
156	0x3f800000	1.0
157	0x3f800000	1.0
158	0x3f800000	1.0
159	0x3f800000	1.0
160	0x3f800000	1.0
161	0x3f800000	1.0
162	0x3f800000	1.0
163	0x3f800000	1.0
164	0x3f800000	1.0
165	0x3f800000	1.0
166	0x3f800000	1.0
167	0x3f800000	1.0
168	0x3f800000	1.0
169	0x3f800000	1.0
170	0x3f800000	1.0
171	0x3f800000	1.0
172	0x3f800000	1.0
173	0x3f800000	1.0
174	0x3f800000	1.0
175	0x3f800000	1.0
176	0x3f800000	1.0
177	0x3f800000	1.0
178	0x3f800000	1.0
179	0x3f800000	1.0
180	0x3f800000	1.0
181	0x3f800000	1.0
182	0x3f800000	1.0
183	0x3f800000	1.0
184	0x3f800000	1.0
185	0x3f800000	1.0
186	0x3f800000	1.0
187	0x3f800000	1.0
188	0x3f800000	1.0
189	0x3f800000	1.0
190	0x3f800000	1.0
191	0x3f800000	1.0
192	0x3f800000	1.0
193	0x3f800000	1.0
194	0x3f800000	1.0
195	0x3f800000	1.0
196	0x3f800000	1.0
197	0x3f800000	1.0
198	0x3f800000	1.0
199	0x3f800000	1.0
200	0x3f800000	1.0
201	0x3f800000	1.0
202	0x3f800000	1.0
203	0x3f800000	1.0
204	0x3f800000	1.0
205	0x3f800000	1.0
206	0x3f800000	1.0
207	0x3f800000	1.0
208	0x3f800000	1.0
209	0x3f800000	1.0
210	0x3f800000	1.0
211	0x3f800000	1.0
212	0x3f800000	1.0
213	0x3f800000	1.0
214	0x3f800000	1.0
215	0x3f800000	1.0
216	0x3f800000	1.0
217	0x3f800000	1.0
218	0x3f800000	1.0
219	0x3f800000	1.0
220	0x3f800000	1.0
221	0x3f800000	1.0
222	0x3f800000	1.0
223	0x3f800000	1.0
224	0x3f800000	1.0
225	0x3f800000	1.0
226	0x3f800000	1.0
227	0x3f800000	1.0
228	0x3f800000	1.0
229	0x3f800000	1.0
230	0x3f800000	1.0
231	0x3f800000	1.0
232	0x3f800000	1.0
233	0x3f800000	1.0
234	0x3f800000	1.0
235	0x3f800000	1.0
236	0x3f800000	1.0
237	0x3f800000	1.0
238	0x3f800000	1.0
239	0x3f800000	1.0
240	0x3f800000	1.0
241	0x3f800000	1.0

thr_o f4 [6]
0	0x3f800000	1.0
1	0x3f800000	1.0
2	0x3f800000	1.0
3	0x3f800000	1.0
4	0x3f800000	1.0
5	0x3f800000	1.0

i2h.weight f4 [242, 8]
0	0xbdc40e57	-0.095730476
1	0x3c85d9b8	0.016339168
2	0x3d31c313	0.043398928
3	0x3e0d0ea4	0.13775116
4	0x3dd6ba03	0.10484698
5	0x3d8cea99	0.068806835
6	0xbe061589	-0.13094153
7	0x3ce00b3b	0.027349105
8	0x3d98d7ac	0.07463011
9	0xbcfefda0	-0.031126797
10	0xbd8fa2ce	-0.070134744
11	0x3dbe049c	0.09278223
12	0x3dd82724	0.105543405
13	0x3d623b9e	0.055232637
14	0x3da3a5dd	0.0799062
15	0xbdc0b39a	-0.09409256
16	0x3e11e68c	0.14248103
17	0xbda8d226	-0.08243208
18	0x3e094936	0.13406834
19	0x3e35fead	0.17772932
20	0xbe0bf10d	-0.13666172
21	0x3e1d42db	0.15357535
22	0xbe1bf822	-0.15231374
23	0x3cdee7a0	0.027210057
24	0x3e4df8f3	0.20114498
25	0x3dc4c6b0	0.09608209
26	0x3de1ffc5	0.11035112
27	0xbded4270	-0.115849376
28	0xbd8ebc24	-0.06969479
29	0xbc76c806	-0.015062338
30	0x3e0e7b8d	0.13914318
31	0xbdd89df2	-0.10577001
32	0x3e334a67	0.17508851
33	0xbd1eae95	-0.038740713
34	0x3d2fec41	0.04294992
35	0xbe15d019	-0.14630164
36	0x3e128859	0.14309825
37	0x3d0a8550	0.033818543
38	0x3d13482b	0.035957497
39	0xbe0ac2d1	-0.13550879
40	0xbe365d2d	-0.17808981
41	0xbc90d4ec	-0.017679654
42	0x3d455292	0.04817445
43	0xbddc48f3	-0.107561015
44	0x3e1f5543	0.15559869
45	0x3d016bc2	0.031596906
46	0x3c04cd5c	0.008105602
47	0x3d95dc45	0.07317404
48	0xbd7f57fa	-0.06233976
49	0x3e00ccad	0.12578078
50	0x3c5c58b0	0.013448879
51	0xbe0f6190	-0.14002061
52	0x3d6bab08	0.057536155
53	0x3de89cfe	0.11358069
54	0xbe1100b1	-0.1416042
55	0x3d06d8e3	0.032921683
56	0xbb61b062	-0.0034437408
57	0x3dac0c30	0.08400762
58	0x3dbd6493	0.09247699
59	0xbe48149d	-0.19539113
60	0xbe0dc837	-0.13845907
61	0x3e09ca1c	0.13456005
62	0xbe05ba50	-0.13059354
63	0x3d16108e	0.03663688
64	0x3df523a1	0.11969686
65	0xbdb7335a	-0.089453414
66	0x3dbf2527	0.09333258
67	0x3dc5b643	0.09653904
68	0xbdf36764	-0.118849546
69	0x3df0031c	0.11719343
70	0xbd592a92	-0.053019114
71	0xbd3a9ccc	-0.04555969
72	0x3d0f2ed4	0.03495677
73	0xbdb2ca4f	-0.087299936
74	0xbe1ddbac	-0.1541583
75	0xbd3c4714	-0.045966223
76	0xbdc142c4	-0.09436563
77	0x3cc4393e	0.023953076
78	0x3d4d6216	0.05014237
79	0x3dba0dee	0.09084688
80	0x3d7493f5	0.059711415
81	0x3cf232c0	0.029565215
82	0x3dc4f78e	0.0961753
83	0xbe1cec72	-0.15324572
84	0x3da7bfd1	0.08190883
85	0x3d54e895	0.05197962
86	0xbc4aab40	-0.012369931
87	0xbdbaa89f	-0.09114193
88	0x3bd22e8a	0.0064142393
89	0xbc351448	-0.011052199
90	0xbd8d8c43	-0.069115184
91	0xbd844e3f	-0.06460237
92	0xbe09617f	-0.13416098
93	0x3e0991c2	0.13434508
94	0xbe060637	-0.13088308
95	0x3dc0a222	0.094059244
96	0xbe14fc1e	-0.145493
97	0x3e17232b	0.1475951
98	0x3db346ac	0.08753714
99	0x3bd030bd	0.0063534663
100	0x3dcbeecc	0.09957656
101	0xbcd630d9	-0.02614634
102	0xbbdc1cf5	-0.006717319
103	0xbcff1ddf	-0.031142173
104	0x3e04b3bc	0.12959188
105	0x3d97eb45	0.07417921
106	0x3dd19c82	0.102349296
107	0x3e096746	0.13418302
108	0xbdf52401	-0.11969758
109	0xbdb769e4	-0.08955744
110	0xbdf51380	-0.1196661
111	0x3e0fbc7d	0.14036746
112	0x3d138a4a	0.036020555
113	0x3d3e8dc2	0.04652191
114	0x3d2c7756	0.042105995
115	0x3d172179	0.036897156
116	0xbda5d130	-0.0809654
117	0xbd272e50	-0.04081565
118	0xbd9a7c31	-0.07543219
119	0x3df3f299	0.11911506
120	0xbdffdf63	-0.124937795
121	0xbe0c1f3d	-0.13683791
122	0x3da242c1	0.079228885
123	0xbd9bb6b0	-0.07603204
124	0x3deb5eab	0.11492666
125	0xbd380999	-0.044931028
126	0x3dd72260	0.105046034
127	0x3d5c34a1	0.05376113
128	0x3e3671ef	0.178169
129	0xbce6d3d0	-0.028177172
130	0x3d57305e	0.05253636
131	0x3dd48087	0.10376077
132	0x3e10683b	0.14102261
133	0x3cf08874	0.02936194
134	0x3de14142	0.10998775
135	0x3d7b090b	0.06128792
136	0x3df94d94	0.12173
137	0x3da678cd	0.0812851
138	0xbe085f3a	-0.13317576
139	0xbd70b9ea	-0.05877105
140	0x3e1890f6	0.14899048
141	0x3e022947	0.12711059
142	0x3e0ec84e	0.13943598
143	0x3dbc3632	0.091900244
144	0xbc865f6d	-0.016402924
145	0x3e10c5a1	0.1413789
146	0x3d81ca9e	0.06337474
147	0xbdf0d274	-0.11758891
148	0x3b2bca90	0.0026213266
149	0xbe164b15	-0.14677079
150	0x3d308a63	0.043100726
151	0xbd9fb9c3	-0.07799103
152	0x3d2a9adb	0.041651588
153	0xbdd89d84	-0.10576919
154	0x3dbaac6d	0.09114919
155	0x3dae5dc7	0.0851398
156	0x3e03d47c	0.12874025
157	0x3e0845c9	0.13307871
158	0x3d5a3a91	0.05327851
159	0xbda5d083	-0.08096411
160	0xbde9674b	-0.11396655
161	0x3e1843f0	0.14869666
162	0x3d3479d4	0.044061497
163	0x3d9e73c4	0.07736924
164	0x3e254275	0.16138633
165	0x3debfcdb	0.11522838
166	0xbdd7579e	-0.105147585
167	0x3e134950	0.14383435
168	0xbe11ba5b	-0.14231245
169	0x3d92155b	0.071329795
170	0x3dbfc963	0.09364583
171	0x3e0af631	0.13570477
172	0xbe0f5da6	-0.14000568
173	0x3e0b1802	0.13583377
174	0xbdb81341	-0.089880474
175	0xbd8b0e8e	-0.067898855
176	0x3d48c1d9	0.049012993
177	0x3d6e2eaa	0.05814997
178	0xbd6c63d5	-0.057712395
179	0xba8cbb12	-0.0010736904
180	0xbd2998b1	-0.041405383
181	0x3de818b1	0.113328345
182	0xbc7975a2	-0.0152258
183	0xbdf4a9b6	-0.11946432
184	0x3d00b845	0.031425733
185	0xbdb35024	-0.0875552
186	0xbc866d5b	-0.016409567
187	0x3d398c31	0.045299713
188	0xbd29795d	-0.041375507
189	0xbdf1804a	-0.11792047
190	0xbd9bb349	-0.07602555
191	0x3e03bdbd	0.12865348
192	0xbcb284c6	-0.021791827
193	0x3dc1f3ec	0.094703525
194	0x3cfdc306	0.030976783
195	0xbcbf3c54	-0.023344196
196	0x3dc5bf24	0.09655598
197	0xbdbe86e4	-0.09303072
198	0x3e10a49d	0.14125295
199	0xbdcfbd5a	-0.10143538
200	0xbd48c4e9	-0.049015913
201	0x3de7735f	0.11301302
202	0x3cd1deba	0.0256189
203	0xbdafb046	-0.08578543
204	0x3e0aa1be	0.13538262
205	0x3dfb83df	0.12281012
206	0x3e109790	0.14120317
207	0xbe195fd0	-0.14977956
208	0x3de447b3	0.11146488
209	0x3de21bbe	0.11040448
210	0xbd2d7416	-0.042347036
211	0x3df9d493	0.121987484
212	0x3c89f576	0.016840678
213	0xbd6b3a34	-0.057428554
214	0x3ca0a654	0.019610561
215	0xbdc10f30	-0.09426725
216	0x3d0c1b36	0.034205638
217	0xbdd27c7b	-0.10277649
218	0xbdbca94e	-0.0921198
219	0xbdd7e65a	-0.10541983
220	0xbd50c540	-0.050969362
221	0x3e03bcf6	0.12865052
222	0xbce59f3a	-0.028030027
223	0xbd9560c7	-0.072938494
224	0xbdec460f	-0.115368
225	0x3e1853a8	0.14875662
226	0x3cb260e1	0.021774711
227	0x3d12d6c9	0.035849366
228	0x3db2a7ed	0.087234356
229	0xbcf4ebd9	-0.029897617
230	0xbe32e0ee	-0.17468616
231	0xbc2571be	-0.010097919
232	0x3db83e0c	0.089962095
233	0x3e09df03	0.13463978
234	0x3de46213	0.11151519
235	0x3be401df	0.006958231
236	0x3e0fb8a4	0.14035279
237	0xbd5fee21	-0.054670457
238	0xbd9d53d0	-0.076820016
239	0xbd007ab1	-0.031367008
240	0xbd0f2e5c	-0.03495632
241	0xbd36ae2e	-0.044599704
242	0xbd893746	-0.06699996
243	0x3e0b2287	0.1358739
244	0x3de6fa40	0.112782
245	0xbd22ff9e	-0.039794557
246	0xbe2a4267	-0.16626893
247	0x3da4adf8	0.080409944
248	0x3e02ff5e	0.12792727
249	0x3df588ac	0.11988959
250	0x3d6c1028	0.057632595
251	0x3e0a96c2	0.13534072
252	0xbde93238	-0.113865316
253	0xbe1a8d13	-0.15092878
254	0xbceba2ee	-0.028764214
255	0x3e196b55	0.1498235

i2h.bias f4 [242]
0	0xbc072266	-0.008247947
1	0x3aebc892	0.0017988852
2	0x3cbb12de	0.022836145
3	0x3c23928b	0.009983669
4	0xbbf4b218	-0.0074675195
5	0x3cd896d0	0.0264391
6	0xbc09fa44	-0.008421484
7	0x3c0ad3c1	0.008473338
8	0x3ba4f3ef	0.005033962
9	0xbbcc382e	-0.006232283
10	0x3c7c8936	0.015413573
11	0x3c49055c	0.012269344
12	0x3cde9626	0.027171206
13	0xbc751c3a	-0.014960343
14	0xbbcff27f	-0.0063460465
15	0x3c5768e8	0.01314757
16	0xbceb8638	-0.028750524
17	0x3b078036	0.0020675785
18	0xbd3007ed	-0.04297631
19	0xbc2ca888	-0.010538228
20	0xbc323130	-0.010875985
21	0xbc4b8d81	-0.012423874
22	0x3b16f80d	0.0023036033
23	0x3d031e77	0.032011475
24	0xbc879b77	-0.016553624
25	0x3ccd0328	0.02502592
26	0x3abad1a8	0.0014253156
27	0x3c53c20e	0.012924684
28	0x3c6a1f7f	0.014289736
29	0x3cea0c25	0.028570244
30	0xbd1da42a	-0.038486637
31	0xbbc5d833	-0.006037736
32	0x3c419879	0.0118161375
33	0x3b7495be	0.0037320699
34	0xbc69db38	-0.014273457
35	0x3d275474	0.040852025
36	0xbcb8beb3	-0.02255187
37	0x3c87bbf6	0.016569119
38	0xbc03ad7d	-0.008036968
39	0xbb314cf3	-0.0027053922
40	0xbc120bc1	-0.008913935
41	0xbb9e95ae	-0.0048396206
42	0xbce7b440	-0.028284192
43	0xbc84515b	-0.016152075
44	0x3d29136e	0.041278295
45	0x3c0c7e71	0.008575068
46	0x3d206b61	0.039164905
47	0xbcbe36fc	-0.023219578
48	0x3b958e59	0.0045640883
49	0x3d0aaabb	0.033854228
50	0xbb29eda8	-0.0025929008
51	0xbbc18b5b	-0.005906505
52	0x3c43244c	0.011910509
53	0x3b9507b9	0.0045480398
54	0x3c44e540	0.012017548
55	0x3abd3da6	0.0014437928
56	0xbb3cc9b3	-0.0028806746
57	0x3b6785ce	0.0035327557
58	0xbc0d98a3	-0.008642348
59	0xbbdee26b	-0.0068018935
60	0xbc51aff0	-0.012798294
61	0x3b610b82	0.0034339135
62	0xbba7bd62	-0.0051190117
63	0x3c9deb47	0.019277228
64	0xbbd66298	-0.006542515
65	0x3ce9e7bc	0.028552882
66	0xbd72954e	-0.05922442
67	0xbc022088	-0.007942326
68	0xbd6ee753	-0.058326077
69	0x3bf3322f	0.007421754
70	0xbbd90480	-0.006622851
71	0xbc353a2b	-0.011061232
72	0x3dd202ed	0.10254464
73	0xbccadb43	-0.024762755
74	0xbc06dffa	-0.008232111
75	0x3d09b54c	0.033620164
76	0x3c92fd10	0.017942935
77	0xbbfdb3d1	-0.007742383
78	0x39ed9e2b	0.00045322007
79	0x3caf9940	0.02143538
80	0x3c9a4dca	0.01883592
81	0x3ca595a0	0.020212948
82	0x3d9ec6ea	0.077527836
83	0x3d3d958f	0.04628521
84	0xbbbaea68	-0.005704213
85	0x3e05f5ec	0.13082093
86	0xbc868ddb	-0.016425064
87	0xbc208180	-0.0097965
88	0x3b490df5	0.0030678485
89	0x3c1b401a	0.009475732
90	0x3caaae95	0.0208352
91	0x3c0df66b	0.008664708
92	0x3b965388	0.0045875944
93	0x3bee1d91	0.007266708
94	0xbd24409e	-0.040100686
95	0xbc88aa88	-0.016682878
96	0xbb5d541e	-0.0033772062
97	0x3d83d052	0.06436218
98	0xbc9b4fe1	-0.018958988
99	0x3c175b47	0.009238071
100	0xbbf60180	-0.007507503
101	0xbc7721ef	-0.015083774
102	0xbc1be03d	-0.009513912
103	0x3cc816e2	0.024424974
104	0x3c816627	0.01579578
105	0x3d4a6955	0.04941686
106	0x3a624dc6	0.0008632805
107	0x3c18bf65	0.009322976
108	0xb8b4954b	-8.610877e-05
109	0x3d8526d0	0.065015435
110	0xbc13a529	-0.009011545
111	0x3d16a568	0.036778837
112	0x3bc93d8a	0.006141369
113	0xbb8cc9f6	-0.0042965366
114	0xbc329aa1	-0.010901124
115	0xbbf69514	-0.0075250957
116	0xbc83198a	-0.016003389
117	0x3c702876	0.014658084
118	0x3c34bc05	0.0110311555
119	0xbc1fec1a	-0.009760881
120	0x3c5168c3	0.012781325
121	0x3d1612ad	0.036638904
122	0xbb959fa7	-0.004566151
123	0xbbcf80a9	-0.006332476
124	0xbd2f7bb0	-0.042842567
125	0xbc88abb9	-0.016683446
126	0xbc4be346	-0.012444323
127	0xbbce2521	-0.006291047
128	0x3c9bc82b	0.019016346
129	0xbd155729	-0.036460076
130	0x3999c979	0.00029332543
131	0xbad9a8f0	-0.0016606133
132	0xbcc6ce52	-0.024268303
133	0xbb9fa034	-0.0048713926
134	0x3b084bde	0.0020797173
135	0xbc19213b	-0.009346302
136	0x3ceaa02d	0.02864083
137	0x3c34cd0b	0.011035214
138	0xbb94ae72	-0.004537397
139	0x3be98a36	0.0071270717
140	0x3c57fe7d	0.013183233
141	0xbd123ef4	-0.035704568
142	0xb7945e45	-1.7686873e-05
143	0x3bde4f91	0.0067843874
144	0x3c7115ca	0.014714668
145	0x3a87b558	0.0010353727
146	0xbc6cf511	-0.014462725
147	0xbce40d6f	-0.027838437
148	0xbb13234c	-0.0022451458
149	0x3e0c8465	0.1372238
150	0xbc2f55f7	-0.010701648
151	0xbc1d5706	-0.009603268
152	0xbcc2473b	-0.023715606
153	0x3d8a0924	0.06740025
154	0x3d2f17b2	0.042747207
155	0xbd6d517d	-0.05793904
156	0xbbda62c7	-0.006664607
157	0x3e417e0d	0.18895741
158	0xbb331e52	-0.0027331305
159	0xbbfbee6a	-0.0076883333
160	0xbd086269	-0.033296976
161	0x3b1184cb	0.0022204395
162	0x3ca03e2a	0.019560892
163	0xbc010467	-0.007874585
164	0xbcb0701f	-0.021537839
165	0xbd016721	-0.031592492
166	0x3b13e810	0.002256874
167	0x3ca8ba2b	0.020596584
168	0xbc0c931c	-0.0085799955
169	0xbb49f2b3	-0.0030814826
170	0xbbcaa76a	-0.006184508
171	0x3d122764	0.035682097
172	0x3df6f2f0	0.120580554
173	0xbca3cdff	-0.019995688
174	0x3cecc16a	0.02890082
175	0xbc082457	-0.008309445
176	0xbbb3188c	-0.0054655727
177	0xbad5c8ba	-0.0016310432
178	0xbd47a796	-0.048743807
179	0xbbc3a08a	-0.0059700655
180	0x3d322ef9	0.043501828
181	0xbbb4affe	-0.005514144
182	0xbbcc5ff7	-0.006237026
183	0x3c78c298	0.0151831135
184	0xbb97d077	-0.0046330052
185	0xbaf85134	-0.0018945099
186	0x3d07e041	0.03317285
187	0x3c1f3033	0.009716081
188	0x3c4a1d78	0.012336127
189	0xbad4e918	-0.0016243784
190	0x3b094c31	0.0020949955
191	0x3c3591a4	0.011082087
192	0xbb8289ad	-0.0039836974
193	0x3c9441f7	0.01809786
194	0x3cec8f9c	0.028877072
195	0xbba43c08	-0.005012039
196	0xbb9a6b7c	-0.00471252
197	0xbc5a9f4d	-0.013343644
198	0xbc09ead5	-0.008417805
199	0x3d9cba4c	0.07652721
200	0xbc22c26a	-0.009934047
201	0x3ab5e32a	0.0013876904
202	0x3c342675	0.010995497
203	0x3cc849a6	0.02444918
204	0xbc4b5177	-0.012409559
205	0xbcd7a5e3	-0.026324218
206	0xbc46837f	-0.012116312
207	0x3c281392	0.010258572
208	0xbc8eabe3	-0.017415946
209	0xbcc6897c	-0.02423548
210	0xbd2ecc40	-0.042675257
211	0x3933962c	0.00017126714
212	0xbb697713	-0.0035623952
213	0xbc822bf9	-0.015890108
214	0xba7ad131	-0.0009567915
215	0xbca25b80	-0.019819021
216	0x3b37c194	0.0028038966
217	0x3db126cd	0.08649979
218	0x3bdc5fc2	0.0067252824
219	0x3bc471b0	0.005994998
220	0x3c11b04c	0.00889213
221	0xbbae0b4b	-0.005311405
222	0xbd080c51	-0.03321487
223	0xbc137c66	-0.009001827
224	0xbbd85f1a	-0.006603134
225	0x3bbc25d6	0.005741815
226	0xbcf2d7fc	-0.029644005
227	0x3c369e6d	0.01114617
228	0x3c1a3ed1	0.009414391
229	0x3dc7b4ab	0.097512566
230	0xbc410e89	-0.011783251
231	0xbbd89b22	-0.00661029
232	0xbd016825	-0.03159346
233	0x3b4c01b9	0.0031128956
234	0x3d171a20	0.03689015
235	0x3c496c72	0.012293922
236	0xbc0ee25f	-0.008720963
237	0x3ccd5668	0.025065616
238	0xbc08f563	-0.008359286
239	0x3c0f1dc9	0.008735129
240	0x3ac6657a	0.0015136444
241	0x3ca994a4	0.02070076

h2o.weight f4 [6, 242]
0	0x3d78a760	0.060706496
1	0xbdcc420f	-0.09973537
2	0xbda1495c	-0.0787532
3	0xbd5486df	-0.051886436
4	0xbc290bfe	-0.010317801
5	0xbd8c2f30	-0.06844938
6	0x3de8ca57	0.11366718
7	0x3dec3769	0.11534006
8	0xbe1ef9f7	-0.15525042
9	0xbd727ab1	-0.05919904
10	0x3d2bca38	0.041940898
11	0xbd928955	-0.071551
12	0xbe2f16b9	-0.17098512
13	0xbe5fbe09	-0.21849836
14	0x3e0d1ba5	0.13780077
15	0xbdf06132	-0.117372885
16	0x3c8eb5c2	0.017420653
17	0x3dc5946f	0.09647452
18	0x3e0a687d	0.13516422
19	0xbdc0b93b	-0.0941033
20	0x3c96ed16	0.018423598
21	0x3d01dc38	0.031704158
22	0xbd1457dd	-0.036216605
23	0x3e1ba4b7	0.15199552
24	0x3df0f9a7	0.117663674
25	0x3cee920a	0.029122371
26	0xbe200a93	-0.15629034
27	0x3e26bf87	0.16284
28	0x3ca06ec1	0.019584062
29	0xbe0042b5	-0.12525447
30	0x3de9938e	0.11405097
31	0xbe4293bb	-0.19001667
32	0xbd2a2727	-0.041541245
33	0xbe008c72	-0.12553576
34	0xbd477689	-0.04869703
35	0xbdccce27	-0.10000258
36	0x3d8143b5	0.06311742
37	0x3d7b383e	0.061332934
38	0x3b2dcf93	0.002652143
39	0xbe005633	-0.12532882
40	0x3cabb085	0.020958195
41	0xbe1514b2	-0.14558676
42	0xbd161757	-0.036643352
43	0xbe14a412	-0.14515713
44	0xbe39bdd2	-0.18138817
45	0x3de539f4	0.11192694
46	0xbe99a0be	-0.3000545
47	0x3df8171f	0.12113785
48	0xbc80cd0a	-0.01572277
49	0xbe2e8244	-0.1704188
50	0xbdbd8482	-0.092537895
51	0x3dc2fe78	0.09521192
52	0x3dc1dbac	0.09465727
53	0x3de3960a	0.11112602
54	0x3dbf8625	0.09351758
55	0xbccffb3c	-0.025388353
56	0xbd365c4e	-0.044521622
57	0xbdbe701a	-0.092987254
58	0x3d88ecde	0.06685804
59	0x3ce9ac6c	0.0285246
60	0x3dddd819	0.10832233
61	0xbe08b220	-0.133492
62	0xbde308e2	-0.11085679
63	0xbd65036c	-0.055911466
64	0x3e0970ea	0.1342198
65	0xbe251935	-0.16122897
66	0x3dc416d2	0.09574665
67	0x3d46c941	0.048531774
68	0x3d96898f	0.07350456
69	0xbd3ea1e4	-0.04654111
70	0x3dcd433a	0.10022588
71	0x3e0f8a89	0.1401769
72	0x3cbeeb54	0.023305573
73	0x3dac74fc	0.084207505
74	0xbd0e74a0	-0.03477919
75	0xbd40ed67	-0.047101405
76	0x3dd6f98c	0.10496816
77	0x3c9e17a5	0.019298384
78	0xbd9a1882	-0.07524206
79	0xbdae53ea	-0.08512099
80	0xbd1e8810	-0.038703978
81	0xbe1f2fdc	-0.155456
82	0x3db57506	0.08860211
83	0xbd3a758e	-0.045522265
84	0xbcf223ef	-0.02955815
85	0xbe19c23b	-0.150155
86	0xbda13b93	-0.07872691
87	0xbd622941	-0.055215124
88	0x3df5b567	0.119974904
89	0xbe16ae6b	-0.14714973
90	0xbe27a6c3	-0.16372208
91	0xbe290458	-0.16505563
92	0x3c6ddd5e	0.01451811
93	0xbdaf783d	-0.085678555
94	0xbd363e8b	-0.04449324
95	0x3dfc4c5b	0.12319251
96	0x3d3da8f4	0.046303704
97	0xbe02df70	-0.12780547
98	0xbcf192e2	-0.029488984
99	0xbd9c7505	-0.07639507
100	0xbdc18dff	-0.09450912
101	0x3c97ad07	0.018515123
102	0xbd872213	-0.06598296
103	0xbddf1382	-0.10892393
104	0xbd71a15c	-0.058991775
105	0xbcdc87f8	-0.026920304
106	0xbe573bd9	-0.21018924
107	0x3cf972fe	0.03045034
108	0xbdc1a2bf	-0.094548695
109	0xbe286b7e	-0.16447255
110	0x3c8a9608	0.016917244
111	0xbe2a61d8	-0.16638887
112	0x3b5f8ab5	0.0034109775
113	0xbe04f736	-0.12984928
114	0x3d546467	0.051853564
115	0x3df9f913	0.1220571
116	0x3e072978	0.13199413
117	0xbc9393b6	-0.01801477
118	0x3dcef137	0.10104602
119	0xbd884494	-0.06653705
120	0xbdbf1620	-0.09330392
121	0x3dea4688	0.11439234
122	0x3da83942	0.08214046
123	0xbda2750f	-0.079324834
124	0x3db2458e	0.08704673
125	0x3dabe47a	0.08393188
126	0x3dfc44c3	0.12317803
127	0x3de35df9	0.11101908
128	0xbd1cfed9	-0.03832898
129	0x3e01db64	0.12681347
130	0xbd98011f	-0.07422089
131	0xbdf331f8	-0.11874765
132	0xbd5a68b7	-0.05332252
133	0x3d2c2f4d	0.042037297
134	0xbca42a6b	-0.020039758
135	0x3d7fabe7	0.0624198
136	0xbdd6e3d6	-0.10492675
137	0xbdbed877	-0.09318631
138	0x3d633c7d	0.055477608
139	0xbd9567d7	-0.072951965
140	0xbd0203ef	-0.031742033
141	0x3d92f884	0.07176307
142	0xbe141b85	-0.14463623
143	0xbd92ce47	-0.071682505
144	0xbdff05e5	-0.12452296
145	0x3c20d295	0.009815832
146	0xbe0e543e	-0.13899323
147	0x3de6d875	0.11271755
148	0xbdee6afe	-0.11641501
149	0xbd1e5992	-0.03865964
150	0x3d905e55	0.070492424
151	0x3d68c68e	0.05682998
152	0x3dadd246	0.08487372
153	0x3d7044db	0.058659416
154	0xbd04ddde	-0.03243815
155	0x3cce17ad	0.025157774
156	0x3c288ef9	0.010287994
157	0xbe899f50	-0.26879358
158	0x3db2f440	0.08737993
159	0xbdf454f5	-0.11930267
160	0x3dc9a064	0.09845045
161	0xbd97f92e	-0.07420574
162	0x3caf19e5	0.021374652
163	0x3c6113a9	0.0137375975
164	0x3dfd7fd7	0.12377899
165	0x3d6b2da3	0.05741657
166	0x3d17c86d	0.037056375
167	0xbdf68fa5	-0.12039117
168	0x3d9d9bbd	0.0769572
169	0x3d77798b	0.060418647
170	0x3d8413af	0.06449067
171	0x3d86e0ae	0.06585823
172	0xbcfcbea7	-0.030852629
173	0xbd876eb8	-0.06612915
174	0x3d685cc0	0.05672908
175	0x3ddb4691	0.10706819
176	0xbd845236	-0.06460993
177	0x3dda056f	0.106455676
178	0x3da3a95a	0.079912856
179	0x3ba5d930	0.005061291
180	0x3daf4328	0.08557731
181	0xbbe19164	-0.006883787
182	0x3e2cfef7	0.16894136
183	0x3d9b4252	0.07581009
184	0xbde3fa4b	-0.11131724
185	0x3d9c5d2e	0.0763496
186	0xbc950a8b	-0.018193504
187	0xbe089675	-0.13338645
188	0x3c31f7ae	0.010862274
189	0xbdd153e9	-0.10221083
190	0xbcf987e2	-0.030460302
191	0xbd17d5b4	-0.037069038
192	0x3c227b81	0.009917141
193	0xbdd73b66	-0.10509376
194	0xbdaf6b36	-0.08565371
195	0xbdd45966	-0.10368614
196	0xbde01c99	-0.109429546
197	0x3d78fbd8	0.060787052
198	0xbdde4d22	-0.10854556
199	0x3daf6c39	0.08565564
200	0x3ca3cbd0	0.019994646
201	0x3e2c45c6	0.16823491
202	0xbe03f5b8	-0.12886703
203	0xbd91a791	-0.07112039
204	0x3d6894ed	0.05678265
205	0x3dd46fa0	0.10372853
206	0x3dcee4e7	0.101022534
207	0xbe313ca3	-0.17308287
208	0x3cb49975	0.02204583
209	0x3df34f7f	0.11880397
210	0x3dae876f	0.08521926
211	0x3d8c253e	0.06843041
212	0xbd4d3fcd	-0.050109673
213	0xbc53d8f5	-0.012930145
214	0xbcf5fa75	-0.030026654
215	0x3dd526d1	0.10407794
216	0xbe350b4e	-0.17680094
217	0xbe29a7a5	-0.16567858
218	0x3cf95df7	0.030440314
219	0x3e0ea725	0.13930948
220	0xbd34533e	-0.0440247
221	0xbe11c882	-0.14236644
222	0xbda4fb33	-0.08055725
223	0x3db828dd	0.08992169
224	0x3e2d79fc	0.16941065
225	0x3d7ddb18	0.061976522
226	0x3e05aa41	0.13053228
227	0xbdb26dbb	-0.08712336
228	0x3de90f90	0.113799214
229	0xbdcd8ab5	-0.10036222
230	0xbe0b381b	-0.13595621
231	0x3d80a4fb	0.062814675
232	0x3cc77fa8	0.024352863
233	0x3e1dbeca	0.15404812
234	0xbe14658b	-0.1449186
235	0x3c9d5198	0.019203946
236	0x3e28f5b8	0.16499984
237	0xbc0b0bec	-0.008486729
238	0x3de0fc27	0.10985594
239	0x3dbc655d	0.09199021
240	0xbdbcc17b	-0.09216591
241	0x3da2c6d0	0.07948077
242	0xbc744cdf	-0.014910906
243	0xbd8a72c4	-0.06760171
244	0xbd90e1a6	-0.07074289
245	0xbdaa1c72	-0.08306207
246	0xbe1177b4	-0.1420582
247	0x3e01e18e	0.12683699
248	0x3d406738	0.046973437
249	0x3dbddf31	0.09271086
250	0x3e0f0758	0.13967645
251	0xbe099740	-0.13436604
252	0x3e23ce9b	0.15996782
253	0x3dce3319	0.1006834
254	0xbd9f81fc	-0.077884644
255	0xbe56c560	-0.2097373

h2o.bias f4 [6]
0	0xbbe7377c	-0.007056175
1	0x3cd3f1ad	0.025872076
2	0x3c8d9d3a	0.017286886
3	0xbb0ea9ed	-0.0021768764
4	0xbca291ae	-0.019844856
5	0x3d584912	0.05280406

h2h.weight f4 [242, 242]
0	0x3d4c6483	0.049900543
1	0xbc4dd697	-0.012563369
2	0x3d425efa	0.047453858
3	0xbca0e6eb	-0.01964136
4	0xbc19de2e	-0.009391351
5	0xbd7fb006	-0.06242373
6	0x3d94baa6	0.07262163
7	0x3d81fa21	0.063465364
8	0x3d106415	0.035251696
9	0xbd26803e	-0.040649645
10	0x3d0b5a27	0.034021523
11	0xbc703b70	-0.0146626085
12	0x3c941ae4	0.018079229
13	0xbd3e228d	-0.04641967
14	0xbd87c209	-0.06628806
15	0x3d31d0cd	0.04341202
16	0x3dfa2d7a	0.12215705
17	0xbe095c15	-0.13414033
18	0x3cee6f87	0.029105915
19	0xbcc440a9	-0.023956614
20	0xbcac84be	-0.02105939
21	0xbc16ce9f	-0.009204536
22	0xbd083219	-0.0332509
23	0x3c7f4c7d	0.015582201
24	0x3dc24240	0.094852924
25	0x3e0af3b3	0.13569526
26	0x3d314bcf	0.043285187
27	0xbd8d5adc	-0.06902096
28	0xbd1ccac8	-0.038279325
29	0x3d424f64	0.047438994
30	0x3d2b6a80	0.041849613
31	0x3dd0a812	0.10188307
32	0xbb73861d	-0.0037158795
33	0xbcd0cb3c	-0.025487535
34	0xbc882f3b	-0.016624084
35	0xbdbe0a56	-0.09279315
36	0x3def4423	0.11682918
37	0xbd08b2bb	-0.033373576
38	0x3c9678f2	0.018368218
39	0x3cd1047c	0.025514834
40	0x3dee1be1	0.11626411
41	0x3d3fc405	0.0468178
42	0xbdd2b7c9	-0.102889605
43	0x3dbd5c3b	0.09246107
44	0x3d46a6db	0.04849897
45	0x3d830f93	0.06399455
46	0x3cdb13c8	0.02674283
47	0x3d8779eb	0.06615051
48	0x3b4892eb	0.0030605148
49	0xbca1a7ae	-0.019733276
50	0x3e14d1f9	0.14533223
51	0x3d470e60	0.048597693
52	0x3cd261fa	0.025681484
53	0x3d364e16	0.044508062
54	0x3caeddaa	0.021345932
55	0xba1aef41	-0.00059102854
56	0x3d269f84	0.04067947
57	0xbd0ba53d	-0.03409313
58	0xbac2dee1	-0.0014867448
59	0xbcc896fe	-0.024486061
60	0xbd44cec6	-0.048048757
61	0xbd38c358	-0.04510817
62	0xbacc94ec	-0.0015608347
63	0xbd1af1e5	-0.037828345
64	0xbc7b4fe0	-0.015338868
65	0xbd64bd30	-0.055844486
66	0x3ccf1d8d	0.025282646
67	0x3d8ec2df	0.069707625
68	0xbaf7f8d5	-0.0018918762
69	0xbc160b55	-0.009157975
70	0xbd9ba112	-0.07599081
71	0xbd8679ca	-0.06566198
72	0x39dcfa7e	0.000421483
73	0x3d885006	0.06655888
74	0x3e20c10b	0.1569864
75	0xbbcba98d	-0.0062152804
76	0xbb614dac	-0.0034378571
77	0x3d37ee83	0.044905197
78	0x3dac642f	0.08417546
79	0x3de9264d	0.113842584
80	0x3d835ae1	0.06413818
81	0x3db4a56b	0.088206135
82	0xbce46fc9	-0.027885335
83	0x3d237a9d	0.039911855
84	0x3d06d92c	0.032921955
85	0x3bea1f9b	0.007144881
86	0xbb3c6a5b	-0.0028749916
87	0xbd0603ff	-0.032718655
88	0x3dd40bb9	0.103537984
89	0x3d61684c	0.055031106
90	0xbe6b27bb	-0.22964375
91	0x3d6bdecb	0.05758552
92	0x3d171be4	0.036891833
93	0xbc9ecc47	-0.019384516
94	0xbc73cfa3	-0.014881047
95	0x3db69e42	0.08916904
96	0xbc6be48c	-0.014397752
97	0xbd78dc93	-0.06075723
98	0x3e155d8b	0.14586465
99	0xbd1bfc50	-0.03808242
100	0xbd2ff33c	-0.042956576
101	0x3c74496d	0.014910084
102	0xbd236ebb	-0.039900523
103	0xbca9e659	-0.020739721
104	0x3d01b4b0	0.031666458
105	0x3b053e21	0.0020331221
106	0xbe1bfcd5	-0.15233167
107	0xbd4b5afe	-0.049647324
108	0xbdc8c6c0	-0.098035336
109	0xbc08119b	-0.008304979
110	0xbca2797b	-0.019833317
111	0xbe0b8520	-0.13625002
112	0xbcb0ce59	-0.02158277
113	0x3c5adabf	0.013357817
114	0x3d6c9fa7	0.057769444
115	0xbd552346	-0.052035592
116	0xbcec559d	-0.028849417
117	0x3d4477fb	0.047965985
118	0x3e0e4cbf	0.13896464
119	0xbc80d259	-0.015725302
120	0x3db70fcb	0.08938559
121	0x3d3e7d14	0.046506003
122	0x3beaf26f	0.0071700136
123	0x3dbbac99	0.0916378
124	0x3c457f74	0.012054313
125	0x3dc238cc	0.094834894
126	0x3c22d000	0.009937286
127	0x3c7f5833	0.015584993
128	0x3c9dd2c6	0.019265544
129	0xbd1cf3fb	-0.038318615
130	0x3d4a64b3	0.04941244
131	0xbdd86316	-0.10565774
132	0x3c8772e5	0.016534278
133	0x3dc44f00	0.095853806
134	0xbd9993e7	-0.07498913
135	0xbd0e11b1	-0.03468484
136	0x3d3579cf	0.04430562
137	0xbc53b6a1	-0.01292196
138	0x3de32fb7	0.11093085
139	0xbd833fd4	-0.064086586
140	0xbd044fa9	-0.032302532
141	0x3db196f8	0.08671373
142	0xbc51ee79	-0.012813204
143	0x3ce132e8	0.027490094
144	0x3b6e3964	0.0036350125
145	0x3d4a150a	0.04933647
146	0xbd4352cd	-0.047686387
147	0x3d3fd9d0	0.04683858
148	0xbcddaab6	-0.02705894
149	0x3da64051	0.08117736
150	0xbd138ce2	-0.03602303
151	0x3d677c87	0.056515243
152	0xbce5ca24	-0.02805049
153	0x3d3126de	0.043249957
154	0x3c91fdd7	0.017821236
155	0xbc820e92	-0.015876088
156	0x3d231090	0.039810717
157	0x3dc22df4	0.09481421
158	0xbd2e07f3	-0.04248805
159	0x3dac2f04	0.08407405
160	0xbbf99cfd	-0.0076175914
161	0x3d458d12	0.04823024
162	0x3d51b44e	0.051197343
163	0x3e3aae66	0.1823059
164	0x3dd2c6f3	0.10291853
165	0x3c230e28	0.009952106
166	0xbdfa526a	-0.122227505
167	0x3ae4899e	0.0017436033
168	0x3d60b52b	0.054860275
169	0x3d29f15c	0.041489944
170	0xbca3cfd7	-0.019996567
171	0x3bc4b70e	0.006003267
172	0xbd1ce395	-0.038302977
173	0x3dde3133	0.10849228
174	0xbd2097d4	-0.039207295
175	0xbccb06f2	-0.024783585
176	0xbda4155b	-0.08011886
177	0x3d121c8f	0.035671767
178	0x3c9f6c4f	0.019460825
179	0x3ccc9c5d	0.024976904
180	0xbd32231a	-0.043490507
181	0xbdd27766	-0.1027668
182	0x3da0d60c	0.07853326
183	0xbc451b3d	-0.01203042
184	0xb885272b	-6.34923e-05
185	0xbcc097af	-0.023509828
186	0xbd6dd27c	-0.05806206
187	0x3db4d07e	0.08828829
188	0xbdd64a54	-0.10463396
189	0xbd006db6	-0.03135463
190	0x3d127beb	0.03576271
191	0x3d45c699	0.0482851
192	0x3dbd23dc	0.09235355
193	0xba64c1ed	-0.0008726407
194	0xbcbeaf46	-0.023276936
195	0xbdb9b055	-0.09066836
196	0x3da59748	0.08085495
197	0x3d718d58	0.058972687
198	0xbd806ed1	-0.062711366
199	0x3d1e68dc	0.03867422
200	0x3ba81892	0.005129882
201	0x3cc7f80e	0.024410274
202	0xbc0bb023	-0.008525881
203	0x3c9fde13	0.019515073
204	0xbd8feee8	-0.070279896
205	0x3c6ff32b	0.014645378
206	0x3da13d0a	0.078729704
207	0x3c504cfb	0.012713666
208	0xbc74d260	-0.014942735
209	0xbddf84ae	-0.109139785
210	0x3d26b658	0.04070124
211	0x3dead3ff	0.11466216
212	0xbc46bb71	-0.01212965
213	0x3c0d0210	0.008606449
214	0xbd6c5c23	-0.057705056
215	0xbc664b1a	-0.014055992
216	0x3dad36de	0.08457731
217	0xbc9c2379	-0.019059883
218	0x3d0f8b05	0.03504469
219	0x3d8e7742	0.069563404
220	0x3e16771c	0.14693874
221	0xbb5768df	-0.0032868905
222	0xbd3b2166	-0.045686148
223	0xbe26388e	-0.16232511
224	0xbd05ebe1	-0.032695655
225	0x3dceda9c	0.1010029
226	0xb8f6ff9a	-0.000117778036
227	0x3e968d79	0.2940481
228	0xbd690f62	-0.056899436
229	0xbcee01bb	-0.02905356
230	0x3b2715fc	0.0025495281
231	0x3d94a2aa	0.07257588
232	0xbcdbf5e5	-0.02685065
233	0x3df5414b	0.11975344
234	0xbca24a25	-0.019810745
235	0xbdb7c697	-0.08973425
236	0xba6cf723	-0.0009039512
237	0xbcd04f8e	-0.02542856
238	0xbdffe08b	-0.12494
239	0xbd103b35	-0.035212714
240	0x3d128aea	0.03577701
241	0x3e36ab75	0.17838843
242	0xbc628d12	-0.013827579
243	0xbd845083	-0.06460669
244	0x3d6af3f4	0.057361558
245	0x3d0c4765	0.034247775
246	0x3bf7fa50	0.0075676814
247	0xbd141219	-0.03615007
248	0x3c48061d	0.012208489
249	0xbcf39d0b	-0.02973797
250	0xbcc7ba2f	-0.024380771
251	0xbda3ecdd	-0.080041625
252	0xbceaabd1	-0.028646382
253	0xbb61f8f0	-0.0034480654
254	0x3dd3bcb9	0.1033873
255	0xbe41114f	-0.18854259

h2h.bias f4 [242]
0	0xbc072266	-0.008247947
1	0x3aebc892	0.0017988852
2	0x3cbb12de	0.022836145
3	0x3c23928b	0.009983669
4	0xbbf4b218	-0.0074675195
5	0x3cd896d0	0.0264391
6	0xbc09fa44	-0.008421484
7	0x3c0ad3c1	0.008473338
8	0x3ba4f3ef	0.005033962
9	0xbbcc382e	-0.006232283
10	0x3c7c8936	0.015413573
11	0x3c49055c	0.012269344
12	0x3cde9626	0.027171206
13	0xbc751c3a	-0.014960343
14	0xbbcff27f	-0.0063460465
15	0x3c5768e8	0.01314757
16	0xbceb8638	-0.028750524
17	0x3b078036	0.0020675785
18	0xbd3007ed	-0.04297631
19	0xbc2ca888	-0.010538228
20	0xbc323130	-0.010875985
21	0xbc4b8d81	-0.012423874
22	0x3b16f80d	0.0023036033
23	0x3d031e77	0.032011475
24	0xbc879b77	-0.016553624
25	0x3ccd0328	0.02502592
26	0x3abad1a8	0.0014253156
27	0x3c53c20e	0.012924684
28	0x3c6a1f7f	0.014289736
29	0x3cea0c25	0.028570244
30	0xbd1da42a	-0.038486637
31	0xbbc5d833	-0.006037736
32	0x3c419879	0.0118161375
33	0x3b7495be	0.0037320699
34	0xbc69db38	-0.014273457
35	0x3d275474	0.040852025
36	0xbcb8beb3	-0.02255187
37	0x3c87bbf6	0.016569119
38	0xbc03ad7d	-0.008036968
39	0xbb314cf3	-0.0027053922
40	0xbc120bc1	-0.008913935
41	0xbb9e95ae	-0.0048396206
42	0xbce7b440	-0.028284192
43	0xbc84515b	-0.016152075
44	0x3d29136e	0.041278295
45	0x3c0c7e71	0.008575068
46	0x3d206b61	0.039164905
47	0xbcbe36fc	-0.023219578
48	0x3b958e59	0.0045640883
49	0x3d0aaabb	0.033854228
50	0xbb29eda8	-0.0025929008
51	0xbbc18b5b	-0.005906505
52	0x3c43244c	0.011910509
53	0x3b9507b9	0.0045480398
54	0x3c44e540	0.012017548
55	0x3abd3da6	0.0014437928
56	0xbb3cc9b3	-0.0028806746
57	0x3b6785ce	0.0035327557
58	0xbc0d98a3	-0.008642348
59	0xbbdee26b	-0.0068018935
60	0xbc51aff0	-0.012798294
61	0x3b610b82	0.0034339135
62	0xbba7bd62	-0.0051190117
63	0x3c9deb47	0.019277228
64	0xbbd66298	-0.006542515
65	0x3ce9e7bc	0.028552882
66	0xbd72954e	-0.05922442
67	0xbc022088	-0.007942326
68	0xbd6ee753	-0.058326077
69	0x3bf3322f	0.007421754
70	0xbbd90480	-0.006622851
71	0xbc353a2b	-0.011061232
72	0x3dd202ed	0.10254464
73	0xbccadb43	-0.024762755
74	0xbc06dffa	-0.008232111
75	0x3d09b54c	0.033620164
76	0x3c92fd10	0.017942935
77	0xbbfdb3d1	-0.007742383
78	0x39ed9e2b	0.00045322007
79	0x3caf9940	0.02143538
80	0x3c9a4dca	0.01883592
81	0x3ca595a0	0.020212948
82	0x3d9ec6ea	0.077527836
83	0x3d3d958f	0.04628521
84	0xbbbaea68	-0.005704213
85	0x3e05f5ec	0.13082093
86	0xbc868ddb	-0.016425064
87	0xbc208180	-0.0097965
88	0x3b490df5	0.0030678485
89	0x3c1b401a	0.009475732
90	0x3caaae95	0.0208352
91	0x3c0df66b	0.008664708
92	0x3b965388	0.0045875944
93	0x3bee1d91	0.007266708
94	0xbd24409e	-0.040100686
95	0xbc88aa88	-0.016682878
96	0xbb5d541e	-0.0033772062
97	0x3d83d052	0.06436218
98	0xbc9b4fe1	-0.018958988
99	0x3c175b47	0.009238071
100	0xbbf60180	-0.007507503
101	0xbc7721ef	-0.015083774
102	0xbc1be03d	-0.009513912
103	0x3cc816e2	0.024424974
104	0x3c816627	0.01579578
105	0x3d4a6955	0.04941686
106	0x3a624dc6	0.0008632805
107	0x3c18bf65	0.009322976
108	0xb8b4954b	-8.610877e-05
109	0x3d8526d0	0.065015435
110	0xbc13a529	-0.009011545
111	0x3d16a568	0.036778837
112	0x3bc93d8a	0.006141369
113	0xbb8cc9f6	-0.0042965366
114	0xbc329aa1	-0.010901124
115	0xbbf69514	-0.0075250957
116	0xbc83198a	-0.016003389
117	0x3c702876	0.014658084
118	0x3c34bc05	0.0110311555
119	0xbc1fec1a	-0.009760881
120	0x3c5168c3	0.012781325
121	0x3d1612ad	0.036638904
122	0xbb959fa7	-0.004566151
123	0xbbcf80a9	-0.006332476
124	0xbd2f7bb0	-0.042842567
125	0xbc88abb9	-0.016683446
126	0xbc4be346	-0.012444323
127	0xbbce2521	-0.006291047
128	0x3c9bc82b	0.019016346
129	0xbd155729	-0.036460076
130	0x3999c979	0.00029332543
131	0xbad9a8f0	-0.0016606133
132	0xbcc6ce52	-0.024268303
133	0xbb9fa034	-0.0048713926
134	0x3b084bde	0.0020797173
135	0xbc19213b	-0.009346302
136	0x3ceaa02d	0.02864083
137	0x3c34cd0b	0.011035214
138	0xbb94ae72	-0.004537397
139	0x3be98a36	0.0071270717
140	0x3c57fe7d	0.013183233
141	0xbd123ef4	-0.035704568
142	0xb7945e45	-1.7686873e-05
143	0x3bde4f91	0.0067843874
144	0x3c7115ca	0.014714668
145	0x3a87b558	0.0010353727
146	0xbc6cf511	-0.014462725
147	0xbce40d6f	-0.027838437
148	0xbb13234c	-0.0022451458
149	0x3e0c8465	0.1372238
150	0xbc2f55f7	-0.010701648
151	0xbc1d5706	-0.009603268
152	0xbcc2473b	-0.023715606
153	0x3d8a0924	0.06740025
154	0x3d2f17b2	0.042747207
155	0xbd6d517d	-0.05793904
156	0xbbda62c7	-0.006664607
157	0x3e417e0d	0.18895741
158	0xbb331e52	-0.0027331305
159	0xbbfbee6a	-0.0076883333
160	0xbd086269	-0.033296976
161	0x3b1184cb	0.0022204395
162	0x3ca03e2a	0.019560892
163	0xbc010467	-0.007874585
164	0xbcb0701f	-0.021537839
165	0xbd016721	-0.031592492
166	0x3b13e810	0.002256874
167	0x3ca8ba2b	0.020596584
168	0xbc0c931c	-0.0085799955
169	0xbb49f2b3	-0.0030814826
170	0xbbcaa76a	-0.006184508
171	0x3d122764	0.035682097
172	0x3df6f2f0	0.120580554
173	0xbca3cdff	-0.019995688
174	0x3cecc16a	0.02890082
175	0xbc082457	-0.008309445
176	0xbbb3188c	-0.0054655727
177	0xbad5c8ba	-0.0016310432
178	0xbd47a796	-0.048743807
179	0xbbc3a08a	-0.0059700655
180	0x3d322ef9	0.043501828
181	0xbbb4affe	-0.005514144
182	0xbbcc5ff7	-0.006237026
183	0x3c78c298	0.0151831135
184	0xbb97d077	-0.0046330052
185	0xbaf85134	-0.0018945099
186	0x3d07e041	0.03317285
187	0x3c1f3033	0.009716081
188	0x3c4a1d78	0.012336127
189	0xbad4e918	-0.0016243784
190	0x3b094c31	0.0020949955
191	0x3c3591a4	0.011082087
192	0xbb8289ad	-0.0039836974
193	0x3c9441f7	0.01809786
194	0x3cec8f9c	0.028877072
195	0xbba43c08	-0.005012039
196	0xbb9a6b7c	-0.00471252
197	0xbc5a9f4d	-0.013343644
198	0xbc09ead5	-0.008417805
199	0x3d9cba4c	0.07652721
200	0xbc22c26a	-0.009934047
201	0x3ab5e32a	0.0013876904
202	0x3c342675	0.010995497
203	0x3cc849a6	0.02444918
204	0xbc4b5177	-0.012409559
205	0xbcd7a5e3	-0.026324218
206	0xbc46837f	-0.012116312
207	0x3c281392	0.010258572
208	0xbc8eabe3	-0.017415946
209	0xbcc6897c	-0.02423548
210	0xbd2ecc40	-0.042675257
211	0x3933962c	0.00017126714
212	0xbb697713	-0.0035623952
213	0xbc822bf9	-0.015890108
214	0xba7ad131	-0.0009567915
215	0xbca25b80	-0.019819021
216	0x3b37c194	0.0028038966
217	0x3db126cd	0.08649979
218	0x3bdc5fc2	0.0067252824
219	0x3bc471b0	0.005994998
220	0x3c11b04c	0.00889213
221	0xbbae0b4b	-0.005311405
222	0xbd080c51	-0.03321487
223	0xbc137c66	-0.009001827
224	0xbbd85f1a	-0.006603134
225	0x3bbc25d6	0.005741815
226	0xbcf2d7fc	-0.029644005
227	0x3c369e6d	0.01114617
228	0x3c1a3ed1	0.009414391
229	0x3dc7b4ab	0.097512566
230	0xbc410e89	-0.011783251
231	0xbbd89b22	-0.00661029
232	0xbd016825	-0.03159346
233	0x3b4c01b9	0.0031128956
234	0x3d171a20	0.03689015
235	0x3c496c72	0.012293922
236	0xbc0ee25f	-0.008720963
237	0x3ccd5668	0.025065616
238	0xbc08f563	-0.008359286
239	0x3c0f1dc9	0.008735129
240	0x3ac6657a	0.0015136444
241	0x3ca994a4	0.02070076
