TBCAS24/intuitivechip_classifier_lcsvsnlcs_run4/SNN_ep-150-isize-2-8-1-hsize-234-bsize-32-lr-0.001-tmax_ms-400.0-Ts-10.0-k-6-dsetPath-VMODE_allchannels_ALLCLASS_auto_nospkfilter_cleaned_12x16_9mvpp_250mvofs_onedac_itail_50nA_N3b/chip-classifier-2.pt (torch, 245111 bytes, 8 tensors)

thr_h_1 f4 [234]
000000 00 00 80 3f 00 00 80 3f 00 00 80 3f 00 00 80 3f
       1.0 1.0 1.0 1.0
000010 00 00 80 3f 00 00 80 3f 00 00 80 3f 00 00 80 3f
       1.0 1.0 1.0 1.0
000020 00 00 80 3f 00 00 80 3f 00 00 80 3f 00 00 80 3f
       1.0 1.0 1.0 1.0
000030 00 00 80 3f 00 00 80 3f 00 00 80 3f 00 00 80 3f
       1.0 1.0 1.0 1.0
000040 00 00 80 3f 00 00 80 3f 00 00 80 3f 00 00 80 3f
       1.0 1.0 1.0 1.0
000050 00 00 80 3f 00 00 80 3f 00 00 80 3f 00 00 80 3f
       1.0 1.0 1.0 1.0
000060 00 00 80 3f 00 00 80 3f 00 00 80 3f 00 00 80 3f
       1.0 1.0 1.0 1.0
000070 00 00 80 3f 00 00 80 3f 00 00 80 3f 00 00 80 3f
       1.0 1.0 1.0 1.0
000080 00 00 80 3f 00 00 80 3f 00 00 80 3f 00 00 80 3f
       1.0 1.0 1.0 1.0
000090 00 00 80 3f 00 00 80 3f 00 00 80 3f 00 00 80 3f
       1.0 1.0 1.0 1.0
0000a0 00 00 80 3f 00 00 80 3f 00 00 80 3f 00 00 80 3f
       1.0 1.0 1.0 1.0
0000b0 00 00 80 3f 00 00 80 3f 00 00 80 3f 00 00 80 3f
       1.0 1.0 1.0 1.0
0000c0 00 00 80 3f 00 00 80 3f 00 00 80 3f 00 00 80 3f
       1.0 1.0 1.0 1.0
0000d0 00 00 80 3f 00 00 80 3f 00 00 80 3f 00 00 80 3f
       1.0 1.0 1.0 1.0
0000e0 00 00 80 3f 00 00 80 3f 00 00 80 3f 00 00 80 3f
       1.0 1.0 1.0 1.0
0000f0 00 00 80 3f 00 00 80 3f 00 00 80 3f 00 00 80 3f
       1.0 1.0 1.0 1.0
000100 00 00 80 3f 00 00 80 3f 00 00 80 3f 00 00 80 3f
       1.0 1.0 1.0 1.0
000110 00 00 80 3f 00 00 80 3f 00 00 80 3f 00 00 80 3f
       1.0 1.0 1.0 1.0
000120 00 00 80 3f 00 00 80 3f 00 00 80 3f 00 00 80 3f
       1.0 1.0 1.0 1.0
000130 00 00 80 3f 00 00 80 3f 00 00 80 3f 00 00 80 3f
       1.0 1.0 1.0 1.0
000140 00 00 80 3f 00 00 80 3f 00 00 80 3f 00 00 80 3f
       1.0 1.0 1.0 1.0
000150 00 00 80 3f 00 00 80 3f 00 00 80 3f 00 00 80 3f
       1.0 1.0 1.0 1.0
000160 00 00 80 3f 00 00 80 3f 00 00 80 3f 00 00 80 3f
       1.0 1.0 1.0 1.0
000170 00 00 80 3f 00 00 80 3f 00 00 80 3f 00 00 80 3f
       1.0 1.0 1.0 1.0
000180 00 00 80 3f 00 00 80 3f 00 00 80 3f 00 00 80 3f
       1.0 1.0 1.0 1.0
000190 00 00 80 3f 00 00 80 3f 00 00 80 3f 00 00 80 3f
       1.0 1.0 1.0 1.0
0001a0 00 00 80 3f 00 00 80 3f 00 00 80 3f 00 00 80 3f
       1.0 1.0 1.0 1.0
0001b0 00 00 80 3f 00 00 80 3f 00 00 80 3f 00 00 80 3f
       1.0 1.0 1.0 1.0
0001c0 00 00 80 3f 00 00 80 3f 00 00 80 3f 00 00 80 3f
       1.0 1.0 1.0 1.0
0001d0 00 00 80 3f 00 00 80 3f 00 00 80 3f 00 00 80 3f
       1.0 1.0 1.0 1.0
0001e0 00 00 80 3f 00 00 80 3f 00 00 80 3f 00 00 80 3f
       1.0 1.0 1.0 1.0
0001f0 00 00 80 3f 00 00 80 3f 00 00 80 3f 00 00 80 3f
       1.0 1.0 1.0 1.0
000200 00 00 80 3f 00 00 80 3f 00 00 80 3f 00 00 80 3f
       1.0 1.0 1.0 1.0
000210 00 00 80 3f 00 00 80 3f 00 00 80 3f 00 00 80 3f
       1.0 1.0 1.0 1.0
000220 00 00 80 3f 00 00 80 3f 00 00 80 3f 00 00 80 3f
       1.0 1.0 1.0 1.0
000230 00 00 80 3f 00 00 80 3f 00 00 80 3f 00 00 80 3f
       1.0 1.0 1.0 1.0
000240 00 00 80 3f 00 00 80 3f 00 00 80 3f 00 00 80 3f
       1.0 1.0 1.0 1.0
000250 00 00 80 3f 00 00 80 3f 00 00 80 3f 00 00 80 3f
       1.0 1.0 1.0 1.0
000260 00 00 80 3f 00 00 80 3f 00 00 80 3f 00 00 80 3f
       1.0 1.0 1.0 1.0
000270 00 00 80 3f 00 00 80 3f 00 00 80 3f 00 00 80 3f
       1.0 1.0 1.0 1.0
000280 00 00 80 3f 00 00 80 3f 00 00 80 3f 00 00 80 3f
       1.0 1.0 1.0 1.0
000290 00 00 80 3f 00 00 80 3f 00 00 80 3f 00 00 80 3f
       1.0 1.0 1.0 1.0
0002a0 00 00 80 3f 00 00 80 3f 00 00 80 3f 00 00 80 3f
       1.0 1.0 1.0 1.0
0002b0 00 00 80 3f 00 00 80 3f 00 00 80 3f 00 00 80 3f
       1.0 1.0 1.0 1.0
0002c0 00 00 80 3f 00 00 80 3f 00 00 80 3f 00 00 80 3f
       1.0 1.0 1.0 1.0
0002d0 00 00 80 3f 00 00 80 3f 00 00 80 3f 00 00 80 3f
       1.0 1.0 1.0 1.0
0002e0 00 00 80 3f 00 00 80 3f 00 00 80 3f 00 00 80 3f
       1.0 1.0 1.0 1.0
0002f0 00 00 80 3f 00 00 80 3f 00 00 80 3f 00 00 80 3f
       1.0 1.0 1.0 1.0
000300 00 00 80 3f 00 00 80 3f 00 00 80 3f 00 00 80 3f
       1.0 1.0 1.0 1.0
000310 00 00 80 3f 00 00 80 3f 00 00 80 3f 00 00 80 3f
       1.0 1.0 1.0 1.0
000320 00 00 80 3f 00 00 80 3f 00 00 80 3f 00 00 80 3f
       1.0 1.0 1.0 1.0
000330 00 00 80 3f 00 00 80 3f 00 00 80 3f 00 00 80 3f
       1.0 1.0 1.0 1.0
000340 00 00 80 3f 00 00 80 3f 00 00 80 3f 00 00 80 3f
       1.0 1.0 1.0 1.0
000350 00 00 80 3f 00 00 80 3f 00 00 80 3f 00 00 80 3f
       1.0 1.0 1.0 1.0
000360 00 00 80 3f 00 00 80 3f 00 00 80 3f 00 00 80 3f
       1.0 1.0 1.0 1.0
000370 00 00 80 3f 00 00 80 3f 00 00 80 3f 00 00 80 3f
       1.0 1.0 1.0 1.0
000380 00 00 80 3f 00 00 80 3f 00 00 80 3f 00 00 80 3f
       1.0 1.0 1.0 1.0
000390 00 00 80 3f 00 00 80 3f 00 00 80 3f 00 00 80 3f
       1.0 1.0 1.0 1.0
0003a0 00 00 80 3f 00 00 80 3f
       1.0 1.0

thr_o f4 [6]
000000 00 00 80 3f 00 00 80 3f 00 00 80 3f 00 00 80 3f
       1.0 1.0 1.0 1.0
000010 00 00 80 3f 00 00 80 3f
       1.0 1.0

i2h.weight f4 [234, 16]
000000 78 55 76 bd af 55 13 3e 68 ab b5 3d f0 97 d9 3d
       -0.060140103 0.14388154 0.08870584 0.10624683
000010 23 d0 0d be ba 78 8f bd 7d fa 55 be 9f b9 09 be
       -0.13848929 -0.07005449 -0.20896335 -0.13449715
000020 9b a0 9b 3b a6 47 ec 3d c0 d8 ef bd 50 6a c9 bd
       0.0047493703 0.11537103 -0.11711264 -0.098347306
000030 66 95 f1 3d 1c de 50 be 0a ac 2d be d3 24 e5 bd
       0.117960736 -0.20397228 -0.16960159 -0.11188664
000040 e2 32 8a bd d1 ed 97 bc af 03 02 3d 52 23 32 3e
       -0.067479864 -0.018546017 0.031741794 0.17396286
000050 a3 3a 1d 3e e7 3a 7b 3d 9c 8f f9 bd 7b 09 60 3d
       0.153544 0.06133547 -0.121855944 0.05469654
000060 e0 4e 79 bd b3 33 ee bc 56 d0 ba 3d 2d 6a 26 3e
       -0.060866237 -0.029077386 0.09121768 0.1625144
000070 64 c1 f2 bd 56 cf d7 bd 83 8e 13 3e cf 6f d5 3d
       -0.118532926 -0.10537593 0.14409833 0.104217164
000080 2a 27 8c 3b 71 23 70 3d f0 c9 a8 bd c2 fe c1 3b
       0.0042771297 0.05862755 -0.082416415 0.005920262
000090 28 46 be 3c ab 5c 2b 3d eb ec 0e bd 47 57 29 be
       0.023226812 0.041836422 -0.03489391 -0.165372
0000a0 88 5c 30 3c 21 50 0e 3e dd 29 45 bd 73 c2 3c bd
       0.010764249 0.13897754 -0.048135627 -0.04608388
0000b0 bd d8 07 3e 4a 0a c5 3d bf 2b b0 3b 21 88 a6 bd
       0.13266273 0.09621103 0.0053763087 -0.08131433
0000c0 51 0a e5 bd ee e5 c1 bd 59 8d 9b 3d aa b1 cb bd
       -0.11183608 -0.09467684 0.07595319 -0.09945996
0000d0 e6 66 b1 3d 45 9d 6b 3d 47 44 f9 3d f3 9c 37 3d
       0.086622044 0.05752303 0.12171226 0.044827413
0000e0 d6 67 58 3d c1 0c 36 3d 23 52 e4 bc a3 f8 d8 3b
       0.0528334 0.044445757 -0.027871197 0.0066214367
0000f0 b4 d8 80 3d 3e df f3 bd 64 ee a8 3d ef 0e 28 bc
       0.06291333 -0.119078144 0.082485944 -0.010257467
000100 76 e7 11 be 76 ff 1c 3e 2b 45 3c 3d e6 bd 84 3c
       -0.14248452 0.15331826 0.0459644 0.016203832
000110 d6 87 4d 3d a6 2d 95 bd 26 7f 1a bd a0 f5 b0 b7
       0.05017837 -0.072840974 -0.037718914 -2.1095213e-05
000120 2f 06 4c 3d cc 51 05 3d c6 13 15 3e 2d 81 9f 3d
       0.049810585 0.03254871 0.14558324 0.0778831
000130 34 ce ff 3d b6 65 6c bd 44 70 47 3d 10 3b d9 bd
       0.12490502 -0.057714187 0.04869105 -0.106069684
000140 70 54 9e 3d a7 de 06 3e 30 76 70 3d b4 23 2b 3d
       0.07730949 0.13170873 0.058706462 0.041782096
000150 3e f1 2f bd 6f 1e 91 3d 92 37 b4 3d 53 98 b2 3c
       -0.042954676 0.07085883 0.08799662 0.02180115
000160 1e 34 bc bd 8b 8e a0 bd c1 15 a7 3d b2 41 b6 3c
       -0.09189628 -0.07839688 0.08158446 0.022248123
000170 db e2 b0 3d 4a 5c 73 3d 58 b8 04 bd 0b c6 bf bc
       0.08637019 0.059414186 -0.032402366 -0.023409864
000180 cd 13 3f 3d ff e9 3f bd 64 3f e1 bd 5e c5 08 3e
       0.046649743 -0.046854015 -0.10998419 0.1335654
000190 d3 21 ac bd ef e5 06 be 74 b6 27 be e3 f0 d4 bc
       -0.08404889 -0.1317365 -0.16378194 -0.02599377
0001a0 dd f9 da 3d 43 b0 ad bd 74 11 a9 3d 04 52 a1 bc
       0.10692189 -0.08480885 0.08255282 -0.019692428
0001b0 3f d0 4b bc bd 92 bf 3d 46 cc 86 3d 8e c2 e6 3d
       -0.012439786 0.0935416 0.06581931 0.11267577
0001c0 03 87 13 bc d4 2e 14 3e bd a2 07 3e 5b ce 89 be
       -0.009004357 0.14470989 0.13245673 -0.2691525
0001d0 23 ff 90 3d e5 00 33 3e 73 52 da 3c 4b 3d 14 bd
       0.070799135 0.1748081 0.026650643 -0.036191266
0001e0 fb ac 9d 3d 6f 37 18 3e 9c 7c 84 bc 3c 5b ca bd
       0.07699009 0.14864896 -0.0161727 -0.09880683
0001f0 29 59 06 3d 27 34 4b 3e 25 2d 1c bd 42 74 6d bd
       0.032799874 0.19844113 -0.03812899 -0.0579722
000200 9a 8d 84 bd 46 19 eb 3c b7 44 87 bd 2e ec 20 3e
       -0.06472321 0.028698575 -0.06604903 0.15715095
000210 db 1c ee bd ec d2 0a 3b 73 85 91 bd 76 ee 16 3d
       -0.116265975 0.0021182848 -0.071055315 0.036848508
000220 22 f8 81 bd 03 47 4f bd ef 85 82 3c 3b 51 0c bc
       -0.06346156 -0.05060483 0.015933005 -0.008564289
000230 0b 14 e0 bd 41 9d be bd 11 b6 1d 3e 20 07 04 be
       -0.10941323 -0.093073376 0.15401484 -0.12893343
000240 19 1b 89 3d 75 0b 1c 3e a5 82 03 bd ee f7 ac 3d
       0.066946216 0.15238746 -0.032107014 0.08445726
000250 c0 50 11 bd 73 90 39 3e df 1e c5 3d 01 66 4c bd
       -0.0354774 0.18121509 0.09625029 -0.049901966
000260 81 e2 28 bd 5e 0e c5 bd f7 0b ca 3d 44 39 31 3c
       -0.041231636 -0.09621881 0.09865563 0.010816876
000270 7d 8d 8c bd ea 7b 95 3c 12 37 8f bc d3 70 ec 3c
       -0.06862924 0.018247563 -0.017482314 0.028862393
000280 5c 4c f7 3d 7c 07 23 3d 83 c4 00 3e b1 c7 c3 3d
       0.12075111 0.03980206 0.12574963 0.095595725
000290 27 9e f1 3d e0 a5 b3 3b 33 6a 25 3d 7a ff a6 3d
       0.11797743 0.0054824203 0.040384483 0.08154197
0002a0 30 a3 9a bd e9 ff b2 3d 56 b5 9b bd ff 80 8f bd
       -0.07550657 0.08740217 -0.076029465 -0.07007026
0002b0 bf a8 29 3e a4 33 04 3e a6 cc 03 be 10 7c 40 3d
       0.16568278 0.12910324 -0.12871036 0.046993315
0002c0 6b 6a 15 3d 3c 4b 01 be f7 fe 97 bd 3c 63 86 bd
       0.03647844 -0.12626356 -0.074216776 -0.06561896
0002d0 b6 44 0e bd 21 97 20 be 99 94 fd 3d b5 e8 18 3e
       -0.034733497 -0.15682651 0.123818584 0.1493252
0002e0 26 fd 14 3e 66 51 55 3d 3c 97 e7 3d 7c eb 48 be
       0.14549693 0.05207958 0.113081425 -0.1962108
0002f0 b8 99 86 bc eb 7d 69 3d ac f8 e3 3d 20 4c 2d 3d
       -0.01643072 0.05700485 0.11131415 0.042308927
000300 91 40 06 3e d2 4d e4 3d c8 95 e9 bb a9 1a e3 3a
       0.13110568 0.111476555 -0.007128451 0.0017326671
000310 fe b7 e3 3d c5 32 42 3d 91 5d b0 3b 15 75 86 3d
       0.11119078 0.0474117 0.0053822477 0.065653004
000320 92 26 f0 bd 1b e7 0b 3e 74 47 c0 3a 55 15 8a bc
       -0.11726107 0.13662378 0.0014669732 -0.016855875
000330 eb 4c 00 3d ba db fd 3d bf 71 f2 bd 3f 5e 59 3d
       0.031323355 0.12395425 -0.118381016 0.053068396
000340 89 0a 26 3c e9 42 01 3e fe 30 cf 3d 4d 36 53 3e
       0.010134348 0.1262318 0.101167664 0.20626183
000350 8d 9e 09 be 13 21 03 be 68 85 ed bc 38 9c 84 bc
       -0.13439389 -0.12805586 -0.028994277 -0.016187772
000360 01 2f 47 bd a2 46 5a 3d 10 f7 c9 bd bb 98 2b bd
       -0.04862881 0.053290017 -0.098615766 -0.041893702
000370 a2 f4 42 be c3 b0 e4 3c eb 42 97 3d 29 a8 33 3d
       -0.19038633 0.027916318 0.073858105 0.043861542
000380 c7 84 b1 3c 9f 74 ee 3d e4 90 1c 3e 5c a3 e2 bc
       0.021669758 0.116433375 0.15289646 -0.027665786
000390 6b 1d 85 bd ea bc a7 3b 88 6a d8 3c 04 82 92 bd
       -0.06499752 0.005118956 0.026417986 -0.07153705
0003a0 08 ba 9d bd f2 1f 05 3e 51 2e e9 bd f4 5e ba 3d
       -0.07701498 0.13000467 -0.11385787 0.09100142
0003b0 7c 38 54 be 6f 61 b7 3d 8f e2 cd 3c bb c1 b7 3d
       -0.20724672 0.08954131 0.025132446 0.08972498
0003c0 1d 2c e6 3d 58 33 ff ba 0a 99 aa bd 30 f8 9f bd
       0.11238883 -0.0019470258 -0.08329971 -0.0781101
0003d0 9f 61 08 3d 4b 20 4c bd 46 d9 63 3d bc 60 32 3e
       0.033296224 -0.049835484 0.05562713 0.17419714
0003e0 66 49 f7 bd 48 db d2 3d d0 39 87 3b 85 36 cd 3d
       -0.120745465 0.10295731 0.004126765 0.100201644
0003f0 d3 e1 45 3d 83 8d 19 3e a9 8f 25 bd 9c e9 96 3d
       0.048311066 0.14995389 -0.040420208 0.07368776

i2h.bias f4 [234]
000000 fb 06 ca 3c 96 e1 cb ba 2b a7 fa bb 80 71 a7 bc
       0.024661532 -0.0015554901 -0.0076493225 -0.020439863
000010 d4 a2 6a 39 72 72 e9 bc a1 32 56 bd bb 78 d2 3c
       0.00022376637 -0.028496955 -0.052294377 0.025692334
000020 bb 60 f8 3b 35 e0 2e 3c 3a c5 a0 bb 55 1b 03 bb
       0.0075798905 0.010673572 -0.0049063237 -0.0020005305
000030 d5 d6 e0 bc bb c7 ec 3c 62 83 74 bc c0 73 8c bc
       -0.02744619 0.028903833 -0.014923902 -0.017145038
000040 d9 a3 fe bc dc 9d e7 bc a1 93 67 3c 2e 79 57 3c
       -0.031083988 -0.028273515 0.014134319 0.01315145
000050 12 e4 43 bc 66 f0 17 3b e1 d5 1a bc 68 1c 6e bc
       -0.011956232 0.002318406 -0.009450407 -0.01453314
000060 70 6b 22 3c 65 0b 19 ba fb 42 6c 3c ac 24 8a bb
       0.00991331 -0.0005838185 0.014420266 -0.0042157974
000070 64 60 49 3c 84 59 f5 bc 68 c8 39 3c 11 c2 2d 3c
       0.012291048 -0.029949911 0.0113392845 0.010605351
000080 50 e6 cd bb 12 ea ac 3c e4 72 88 3c d7 b4 49 3b
       -0.006283559 0.021107707 0.016656347 0.0030777955
000090 99 f4 8e 3b 70 e3 73 3c fb 14 e2 bb 2c 75 d8 3b
       0.0043626544 0.014885768 -0.0068994737 0.006605765
0000a0 02 29 72 3c b7 f8 7c b9 3a 6b 50 bc b1 54 4d bb
       0.014780285 -0.00024125246 -0.012720877 -0.0031330998
0000b0 0d 26 80 bb ec 9b b4 bb a9 f9 44 3c dc ed a2 bc
       -0.003910786 -0.0055117514 0.012022414 -0.01988881
0000c0 ef 22 f2 3c b1 48 9c 3c 03 26 41 3c f3 59 2b 3b
       0.029557673 0.01907763 0.011788848 0.0026146143
0000d0 19 5b 12 bd ae 5c 37 3c b8 6e 7a 3c be a3 92 3c
       -0.03573141 0.01119153 0.0152851865 0.017900344
0000e0 d6 61 9e 3c b1 df 05 3c bb e2 6c 3c 0b 51 a2 bc
       0.019333761 0.008171008 0.014458354 -0.019814035
0000f0 3c a2 4c 3b e8 45 b3 3c 67 e3 8d 3c 20 de c0 bc
       0.003122463 0.02188392 0.017320348 -0.023543417
000100 b9 a8 53 3c 06 75 fd 3c 28 6f b0 3c e3 fa 5c 3c
       0.012918645 0.03093959 0.021537378 0.01348755
000110 84 e2 9e bc 66 e6 a0 b9 07 79 f4 bb 8a 58 c7 3c
       -0.01939512 -0.00030689238 -0.0074607166 0.02433421
000120 3b 04 84 3c d1 6e 50 3b da bf 30 bc 75 6f 7f 3c
       0.016115298 0.0031804333 -0.0107879285 0.015590538
000130 06 6f 8c 3c 78 cd 61 bb bd 57 c8 3c c9 fc 4a 3c
       0.017142784 -0.0034454744 0.0244559 0.01238937
000140 be 1e 6e bd cf 77 ed 3c 76 ef 3e 3c d3 00 de bc
       -0.058134787 0.028987793 0.011653772 -0.027100002
000150 72 86 56 38 85 35 e1 bc ab bd 57 3c f7 f0 f9 bc
       5.1146788e-05 -0.02749134 0.013167779 -0.030510409
000160 8e 5b 84 bc 75 a9 93 3c ee 5e df bc 93 66 a0 3c
       -0.016156938 0.01802514 -0.027266946 0.019580161
000170 5b f7 72 bc 44 de 78 bc ac 3f 24 bc 79 51 58 3c
       -0.014829482 -0.015189711 -0.010024946 0.013203018
000180 3a 22 dc bc 7c 10 cb bc 5b ea 15 3c ea 6d 81 3a
       -0.02687179 -0.024788134 0.009150113 0.0009874676
000190 de 9e 22 3c 4a 60 97 bb 96 61 ac bb cd e0 99 bc
       0.009925572 -0.004619633 -0.0052606566 -0.018783951
0001a0 99 d3 b0 3a e5 6d 1e bc 17 30 e2 3a d7 ab e0 3c
       0.0013490795 -0.009669756 0.0017256764 0.02742569
0001b0 3e ab 49 3c 93 35 c6 bc 65 cc 58 3b 2b 9f bf bb
       0.012308894 -0.024195468 0.0033080813 -0.0058478317
0001c0 cc f2 8c bb 22 c7 31 3c 7a 0b 41 bc e6 67 08 3c
       -0.0043014046 0.0108507 -0.011782521 0.008325553
0001d0 cb c9 ff 3a ae c4 c6 bc b8 bc 95 3c d7 c6 ca bb
       0.0019515095 -0.024263706 0.018278465 -0.0061882543
0001e0 0a 1f e9 3b 8a 3a 29 3b 9c 5f 76 bc 2c a0 37 3c
       0.007114296 0.0025822246 -0.0150374435 0.011207622
0001f0 37 0e aa 3b f1 70 0e bd 70 bf de bb 15 1e f6 3c
       0.005189683 -0.034775678 -0.0067977235 0.030043641
000200 7d ac 2f 3c d4 21 f3 bb 64 56 76 3c ff 87 a1 3c
       0.010722277 -0.007419804 0.015035246 0.019718168
000210 eb 6b ae 3c 73 14 ef 3c f3 b2 08 bd 13 09 ba 3c
       0.021291694 0.029184556 -0.033373784 0.022709405
000220 95 8d 5f ba 80 92 73 bd 6d af 5c 3c 1d cf 93 3c
       -0.0008527872 -0.059465885 0.013469559 0.018043095
000230 f0 be 02 bd 28 3b 57 bc e6 f5 5f bc 08 f6 10 bb
       -0.031920373 -0.013136663 -0.013669467 -0.0022119302
000240 f0 ac 97 bb 52 7b 5c 3b 7f 4d 03 3c c4 e0 9d 3c
       -0.00462877 0.003364284 0.008014082 0.019272216
000250 8a 7b 01 3c 3f 23 b1 3c 28 c3 81 3c 2d 36 47 bc
       0.007902989 0.021623252 0.015840128 -0.012158913
000260 0c 4a 30 bb d0 ac a4 bc 2e e8 8d 3c 09 7b 58 3a
       -0.0026899604 -0.020101935 0.017322626 0.000825808
000270 ac e4 ef 3b 7d 3b 49 3c 86 d0 aa 3a 79 5b fa bc
       0.007320961 0.0122822495 0.0013032116 -0.030561196
000280 f8 82 79 bc 18 53 d6 3c 0d cc bd 3c 75 a0 e2 3b
       -0.015228979 0.026162669 0.023168588 0.0069161006
000290 8c 56 91 b8 a0 99 e7 ba ba c2 a7 bc ea d7 ec 3c
       -6.9302594e-05 -0.0017669685 -0.020478595 0.02891155
0002a0 c7 cf ea 3b 0a 1c b4 3c 85 1f c4 3c fa 55 41 3c
       0.0071658823 0.021986026 0.023940811 0.011800284
0002b0 8b 22 66 3c 0d 6a a7 3c ec 02 b7 3c 70 8e 9c 3b
       0.014046322 0.020436311 0.02234026 0.004777722
0002c0 b5 12 a8 3c bb f4 1c 3c ea d6 31 bd 52 99 8d 3c
       0.020516733 0.009579833 -0.04341785 0.017285023
0002d0 d5 b0 6f bc bd 63 ba bb 8c a8 a6 bb 11 8d fb bc
       -0.014629562 -0.0056881593 -0.0050860103 -0.030706914
0002e0 67 81 ca bc bf ea f2 3c ae d2 92 3c cd 52 f7 3b
       -0.024719907 0.029652951 0.017922726 0.0075477124
0002f0 96 4f 30 3c 87 ab 31 3c ea 80 cf bc de b4 9e 3c
       0.010761162 0.010844118 -0.025330026 0.019373354
000300 71 fa 47 3c da ce 5a 3b 68 e5 8c 3c 32 49 19 3c
       0.012205706 0.0033387453 0.017199233 0.00935583
000310 08 61 a9 3c 60 c7 3b 3c 0f bb ab 3b 0f 0c 17 3c
       0.02067615 0.011461109 0.005240805 0.009219184
000320 de ec d1 bb 4f e0 f8 3c 14 4b 94 bc f6 6a a2 3c
       -0.0064064106 0.030380396 -0.018102206 0.019826394
000330 af 80 47 bb 1c f3 12 bb 98 46 3a 3b cc d0 ed 37
       -0.0030441692 -0.0022422737 0.0028423425 2.834983e-05
000340 c2 ea d3 bc 0d a1 22 3b a7 b3 aa bc eb 74 87 bb
       -0.025868777 0.0024815232 -0.020837618 -0.0041338108
000350 2a 5d 9f bc 72 91 40 bb 48 fd d1 3b 13 5e 07 3d
       -0.019453604 -0.0029383567 0.0064083673 0.0330487
000360 78 ea 76 bb 3e 1a d1 3b 7c 1b 51 3c 09 de d3 bc
       -0.0037676375 0.006381302 0.0127629 -0.02586271
000370 5b 5b 04 bd 7d c2 99 3b d6 3d 7a 3c 63 48 2f 3b
       -0.032313686 0.0046923743 0.015273532 0.0026746027
000380 87 7d 8f 3c 4a b4 45 3c e2 5e c1 3b 8a bd 07 3c
       0.01751591 0.01206691 0.0059012035 0.008284936
000390 da 98 b4 bb a8 0c db bb 09 0c 85 3c 40 a1 52 bc
       -0.0055113854 -0.0066848584 0.01624109 -0.012855828
0003a0 40 7d 30 bb c6 ca 7b bb
       -0.0026930124 -0.0038420423

h2o.weight f4 [6, 234]
000000 7d b8 fc ba 89 9a 17 bd 7f c5 a6 3d 5d e3 4a 3d
       -0.0019281056 -0.03701261 0.08143138 0.049533237
000010 f4 ff bc bd 3f 14 6a bd 3f 9a fd 3d 98 6c 0b be
       -0.09228507 -0.057148214 0.12382936 -0.13615644
000020 56 40 17 3e 2e 47 14 bd 6e 5e 4d bd 78 26 94 3d
       0.14770636 -0.036200695 -0.050138883 0.072339
000030 09 37 e8 3d 7d 36 07 be 36 8c 95 3c c0 df 6a bd
       0.11338622 -0.1320438 0.018255334 -0.05734229
000040 52 07 3d 3d ca ed c9 bc b3 c9 d8 bd ba 50 ca bd
       0.04614956 -0.02464952 -0.10585346 -0.098786786
000050 bc 07 2a 3d 90 93 bc 3d cf e8 20 bd 8d 04 08 bd
       0.041511282 0.09207833 -0.039284524 -0.033207465
000060 4e 69 3e bd ab 53 a2 3d f6 d7 8d bc ed 11 f4 3d
       -0.046487145 0.07926115 -0.017314892 0.119174816
000070 de 60 e5 ba 12 26 03 be 0d 56 2b be 72 01 0d be
       -0.0017500182 -0.12807491 -0.16732045 -0.13770083
000080 6e c4 17 3e b1 c8 1b 3d 5b b5 b9 bd 9f 71 21 bd
       0.14821026 0.03803319 -0.09067794 -0.039415
000090 e1 8a a6 bd 5a db 15 3e f1 76 8c bd 89 17 8d 3b
       -0.08131958 0.14634457 -0.06858624 0.004305784
0000a0 c3 be 37 3d 63 bf 3e bd ae dc 1b 3e f5 d7 17 be
       0.04485966 -0.04656924 0.15220901 -0.14828475
0000b0 70 51 2b bd 25 99 2e be 4f 6c 30 be ff 38 dc bd
       -0.04182571 -0.17050608 -0.17228816 -0.10753059
0000c0 9f 66 37 be 89 ba 24 be 2c 2b 6e bc bc 4f 98 bd
       -0.1791024 -0.16086783 -0.01453666 -0.07437083
0000d0 82 6e 1e 3e ab 6d d3 bd ff 09 ef 3c c8 da 3a 3d
       0.15471843 -0.10323652 0.029179571 0.045618802
0000e0 cd 0e 8a 3d 3a f0 82 3d 43 02 b9 bd 9f 6b 93 3d
       0.06741104 0.06393476 -0.090336345 0.071982615
0000f0 43 34 f7 bb aa 13 a4 3d 00 07 82 3d b1 dd f6 bd
       -0.007544072 0.08011563 0.063489914 -0.12054003
000100 0d 5f dd 3a dd 93 35 be 68 ca d2 bc 5f 11 51 be
       0.0016889289 -0.17732187 -0.02573128 -0.20416783
000110 58 b5 10 bc a5 ee fd bd db 1a f8 bd 95 8f 4d be
       -0.008832298 -0.123990335 -0.12114497 -0.20074303
000120 2b cf 94 bd bd d8 a4 bc 32 14 ac bc 26 3f b5 3b
       -0.07266077 -0.02012288 -0.021005724 0.0055312095
000130 fa e1 0e be 64 97 a4 bc 14 27 20 be 86 1c 04 bd
       -0.1395339 -0.02009172 -0.15639907 -0.032253765
000140 e9 b4 a2 bd 46 08 1b be 21 97 08 be 27 8a 00 3e
       -0.07944662 -0.15139875 -0.13338901 0.12552701
000150 46 5e 02 3e c7 d9 d5 3b 34 f7 9b bd 53 38 58 bd
       0.12731275 0.006526205 -0.0761551 -0.05278809
000160 c3 9b 66 3c b1 9a 0a bd 05 2b 54 be 17 70 ca bd
       0.014075222 -0.03383893 -0.20719536 -0.09884661
000170 d3 96 75 bb c5 22 08 3d 06 62 dc 3d 89 70 c1 bc
       -0.0037473931 0.033236284 0.10760884 -0.023613231
000180 a9 e5 1d 3e cf f5 8c 3d e3 68 c8 3d e7 87 ec 3d
       0.1541964 0.06882822 0.097856306 0.11549359
000190 90 e4 fe 3d 02 68 90 bc 73 17 03 3c 01 f4 e6 bb
       0.124459386 -0.01762772 0.008001196 -0.0070481305
0001a0 20 f0 f9 bd 60 42 ca bb 65 ca 0f 3e c4 af 60 3d
       -0.12204003 -0.0061724633 0.14042051 0.054855123
0001b0 7f 51 bf bd 75 41 32 bc fc c3 13 3e ed bb 1e 3c
       -0.09341716 -0.010879864 0.14430231 0.00968836
0001c0 d9 f2 07 be f9 b0 e3 3c c6 91 96 3d d7 69 12 be
       -0.13276233 0.027794348 0.07352023 -0.14298187
0001d0 fd 92 b6 3d 90 92 bc 3d 14 ef 0a bd 5a 93 83 3d
       0.089147545 0.09207642 -0.03391941 0.064245895
0001e0 d9 0b 66 bd 88 10 06 3d d5 20 02 bd b9 1a d3 3d
       -0.056163643 0.03273061 -0.031769592 0.10307831
0001f0 a9 85 a3 bc ce d4 d7 3d 19 38 42 be b2 14 24 bd
       -0.019961195 0.10538636 -0.18966712 -0.0400588
000200 15 f2 1f be 73 38 c4 3d 6b e6 23 bd 2e 86 2b be
       -0.1561969 0.09581079 -0.040014666 -0.16750404
000210 21 d3 d5 bc 0e 87 47 be 57 d6 09 3e 2e ba a5 bd
       -0.02610165 -0.19485113 0.1346067 -0.080921516
000220 62 d5 ae bd 21 3e b9 3d 1f b3 11 be c4 a0 13 3d
       -0.08536793 0.09045053 -0.14228486 0.03604199
000230 52 6e f8 3d a3 e5 d4 3d 0f 06 e6 bd 9c b9 c2 bd
       0.12130417 0.10395362 -0.11231624 -0.095080584
000240 39 df ef bd 03 fa 93 bd 15 98 92 3d 82 88 a6 bd
       -0.11712498 -0.0722542 0.071579136 -0.081315055
000250 5f 6b 8b bd 4a 97 bd bc 49 da 52 bd 27 18 ff bd
       -0.06807589 -0.02314343 -0.051477704 -0.124557786
000260 af be 89 bd df a6 9f 39 6e a6 0a bd 67 c8 be bd
       -0.06725823 0.00030451172 -0.033850126 -0.093155675
000270 db cc 27 bd e1 a7 ee bd d3 90 d3 bd 5a 1e c9 3d
       -0.04096685 -0.11653114 -0.103303574 0.09820242
000280 b4 56 57 bd fd 87 ee bd bc d9 48 bd b1 35 1f bd
       -0.05257292 -0.116470315 -0.049035773 -0.038869563
000290 4e 1a d8 3d dd 0f 1e 3e ee 42 22 3e 29 2e 2a bd
       0.10551892 0.15435739 0.15845844 -0.041547928
0002a0 e3 29 1c 3e b1 9d 9e bd 43 a2 eb bd 20 0c e6 3b
       0.15250354 -0.07744921 -0.11505558 0.0070204884
0002b0 c1 f5 0c be 75 cb 2d bd 14 40 06 be 15 c4 22 be
       -0.13765623 -0.04243036 -0.13110381 -0.15895112
0002c0 2b e6 93 bd aa bb 85 bc 05 2c 90 3d 77 57 af bd
       -0.072216354 -0.016324837 0.07039646 -0.085616045
0002d0 3b 0e 3a bd 8f e9 bf 3d 65 72 a4 bd 67 94 f8 3d
       -0.045423727 0.0937072 -0.080296315 0.121376805
0002e0 a4 c3 af 3d d5 0f 2f bb 72 48 b3 ba f2 8e 17 bd
       0.08582237 -0.0026712317 -0.0013678207 -0.037001558
0002f0 cf a0 68 3d ef 15 2f be f5 4f 7d 3d 9e b0 c3 3d
       0.056793984 -0.17098211 0.06184383 0.095551714
000300 d9 a8 d6 bd 33 22 de bd 63 f5 ca 3d ec 7c 23 3e
       -0.10481424 -0.10846367 0.09910085 0.15965623
000310 e6 3e 00 3e 26 8d 81 bd 5f ec 09 3e 1c 51 fa 3d
       0.12523994 -0.0632575 0.13469075 0.12222502
000320 c9 1d 0f be 88 38 83 3d df 67 86 3d b7 16 2d bd
       -0.13976206 0.06407267 0.065627806 -0.04225799
000330 fc ba 09 3e 98 80 0e be 81 68 d6 bc 10 d6 ab bd
       0.13450235 -0.13916242 -0.026172878 -0.083904386
000340 02 11 e8 bd 1b 55 7f 3d 97 34 af 3d 8f fc 96 bc
       -0.11331369 0.062337022 0.085549526 -0.018430976
000350 24 f3 1d 3d 17 18 71 3c 02 68 82 bd f7 9a 41 3b
       0.038561955 0.014715216 -0.06367494 0.002954183
000360 df 60 a8 bc f7 74 ac 3d ba 1f d3 3d ac d3 22 be
       -0.020554004 0.08420747 0.10308786 -0.15901059
000370 33 7f 49 3d 2e aa 35 3d 1b d9 c6 bd 79 0e 12 be
       0.049193572 0.04435175 -0.09709378 -0.14263333
000380 f6 fc 38 3d 63 07 08 be 96 81 ed 3d 87 82 0f be
       0.045163117 -0.13284068 0.11596982 -0.14014636
000390 3f ec 9d 3d 85 65 02 be 95 6a 12 bd b7 c1 02 bd
       0.07711076 -0.12734039 -0.035746176 -0.031923022
0003a0 cb e0 ed 3d b7 06 01 bd 60 38 2f 3d 44 b0 05 be
       0.116151415 -0.031500544 0.042778373 -0.13055521
0003b0 76 1a 3e bd e1 6b 74 3d 51 d9 e3 bd fe 76 f3 bd
       -0.046411954 0.059673194 -0.11125434 -0.1188793
0003c0 2f 1c 8c bd 20 ec 62 bd 6f 5e 84 3d 56 8a 08 be
       -0.06841313 -0.055400968 0.06463324 -0.13334021
0003d0 37 4b 9d bd a2 9b bf bd de 1d 09 3d b5 a4 03 be
       -0.07680362 -0.093558565 0.03347575 -0.128558
0003e0 98 42 8b 3d e7 9c 18 be 8f 91 f6 bd 4c 43 43 bc
       0.06799811 -0.14903603 -0.12039482 -0.0119179
0003f0 c4 3e 50 bc 41 02 99 3d a6 2c 87 bd e7 d5 10 3d
       -0.012710277 0.07471133 -0.06600313 0.035360243

h2o.bias f4 [6]
000000 82 54 d4 bc d5 55 2d 3c 18 8e 37 3c 51 73 5b 3c
       -0.025919203 0.010579546 0.011203311 0.013394193
000010 c5 81 d8 3c 2a a3 7b 3c
       0.026429066 0.015358726

h2h.weight f4 [234, 234]
000000 b2 46 d5 bd ae 2b 11 3d 39 ef a8 bb 38 47 19 bc
       -0.10413875 0.035442047 -0.0051554707 -0.009355359
000010 4c ed a2 3c ef 40 b6 3a 24 7a a4 3d 74 4f 04 bd
       0.019888543 0.001390485 0.08031109 -0.032302335
000020 20 ba 15 bc 9f 31 f4 3d b8 f3 c2 3d 60 5f 1d bc
       -0.009138614 0.11923527 0.09519142 -0.009605259
000030 1d 07 aa 3d 2d f0 1e 3e 1c 0b fe 3c bb 5e 17 be
       0.08302138 0.15521307 0.031011157 -0.1478223
000040 a8 27 d9 bd 66 34 6c bb 78 24 a9 bd b9 9c b6 bd
       -0.10603267 -0.0036041974 -0.08258909 -0.08916611
000050 de 0d 51 3e 45 06 79 3d 62 e7 f3 3d d6 a1 a1 bd
       0.20415446 0.060796995 0.11909367 -0.07892196
000060 37 e0 36 bc bf 4e 11 3d d4 42 9d 3d 30 f9 b1 3d
       -0.011161855 0.03547549 0.07678762 0.08690107
000070 5c 03 6a 3d 0d ed e1 3d 84 c0 2d bc 27 1b 7b 3c
       0.05713211 0.11031542 -0.010604981 0.015326298
000080 e1 73 fc bd 9e 9a 96 3d 89 62 45 3e 82 64 c9 3d
       -0.1232679 0.0735371 0.1927587 0.098336235
000090 c1 a0 64 3d f3 6b 0f be 59 5e c9 bc 10 48 65 bc
       0.05581737 -0.14006023 -0.024581121 -0.013994232
0000a0 88 ac a7 3d d1 20 ce 3d 86 78 c6 3d c0 56 c4 3b
       0.081872046 0.10064853 0.09690957 0.0059917867
0000b0 2f f6 4a bd 26 3d 14 3c e7 1a 96 3c ff b7 a2 3d
       -0.049551185 0.009047782 0.018323375 0.07945251
0000c0 fa 7e ee bb 61 37 a3 3c 21 79 3a bd e3 78 22 bc
       -0.0072783204 0.019923868 -0.045525674 -0.009916517
0000d0 85 0e 82 bd 9f 7d 23 bd d0 b3 c9 3c f9 5e 8a bd
       -0.06350426 -0.039914723 0.024621874 -0.06756396
0000e0 cb ed d3 bc b8 22 6b 3c 9d 28 6a bd 3e f8 b8 bc
       -0.025870224 0.014351539 -0.057167638 -0.022579309
0000f0 4e d6 7e 3c d9 2f 86 3c 7b 94 5a bd d8 35 a8 3d
       0.015554024 0.016380237 -0.05336426 0.08213395
000100 df f1 3b bd e1 ef 19 bd c5 30 c6 bd a8 05 0a bd
       -0.045884963 -0.037582282 -0.09677271 -0.0336968
000110 f1 ef 12 3d c1 09 69 3d 4f 52 dc 3d 87 26 c8 bc
       0.035873357 0.056894068 0.107578866 -0.024432434
000120 e7 d9 0f be a5 81 c6 bd 95 f6 f4 bc b7 3e b4 3d
       -0.14047967 -0.096926965 -0.029902736 0.088010244
000130 c0 1b 0f 3c 39 f8 18 bd a5 a9 5f 3d 29 b8 97 bc
       0.008734643 -0.0373461 0.054605145 -0.018520432
000140 33 d2 72 bd 2f d4 40 3d 34 1d 9f bc 2b dd 83 bc
       -0.059282493 0.047077354 -0.019423105 -0.016096672
000150 21 12 93 bd 16 f1 94 bd 0d ca f9 3c b7 0a 30 bd
       -0.07181192 -0.07272546 0.030491853 -0.04297897
000160 6a 88 14 3d 7a b2 20 3c b9 b8 44 3c ce e6 04 3d
       0.036262907 0.009808177 0.012006932 0.032446675
000170 d3 1d 0f bd 06 a5 0d bd 79 1c df 3d 31 c0 c9 bd
       -0.034940552 -0.034581207 0.108941026 -0.09851111
000180 6e ef be 3d 96 34 19 3d 7b 3e a6 3d 94 3c d2 3d
       0.09323011 0.037403665 0.08117386 0.102654606
000190 d4 6b 10 bc 13 dd a8 3d 00 0f 65 3d 9c ae b7 bc
       -0.008814771 0.082452916 0.05592251 -0.022422127
0001a0 ee 5e dd 3c 18 48 28 3d 15 b2 08 be 87 23 00 3e
       0.027022805 0.04108438 -0.13349183 0.12513553
0001b0 a0 25 63 3d 27 cf b5 3d 3b b4 04 3d 8a d9 bd 3d
       0.055455804 0.08877402 0.032398444 0.09270008
0001c0 45 a1 98 3d a0 88 28 bd 70 28 69 bd 9d 28 ca bc
       0.07452635 -0.04114592 -0.05692333 -0.024677569
0001d0 cd 4a 55 3d 5c 07 17 bd c2 c0 c2 bd 3a 9b b8 3d
       0.05207329 -0.036872253 -0.09509422 0.09013982
0001e0 69 9c 77 bd 5f 8e a2 3d e6 f6 a6 3c 3b 54 1a 3b
       -0.0604519 0.079373114 0.020381402 0.002354874
0001f0 64 48 0b 3d 87 8b 0c bd 45 6b 8c bd 2a a3 b4 3d
       0.034004584 -0.03431275 -0.068563975 0.088201836
000200 55 68 f9 3a 7b 39 08 3e c0 d2 8b 3c 8b 01 bb 3d
       0.0019028286 0.13303177 0.017068267 0.09131154
000210 ae eb 2a 3d b0 83 7d bd b4 23 74 3d de ef 93 3c
       0.041728668 -0.061893165 0.05960436 0.018058714
000220 42 7e 5c bd 68 1a aa 3b 10 c1 fe 3d f6 5f 91 bd
       -0.053831346 0.005191136 0.124391675 -0.07098381
000230 ac e9 b1 bc d6 46 88 3c a3 47 27 3d ac ab b8 3c
       -0.021717869 0.01663534 0.040839802 0.022542797
000240 a0 51 a9 bc 2d c8 ef bd e1 63 47 be 2e 3e e2 3d
       -0.020668805 -0.117081024 -0.19471695 0.11047016
000250 fe 5f 45 3d 52 99 25 3c 69 89 80 bd f7 ee 5a bd
       0.04818725 0.010107355 -0.06276209 -0.05345055
000260 00 b0 c0 bc 20 bd bf 3c f8 a2 ac ba 84 e6 d8 3d
       -0.023521423 0.023405612 -0.0013171127 0.10590842
000270 8c b5 0a bd 14 f3 9c bc 25 e0 d9 bb ea ba 83 bd
       -0.033864543 -0.019158877 -0.0066490346 -0.064321354
000280 fa 66 a8 bc 88 9c ec bd af d7 4e bd 72 53 b1 3d
       -0.020556916 -0.115532935 -0.05049866 0.08658494
000290 5d 82 be 3d 74 d4 c2 3c 2d f0 df 3d 0f ec d1 3d
       0.093022086 0.023782946 0.10934482 0.10250103
0002a0 cf 46 ea 3d bf 98 26 3c 69 ee cf 3c 50 7f 89 3c
       0.11439287 0.010168253 0.025382238 0.01678434
0002b0 61 35 f5 3c c0 ec fd bc 16 44 97 bd 09 90 c8 3d
       0.02993268 -0.03099668 -0.07386033 0.097930975
0002c0 e5 7b c7 3d 72 02 ab 3d c7 90 1d bd 4a bf 7e bd
       0.09740428 0.08350076 -0.03846815 -0.062194146
0002d0 de 9a 2f 3e a1 93 2c bd b9 48 61 3e 69 13 75 bd
       0.17148921 -0.042132977 0.22000398 -0.059832964
0002e0 52 24 c6 bd a4 03 78 bd 67 15 19 3d 79 c3 14 bd
       -0.09674896 -0.060550347 0.037373926 -0.03631923
0002f0 0c 3e 3e bd 19 e2 15 be c9 79 86 3c 18 74 a3 bc
       -0.04644589 -0.1463703 0.016415494 -0.019952819
000300 77 3e 37 be 30 ea 6e bd 5f 32 01 bd 5d df 61 bc
       -0.17894922 -0.058328807 -0.03154218 -0.013786164
000310 d2 db 91 bd de 9a 69 3c d9 92 93 bb 60 65 a6 3d
       -0.071220055 0.014258115 -0.0045035896 0.081248045
000320 a3 ee af bd 90 16 03 3a 3e 2b d0 3c 61 b3 09 3c
       -0.08590438 0.00050006155 0.025411244 0.008404584
000330 90 b9 17 bd bb e6 66 3d fb 79 f6 bc be a3 a7 bc
       -0.0370422 0.056372385 -0.030087462 -0.02046382
000340 df 59 3f 3a 43 85 67 b9 38 01 0d bd 97 fc db 3d
       0.00072994636 -0.0002207952 -0.03442499 0.10741537
000350 0a a9 1e bd 70 39 22 bd 10 fc 88 3c 49 82 0d 3e
       -0.038735427 -0.039605558 0.016721755 0.13819231
000360 fe 15 26 be 2b 65 79 bd ad e2 87 3d 9c e2 c3 3d
       -0.16219327 -0.060887497 0.06635032 0.09564707
000370 f0 25 82 3d 7d 1a 29 3e 5d 1c cd bc 20 73 32 bd
       0.06354892 0.1651401 -0.025037939 -0.043566823
000380 92 21 ad 3d 2f a5 be bb 5f 03 87 bc 05 40 d0 bd
       0.08453669 -0.0058180313 -0.0164811 -0.10168461
000390 d3 79 f9 3b ed 98 8e 3d 33 40 30 3e f5 c2 b9 3d
       0.0076133995 0.06962762 0.1721199 0.09070388
0003a0 9b d1 15 3b 1f b5 b4 3d 7d b7 bc 3d 38 7d b9 3d
       0.002286053 0.088236086 0.09214685 0.09057087
0003b0 ad 53 c3 bc 93 0d b2 3d 3f 20 a4 3d 61 98 6a bd
       -0.02384361 0.08693995 0.08013963 -0.057274226
0003c0 c1 5c 2b bd f1 53 71 bd 71 4e 9d 3c ad f9 a6 bb
       -0.041836504 -0.058917943 0.019202443 -0.0050956816
0003d0 89 86 93 bd af a0 b4 3c 0a 75 57 bc ee 34 e6 bd
       -0.07203395 0.022049276 -0.013150463 -0.11240564
0003e0 09 92 46 bd bd 55 97 bd ef 9d fe bd 9d 31 6d bb
       -0.048479114 -0.073894 -0.12432467 -0.0036192902
0003f0 f2 0d 97 bc 2d f4 d0 bb 84 52 aa 3d 44 41 5d bd
       -0.018439267 -0.0063767643 0.0831652 -0.05401732

h2h.bias f4 [234]
000000 fb 06 ca 3c 96 e1 cb ba 2b a7 fa bb 80 71 a7 bc
       0.024661532 -0.0015554901 -0.0076493225 -0.020439863
000010 d4 a2 6a 39 72 72 e9 bc a1 32 56 bd bb 78 d2 3c
       0.00022376637 -0.028496955 -0.052294377 0.025692334
000020 bb 60 f8 3b 35 e0 2e 3c 3a c5 a0 bb 55 1b 03 bb
       0.0075798905 0.010673572 -0.0049063237 -0.0020005305
000030 d5 d6 e0 bc bb c7 ec 3c 62 83 74 bc c0 73 8c bc
       -0.02744619 0.028903833 -0.014923902 -0.017145038
000040 d9 a3 fe bc dc 9d e7 bc a1 93 67 3c 2e 79 57 3c
       -0.031083988 -0.028273515 0.014134319 0.01315145
000050 12 e4 43 bc 66 f0 17 3b e1 d5 1a bc 68 1c 6e bc
       -0.011956232 0.002318406 -0.009450407 -0.01453314
000060 70 6b 22 3c 65 0b 19 ba fb 42 6c 3c ac 24 8a bb
       0.00991331 -0.0005838185 0.014420266 -0.0042157974
000070 64 60 49 3c 84 59 f5 bc 68 c8 39 3c 11 c2 2d 3c
       0.012291048 -0.029949911 0.0113392845 0.010605351
000080 50 e6 cd bb 12 ea ac 3c e4 72 88 3c d7 b4 49 3b
       -0.006283559 0.021107707 0.016656347 0.0030777955
000090 99 f4 8e 3b 70 e3 73 3c fb 14 e2 bb 2c 75 d8 3b
       0.0043626544 0.014885768 -0.0068994737 0.006605765
0000a0 02 29 72 3c b7 f8 7c b9 3a 6b 50 bc b1 54 4d bb
       0.014780285 -0.00024125246 -0.012720877 -0.0031330998
0000b0 0d 26 80 bb ec 9b b4 bb a9 f9 44 3c dc ed a2 bc
       -0.003910786 -0.0055117514 0.012022414 -0.01988881
0000c0 ef 22 f2 3c b1 48 9c 3c 03 26 41 3c f3 59 2b 3b
       0.029557673 0.01907763 0.011788848 0.0026146143
0000d0 19 5b 12 bd ae 5c 37 3c b8 6e 7a 3c be a3 92 3c
       -0.03573141 0.01119153 0.0152851865 0.017900344
0000e0 d6 61 9e 3c b1 df 05 3c bb e2 6c 3c 0b 51 a2 bc
       0.019333761 0.008171008 0.014458354 -0.019814035
0000f0 3c a2 4c 3b e8 45 b3 3c 67 e3 8d 3c 20 de c0 bc
       0.003122463 0.02188392 0.017320348 -0.023543417
000100 b9 a8 53 3c 06 75 fd 3c 28 6f b0 3c e3 fa 5c 3c
       0.012918645 0.03093959 0.021537378 0.01348755
000110 84 e2 9e bc 66 e6 a0 b9 07 79 f4 bb 8a 58 c7 3c
       -0.01939512 -0.00030689238 -0.0074607166 0.02433421
000120 3b 04 84 3c d1 6e 50 3b da bf 30 bc 75 6f 7f 3c
       0.016115298 0.0031804333 -0.0107879285 0.015590538
000130 06 6f 8c 3c 78 cd 61 bb bd 57 c8 3c c9 fc 4a 3c
       0.017142784 -0.0034454744 0.0244559 0.01238937
000140 be 1e 6e bd cf 77 ed 3c 76 ef 3e 3c d3 00 de bc
       -0.058134787 0.028987793 0.011653772 -0.027100002
000150 72 86 56 38 85 35 e1 bc ab bd 57 3c f7 f0 f9 bc
       5.1146788e-05 -0.02749134 0.013167779 -0.030510409
000160 8e 5b 84 bc 75 a9 93 3c ee 5e df bc 93 66 a0 3c
       -0.016156938 0.01802514 -0.027266946 0.019580161
000170 5b f7 72 bc 44 de 78 bc ac 3f 24 bc 79 51 58 3c
       -0.014829482 -0.015189711 -0.010024946 0.013203018
000180 3a 22 dc bc 7c 10 cb bc 5b ea 15 3c ea 6d 81 3a
       -0.02687179 -0.024788134 0.009150113 0.0009874676
000190 de 9e 22 3c 4a 60 97 bb 96 61 ac bb cd e0 99 bc
       0.009925572 -0.004619633 -0.0052606566 -0.018783951
0001a0 99 d3 b0 3a e5 6d 1e bc 17 30 e2 3a d7 ab e0 3c
       0.0013490795 -0.009669756 0.0017256764 0.02742569
0001b0 3e ab 49 3c 93 35 c6 bc 65 cc 58 3b 2b 9f bf bb
       0.012308894 -0.024195468 0.0033080813 -0.0058478317
0001c0 cc f2 8c bb 22 c7 31 3c 7a 0b 41 bc e6 67 08 3c
       -0.0043014046 0.0108507 -0.011782521 0.008325553
0001d0 cb c9 ff 3a ae c4 c6 bc b8 bc 95 3c d7 c6 ca bb
       0.0019515095 -0.024263706 0.018278465 -0.0061882543
0001e0 0a 1f e9 3b 8a 3a 29 3b 9c 5f 76 bc 2c a0 37 3c
       0.007114296 0.0025822246 -0.0150374435 0.011207622
0001f0 37 0e aa 3b f1 70 0e bd 70 bf de bb 15 1e f6 3c
       0.005189683 -0.034775678 -0.0067977235 0.030043641
000200 7d ac 2f 3c d4 21 f3 bb 64 56 76 3c ff 87 a1 3c
       0.010722277 -0.007419804 0.015035246 0.019718168
000210 eb 6b ae 3c 73 14 ef 3c f3 b2 08 bd 13 09 ba 3c
       0.021291694 0.029184556 -0.033373784 0.022709405
000220 95 8d 5f ba 80 92 73 bd 6d af 5c 3c 1d cf 93 3c
       -0.0008527872 -0.059465885 0.013469559 0.018043095
000230 f0 be 02 bd 28 3b 57 bc e6 f5 5f bc 08 f6 10 bb
       -0.031920373 -0.013136663 -0.013669467 -0.0022119302
000240 f0 ac 97 bb 52 7b 5c 3b 7f 4d 03 3c c4 e0 9d 3c
       -0.00462877 0.003364284 0.008014082 0.019272216
000250 8a 7b 01 3c 3f 23 b1 3c 28 c3 81 3c 2d 36 47 bc
       0.007902989 0.021623252 0.015840128 -0.012158913
000260 0c 4a 30 bb d0 ac a4 bc 2e e8 8d 3c 09 7b 58 3a
       -0.0026899604 -0.020101935 0.017322626 0.000825808
000270 ac e4 ef 3b 7d 3b 49 3c 86 d0 aa 3a 79 5b fa bc
       0.007320961 0.0122822495 0.0013032116 -0.030561196
000280 f8 82 79 bc 18 53 d6 3c 0d cc bd 3c 75 a0 e2 3b
       -0.015228979 0.026162669 0.023168588 0.0069161006
000290 8c 56 91 b8 a0 99 e7 ba ba c2 a7 bc ea d7 ec 3c
       -6.9302594e-05 -0.0017669685 -0.020478595 0.02891155
0002a0 c7 cf ea 3b 0a 1c b4 3c 85 1f c4 3c fa 55 41 3c
       0.0071658823 0.021986026 0.023940811 0.011800284
0002b0 8b 22 66 3c 0d 6a a7 3c ec 02 b7 3c 70 8e 9c 3b
       0.014046322 0.020436311 0.02234026 0.004777722
0002c0 b5 12 a8 3c bb f4 1c 3c ea d6 31 bd 52 99 8d 3c
       0.020516733 0.009579833 -0.04341785 0.017285023
0002d0 d5 b0 6f bc bd 63 ba bb 8c a8 a6 bb 11 8d fb bc
       -0.014629562 -0.0056881593 -0.0050860103 -0.030706914
0002e0 67 81 ca bc bf ea f2 3c ae d2 92 3c cd 52 f7 3b
       -0.024719907 0.029652951 0.017922726 0.0075477124
0002f0 96 4f 30 3c 87 ab 31 3c ea 80 cf bc de b4 9e 3c
       0.010761162 0.010844118 -0.025330026 0.019373354
000300 71 fa 47 3c da ce 5a 3b 68 e5 8c 3c 32 49 19 3c
       0.012205706 0.0033387453 0.017199233 0.00935583
000310 08 61 a9 3c 60 c7 3b 3c 0f bb ab 3b 0f 0c 17 3c
       0.02067615 0.011461109 0.005240805 0.009219184
000320 de ec d1 bb 4f e0 f8 3c 14 4b 94 bc f6 6a a2 3c
       -0.0064064106 0.030380396 -0.018102206 0.019826394
000330 af 80 47 bb 1c f3 12 bb 98 46 3a 3b cc d0 ed 37
       -0.0030441692 -0.0022422737 0.0028423425 2.834983e-05
000340 c2 ea d3 bc 0d a1 22 3b a7 b3 aa bc eb 74 87 bb
       -0.025868777 0.0024815232 -0.020837618 -0.0041338108
000350 2a 5d 9f bc 72 91 40 bb 48 fd d1 3b 13 5e 07 3d
       -0.019453604 -0.0029383567 0.0064083673 0.0330487
000360 78 ea 76 bb 3e 1a d1 3b 7c 1b 51 3c 09 de d3 bc
       -0.0037676375 0.006381302 0.0127629 -0.02586271
000370 5b 5b 04 bd 7d c2 99 3b d6 3d 7a 3c 63 48 2f 3b
       -0.032313686 0.0046923743 0.015273532 0.0026746027
000380 87 7d 8f 3c 4a b4 45 3c e2 5e c1 3b 8a bd 07 3c
       0.01751591 0.01206691 0.0059012035 0.008284936
000390 da 98 b4 bb a8 0c db bb 09 0c 85 3c 40 a1 52 bc
       -0.0055113854 -0.0066848584 0.01624109 -0.012855828
0003a0 40 7d 30 bb c6 ca 7b bb
       -0.0026930124 -0.0038420423
