VLSI23_journal/intuitivechip_classifier_sensor/SNN_ep-50-isize-2-16-12-hsize-256-bsize-32-lr-0.001-tmax_ms-10000.0-Ts-500.0-k-6-denoise-500-dsetPath-sensor_1b_pdms_N5b_itail_50nA_squ_indentperiod-trunc-1600/chip-classifier-test-5-best.pt (torch, 666487 bytes, 8 tensors)

thr_h_1 f4 [256]
000000 00 00 80 3f 00 00 80 3f 00 00 80 3f 00 00 80 3f
       1.0 1.0 1.0 1.0
000010 00 00 80 3f 00 00 80 3f 00 00 80 3f 00 00 80 3f
       1.0 1.0 1.0 1.0
000020 00 00 80 3f 00 00 80 3f 00 00 80 3f 00 00 80 3f
       1.0 1.0 1.0 1.0
000030 00 00 80 3f 00 00 80 3f 00 00 80 3f 00 00 80 3f
       1.0 1.0 1.0 1.0
000040 00 00 80 3f 00 00 80 3f 00 00 80 3f 00 00 80 3f
       1.0 1.0 1.0 1.0
000050 00 00 80 3f 00 00 80 3f 00 00 80 3f 00 00 80 3f
       1.0 1.0 1.0 1.0
000060 00 00 80 3f 00 00 80 3f 00 00 80 3f 00 00 80 3f
       1.0 1.0 1.0 1.0
000070 00 00 80 3f 00 00 80 3f 00 00 80 3f 00 00 80 3f
       1.0 1.0 1.0 1.0
000080 00 00 80 3f 00 00 80 3f 00 00 80 3f 00 00 80 3f
       1.0 1.0 1.0 1.0
000090 00 00 80 3f 00 00 80 3f 00 00 80 3f 00 00 80 3f
       1.0 1.0 1.0 1.0
0000a0 00 00 80 3f 00 00 80 3f 00 00 80 3f 00 00 80 3f
       1.0 1.0 1.0 1.0
0000b0 00 00 80 3f 00 00 80 3f 00 00 80 3f 00 00 80 3f
       1.0 1.0 1.0 1.0
0000c0 00 00 80 3f 00 00 80 3f 00 00 80 3f 00 00 80 3f
       1.0 1.0 1.0 1.0
0000d0 00 00 80 3f 00 00 80 3f 00 00 80 3f 00 00 80 3f
       1.0 1.0 1.0 1.0
0000e0 00 00 80 3f 00 00 80 3f 00 00 80 3f 00 00 80 3f
       1.0 1.0 1.0 1.0
0000f0 00 00 80 3f 00 00 80 3f 00 00 80 3f 00 00 80 3f
       1.0 1.0 1.0 1.0
000100 00 00 80 3f 00 00 80 3f 00 00 80 3f 00 00 80 3f
       1.0 1.0 1.0 1.0
000110 00 00 80 3f 00 00 80 3f 00 00 80 3f 00 00 80 3f
       1.0 1.0 1.0 1.0
000120 00 00 80 3f 00 00 80 3f 00 00 80 3f 00 00 80 3f
       1.0 1.0 1.0 1.0
000130 00 00 80 3f 00 00 80 3f 00 00 80 3f 00 00 80 3f
       1.0 1.0 1.0 1.0
000140 00 00 80 3f 00 00 80 3f 00 00 80 3f 00 00 80 3f
       1.0 1.0 1.0 1.0
000150 00 00 80 3f 00 00 80 3f 00 00 80 3f 00 00 80 3f
       1.0 1.0 1.0 1.0
000160 00 00 80 3f 00 00 80 3f 00 00 80 3f 00 00 80 3f
       1.0 1.0 1.0 1.0
000170 00 00 80 3f 00 00 80 3f 00 00 80 3f 00 00 80 3f
       1.0 1.0 1.0 1.0
000180 00 00 80 3f 00 00 80 3f 00 00 80 3f 00 00 80 3f
       1.0 1.0 1.0 1.0
000190 00 00 80 3f 00 00 80 3f 00 00 80 3f 00 00 80 3f
       1.0 1.0 1.0 1.0
0001a0 00 00 80 3f 00 00 80 3f 00 00 80 3f 00 00 80 3f
       1.0 1.0 1.0 1.0
0001b0 00 00 80 3f 00 00 80 3f 00 00 80 3f 00 00 80 3f
       1.0 1.0 1.0 1.0
0001c0 00 00 80 3f 00 00 80 3f 00 00 80 3f 00 00 80 3f
       1.0 1.0 1.0 1.0
0001d0 00 00 80 3f 00 00 80 3f 00 00 80 3f 00 00 80 3f
       1.0 1.0 1.0 1.0
0001e0 00 00 80 3f 00 00 80 3f 00 00 80 3f 00 00 80 3f
       1.0 1.0 1.0 1.0
0001f0 00 00 80 3f 00 00 80 3f 00 00 80 3f 00 00 80 3f
       1.0 1.0 1.0 1.0
000200 00 00 80 3f 00 00 80 3f 00 00 80 3f 00 00 80 3f
       1.0 1.0 1.0 1.0
000210 00 00 80 3f 00 00 80 3f 00 00 80 3f 00 00 80 3f
       1.0 1.0 1.0 1.0
000220 00 00 80 3f 00 00 80 3f 00 00 80 3f 00 00 80 3f
       1.0 1.0 1.0 1.0
000230 00 00 80 3f 00 00 80 3f 00 00 80 3f 00 00 80 3f
       1.0 1.0 1.0 1.0
000240 00 00 80 3f 00 00 80 3f 00 00 80 3f 00 00 80 3f
       1.0 1.0 1.0 1.0
000250 00 00 80 3f 00 00 80 3f 00 00 80 3f 00 00 80 3f
       1.0 1.0 1.0 1.0
000260 00 00 80 3f 00 00 80 3f 00 00 80 3f 00 00 80 3f
       1.0 1.0 1.0 1.0
000270 00 00 80 3f 00 00 80 3f 00 00 80 3f 00 00 80 3f
       1.0 1.0 1.0 1.0
000280 00 00 80 3f 00 00 80 3f 00 00 80 3f 00 00 80 3f
       1.0 1.0 1.0 1.0
000290 00 00 80 3f 00 00 80 3f 00 00 80 3f 00 00 80 3f
       1.0 1.0 1.0 1.0
0002a0 00 00 80 3f 00 00 80 3f 00 00 80 3f 00 00 80 3f
       1.0 1.0 1.0 1.0
0002b0 00 00 80 3f 00 00 80 3f 00 00 80 3f 00 00 80 3f
       1.0 1.0 1.0 1.0
0002c0 00 00 80 3f 00 00 80 3f 00 00 80 3f 00 00 80 3f
       1.0 1.0 1.0 1.0
0002d0 00 00 80 3f 00 00 80 3f 00 00 80 3f 00 00 80 3f
       1.0 1.0 1.0 1.0
0002e0 00 00 80 3f 00 00 80 3f 00 00 80 3f 00 00 80 3f
       1.0 1.0 1.0 1.0
0002f0 00 00 80 3f 00 00 80 3f 00 00 80 3f 00 00 80 3f
       1.0 1.0 1.0 1.0
000300 00 00 80 3f 00 00 80 3f 00 00 80 3f 00 00 80 3f
       1.0 1.0 1.0 1.0
000310 00 00 80 3f 00 00 80 3f 00 00 80 3f 00 00 80 3f
       1.0 1.0 1.0 1.0
000320 00 00 80 3f 00 00 80 3f 00 00 80 3f 00 00 80 3f
       1.0 1.0 1.0 1.0
000330 00 00 80 3f 00 00 80 3f 00 00 80 3f 00 00 80 3f
       1.0 1.0 1.0 1.0
000340 00 00 80 3f 00 00 80 3f 00 00 80 3f 00 00 80 3f
       1.0 1.0 1.0 1.0
000350 00 00 80 3f 00 00 80 3f 00 00 80 3f 00 00 80 3f
       1.0 1.0 1.0 1.0
000360 00 00 80 3f 00 00 80 3f 00 00 80 3f 00 00 80 3f
       1.0 1.0 1.0 1.0
000370 00 00 80 3f 00 00 80 3f 00 00 80 3f 00 00 80 3f
       1.0 1.0 1.0 1.0
000380 00 00 80 3f 00 00 80 3f 00 00 80 3f 00 00 80 3f
       1.0 1.0 1.0 1.0
000390 00 00 80 3f 00 00 80 3f 00 00 80 3f 00 00 80 3f
       1.0 1.0 1.0 1.0
0003a0 00 00 80 3f 00 00 80 3f 00 00 80 3f 00 00 80 3f
       1.0 1.0 1.0 1.0
0003b0 00 00 80 3f 00 00 80 3f 00 00 80 3f 00 00 80 3f
       1.0 1.0 1.0 1.0
0003c0 00 00 80 3f 00 00 80 3f 00 00 80 3f 00 00 80 3f
       1.0 1.0 1.0 1.0
0003d0 00 00 80 3f 00 00 80 3f 00 00 80 3f 00 00 80 3f
       1.0 1.0 1.0 1.0
0003e0 00 00 80 3f 00 00 80 3f 00 00 80 3f 00 00 80 3f
       1.0 1.0 1.0 1.0
0003f0 00 00 80 3f 00 00 80 3f 00 00 80 3f 00 00 80 3f
       1.0 1.0 1.0 1.0

thr_o f4 [5]
000000 00 00 80 3f 00 00 80 3f 00 00 80 3f 00 00 80 3f
       1.0 1.0 1.0 1.0
000010 00 00 80 3f
       1.0

i2h.weight f4 [256, 384]
000000 2b a2 25 bd eb 11 89 bd 15 a3 29 3d 4d 12 b5 bd
       -0.04043786 -0.06692871 0.041415293 -0.08841381
000010 14 87 b6 3c 9b 92 fd 3a de b5 56 bd f5 fc 82 3d
       0.022281207 0.001934606 -0.052419536 0.06395904
000020 80 1a b0 bd f3 48 7c bc 5a 28 0a bd 17 70 aa bd
       -0.085988045 -0.015398252 -0.03372989 -0.08322161
000030 b5 73 94 bd 7d 36 ba 3d 13 f9 f7 bc dc 6b 66 bd
       -0.07248632 0.09092424 -0.030270135 -0.056255206
000040 9a f2 4a bd 28 7c 93 bc 43 55 aa bc fd 14 8a bd
       -0.04954777 -0.018003538 -0.02079261 -0.067422844
000050 e7 af 29 bd 4a 74 3c 3d 31 e3 57 bc b4 a0 a8 bd
       -0.04142752 0.04600934 -0.013176725 -0.08233777
000060 bf 9e 26 3d b8 47 13 bd 47 52 f6 ba 8d e2 bd bd
       0.040678736 -0.03595707 -0.0018792831 -0.09271727
000070 66 47 76 3c 8d a9 59 3d bb b1 13 3d da 2f ed 3c
       0.015031671 0.05314021 0.03605817 0.028953481
000080 58 71 58 3b 33 89 0a bd 8f 4b ff bc 43 f6 07 bd
       0.0033026543 -0.03382225 -0.031163959 -0.033193838
000090 fd c8 ad bc 3e 15 60 3d 4b c4 a9 ba aa 36 8c bc
       -0.021214003 0.054707758 -0.0012952177 -0.01711591
0000a0 f2 83 85 bd 0f ac b4 bd 01 9c a2 bd b9 d5 77 bd
       -0.06519307 -0.0882188 -0.07939912 -0.060506556
0000b0 31 70 4b bc 54 41 23 3d 25 2d 47 bd f5 7f f7 ba
       -0.012416885 0.039857224 -0.048627038 -0.0018882739
0000c0 07 c9 e4 3b 59 86 5d 3d 5d 32 a8 3d a7 bd f8 3c
       0.006981972 0.054083202 0.08212731 0.03036387
0000d0 ed 05 b2 3b fa 47 e0 bd 93 bc 04 bd 35 3c c8 3d
       0.0054328353 -0.109512284 -0.0324064 0.097771086
0000e0 b5 79 ef 3d 9d ca d2 bd 94 d2 94 bd 18 ff 60 3c
       0.11693136 -0.10292552 -0.07266727 0.013732694
0000f0 12 fc 77 bd 9c 7a fd 3d 40 e6 f1 bc c3 26 b8 3d
       -0.060543127 0.123769015 -0.029528737 0.08991768
000100 d8 cf 56 bd e4 b0 05 3d 9d 38 a3 ba a9 b7 a6 3b
       -0.05244431 0.0326394 -0.0012452785 0.005087812
000110 b3 15 5f 3c 5c c7 4c 3d 2f b0 ce bd 67 b0 06 3d
       0.013616013 0.04999481 -0.10092198 0.032883074
000120 20 ee 93 3d a8 20 25 ba ee 33 89 3d 77 69 be 3d
       0.07223153 -0.00062991166 0.06699358 0.092974596
000130 24 e1 72 bc bd 59 af 3d 24 7a 2d 3d cc 5f 75 bd
       -0.0148241855 0.08562038 0.04235281 -0.059905812
000140 89 cd e6 bc 5c 5e 1c 3e 58 1d bf 3d 06 d2 7f 3c
       -0.028174179 0.1527037 0.09331769 0.015614038
000150 3e f1 04 3d 45 83 09 3d 99 8f 81 3d e0 2f 43 bc
       0.03245663 0.033572454 0.06326217 -0.01191327
000160 54 ec 81 bd 4a 65 98 3d 6b 97 e1 3c 70 79 90 bc
       -0.06343904 0.07441194 0.027538022 -0.01763603
000170 47 3e 39 3d 64 41 9c bc 14 77 39 3d 85 26 9d bd
       0.045225408 -0.01907415 0.045279577 -0.07673363
000180 45 4f 12 bc 8e cd 4c 3c 53 23 0d 3d 33 c5 02 3b
       -0.008930032 0.01250018 0.034457516 0.0019953966
000190 1c d0 68 3d 7c 53 1e bd 96 47 75 3a 42 9b e2 3c
       0.056839094 -0.038653836 0.00093566754 0.027661923
0001a0 e9 47 53 3d ad b4 15 bd 61 4f 8a bd c6 22 c9 bd
       0.05158225 -0.03654926 -0.067534216 -0.09821086
0001b0 87 db 9b bd 1a 5c 1d 3d 8d 6b 86 3d a7 d8 47 3d
       -0.07610231 0.038417913 0.065634824 0.0487906
0001c0 35 44 8d 3d cc 98 8e bd 1e 0f 28 ba c7 1f cd 3d
       0.06897775 -0.069627374 -0.0006410944 0.10015827
0001d0 c9 ab 9a bd 04 c5 ad bd f4 e0 5d 3c a6 e7 44 bb
       -0.07552297 -0.084848434 0.013542403 -0.00300453
0001e0 bf 2b 21 bd 54 10 c7 3d a3 82 0a bd 86 d2 98 bd
       -0.03934836 0.09719911 -0.03381599 -0.07462029
0001f0 bd 4a cf 3d 12 6c 8e 3d aa 70 45 bc d8 57 3f 3c
       0.10121677 0.069542065 -0.012050787 0.011678658
000200 66 54 04 3d dc 5c ca 3d b6 fe 01 3d 2d cf 16 3d
       0.03230705 0.09880993 0.031737052 0.036818672
000210 6d 7a e8 3c 33 08 da bc 00 97 9b 3c 6b 67 91 bc
       0.02837869 -0.026615238 0.0189929 -0.017749509
000220 47 68 87 3c a4 ac 28 3c 31 b9 87 3d 5b 91 b2 3c
       0.016529215 0.010295067 0.06627119 0.021797827
000230 f6 26 e0 bd 46 32 b6 bb fb 9e d7 3c 5b 87 ab 3b
       -0.10944931 -0.0055601923 0.026320925 0.0052346415
000240 f7 ce 7d 3d 06 31 64 3c 60 af 5c 3d 1b 6b bc 3d
       0.061964955 0.013927704 0.053878188 0.09200116
000250 25 ac c0 bd ea 60 22 3d b0 88 e2 b8 c9 99 32 bc
       -0.09407834 0.039643206 -0.0001080198 -0.010900923
000260 33 22 51 3d 64 ec 4e ba c7 e2 54 3d 36 a9 b4 3d
       0.051058006 -0.00078935013 0.051974084 0.08821337
000270 be cf b4 bd 69 f8 d8 3c 5d 44 b0 bb ee f1 01 3d
       -0.08828686 0.026485639 -0.0053792433 0.031724863
000280 e3 c7 90 bd 47 ba b6 bd 9e dc 40 bc 8e c1 16 3d
       -0.07069375 -0.08922248 -0.011771349 0.036805682
000290 5f 76 67 3d a9 e5 f0 bb 47 9d c6 bd 68 c6 d6 3c
       0.05650937 -0.0073515964 -0.09697967 0.026217654
0002a0 85 f9 b7 3d 70 aa 9e bd ea c8 01 3d 7e 60 9a bd
       0.08983139 -0.07747352 0.031685747 -0.07537936
0002b0 d0 8c 58 3c 12 23 64 bd 88 d5 90 bd 5b 87 05 bb
       0.013217166 -0.05569751 -0.07071978 -0.0020374868
0002c0 2d e3 d6 3d f8 1f f4 3d d1 45 9e 3d 5f 9e 1a 3d
       0.10492549 0.1192016 0.0772816 0.03774869
0002d0 02 de 72 3c 6c 6f 59 bd d1 cf ae bd 53 70 cd 3a
       0.014823439 -0.053084776 -0.085357316 0.0015673734
0002e0 a7 7d 39 3d 44 d6 98 3c b4 52 15 bd 6a 1c 0e 3d
       0.045285847 0.018656857 -0.036455825 0.034695067
0002f0 dd e8 8c bc 39 f6 6c 3c 44 6e d1 bd 61 02 a7 bc
       -0.017200882 0.014463001 -0.102261096 -0.020386877
000300 e8 fe 03 bd 93 04 cb bd 89 64 9c 3d 46 1b 91 bd
       -0.03222552 -0.09912982 0.07636363 -0.0708528
000310 22 03 b1 bc bd e2 7e bd 8a 59 d8 bd 3e 22 bc 3b
       -0.02160794 -0.062227953 -0.10563953 0.0057413867
000320 5e 62 f4 3c 25 f6 40 bd 4d 81 63 bd d7 c9 73 3d
       0.029832061 -0.04710974 -0.055543233 0.05951866
000330 54 93 35 bd 63 43 64 bd 6d 88 1d bd 7c f3 3b 3c
       -0.044329956 -0.055728327 -0.038460184 0.011471625
000340 00 4e 5d 3c 2d c5 63 bd bf c6 e8 3d f3 65 11 3d
       0.013507366 -0.055607963 0.11366033 0.035497617
000350 f7 cf 9d 3d 57 c5 e7 bd dd ad 15 3c 0c 8d 8f 3d
       0.07705682 -0.113169365 0.0091356905 0.070093244
000360 f7 df 17 3d 63 7c c7 bd d9 59 ce 3d 03 63 16 3d
       0.037078824 -0.09740522 0.10075731 0.03671552
000370 b6 07 a9 bc a5 ce b0 3d 33 8c 51 bd 52 8d b8 3b
       -0.02063356 0.08633164 -0.051159095 0.005632081
000380 64 d2 6c 3d 06 92 fa bc 93 dc 4c 3d 67 2f 59 3d
       0.05781783 -0.030587208 0.050015043 0.053023722
000390 dd cf b0 bc 66 d7 9d bd ff 0a ca bc 84 f3 68 3b
       -0.021583492 -0.077070996 -0.024663446 0.0035545537
0003a0 10 88 b3 bc 0a c6 6c 3d 53 08 32 bd 02 5c 2b 3d
       -0.021915466 0.057806052 -0.04346497 0.041835792
0003b0 3f ec fd bb 88 83 80 bd dc 91 15 3c c1 12 ce bd
       -0.00774911 -0.062750876 0.009129014 -0.10062171
0003c0 5d e9 87 ba 8f 64 fe 3c c8 14 bc 3d b8 3c c5 3d
       -0.001036923 0.03105381 0.09183651 0.09630722
0003d0 87 eb 84 bd 28 8b b8 bd 6f 0f cb 3c 2e c2 c0 3d
       -0.06490236 -0.09010917 0.024787633 0.09412037
0003e0 31 16 c0 3d 1d a4 48 bd e2 14 ed bb cb 29 cb 3a
       0.09379233 -0.048984636 -0.0072351554 0.0015500126
0003f0 0e c0 b8 3a f8 6d 6a bd 5f 32 c1 bc e7 93 3b bd
       0.0014095323 -0.05723378 -0.02358359 -0.045795348

i2h.bias f4 [256]
000000 8f 8e c0 3c 32 48 00 3c 0e 68 27 bc 3d f8 5a bc
       0.023505477 0.007829713 -0.01021768 -0.013364849
000010 b2 9c c9 39 33 07 2b bc 05 63 9d 3b c8 c8 55 bc
       0.00038454455 -0.010438728 0.004803064 -0.013048358
000020 55 6c bc bc 08 9a 00 ba 21 b4 73 bc a7 3e 9a 3a
       -0.023000875 -0.0004905765 -0.014874489 0.001176794
000030 b9 44 87 3c f4 86 a5 b7 fe 79 04 3c 44 4a fc 3c
       0.016512262 -1.9732375e-05 0.008085726 0.030797131
000040 da 0a e4 3c 4e 36 84 3c 87 8c 07 3d 7c ce ad 3c
       0.027837206 0.016139176 0.033093 0.021216623
000050 c5 02 8a bc 5f 0c af ba 81 a5 fb 3b 1b 6d 90 3b
       -0.016847024 -0.0013355127 0.0076796417 0.0044075376
000060 e4 54 81 3b a2 8c fc 3b c3 b5 d7 ba 60 f1 36 3c
       0.0039468873 0.0077071944 -0.0016457367 0.011165947
000070 db 2f a8 bc 70 2b 11 3b b7 74 bd bc c7 34 28 3d
       -0.020530632 0.0022151135 -0.023126943 0.041065957
000080 89 7b b4 b9 53 f5 df bc d3 cf 99 3b a4 86 88 3c
       -0.00034424316 -0.02733866 0.004693964 0.016665764
000090 ba 4a fc ba 87 e6 a7 3c 1b e2 bc 3c c1 0a ae 3b
       -0.0019248344 0.020495666 0.023057034 0.0053113406
0000a0 98 b6 bf bc 55 2d 43 ba 5e b3 a2 bb 48 ec 95 3c
       -0.023402497 -0.00074454147 -0.00496523 0.018301144
0000b0 65 81 a5 bc 1e 69 16 3d 7f 56 d3 bb 8c de 6f bb
       -0.020203302 0.03672134 -0.00644952 -0.0036601154
0000c0 f4 f4 4d 3c 04 e0 bc 3c 08 04 52 3c ac e9 02 3d
       0.012570608 0.023056038 0.012818344 0.031961128
0000d0 b8 ba 98 bc ca a5 cc bb 7d be db 3c 70 12 d4 bb
       -0.018643722 -0.0062453495 0.02682423 -0.0064719245
0000e0 88 a4 e5 bb a1 ee 59 3c 01 6c ac bc 42 94 a0 3c
       -0.007008139 0.0133015225 -0.021047594 0.019601945
0000f0 60 61 e1 bc 1a 51 6e 3c e9 4c 68 3c 72 cd b0 bc
       -0.027512252 0.014545703 0.014178493 -0.021582339
000100 cf a1 82 bb 54 5f 8c 3c 1d 52 5d 3c 47 7d 3a 3c
       -0.0039865742 0.0171353 0.013508347 0.0113824075
000110 28 3f 4b 3c f5 26 05 3c fa 87 12 3c b6 90 8c 3b
       0.012405194 0.008126964 0.008943552 0.004289712
000120 ee ec 30 3c 0d f0 84 3c cd ef cd 3c be a1 08 3d
       0.010798676 0.016227746 0.02513876 0.033357374
000130 91 77 34 3c ef 2f 93 3c a5 0c 9d 3c 75 52 b9 bc
       0.011014835 0.017967192 0.019171068 -0.022622326
000140 72 12 e1 3b 65 9c a0 3b 1e 11 02 3c 11 c4 04 3d
       0.006868654 0.004901456 0.007938651 0.032413546
000150 12 55 b8 3c 8b 17 d7 3c 44 64 3a 3b 31 ab a6 bc
       0.022501502 0.026256343 0.002844111 -0.020345302
000160 d9 d2 f7 3c 13 47 80 bc 02 91 3d 3c 72 47 6d 3c
       0.030251907 -0.01565889 0.011570217 0.014482366
000170 dc a5 70 3b 9a 4c 57 3c 55 4e 37 3c b2 e5 c7 3c
       0.0036719954 0.013140822 0.011188109 0.02440152
000180 ba 2c b6 bb f4 7e 4d bc 27 7c 26 3d da 38 45 bc
       -0.005559531 -0.012542475 0.040645745 -0.01203748
000190 f6 ec 46 3c 97 49 7e bb 91 bf 1a 3d ab ee 26 bc
       0.012141457 -0.0038801187 0.03778035 -0.010188739
0001a0 0c 2e c2 3b 2d d9 d9 3a d6 db 65 3b 79 30 30 3c
       0.0059258994 0.001662051 0.003507366 0.010753744
0001b0 56 c7 c4 bb be ca 8d bc b5 65 52 bc da 2f cb 3c
       -0.006005208 -0.01730859 -0.012841632 0.02480309
0001c0 d3 3b 1a 3c b7 8e 93 3c bd 5e a7 bc b3 f1 96 bc
       0.009413677 0.018012388 -0.020430917 -0.018425798
0001d0 2a 79 48 3c 22 36 10 3d 9c b0 b0 bb 72 14 ca 3c
       0.012235919 0.035207875 -0.005392147 0.024667952
0001e0 0e ab 9b 3c 79 53 cf 3c 6e f8 ec bb 1e 6c 8a bc
       0.019002464 0.025308358 -0.0072317636 -0.016897257
0001f0 79 97 ec 3b 4c 71 9d 3c 16 d0 a4 3c 95 ee b8 3b
       0.0072202054 0.019219063 0.020118754 0.0056436756
000200 bd fc b4 bc db 1b 7c bc 69 33 4e bb f9 e9 56 bb
       -0.022093171 -0.015387501 -0.0031463748 -0.0032793267
000210 28 3f 3f 3d 03 6c 9a bc 27 93 4d 3a 15 56 6d 3c
       0.04669109 -0.018850332 0.0007842057 0.014485856
000220 25 d1 fc 3b c7 fd 9c 3c 1b 62 5b 3c a5 00 92 bb
       0.0077153617 0.01916398 0.013390089 -0.0044556432
000230 49 59 bc b9 53 6b 8d 3c 48 d5 af bc fd 15 9a 38
       -0.00035924677 0.01726309 -0.021464005 7.347388e-05
000240 25 2f a7 3b 4d 7d 8b 3c 2c 8a 13 bc 4d 7a 8b 3c
       0.0051020556 0.017027522 -0.009005111 0.017026091
000250 bc 81 99 3c 73 0b be bb cf 3d b5 3c 4b 2c be bc
       0.01873862 -0.0057997047 0.0221242 -0.02321448
000260 c4 f0 93 bc 28 2b 94 3c 1b e8 c2 3b 59 ec 8e bc
       -0.018059142 0.018086985 0.0059480793 -0.017446684
000270 2e 2e fb bb e0 75 9b ba 1f 6f 5e bc 10 73 d8 3c
       -0.007665417 -0.0011860691 -0.013576298 0.026422054
000280 e6 17 02 bc 1a 91 69 bb 23 22 e0 3c 8f 70 b1 3c
       -0.007940268 -0.0035639466 0.027360028 0.021660117
000290 ed a2 39 3b 0a 12 bf 3c dd 58 0c bd 58 20 3f 3c
       0.002832587 0.023324031 -0.034264434 0.011665426
0002a0 cb a5 b4 3a e0 40 3c 3c 5e d1 e6 3a 5a 53 2a 3d
       0.001378232 0.011490077 0.0017610004 0.041583396
0002b0 80 b9 03 bd 17 57 4b bc d2 92 b2 bc 77 98 74 bb
       -0.03215933 -0.012410901 -0.021798525 -0.0037322321
0002c0 6c ad bf 3a 76 ec 6e 3c fe 36 a8 bb 0c f4 12 bd
       0.0014623827 0.014582744 -0.0051335087 -0.035877272
0002d0 fc d4 17 3d 22 c4 4d ba 57 3b f9 3c 2d 3e 76 bc
       0.037068352 -0.00078493555 0.030423803 -0.015029472
0002e0 54 05 7f bc 99 a5 04 bc a3 4e 38 3c 57 38 fa bb
       -0.015565235 -0.008096122 0.011249217 -0.0076361108
0002f0 c0 2c ce 3c b1 99 f0 3c 29 a6 bf 3a 86 04 1d bb
       0.025167823 0.02937016 0.0014621663 -0.0023958995
000300 e9 a0 fe bb 1b f6 c2 3b 39 5c 67 3c c7 6e 36 bc
       -0.007770647 0.005949748 0.014121109 -0.01113481
000310 75 0a 81 bc 2d 55 11 3d 22 b5 38 3c 67 d9 04 3b
       -0.015752057 0.03548162 0.011273654 0.0020271183
000320 ee 6f 9c 3c bd 7b 70 3c c5 7d 19 bc 8a 05 6d ba
       0.019096341 0.014677939 -0.009368365 -0.0009041658
000330 7b 85 7d 3c 7a d0 29 3d 7d f2 f7 3b 13 bf 01 3d
       0.015473719 0.041458584 0.0075667487 0.031676363
000340 23 bb 11 3d 54 5a 4b 3b 4c 91 ba 3c a1 d1 39 3d
       0.035578858 0.0031029182 0.022774361 0.045365933
000350 db ee 22 bc 92 35 a1 3c 00 4a 9d 38 e7 8f ea 3c
       -0.009944643 0.019678865 7.500127e-05 0.028633071
000360 08 be 24 3c c8 b6 fb 3c 2d 5c cd 3c 71 a9 fe bb
       0.010055073 0.030726805 0.025068367 -0.007771664
000370 52 4b b2 3c 88 9d f5 3a c7 25 0e 3b d2 62 9b 3c
       0.021764431 0.0018738965 0.0021689998 0.01896802
000380 32 d5 87 3b 3b 7d 9b bc 12 e1 4e 3c 6b 5c 94 39
       0.004145288 -0.018980613 0.012626903 0.00028297617
000390 65 ce 3a 3c ef ec a7 bb b2 6c 33 bc 33 d8 a3 3c
       0.011401747 -0.00512468 -0.010951208 0.020000553
0003a0 31 82 97 3c b9 24 c2 3c 48 df 0c 3c 86 43 a9 bb
       0.018494697 0.023699151 0.008598156 -0.00516552
0003b0 6c 40 16 3d ed eb f0 3b 8e 76 a7 3c 83 a6 2f bc
       0.03668253 0.0073523433 0.020442273 -0.010720852
0003c0 4a 73 9c bb c2 06 85 bb 8d 43 ef bc 8c 15 2e 3c
       -0.0047744857 -0.0040596435 -0.029207015 0.010625254
0003d0 fa 34 bf 3b d4 12 14 3c 83 60 0c bc 20 4d 2f bc
       0.0058351727 0.009037692 -0.008567932 -0.01069954
0003e0 57 ae 89 3c 95 75 0c ba 68 c5 a3 3b 55 5d 1f 3c
       0.016806765 -0.0005358097 0.004997898 0.009726842
0003f0 3f 9e c3 3b af 1d 92 3a ef 4b 89 bc 06 13 df bb
       0.005969792 0.0011147762 -0.01675984 -0.0068076877

h2o.weight f4 [5, 256]
000000 1c 0b 81 3d 40 7d 0b 3e b9 d7 c8 bc 27 d1 f4 3d
       0.06300947 0.13621998 -0.024516927 0.11953955
000010 7e 2b 81 3d 40 d3 13 3e 0b bb 13 be 33 e3 e3 3d
       0.063071236 0.14436054 -0.1442682 0.11127319
000020 29 03 30 3d 53 8c c7 bd 72 f0 3a 3d e7 5f 0a 3e
       0.042971764 -0.097435616 0.045639463 0.13513146
000030 2a 83 b7 bd cd 15 f4 bd 46 d6 2f bd 15 a8 08 be
       -0.089605644 -0.11918221 -0.042928956 -0.13345368
000040 cf e1 cc bd 6f ac 4d 3d ac 8c 61 3b 83 1f 1e bd
       -0.10004007 0.050213274 0.0034416122 -0.03860427
000050 e2 42 0f 3d 1e 5a 0d 3e 4c 7d f4 bb 18 1b 0c 3e
       0.034975894 0.13803908 -0.0074612256 0.1368221
000060 a5 24 6b 3d 5d 85 15 3e fd cd 9a bd b8 2d d1 bb
       0.057407994 0.14601655 -0.075588204 -0.006383624
000070 eb 1b 20 3e 20 cb 9a bc 76 a9 e0 bb 64 e0 93 bd
       0.1563565 -0.018895686 -0.006856139 -0.072205335
000080 f0 fa 4c 3d 2e c9 ea 3d af 2b d1 3d 2f c6 d0 3c
       0.050044 0.11464153 0.1021341 0.025485126
000090 e9 c2 0c 3e cf d3 b7 3d 81 11 09 3d 1c 85 7f bd
       0.13746227 0.08975946 0.03346396 -0.062382802
0000a0 17 7a 20 3e 0e ab 1c bd e1 b1 5b bd aa 78 17 be
       0.15671574 -0.038249068 -0.053636435 -0.14792123
0000b0 fb 8c c2 3d 09 fc 2b be 74 5a 0d 3e 7e 65 6e bd
       0.09499546 -0.16795363 0.13804036 -0.05820226
0000c0 8e 61 90 bb ed 8c 3e bd 8e 17 92 bd 8b 51 90 bd
       -0.0044061607 -0.046521116 -0.07133399 -0.07046803
0000d0 5a dc c3 bc 20 8f df 3d 1a 06 27 3d bf b1 be 3d
       -0.023908783 0.10915971 0.040777303 0.09311246
0000e0 8c c9 06 3e 67 65 f5 bd 7f 0b 77 3c e0 88 db 3d
       0.13162822 -0.119822316 0.0150784245 0.10719466
0000f0 be e3 b3 bc 21 8b 30 3d 00 8a 09 be 1d 11 0e 3e
       -0.021959182 0.043101434 -0.13431549 0.13873716
000100 0b 2e e4 bd 19 68 dd bc 62 9f 5d 3c 1a 1e 02 3e
       -0.111415945 -0.027027177 0.013526769 0.12706795
000110 70 27 90 3d 31 a0 54 bd 40 bc d3 3d 6f fb df bd
       0.07038772 -0.051910583 0.1033864 -0.10936629
000120 69 86 03 be 9f 58 08 be e5 3e a4 bd 21 df a1 bc
       -0.12844242 -0.13315056 -0.08019809 -0.019759716
000130 11 11 f5 3d a3 ab 3a be 00 e5 4b 3d 13 56 cc bc
       0.11966146 -0.18229537 0.04977894 -0.024943387
000140 06 b4 d1 3d 87 e4 06 be 66 3f 00 3d 89 a1 0b be
       0.10239415 -0.13173114 0.03131046 -0.1363584
000150 27 bc 41 bd 1d 45 1f 3d 33 01 b4 bd 59 26 5f bd
       -0.047298577 0.03888427 -0.08789291 -0.05447993
000160 87 b3 a9 3c c3 3d eb 3d 7f 06 aa bd 96 2b 87 3d
       0.020715488 0.114863895 -0.0830202 0.0660011
000170 7e 37 d7 3c 93 30 99 bd 29 ac 0f be ac 99 7d 3d
       0.026271578 -0.07479968 -0.14030518 0.06191413
000180 ac 96 8e 3d 33 07 9d 3d 5e 10 0d be 97 87 e5 bd
       0.06962332 0.07667389 -0.13775775 -0.11207502
000190 6d 79 86 bd c8 02 22 bd ce 52 43 be 2c 94 1a be
       -0.06566129 -0.039553434 -0.19074556 -0.15095586
0001a0 07 23 26 3d be 3a 15 3e 1d c6 ea 3d fc d0 a4 bd
       0.04056075 0.1457319 0.11463568 -0.08047673
0001b0 a5 6d 21 bc 39 60 bb 3d 81 17 ca 3d 9c 28 05 bd
       -0.009852801 0.091492124 0.09867764 -0.03250943
0001c0 51 d5 0c 3e 2f 6f 90 bd 9c 73 7c bd 65 98 ea 3b
       0.13753249 -0.070524566 -0.06163369 0.00715928
0001d0 7b 28 93 3d 4c 8a 70 3d 2c d1 0b 3e 25 30 fd bd
       0.071854554 0.05872564 0.13654011 -0.123626985
0001e0 0b 06 89 bd 1f a9 f6 bd 36 0b 11 3e 71 e6 06 3e
       -0.06690606 -0.12043976 0.14164433 0.13173844
0001f0 b6 51 ca bc 17 95 7b bd 85 8e 8e bc da c1 11 3d
       -0.024697166 -0.06142148 -0.017401943 0.035585262
000200 44 80 aa bd 05 fa 63 bc 6e 38 05 be 66 97 40 3d
       -0.08325246 -0.01391459 -0.13009807 0.047019385
000210 8d 05 81 bc f0 84 09 3e f0 14 17 3e 7f 82 a8 bd
       -0.015749717 0.13429618 0.14754081 -0.08228015
000220 1b f1 00 3e c7 fe 1d be 89 c3 1b 3d 15 4a 76 bd
       0.12591974 -0.15429221 0.038028274 -0.060129244
000230 f5 87 0c 3d c9 da bf bd 6b 22 b2 bd d0 ff 6f 3d
       0.034309346 -0.09367902 -0.08697971 0.05859357
000240 aa 8d 8c bd 7f 02 42 bc fb 73 b8 bd bd a5 ce bd
       -0.06862958 -0.011841415 -0.090064965 -0.10090206
000250 9b 26 45 3d 5d d4 f0 3c 54 64 f3 3d ba 80 58 3d
       0.04813252 0.029398138 0.118843704 0.05285714
000260 07 10 cb 3d d7 fc ea bd 86 4d 32 3d 50 da 24 3d
       0.09915166 -0.114740066 0.043530963 0.04024726
000270 e2 7a ca 3d 6e 5b 2b 3d eb b3 00 3e a9 f1 1b be
       0.09886719 0.04183524 0.12568633 -0.15228905
000280 0d e8 61 bd 00 d5 cd 3d ac 43 c6 3c c4 18 e3 bc
       -0.05515294 0.10050392 0.02420219 -0.02772177
000290 12 9f f0 bd 24 8d b0 bd a4 81 9b 3d 4e 07 15 3d
       -0.1174909 -0.086206704 0.07593086 0.03638392
0002a0 b4 c7 eb 3d ff db 13 be ad ee 9d bd 4c 60 26 3c
       0.115127 -0.1443939 -0.077115394 0.010154795
0002b0 25 d1 8b 3d 76 04 bc 3d 2d a8 2f 3e 4b 02 d0 3c
       0.068270005 0.09180538 0.17153998 0.025391718
0002c0 85 e7 06 3d 65 60 44 bd a6 76 80 3c 50 b4 10 3e
       0.032935638 -0.04794349 0.015681576 0.14131284
0002d0 4c 24 c6 3c 1e d5 a7 bd 98 08 57 bc fd a4 7c 3d
       0.02418723 -0.08194946 -0.0131246075 0.061680783
0002e0 7f d2 ed 3d af 63 bc bc a4 31 1a be 1d 45 e4 3d
       0.116124146 -0.022996752 -0.15057999 0.11145995
0002f0 e0 67 e0 bb 2f b3 1a be 98 3d 66 3d 18 28 fd 3d
       -0.0068483204 -0.15107416 0.056211084 0.12361163
000300 e7 e6 2d bd 49 5a f3 3d 6a 41 23 be a1 a4 8d bd
       -0.042456534 0.11882455 -0.15942922 -0.06916166
000310 76 e6 f7 3d bb 69 c7 3d 50 c4 97 3b 34 69 e8 bd
       0.12104504 0.09736963 0.0046315566 -0.11348191
000320 53 38 0f be 66 e0 5e bd 0a 28 c9 3d 36 6a 21 3d
       -0.1398633 -0.05441322 0.0982209 0.03940793
000330 c5 6a 17 be af 60 44 3e 0d 9b d9 3c ef e4 db bd
       -0.14786823 0.19177507 0.026563192 -0.10737025
000340 b2 8d f6 bd 6f 70 05 3e 70 3f 0d 3e e4 6b 1e 3e
       -0.12038745 0.13031171 0.1379373 0.15470845
000350 bf 54 34 b9 3f 65 eb bd 52 bf 1f 3e d7 35 d4 bd
       -0.00017197708 -0.114939205 0.15600327 -0.10361832
000360 be ab 67 bd c2 82 0c bd aa f5 88 bd f0 2e 0b 3e
       -0.05656027 -0.034304388 -0.06687482 0.13592124
000370 3a 43 b2 bd 7b 3f 14 3e 07 89 d2 3d 4a 5f d3 bd
       -0.08704229 0.14477341 0.10280042 -0.10320909
000380 2f e6 df 3d db f1 b8 3d a8 2c d1 3c 36 4b ac bc
       0.10932576 0.09030505 0.02553399 -0.021031957
000390 44 74 aa bc 21 b6 39 bd ba 28 7e bd f0 c3 0f be
       -0.020807393 -0.045339707 -0.06205056 -0.14039588
0003a0 b9 44 b6 bd 76 66 ce 3d 1d 90 d6 bd c8 64 09 bd
       -0.088998266 0.100781366 -0.10476706 -0.033543378
0003b0 36 4c 0e be 23 c0 45 3d c7 f2 ba bd 35 2c d4 bd
       -0.1389626 0.04827894 -0.09128337 -0.10359994
0003c0 0e e7 dc 3d 0f dc 14 3e f4 df a3 3d d0 3a de bd
       0.10786258 0.1453707 0.080017 -0.10851061
0003d0 bb 17 23 be a8 42 ba 3c ca 16 3f bc 07 e0 a0 bc
       -0.15927021 0.022736862 -0.011663148 -0.019638075
0003e0 36 f1 a7 bd c4 6f 52 3d cb 6a 23 be 79 27 36 bd
       -0.08200304 0.05137612 -0.15958707 -0.044471238
0003f0 30 b8 b1 bd 16 52 47 bd 74 21 e1 3d c4 c2 ba 3d
       -0.08677709 -0.048662268 0.10992709 0.0911918

h2o.bias f4 [5]
000000 bd 1e 7e bc f3 06 30 b9 f5 90 3a 3c c0 cb 86 3b
       -0.015510258 -0.00016787257 0.0113870995 0.0041136444
000010 a0 a7 c0 3c
       0.02351743

h2h.weight f4 [256, 256]
000000 2e 81 cc bc ff 70 d4 bd 95 b5 25 bc 58 05 59 bd
       -0.024963941 -0.10373115 -0.010114093 -0.05298361
000010 00 84 6e bd fc a8 86 bd 4b f7 2f ba 97 b5 49 3e
       -0.058231354 -0.065752 -0.000671257 0.19698177
000020 92 00 08 3e 83 02 a5 bc 7a 44 a9 3c 1e a7 15 3d
       0.13281468 -0.0201428 0.020662535 0.03653633
000030 b7 3c 56 3c 6e 14 d3 bd 28 a3 6a 3d 5f 8a 62 3c
       0.013075999 -0.10306631 0.057284504 0.013826936
000040 d4 a8 1b 3d b5 ae df 3b b1 30 4a be a5 2a d4 3d
       0.038002804 0.0068262466 -0.19745137 0.10359696
000050 14 8b f4 bd 4d 7b d6 bd b2 4b 97 bd 93 18 f1 bb
       -0.119405895 -0.104727365 -0.073874846 -0.007357666
000060 ea c3 32 3d fe 95 d2 bd ba 55 5c 3b 50 9e 5b 3d
       0.04364387 -0.10282515 0.0033620433 0.053617775
000070 b6 a5 8c bd 5a 95 89 3d d2 bd 97 3d 03 39 db 3b
       -0.06867544 0.0671794 0.07409252 0.006690146
000080 b2 3a 62 bd 13 bf 5d bd d4 f3 ab 3c b5 45 df bc
       -0.055231757 -0.0541373 0.02099029 -0.027254919
000090 35 a9 c0 3d e5 de e7 3c eb 56 0a 3d 52 a9 f5 bc
       0.09407274 0.028304527 0.033774298 -0.029987965
0000a0 07 67 fc 3c ee 34 74 3d 1b 11 c9 3b b1 e4 02 bc
       0.030810846 0.05962079 0.0061360723 -0.007989095
0000b0 87 2b 8b bd a3 3a e8 3c a9 64 9e bd 51 e5 63 3c
       -0.067954116 0.028348273 -0.07734043 0.013909654
0000c0 1e e1 46 bc c3 34 d2 bd 9d 1f 15 be 60 5e 9e 3d
       -0.012138633 -0.1026397 -0.14562841 0.07732844
0000d0 a2 21 d8 3c 7d 12 dc bd 69 81 cd bd 3b 75 8e 3d
       0.026383225 -0.10745714 -0.10034449 0.06955954
0000e0 84 e2 d8 bc 19 94 6f bd c9 41 82 3c 7d 1e 95 bd
       -0.026475199 -0.058490846 0.01590051 -0.07281206
0000f0 ef b8 5a bd 42 fb 3d 3d 9c 8d 5c 3d ef a3 c9 bd
       -0.053399023 0.046382196 0.053845987 -0.09845721
000100 b1 d0 19 3e 7f 89 28 3d 39 2c 06 bd 7c 1e 7c 3d
       0.15021016 0.04114675 -0.032757018 0.06155251
000110 0b 33 02 3d 5c 6f 76 3c c1 fb 2c 3c 38 0e 21 3d
       0.03178696 0.015041199 0.01055807 0.0393202
000120 46 39 da 3d e2 9d 50 bd e2 03 f6 3d 79 12 83 bd
       0.10655455 -0.05093182 0.12012459 -0.06400008
000130 fa a2 9a bd 76 54 d4 3c a8 5b 6f bd 39 cb 27 3d
       -0.075506166 0.02591918 -0.05843702 0.040965293
000140 dc 0d 38 be d9 22 a5 3d 66 17 bb bc 51 ef 3c 3d
       -0.17974037 0.08063287 -0.022838306 0.046126667
000150 d3 aa 56 bc 92 02 b6 bd 85 68 a9 bd 8e 56 b7 bd
       -0.013102251 -0.08887209 -0.08271889 -0.08952056
000160 68 95 4d bc 8e 17 0d bd d0 13 07 bd 06 86 23 3d
       -0.012547828 -0.03444629 -0.03297788 0.039922737
000170 42 75 37 bd e2 7d f7 bc e4 6f 07 bb de 9b 95 3d
       -0.04478956 -0.030211393 -0.0020666057 0.0730512
000180 84 f5 8d bd d0 bb 83 3d 04 b0 0d 3e 7f 2d e5 3b
       -0.06931594 0.06432307 0.13836676 0.006993949
000190 53 2c 91 bc f8 83 9c 3d eb b9 c5 3d 3f 15 bc bd
       -0.01772133 0.076423585 0.09654602 -0.0918374
0001a0 bb 89 8c 3b f1 dd 41 3d 94 b9 28 bd cd ae ed 3d
       0.0042888797 0.0473308 -0.041192606 0.11605606
0001b0 31 79 dd bd ce 0c b7 3d f0 41 b5 bc 94 d7 88 3d
       -0.10814131 0.08937989 -0.022126168 0.06681743
0001c0 04 1e 73 3d c2 49 ac bc c3 0e c9 3d 33 54 42 bc
       0.059354797 -0.021031264 0.09817269 -0.011860895
0001d0 3f 2a c2 3c 16 db d9 3c e8 0a db 3a c6 a2 0b 3e
       0.023701785 0.026593726 0.0016711624 0.13636312
0001e0 d6 2a 74 bd 79 f2 41 bd ff 01 f0 bc 50 1a 13 bd
       -0.059611164 -0.04735038 -0.029297827 -0.035913765
0001f0 64 c8 71 3d 95 50 b2 bd 16 fb bf 3b 64 c9 45 3d
       0.059028998 -0.08706776 0.005858789 0.048287764
000200 c5 36 c3 bc 0e 72 9a 3d 5c de 33 3d c1 9e 19 3d
       -0.023829827 0.075412855 0.04391323 0.037504915
000210 8d 43 87 3d d9 c9 24 3d f1 60 25 3d 16 b8 fb bc
       0.06604681 0.04023156 0.040375654 -0.030727427
000220 2b da c4 bc 8e 6a 01 be cf 11 f8 3c a4 24 a9 bc
       -0.024029812 -0.12638304 0.03028193 -0.020647354
000230 55 a4 5e bd bf c3 86 3c 28 f3 f4 3c 63 c3 8f bc
       -0.054355938 0.01645076 0.029901102 -0.017549222
000240 b2 96 8c bd 11 3b 5b 3d 97 35 99 bc 64 3f 0d bc
       -0.0686468 0.053523127 -0.018702311 -0.0086210705
000250 f2 45 ed bb c6 7f 03 bd aa e8 41 3d 80 9f 62 3d
       -0.007241004 -0.032104276 0.047341026 0.055327892
000260 70 1b e5 3b 47 6e 29 bc b7 78 9f 3d 5c 41 75 3d
       0.006991796 -0.010341234 0.077866964 0.059876785
000270 9f 7c 3b bc 12 87 2f bc b7 db 5d 3d 9c 54 ce 3c
       -0.011443286 -0.010713356 0.054164615 0.02518683
000280 8e 2e 25 bd 35 a9 b7 bc 09 fd d7 3d 54 7b a1 3d
       -0.0403276 -0.022419551 0.105463095 0.07884851
000290 78 ba 43 3c b2 9a 91 bb 54 d4 d8 3c 5e 2b a9 3c
       0.011946313 -0.00444349 0.026468433 0.020650562
0002a0 66 6a fd bc 5e 3e 5b 3d de 75 7a 3c b2 c0 2d 3c
       -0.030934524 0.053526275 0.015286891 0.010605024
0002b0 26 da 8d bd 7e 8c 17 bd fa 41 f5 bd 7a 3d f0 bd
       -0.06926374 -0.03699922 -0.11975475 -0.11730476
0002c0 3c e3 9d bd 17 3c 99 bc ca f8 df bc 40 e2 23 bd
       -0.07709357 -0.01870541 -0.027340312 -0.04001069
0002d0 bb 20 9f 3d 35 a4 72 3d 6d 3c 03 be b5 81 51 3d
       0.07769915 0.05923863 -0.1281602 0.05114909
0002e0 df 3e 91 bd 40 57 0a be 57 89 3d 3d b8 e5 d5 3c
       -0.0709207 -0.13509846 0.046273556 0.026110515
0002f0 a9 05 2a bd 52 22 1f 3d 7f 8f 1d 3b 51 88 a2 bd
       -0.041509304 0.03885109 0.002404183 -0.079361565
000300 21 8b 1c 3d 9f 7f ad 3d b2 ee 2e bd 3a a0 f1 3c
       0.03821862 0.084716074 -0.042708106 0.029495347
000310 ed 1e 01 3b d1 80 93 bd c1 6b 76 3d f2 4a 08 bd
       0.001970227 -0.07202304 0.060161356 -0.0332746
000320 a8 87 15 be f1 5a b3 bd 4a c5 ab bd 11 54 18 3d
       -0.1460253 -0.0875758 -0.08387239 0.037189547
000330 08 dd a4 bd 50 b8 05 bd 2b 4d 9a bd 41 a4 83 bb
       -0.08049971 -0.032646477 -0.0753425 -0.0040173833
000340 65 4d a5 3a 2a c7 4c bb e3 25 a5 3d 81 63 8a 3d
       0.0012611566 -0.003124664 0.08063867 0.0675726
000350 e9 22 7b 3c 67 f2 45 bb 50 60 f5 bc 56 2d 8b 3c
       0.015328147 -0.0030204298 -0.029953152 0.016989391
000360 e4 2c c7 bd 34 b3 9e 3d 22 3e 53 bd c8 d6 41 3d
       -0.09725359 0.07749024 -0.051572926 0.047323972
000370 9b 99 af bb dc ce a3 3c 77 dc ce bb 27 0b ea bb
       -0.0053588874 0.0199961 -0.0063129026 -0.0071424427
000380 2d 60 11 bd 21 36 d3 3d ba 0c eb bc a4 aa 1b 3d
       -0.03549211 0.10313059 -0.028692592 0.038004532
000390 6d af c3 bc f2 22 07 3e f2 58 b2 3d 32 4d c7 bd
       -0.02388736 0.13196924 0.08708371 -0.09731521
0003a0 4c 63 38 bc 0b 97 1a bd 13 d9 9e bd 71 9a b7 bd
       -0.011254143 -0.037741702 -0.07756247 -0.08965004
0003b0 de 67 6a 3d 0c 55 17 3d 35 cf 45 bd 81 57 37 3e
       0.05722796 0.03694634 -0.04829331 0.17904474
0003c0 df 5a 15 3d 9b 98 f4 3b bb 27 3c bd 08 ce ad bd
       0.036463615 0.007464481 -0.045936327 -0.08486563
0003d0 5e 33 d3 3d a7 07 90 3c 18 77 fe bc 9a ad c7 3b
       0.10312532 0.017581774 -0.031062648 0.006093693
0003e0 c1 9a 46 3d ea 42 88 bb fd 67 9a 3d 37 30 8b bc
       0.04848743 -0.0041583674 0.075393654 -0.016990764
0003f0 98 8b 91 bd 81 66 e8 3d d1 31 c7 bd 52 5e 52 3d
       -0.071067035 0.11347676 -0.097262986 0.051359482

h2h.bias f4 [256]
000000 8f 8e c0 3c 32 48 00 3c 0e 68 27 bc 3d f8 5a bc
       0.023505477 0.007829713 -0.01021768 -0.013364849
000010 b2 9c c9 39 33 07 2b bc 05 63 9d 3b c8 c8 55 bc
       0.00038454455 -0.010438728 0.004803064 -0.013048358
000020 55 6c bc bc 08 9a 00 ba 21 b4 73 bc a7 3e 9a 3a
       -0.023000875 -0.0004905765 -0.014874489 0.001176794
000030 b9 44 87 3c f4 86 a5 b7 fe 79 04 3c 44 4a fc 3c
       0.016512262 -1.9732375e-05 0.008085726 0.030797131
000040 da 0a e4 3c 4e 36 84 3c 87 8c 07 3d 7c ce ad 3c
       0.027837206 0.016139176 0.033093 0.021216623
000050 c5 02 8a bc 5f 0c af ba 81 a5 fb 3b 1b 6d 90 3b
       -0.016847024 -0.0013355127 0.0076796417 0.0044075376
000060 e4 54 81 3b a2 8c fc 3b c3 b5 d7 ba 60 f1 36 3c
       0.0039468873 0.0077071944 -0.0016457367 0.011165947
000070 db 2f a8 bc 70 2b 11 3b b7 74 bd bc c7 34 28 3d
       -0.020530632 0.0022151135 -0.023126943 0.041065957
000080 89 7b b4 b9 53 f5 df bc d3 cf 99 3b a4 86 88 3c
       -0.00034424316 -0.02733866 0.004693964 0.016665764
000090 ba 4a fc ba 87 e6 a7 3c 1b e2 bc 3c c1 0a ae 3b
       -0.0019248344 0.020495666 0.023057034 0.0053113406
0000a0 98 b6 bf bc 55 2d 43 ba 5e b3 a2 bb 48 ec 95 3c
       -0.023402497 -0.00074454147 -0.00496523 0.018301144
0000b0 65 81 a5 bc 1e 69 16 3d 7f 56 d3 bb 8c de 6f bb
       -0.020203302 0.03672134 -0.00644952 -0.0036601154
0000c0 f4 f4 4d 3c 04 e0 bc 3c 08 04 52 3c ac e9 02 3d
       0.012570608 0.023056038 0.012818344 0.031961128
0000d0 b8 ba 98 bc ca a5 cc bb 7d be db 3c 70 12 d4 bb
       -0.018643722 -0.0062453495 0.02682423 -0.0064719245
0000e0 88 a4 e5 bb a1 ee 59 3c 01 6c ac bc 42 94 a0 3c
       -0.007008139 0.0133015225 -0.021047594 0.019601945
0000f0 60 61 e1 bc 1a 51 6e 3c e9 4c 68 3c 72 cd b0 bc
       -0.027512252 0.014545703 0.014178493 -0.021582339
000100 cf a1 82 bb 54 5f 8c 3c 1d 52 5d 3c 47 7d 3a 3c
       -0.0039865742 0.0171353 0.013508347 0.0113824075
000110 28 3f 4b 3c f5 26 05 3c fa 87 12 3c b6 90 8c 3b
       0.012405194 0.008126964 0.008943552 0.004289712
000120 ee ec 30 3c 0d f0 84 3c cd ef cd 3c be a1 08 3d
       0.010798676 0.016227746 0.02513876 0.033357374
000130 91 77 34 3c ef 2f 93 3c a5 0c 9d 3c 75 52 b9 bc
       0.011014835 0.017967192 0.019171068 -0.022622326
000140 72 12 e1 3b 65 9c a0 3b 1e 11 02 3c 11 c4 04 3d
       0.006868654 0.004901456 0.007938651 0.032413546
000150 12 55 b8 3c 8b 17 d7 3c 44 64 3a 3b 31 ab a6 bc
       0.022501502 0.026256343 0.002844111 -0.020345302
000160 d9 d2 f7 3c 13 47 80 bc 02 91 3d 3c 72 47 6d 3c
       0.030251907 -0.01565889 0.011570217 0.014482366
000170 dc a5 70 3b 9a 4c 57 3c 55 4e 37 3c b2 e5 c7 3c
       0.0036719954 0.013140822 0.011188109 0.02440152
000180 ba 2c b6 bb f4 7e 4d bc 27 7c 26 3d da 38 45 bc
       -0.005559531 -0.012542475 0.040645745 -0.01203748
000190 f6 ec 46 3c 97 49 7e bb 91 bf 1a 3d ab ee 26 bc
       0.012141457 -0.0038801187 0.03778035 -0.010188739
0001a0 0c 2e c2 3b 2d d9 d9 3a d6 db 65 3b 79 30 30 3c
       0.0059258994 0.001662051 0.003507366 0.010753744
0001b0 56 c7 c4 bb be ca 8d bc b5 65 52 bc da 2f cb 3c
       -0.006005208 -0.01730859 -0.012841632 0.02480309
0001c0 d3 3b 1a 3c b7 8e 93 3c bd 5e a7 bc b3 f1 96 bc
       0.009413677 0.018012388 -0.020430917 -0.018425798
0001d0 2a 79 48 3c 22 36 10 3d 9c b0 b0 bb 72 14 ca 3c
       0.012235919 0.035207875 -0.005392147 0.024667952
0001e0 0e ab 9b 3c 79 53 cf 3c 6e f8 ec bb 1e 6c 8a bc
       0.019002464 0.025308358 -0.0072317636 -0.016897257
0001f0 79 97 ec 3b 4c 71 9d 3c 16 d0 a4 3c 95 ee b8 3b
       0.0072202054 0.019219063 0.020118754 0.0056436756
000200 bd fc b4 bc db 1b 7c bc 69 33 4e bb f9 e9 56 bb
       -0.022093171 -0.015387501 -0.0031463748 -0.0032793267
000210 28 3f 3f 3d 03 6c 9a bc 27 93 4d 3a 15 56 6d 3c
       0.04669109 -0.018850332 0.0007842057 0.014485856
000220 25 d1 fc 3b c7 fd 9c 3c 1b 62 5b 3c a5 00 92 bb
       0.0077153617 0.01916398 0.013390089 -0.0044556432
000230 49 59 bc b9 53 6b 8d 3c 48 d5 af bc fd 15 9a 38
       -0.00035924677 0.01726309 -0.021464005 7.347388e-05
000240 25 2f a7 3b 4d 7d 8b 3c 2c 8a 13 bc 4d 7a 8b 3c
       0.0051020556 0.017027522 -0.009005111 0.017026091
000250 bc 81 99 3c 73 0b be bb cf 3d b5 3c 4b 2c be bc
       0.01873862 -0.0057997047 0.0221242 -0.02321448
000260 c4 f0 93 bc 28 2b 94 3c 1b e8 c2 3b 59 ec 8e bc
       -0.018059142 0.018086985 0.0059480793 -0.017446684
000270 2e 2e fb bb e0 75 9b ba 1f 6f 5e bc 10 73 d8 3c
       -0.007665417 -0.0011860691 -0.013576298 0.026422054
000280 e6 17 02 bc 1a 91 69 bb 23 22 e0 3c 8f 70 b1 3c
       -0.007940268 -0.0035639466 0.027360028 0.021660117
000290 ed a2 39 3b 0a 12 bf 3c dd 58 0c bd 58 20 3f 3c
       0.002832587 0.023324031 -0.034264434 0.011665426
0002a0 cb a5 b4 3a e0 40 3c 3c 5e d1 e6 3a 5a 53 2a 3d
       0.001378232 0.011490077 0.0017610004 0.041583396
0002b0 80 b9 03 bd 17 57 4b bc d2 92 b2 bc 77 98 74 bb
       -0.03215933 -0.012410901 -0.021798525 -0.0037322321
0002c0 6c ad bf 3a 76 ec 6e 3c fe 36 a8 bb 0c f4 12 bd
       0.0014623827 0.014582744 -0.0051335087 -0.035877272
0002d0 fc d4 17 3d 22 c4 4d ba 57 3b f9 3c 2d 3e 76 bc
       0.037068352 -0.00078493555 0.030423803 -0.015029472
0002e0 54 05 7f bc 99 a5 04 bc a3 4e 38 3c 57 38 fa bb
       -0.015565235 -0.008096122 0.011249217 -0.0076361108
0002f0 c0 2c ce 3c b1 99 f0 3c 29 a6 bf 3a 86 04 1d bb
       0.025167823 0.02937016 0.0014621663 -0.0023958995
000300 e9 a0 fe bb 1b f6 c2 3b 39 5c 67 3c c7 6e 36 bc
       -0.007770647 0.005949748 0.014121109 -0.01113481
000310 75 0a 81 bc 2d 55 11 3d 22 b5 38 3c 67 d9 04 3b
       -0.015752057 0.03548162 0.011273654 0.0020271183
000320 ee 6f 9c 3c bd 7b 70 3c c5 7d 19 bc 8a 05 6d ba
       0.019096341 0.014677939 -0.009368365 -0.0009041658
000330 7b 85 7d 3c 7a d0 29 3d 7d f2 f7 3b 13 bf 01 3d
       0.015473719 0.041458584 0.0075667487 0.031676363
000340 23 bb 11 3d 54 5a 4b 3b 4c 91 ba 3c a1 d1 39 3d
       0.035578858 0.0031029182 0.022774361 0.045365933
000350 db ee 22 bc 92 35 a1 3c 00 4a 9d 38 e7 8f ea 3c
       -0.009944643 0.019678865 7.500127e-05 0.028633071
000360 08 be 24 3c c8 b6 fb 3c 2d 5c cd 3c 71 a9 fe bb
       0.010055073 0.030726805 0.025068367 -0.007771664
000370 52 4b b2 3c 88 9d f5 3a c7 25 0e 3b d2 62 9b 3c
       0.021764431 0.0018738965 0.0021689998 0.01896802
000380 32 d5 87 3b 3b 7d 9b bc 12 e1 4e 3c 6b 5c 94 39
       0.004145288 -0.018980613 0.012626903 0.00028297617
000390 65 ce 3a 3c ef ec a7 bb b2 6c 33 bc 33 d8 a3 3c
       0.011401747 -0.00512468 -0.010951208 0.020000553
0003a0 31 82 97 3c b9 24 c2 3c 48 df 0c 3c 86 43 a9 bb
       0.018494697 0.023699151 0.008598156 -0.00516552
0003b0 6c 40 16 3d ed eb f0 3b 8e 76 a7 3c 83 a6 2f bc
       0.03668253 0.0073523433 0.020442273 -0.010720852
0003c0 4a 73 9c bb c2 06 85 bb 8d 43 ef bc 8c 15 2e 3c
       -0.0047744857 -0.0040596435 -0.029207015 0.010625254
0003d0 fa 34 bf 3b d4 12 14 3c 83 60 0c bc 20 4d 2f bc
       0.0058351727 0.009037692 -0.008567932 -0.01069954
0003e0 57 ae 89 3c 95 75 0c ba 68 c5 a3 3b 55 5d 1f 3c
       0.016806765 -0.0005358097 0.004997898 0.009726842
0003f0 3f 9e c3 3b af 1d 92 3a ef 4b 89 bc 06 13 df bb
       0.005969792 0.0011147762 -0.01675984 -0.0068076877
