VLSI23_journal/intuitivechip_classifier_lcsvsnlcs_run4/SNN_ep-150-isize-1-8-1-hsize-242-bsize-32-lr-0.001-tmax_ms-50.0-Ts-10.0-k-6-dsetPath-IMODE_allchannels_ALLCLASS_auto_nospkfilter_cleaned_12x16_9mvpp_250mvofs_onedac_itail_50nA_ith_10n_ispk_50u_islew_1n_vil_0p825/chip-classifier-5-best.pt (torch, 253495 bytes, 8 tensors)

thr_h_1 f4 [242]
0	0x3f800000	1.0
1	0x3f800000	1.0
2	0x3f800000	1.0
3	0x3f800000	1.0
4	0x3f800000	1.0
5	0x3f800000	1.0
6	0x3f800000	1.0
7	0x3f800000	1.0
8	0x3f800000	1.0
9	0x3f800000	1.0
10	0x3f800000	1.0
11	0x3f800000	1.0
12	0x3f800000	1.0
13	0x3f800000	1.0
14	0x3f800000	1.0
15	0x3f800000	1.0
16	0x3f800000	1.0
17	0x3f800000	1.0
18	0x3f800000	1.0
19	0x3f800000	1.0
20	0x3f800000	1.0
21	0x3f800000	1.0
22	0x3f800000	1.0
23	0x3f800000	1.0
24	0x3f800000	1.0
25	0x3f800000	1.0
26	0x3f800000	1.0
27	0x3f800000	1.0
28	0x3f800000	1.0
29	0x3f800000	1.0
30	0x3f800000	1.0
31	0x3f800000	1.0
32	0x3f800000	1.0
33	0x3f800000	1.0
34	0x3f800000	1.0
35	0x3f800000	1.0
36	0x3f800000	1.0
37	0x3f800000	1.0
38	0x3f800000	1.0
39	0x3f800000	1.0
40	0x3f800000	1.0
41	0x3f800000	1.0
42	0x3f800000	1.0
43	0x3f800000	1.0
44	0x3f800000	1.0
45	0x3f800000	1.0
46	0x3f800000	1.0
47	0x3f800000	1.0
48	0x3f800000	1.0
49	0x3f800000	1.0
50	0x3f800000	1.0
51	0x3f800000	1.0
52	0x3f800000	1.0
53	0x3f800000	1.0
54	0x3f800000	1.0
55	0x3f800000	1.0
56	0x3f800000	1.0
57	0x3f800000	1.0
58	0x3f800000	1.0
59	0x3f800000	1.0
60	0x3f800000	1.0
61	0x3f800000	1.0
62	0x3f800000	1.0
63	0x3f800000	1.0
64	0x3f800000	1.0
65	0x3f800000	1.0
66	0x3f800000	1.0
67	0x3f800000	1.0
68	0x3f800000	1.0
69	0x3f800000	1.0
70	0x3f800000	1.0
71	0x3f800000	1.0
72	0x3f800000	1.0
73	0x3f800000	1.0
74	0x3f800000	1.0
75	0x3f800000	1.0
76	0x3f800000	1.0
77	0x3f800000	1.0
78	0x3f800000	1.0
79	0x3f800000	1.0
80	0x3f800000	1.0
81	0x3f800000	1.0
82	0x3f800000	1.0
83	0x3f800000	1.0
84	0x3f800000	1.0
85	0x3f800000	1.0
86	0x3f800000	1.0
87	0x3f800000	1.0
88	0x3f800000	1.0
89	0x3f800000	1.0
90	0x3f800000	1.0
91	0x3f800000	1.0
92	0x3f800000	1.0
93	0x3f800000	1.0
94	0x3f800000	1.0
95	0x3f800000	1.0
96	0x3f800000	1.0
97	0x3f800000	1.0
98	0x3f800000	1.0
99	0x3f800000	1.0
100	0x3f800000	1.0
101	0x3f800000	1.0
102	0x3f800000	1.0
103	0x3f800000	1.0
104	0x3f800000	1.0
105	0x3f800000	1.0
106	0x3f800000	1.0
107	0x3f800000	1.0
108	0x3f800000	1.0
109	0x3f800000	1.0
110	0x3f800000	1.0
111	0x3f800000	1.0
112	0x3f800000	1.0
113	0x3f800000	1.0
114	0x3f800000	1.0
115	0x3f800000	1.0
116	0x3f800000	1.0
117	0x3f800000	1.0
118	0x3f800000	1.0
119	0x3f800000	1.0
120	0x3f800000	1.0
121	0x3f800000	1.0
122	0x3f800000	1.0
123	0x3f800000	1.0
124	0x3f800000	1.0
125	0x3f800000	1.0
126	0x3f800000	1.0
127	0x3f800000	1.0
128	0x3f800000	1.0
129	0x3f800000	1.0
130	0x3f800000	1.0
131	0x3f800000	1.0
132	0x3f800000	1.0
133	0x3f800000	1.0
134	0x3f800000	1.0
135	0x3f800000	1.0
136	0x3f800000	1.0
137	0x3f800000	1.0
138	0x3f800000	1.0
139	0x3f800000	1.0
140	0x3f800000	1.0
141	0x3f800000	1.0
142	0x3f800000	1.0
143	0x3f800000	1.0
144	0x3f800000	1.0
145	0x3f800000	1.0
146	0x3f800000	1.0
147	0x3f800000	1.0
148	0x3f800000	1.0
149	0x3f800000	1.0
150	0x3f800000	1.0
151	0x3f800000	1.0
152	0x3f800000	1.0
153	0x3f800000	1.0
154	0x3f800000	1.0
155	0x3f800000	1.0
156	0x3f800000	1.0
157	0x3f800000	1.0
158	0x3f800000	1.0
159	0x3f800000	1.0
160	0x3f800000	1.0
161	0x3f800000	1.0
162	0x3f800000	1.0
163	0x3f800000	1.0
164	0x3f800000	1.0
165	0x3f800000	1.0
166	0x3f800000	1.0
167	0x3f800000	1.0
168	0x3f800000	1.0
169	0x3f800000	1.0
170	0x3f800000	1.0
171	0x3f800000	1.0
172	0x3f800000	1.0
173	0x3f800000	1.0
174	0x3f800000	1.0
175	0x3f800000	1.0
176	0x3f800000	1.0
177	0x3f800000	1.0
178	0x3f800000	1.0
179	0x3f800000	1.0
180	0x3f800000	1.0
181	0x3f800000	1.0
182	0x3f800000	1.0
183	0x3f800000	1.0
184	0x3f800000	1.0
185	0x3f800000	1.0
186	0x3f800000	1.0
187	0x3f800000	1.0
188	0x3f800000	1.0
189	0x3f800000	1.0
190	0x3f800000	1.0
191	0x3f800000	1.0
192	0x3f800000	1.0
193	0x3f800000	1.0
194	0x3f800000	1.0
195	0x3f800000	1.0
196	0x3f800000	1.0
197	0x3f800000	1.0
198	0x3f800000	1.0
199	0x3f800000	1.0
200	0x3f800000	1.0
201	0x3f800000	1.0
202	0x3f800000	1.0
203	0x3f800000	1.0
204	0x3f800000	1.0
205	0x3f800000	1.0
206	0x3f800000	1.0
207	0x3f800000	1.0
208	0x3f800000	1.0
209	0x3f800000	1.0
210	0x3f800000	1.0
211	0x3f800000	1.0
212	0x3f800000	1.0
213	0x3f800000	1.0
214	0x3f800000	1.0
215	0x3f800000	1.0
216	0x3f800000	1.0
217	0x3f800000	1.0
218	0x3f800000	1.0
219	0x3f800000	1.0
220	0x3f800000	1.0
221	0x3f800000	1.0
222	0x3f800000	1.0
223	0x3f800000	1.0
224	0x3f800000	1.0
225	0x3f800000	1.0
226	0x3f800000	1.0
227	0x3f800000	1.0
228	0x3f800000	1.0
229	0x3f800000	1.0
230	0x3f800000	1.0
231	0x3f800000	1.0
232	0x3f800000	1.0
233	0x3f800000	1.0
234	0x3f800000	1.0
235	0x3f800000	1.0
236	0x3f800000	1.0
237	0x3f800000	1.0
238	0x3f800000	1.0
239	0x3f800000	1.0
240	0x3f800000	1.0
241	0x3f800000	1.0

thr_o f4 [6]
0	0x3f800000	1.0
1	0x3f800000	1.0
2	0x3f800000	1.0
3	0x3f800000	1.0
4	0x3f800000	1.0
5	0x3f800000	1.0

i2h.weight f4 [242, 8]
0	0x3dc70af8	0.09718889
1	0xbc3716cb	-0.011174868
2	0x3e7465aa	0.23866907
3	0x3b966dfd	0.0045907483
4	0xbd84c4ce	-0.0648285
5	0xbdd6ef93	-0.10494914
6	0xbe167941	-0.14694692
7	0x3d26a3b2	0.040683456
8	0x3cee42f0	0.029084653
9	0x3b8aa5c3	0.004231186
10	0xbd2b7c84	-0.041866794
11	0x3e1e4207	0.15454875
12	0xbd042d22	-0.032269605
13	0x3d865756	0.06559627
14	0x3d62887a	0.055305935
15	0xbd87e109	-0.06634719
16	0x3df39bca	0.11894949
17	0x3d869ace	0.065724954
18	0x3c2f1915	0.010687132
19	0xbdc4f574	-0.09617129
20	0xbac8a9d7	-0.0015309405
21	0xbc0bb2ab	-0.0085264845
22	0xbd205c84	-0.03915073
23	0xbdcbc2e7	-0.09949284
24	0x3dcf7e7b	0.10131546
25	0x3e117bc6	0.14207372
26	0xbe972330	-0.29519033
27	0xbd6801ee	-0.056642465
28	0x3d2a125a	0.041521408
29	0x3dd98024	0.10620144
30	0xbe03919e	-0.12848517
31	0x3e0ac60e	0.13552114
32	0x3e1f9641	0.15584661
33	0xbc5de7e7	-0.013544059
34	0xbe34c3ff	-0.17652892
35	0xbe3934b8	-0.18086517
36	0x3dad7403	0.08469393
37	0xbc1684f4	-0.009186972
38	0xbd26ff76	-0.04077097
39	0x3dd9ff46	0.10644393
40	0x3d921587	0.07133012
41	0xbdac7764	-0.084212095
42	0xbe0d427e	-0.13794896
43	0xbe1a8e94	-0.15093452
44	0x3dd9bed5	0.106321014
45	0xbd1791b9	-0.037004206
46	0xbdb62a25	-0.08894757
47	0x3dd8d511	0.10587514
48	0xbc825d88	-0.01591374
49	0x3e2722bc	0.16321844
50	0xbe946e7c	-0.28990543
51	0x3dc6875c	0.096937865
52	0x3d66f39f	0.05638468
53	0x3d286bdb	0.041118484
54	0x3dfed213	0.12442412
55	0xbd8f534f	-0.06998312
56	0xbca88b4b	-0.020574233
57	0xbcaa61e6	-0.020798635
58	0xbdfb3d24	-0.12267521
59	0xbd88e026	-0.06683378
60	0x3e081e54	0.1329282
61	0xbe102722	-0.14077428
62	0xbe1043aa	-0.14088312
63	0x3d843cd5	0.06456915
64	0x3e309147	0.17242919
65	0xbdcb20c6	-0.099183604
66	0x3e1d393c	0.15353864
67	0x3e19920f	0.14997123
68	0xbdbf4b44	-0.09340528
69	0x3cb60ff5	0.022224406
70	0xbdac41e5	-0.08411006
71	0xbd0e10bc	-0.034683928
72	0xbd643ba9	-0.05572096
73	0xbc074519	-0.00825622
74	0xbe3c20e0	-0.18371916
75	0xbdbcb1d3	-0.09213605
76	0x3e1f7291	0.15571047
77	0xbd7fadbd	-0.06242155
78	0xbb9e057f	-0.0048224325
79	0x3daea047	0.08526664
80	0xbe17d164	-0.1482597
81	0x3d79c7df	0.060981628
82	0x3d9db488	0.07700449
83	0xbd63e83f	-0.05564141
84	0xbe0df5d8	-0.13863313
85	0xbdafc862	-0.08583142
86	0xbccebbfc	-0.025236122
87	0x3d937f09	0.072019644
88	0xbe0ec3a7	-0.13941823
89	0xbd668389	-0.056277785
90	0xbdf1cc80	-0.118065834
91	0x3ce6ffc5	0.028198132
92	0x3b8cdb88	0.004298631
93	0x39cd8223	0.00039197606
94	0x3df2c269	0.11853487
95	0x3d3cce5d	0.04609524
96	0x3dc8f6c1	0.098126896
97	0xbdb7ccfe	-0.08974646
98	0x3e8fdc2c	0.28097665
99	0x3db81351	0.08988059
100	0xbdcf3f5e	-0.10119508
101	0xbddbf77e	-0.10740565
102	0xbd974f8b	-0.073882185
103	0xbb51cfc2	-0.0032014702
104	0xbdfaa912	-0.12239279
105	0x3d998afb	0.074972115
106	0xbdabdcb0	-0.08391702
107	0x3dc9d2be	0.09854649
108	0x3c83020c	0.015992187
109	0xbc168ba9	-0.009188571
110	0x3db6b6f6	0.08921616
111	0x3c82cb07	0.015965952
112	0x3ccb33e9	0.024805026
113	0xbe0e4f70	-0.1389749
114	0xbd1f0720	-0.038825154
115	0x3d9c02eb	0.07617744
116	0xbde4c330	-0.111700416
117	0x3dc63150	0.09677374
118	0xbdef0393	-0.116706036
119	0x3dd36d57	0.10323589
120	0x3c21d9e9	0.009878614
121	0x3dedb4d9	0.116067596
122	0xbe707ab9	-0.23484315
123	0xbd430a74	-0.04761739
124	0xbd4e7fe8	-0.05041495
125	0x3e150b57	0.14555107
126	0xba5930e7	-0.000828518
127	0xbd39ced7	-0.045363273
128	0x3cd2b4fb	0.025721064
129	0xbc0df59e	-0.008664517
130	0x3d5f7c5a	0.05456195
131	0xbd10dc3f	-0.035366293
132	0x3d5f072d	0.054450203
133	0x3d939def	0.07207858
134	0x3d2416e6	0.0400609
135	0xbe0edc86	-0.1395131
136	0x3e214bf5	0.15751632
137	0xbd9eae18	-0.077480495
138	0xbdeb481d	-0.11488364
139	0xbc38c3e7	-0.0112771755
140	0xbcf6bdb8	-0.030119762
141	0x3e29a4aa	0.1656672
142	0x3bd41b21	0.0064729606
143	0x3d9cf881	0.07664586
144	0x3dd073a2	0.10178305
145	0x3e0ed114	0.13946944
146	0x3c9750b3	0.018471098
147	0xbd821087	-0.063508086
148	0x3ddbde72	0.107357875
149	0xbd167867	-0.03673592
150	0xbd9591eb	-0.07303222
151	0xbd09f268	-0.033678442
152	0x3d50f7a9	0.051017437
153	0x3d80c378	0.06287283
154	0x3c853dff	0.016264914
155	0xbe1b79c4	-0.15183169
156	0xbe1e7864	-0.15475613
157	0x3dd2f102	0.10299875
158	0xbd2ae7db	-0.04172502
159	0xbdd675e6	-0.10471706
160	0x3c976af2	0.018483613
161	0x3d07ffcc	0.03320293
162	0x3d2e4346	0.042544626
163	0x3db13153	0.08651986
164	0x3ddaec6f	0.106896274
165	0x3de6f6e4	0.112775594
166	0x3dec9e9e	0.11553691
167	0xbe03d980	-0.12875938
168	0xbb80739f	-0.003920033
169	0xbd202f07	-0.03910735
170	0xb7bbc780	-2.2385037e-05
171	0xbce10593	-0.027468478
172	0x3dc0f02e	0.09420811
173	0x3d621859	0.055199
174	0xbe1118b7	-0.14169584
175	0xbe113991	-0.14182116
176	0x3d93e735	0.072218336
177	0xbcef41c0	-0.029206157
178	0x3dc1dcf3	0.09465971
179	0x3e055b81	0.13023187
180	0xbce6db12	-0.028180633
181	0x3ddb15b4	0.10697499
182	0xbd157e2c	-0.03649728
183	0xbd3168b9	-0.043312762
184	0xbd548d0c	-0.051892325
185	0x3dccd743	0.100019954
186	0xbcd7598b	-0.026287815
187	0xbe1d4c77	-0.153612
188	0x3e25bb7c	0.16184801
189	0x3dbfa18c	0.093569845
190	0xbda4a4b8	-0.0803923
191	0xbc4359b6	-0.011923244
192	0x3dcae1f7	0.099063806
193	0xbe2828fc	-0.16421884
194	0x3eb12fef	0.34606883
195	0x3e2a2dd6	0.16619048
196	0xbbcc4da7	-0.006234843
197	0xbe046eb5	-0.12932856
198	0x3dc7ede8	0.09762174
199	0x3db3782b	0.087631546
200	0x3e0f2e68	0.13982546
201	0x3d90f271	0.07077492
202	0xbd900dcf	-0.07033884
203	0x3dc52c78	0.09627622
204	0xbd50851e	-0.0509082
205	0x3d628b46	0.055308603
206	0x3e178c4c	0.14799613
207	0x3e08df57	0.13366447
208	0x3ca53f8a	0.0201719
209	0xbd19b73c	-0.03752826
210	0xbe1c61f4	-0.15271741
211	0xbdfd6db4	-0.1237444
212	0x3e296cb9	0.1654538
213	0x3dfa0387	0.12207704
214	0xbd920d95	-0.07131497
215	0x3d0175e6	0.031606577
216	0x39225a80	0.00015483238
217	0x3cdb3c19	0.026762055
218	0x3dc3425e	0.09534143
219	0xbd77831e	-0.060427777
220	0xbcf5589f	-0.029949484
221	0xbe072aaa	-0.13199869
222	0x3cae956c	0.021311484
223	0xbe181217	-0.1485065
224	0xbe15eecc	-0.14641875
225	0xbdc50e2c	-0.09621844
226	0xbe845092	-0.2584272
227	0xbe0b31d7	-0.13593231
228	0x3dc101a0	0.09424138
229	0xbdecba29	-0.11558945
230	0xbc8b45b8	-0.017001018
231	0x3a76ee87	0.00094196986
232	0x3dad39b9	0.08458275
233	0xbd8391df	-0.06424307
234	0xbd61ca36	-0.055124484
235	0xbc77b414	-0.015118618
236	0x3c905693	0.017619407
237	0x3cbbc4a2	0.02292091
238	0xbd3a9520	-0.045552373
239	0x3d95bb5a	0.07311125
240	0x3d5cae93	0.053877424
241	0x3d4dc3b1	0.050235454
242	0xbe8af64c	-0.27141035
243	0xbdee8d3e	-0.116480336
244	0x3c1f76db	0.009732927
245	0xbd9db3cb	-0.077003084
246	0xbe35736d	-0.17719813
247	0xbde98ad2	-0.11403431
248	0x3daf41c7	0.08557468
249	0xbd58b925	-0.052910943
250	0x3d9eac3d	0.077476956
251	0xbd934243	-0.07190373
252	0xbda175f8	-0.07883829
253	0x3b1f2acc	0.0024286984
254	0x3e20b086	0.15692338
255	0x3e133e54	0.14379245

i2h.bias f4 [242]
0	0x3dc0504f	0.09390318
1	0xbc1200e7	-0.008911348
2	0x3d69a5d8	0.057042927
3	0x3db46268	0.08807832
4	0xbd107dc2	-0.035276182
5	0x3c975c09	0.018476503
6	0x3dc8cbc2	0.09804489
7	0x3e020b7e	0.12699696
8	0x3da9cbd2	0.08290829
9	0x3e119e1f	0.14220475
10	0x3d99ae07	0.07503896
11	0xbd06d626	-0.03291907
12	0x3d7ff90e	0.062493376
13	0x3b8fd9e2	0.0043899873
14	0xbd0f1200	-0.034929276
15	0x3d4d9604	0.050191894
16	0xbcf51b13	-0.029920137
17	0x3c4fcf21	0.012683661
18	0xbc35ebac	-0.011103552
19	0x3be42ecf	0.006963588
20	0x3c96e820	0.018421233
21	0xbd6562f6	-0.05600258
22	0xbcef0594	-0.029177465
23	0xba9cbb38	-0.0011957651
24	0x3d42c65a	0.047552444
25	0x3d530769	0.05152074
26	0x3d1151fa	0.03547857
27	0xbd32c55a	-0.04364524
28	0xbda7246d	-0.081612445
29	0xbd10ab57	-0.035319652
30	0xbd7216d4	-0.0591038
31	0xbccb5465	-0.024820516
32	0x3e110b24	0.14164406
33	0x3d6513d7	0.055927124
34	0xbba9c214	-0.0051806066
35	0x3da6f737	0.08152621
36	0x3bb0aeb0	0.005391918
37	0x3c6872e4	0.014187548
38	0xbd2902a9	-0.041262303
39	0x3c35c3fb	0.011094089
40	0xbcecb7b8	-0.028896198
41	0xbd36c9dd	-0.044626106
42	0xbc9549ae	-0.01822361
43	0xbc70b191	-0.014690773
44	0xbd2bd067	-0.041946795
45	0x3c3d1e0c	0.011542808
46	0xbd4c6160	-0.04989755
47	0xbcb1010b	-0.021606943
48	0xbb87de15	-0.0041463473
49	0x3d97a237	0.07403987
50	0xbc130b2c	-0.008974832
51	0xbcd0c8ed	-0.025486434
52	0x3db4bdae	0.08825241
53	0xbc6a4c05	-0.014300351
54	0xbc95d177	-0.018288357
55	0x3c86b699	0.016444491
56	0x3d5473c3	0.05186821
57	0x3c56314e	0.013073279
58	0x3d9cd708	0.076582015
59	0x3d791ffc	0.06082152
60	0x3d8afe20	0.06786752
61	0x3bcfd2ca	0.0063422667
62	0xbcf58746	-0.02997173
63	0x3dc888b6	0.097917005
64	0xbda2884e	-0.07936154
65	0x3dce3156	0.10068004
66	0xbb46cff7	-0.003033636
67	0xbc731175	-0.014835705
68	0xbd2787e1	-0.04090107
69	0x3d83d256	0.06436603
70	0x3d19e526	0.03757205
71	0x3ddf31ea	0.10898192
72	0x3d93ceb9	0.072171636
73	0xbd2ef4ec	-0.042714044
74	0xbd9e36c3	-0.07725289
75	0xbd56f07f	-0.05247545
76	0x3d19103f	0.03736901
77	0x3ceeba7d	0.029141659
78	0xbcfa3029	-0.030540543
79	0xbd6a8e24	-0.057264462
80	0x3d7e4d33	0.06208534
81	0x3b832621	0.004002348
82	0xbd00141a	-0.03126917
83	0xbd0b7d9d	-0.03405534
84	0xbba4ddc5	-0.00503132
85	0xbd08227f	-0.033236023
86	0x3d52a109	0.051423106
87	0xbd0b01c1	-0.03393722
88	0x3da14257	0.078739814
89	0x3d156d55	0.03648122
90	0x3cb50e13	0.022101438
91	0x3d7f21fd	0.062288273
92	0xbcac50dd	-0.021034652
93	0x3ce9278b	0.028461238
94	0x3e590119	0.21191825
95	0xbd62d07a	-0.0553746
96	0xbcd5d446	-0.026102196
97	0xbce7dbc2	-0.02830303
98	0x3c415768	0.011800624
99	0x3df4ee7f	0.11959552
100	0x3cb500f3	0.02209518
101	0xbcfe146e	-0.031015601
102	0xbce747df	-0.028232513
103	0xbd052457	-0.03250536
104	0xbcb3e437	-0.021959407
105	0xbca3b1f5	-0.019982317
106	0xbc4ea79e	-0.012613205
107	0x3c9920e6	0.018692445
108	0x3e1be30c	0.1522333
109	0x3e1640d5	0.14673169
110	0xbdab103f	-0.08352708
111	0x3d516327	0.05111995
112	0x3c98ad40	0.0186373
113	0xbb775ae2	-0.003774338
114	0x3e0e134e	0.13874552
115	0xbcae40b2	-0.021271084
116	0xbcaf811a	-0.021423865
117	0x3dd92174	0.10602084
118	0xbd7f6987	-0.062356498
119	0x3b505d35	0.0031793837
120	0xbc3346f9	-0.010942214
121	0x3d7c26c0	0.061560392
122	0xbda95716	-0.082685634
123	0xbc07eb46	-0.00829584
124	0xbcb38761	-0.02191514
125	0x3d939480	0.072060585
126	0xbcc6ece2	-0.024282876
127	0xbcb92cb5	-0.022604326
128	0x3c415a48	0.01180131
129	0xbdc56dd2	-0.09640087
130	0x3dae3b63	0.08507421
131	0xbd869ce4	-0.06572893
132	0x3c5c2e16	0.013438722
133	0xbd4d5987	-0.050134208
134	0x3cd34967	0.025791837
135	0xba93f72d	-0.0011288874
136	0xbbcd7b46	-0.006270799
137	0x3ca156b2	0.01969466
138	0x3dde379f	0.10850453
139	0xbc91ff04	-0.017821796
140	0x3c9f664e	0.019457962
141	0x3d94c31f	0.07263779
142	0xbaf35915	-0.0018565977
143	0xbd544aec	-0.051829264
144	0xbd761d71	-0.06008667
145	0x3cfa0fc2	0.030525092
146	0xbd0162ea	-0.031588472
147	0x3ceb39b1	0.028714033
148	0x3c2d9896	0.010595461
149	0x3d33ae5e	0.04386746
150	0xbda524c4	-0.08063653
151	0x3e1bd470	0.15217757
152	0x3dd982ca	0.10620649
153	0x3c83ec04	0.016103752
154	0xbc95308d	-0.018211627
155	0xbd0ae456	-0.033909164
156	0x3bb8a865	0.0056353086
157	0xbd3ae917	-0.045632448
158	0xbc06d92c	-0.008230489
159	0xbd4f18c2	-0.05056072
160	0xbd24f082	-0.04026843
161	0x3d007b23	0.031367432
162	0xbda038c1	-0.07823325
163	0x3d1421e3	0.03616513
164	0x3d040075	0.032227
165	0x3c9b9bc7	0.018995179
166	0xbca195d2	-0.01972476
167	0x3e01d0b7	0.12677275
168	0xbc3e4a23	-0.011614355
169	0xbdaebe84	-0.08532432
170	0xbd1bd518	-0.03804502
171	0xbda2294f	-0.07918035
172	0x3d9cfb02	0.076650634
173	0xbdd3b035	-0.10336343
174	0x3ca1e1dd	0.01976102
175	0xbd7c9d00	-0.061673164
176	0x3defb6f2	0.11704816
177	0xbcaa7a0c	-0.02081015
178	0x3e036797	0.12832485
179	0xbd0abb3f	-0.033869978
180	0x3d0d2102	0.034455307
181	0x3c56e5bb	0.013116295
182	0xbcc9c444	-0.02462972
183	0xbd07fa9b	-0.03319798
184	0xbce18326	-0.027528357
185	0x3a237f7f	0.0006236955
186	0xbd153216	-0.03642472
187	0xbd61d373	-0.055133294
188	0xbcdeb43b	-0.02718555
189	0x3b1d2f5f	0.0023984534
190	0x3d2b0a4f	0.041757878
191	0xbd649787	-0.05580857
192	0x3bceda7e	0.0063126674
193	0xbdb6e6a7	-0.08930712
194	0x3d03e37e	0.032199375
195	0x3ca77e4a	0.020445962
196	0xbc5a2f96	-0.013317009
197	0xbc1d2de9	-0.009593465
198	0xbcd55159	-0.026039766
199	0x3c333b72	0.010939466
200	0xbbdddc65	-0.006770658
201	0xbd5c0095	-0.053711493
202	0x3ddbef12	0.107389584
203	0x3e17ef68	0.1483742
204	0x3bbebc22	0.005820767
205	0xbc2ac1c9	-0.010422179
206	0xbd89f3d1	-0.067359574
207	0x3c241559	0.010014855
208	0xbd982630	-0.07429159
209	0xbdaeee89	-0.08541591
210	0xbd66b6cc	-0.056326672
211	0xbc809f05	-0.015700826
212	0x3d967a7f	0.07347583
213	0xbd12fbf0	-0.035884798
214	0xbd114208	-0.035463363
215	0xbdab2a60	-0.08357692
216	0xbc94c923	-0.018162316
217	0xbdcd80eb	-0.10034355
218	0x3cf16318	0.029466197
219	0x3cbeeddf	0.023306785
220	0x3c931410	0.017953902
221	0xbd3ee9aa	-0.04660956
222	0xbcc0ac31	-0.023519607
223	0xbc53e2df	-0.012932508
224	0xbd5f832a	-0.054568447
225	0xbd949fec	-0.07257065
226	0x3c3bb85a	0.011457527
227	0xbd9916ce	-0.07475053
228	0xbbb80bd2	-0.0056166435
229	0xbd0b66d3	-0.034033608
230	0x3de67615	0.11252991
231	0x3c3aa749	0.011392423
232	0x3d03e238	0.03219816
233	0x3c82ed83	0.015982395
234	0xbd077154	-0.033067062
235	0x3bbbe39a	0.0057339193
236	0x3d882e12	0.06649412
237	0x3c891ea7	0.016738249
238	0x3c5cc66b	0.013475041
239	0xbdb185e2	-0.08668114
240	0xbd7034d8	-0.058644146
241	0xbd8c7634	-0.06858483

h2o.weight f4 [6, 242]
0	0xbd3075c7	-0.04308107
1	0xbde2a942	-0.110674396
2	0x3be38525	0.0069433623
3	0xbd152652	-0.0364135
4	0xbde15ef6	-0.110044405
5	0x3dc53022	0.09628321
6	0x3e1b82e9	0.15186657
7	0x3c9e1299	0.019295977
8	0xbd3ef234	-0.0466177
9	0x3b67ec89	0.0035388789
10	0xbd18ca1e	-0.03730213
11	0x3cde5733	0.02714119
12	0xbe55ca82	-0.20878032
13	0x3de7c3ce	0.11316644
14	0xbd3c74e0	-0.0460099
15	0x3da7e0fe	0.08197211
16	0x3bba5680	0.005686581
17	0x3de51425	0.11185483
18	0xbdd1d770	-0.102461696
19	0xbde2c3f1	-0.11072529
20	0x3e06ab23	0.13151221
21	0x3c8775d5	0.016535679
22	0xbd03c673	-0.032171678
23	0x3d293e7e	0.041319363
24	0x3e279a1d	0.16367383
25	0xbade87c4	-0.0016977717
26	0xbce7b6f5	-0.028285483
27	0x3d83a87e	0.06428622
28	0x3d2b2521	0.041783456
29	0xbd71c1f9	-0.059022877
30	0x3e145e57	0.14489113
31	0x3dd94f01	0.10610772
32	0xbbd7f3fb	-0.006590364
33	0x3debb13c	0.11508414
34	0xbe01e5e9	-0.1268536
35	0xbe055212	-0.13019589
36	0x3d95dcfe	0.073175415
37	0xbde51cd7	-0.111871414
38	0x3d8456d3	0.06461873
39	0xbcc721ed	-0.02430817
40	0x3e023193	0.12714224
41	0x3e18f2c8	0.14936364
42	0xbd35884f	-0.044319447
43	0xbdb697f7	-0.08915704
44	0xbd0abbb8	-0.03387043
45	0x3dde1224	0.10843304
46	0xbda14d98	-0.07876128
47	0x3caf7cb4	0.021421768
48	0xbe2a5780	-0.16634941
49	0x3df05ea3	0.117368005
50	0x3d8f381c	0.06993124
51	0x3d1c45f7	0.03815266
52	0xbdd40859	-0.10353155
53	0xbe09697a	-0.13419142
54	0x3e220104	0.158207
55	0xbe04abd9	-0.1295618
56	0x3da91f17	0.08257883
57	0xbd748aa3	-0.059702527
58	0x3d727499	0.059193227
59	0xbd5b86d5	-0.053595383
60	0xbc54c874	-0.012987245
61	0x3c42e108	0.011894472
62	0xbd0dcd27	-0.034619477
63	0x3e23b462	0.1598678
64	0xbd2b826b	-0.041872423
65	0xbe488bb3	-0.19584541
66	0xbdbdd564	-0.09269217
67	0xbdf62060	-0.12017894
68	0xbd2679f6	-0.040643655
69	0xbd95ce74	-0.073147684
70	0xbe4afc82	-0.19822887
71	0x3d22dd76	0.039761983
72	0xbccc7863	-0.024959749
73	0xbda3ab0f	-0.07991611
74	0xbd9086a1	-0.070569284
75	0xbdcda393	-0.10040965
76	0xbe5aec59	-0.21379222
77	0x3e09c38b	0.134535
78	0x3d1b7e34	0.037962154
79	0xbe108c32	-0.1411598
80	0xbe2c9571	-0.16853882
81	0xbdf032cb	-0.11728438
82	0xbd62749a	-0.05528698
83	0x3d7700fe	0.06030368
84	0xbd933202	-0.071872726
85	0x3d7ef3d8	0.062244266
86	0x3db68ebc	0.08913943
87	0xbdac8665	-0.08424071
88	0xbdc730cc	-0.09726104
89	0xbe3c772d	-0.18404837
90	0x3dd55f66	0.104185864
91	0x3db04ef8	0.08608812
92	0x3db441b8	0.08801597
93	0xbd4fa0b1	-0.050690357
94	0x3e3a7c4d	0.1821148
95	0x3caecefc	0.021338932
96	0xbd6ebd04	-0.058285728
97	0xbd28d710	-0.041220725
98	0xbdc3c284	-0.09558585
99	0xbd5cf6eb	-0.053946417
100	0x3e1329ac	0.14371365
101	0xbdd7fe9e	-0.10546611
102	0x3db5be96	0.08874242
103	0x3b4fcfe7	0.0031709613
104	0xbd2d8310	-0.04236132
105	0x3d63c192	0.055604525
106	0xbe49fd4b	-0.1972553
107	0x3e1164a3	0.14198546
108	0x3b897711	0.004195102
109	0xbd56c301	-0.052432064
110	0x3c416d86	0.011805898
111	0x3e03d2c3	0.12873368
112	0xbd0336d2	-0.032034703
113	0xbdb7d49f	-0.08976101
114	0xbca8865e	-0.020571884
115	0x3dc11f04	0.09429744
116	0xbdf43027	-0.11923247
117	0xbc6f3ab0	-0.0146013945
118	0x3dd11148	0.10208374
119	0x3db24ebc	0.08706424
120	0xbd59501b	-0.05305491
121	0x3dc2f4fa	0.09519382
122	0x3e016188	0.12634861
123	0x3db93609	0.090435095
124	0xbd905373	-0.07047167
125	0xbe808c37	-0.25106975
126	0xbdb422a5	-0.087956704
127	0x3d02ea37	0.031961646
128	0xbd2b6079	-0.04184005
129	0xbe072ca8	-0.13200629
130	0x3db36b2b	0.08760675
131	0x3dc31611	0.09525693
132	0xbdbfc438	-0.09363598
133	0xbdd4340d	-0.103614904
134	0xbdf9cba8	-0.121970475
135	0xbd8a67ae	-0.067580566
136	0xbe18c318	-0.14918172
137	0x3e189a63	0.14902644
138	0xbda3af64	-0.079924375
139	0xbde92502	-0.11384012
140	0xbe1c27f0	-0.1524961
141	0xbdcf4e50	-0.10122359
142	0x3ddc988b	0.10771283
143	0x3db9dc55	0.09075228
144	0x3dfcacbf	0.12337636
145	0x3d8d1996	0.06889646
146	0x3e108ea3	0.14116912
147	0x3dd64beb	0.10463699
148	0x3d1219cf	0.035669144
149	0x3e149d8e	0.14513227
150	0x3d25ad6b	0.040448587
151	0x3d43cb0e	0.04780107
152	0x3df412e7	0.11917668
153	0x3d498d2b	0.049206894
154	0xbc89fd00	-0.016844273
155	0x3e017948	0.12643921
156	0x3d26b17b	0.040696602
157	0x3df12475	0.11774532
158	0x3e17099a	0.14749756
159	0xbe2cbb4e	-0.16868326
160	0x3db58f29	0.08865196
161	0xbbdaf2e0	-0.006681785
162	0xbdd3a1bc	-0.10333583
163	0x3ddcac4f	0.10775053
164	0x3d1c0751	0.038092915
165	0xbca8026c	-0.020508967
166	0xbbcdfe20	-0.0062863976
167	0x3e1be1aa	0.15222803
168	0x3baafb63	0.005217956
169	0xbd4e9b6c	-0.05044119
170	0x3d42c17f	0.047547814
171	0xbd622dd0	-0.05521947
172	0x3bdad506	0.0066782264
173	0xbd48b4ed	-0.04900067
174	0x3df0f160	0.11764789
175	0xbc81a376	-0.015825015
176	0x3d84437d	0.06458185
177	0xbdcef24d	-0.10104809
178	0x3dfd0755	0.12354914
179	0x3d57b7de	0.052665584
180	0x3d45b247	0.04826572
181	0xbe2b0416	-0.16700777
182	0xbd8d3230	-0.06894338
183	0xbd59ab3b	-0.053141814
184	0x3d0bfb27	0.034175064
185	0x3de2ac66	0.11068039
186	0x3d8ef53b	0.06980368
187	0xbdcb7653	-0.09934678
188	0xbde5eead	-0.112271644
189	0x3de7189d	0.112839915
190	0xbdc43e80	-0.095822334
191	0x3e3b55db	0.1829447
192	0xbda3fee3	-0.080076
193	0xbe0f195d	-0.13974519
194	0x3e33a090	0.17541718
195	0x3d4fdf15	0.050749857
196	0xbdda9071	-0.10672081
197	0x3d5741ae	0.05255287
198	0x3e0aee6a	0.1356751
199	0x3de9bf6b	0.11413463
200	0xbc102a25	-0.008799111
201	0x3cc04612	0.023470912
202	0xbd65730f	-0.05601793
203	0x3ccc02da	0.024903703
204	0x3db6cf2e	0.08926235
205	0x3e2c45e7	0.1682354
206	0x3d601a03	0.054712307
207	0xbe410bdf	-0.18852185
208	0xbe22b486	-0.15889177
209	0xbddf08eb	-0.10890373
210	0x3d4adce5	0.049527068
211	0xbd5425ff	-0.05179405
212	0x3e241a13	0.16025572
213	0xbd999f25	-0.075010575
214	0xbdc01528	-0.09379035
215	0xbdd04b1c	-0.10170576
216	0x3da3f86f	0.08006369
217	0xbdfb0b2d	-0.12257991
218	0xbd3e1f36	-0.046416484
219	0xbdcc9031	-0.0998844
220	0x3de8c731	0.11366118
221	0xbe07cd79	-0.13261975
222	0xbd92e615	-0.07172791
223	0xbe0613b2	-0.1309345
224	0x3e0ff3af	0.14057802
225	0xbdcc2120	-0.099672556
226	0xbe3abeeb	-0.18236892
227	0xbd62caad	-0.055369068
228	0xbbc0b334	-0.0058807377
229	0x3cfaee7f	0.030631302
230	0x3da59eea	0.08086951
231	0x3be15428	0.0068764873
232	0x3e0accb9	0.13554658
233	0x3e3e0b5c	0.18559021
234	0xbd55ad96	-0.052167498
235	0xbcb7727f	-0.022393463
236	0xbe186163	-0.148809
237	0xbd8b5b0b	-0.068044744
238	0xbd5237ef	-0.051322874
239	0xbdc8d6cc	-0.09806594
240	0xbdca9f21	-0.09893633
241	0x3d64421e	0.055727117
242	0x3da6591f	0.08122467
243	0x3d7e226a	0.06204454
244	0xbe2b119a	-0.16705933
245	0xbd396ce6	-0.04526987
246	0x3db9cab5	0.090718664
247	0xbdf7334d	-0.12070332
248	0x3e115c98	0.14195478
249	0x3d5471e0	0.051866412
250	0xbe18a0ff	-0.14905165
251	0x3e11f818	0.14254797
252	0x3be173de	0.0068802675
253	0xbde9f792	-0.114241734
254	0xbe45ea33	-0.19327621
255	0xbe0b847d	-0.13624759

h2o.bias f4 [6]
0	0x3ca47b4a	0.02007832
1	0x3d24a70b	0.040198367
2	0x3db8163c	0.08988616
3	0xbd704286	-0.05865719
4	0x3b9a3da6	0.004707056
5	0x3cf5429a	0.029938985

h2h.weight f4 [242, 242]
0	0x3b1d08f2	0.002396163
1	0x3dd1a1bf	0.10235929
2	0xbbc12b32	-0.005895042
3	0x3c113141	0.008861841
4	0x3d17943e	0.03700661
5	0x3bf20aba	0.0073865326
6	0x3c395e5a	0.011313999
7	0xbd52e8eb	-0.05149166
8	0xbcd7831e	-0.026307639
9	0x3d680dcf	0.056653794
10	0xbc6256f4	-0.013814677
11	0xbe13f2d5	-0.14448102
12	0x3cf626fe	0.03004789
13	0xbe42efbf	-0.19036768
14	0xbe0b91fc	-0.13629907
15	0xbd1b79ed	-0.037958074
16	0xbd01264e	-0.03153067
17	0x3d93c9d2	0.072162285
18	0xbc97a575	-0.018511513
19	0xbc40eaba	-0.011774713
20	0xbd81bc38	-0.06334728
21	0x3d63e1b4	0.05563517
22	0x3d4bfe65	0.049803156
23	0x3cf9cc64	0.030492969
24	0x3d9d7e59	0.076901145
25	0xbd1a6661	-0.037695292
26	0x3d44758b	0.04796366
27	0x3c3b9ed3	0.011451441
28	0x3c9bff3e	0.019042607
29	0xbdf6fd8e	-0.120600805
30	0xbce6083e	-0.028080102
31	0xbc306d69	-0.010768273
32	0x3db0b6ca	0.08628614
33	0x3d15cdce	0.036573224
34	0xbd92b9e1	-0.0716436
35	0x3d4a2a0a	0.049356498
36	0x3d8c1cee	0.068414554
37	0x3cbc900e	0.02301791
38	0xbc3eb3f2	-0.011639582
39	0xbd22e414	-0.039768293
40	0xbc8532b4	-0.016259529
41	0xbb78fdaf	-0.0037993004
42	0xbb857857	-0.0040731835
43	0xbc29b70f	-0.010358586
44	0xbb75d3f6	-0.0037510372
45	0xbda855ae	-0.08219467
46	0xbba4f7a6	-0.005034405
47	0xbd22fdcd	-0.039792825
48	0xbd29c021	-0.041442994
49	0xbdda9a7e	-0.10673998
50	0xbcce1c4f	-0.025159983
51	0x3d35ebb7	0.04441425
52	0xbbafefd6	-0.005369167
53	0xbe213dd9	-0.1574625
54	0x3d194976	0.037423573
55	0x3d867a29	0.06566269
56	0xbd28f1a4	-0.04124607
57	0xbd073c8d	-0.03301673
58	0xbdfb7021	-0.12277246
59	0xbe19c166	-0.15015182
60	0x3d3123c2	0.043246992
61	0x3d27e801	0.04099274
62	0x3d7c7395	0.061633665
63	0x3baccf96	0.0052737696
64	0xbda59dcd	-0.08086739
65	0x3d5e68c2	0.054299124
66	0xbd655179	-0.0559859
67	0x3c97ef64	0.018546768
68	0x3d516f9b	0.051131826
69	0xbcd910b0	-0.026497215
70	0x3d91f7d9	0.07127351
71	0x3d13c240	0.036073923
72	0x3d0f08bb	0.034920435
73	0xbd3579c2	-0.04430557
74	0xbd80922c	-0.0627788
75	0x3c466c2f	0.012110754
76	0xbd3a7529	-0.04552189
77	0xbca6a712	-0.020343337
78	0xbd77c7f7	-0.060493436
79	0xbb569549	-0.003274279
80	0xbdde36c8	-0.108502924
81	0x3ce3f3cb	0.02782621
82	0xbce3c6a3	-0.027804678
83	0x3e0ba371	0.13636567
84	0xbd648d86	-0.05579903
85	0xbdba20f6	-0.09088318
86	0xbda78769	-0.08180124
87	0xbc5ec441	-0.013596595
88	0x3d80b6cf	0.06284868
89	0xbd7fb631	-0.06242961
90	0xbd05cc7a	-0.032665707
91	0x3daba727	0.08381491
92	0x3c6e2d4b	0.014537166
93	0xb9cfd603	-0.00039641568
94	0x3ca31322	0.019906584
95	0xbd18fd65	-0.03735103
96	0xbc4094c8	-0.011754222
97	0x3c492902	0.012277843
98	0x3c97cbc3	0.018529778
99	0x3caa8d6f	0.020819394
100	0x3dbee637	0.09321254
101	0x3c5099de	0.012731997
102	0xbdc315dc	-0.09525654
103	0xbd7998df	-0.060936805
104	0xbca28aeb	-0.019841632
105	0xbd63f4f8	-0.055653542
106	0xbd16abfc	-0.03678511
107	0xbc5f5f7b	-0.013633604
108	0xbaffac20	-0.0019506253
109	0x3e278481	0.1635914
110	0xbc4e152a	-0.012578288
111	0xbd6702bf	-0.056399103
112	0x3d7bfa68	0.061518103
113	0xbd112666	-0.03543701
114	0xbc8e4b5b	-0.017369917
115	0x3d7755bb	0.060384493
116	0xbd9e7330	-0.07736814
117	0xbc3aa439	-0.011391693
118	0xbd7d6ecd	-0.061873246
119	0x3db1fc95	0.08690754
120	0xbd212447	-0.039341237
121	0xbd8923a2	-0.066962495
122	0x3cf39822	0.029735629
123	0x3e1e5ae3	0.15464358
124	0xba9efdef	-0.0012130121
125	0xbc4d4b36	-0.012530139
126	0x3d143750	0.036185563
127	0x3d78b976	0.060723744
128	0x3cb655f0	0.022257775
129	0xbdff4b06	-0.124654815
130	0x3d5de99a	0.054177858
131	0x3d800c25	0.062523164
132	0x3c17407d	0.009231684
133	0xbd660a0d	-0.05616193
134	0xbd9d57b2	-0.07682742
135	0x3cce4c40	0.025182843
136	0xbd1e928d	-0.03871398
137	0x3e0b9a52	0.13633087
138	0xbd839c96	-0.06426351
139	0xb98bc06c	-0.00026655511
140	0x3ce458f5	0.02787445
141	0x3d96f3d3	0.073707245
142	0x3ce024ed	0.027361358
143	0x3da3dafc	0.08000752
144	0x3dc80d83	0.09768202
145	0x3d52be02	0.051450737
146	0x3da61add	0.081105925
147	0xbdbff596	-0.09373014
148	0xbd22a978	-0.0397124
149	0x3cf4df48	0.029891625
150	0x3db0ac38	0.08626598
151	0xbc040e8d	-0.00806011
152	0xbd79504a	-0.060867585
153	0x3d7f0cd8	0.062268108
154	0x3cadb0fc	0.021202557
155	0xbe080904	-0.13284689
156	0x3d25bae2	0.04046143
157	0xbde2c0e8	-0.1107195
158	0xbd382b88	-0.04496339
159	0xbc132a17	-0.008982203
160	0x3b4fa92f	0.0031686535
161	0xbd37f5bc	-0.044912085
162	0x3d782899	0.060585592
163	0xbcf6b860	-0.030117214
164	0xbe121a50	-0.1426785
165	0xbd45c847	-0.048286702
166	0xbd8f66ba	-0.070020154
167	0x3d7d46b7	0.061835017
168	0xbd121968	-0.03566876
169	0x3d364995	0.044503767
170	0x3ce603b3	0.028077936
171	0x3c248c23	0.010043177
172	0xbd6ec8c0	-0.05829692
173	0x3ccc847a	0.024965513
174	0xbc5d6940	-0.013513863
175	0xbd93b22f	-0.0721172
176	0x3dd23d2b	0.10265573
177	0x3d3c7849	0.04601315
178	0xbd827973	-0.06370821
179	0x3dc35396	0.09537427
180	0x3caef605	0.021357546
181	0xbd9fd9ab	-0.07805189
182	0xbc3e0870	-0.011598691
183	0x3ca0c818	0.019626662
184	0xbd9c38b9	-0.076280065
185	0xbda003ff	-0.07813262
186	0x3c610a71	0.0137354
187	0xbdfa5de6	-0.12224941
188	0x3d80a13d	0.06280754
189	0x3d95827d	0.07300279
190	0x3e01b230	0.1266563
191	0x3c5c8c47	0.013461179
192	0xbd498d44	-0.049206987
193	0x3e1f11d1	0.1553414
194	0xbe0e9610	-0.13924432
195	0xbde58a4d	-0.112080194
196	0xbc275b3b	-0.010214622
197	0xbc625369	-0.013813832
198	0xbd7f7e92	-0.062376566
199	0xbdc70542	-0.097178
200	0x3cbecfe3	0.023292487
201	0xbd9f3673	-0.07774057
202	0x3d164ba5	0.036693234
203	0x3dd3dcbc	0.10344836
204	0x3c105e25	0.008811508
205	0x3c95c59c	0.018282704
206	0x3cbce974	0.023060538
207	0x3d6cfcbf	0.057858225
208	0x3d76ca02	0.060251243
209	0xbd3d46f6	-0.04621025
210	0x3d120e28	0.03565803
211	0xbd64b8bc	-0.05584024
212	0xbd223df0	-0.03960985
213	0xbdc42fbd	-0.09579418
214	0x3d22a4b6	0.03970786
215	0xbd9cbb47	-0.07652908
216	0xbd459764	-0.04824008
217	0xbd09fde9	-0.033689413
218	0xbdad31de	-0.08456777
219	0x3d22d1da	0.03975091
220	0x3d419e05	0.04726984
221	0x3c18dcf0	0.009330019
222	0xbda97ce9	-0.08275778
223	0xbe0ea0c3	-0.13928513
224	0xbd591bf1	-0.053005163
225	0xbd8c9650	-0.06864607
226	0xbce3c5a1	-0.027804198
227	0x3d88dd5e	0.066828474
228	0xbc9af5ff	-0.018916128
229	0x3d30a226	0.043123387
230	0x3e25bc8a	0.16185203
231	0xbd88a625	-0.066723146
232	0xbd188783	-0.03723861
233	0xbd905749	-0.07047898
234	0x3c2c33df	0.010510414
235	0xbe18fda6	-0.14940509
236	0xbe143f27	-0.14477216
237	0x39dd5559	0.00042215994
238	0x3d0de975	0.03464647
239	0xbd2efa19	-0.04271898
240	0xbc882454	-0.016618885
241	0xbc90ce4f	-0.0176765
242	0xbda8e0fa	-0.08246036
243	0x3d8042cd	0.06262741
244	0xbb1c84e7	-0.0023882927
245	0x3d06298c	0.032754466
246	0x3ca5705d	0.02019518
247	0x3c9ad359	0.018899607
248	0xbc06289f	-0.008188396
249	0xbd53764f	-0.0516265
250	0xbc2f4832	-0.010698365
251	0xbb984cf3	-0.004647845
252	0x3cc5e73a	0.024158109
253	0x3c91737f	0.017755268
254	0x3ca5a9c5	0.020222554
255	0xbc821843	-0.01588071

h2h.bias f4 [242]
0	0x3dc0504f	0.09390318
1	0xbc1200e7	-0.008911348
2	0x3d69a5d8	0.057042927
3	0x3db46268	0.08807832
4	0xbd107dc2	-0.035276182
5	0x3c975c09	0.018476503
6	0x3dc8cbc2	0.09804489
7	0x3e020b7e	0.12699696
8	0x3da9cbd2	0.08290829
9	0x3e119e1f	0.14220475
10	0x3d99ae07	0.07503896
11	0xbd06d626	-0.03291907
12	0x3d7ff90e	0.062493376
13	0x3b8fd9e2	0.0043899873
14	0xbd0f1200	-0.034929276
15	0x3d4d9604	0.050191894
16	0xbcf51b13	-0.029920137
17	0x3c4fcf21	0.012683661
18	0xbc35ebac	-0.011103552
19	0x3be42ecf	0.006963588
20	0x3c96e820	0.018421233
21	0xbd6562f6	-0.05600258
22	0xbcef0594	-0.029177465
23	0xba9cbb38	-0.0011957651
24	0x3d42c65a	0.047552444
25	0x3d530769	0.05152074
26	0x3d1151fa	0.03547857
27	0xbd32c55a	-0.04364524
28	0xbda7246d	-0.081612445
29	0xbd10ab57	-0.035319652
30	0xbd7216d4	-0.0591038
31	0xbccb5465	-0.024820516
32	0x3e110b24	0.14164406
33	0x3d6513d7	0.055927124
34	0xbba9c214	-0.0051806066
35	0x3da6f737	0.08152621
36	0x3bb0aeb0	0.005391918
37	0x3c6872e4	0.014187548
38	0xbd2902a9	-0.041262303
39	0x3c35c3fb	0.011094089
40	0xbcecb7b8	-0.028896198
41	0xbd36c9dd	-0.044626106
42	0xbc9549ae	-0.01822361
43	0xbc70b191	-0.014690773
44	0xbd2bd067	-0.041946795
45	0x3c3d1e0c	0.011542808
46	0xbd4c6160	-0.04989755
47	0xbcb1010b	-0.021606943
48	0xbb87de15	-0.0041463473
49	0x3d97a237	0.07403987
50	0xbc130b2c	-0.008974832
51	0xbcd0c8ed	-0.025486434
52	0x3db4bdae	0.08825241
53	0xbc6a4c05	-0.014300351
54	0xbc95d177	-0.018288357
55	0x3c86b699	0.016444491
56	0x3d5473c3	0.05186821
57	0x3c56314e	0.013073279
58	0x3d9cd708	0.076582015
59	0x3d791ffc	0.06082152
60	0x3d8afe20	0.06786752
61	0x3bcfd2ca	0.0063422667
62	0xbcf58746	-0.02997173
63	0x3dc888b6	0.097917005
64	0xbda2884e	-0.07936154
65	0x3dce3156	0.10068004
66	0xbb46cff7	-0.003033636
67	0xbc731175	-0.014835705
68	0xbd2787e1	-0.04090107
69	0x3d83d256	0.06436603
70	0x3d19e526	0.03757205
71	0x3ddf31ea	0.10898192
72	0x3d93ceb9	0.072171636
73	0xbd2ef4ec	-0.042714044
74	0xbd9e36c3	-0.07725289
75	0xbd56f07f	-0.05247545
76	0x3d19103f	0.03736901
77	0x3ceeba7d	0.029141659
78	0xbcfa3029	-0.030540543
79	0xbd6a8e24	-0.057264462
80	0x3d7e4d33	0.06208534
81	0x3b832621	0.004002348
82	0xbd00141a	-0.03126917
83	0xbd0b7d9d	-0.03405534
84	0xbba4ddc5	-0.00503132
85	0xbd08227f	-0.033236023
86	0x3d52a109	0.051423106
87	0xbd0b01c1	-0.03393722
88	0x3da14257	0.078739814
89	0x3d156d55	0.03648122
90	0x3cb50e13	0.022101438
91	0x3d7f21fd	0.062288273
92	0xbcac50dd	-0.021034652
93	0x3ce9278b	0.028461238
94	0x3e590119	0.21191825
95	0xbd62d07a	-0.0553746
96	0xbcd5d446	-0.026102196
97	0xbce7dbc2	-0.02830303
98	0x3c415768	0.011800624
99	0x3df4ee7f	0.11959552
100	0x3cb500f3	0.02209518
101	0xbcfe146e	-0.031015601
102	0xbce747df	-0.028232513
103	0xbd052457	-0.03250536
104	0xbcb3e437	-0.021959407
105	0xbca3b1f5	-0.019982317
106	0xbc4ea79e	-0.012613205
107	0x3c9920e6	0.018692445
108	0x3e1be30c	0.1522333
109	0x3e1640d5	0.14673169
110	0xbdab103f	-0.08352708
111	0x3d516327	0.05111995
112	0x3c98ad40	0.0186373
113	0xbb775ae2	-0.003774338
114	0x3e0e134e	0.13874552
115	0xbcae40b2	-0.021271084
116	0xbcaf811a	-0.021423865
117	0x3dd92174	0.10602084
118	0xbd7f6987	-0.062356498
119	0x3b505d35	0.0031793837
120	0xbc3346f9	-0.010942214
121	0x3d7c26c0	0.061560392
122	0xbda95716	-0.082685634
123	0xbc07eb46	-0.00829584
124	0xbcb38761	-0.02191514
125	0x3d939480	0.072060585
126	0xbcc6ece2	-0.024282876
127	0xbcb92cb5	-0.022604326
128	0x3c415a48	0.01180131
129	0xbdc56dd2	-0.09640087
130	0x3dae3b63	0.08507421
131	0xbd869ce4	-0.06572893
132	0x3c5c2e16	0.013438722
133	0xbd4d5987	-0.050134208
134	0x3cd34967	0.025791837
135	0xba93f72d	-0.0011288874
136	0xbbcd7b46	-0.006270799
137	0x3ca156b2	0.01969466
138	0x3dde379f	0.10850453
139	0xbc91ff04	-0.017821796
140	0x3c9f664e	0.019457962
141	0x3d94c31f	0.07263779
142	0xbaf35915	-0.0018565977
143	0xbd544aec	-0.051829264
144	0xbd761d71	-0.06008667
145	0x3cfa0fc2	0.030525092
146	0xbd0162ea	-0.031588472
147	0x3ceb39b1	0.028714033
148	0x3c2d9896	0.010595461
149	0x3d33ae5e	0.04386746
150	0xbda524c4	-0.08063653
151	0x3e1bd470	0.15217757
152	0x3dd982ca	0.10620649
153	0x3c83ec04	0.016103752
154	0xbc95308d	-0.018211627
155	0xbd0ae456	-0.033909164
156	0x3bb8a865	0.0056353086
157	0xbd3ae917	-0.045632448
158	0xbc06d92c	-0.008230489
159	0xbd4f18c2	-0.05056072
160	0xbd24f082	-0.04026843
161	0x3d007b23	0.031367432
162	0xbda038c1	-0.07823325
163	0x3d1421e3	0.03616513
164	0x3d040075	0.032227
165	0x3c9b9bc7	0.018995179
166	0xbca195d2	-0.01972476
167	0x3e01d0b7	0.12677275
168	0xbc3e4a23	-0.011614355
169	0xbdaebe84	-0.08532432
170	0xbd1bd518	-0.03804502
171	0xbda2294f	-0.07918035
172	0x3d9cfb02	0.076650634
173	0xbdd3b035	-0.10336343
174	0x3ca1e1dd	0.01976102
175	0xbd7c9d00	-0.061673164
176	0x3defb6f2	0.11704816
177	0xbcaa7a0c	-0.02081015
178	0x3e036797	0.12832485
179	0xbd0abb3f	-0.033869978
180	0x3d0d2102	0.034455307
181	0x3c56e5bb	0.013116295
182	0xbcc9c444	-0.02462972
183	0xbd07fa9b	-0.03319798
184	0xbce18326	-0.027528357
185	0x3a237f7f	0.0006236955
186	0xbd153216	-0.03642472
187	0xbd61d373	-0.055133294
188	0xbcdeb43b	-0.02718555
189	0x3b1d2f5f	0.0023984534
190	0x3d2b0a4f	0.041757878
191	0xbd649787	-0.05580857
192	0x3bceda7e	0.0063126674
193	0xbdb6e6a7	-0.08930712
194	0x3d03e37e	0.032199375
195	0x3ca77e4a	0.020445962
196	0xbc5a2f96	-0.013317009
197	0xbc1d2de9	-0.009593465
198	0xbcd55159	-0.026039766
199	0x3c333b72	0.010939466
200	0xbbdddc65	-0.006770658
201	0xbd5c0095	-0.053711493
202	0x3ddbef12	0.107389584
203	0x3e17ef68	0.1483742
204	0x3bbebc22	0.005820767
205	0xbc2ac1c9	-0.010422179
206	0xbd89f3d1	-0.067359574
207	0x3c241559	0.010014855
208	0xbd982630	-0.07429159
209	0xbdaeee89	-0.08541591
210	0xbd66b6cc	-0.056326672
211	0xbc809f05	-0.015700826
212	0x3d967a7f	0.07347583
213	0xbd12fbf0	-0.035884798
214	0xbd114208	-0.035463363
215	0xbdab2a60	-0.08357692
216	0xbc94c923	-0.018162316
217	0xbdcd80eb	-0.10034355
218	0x3cf16318	0.029466197
219	0x3cbeeddf	0.023306785
220	0x3c931410	0.017953902
221	0xbd3ee9aa	-0.04660956
222	0xbcc0ac31	-0.023519607
223	0xbc53e2df	-0.012932508
224	0xbd5f832a	-0.054568447
225	0xbd949fec	-0.07257065
226	0x3c3bb85a	0.011457527
227	0xbd9916ce	-0.07475053
228	0xbbb80bd2	-0.0056166435
229	0xbd0b66d3	-0.034033608
230	0x3de67615	0.11252991
231	0x3c3aa749	0.011392423
232	0x3d03e238	0.03219816
233	0x3c82ed83	0.015982395
234	0xbd077154	-0.033067062
235	0x3bbbe39a	0.0057339193
236	0x3d882e12	0.06649412
237	0x3c891ea7	0.016738249
238	0x3c5cc66b	0.013475041
239	0xbdb185e2	-0.08668114
240	0xbd7034d8	-0.058644146
241	0xbd8c7634	-0.06858483
