TBCAS24/intuitivechip_classifier_lcsvsnlcs/SNN_ep-150-isize-1-8-1-hsize-242-bsize-32-lr-0.001-tmax_ms-300.0-Ts-10.0-k-6-dsetPath-VMODE_allchannels_ALLCLASS_auto_nospkfilter_cleaned_12x16_9mvpp_250mvofs_onedac_itail_50nA_N5b_OFFmerg/chip-classifier-2.pt (torch, 253495 bytes, 8 tensors)

thr_h_1 f4 [242]
0	0x3f800000	1.0
1	0x3f800000	1.0
2	0x3f800000	1.0
3	0x3f800000	1.0
4	0x3f800000	1.0
5	0x3f800000	1.0
6	0x3f800000	1.0
7	0x3f800000	1.0
8	0x3f800000	1.0
9	0x3f800000	1.0
10	0x3f800000	1.0
11	0x3f800000	1.0
12	0x3f800000	1.0
13	0x3f800000	1.0
14	0x3f800000	1.0
15	0x3f800000	1.0
16	0x3f800000	1.0
17	0x3f800000	1.0
18	0x3f800000	1.0
19	0x3f800000	1.0
20	0x3f800000	1.0
21	0x3f800000	1.0
22	0x3f800000	1.0
23	0x3f800000	1.0
24	0x3f800000	1.0
25	0x3f800000	1.0
26	0x3f800000	1.0
27	0x3f800000	1.0
28	0x3f800000	1.0
29	0x3f800000	1.0
30	0x3f800000	1.0
31	0x3f800000	1.0
32	0x3f800000	1.0
33	0x3f800000	1.0
34	0x3f800000	1.0
35	0x3f800000	1.0
36	0x3f800000	1.0
37	0x3f800000	1.0
38	0x3f800000	1.0
39	0x3f800000	1.0
40	0x3f800000	1.0
41	0x3f800000	1.0
42	0x3f800000	1.0
43	0x3f800000	1.0
44	0x3f800000	1.0
45	0x3f800000	1.0
46	0x3f800000	1.0
47	0x3f800000	1.0
48	0x3f800000	1.0
49	0x3f800000	1.0
50	0x3f800000	1.0
51	0x3f800000	1.0
52	0x3f800000	1.0
53	0x3f800000	1.0
54	0x3f800000	1.0
55	0x3f800000	1.0
56	0x3f800000	1.0
57	0x3f800000	1.0
58	0x3f800000	1.0
59	0x3f800000	1.0
60	0x3f800000	1.0
61	0x3f800000	1.0
62	0x3f800000	1.0
63	0x3f800000	1.0
64	0x3f800000	1.0
65	0x3f800000	1.0
66	0x3f800000	1.0
67	0x3f800000	1.0
68	0x3f800000	1.0
69	0x3f800000	1.0
70	0x3f800000	1.0
71	0x3f800000	1.0
72	0x3f800000	1.0
73	0x3f800000	1.0
74	0x3f800000	1.0
75	0x3f800000	1.0
76	0x3f800000	1.0
77	0x3f800000	1.0
78	0x3f800000	1.0
79	0x3f800000	1.0
80	0x3f800000	1.0
81	0x3f800000	1.0
82	0x3f800000	1.0
83	0x3f800000	1.0
84	0x3f800000	1.0
85	0x3f800000	1.0
86	0x3f800000	1.0
87	0x3f800000	1.0
88	0x3f800000	1.0
89	0x3f800000	1.0
90	0x3f800000	1.0
91	0x3f800000	1.0
92	0x3f800000	1.0
93	0x3f800000	1.0
94	0x3f800000	1.0
95	0x3f800000	1.0
96	0x3f800000	1.0
97	0x3f800000	1.0
98	0x3f800000	1.0
99	0x3f800000	1.0
100	0x3f800000	1.0
101	0x3f800000	1.0
102	0x3f800000	1.0
103	0x3f800000	1.0
104	0x3f800000	1.0
105	0x3f800000	1.0
106	0x3f800000	1.0
107	0x3f800000	1.0
108	0x3f800000	1.0
109	0x3f800000	1.0
110	0x3f800000	1.0
111	0x3f800000	1.0
112	0x3f800000	1.0
113	0x3f800000	1.0
114	0x3f800000	1.0
115	0x3f800000	1.0
116	0x3f800000	1.0
117	0x3f800000	1.0
118	0x3f800000	1.0
119	0x3f800000	1.0
120	0x3f800000	1.0
121	0x3f800000	1.0
122	0x3f800000	1.0
123	0x3f800000	1.0
124	0x3f800000	1.0
125	0x3f800000	1.0
126	0x3f800000	1.0
127	0x3f800000	1.0
128	0x3f800000	1.0
129	0x3f800000	1.0
130	0x3f800000	1.0
131	0x3f800000	1.0
132	0x3f800000	1.0
133	0x3f800000	1.0
134	0x3f800000	1.0
135	0x3f800000	1.0
136	0x3f800000	1.0
137	0x3f800000	1.0
138	0x3f800000	1.0
139	0x3f800000	1.0
140	0x3f800000	1.0
141	0x3f800000	1.0
142	0x3f800000	1.0
143	0x3f800000	1.0
144	0x3f800000	1.0
145	0x3f800000	1.0
146	0x3f800000	1.0
147	0x3f800000	1.0
148	0x3f800000	1.0
149	0x3f800000	1.0
150	0x3f800000	1.0
151	0x3f800000	1.0
152	0x3f800000	1.0
153	0x3f800000	1.0
154	0x3f800000	1.0
155	0x3f800000	1.0
156	0x3f800000	1.0
157	0x3f800000	1.0
158	0x3f800000	1.0
159	0x3f800000	1.0
160	0x3f800000	1.0
161	0x3f800000	1.0
162	0x3f800000	1.0
163	0x3f800000	1.0
164	0x3f800000	1.0
165	0x3f800000	1.0
166	0x3f800000	1.0
167	0x3f800000	1.0
168	0x3f800000	1.0
169	0x3f800000	1.0
170	0x3f800000	1.0
171	0x3f800000	1.0
172	0x3f800000	1.0
173	0x3f800000	1.0
174	0x3f800000	1.0
175	0x3f800000	1.0
176	0x3f800000	1.0
177	0x3f800000	1.0
178	0x3f800000	1.0
179	0x3f800000	1.0
180	0x3f800000	1.0
181	0x3f800000	1.0
182	0x3f800000	1.0
183	0x3f800000	1.0
184	0x3f800000	1.0
185	0x3f800000	1.0
186	0x3f800000	1.0
187	0x3f800000	1.0
188	0x3f800000	1.0
189	0x3f800000	1.0
190	0x3f800000	1.0
191	0x3f800000	1.0
192	0x3f800000	1.0
193	0x3f800000	1.0
194	0x3f800000	1.0
195	0x3f800000	1.0
196	0x3f800000	1.0
197	0x3f800000	1.0
198	0x3f800000	1.0
199	0x3f800000	1.0
200	0x3f800000	1.0
201	0x3f800000	1.0
202	0x3f800000	1.0
203	0x3f800000	1.0
204	0x3f800000	1.0
205	0x3f800000	1.0
206	0x3f800000	1.0
207	0x3f800000	1.0
208	0x3f800000	1.0
209	0x3f800000	1.0
210	0x3f800000	1.0
211	0x3f800000	1.0
212	0x3f800000	1.0
213	0x3f800000	1.0
214	0x3f800000	1.0
215	0x3f800000	1.0
216	0x3f800000	1.0
217	0x3f800000	1.0
218	0x3f800000	1.0
219	0x3f800000	1.0
220	0x3f800000	1.0
221	0x3f800000	1.0
222	0x3f800000	1.0
223	0x3f800000	1.0
224	0x3f800000	1.0
225	0x3f800000	1.0
226	0x3f800000	1.0
227	0x3f800000	1.0
228	0x3f800000	1.0
229	0x3f800000	1.0
230	0x3f800000	1.0
231	0x3f800000	1.0
232	0x3f800000	1.0
233	0x3f800000	1.0
234	0x3f800000	1.0
235	0x3f800000	1.0
236	0x3f800000	1.0
237	0x3f800000	1.0
238	0x3f800000	1.0
239	0x3f800000	1.0
240	0x3f800000	1.0
241	0x3f800000	1.0

thr_o f4 [6]
0	0x3f800000	1.0
1	0x3f800000	1.0
2	0x3f800000	1.0
3	0x3f800000	1.0
4	0x3f800000	1.0
5	0x3f800000	1.0

i2h.weight f4 [242, 8]
0	0xbe11469d	-0.14187093
1	0x3c85d9b8	0.016339168
2	0x3d31c313	0.043398928
3	0x3e003d3e	0.12523362
4	0x3dcd74bc	0.10032031
5	0x3d87cbb8	0.06630653
6	0xbe0c4eb5	-0.137019
7	0x3cd80eee	0.026374307
8	0x3ce04a4c	0.027379178
9	0xbcfefda0	-0.031126797
10	0xbd8fa2ce	-0.070134744
11	0x3dadc4d8	0.084848106
12	0x3dcf5589	0.101237364
13	0x3d7f1203	0.062273037
14	0x3dad909d	0.084748484
15	0xbdb98939	-0.09059376
16	0x3dba8785	0.091078795
17	0xbda8d226	-0.08243208
18	0x3e094936	0.13406834
19	0x3e3c7ef6	0.18407807
20	0xbddf73aa	-0.10910733
21	0x3e2c0789	0.1679975
22	0xbe1a70a8	-0.15082037
23	0x3cc91f4c	0.024551056
24	0x3da8a691	0.08234895
25	0x3dc4c6b0	0.09608209
26	0x3de1ffc5	0.11035112
27	0xbdda6e1a	-0.106655315
28	0xbda0dcab	-0.07854589
29	0xbc6cb81b	-0.014448191
30	0x3e0d86ef	0.13821004
31	0xbdd3309b	-0.10312005
32	0x3e0e7917	0.1391338
33	0xbd1eae95	-0.038740713
34	0x3d2fec41	0.04294992
35	0xbe150af4	-0.1455496
36	0x3e0f25ff	0.13979338
37	0x3d4b04e2	0.049565203
38	0x3d0012e2	0.031268008
39	0xbdffd843	-0.124924205
40	0xbe4127f0	-0.18862891
41	0xbc90d4ec	-0.017679654
42	0x3d455292	0.04817445
43	0xbdf5a166	-0.11993675
44	0x3e152400	0.14564514
45	0x3cc48e09	0.023993509
46	0x399cc92b	0.0002990452
47	0x3d94e6e1	0.07270599
48	0xbd9fe1cf	-0.078067414
49	0x3e00ccad	0.12578078
50	0x3c5c58b0	0.013448879
51	0xbe14db20	-0.14536715
52	0x3d655a8e	0.055994563
53	0x3dd31596	0.103068516
54	0xbe14e82b	-0.1454169
55	0x3cd51516	0.026011031
56	0xbbe9b26d	-0.0071318657
57	0x3dac0c30	0.08400762
58	0x3dbd6493	0.09247699
59	0xbdfac4ef	-0.12244593
60	0xbdd2a5c4	-0.102855235
61	0x3e120a26	0.14261684
62	0xbe0af301	-0.13569261
63	0x3d140c59	0.03614459
64	0x3d8065a5	0.06269387
65	0xbdb7335a	-0.089453414
66	0x3dbf2527	0.09333258
67	0x3db03f90	0.086058736
68	0xbdfca04d	-0.123352624
69	0x3defca9b	0.11708566
70	0xbd6740a8	-0.056458145
71	0xbd4f0b3b	-0.05054782
72	0x3c881006	0.016609203
73	0xbdb2ca4f	-0.087299936
74	0xbe1ddbac	-0.1541583
75	0xbd1ea468	-0.03873101
76	0xbd9fffe3	-0.078124784
77	0x3ce8b595	0.028406898
78	0x3d448c97	0.04798564
79	0x3dc7c8ea	0.09755118
80	0x3e5d6509	0.21620573
81	0x3cf232c0	0.029565215
82	0x3dc4f78e	0.0961753
83	0xbde65e91	-0.11248506
84	0x3e154d49	0.14580263
85	0x3e04b556	0.12959799
86	0x3a676f25	0.00088285125
87	0xbd2caf3b	-0.0421593
88	0xbb3fd1aa	-0.0029269257
89	0xbc351448	-0.011052199
90	0xbd8d8c43	-0.069115184
91	0xbda06c15	-0.07833115
92	0xbdba2233	-0.09088554
93	0x3e53f20b	0.20697801
94	0xbdb1fbf9	-0.08690638
95	0x3e22c034	0.15893632
96	0xbd9a4839	-0.07533307
97	0x3e17232b	0.1475951
98	0x3db346ac	0.08753714
99	0xbb2f797b	-0.002677529
100	0x3dfed21c	0.12442419
101	0xbc90fe33	-0.017699337
102	0xbc82c66b	-0.015963754
103	0x3b13f977	0.0022579113
104	0x3d8e3877	0.069443636
105	0x3d97eb45	0.07417921
106	0x3dd19c82	0.102349296
107	0x3df0a74f	0.117506616
108	0xbdaec997	-0.08534544
109	0xbd3e66b8	-0.04648468
110	0xbdce9f5f	-0.100889914
111	0x3e0a42da	0.13502064
112	0x3d867b34	0.06566468
113	0x3d3e8dc2	0.04652191
114	0x3d2c7756	0.042105995
115	0x3d40c2e0	0.047060847
116	0xbd9f58bb	-0.07780596
117	0xbd2f7a21	-0.04284108
118	0xbd7880d3	-0.06066973
119	0x3e051ac2	0.12998489
120	0xbe0d2f3e	-0.13787553
121	0xbe0c1f3d	-0.13683791
122	0x3da242c1	0.079228885
123	0xbda6716f	-0.081271045
124	0x3dd16716	0.1022474
125	0xbd48dbfc	-0.04903792
126	0x3dcf0c81	0.10109807
127	0x3d3fc104	0.046814933
128	0x3e1406ea	0.14455763
129	0xbce6d3d0	-0.028177172
130	0x3d57305e	0.05253636
131	0x3df2867c	0.11842057
132	0x3e1f9032	0.1558235
133	0x3d2c72c1	0.042101625
134	0x3e08396e	0.13303158
135	0x3d830642	0.06397678
136	0x3d70f7d1	0.058830086
137	0x3da678cd	0.0812851
138	0xbe085f3a	-0.13317576
139	0xbd92d77e	-0.07170008
140	0x3e16307f	0.14666937
141	0x3e1cbfe7	0.1530758
142	0x3e165744	0.14681727
143	0x3dc674a9	0.0969022
144	0xbc3b9ca0	-0.0114509165
145	0x3e10c5a1	0.1413789
146	0x3d81ca9e	0.06337474
147	0xbdf89c47	-0.121391825
148	0x3cb8621a	0.022507716
149	0xbe02189f	-0.12704705
150	0x3d63f28a	0.055651225
151	0xbd85fc76	-0.06542294
152	0x3d3ece8f	0.04658371
153	0xbdd89d84	-0.10576919
154	0x3dbaac6d	0.09114919
155	0x3db168d5	0.08662573
156	0x3de7b17e	0.11313151
157	0x3e117e89	0.14208426
158	0x3d8ad573	0.067789935
159	0xbda1f41b	-0.079078875
160	0xbdc2484d	-0.094864465
161	0x3e1843f0	0.14869666
162	0x3d3479d4	0.044061497
163	0x3d9b3f2b	0.07580408
164	0x3e226766	0.15859756
165	0x3de5884b	0.112076364
166	0xbde5fe4b	-0.11230143
167	0x3e08d521	0.13362552
168	0xbe3d7e77	-0.18505274
169	0x3d92155b	0.071329795
170	0x3dbfc963	0.09364583
171	0x3e10a2aa	0.14124551
172	0xbdfd2d87	-0.12362199
173	0x3e03edfc	0.12883753
174	0xbddabcc4	-0.106805354
175	0xbd78d445	-0.06074931
176	0x3d692a77	0.056925263
177	0x3d6e2eaa	0.05814997
178	0xbd6c63d5	-0.057712395
179	0x3c89b1e2	0.016808454
180	0xbd370e99	-0.044691656
181	0x3df963b7	0.12177222
182	0x3b2866aa	0.0025695958
183	0xbdc9ae2f	-0.09847676
184	0x3ca36103	0.01994372
185	0xbdb35024	-0.0875552
186	0xbc866d5b	-0.016409567
187	0x3c03efc1	0.008052767
188	0xbd15a4b9	-0.036534045
189	0xbdfdadbc	-0.12386653
190	0xbd945d76	-0.07244389
191	0x3de63575	0.11240665
192	0xbbe115fd	-0.0068690763
193	0x3dc1f3ec	0.094703525
194	0x3cfdc306	0.030976783
195	0xbbda3b63	-0.0066599115
196	0x3e04acfa	0.1295661
197	0xbda870a2	-0.08224608
198	0x3e1756de	0.14779231
199	0xbdb81621	-0.08988596
200	0xbde191d5	-0.110141434
201	0x3de7735f	0.11301302
202	0x3cd1deba	0.0256189
203	0xbdc8663a	-0.09785123
204	0x3df9cb8f	0.12197029
205	0x3ded43f9	0.115852304
206	0x3e0a1e30	0.13488078
207	0xbe12c1a8	-0.14331686
208	0x3ce55caf	0.027998297
209	0x3de21bbe	0.11040448
210	0xbd2d7416	-0.042347036
211	0x3e092d33	0.13396148
212	0x3b360703	0.0027775175
213	0xbd8709f2	-0.06593694
214	0x3d04265f	0.032263156
215	0xbdada46b	-0.08478626
216	0xbd076c9e	-0.03306257
217	0xbdd27c7b	-0.10277649
218	0xbdbca94e	-0.0921198
219	0xbde774e4	-0.11301592
220	0xbd8f23e9	-0.06989271
221	0x3deced76	0.115687296
222	0xbd5589f3	-0.05213351
223	0xbdbcfb6a	-0.09227641
224	0xbe3aadad	-0.18230315
225	0x3e1853a8	0.14875662
226	0x3cb260e1	0.021774711
227	0xbd3550ca	-0.0442665
228	0x3d0bf01b	0.03416453
229	0xbd42fc38	-0.047603816
230	0xbe5b5ea4	-0.21422821
231	0xbd55b5c8	-0.052175313
232	0x3e3aec6f	0.18254255
233	0x3e09df03	0.13463978
234	0x3de46213	0.11151519
235	0xbce630a4	-0.028099366
236	0x3e219845	0.15780742
237	0xbd8d8ccd	-0.06911621
238	0xbdcfc988	-0.10145861
239	0xbd9aeb74	-0.0756444
240	0xbc34fc47	-0.011046476
241	0xbd36ae2e	-0.044599704
242	0xbd893746	-0.06699996
243	0x3e226fb8	0.1586293
244	0x3e12822e	0.14307472
245	0xbcecc21e	-0.028901156
246	0xbe15e1ee	-0.14636967
247	0x3dd02e2a	0.10165055
248	0x3cc3375f	0.023830114
249	0x3df588ac	0.11988959
250	0x3d6c1028	0.057632595
251	0x3e1a1317	0.15046345
252	0xbdb94b55	-0.090475716
253	0xbe0625c7	-0.13100348
254	0xbc6b96d7	-0.014379225
255	0x3e2138d6	0.15744337

i2h.bias f4 [242]
0	0xbbcee5a4	-0.0063139964
1	0x3b859cd9	0.0040775356
2	0x3d1a6cbb	0.03770135
3	0x3c2ab5f9	0.010419362
4	0x3bf27682	0.007399381
5	0x3bbc16bd	0.0057400153
6	0xbc8d96e3	-0.017283862
7	0xbbed1c32	-0.007236027
8	0xbb22b1ca	-0.0024825209
9	0xb91fcdec	-0.00015240134
10	0x3dcabb73	0.09899034
11	0xbba5aa25	-0.005055683
12	0x3da8dc25	0.08245114
13	0xbc8517f8	-0.01624678
14	0x3b25d0e4	0.002530151
15	0x3869c34b	5.573341e-05
16	0x3bc9bc24	0.0061564613
17	0x3bd5bc6d	0.0065227062
18	0xbb85dfec	-0.0040855315
19	0xbb8a1205	-0.004213574
20	0x37858b40	1.5919679e-05
21	0xbad412c5	-0.001617991
22	0x3c2d493a	0.010576541
23	0x3ccab392	0.024743829
24	0x3b2265f4	0.0024780007
25	0xb96258a5	-0.00021586062
26	0x3c08b8e7	0.008344865
27	0x3b95f23e	0.0045759967
28	0xbd655146	-0.05598571
29	0xbc7f33bc	-0.015576299
30	0xb8f9ba1b	-0.0001190791
31	0x3b18b01b	0.0023298326
32	0x3c794e2c	0.0152163915
33	0xbbf9a102	-0.0076180706
34	0xba6c7a89	-0.00090209447
35	0xbb8b1df3	-0.0042455136
36	0xbc001714	-0.007818002
37	0x3c0ca436	0.008584073
38	0x3c56e757	0.013116679
39	0xbc9dd3c5	-0.019266019
40	0xbb03e651	-0.0020126293
41	0x3b760e14	0.0037545012
42	0xbc99ffcf	-0.018798737
43	0x381b7e10	3.7072285e-05
44	0x3e2cf8da	0.16891804
45	0x3ce4a6a9	0.027911501
46	0x3d846465	0.06464461
47	0xbc4d4cc2	-0.0125305075
48	0x3cf497e8	0.02985759
49	0x3e00e851	0.12588622
50	0xbb2ec581	-0.0026668014
51	0xbb26f507	-0.0025475638
52	0x3ceb830f	0.028749017
53	0x3a2b7fa6	0.00065421534
54	0xbc5247f5	-0.012834539
55	0xbc035848	-0.008016653
56	0xbb998bbb	-0.0046858466
57	0xbbbe8138	-0.005813744
58	0xbb05311e	-0.0020323466
59	0xbc4abc94	-0.012374062
60	0xbc67c589	-0.014146217
61	0x3bc82c50	0.006108798
62	0x3c2a2ed6	0.010387143
63	0x3b5d9e42	0.0033816253
64	0xbb5c4047	-0.0033607648
65	0x3d99572f	0.07487332
66	0xbcb05e58	-0.021529362
67	0xbc36dc0f	-0.0111608645
68	0xbd84acb5	-0.06478254
69	0xbb992d80	-0.0046746135
70	0xbb2d7e03	-0.0026472814
71	0x3ba19125	0.0049306327
72	0x3daba645	0.08381323
73	0xbc507c64	-0.01272497
74	0xbbd8e590	-0.006619163
75	0x3cba9180	0.022774458
76	0x3c2bebd7	0.01049324
77	0x3c3c7370	0.011502132
78	0xbbb8f39d	-0.0056442753
79	0x3cb18271	0.021668645
80	0x3c6ce6a6	0.014459288
81	0xbc4dc455	-0.012559016
82	0x3dc8d1bc	0.09805629
83	0x3da3aa56	0.079914734
84	0xbb13e9ad	-0.0022569702
85	0x3c9eaf2f	0.019370643
86	0xbb4da007	-0.0031375901
87	0x3cabe652	0.020983849
88	0xbd43800f	-0.047729548
89	0x3c00a20e	0.007851137
90	0xbd0adbff	-0.03390121
91	0x3c073bca	0.008254001
92	0x3b897b4b	0.004195606
93	0xba9442e3	-0.0011311438
94	0xbbf71a25	-0.0075409585
95	0xbc4eba1f	-0.012617617
96	0xbc0ab6ed	-0.0084664645
97	0x3ced86bf	0.028994916
98	0x3bc2e5b7	0.0059477943
99	0x3b25ced6	0.0025300286
100	0xbbcda0f1	-0.006275289
101	0xbabd7fcd	-0.0014457643
102	0xbc127b33	-0.008940506
103	0x3cccc806	0.024997722
104	0x3876a669	5.8805952e-05
105	0xbca3558e	-0.019938257
106	0xbbb4b1c4	-0.0055143554
107	0x3de3365b	0.11094352
108	0xbb570884	-0.0032811472
109	0x3ce958a0	0.028484643
110	0xbcd3d0e9	-0.025856452
111	0x3c38aa1a	0.011271024
112	0xbbe9740a	-0.0071244286
113	0x3ca0d4ca	0.019632716
114	0xbbcf304a	-0.006322895
115	0x3bb26b33	0.005444908
116	0xbba3ab5c	-0.004994793
117	0xbb66415e	-0.0035134177
118	0x3ca003d7	0.019533081
119	0x3cefb9b8	0.029263362
120	0x3bb1184c	0.0054045077
121	0x3db46eb7	0.0881018
122	0xbbcb4137	-0.0062028426
123	0x3c11ed48	0.00890667
124	0xbbd27c6d	-0.006423524
125	0xbc0bfdea	-0.008544425
126	0x3bbcc9a0	0.0057613403
127	0xbb2a64a5	-0.002599993
128	0xbc1cb977	-0.009565703
129	0xbc284912	-0.010271328
130	0x3cb0381f	0.021511136
131	0x3b3889eb	0.0028158377
132	0x3c30195a	0.010748232
133	0xbba3cae4	-0.0049985517
134	0xbb092865	-0.0020928618
135	0x3bc38f61	0.00596802
136	0x3d827f07	0.06371885
137	0x3bcf99df	0.0063354815
138	0x3b25da8b	0.0025307264
139	0x3c31cefc	0.010852572
140	0xbb5d3c1c	-0.0033757752
141	0xbbf25a21	-0.007395998
142	0x3b469a2a	0.0030304291
143	0x3c0d2080	0.008613706
144	0xbb4b67c5	-0.0031037193
145	0xbbb5abe2	-0.0055441717
146	0xbbfb19ae	-0.0076629734
147	0xbc41f2ae	-0.0118376445
148	0x3c1ae9a3	0.009455117
149	0x3db858c9	0.090013094
150	0xbbc92758	-0.0061387233
151	0xbbab1fef	-0.0052223126
152	0xba836ae2	-0.001002636
153	0x3db80436	0.08985178
154	0xbca24223	-0.019806927
155	0x3d9468b6	0.072465345
156	0x3c81a4a7	0.015825583
157	0x3e40ef2e	0.1884124
158	0x3caa918f	0.02082136
159	0xbbe99d39	-0.007129338
160	0xbbd9e34f	-0.0066494117
161	0x3ae8ad2a	0.0017751802
162	0x3c01a41a	0.00791266
163	0x3d3e4a12	0.046457358
164	0x3aaf8fb0	0.0013394263
165	0xbc51a034	-0.012794543
166	0xbaf537cd	-0.0018708647
167	0x3bdba60f	0.0067031453
168	0x3b827718	0.0039814822
169	0xbc1f2e33	-0.009715605
170	0x3bcb713d	0.0062085674
171	0x3c00544c	0.007832598
172	0x3e007a4d	0.12546654
173	0x3c8b5277	0.017007096
174	0x3d8376da	0.064191535
175	0xbacf6fcf	-0.0015826168
176	0xbbc89055	-0.0061207213
177	0x3a403514	0.0007332128
178	0x3d3321cb	0.0437334
179	0x3bceb042	0.0063076327
180	0x3c148373	0.009064543
181	0x38cfc3b4	9.906982e-05
182	0xbba25c3e	-0.004954844
183	0x3a76ffd7	0.00094222784
184	0x3afe8e39	0.0019421048
185	0x3b9b3dce	0.0047375923
186	0x3ca26f92	0.019828591
187	0x3c31c46d	0.010850054
188	0xbc826ebc	-0.015921943
189	0xbc4accfe	-0.0123779755
190	0x3bb0f1f0	0.005399935
191	0x3c313eb2	0.01081817
192	0xbc75c69e	-0.015000967
193	0x3e1ee0af	0.15515397
194	0x3c68a726	0.014200008
195	0xbb53c175	-0.0032311354
196	0x3b9ab69b	0.0047214753
197	0xbcce20d5	-0.02516214
198	0xbb032e60	-0.0020016655
199	0x3d525fe6	0.051360987
200	0xbadaca4a	-0.0016692367
201	0xbc224a6b	-0.009905438
202	0x3d39be59	0.045347545
203	0x3dd0f202	0.10202409
204	0xbab2ef83	-0.0013651702
205	0xbbf8396c	-0.0075752046
206	0x3a4537ce	0.0007523269
207	0x3be04478	0.0068440996
208	0xbbc41803	-0.0059843077
209	0x3b4f115e	0.0031596045
210	0xb98e0e6a	-0.0002709509
211	0x3c4fe644	0.012689177
212	0xbbcac9dd	-0.0061886148
213	0xbc848365	-0.016175935
214	0x3c190b6d	0.009341103
215	0xbb127759	-0.0022348969
216	0x3c809715	0.015697042
217	0x3cdfea00	0.02733326
218	0x3d00e9db	0.031473022
219	0x3d88ae8a	0.06673916
220	0xbc2d2417	-0.0105676865
221	0xbc1e1617	-0.009648821
222	0x3b4c132a	0.0031139352
223	0x3d47487d	0.048653115
224	0xbca23214	-0.01979927
225	0xbc08d313	-0.008351105
226	0xbc20885e	-0.0097981375
227	0xbc608de7	-0.013705707
228	0xbc59b0f0	-0.013286814
229	0x3d536276	0.05160757
230	0x3c70c3eb	0.014695148
231	0x3a3624cf	0.0006948234
232	0xbc9eb45a	-0.019373108
233	0xba21e9e2	-0.0006176514
234	0xbb287bae	-0.0025708484
235	0x3c78ceb0	0.015185997
236	0xbbd89877	-0.006609972
237	0x3d8db1a5	0.06918649
238	0xbc7e9adf	-0.015539854
239	0x3ba8292b	0.0051318607
240	0x3b93cb80	0.004510343
241	0x3be09e7e	0.0068548312

h2o.weight f4 [6, 242]
0	0x3c0b9b30	0.008520886
1	0xbdab5f60	-0.08367801
2	0xbe13f778	-0.1444987
3	0xbd9303bb	-0.07178446
4	0xbcd4b98f	-0.025967387
5	0xbe10fd9b	-0.14159243
6	0x3d37ae82	0.044844158
7	0x3e126712	0.1429713
8	0xbe2cdeb9	-0.16881837
9	0xbd85d860	-0.06535411
10	0x3e101f59	0.14074458
11	0xbe3d3588	-0.18477452
12	0xbe9de5a8	-0.30839276
13	0xbe122423	-0.14271598
14	0x3e0ccbbb	0.13749592
15	0xbded6e4b	-0.11593302
16	0x3baa578d	0.005198425
17	0x3dbde272	0.09271707
18	0x3de103e2	0.10987069
19	0xbdadbb44	-0.08482984
20	0x3d0ad628	0.03389564
21	0xbbbd9e4c	-0.0057866927
22	0xbd01b391	-0.03166539
23	0x3e5e304f	0.21698116
24	0x3e0adeb1	0.13561513
25	0x3ca7ba5d	0.020474607
26	0xbe8509e8	-0.2598412
27	0x3df217a7	0.118209176
28	0x3ca06ec1	0.019584062
29	0xbe98cd6b	-0.2984422
30	0x3db03ad6	0.08604972
31	0xbe1f984b	-0.15585439
32	0xbd838cd6	-0.06423347
33	0xbdf7956d	-0.120890476
34	0xbd199436	-0.03749486
35	0xbe03bc1f	-0.12864731
36	0x3c48012a	0.012207309
37	0x3d211248	0.039324075
38	0x3c623aed	0.013807994
39	0xbdf294b0	-0.11844766
40	0x3c55153e	0.013005553
41	0xbe0b2be0	-0.13590956
42	0xbe252ab8	-0.16129577
43	0xbe0a49ab	-0.13504665
44	0xbde831a0	-0.1133759
45	0x3df8ed9f	0.121546976
46	0xbe3bfb19	-0.18357505
47	0x3dc46ecf	0.095914476
48	0xbce2a2c4	-0.027665503
49	0xbe524c5d	-0.20536943
50	0xbe0e4738	-0.13894355
51	0x3dc381ba	0.09546228
52	0x3dc6bea1	0.09704328
53	0x3d7c1920	0.0615474
54	0x3d9da0f3	0.07696714
55	0xbd003d58	-0.031308502
56	0xbd829be9	-0.06377394
57	0xbdc3bb62	-0.09557225
58	0xbb895b1a	-0.0041917684
59	0x3c90e4c8	0.017687216
60	0x3e173c61	0.14769126
61	0xbde2ea04	-0.11079791
62	0xbddbf1d3	-0.10739484
63	0xbd4fc190	-0.050721705
64	0x3deb4bc2	0.11489059
65	0xbe994f64	-0.29943383
66	0x3dc416d2	0.09574665
67	0x3d27331d	0.04082023
68	0x3d903504	0.07041362
69	0xbd64bc7c	-0.055843815
70	0x3da8ff6f	0.08251845
71	0x3e02e18d	0.12781353
72	0xbd5cde01	-0.053922657
73	0x3eb7c93f	0.35895726
74	0xbd4d62cc	-0.05014305
75	0xbd0d9050	-0.034561455
76	0x3dc65c3c	0.09685561
77	0x3ba43062	0.0050106505
78	0xbd4706d7	-0.048590507
79	0xbd9aa0de	-0.07550214
80	0xbd2eef3f	-0.04270863
81	0xbe1713f9	-0.14753713
82	0x3e6b6c5f	0.22990559
83	0xbd98070c	-0.07423219
84	0xbc6cda97	-0.014456413
85	0xbcc0f19b	-0.023552706
86	0xbdb4e61c	-0.088329524
87	0xbd456818	-0.048194975
88	0x3dc3f1f5	0.09567634
89	0xbe11fd41	-0.14256765
90	0xbd5975e2	-0.053090937
91	0xbe175aaf	-0.14780687
92	0x3c5f672e	0.01363544
93	0xbdcf624b	-0.1012617
94	0xbd150bf0	-0.036388338
95	0x3de51bc0	0.111869335
96	0x3d3ba39a	0.04581032
97	0xbdf14a29	-0.11781723
98	0xbd1cae66	-0.038252257
99	0xbd95fe29	-0.07323868
100	0xbd971fb7	-0.07379096
101	0x3bfe1063	0.0077534183
102	0xbd7fd5a5	-0.062459607
103	0xbdf40f50	-0.11916983
104	0xbd9d13b7	-0.07669776
105	0x3c41430b	0.011795769
106	0xbe18de37	-0.14928518
107	0xbe06a26f	-0.13147901
108	0xbd9b1f35	-0.07574312
109	0xbe216a6e	-0.15763256
110	0x3b147773	0.0022654205
111	0xbd9dbf5f	-0.07702517
112	0x3a076dc2	0.00051661965
113	0xbe110027	-0.14160214
114	0x3d33d491	0.04390389
115	0x3e06bc35	0.13157733
116	0x3e092298	0.13392103
117	0xbc8bde9e	-0.017073926
118	0x3da7605d	0.08172677
119	0xbdd34b24	-0.10317066
120	0xbdb090fd	-0.08621404
121	0x3e838485	0.25687042
122	0x3da0b335	0.07846681
123	0xbd9a62b5	-0.07538358
124	0x3da5f97d	0.08104227
125	0x3da669ea	0.0812567
126	0x3df18a8c	0.11794004
127	0x3dc4f3d3	0.09616818
128	0xbc739849	-0.014867851
129	0x3d80ef19	0.06295604
130	0xbda3157e	-0.07963084
131	0xbd99770a	-0.07493408
132	0x3da52315	0.08063332
133	0x3d496349	0.04916695
134	0xbc1f317a	-0.009716386
135	0x3df2ef7e	0.11862086
136	0xbe4ad156	-0.19806418
137	0xbd64e29f	-0.055880185
138	0x3d97a392	0.074042454
139	0xbdd5f394	-0.104468495
140	0x3c93ec39	0.018056976
141	0x3d944184	0.072390586
142	0xbe3566aa	-0.17714944
143	0xbd925a92	-0.07146181
144	0xbdfc10d3	-0.123078965
145	0x3d187ea3	0.037230145
146	0xbe098366	-0.13429031
147	0x3ddf38fe	0.10899542
148	0xbdac1924	-0.08403233
149	0xbdb5070a	-0.08839233
150	0x3dc50c49	0.09621484
151	0x3d22a337	0.039706435
152	0x3db406ae	0.087903365
153	0x3d4490ed	0.047989774
154	0xbc68b974	-0.014204372
155	0x3d1294fa	0.035786606
156	0x3c5184b6	0.012787988
157	0xbea25118	-0.31702495
158	0x3dc01dff	0.09380721
159	0xbd8e0893	-0.06935229
160	0x3db7905c	0.08963081
161	0xbd830aa7	-0.06398516
162	0x38bfab74	9.139525e-05
163	0x3d9147f7	0.07093804
164	0x3dfe7dbd	0.124263264
165	0x3d8c9fd4	0.06866422
166	0x3d468316	0.048464857
167	0xbe364aef	-0.17802022
168	0x3d87054e	0.06592809
169	0x3d457598	0.04820785
170	0x3d8dbc08	0.0692063
171	0x3d533a02	0.051568992
172	0xbe3d9e5d	-0.18517442
173	0xbd910615	-0.07081238
174	0x3e120165	0.14258344
175	0x3dc39986	0.09550767
176	0xbc6d50bd	-0.014484582
177	0x3debd876	0.11515896
178	0x3e38bb44	0.18040186
179	0x3d0ea60a	0.034826316
180	0x3d929ea6	0.07159166
181	0xba001ee7	-0.00048874173
182	0x3e2c19d4	0.16806728
183	0x3d9d96a1	0.07694746
184	0xbe14c6f6	-0.14529023
185	0x3d8ab2cb	0.06772383
186	0xbd316757	-0.043311443
187	0xbe108089	-0.14111532
188	0x3c3b94ce	0.011449052
189	0xbd980919	-0.0742361
190	0xbd7f4531	-0.062321845
191	0xbd8b1f71	-0.06793106
192	0xbb14bf0e	-0.0022696885
193	0xbe62c593	-0.22145681
194	0xbda9d10a	-0.08291824
195	0xbdbb09f0	-0.09132755
196	0xbe0783d6	-0.13233885
197	0x3d3d81d8	0.046266407
198	0xbde27103	-0.110567115
199	0x3d62bcab	0.05535571
200	0xbc68b766	-0.014203882
201	0x3e9c7853	0.3056055
202	0xbdc5a6fc	-0.0965099
203	0x3e2de97f	0.16983603
204	0x3d8b4941	0.068010814
205	0x3e116bb2	0.14201239
206	0x3dd6304e	0.10458432
207	0xbe0795a8	-0.13240683
208	0x3cf6a850	0.030109555
209	0x3de5809e	0.112061724
210	0x3dc8ae87	0.097989134
211	0x3d450894	0.048103884
212	0xbd6f7f8f	-0.05847126
213	0xbc9310d3	-0.017952358
214	0x3cd106bf	0.025515912
215	0x3de89532	0.11356582
216	0xbdf732b6	-0.12070219
217	0xbe1f29b7	-0.15543257
218	0x3e00a3de	0.1256251
219	0xbc8886a5	-0.016665766
220	0xbc76c4db	-0.015061582
221	0xbe002de0	-0.125175
222	0xbd86f002	-0.065887466
223	0x3cd665fd	0.026171679
224	0x3e22e3d1	0.15907218
225	0x3d2e1c4b	0.04250745
226	0x3e2e6757	0.17031609
227	0xbd9d04a3	-0.076669
228	0x3dd521ae	0.104068145
229	0xbd9988b4	-0.07496777
230	0xbdd4d48c	-0.103921026
231	0xbc5dde5f	-0.013541787
232	0x3c45a23b	0.012062605
233	0x3e2c87b2	0.16848639
234	0xbdbe9c6e	-0.0930718
235	0x3c89a7cd	0.016803646
236	0x3e27a8cf	0.16372989
237	0x3d8086c6	0.06275706
238	0x3d6175bd	0.055043925
239	0x3dc74536	0.09729998
240	0xbdc11f10	-0.09429753
241	0x3d894207	0.06702047
242	0xbd570fad	-0.052505184
243	0xbd85cad3	-0.06532826
244	0xbdad5eff	-0.08465385
245	0xbd7887f9	-0.06067655
246	0xbe19160c	-0.14949816
247	0x3dc2bfe9	0.0950926
248	0x3d817ebc	0.06323001
249	0x3d93a900	0.072099686
250	0x3e027796	0.12740931
251	0xbe133ca1	-0.14378597
252	0x3c20aa49	0.009806224
253	0x3e6a3c2f	0.2287452
254	0xbd8cd056	-0.068756744
255	0xbe0fea6b	-0.14054267

h2o.bias f4 [6]
0	0x3ba3aacc	0.004994726
1	0xbbd4ac2e	-0.006490252
2	0x3b97d924	0.0046340395
3	0xbb8ed5d5	-0.004358987
4	0xbd1648e5	-0.03669061
5	0x3bf55f96	0.0074882014

h2h.weight f4 [242, 242]
0	0x3c314948	0.010820694
1	0xbc828146	-0.015930783
2	0x3d2aa807	0.04166415
3	0xbd30b1a2	-0.043138154
4	0xbd5feb76	-0.054667912
5	0xbd90ceb6	-0.07070677
6	0x3d660660	0.056158423
7	0x3dcefaf9	0.10106463
8	0x3d4d81c0	0.050172567
9	0xbd39b00d	-0.04533391
10	0x3de65d40	0.11248255
11	0xbd33e830	-0.043922603
12	0x3dff9238	0.12479061
13	0xbc9716c9	-0.018443482
14	0xbda263e8	-0.07929212
15	0x3cd867e0	0.026416719
16	0x3dd3153c	0.103067845
17	0xbe18d588	-0.14925206
18	0x3cd39d9f	0.025831996
19	0xbd3668b3	-0.044533443
20	0xbd06a6a5	-0.03287377
21	0xbcc21958	-0.023693725
22	0x3b8a9d60	0.0042301863
23	0xbc045cb3	-0.008078742
24	0x3dbaebb7	0.0912699
25	0x3e051da2	0.12999585
26	0x3c5fbaba	0.013655359
27	0xbdb7e256	-0.08978717
28	0xbd1ccac8	-0.038279325
29	0x3dbe9991	0.09306634
30	0x3c70b5c5	0.014691775
31	0x3decdaaa	0.11565144
32	0xbd5d13bc	-0.0539739
33	0xbd1dbba3	-0.038509022
34	0xbc82a222	-0.015946452
35	0xbdc7953a	-0.097452596
36	0x3dedb90e	0.11607562
37	0xbce2a078	-0.027664408
38	0x3bd54fcc	0.0065097567
39	0x3dc89c12	0.09795393
40	0x3dbd6905	0.092485465
41	0x3d088b1f	0.0333358
42	0xbe06da9b	-0.13169329
43	0x3d8723c4	0.065986186
44	0x3e3d1e3a	0.18468562
45	0x3d96ef5e	0.073698744
46	0xbca75573	-0.020426488
47	0x3d571ce4	0.052517787
48	0xbcb1fa93	-0.021725928
49	0x3d9ff638	0.078106344
50	0x3de53405	0.111915626
51	0x3d263865	0.040581126
52	0x3ca4d2ca	0.020120043
53	0x3be688fe	0.0070353737
54	0x3c3e9353	0.0116318045
55	0xbc60bf4b	-0.013717483
56	0x3cc00249	0.02343859
57	0xbd174cc7	-0.036938455
58	0xbcb3f42e	-0.02196702
59	0xbcc6be98	-0.024260804
60	0xbd82749c	-0.06369898
61	0xbd6036e4	-0.054739848
62	0x3b2d8dda	0.0026482255
63	0xbd467708	-0.04845336
64	0xbd0f4d87	-0.034986045
65	0xbd6a6b58	-0.057231277
66	0x3ca12873	0.019672608
67	0x3d00bb68	0.031428725
68	0xbc808115	-0.015686551
69	0xbb98cfc8	-0.0046634413
70	0xbcbcaa08	-0.023030296
71	0xbda68415	-0.081306614
72	0x3dd8693d	0.105669476
73	0x3dbf2c20	0.09334588
74	0x3d653443	0.055958044
75	0xba03fc52	-0.0005034852
76	0x3c8a1744	0.016856797
77	0x3ce7f08b	0.028312942
78	0x3d9a984c	0.075485796
79	0x3dbebf69	0.09313852
80	0x3d431c4f	0.04763442
81	0x3db35f38	0.08758396
82	0xbd8ea52e	-0.06965099
83	0x3da67f09	0.08129699
84	0x3d0484a6	0.032353066
85	0x3d950ff7	0.07278436
86	0xbc788d5b	-0.0151704205
87	0xbcef1401	-0.029184343
88	0x3db5a7ef	0.088699214
89	0x3d22fae4	0.03979005
90	0xbe009b7c	-0.12559313
91	0x3d8b825a	0.06811972
92	0x3d83bcf4	0.06432524
93	0xbbbff0f9	-0.0058575836
94	0xbcd214b6	-0.025644641
95	0x3d97c8b4	0.07411328
96	0x3ce2dcff	0.02769327
97	0xbd068285	-0.032839317
98	0x3df16701	0.117872246
99	0xbd43b31d	-0.047778238
100	0xbda9f918	-0.08299464
101	0xbb9207ed	-0.0044565112
102	0xbd7515be	-0.059835188
103	0xbd09d2f4	-0.033648446
104	0x3c5eea86	0.013605719
105	0xbdd7ef8c	-0.10543737
106	0xbe19b9be	-0.15012261
107	0xbdb5014d	-0.08838139
108	0xbd91da9c	-0.071217746
109	0x3d90059d	0.07032321
110	0xbd04cb1d	-0.032420266
111	0xbdd67799	-0.1047203
112	0xbceb6669	-0.028735356
113	0xbb77a301	-0.0037786367
114	0x3d3e9f05	0.04653837
115	0xbd803f09	-0.06262023
116	0xbd37a3cf	-0.044833954
117	0x3d06d079	0.03291366
118	0x3cceafaa	0.025230248
119	0x3c3f1ce2	0.011664601
120	0x3d83b59e	0.06431125
121	0x3c8da9ba	0.017292846
122	0x3b7fdb4d	0.0039040626
123	0x3d9760d9	0.07391519
124	0x3ba89a5a	0.0051453533
125	0x3d8f67e7	0.0700224
126	0xbc48248f	-0.0122157475
127	0xbc6599fe	-0.014013765
128	0x3c23dc93	0.010001319
129	0xbcf494d4	-0.029856123
130	0x3d21e0ff	0.039521214
131	0xbdf21816	-0.11821
132	0x3cbbb42c	0.022913061
133	0x3db2b599	0.08726043
134	0xbce5f87c	-0.028072588
135	0xbcfbb248	-0.03072466
136	0x3db5aec0	0.088712215
137	0xbd824450	-0.06360686
138	0x3dcc0a6b	0.099629246
139	0xbd997369	-0.07492716
140	0xbc4d38e2	-0.012525769
141	0x3d9c83da	0.07642336
142	0xbbcb17ee	-0.006197921
143	0x3d2fe111	0.04293925
144	0xbc289a14	-0.010290641
145	0x3d3a4ab5	0.045481402
146	0xbd408897	-0.047005262
147	0x3d270a5f	0.040781375
148	0xbd650c97	-0.05592021
149	0x3d82648c	0.06366834
150	0xbd2960c4	-0.04135205
151	0x3d278395	0.04089697
152	0xbd1adb5a	-0.037806846
153	0x3d773e12	0.06036193
154	0xbae4f828	-0.0017468976
155	0xbbba48e6	-0.0056849597
156	0x3d09d246	0.033647798
157	0x3e39fdb5	0.18163188
158	0xbd218373	-0.039432
159	0x3dad3330	0.08457029
160	0xbca6af30	-0.020347208
161	0x3d0361af	0.03207558
162	0x3d3171cc	0.043321416
163	0x3e42926e	0.19001171
164	0x3de156e2	0.110029
165	0xb8dc7e01	-0.000105138875
166	0xbe00036b	-0.12501304
167	0xbcb235b1	-0.021754118
168	0x3d0516f2	0.032492585
169	0x3d13ec37	0.036113944
170	0xbd0dd665	-0.03462829
171	0xbd259aa2	-0.040430672
172	0x3b4c1f74	0.0031146677
173	0x3dc0bbef	0.094108455
174	0xbcd10a59	-0.02551763
175	0xbd052d9f	-0.03251421
176	0xbdbe9af7	-0.09306901
177	0x3c974f23	0.018470353
178	0x3c22f6e5	0.00994656
179	0x3ca0e738	0.019641504
180	0xbde2f3b6	-0.110816404
181	0xbdde724e	-0.10861646
182	0x3d89a391	0.06720651
183	0xbd8f466d	-0.069958545
184	0xbc6b5de3	-0.014365646
185	0xbc078d3b	-0.008273418
186	0xbd8c11e3	-0.06839349
187	0x3d967e37	0.07348292
188	0xbe0933be	-0.13398644
189	0xbc9f514e	-0.019447949
190	0x3d51881b	0.05115519
191	0x3d153c0a	0.03643421
192	0x3d95e213	0.07318511
193	0x3cda2547	0.026629103
194	0xbd00c572	-0.0314383
195	0xbd8d847c	-0.06910035
196	0x3d957f79	0.07299704
197	0xbc39b585	-0.011334782
198	0xbda16c8c	-0.07882032
199	0xbc83bae7	-0.016080333
200	0xbcf1e567	-0.029528333
201	0xbd14fbd1	-0.036372963
202	0x3d6bf9bc	0.057611212
203	0xbcf48ef8	-0.029853329
204	0xbdbe1510	-0.09281361
205	0xbbc1d589	-0.005915348
206	0x3d11c054	0.03558381
207	0x3d3f9044	0.04676844
208	0xbcdf8fec	-0.027290307
209	0xbdf73de5	-0.12072352
210	0x3cb76e1c	0.022391371
211	0x3daa84a0	0.083260775
212	0xbaaa5a42	-0.001299687
213	0xbc0d79a5	-0.008634959
214	0xbe011bc2	-0.12608245
215	0xbd42002c	-0.047363445
216	0x3d85f8ed	0.065416194
217	0xbd5813c2	-0.052753218
218	0x3d892b3f	0.06697702
219	0x3dd7397c	0.10509011
220	0x3dd0368c	0.10166654
221	0xbbc6cb26	-0.0060666976
222	0xbd5b3634	-0.05351849
223	0xbe41287f	-0.18863104
224	0xbd56fb6a	-0.05248586
225	0x3dae271e	0.08503555
226	0xbd1dabcd	-0.03849392
227	0x3e6cb026	0.2311407
228	0xbd985e25	-0.07439832
229	0xbd4c4144	-0.04986693
230	0x3cbba0fe	0.022903915
231	0x3da978c0	0.08274984
232	0xbd380847	-0.04492977
233	0x3def35a9	0.11680157
234	0xbd374408	-0.044742614
235	0xbdd63f0f	-0.10461246
236	0xbc8fabe9	-0.017538028
237	0xbc64c21b	-0.013962294
238	0xbe14bd9a	-0.14525452
239	0xbd4123d0	-0.047153294
240	0x3d11fcc5	0.03564145
241	0x3dfbd929	0.122972794
242	0x3c45a318	0.01206281
243	0xbd77e884	-0.06052448
244	0x3daf90be	0.08572529
245	0x3c1b5099	0.009479665
246	0x3c610929	0.013735094
247	0xbc9b1525	-0.018930981
248	0x3c908935	0.01764355
249	0x3cb30151	0.021851214
250	0xbc3cb576	-0.011517873
251	0xbd8fcf92	-0.07022013
252	0x3da56812	0.080764905
253	0xbbc5803c	-0.0060272496
254	0x3e0107f0	0.12600684
255	0xbe491a6b	-0.19638984

h2h.bias f4 [242]
0	0xbbcee5a4	-0.0063139964
1	0x3b859cd9	0.0040775356
2	0x3d1a6cbb	0.03770135
3	0x3c2ab5f9	0.010419362
4	0x3bf27682	0.007399381
5	0x3bbc16bd	0.0057400153
6	0xbc8d96e3	-0.017283862
7	0xbbed1c32	-0.007236027
8	0xbb22b1ca	-0.0024825209
9	0xb91fcdec	-0.00015240134
10	0x3dcabb73	0.09899034
11	0xbba5aa25	-0.005055683
12	0x3da8dc25	0.08245114
13	0xbc8517f8	-0.01624678
14	0x3b25d0e4	0.002530151
15	0x3869c34b	5.573341e-05
16	0x3bc9bc24	0.0061564613
17	0x3bd5bc6d	0.0065227062
18	0xbb85dfec	-0.0040855315
19	0xbb8a1205	-0.004213574
20	0x37858b40	1.5919679e-05
21	0xbad412c5	-0.001617991
22	0x3c2d493a	0.010576541
23	0x3ccab392	0.024743829
24	0x3b2265f4	0.0024780007
25	0xb96258a5	-0.00021586062
26	0x3c08b8e7	0.008344865
27	0x3b95f23e	0.0045759967
28	0xbd655146	-0.05598571
29	0xbc7f33bc	-0.015576299
30	0xb8f9ba1b	-0.0001190791
31	0x3b18b01b	0.0023298326
32	0x3c794e2c	0.0152163915
33	0xbbf9a102	-0.0076180706
34	0xba6c7a89	-0.00090209447
35	0xbb8b1df3	-0.0042455136
36	0xbc001714	-0.007818002
37	0x3c0ca436	0.008584073
38	0x3c56e757	0.013116679
39	0xbc9dd3c5	-0.019266019
40	0xbb03e651	-0.0020126293
41	0x3b760e14	0.0037545012
42	0xbc99ffcf	-0.018798737
43	0x381b7e10	3.7072285e-05
44	0x3e2cf8da	0.16891804
45	0x3ce4a6a9	0.027911501
46	0x3d846465	0.06464461
47	0xbc4d4cc2	-0.0125305075
48	0x3cf497e8	0.02985759
49	0x3e00e851	0.12588622
50	0xbb2ec581	-0.0026668014
51	0xbb26f507	-0.0025475638
52	0x3ceb830f	0.028749017
53	0x3a2b7fa6	0.00065421534
54	0xbc5247f5	-0.012834539
55	0xbc035848	-0.008016653
56	0xbb998bbb	-0.0046858466
57	0xbbbe8138	-0.005813744
58	0xbb05311e	-0.0020323466
59	0xbc4abc94	-0.012374062
60	0xbc67c589	-0.014146217
61	0x3bc82c50	0.006108798
62	0x3c2a2ed6	0.010387143
63	0x3b5d9e42	0.0033816253
64	0xbb5c4047	-0.0033607648
65	0x3d99572f	0.07487332
66	0xbcb05e58	-0.021529362
67	0xbc36dc0f	-0.0111608645
68	0xbd84acb5	-0.06478254
69	0xbb992d80	-0.0046746135
70	0xbb2d7e03	-0.0026472814
71	0x3ba19125	0.0049306327
72	0x3daba645	0.08381323
73	0xbc507c64	-0.01272497
74	0xbbd8e590	-0.006619163
75	0x3cba9180	0.022774458
76	0x3c2bebd7	0.01049324
77	0x3c3c7370	0.011502132
78	0xbbb8f39d	-0.0056442753
79	0x3cb18271	0.021668645
80	0x3c6ce6a6	0.014459288
81	0xbc4dc455	-0.012559016
82	0x3dc8d1bc	0.09805629
83	0x3da3aa56	0.079914734
84	0xbb13e9ad	-0.0022569702
85	0x3c9eaf2f	0.019370643
86	0xbb4da007	-0.0031375901
87	0x3cabe652	0.020983849
88	0xbd43800f	-0.047729548
89	0x3c00a20e	0.007851137
90	0xbd0adbff	-0.03390121
91	0x3c073bca	0.008254001
92	0x3b897b4b	0.004195606
93	0xba9442e3	-0.0011311438
94	0xbbf71a25	-0.0075409585
95	0xbc4eba1f	-0.012617617
96	0xbc0ab6ed	-0.0084664645
97	0x3ced86bf	0.028994916
98	0x3bc2e5b7	0.0059477943
99	0x3b25ced6	0.0025300286
100	0xbbcda0f1	-0.006275289
101	0xbabd7fcd	-0.0014457643
102	0xbc127b33	-0.008940506
103	0x3cccc806	0.024997722
104	0x3876a669	5.8805952e-05
105	0xbca3558e	-0.019938257
106	0xbbb4b1c4	-0.0055143554
107	0x3de3365b	0.11094352
108	0xbb570884	-0.0032811472
109	0x3ce958a0	0.028484643
110	0xbcd3d0e9	-0.025856452
111	0x3c38aa1a	0.011271024
112	0xbbe9740a	-0.0071244286
113	0x3ca0d4ca	0.019632716
114	0xbbcf304a	-0.006322895
115	0x3bb26b33	0.005444908
116	0xbba3ab5c	-0.004994793
117	0xbb66415e	-0.0035134177
118	0x3ca003d7	0.019533081
119	0x3cefb9b8	0.029263362
120	0x3bb1184c	0.0054045077
121	0x3db46eb7	0.0881018
122	0xbbcb4137	-0.0062028426
123	0x3c11ed48	0.00890667
124	0xbbd27c6d	-0.006423524
125	0xbc0bfdea	-0.008544425
126	0x3bbcc9a0	0.0057613403
127	0xbb2a64a5	-0.002599993
128	0xbc1cb977	-0.009565703
129	0xbc284912	-0.010271328
130	0x3cb0381f	0.021511136
131	0x3b3889eb	0.0028158377
132	0x3c30195a	0.010748232
133	0xbba3cae4	-0.0049985517
134	0xbb092865	-0.0020928618
135	0x3bc38f61	0.00596802
136	0x3d827f07	0.06371885
137	0x3bcf99df	0.0063354815
138	0x3b25da8b	0.0025307264
139	0x3c31cefc	0.010852572
140	0xbb5d3c1c	-0.0033757752
141	0xbbf25a21	-0.007395998
142	0x3b469a2a	0.0030304291
143	0x3c0d2080	0.008613706
144	0xbb4b67c5	-0.0031037193
145	0xbbb5abe2	-0.0055441717
146	0xbbfb19ae	-0.0076629734
147	0xbc41f2ae	-0.0118376445
148	0x3c1ae9a3	0.009455117
149	0x3db858c9	0.090013094
150	0xbbc92758	-0.0061387233
151	0xbbab1fef	-0.0052223126
152	0xba836ae2	-0.001002636
153	0x3db80436	0.08985178
154	0xbca24223	-0.019806927
155	0x3d9468b6	0.072465345
156	0x3c81a4a7	0.015825583
157	0x3e40ef2e	0.1884124
158	0x3caa918f	0.02082136
159	0xbbe99d39	-0.007129338
160	0xbbd9e34f	-0.0066494117
161	0x3ae8ad2a	0.0017751802
162	0x3c01a41a	0.00791266
163	0x3d3e4a12	0.046457358
164	0x3aaf8fb0	0.0013394263
165	0xbc51a034	-0.012794543
166	0xbaf537cd	-0.0018708647
167	0x3bdba60f	0.0067031453
168	0x3b827718	0.0039814822
169	0xbc1f2e33	-0.009715605
170	0x3bcb713d	0.0062085674
171	0x3c00544c	0.007832598
172	0x3e007a4d	0.12546654
173	0x3c8b5277	0.017007096
174	0x3d8376da	0.064191535
175	0xbacf6fcf	-0.0015826168
176	0xbbc89055	-0.0061207213
177	0x3a403514	0.0007332128
178	0x3d3321cb	0.0437334
179	0x3bceb042	0.0063076327
180	0x3c148373	0.009064543
181	0x38cfc3b4	9.906982e-05
182	0xbba25c3e	-0.004954844
183	0x3a76ffd7	0.00094222784
184	0x3afe8e39	0.0019421048
185	0x3b9b3dce	0.0047375923
186	0x3ca26f92	0.019828591
187	0x3c31c46d	0.010850054
188	0xbc826ebc	-0.015921943
189	0xbc4accfe	-0.0123779755
190	0x3bb0f1f0	0.005399935
191	0x3c313eb2	0.01081817
192	0xbc75c69e	-0.015000967
193	0x3e1ee0af	0.15515397
194	0x3c68a726	0.014200008
195	0xbb53c175	-0.0032311354
196	0x3b9ab69b	0.0047214753
197	0xbcce20d5	-0.02516214
198	0xbb032e60	-0.0020016655
199	0x3d525fe6	0.051360987
200	0xbadaca4a	-0.0016692367
201	0xbc224a6b	-0.009905438
202	0x3d39be59	0.045347545
203	0x3dd0f202	0.10202409
204	0xbab2ef83	-0.0013651702
205	0xbbf8396c	-0.0075752046
206	0x3a4537ce	0.0007523269
207	0x3be04478	0.0068440996
208	0xbbc41803	-0.0059843077
209	0x3b4f115e	0.0031596045
210	0xb98e0e6a	-0.0002709509
211	0x3c4fe644	0.012689177
212	0xbbcac9dd	-0.0061886148
213	0xbc848365	-0.016175935
214	0x3c190b6d	0.009341103
215	0xbb127759	-0.0022348969
216	0x3c809715	0.015697042
217	0x3cdfea00	0.02733326
218	0x3d00e9db	0.031473022
219	0x3d88ae8a	0.06673916
220	0xbc2d2417	-0.0105676865
221	0xbc1e1617	-0.009648821
222	0x3b4c132a	0.0031139352
223	0x3d47487d	0.048653115
224	0xbca23214	-0.01979927
225	0xbc08d313	-0.008351105
226	0xbc20885e	-0.0097981375
227	0xbc608de7	-0.013705707
228	0xbc59b0f0	-0.013286814
229	0x3d536276	0.05160757
230	0x3c70c3eb	0.014695148
231	0x3a3624cf	0.0006948234
232	0xbc9eb45a	-0.019373108
233	0xba21e9e2	-0.0006176514
234	0xbb287bae	-0.0025708484
235	0x3c78ceb0	0.015185997
236	0xbbd89877	-0.006609972
237	0x3d8db1a5	0.06918649
238	0xbc7e9adf	-0.015539854
239	0x3ba8292b	0.0051318607
240	0x3b93cb80	0.004510343
241	0x3be09e7e	0.0068548312
