TBCAS24/intuitivechip_classifier_lcsvsnlcs_teensy_run2/SNN_ep-150-isize-2-8-1-hsize-234-bsize-32-lr-0.001-tmax_ms-400.0-Ts-10.0-k-6-dsetPath-VMODE_allchannels_ALLCLASS_auto_nospkfilter_cleaned_1x8_18mvpp_250mvofs_onedac_itail_50nA_N3b/chip-classifier-2.pt (torch, 245111 bytes, 8 tensors)

thr_h_1 f4 [234]
00000000: 0000 803f 0000 803f 0000 803f 0000 803f
00000010: 0000 803f 0000 803f 0000 803f 0000 803f
00000020: 0000 803f 0000 803f 0000 803f 0000 803f
00000030: 0000 803f 0000 803f 0000 803f 0000 803f
00000040: 0000 803f 0000 803f 0000 803f 0000 803f
00000050: 0000 803f 0000 803f 0000 803f 0000 803f
00000060: 0000 803f 0000 803f 0000 803f 0000 803f
00000070: 0000 803f 0000 803f 0000 803f 0000 803f
00000080: 0000 803f 0000 803f 0000 803f 0000 803f
00000090: 0000 803f 0000 803f 0000 803f 0000 803f
000000a0: 0000 803f 0000 803f 0000 803f 0000 803f
000000b0: 0000 803f 0000 803f 0000 803f 0000 803f
000000c0: 0000 803f 0000 803f 0000 803f 0000 803f
000000d0: 0000 803f 0000 803f 0000 803f 0000 803f
000000e0: 0000 803f 0000 803f 0000 803f 0000 803f
000000f0: 0000 803f 0000 803f 0000 803f 0000 803f
00000100: 0000 803f 0000 803f 0000 803f 0000 803f
00000110: 0000 803f 0000 803f 0000 803f 0000 803f
00000120: 0000 803f 0000 803f 0000 803f 0000 803f
00000130: 0000 803f 0000 803f 0000 803f 0000 803f
00000140: 0000 803f 0000 803f 0000 803f 0000 803f
00000150: 0000 803f 0000 803f 0000 803f 0000 803f
00000160: 0000 803f 0000 803f 0000 803f 0000 803f
00000170: 0000 803f 0000 803f 0000 803f 0000 803f
00000180: 0000 803f 0000 803f 0000 803f 0000 803f
00000190: 0000 803f 0000 803f 0000 803f 0000 803f
000001a0: 0000 803f 0000 803f 0000 803f 0000 803f
000001b0: 0000 803f 0000 803f 0000 803f 0000 803f
000001c0: 0000 803f 0000 803f 0000 803f 0000 803f
000001d0: 0000 803f 0000 803f 0000 803f 0000 803f
000001e0: 0000 803f 0000 803f 0000 803f 0000 803f
000001f0: 0000 803f 0000 803f 0000 803f 0000 803f
00000200: 0000 803f 0000 803f 0000 803f 0000 803f
00000210: 0000 803f 0000 803f 0000 803f 0000 803f
00000220: 0000 803f 0000 803f 0000 803f 0000 803f
00000230: 0000 803f 0000 803f 0000 803f 0000 803f
00000240: 0000 803f 0000 803f 0000 803f 0000 803f
00000250: 0000 803f 0000 803f 0000 803f 0000 803f
00000260: 0000 803f 0000 803f 0000 803f 0000 803f
00000270: 0000 803f 0000 803f 0000 803f 0000 803f
00000280: 0000 803f 0000 803f 0000 803f 0000 803f
00000290: 0000 803f 0000 803f 0000 803f 0000 803f
000002a0: 0000 803f 0000 803f 0000 803f 0000 803f
000002b0: 0000 803f 0000 803f 0000 803f 0000 803f
000002c0: 0000 803f 0000 803f 0000 803f 0000 803f
000002d0: 0000 803f 0000 803f 0000 803f 0000 803f
000002e0: 0000 803f 0000 803f 0000 803f 0000 803f
000002f0: 0000 803f 0000 803f 0000 803f 0000 803f
00000300: 0000 803f 0000 803f 0000 803f 0000 803f
00000310: 0000 803f 0000 803f 0000 803f 0000 803f
00000320: 0000 803f 0000 803f 0000 803f 0000 803f
00000330: 0000 803f 0000 803f 0000 803f 0000 803f
00000340: 0000 803f 0000 803f 0000 803f 0000 803f
00000350: 0000 803f 0000 803f 0000 803f 0000 803f
00000360: 0000 803f 0000 803f 0000 803f 0000 803f
00000370: 0000 803f 0000 803f 0000 803f 0000 803f
00000380: 0000 803f 0000 803f 0000 803f 0000 803f
00000390: 0000 803f 0000 803f 0000 803f 0000 803f
000003a0: 0000 803f 0000 803f
1.0 1.0 1.0 1.0 1.0 1.0 1.0 1.0
1.0 1.0 1.0 1.0 1.0 1.0 1.0 1.0
1.0 1.0 1.0 1.0 1.0 1.0 1.0 1.0
1.0 1.0 1.0 1.0 1.0 1.0 1.0 1.0
1.0 1.0 1.0 1.0 1.0 1.0 1.0 1.0
1.0 1.0 1.0 1.0 1.0 1.0 1.0 1.0
1.0 1.0 1.0 1.0 1.0 1.0 1.0 1.0
1.0 1.0 1.0 1.0 1.0 1.0 1.0 1.0
1.0 1.0 1.0 1.0 1.0 1.0 1.0 1.0
1.0 1.0 1.0 1.0 1.0 1.0 1.0 1.0
1.0 1.0 1.0 1.0 1.0 1.0 1.0 1.0
1.0 1.0 1.0 1.0 1.0 1.0 1.0 1.0
1.0 1.0 1.0 1.0 1.0 1.0 1.0 1.0
1.0 1.0 1.0 1.0 1.0 1.0 1.0 1.0
1.0 1.0 1.0 1.0 1.0 1.0 1.0 1.0
1.0 1.0 1.0 1.0 1.0 1.0 1.0 1.0
1.0 1.0 1.0 1.0 1.0 1.0 1.0 1.0
1.0 1.0 1.0 1.0 1.0 1.0 1.0 1.0
1.0 1.0 1.0 1.0 1.0 1.0 1.0 1.0
1.0 1.0 1.0 1.0 1.0 1.0 1.0 1.0
1.0 1.0 1.0 1.0 1.0 1.0 1.0 1.0
1.0 1.0 1.0 1.0 1.0 1.0 1.0 1.0
1.0 1.0 1.0 1.0 1.0 1.0 1.0 1.0
1.0 1.0 1.0 1.0 1.0 1.0 1.0 1.0
1.0 1.0 1.0 1.0 1.0 1.0 1.0 1.0
1.0 1.0 1.0 1.0 1.0 1.0 1.0 1.0
1.0 1.0 1.0 1.0 1.0 1.0 1.0 1.0
1.0 1.0 1.0 1.0 1.0 1.0 1.0 1.0
1.0 1.0 1.0 1.0 1.0 1.0 1.0 1.0
1.0 1.0

thr_o f4 [6]
00000000: 0000 803f 0000 803f 0000 803f 0000 803f
00000010: 0000 803f 0000 803f
1.0 1.0 1.0 1.0 1.0 1.0

i2h.weight f4 [234, 16]
00000000: 7855 76bd af55 133e 68ab b53d 3e37 e43c
00000010: d34d 13bc 3db4 3c3d 7cfa fabd 429d 1ebe
00000020: 9ba0 9b3b a647 ec3d c0d8 efbd 6a0f dfbd
00000030: 3153 e03d fb50 f1bd a848 ecbd ff38 68be
00000040: e232 8abd d1ed 97bc af03 023d 7a3e 3a3e
00000050: 9da2 cf3d d6fe a33c 66b7 d1bd 06f7 84bc
00000060: e04e 79bd b333 eebc 56d0 ba3d 4322 003e
00000070: 3025 ebbd 948c d9bd c1a1 143e df3f 503d
00000080: 2a27 8c3b 7123 703d f0c9 a8bd 416c 60bb
00000090: 6be3 d33c 8bd0 ad3d 17df c8bc 540e 01be
000000a0: 885c 303c 2150 0e3e dd29 45bd 443a 55bd
000000b0: fdf2 e83d 419c d63d 3297 8b3c 80c4 edbd
000000c0: 510a e5bd eee5 c1bd 598d 9b3d c3a1 ebbd
000000d0: ff7d 153e 9c71 e73d c8a3 d33d d8f4 ba3d
000000e0: d667 583d c10c 363d 2352 e4bc e582 27bd
000000f0: c47f da3d e877 d6bd 7a4e 983d 1c7c ba3c
00000100: 76e7 11be 76ff 1c3e 2b45 3c3d dab4 21bd
00000110: f706 303c 31b4 f7bc 0f1c 32bd bb89 00bd
00000120: 2f06 4c3d cc51 053d c613 153e 9417 2d3d
00000130: 50cc 063e cabd 28bd 18b0 0f3d 06ac 0bbe
00000140: 7054 9e3d a7de 063e 3076 703d 202d 113e
00000150: d8cc d8bc b2e3 c03d 3b0c 0b3e cb8e 3d3e
00000160: 1e34 bcbd 8b8e a0bd c115 a73d 448f e23d
00000170: 9e23 c63d 031a 573d 173a aebc 7a3a 6b3d
00000180: cd13 3f3d ffe9 3fbd 643f e1bd 265f 1e3e
00000190: 6631 b5bd 74af 02be e862 14be fe4e eb3c
000001a0: ddf9 da3d 43b0 adbd 7411 a93d 01cf 543d
000001b0: 1efe 79bb baca f23d a292 9b3d 95bb 223e
000001c0: 0387 13bc d42e 143e bda2 073e 3894 fdbd
000001d0: d22d e73d 8e23 cc3d e616 2bbd 8d63 99bd
000001e0: fbac 9d3d 6f37 183e 9c7c 84bc 41f4 c0bd
000001f0: a23d cd3c 5467 2e3e 05af 85bc ef89 b6bd
00000200: 9a8d 84bd 4619 eb3c b744 87bd 39f6 123e
00000210: 93fb a4bd ccc1 03bd 8ddd b1bc 3f19 4d3d
00000220: 22f8 81bd 0347 4fbd ef85 823c e7b6 27bd
00000230: fe9f 11be eb6d d7bd 599f 0e3e 5648 c7bd
00000240: 191b 893d 750b 1c3e a582 03bd 8968 e73d
00000250: 44c8 0a3d fcca ff3d 6424 ad3d a8d1 56bd
00000260: 81e2 28bd 5e0e c5bd f70b ca3d 6b69 f33c
00000270: d40d 19bd 811d 62bc 2a10 65bb e560 b83c
00000280: 5c4c f73d 7c07 233d 83c4 003e 031f 133e
00000290: db41 343e 397c 4cbd 1f37 9b3d 9dd1 6d3d
000002a0: 30a3 9abd e9ff b23d 56b5 9bbd a438 02be
000002b0: 28cd ce3d 3e22 063e df01 edbd d2c4 e53d
000002c0: 6b6a 153d 3c4b 01be f7fe 97bd 0c97 bbbd
000002d0: 7289 acbd 5cc4 b6bd f50e e53d 9ec8 2f3e
000002e0: 26fd 143e 6651 553d 3c97 e73d 8e3b 0bbe
000002f0: fdab a53c 0f1c 943d 99d6 cd3d df13 853d
00000300: 9140 063e d24d e43d c895 e9bb aa4a 5d3d
00000310: 8edd 2e3e 472e dc3c b02c bc3c 0573 f03c
00000320: 9226 f0bd 1be7 0b3e 7447 c03a ab35 19ba
00000330: 182f a83c 013e 0f3e 357a cebd b46d ba3d
00000340: 890a 263c e942 013e fe30 cf3d cb71 853d
00000350: e9ca abbd 514f 1cbd 7d11 d9bc 74f9 89bd
00000360: 012f 47bd a246 5a3d 10f7 c9bd 9c79 79bd
00000370: 302a 1cbe 22ef a83c c6bd 603d f0b9 e9bc
00000380: c784 b13c 9f74 ee3d e490 1c3e 24ed 66bd
00000390: 3e65 7fbd 2388 973d 24b4 3b3c fcd8 1dbd
000003a0: 08ba 9dbd f21f 053e 512e e9bd 9d48 373e
000003b0: 0ff2 f9bd 515b f53d aa68 6e3d a119 a73d
000003c0: 1d2c e63d 5833 ffba 0a99 aabd 0a1b 39bd
000003d0: 0a9c e03c 6cf3 d8bd 89ee 073e 20e9 103e
000003e0: 6649 f7bd 48db d23d d039 873b ebfe a83d
000003f0: 6528 8a3c cb5a 2d3e f790 1cbd c15c a33d
-0.060140103 0.14388154 0.08870584 0.027858373 -0.008990723 0.046070326 -0.12254807 -0.15489677
0.0047493703 0.11537103 -0.11711264 -0.10891612 0.109533675 -0.11783024 -0.115372956 -0.22677992
-0.067479864 -0.018546017 0.031741794 0.18187895 0.10138438 0.020018976 -0.102400586 -0.016231071
-0.060866237 -0.029077386 0.09121768 0.1251307 -0.11481702 -0.10622516 0.14514829 0.050842162
0.0042771297 0.05862755 -0.082416415 -0.0034244212 0.025865277 0.08487042 -0.02452044 -0.12603122
0.010764249 0.13897754 -0.048135627 -0.05205752 0.11374471 0.10479022 0.017039869 -0.11609745
-0.11183608 -0.09467684 0.07595319 -0.11505463 0.14598845 0.11300966 0.10333973 0.091287315
0.0528334 0.044445757 -0.027871197 -0.040896315 0.106689006 -0.10472089 0.07436843 0.022764258
-0.14248452 0.15331826 0.0459644 -0.039479114 0.010743848 -0.03023729 -0.04348379 -0.03138135
0.049810585 0.03254871 0.14558324 0.042258814 0.13163877 -0.041196622 0.035080045 -0.1363984
0.07730949 0.13170873 0.058706462 0.1417737 -0.026464865 0.094184294 0.13578884 0.18511502
-0.09189628 -0.07839688 0.08158446 0.11062482 0.09674762 0.05251504 -0.021267934 0.057428814
0.046649743 -0.046854015 -0.10998419 0.15465984 -0.08847313 -0.12762243 -0.14490855 0.02872419
0.10692189 -0.08480885 0.08255282 0.051955227 -0.003814585 0.11855073 0.07596327 0.1589187
-0.009004357 0.14470989 0.13245673 -0.12381786 0.112880364 0.09967719 -0.041769885 -0.07489691
0.07699009 0.14864896 -0.0161727 -0.09421588 0.025053803 0.17031604 -0.016318807 -0.089130275
-0.06472321 0.028698575 -0.06604903 0.14351739 -0.080557965 -0.03216724 -0.021712089 0.050072905
-0.06346156 -0.05060483 0.015933005 -0.040945914 -0.14221188 -0.10519012 0.13927974 -0.09730594
0.066946216 0.15238746 -0.032107014 0.112992354 0.033882394 0.12489888 0.084542066 -0.052446038
-0.041231636 -0.09621881 0.09865563 0.029713353 -0.037366703 -0.01380098 -0.0034952261 0.02250714
0.12075111 0.03980206 0.12574963 0.14367299 0.17603247 -0.049923155 0.07578873 0.05806123
-0.07550657 0.08740217 -0.076029465 -0.12716919 0.10097724 0.13099 -0.115726225 0.11219181
0.03647844 -0.12626356 -0.074216776 -0.09159669 -0.08424653 -0.08924171 0.111844935 0.17166373
0.14549693 0.05207958 0.113081425 -0.13596937 0.020223612 0.07231914 0.10050697 0.06497931
0.13110568 0.111476555 -0.007128451 0.054026283 0.17076704 0.026877536 0.022970527 0.02935172
-0.11726107 0.13662378 0.0014669732 -0.0005844484 0.020530269 0.13988496 -0.10081903 0.091029555
0.010134348 0.1262318 0.101167664 0.06515845 -0.083883114 -0.03816158 -0.026497597 -0.067370325
-0.04862881 0.053290017 -0.098615766 -0.06090699 -0.15250468 0.02062184 0.054868482 -0.028531045
0.021669758 0.116433375 0.15289646 -0.0563785 -0.06235241 0.07399013 0.011456523 -0.03853701
-0.07701498 0.13000467 -0.11385787 0.17898794 -0.12204372 0.11980308 0.058205284 0.08159185
0.11238883 -0.0019470258 -0.08329971 -0.045191802 0.027418155 -0.10593304 0.13274588 0.1415143
-0.120745465 0.10295731 0.004126765 0.08251747 0.016864965 0.16929166 -0.038224187 0.07976676

i2h.bias f4 [234]
00000000: 2d6e 1f3d b471 2abc c423 d33b ad57 1e3b
00000010: 2c6b c0bb 4503 c8bb 7ae8 8dbc e5f3 933c
00000020: 0fc8 403b 847d f6bc 01b4 f1bb 32c2 5dbc
00000030: 5abf 0fbc 4b4f 89bc 2b64 4abc 5f25 9e3b
00000040: a1da e1bc a993 debc 42ae 933b 88d1 22bb
00000050: 9a3d 06bc b182 b0bc 2bf4 1dbc 2518 8bbb
00000060: f5db 69bc 865c 12bc 1001 9f3c 026d 93ba
00000070: d130 95bc c1a8 1d3c 88b5 11bc 8e0c 41bc
00000080: 645c 2ebc 348e 243d 7f14 5f3d 8dbe c83c
00000090: 72b7 613c 37aa f83c 20ed 2f3c 82db a6ba
000000a0: fb1d 27bc 54a5 c2bc 6a11 7fbb ab1d 00bc
000000b0: 049d 2a3c 4d9a 453c ec3d 3a3b 5474 a3bc
000000c0: e300 da3c b374 e8bb 2357 bcbb f513 7f3b
000000d0: 77fd 58bc e64c 2e3b 73e4 4bbd dbdb 203b
000000e0: ab79 183d 1b81 20ba 2524 81bc fd72 743c
000000f0: d8e6 9db9 c9b9 19bc 350b 7a3d 02d5 93bb
00000100: f0e4 afbc e215 f63b ff07 a538 0a13 c5ba
00000110: 298a 60ba 4d7e f1ba 48ed 96bc f69e bfbb
00000120: 41ad a43b 9f08 8e3d cade 2dbc f573 10bd
00000130: 19c1 193d cee8 653a 4219 3b3d a06e 1d3c
00000140: de63 053b 2a0f d23c 0d31 663b 64f6 093c
00000150: 97bd b83a 22ae 4b3c 3208 fc3b 18ae 65bc
00000160: e1c2 af3b 51a5 f6bb 2d88 513d 5988 293c
00000170: 32d5 4a3c 2acb cabc a53c 16bd 7415 bb3c
00000180: ba76 f93a bc83 a3bc 0b34 e43c 5051 3c3c
00000190: 4d14 073c 7a9c 223c 6433 c63c e4a3 34bc
000001a0: ef09 533b 4b99 26bc bdd5 e2bb d66f 543d
000001b0: d6b6 043b 5fe8 02bc 2a99 04bc edf9 df3b
000001c0: de7e 9fb9 9b33 3ebc c93b 86bc 061f 213c
000001d0: 0b53 1abd 2adf 593c 0a87 a23c 6fdb edbc
000001e0: f0ba f93c 76e9 afbb 119c e5bb ee04 523b
000001f0: 012b e9bb f19d da3a 1064 6d3c a883 193d
00000200: 3500 c73b 943d b5bc 05b6 4e3c 00b8 1a3c
00000210: 6160 853b 1146 343d 6db0 0f3b 7099 40bc
00000220: 3374 b23b e74a 12bc f6b9 c1bc 222c a43c
00000230: 3e21 a8bc 7e30 8d3b c360 8bbb af23 21bc
00000240: f728 82b9 cb02 9e3c b50d 11bc da3f 03bb
00000250: 19ea f9bb 781b 5c3b eb01 9b3c 0361 243c
00000260: beff 59bc 459d 343c 60f6 da3c 19cb 393c
00000270: 95f9 1c3c 2fb1 253d d924 89ba dcba 3cbc
00000280: 5c63 b5bb f3d2 113d ddea e53c 6dfc 843c
00000290: b715 7d3c f80d ccbc daf2 073c a8aa 393c
000002a0: 493e 533c f32e 653c 23af a23c 7f89 cdbb
000002b0: 6525 9cbb 948a 593c 2c3a c23a f99f 003b
000002c0: 84d6 f93b 385b 033c 0462 583b 0ca9 993b
000002d0: e396 423c e548 0ebb fe54 19bc a61f f0bb
000002e0: 82ed 3b3c d8d3 3f3d 34e2 203d c040 f13b
000002f0: 323b 12bc a6ff e43a 1b58 32bc c3f9 733b
00000300: 96a1 933c f4c5 02bb 2f19 5f3a 21e8 003a
00000310: 8c22 3eba 6b45 9cbc bd42 26bb f6b6 a33b
00000320: 24d1 5f3c 63bb 4abb 3752 00bc 169b aa3b
00000330: eb32 d73c e8d4 de3b 1a59 d0bb 3d7b 133c
00000340: 53b9 293c 6c0d d83a 17d1 edbb bc4e 94bc
00000350: 81b3 9e3b 4200 39bc 1ef3 373c 5fdc a13c
00000360: 6eb9 12bd acdf cabb 7e4d 14bc 53ca 5e3b
00000370: 0826 b6bc 7c24 c13b df89 423d 9573 8a3c
00000380: 6cc2 a53c 55c7 1d3d 20d4 0fbc eb8f 933c
00000390: 2c98 2f3c 6fd7 a5bc eefe 3a3c 84dc cb3b
000003a0: ca2e 4d3c e957 4d3c
0.03892343 -0.0104030855 0.0064434726 0.0024161146 -0.005872151 -0.0061039054 -0.017322768 0.018060634
0.002941612 -0.030089147 -0.0073761945 -0.013535069 -0.008773649 -0.016761443 -0.0123529835 0.0048262323
-0.02757007 -0.02717002 0.004506857 -0.0024844129 -0.008193398 -0.021546694 -0.009640734 -0.0042448216
-0.014273633 -0.008933192 0.019409686 -0.0011247697 -0.018211754 0.009622754 -0.008893378 -0.011782778
-0.010642145 0.040174678 0.054462906 0.024504924 0.013776647 0.030354602 0.010737687 -0.0012730213
-0.010200019 -0.023760475 -0.0038920292 -0.007819573 0.010413412 0.012060714 0.0028418256 -0.01995293
0.026611751 -0.0070939898 -0.005747692 0.0038921807 -0.0132440245 0.0026596128 -0.049778413 0.0024545107
0.037225407 -0.0006122754 -0.015764305 0.0149199935 -0.00030117366 -0.009382674 0.061045844 -0.0045114765
-0.02147147 0.007509933 7.8693025e-05 -0.0015035581 -0.00085655093 -0.0018424481 -0.018423691 -0.005847807
0.0050255363 0.06935238 -0.010612199 -0.035266835 0.037537668 0.00087703473 0.045678385 0.009608895
0.0020353715 0.025641996 0.0035124451 0.0084205605 0.0014094588 0.012431653 0.0076914066 -0.014018558
0.0053638075 -0.0075270315 0.051155258 0.010347449 0.012379931 -0.02475508 -0.03667893 0.022837378
0.0019032576 -0.019960277 0.027856847 0.011493996 0.008244586 0.009925002 0.024194427 -0.011025403
0.0032201966 -0.010168384 -0.0069224522 0.051864468 0.002025058 -0.007989972 -0.008093158 0.0068352134
-0.00030421367 -0.011608983 -0.01638593 0.009834057 -0.037676852 0.013297835 0.019839782 -0.029035298
0.030484647 -0.005368407 -0.00700713 0.0032046395 -0.007115722 0.001667915 0.014489189 0.037479073
0.0060730227 -0.02212409 0.012616639 0.009443283 0.004070327 0.044012133 0.0021925226 -0.011755332
0.005445981 -0.008928991 -0.023648243 0.020040575 -0.020523664 0.0043087592 -0.0042534783 -0.009835168
-0.00024826053 0.019288441 -0.008853366 -0.0020027072 -0.0076267836 0.0033585709 0.018921813 0.010032895
-0.013305603 0.011023824 0.026728809 0.011339926 0.009580989 0.04045218 -0.0010463252 -0.01151916
-0.005535526 0.035601567 0.028066093 0.016233647 0.015447072 -0.024909005 0.008297646 0.0113321915
0.012893268 0.013988244 0.019858902 -0.0062724943 -0.0047652 0.0132776685 0.0014818362 0.00196266
0.007624449 0.008017354 0.0033017406 0.0046893414 0.0118767945 -0.002171093 -0.009358643 -0.0073279915
0.0114702005 0.04683289 0.039278224 0.007362455 -0.008925246 0.0017471209 -0.010885264 0.0037227727
0.018021386 -0.0019954415 0.00085105276 0.00049174024 -0.00072530727 -0.01907607 -0.002536937 0.004996176
0.013660703 -0.0030934445 -0.007832102 0.005206476 0.026269397 0.0068002827 -0.006358278 0.00900155
0.010359126 0.0016483492 -0.0072575915 -0.01810395 0.004843176 -0.011291565 0.011227397 0.019758401
-0.03582137 -0.0061912145 -0.009051679 0.0033995106 -0.022234932 0.005894242 0.047494765 0.016900817
0.02023431 0.038520176 -0.008778602 0.018012961 0.010717433 -0.020244328 0.011413319 0.006221356
0.012523362 0.012533166

h2o.weight f4 [6, 234]
00000000: 3c5b 66bd 5840 2bbd 0d3f a03d 0351 4a3d
00000010: 93d7 b7bd 42dc 4dbd dfe0 f93d 634b 24be
00000020: 3005 2f3e da83 6ebd a4de 2abd d0de 993d
00000030: 4841 f93d 1ff9 05be 0d60 efbb ebfb a8bd
00000040: f8d4 9a3d d627 80bc f261 dbbd 6343 d1bd
00000050: e458 263d b4bf ae3d 8f45 58bd df00 72bd
00000060: f247 51bd eff1 133e 74ff fc3c 7149 e53d
00000070: 8199 d0bb d41d fabd 2b79 17be dd6f a5bd
00000080: ac3f 0a3e f458 563d 93dd 9cbd ebb3 1abd
00000090: f937 a1bd d287 c83d 50a5 24bd 50e6 73bd
000000a0: 2957 db3c da16 25bd 4338 183e 5990 e5bd
000000b0: 2edc 293d e52b 0bbe 97cb 02be 8286 e6bd
000000c0: 4113 c1bd cc5f 1fbe e018 203c b7fe 37bc
000000d0: 5da6 1f3e f601 65bc 38c5 ed3c d400 3c3d
000000e0: c11a e43d 1f48 933d 0e0b 00be b8e4 dd3d
000000f0: 065e c1bc a7f5 0a3e 3a29 2a3c bfa1 0cbe
00000100: e8b4 8e3b 387f 4ebe 1361 50bd ace2 d0bd
00000110: 6ccf 28bc 3ca8 07be 4726 01be e7bd 37be
00000120: 9ae7 b1bd 1a4a 91bc 14c8 4cbc e1e0 f9bc
00000130: ddd6 16be 9096 29bd afea 2ebe 260b 52bd
00000140: 3c05 4fbd aa25 3ebe 10f5 15be 1dfa 203e
00000150: 1716 073e 49d5 bebc a395 7b3d 8024 8bbd
00000160: 71b5 6b3c 07e7 68bd b4a5 2ebe 7a6a b2bd
00000170: 71d1 9cbb dfa5 1e3c 67ac d93d 34ae a73c
00000180: b1f3 1b3e 165d 3c3d 8719 073e 8e60 dd3d
00000190: df48 373e c35b c9bc 5ecc a23a c9b8 e1bb
000001a0: 633c 01be 9a2c 7d3c c4b3 383e 6001 28bd
000001b0: 6339 c1bd 324b 37bb d8b8 0a3e d111 9c3c
000001c0: ad17 19be 0982 613c 6f9d 8f3d b9aa 03be
000001d0: 76e6 ee3d 4629 a23d f15f 6dbb 17e3 8a3c
000001e0: 1cd1 ecbd 852b 043d 38be 55bd 915c d13d
000001f0: f97e 0cbd aa27 f53d b254 d0bd 3d4e 14bd
00000200: d875 1fbe a85c ad3d b9d4 49bc a101 2abe
00000210: e90c b33d 337a 2bbe 6fd8 003e 1100 32bd
00000220: aae4 cfbd c297 d03d 3879 10be 77fa 903b
00000230: df32 043e 5f50 f13d 03bd e6bd 06d5 16be
00000240: 4acd f6bd be43 fc3a 986b d73d 5e93 4ebd
00000250: 4c8e 6dbd aedc ffbb 0540 083c 67fa 20be
00000260: 8920 99bd 0dd7 44bc 752a 16be 909e f2bd
00000270: bfb8 b9bc 5c78 a2bd d91d c5bd f2e8 b73d
00000280: a45d 7fbd b4ed 48bd 52a6 0fbd ac01 1bbd
00000290: 4ff7 443e b8d9 103e fc34 123e d00b b23c
000002a0: 8989 073e f668 bdbd f209 2ebd 39c5 9b3c
000002b0: e73c debd 9793 40bd 093a 34be 6012 0fbe
000002c0: 6c46 acbd 03c8 333c dbde ba3c 222b 0abe
000002d0: 34bd 5ebd 0af4 ae3d ccbc 9dbd 0d65 c63d
000002e0: ca67 b23d fde6 083d 4605 79bc 542b 8cbc
000002f0: ce7d 863d 2493 e4bd 911d 8b3d 35e3 d43d
00000300: 5bfe a9bd 3908 ebbd f14b 193e a702 193e
00000310: 01f2 f93d d0a7 be3b e3fa fa3d 5bc5 c53d
00000320: 4821 e5bd 702c 203e fadb 273d 6f2c d43b
00000330: 8c1f 4a3e 441c 0dbe 9018 0bbd 4787 99bd
00000340: 9f3a 05be cf7c b53d 8ba6 aa3d 0010 88bc
00000350: 411d 073d aa19 49bc dfcd 20bd 781b 3cbd
00000360: 51a3 32bd a07d 9b3d c0a9 e73d d70e 0bbe
00000370: 5bcc 113d 5cdf 813d d1da 02bd 1c08 32be
00000380: 9bf6 623d 02b0 20be 770c 0c3e 52d6 1cbe
00000390: 65fb f33d 7bda 0abe d5fe 3bbd ef1c bcbd
000003a0: f577 be3d f538 81bd 5665 633d 4a4f 0ebe
000003b0: 2368 b4bc cac2 5a3d 0647 b6bd 189e fbbd
000003c0: d7b4 c3bd d0b8 3ebd f4d3 8e3d 165f 09be
000003d0: 0c2c 92bd 1b30 e0bd 6610 833c e9de 17be
000003e0: 91e0 593d 4660 44be 587f fcbd 6172 61bc
000003f0: 16b0 c1bc 8ad4 9d3d 5096 a3bd c316 893d
-0.05623935 -0.04180941 0.07824526 0.049393665 -0.089766644 -0.050258882 0.12201094 -0.16044383
0.17091823 -0.058231212 -0.041716233 0.07513201 0.121706545 -0.13083313 -0.0073051513 -0.082511745
0.07560152 -0.015643995 -0.10712041 -0.10217931 0.040612116 0.08532658 -0.05280071 -0.059082862
-0.051094003 0.14447759 0.030883528 0.111956485 -0.0063659553 -0.122127205 -0.14792316 -0.08077977
0.13500851 0.052330926 -0.076594494 -0.03776924 -0.07872004 0.09791531 -0.040196717 -0.059545815
0.02677496 -0.040304996 0.14865212 -0.11209173 0.041469745 -0.13590963 -0.12772976 -0.11256124
-0.094275005 -0.15563887 0.009771556 -0.011230162 0.15590806 -0.013977518 0.029024705 0.045899227
0.111379154 0.071914904 -0.12504217 0.1083464 -0.023604404 0.13570271 0.010385806 -0.13733576
0.004355062 -0.20165718 -0.050873827 -0.10199484 -0.0103033595 -0.1324777 -0.12612258 -0.17943536
-0.086867526 -0.01773553 -0.012498874 -0.030502738 -0.14730401 -0.041403353 -0.17081712 -0.051280163
-0.0505421 -0.18569055 -0.14644265 0.1572041 0.1319202 -0.023295062 0.061422 -0.06794071
0.014386521 -0.05686095 -0.17055398 -0.08711715 -0.0047857095 0.009683101 0.10628586 0.020468809
0.1522968 0.04598721 0.13193332 0.10809432 0.17898892 -0.024579888 0.0012420525 -0.006888483
-0.12620692 0.015452528 0.18037325 -0.041016936 -0.09434774 -0.0027968404 0.13547075 0.019051464
-0.14950438 0.013763913 0.0701245 -0.12858094 0.11665051 0.079180285 -0.0036220516 0.016953988
-0.11563322 0.032268066 -0.05218336 0.10222734 -0.034300778 0.11970456 -0.10172404 -0.036207426
-0.15572298 0.084649384 -0.012318783 -0.16602184 0.08742697 -0.16745834 0.12582563 -0.043457095
-0.10151036 0.101851955 -0.14108741 0.004424389 0.12910031 0.11782908 -0.1126652 -0.147297
-0.120508745 0.0019246263 0.10518569 -0.05043351 -0.057997033 -0.0078082895 0.008316045 -0.15720521
-0.07476909 -0.012014163 -0.14664634 -0.1184665 -0.022671102 -0.07933113 -0.096248336 0.08979978
-0.062345162 -0.049054816 -0.035070725 -0.03784339 0.19234966 0.14145553 0.14278024 0.021734148
0.13236059 -0.09248535 -0.042489953 0.019014942 -0.1085146 -0.047015753 -0.17600264 -0.13971853
-0.084118694 0.0109729795 0.022811344 -0.13493016 -0.054379657 0.085426405 -0.07702026 0.09687243
0.087112024 0.033423413 -0.015199011 -0.017110504 0.06566964 -0.11160877 0.06792749 0.10394899
-0.083004676 -0.11476178 0.14970376 0.14942418 0.12204362 0.0058183447 0.12254884 0.09656783
-0.111879885 0.15641952 0.04098127 0.0064750235 0.19738597 -0.13780314 -0.03395897 -0.07496505
-0.13010643 0.08861696 0.08332547 -0.016609192 0.032986883 -0.012274185 -0.039258834 -0.045924634
-0.043612782 0.075923204 0.11311674 -0.1357988 0.03559528 0.063414305 -0.03194696 -0.17385906
0.055410963 -0.15692142 0.1367663 -0.15316132 0.11913184 -0.13559906 -0.045897324 -0.09185206
0.09300224 -0.06309692 0.055516563 -0.13897434 -0.022022313 0.05340842 -0.089002654 -0.12286013
-0.09555977 -0.04656297 0.069740206 -0.13415179 -0.071373075 -0.109466754 0.01599903 -0.14831127
0.05319268 -0.1917735 -0.123289764 -0.01376018 -0.023643535 0.07706554 -0.07987654 0.066937946

h2o.bias f4 [6]
00000000: e4f5 24bc ee57 d23c cc08 723c db32 193d
00000010: 5a58 0cbc 189b 333b
-0.0100683905 0.025676694 0.014772605 0.037402015 -0.0085659865 0.0027405676

h2h.weight f4 [234, 234]
00000000: f848 60bd 58d4 8b3c 32e3 133d cbec d3bc
00000010: 7484 8b3c 08a1 ebbc c65f ae3b a897 0ebd
00000020: ad8c c03b 552c 093e f8ec 1e3e 59b6 b9bc
00000030: 9a86 033e d849 013e ca3e cc3c 6984 5abe
00000040: 8c91 19be e74e 86bc 7fc9 0abe 9b3c e4bd
00000050: 656e 333e fc8b 8c3d de9c 153e 88d1 37bd
00000060: 256b 12bd 5af1 653d b1b6 943d 6a12 343d
00000070: 061b e63b d9be 443d d2e0 91bd 3896 8bbd
00000080: 9390 71bd 5442 993d d616 383e 705c bd3d
00000090: 3616 f53d 38aa c1bd e718 5fbd af58 403d
000000a0: 4bc4 843c 9033 a83d d6a9 a43d efa4 7cbb
000000b0: 620f edbc 3808 f73c 33ca 92ba 259f 953d
000000c0: 1793 41bd a770 183c 4570 0dbd 43b8 0fbd
000000d0: bd43 7fbd 8f7d 5dbd 03a2 633c 687f c7bd
000000e0: 3b81 a2bd 78f6 d33c 95dc 32bd bd8e 2fbd
000000f0: c5c6 663c 5461 fbbc 404d 513d beaa 913d
00000100: f07c 62bc 92f5 fdbc d792 25bd 0763 54bd
00000110: c9fc c93b 586c 5c3d d391 d43d 4fb9 97bd
00000120: 93ce 0cbe c705 9a3d 3276 bdbd f319 bd3d
00000130: 4061 9b3c d382 673b 10c7 013d d764 343c
00000140: 6240 993b ff56 42bd 23cd 86bc ff5c 4d3d
00000150: aa19 b7bd 0601 2cbd c23f d23d 8617 d5bc
00000160: ef35 773d 459c edba 8361 103d fdbd 953c
00000170: a1f9 c5bb 21ad fbbc 6c53 863d ed93 6abd
00000180: 46c6 ad3d db61 423d 1a78 713d 51a9 8d3d
00000190: c266 6bbd edea 823d ae66 8f3d 0d17 9dbc
000001a0: 8379 c83b 188e 92bd 1105 92bd 213f ca3d
000001b0: ba4b f03c de36 903d c328 923d 5ae2 5d3a
000001c0: 4efa a13d ca49 d9bc de0f acbd d124 02bd
000001d0: 63d3 923d 79ab 0fbe 495b 05bd 2fdd 9c3d
000001e0: d818 09be feff aa3d 56c4 193d 3146 29bd
000001f0: 55eb 7ebb 359a cdbd 74d8 60bd 9567 b93d
00000200: 5758 09bd ff0c f53d 5e37 a93d f0a3 b73d
00000210: 212c ca3c 7a9d ffbc 45ec 353d d25c b0bc
00000220: f7ec 46bd 56af b5bd 0cd7 0b3e 71d3 e3bd
00000230: ab4e 03bc 6dcc 213c 3441 bcbc 3e34 fe3c
00000240: b42e f1bc 2de5 31be 7350 48be 0bb5 fa3d
00000250: 7073 50bd 5c68 db39 77b6 9fbd 29c2 20bd
00000260: a03b 473b ba9f 2cbd 2732 543d 73e9 af3d
00000270: 5a8e 2d3c 5ccf 7ebd da86 efbc 52e5 b2bd
00000280: f213 83bd 2699 37be 86ab f2bd 7a52 9b3d
00000290: 5624 7b3d dd67 8e3c 08d1 e73d 9095 173d
000002a0: 5e98 fc3d 9d83 b13d 292c a33c 1967 70bd
000002b0: 0e53 24bd 0216 89bd 54a1 edbc 210f 873d
000002c0: b0b3 043d 6bdd 6a3c a5e3 93bd 5f3e ebbd
000002d0: 2d78 3b3e 3cbe b8bc 2509 3b3e 739d e8bc
000002e0: 64f5 ebbd 5983 e03b 629d 5d3a cffa 34bd
000002f0: 062a e5bd f6f9 47be 70a8 113d 9b73 2abd
00000300: b5f3 3abe b32b 77bd fc35 cdbd fe05 8dbc
00000310: 1b88 46bd f8fc 443d f807 9cbd 4faa 273d
00000320: fb28 69bd ad70 4dbd 4bea 343d 992a c83b
00000330: aefc c2bd 443c 5f3d b829 bfbc 1b1d bb3c
00000340: 8b68 1fbc 4fe9 d5bc b141 86bd 3130 163d
00000350: 7ea2 06bd 9822 0f3c 5c97 23bd 0179 b23d
00000360: 840d 70be 068d a1bd 8a5f f23c 7ce3 a93d
00000370: 4496 583d 5aec 253d ef3e 803d 46e7 92bd
00000380: 3342 b43c a207 8cbd 673b 55bc 961e c9bd
00000390: 43c4 19bc a7e1 c03d c660 383e a87e f03d
000003a0: 5b40 ee3b 40fb 233d 13f3 733d 4d49 b33d
000003b0: 9320 13bd a2ed 9d3d df01 9a3d e8be 62bd
000003c0: 62c6 8abb 82d9 32bd 8ebd 1d3c 1ec7 3fbd
000003d0: f44f 9dbd 5e11 f83c 694f febc b99f e9bd
000003e0: 30b4 37bd 5cdf 4abd 924f a3bd 721b 9abc
000003f0: c2b6 99bc a87c 63bb 1478 a03d a1cd 16bd
-0.05475709 0.017069027 0.036105342 -0.025869748 0.017030932 -0.02876331 0.0053214757 -0.0348126
0.005876145 0.13395818 0.15520084 -0.022669958 0.12844315 0.12625825 0.024932284 -0.21339573
-0.14996928 -0.016395045 -0.13553427 -0.11144372 0.17522581 0.068626374 0.14610621 -0.04487756
-0.035746712 0.056138374 0.07261408 0.043962874 0.0070222644 0.04803357 -0.07122959 -0.06815761
-0.058975767 0.07483354 0.17977461 0.09246147 0.11967127 -0.09456295 -0.054467108 0.046959575
0.016206881 0.0821296 0.08040206 -0.0038550457 -0.028938 0.030155286 -0.0011199176 0.07305745
-0.047259416 0.009304202 -0.034530897 -0.035087835 -0.06232046 -0.05407482 0.013893607 -0.09741098
-0.07934805 0.025874361 -0.043667395 -0.042860735 0.014085476 -0.030686058 0.051099062 0.071126446
-0.013823733 -0.031000886 -0.04042324 -0.051852252 0.0061641675 0.053814262 0.10379376 -0.07408392
-0.13750677 0.07520633 -0.092510596 0.09233465 0.01896727 0.003532578 0.03168398 0.01101037
0.0046768645 -0.047446247 -0.016455239 0.050137516 -0.08940442 -0.041993164 0.10266067 -0.026012193
0.06035417 -0.0018128237 0.035249244 0.01827907 -0.006041721 -0.030722203 0.0655888 -0.05726998
0.08485083 0.047456603 0.05895243 0.0691706 -0.057471044 0.06392465 0.070020065 -0.01917603
0.006118001 -0.071560085 -0.071298726 0.09875322 0.029332984 0.07041715 0.07136681 0.000846421
0.0790907 -0.026524443 -0.08401464 -0.031773392 0.07169225 -0.14030255 -0.03255776 0.07659375
-0.13388383 0.08349608 0.037540756 -0.041326705 -0.0038897593 -0.10039178 -0.054893926 0.0905296
-0.033531513 0.119653694 0.082625136 0.089668155 0.024679245 -0.03120302 0.044414777 -0.021528635
-0.04856583 -0.08871333 0.13656253 -0.111243136 -0.008014361 0.009875399 -0.02298031 0.03103077
-0.029441215 -0.1737258 -0.19561939 0.122415625 -0.05089134 0.0004184869 -0.07798474 -0.039247666
0.003040053 -0.042144515 0.05180564 0.08589449 0.010593021 -0.062209472 -0.029239107 -0.08735146
-0.06400289 -0.17929515 -0.11849122 0.075840905 0.06131395 0.01738351 0.113191664 0.03700787
0.12333749 0.08667681 0.019918518 -0.05869207 -0.04011827 -0.06693651 -0.029007591 0.065946825
0.032397926 0.014335017 -0.07221154 -0.11486506 0.18307562 -0.022551648 0.18265207 -0.02839539
-0.11521414 0.0068515954 0.0008453933 -0.044184502 -0.11189656 -0.19528946 0.035561025 -0.041614156
-0.1825703 -0.06034441 -0.10020062 -0.017214771 -0.048469644 0.048092812 -0.076187074 0.040933903
-0.056923848 -0.050156284 0.04416875 0.0061085937 -0.09520851 0.054500833 -0.023335323 0.022841027
-0.009729515 -0.026112227 -0.065554984 0.036667053 -0.03286981 0.008736275 -0.03993927 0.08714486
-0.23442656 -0.07888226 0.029586572 0.08295342 0.05287768 0.040508606 0.06262004 -0.07173018
0.022004222 -0.06837393 -0.013014651 -0.09820287 -0.009385171 0.0941804 0.18005666 0.11742908
0.0072708554 0.040034533 0.059557986 0.087542154 -0.035919737 0.077113405 0.07519888 -0.055357844
-0.004235075 -0.043664463 0.009627713 -0.046820752 -0.076812655 0.030281719 -0.031043725 -0.11407418
-0.044849575 -0.04952942 -0.07974161 -0.018811915 -0.018763904 -0.0034711752 0.07835403 -0.036817197

h2h.bias f4 [234]
00000000: 2d6e 1f3d b471 2abc c423 d33b ad57 1e3b
00000010: 2c6b c0bb 4503 c8bb 7ae8 8dbc e5f3 933c
00000020: 0fc8 403b 847d f6bc 01b4 f1bb 32c2 5dbc
00000030: 5abf 0fbc 4b4f 89bc 2b64 4abc 5f25 9e3b
00000040: a1da e1bc a993 debc 42ae 933b 88d1 22bb
00000050: 9a3d 06bc b182 b0bc 2bf4 1dbc 2518 8bbb
00000060: f5db 69bc 865c 12bc 1001 9f3c 026d 93ba
00000070: d130 95bc c1a8 1d3c 88b5 11bc 8e0c 41bc
00000080: 645c 2ebc 348e 243d 7f14 5f3d 8dbe c83c
00000090: 72b7 613c 37aa f83c 20ed 2f3c 82db a6ba
000000a0: fb1d 27bc 54a5 c2bc 6a11 7fbb ab1d 00bc
000000b0: 049d 2a3c 4d9a 453c ec3d 3a3b 5474 a3bc
000000c0: e300 da3c b374 e8bb 2357 bcbb f513 7f3b
000000d0: 77fd 58bc e64c 2e3b 73e4 4bbd dbdb 203b
000000e0: ab79 183d 1b81 20ba 2524 81bc fd72 743c
000000f0: d8e6 9db9 c9b9 19bc 350b 7a3d 02d5 93bb
00000100: f0e4 afbc e215 f63b ff07 a538 0a13 c5ba
00000110: 298a 60ba 4d7e f1ba 48ed 96bc f69e bfbb
00000120: 41ad a43b 9f08 8e3d cade 2dbc f573 10bd
00000130: 19c1 193d cee8 653a 4219 3b3d a06e 1d3c
00000140: de63 053b 2a0f d23c 0d31 663b 64f6 093c
00000150: 97bd b83a 22ae 4b3c 3208 fc3b 18ae 65bc
00000160: e1c2 af3b 51a5 f6bb 2d88 513d 5988 293c
00000170: 32d5 4a3c 2acb cabc a53c 16bd 7415 bb3c
00000180: ba76 f93a bc83 a3bc 0b34 e43c 5051 3c3c
00000190: 4d14 073c 7a9c 223c 6433 c63c e4a3 34bc
000001a0: ef09 533b 4b99 26bc bdd5 e2bb d66f 543d
000001b0: d6b6 043b 5fe8 02bc 2a99 04bc edf9 df3b
000001c0: de7e 9fb9 9b33 3ebc c93b 86bc 061f 213c
000001d0: 0b53 1abd 2adf 593c 0a87 a23c 6fdb edbc
000001e0: f0ba f93c 76e9 afbb 119c e5bb ee04 523b
000001f0: 012b e9bb f19d da3a 1064 6d3c a883 193d
00000200: 3500 c73b 943d b5bc 05b6 4e3c 00b8 1a3c
00000210: 6160 853b 1146 343d 6db0 0f3b 7099 40bc
00000220: 3374 b23b e74a 12bc f6b9 c1bc 222c a43c
00000230: 3e21 a8bc 7e30 8d3b c360 8bbb af23 21bc
00000240: f728 82b9 cb02 9e3c b50d 11bc da3f 03bb
00000250: 19ea f9bb 781b 5c3b eb01 9b3c 0361 243c
00000260: beff 59bc 459d 343c 60f6 da3c 19cb 393c
00000270: 95f9 1c3c 2fb1 253d d924 89ba dcba 3cbc
00000280: 5c63 b5bb f3d2 113d ddea e53c 6dfc 843c
00000290: b715 7d3c f80d ccbc daf2 073c a8aa 393c
000002a0: 493e 533c f32e 653c 23af a23c 7f89 cdbb
000002b0: 6525 9cbb 948a 593c 2c3a c23a f99f 003b
000002c0: 84d6 f93b 385b 033c 0462 583b 0ca9 993b
000002d0: e396 423c e548 0ebb fe54 19bc a61f f0bb
000002e0: 82ed 3b3c d8d3 3f3d 34e2 203d c040 f13b
000002f0: 323b 12bc a6ff e43a 1b58 32bc c3f9 733b
00000300: 96a1 933c f4c5 02bb 2f19 5f3a 21e8 003a
00000310: 8c22 3eba 6b45 9cbc bd42 26bb f6b6 a33b
00000320: 24d1 5f3c 63bb 4abb 3752 00bc 169b aa3b
00000330: eb32 d73c e8d4 de3b 1a59 d0bb 3d7b 133c
00000340: 53b9 293c 6c0d d83a 17d1 edbb bc4e 94bc
00000350: 81b3 9e3b 4200 39bc 1ef3 373c 5fdc a13c
00000360: 6eb9 12bd acdf cabb 7e4d 14bc 53ca 5e3b
00000370: 0826 b6bc 7c24 c13b df89 423d 9573 8a3c
00000380: 6cc2 a53c 55c7 1d3d 20d4 0fbc eb8f 933c
00000390: 2c98 2f3c 6fd7 a5bc eefe 3a3c 84dc cb3b
000003a0: ca2e 4d3c e957 4d3c
0.03892343 -0.0104030855 0.0064434726 0.0024161146 -0.005872151 -0.0061039054 -0.017322768 0.018060634
0.002941612 -0.030089147 -0.0073761945 -0.013535069 -0.008773649 -0.016761443 -0.0123529835 0.0048262323
-0.02757007 -0.02717002 0.004506857 -0.0024844129 -0.008193398 -0.021546694 -0.009640734 -0.0042448216
-0.014273633 -0.008933192 0.019409686 -0.0011247697 -0.018211754 0.009622754 -0.008893378 -0.011782778
-0.010642145 0.040174678 0.054462906 0.024504924 0.013776647 0.030354602 0.010737687 -0.0012730213
-0.010200019 -0.023760475 -0.0038920292 -0.007819573 0.010413412 0.012060714 0.0028418256 -0.01995293
0.026611751 -0.0070939898 -0.005747692 0.0038921807 -0.0132440245 0.0026596128 -0.049778413 0.0024545107
0.037225407 -0.0006122754 -0.015764305 0.0149199935 -0.00030117366 -0.009382674 0.061045844 -0.0045114765
-0.02147147 0.007509933 7.8693025e-05 -0.0015035581 -0.00085655093 -0.0018424481 -0.018423691 -0.005847807
0.0050255363 0.06935238 -0.010612199 -0.035266835 0.037537668 0.00087703473 0.045678385 0.009608895
0.0020353715 0.025641996 0.0035124451 0.0084205605 0.0014094588 0.012431653 0.0076914066 -0.014018558
0.0053638075 -0.0075270315 0.051155258 0.010347449 0.012379931 -0.02475508 -0.03667893 0.022837378
0.0019032576 -0.019960277 0.027856847 0.011493996 0.008244586 0.009925002 0.024194427 -0.011025403
0.0032201966 -0.010168384 -0.0069224522 0.051864468 0.002025058 -0.007989972 -0.008093158 0.0068352134
-0.00030421367 -0.011608983 -0.01638593 0.009834057 -0.037676852 0.013297835 0.019839782 -0.029035298
0.030484647 -0.005368407 -0.00700713 0.0032046395 -0.007115722 0.001667915 0.014489189 0.037479073
0.0060730227 -0.02212409 0.012616639 0.009443283 0.004070327 0.044012133 0.0021925226 -0.011755332
0.005445981 -0.008928991 -0.023648243 0.020040575 -0.020523664 0.0043087592 -0.0042534783 -0.009835168
-0.00024826053 0.019288441 -0.008853366 -0.0020027072 -0.0076267836 0.0033585709 0.018921813 0.010032895
-0.013305603 0.011023824 0.026728809 0.011339926 0.009580989 0.04045218 -0.0010463252 -0.01151916
-0.005535526 0.035601567 0.028066093 0.016233647 0.015447072 -0.024909005 0.008297646 0.0113321915
0.012893268 0.013988244 0.019858902 -0.0062724943 -0.0047652 0.0132776685 0.0014818362 0.00196266
0.007624449 0.008017354 0.0033017406 0.0046893414 0.0118767945 -0.002171093 -0.009358643 -0.0073279915
0.0114702005 0.04683289 0.039278224 0.007362455 -0.008925246 0.0017471209 -0.010885264 0.0037227727
0.018021386 -0.0019954415 0.00085105276 0.00049174024 -0.00072530727 -0.01907607 -0.002536937 0.004996176
0.013660703 -0.0030934445 -0.007832102 0.005206476 0.026269397 0.0068002827 -0.006358278 0.00900155
0.010359126 0.0016483492 -0.0072575915 -0.01810395 0.004843176 -0.011291565 0.011227397 0.019758401
-0.03582137 -0.0061912145 -0.009051679 0.0033995106 -0.022234932 0.005894242 0.047494765 0.016900817
0.02023431 0.038520176 -0.008778602 0.018012961 0.010717433 -0.020244328 0.011413319 0.006221356
0.012523362 0.012533166
