TBCAS24/intuitivechip_classifier_lcsvsnlcs_teensy_run2/SNN_ep-150-isize-1-8-1-hsize-242-bsize-32-lr-0.001-tmax_ms-400.0-Ts-10.0-k-6-dsetPath-IMODE_allchannels_ALLCLASS_auto_corr_cleaned_1x8_180mvpp_250mvofs_onedac_itail_50nA_ith_10n_ispk_50u_islew_1n_vil_0p8/chip-classifier-test-0-best.pt (torch, 253495 bytes, 8 tensors)

thr_h_1 f4 [242]
0	0x3f800000	1.0
1	0x3f800000	1.0
2	0x3f800000	1.0
3	0x3f800000	1.0
4	0x3f800000	1.0
5	0x3f800000	1.0
6	0x3f800000	1.0
7	0x3f800000	1.0
8	0x3f800000	1.0
9	0x3f800000	1.0
10	0x3f800000	1.0
11	0x3f800000	1.0
12	0x3f800000	1.0
13	0x3f800000	1.0
14	0x3f800000	1.0
15	0x3f800000	1.0
16	0x3f800000	1.0
17	0x3f800000	1.0
18	0x3f800000	1.0
19	0x3f800000	1.0
20	0x3f800000	1.0
21	0x3f800000	1.0
22	0x3f800000	1.0
23	0x3f800000	1.0
24	0x3f800000	1.0
25	0x3f800000	1.0
26	0x3f800000	1.0
27	0x3f800000	1.0
28	0x3f800000	1.0
29	0x3f800000	1.0
30	0x3f800000	1.0
31	0x3f800000	1.0
32	0x3f800000	1.0
33	0x3f800000	1.0
34	0x3f800000	1.0
35	0x3f800000	1.0
36	0x3f800000	1.0
37	0x3f800000	1.0
38	0x3f800000	1.0
39	0x3f800000	1.0
40	0x3f800000	1.0
41	0x3f800000	1.0
42	0x3f800000	1.0
43	0x3f800000	1.0
44	0x3f800000	1.0
45	0x3f800000	1.0
46	0x3f800000	1.0
47	0x3f800000	1.0
48	0x3f800000	1.0
49	0x3f800000	1.0
50	0x3f800000	1.0
51	0x3f800000	1.0
52	0x3f800000	1.0
53	0x3f800000	1.0
54	0x3f800000	1.0
55	0x3f800000	1.0
56	0x3f800000	1.0
57	0x3f800000	1.0
58	0x3f800000	1.0
59	0x3f800000	1.0
60	0x3f800000	1.0
61	0x3f800000	1.0
62	0x3f800000	1.0
63	0x3f800000	1.0
64	0x3f800000	1.0
65	0x3f800000	1.0
66	0x3f800000	1.0
67	0x3f800000	1.0
68	0x3f800000	1.0
69	0x3f800000	1.0
70	0x3f800000	1.0
71	0x3f800000	1.0
72	0x3f800000	1.0
73	0x3f800000	1.0
74	0x3f800000	1.0
75	0x3f800000	1.0
76	0x3f800000	1.0
77	0x3f800000	1.0
78	0x3f800000	1.0
79	0x3f800000	1.0
80	0x3f800000	1.0
81	0x3f800000	1.0
82	0x3f800000	1.0
83	0x3f800000	1.0
84	0x3f800000	1.0
85	0x3f800000	1.0
86	0x3f800000	1.0
87	0x3f800000	1.0
88	0x3f800000	1.0
89	0x3f800000	1.0
90	0x3f800000	1.0
91	0x3f800000	1.0
92	0x3f800000	1.0
93	0x3f800000	1.0
94	0x3f800000	1.0
95	0x3f800000	1.0
96	0x3f800000	1.0
97	0x3f800000	1.0
98	0x3f800000	1.0
99	0x3f800000	1.0
100	0x3f800000	1.0
101	0x3f800000	1.0
102	0x3f800000	1.0
103	0x3f800000	1.0
104	0x3f800000	1.0
105	0x3f800000	1.0
106	0x3f800000	1.0
107	0x3f800000	1.0
108	0x3f800000	1.0
109	0x3f800000	1.0
110	0x3f800000	1.0
111	0x3f800000	1.0
112	0x3f800000	1.0
113	0x3f800000	1.0
114	0x3f800000	1.0
115	0x3f800000	1.0
116	0x3f800000	1.0
117	0x3f800000	1.0
118	0x3f800000	1.0
119	0x3f800000	1.0
120	0x3f800000	1.0
121	0x3f800000	1.0
122	0x3f800000	1.0
123	0x3f800000	1.0
124	0x3f800000	1.0
125	0x3f800000	1.0
126	0x3f800000	1.0
127	0x3f800000	1.0
128	0x3f800000	1.0
129	0x3f800000	1.0
130	0x3f800000	1.0
131	0x3f800000	1.0
132	0x3f800000	1.0
133	0x3f800000	1.0
134	0x3f800000	1.0
135	0x3f800000	1.0
136	0x3f800000	1.0
137	0x3f800000	1.0
138	0x3f800000	1.0
139	0x3f800000	1.0
140	0x3f800000	1.0
141	0x3f800000	1.0
142	0x3f800000	1.0
143	0x3f800000	1.0
144	0x3f800000	1.0
145	0x3f800000	1.0
146	0x3f800000	1.0
147	0x3f800000	1.0
148	0x3f800000	1.0
149	0x3f800000	1.0
150	0x3f800000	1.0
151	0x3f800000	1.0
152	0x3f800000	1.0
153	0x3f800000	1.0
154	0x3f800000	1.0
155	0x3f800000	1.0
156	0x3f800000	1.0
157	0x3f800000	1.0
158	0x3f800000	1.0
159	0x3f800000	1.0
160	0x3f800000	1.0
161	0x3f800000	1.0
162	0x3f800000	1.0
163	0x3f800000	1.0
164	0x3f800000	1.0
165	0x3f800000	1.0
166	0x3f800000	1.0
167	0x3f800000	1.0
168	0x3f800000	1.0
169	0x3f800000	1.0
170	0x3f800000	1.0
171	0x3f800000	1.0
172	0x3f800000	1.0
173	0x3f800000	1.0
174	0x3f800000	1.0
175	0x3f800000	1.0
176	0x3f800000	1.0
177	0x3f800000	1.0
178	0x3f800000	1.0
179	0x3f800000	1.0
180	0x3f800000	1.0
181	0x3f800000	1.0
182	0x3f800000	1.0
183	0x3f800000	1.0
184	0x3f800000	1.0
185	0x3f800000	1.0
186	0x3f800000	1.0
187	0x3f800000	1.0
188	0x3f800000	1.0
189	0x3f800000	1.0
190	0x3f800000	1.0
191	0x3f800000	1.0
192	0x3f800000	1.0
193	0x3f800000	1.0
194	0x3f800000	1.0
195	0x3f800000	1.0
196	0x3f800000	1.0
197	0x3f800000	1.0
198	0x3f800000	1.0
199	0x3f800000	1.0
200	0x3f800000	1.0
201	0x3f800000	1.0
202	0x3f800000	1.0
203	0x3f800000	1.0
204	0x3f800000	1.0
205	0x3f800000	1.0
206	0x3f800000	1.0
207	0x3f800000	1.0
208	0x3f800000	1.0
209	0x3f800000	1.0
210	0x3f800000	1.0
211	0x3f800000	1.0
212	0x3f800000	1.0
213	0x3f800000	1.0
214	0x3f800000	1.0
215	0x3f800000	1.0
216	0x3f800000	1.0
217	0x3f800000	1.0
218	0x3f800000	1.0
219	0x3f800000	1.0
220	0x3f800000	1.0
221	0x3f800000	1.0
222	0x3f800000	1.0
223	0x3f800000	1.0
224	0x3f800000	1.0
225	0x3f800000	1.0
226	0x3f800000	1.0
227	0x3f800000	1.0
228	0x3f800000	1.0
229	0x3f800000	1.0
230	0x3f800000	1.0
231	0x3f800000	1.0
232	0x3f800000	1.0
233	0x3f800000	1.0
234	0x3f800000	1.0
235	0x3f800000	1.0
236	0x3f800000	1.0
237	0x3f800000	1.0
238	0x3f800000	1.0
239	0x3f800000	1.0
240	0x3f800000	1.0
241	0x3f800000	1.0

thr_o f4 [6]
0	0x3f800000	1.0
1	0x3f800000	1.0
2	0x3f800000	1.0
3	0x3f800000	1.0
4	0x3f800000	1.0
5	0x3f800000	1.0

i2h.weight f4 [242, 8]
0	0x3d6968dd	0.05698477
1	0xbd8d5c64	-0.06902388
2	0xbd966e25	-0.07345227
3	0x3df1ac7c	0.11800477
4	0xbe16b0f3	-0.14715938
5	0x3da4c0d7	0.08044594
6	0xba9abfd6	-0.0011806439
7	0x3d7af647	0.061270025
8	0xbde47c94	-0.11156574
9	0xbdce95de	-0.10087179
10	0xbcf032f9	-0.02932118
11	0xba5fa79f	-0.00085317524
12	0x3da769ec	0.081745
13	0xbd435230	-0.047685802
14	0x3e0acc32	0.13554457
15	0xbdec4ea1	-0.11538435
16	0x3dc99da2	0.09844519
17	0xbde3e51f	-0.11127686
18	0xbdfdbbb3	-0.123893164
19	0xbd2bed70	-0.041974485
20	0xbdfb143e	-0.1225972
21	0x3d2ae6c0	0.041723967
22	0xbd26e069	-0.040741358
23	0x3e0391d3	0.12848596
24	0x3d04476d	0.03229468
25	0xbda3987f	-0.07988071
26	0xbd07ca34	-0.03315182
27	0x3e08351e	0.13301513
28	0x3df1c936	0.11805956
29	0xbcfce9c0	-0.03087318
30	0xbe07670c	-0.13222903
31	0xbe029ddb	-0.1275553
32	0x3d108903	0.035286915
33	0xbe15cb68	-0.14628375
34	0xbda886c8	-0.082288325
35	0xbd967d16	-0.07348077
36	0x3dbb68d6	0.09150855
37	0x3d55cd28	0.052197605
38	0x3e1dd580	0.15413475
39	0xbe07503c	-0.132142
40	0x3d6732e0	0.056445003
41	0xbe07d57a	-0.13265029
42	0x3e0d1858	0.13778818
43	0xbce59137	-0.028023345
44	0x3e01b80d	0.12667866
45	0x3df42955	0.11921946
46	0xbd5a614a	-0.05331544
47	0x3d917f67	0.07104378
48	0xbd8ab5c6	-0.06772952
49	0xbc2012fa	-0.009770149
50	0x3d732a74	0.05936666
51	0x3d4d94db	0.050190788
52	0x3e0ffc10	0.14060998
53	0x3e05ccc6	0.13066396
54	0xbdeaa00e	-0.11456309
55	0xbc5c49c9	-0.013445326
56	0xbdd95f5f	-0.10613894
57	0xbd838cbd	-0.06423328
58	0xbd09fc17	-0.033687677
59	0x3d1b9dc7	0.037992265
60	0xbe05c741	-0.1306429
61	0xbcd0ce33	-0.025488948
62	0x3d83a251	0.06427444
63	0xbd501299	-0.050798986
64	0xbadb2a0b	-0.0016720904
65	0xbdc0f425	-0.09421567
66	0x3db11409	0.086463995
67	0x3e19f74c	0.15035743
68	0xbdb6026e	-0.08887182
69	0xbde3794a	-0.111071184
70	0xbd7e0f5e	-0.062026374
71	0x3e0ad91e	0.13559386
72	0xbb350c55	-0.0027625759
73	0xbdde8895	-0.10865895
74	0xbdef0e94	-0.116727024
75	0xbdccbcac	-0.09996924
76	0x3d8479cc	0.064685434
77	0x3dc2979e	0.09501575
78	0x3e0e42e8	0.1389271
79	0xbcfa848e	-0.030580785
80	0xbdf38190	-0.118899465
81	0x3cab265f	0.02089232
82	0x3d96ccef	0.07363307
83	0x3dfcfee5	0.12353305
84	0xbd26813b	-0.040650588
85	0x3d76660d	0.060155917
86	0xbc8b8f7b	-0.01703619
87	0xbdedfc20	-0.11620355
88	0xbe00aadb	-0.12565176
89	0xbe215213	-0.15753965
90	0x3df7807f	0.120850556
91	0x3e007653	0.12545137
92	0xbb14b3f7	-0.0022690275
93	0x3dc7e50a	0.097604826
94	0xbe111e5a	-0.14171734
95	0x3e093825	0.13400324
96	0xbd53ac45	-0.05167796
97	0x3cccaf9f	0.024986086
98	0xbcf4ebc1	-0.029897572
99	0x3c9bd996	0.019024651
100	0x3df5c647	0.12000709
101	0x3cc175b0	0.023615688
102	0x3c1a4a90	0.009417191
103	0xbdbe1363	-0.092810415
104	0xbbc69ddb	-0.0060612983
105	0x3dee12e9	0.116247006
106	0xbdc03f4f	-0.09387075
107	0xbdecd49e	-0.11563991
108	0x3e16dd08	0.14732754
109	0xbd757937	-0.059930053
110	0xbdcf1e00	-0.10113144
111	0x3d97421f	0.073856585
112	0x3c1bb0ab	0.00950257
113	0x3dd48886	0.10377602
114	0x3e0326b3	0.12807731
115	0x3d57bb14	0.052668646
116	0xbceb4971	-0.028721543
117	0x3cec7545	0.028864512
118	0x3d4863fd	0.04892348
119	0xbe12c867	-0.1433426
120	0x3df0acad	0.11751685
121	0xbcc17328	-0.023614481
122	0xbc5ce6a0	-0.01348272
123	0xbb874d88	-0.0041291155
124	0x3cd2da2b	0.025738796
125	0xbb0c9e21	-0.0021456557
126	0x3de95a4c	0.11394176
127	0x3d68de2c	0.056852505
128	0x3c6b667c	0.014367696
129	0x3cfe2ac3	0.03102625
130	0x3e095492	0.13411167
131	0xbdcab725	-0.09898213
132	0x3e11583b	0.14193814
133	0x3db32dd1	0.08748973
134	0xbcf98702	-0.030459885
135	0xbd81e697	-0.0634281
136	0x3d83f47d	0.06443117
137	0xbe04f7e0	-0.12985182
138	0x3e13fd3e	0.14452073
139	0x3d815acb	0.063161455
140	0x3d7d30b9	0.061814044
141	0xbd13c88b	-0.036079925
142	0xbcda009c	-0.026611619
143	0xbdee3944	-0.11632016
144	0xbdc57f4a	-0.09643419
145	0x3cb0030c	0.021485828
146	0xbc0a5a1a	-0.008444333
147	0x3e08013a	0.13281718
148	0xbdc7d69b	-0.097577296
149	0xbdba1fd2	-0.090881005
150	0xbdd53d50	-0.10412085
151	0xbd4c21f8	-0.049837083
152	0xbdeedfd7	-0.11663788
153	0x3d81f2b4	0.0634512
154	0x3de9d256	0.114170715
155	0xbddd3104	-0.108003646
156	0xbe0841d0	-0.13306355
157	0x3d0cc704	0.034369484
158	0x3d278ca2	0.040905602
159	0xbddb1450	-0.10697234
160	0x3e29d702	0.16585925
161	0xbbce8618	-0.0063026063
162	0xbda122d5	-0.07867972
163	0x3c542071	0.012947188
164	0x3e0d9b34	0.13828737
165	0xbda8b423	-0.08237483
166	0x3e16da08	0.1473161
167	0x3d68c7e0	0.05683124
168	0x3db26010	0.08709729
169	0xbc1f8261	-0.009735675
170	0x3e13d5c5	0.14437015
171	0x3baba7cc	0.005238509
172	0xbe02385a	-0.12716809
173	0xbe0c931e	-0.13727996
174	0xbc63fb66	-0.0139149185
175	0xbe043799	-0.12911834
176	0xbd619c86	-0.055080913
177	0x3ba55021	0.0050449525
178	0x3c5ea15d	0.013588277
179	0x3d0c758b	0.034291785
180	0x3e0a360d	0.13497181
181	0xbd4df3df	-0.0502814
182	0x3d95320e	0.07284938
183	0x3e01e3e2	0.12684587
184	0xbdc1b115	-0.09457604
185	0xbda2a284	-0.07941154
186	0xbd564a23	-0.052316796
187	0x3d864daa	0.06557782
188	0xbd26a1db	-0.0406817
189	0xbe087214	-0.13324767
190	0x3e04f021	0.12982227
191	0x3c99fa5d	0.01879614
192	0xbdff8491	-0.12476457
193	0xbe14afad	-0.1452014
194	0xbe007aa6	-0.12546787
195	0x3d9572b9	0.07297272
196	0xbe2b133c	-0.16706556
197	0xbbacaf0e	-0.0052698916
198	0xbe0c2e5b	-0.13689558
199	0xbd5dedac	-0.05418174
200	0xbdc6ce90	-0.097073674
201	0x3d935fc3	0.071959995
202	0xbdfda160	-0.123842955
203	0x3d87b3ae	0.06626068
204	0x3ded02d5	0.11572806
205	0x3d916a36	0.07100336
206	0x3dcbda4f	0.099537484
207	0xbe0f821e	-0.1401448
208	0xbdf17c43	-0.11791279
209	0xbdbbae15	-0.09164063
210	0xbe129bb2	-0.14317206
211	0xbd7d0262	-0.06176985
212	0xbcc3d5e6	-0.023905706
213	0x3d885b87	0.066580825
214	0x3dc599c4	0.09648469
215	0xbda8bb4a	-0.082388476
216	0x3db9a102	0.09063913
217	0xbd188b06	-0.037241958
218	0xbe0e1b66	-0.13877639
219	0xbd1c5add	-0.03817259
220	0x3d6aad66	0.057294272
221	0x3e1b9d7f	0.15196799
222	0xbc63af18	-0.013896726
223	0x3d247992	0.040155
224	0x3d5339db	0.051568847
225	0x3cbf21cb	0.023331543
226	0xbe010b57	-0.12601982
227	0x3cf3fb5c	0.029782943
228	0xbd9b9994	-0.07597652
229	0xbe1a3023	-0.15057425
230	0xbe0b9fbd	-0.13635154
231	0xbe0c0b28	-0.13676131
232	0xbddea759	-0.10871763
233	0xbdd4b634	-0.10386315
234	0x3b35291c	0.0027642911
235	0xbe2489b7	-0.16068159
236	0xbdef9b88	-0.11699587
237	0x3d20332a	0.039111294
238	0x3d81016d	0.062991
239	0xbbe5b5d9	-0.0070102033
240	0x3dcd161c	0.10013983
241	0xbd303019	-0.04301462
242	0x3d8af5e9	0.06785185
243	0x3db09662	0.08622433
244	0xbe198c3b	-0.149949
245	0x3e025c6a	0.12730566
246	0xbdafb725	-0.08579854
247	0xbde77b24	-0.11302784
248	0xbdab1575	-0.08353702
249	0x3dd5c1de	0.10437368
250	0x3c05f7ac	0.008176725
251	0xbc4b093f	-0.012392341
252	0xbd5e6a25	-0.054300446
253	0x3e15e9b4	0.14639932
254	0x3da517fc	0.08061215
255	0xbd3d2961	-0.04618204

i2h.bias f4 [242]
0	0xbc06a36e	-0.008217676
1	0xbb1c415e	-0.0023842673
2	0xbc0b7bb0	-0.008513376
3	0x3a271e95	0.00063751015
4	0xbb9b9da9	-0.004749019
5	0x3c54ddec	0.012992363
6	0xbb8192a6	-0.0039542494
7	0x3c843aad	0.01614126
8	0x3b02d132	0.0019961116
9	0x3ab40584	0.0013734554
10	0xbaef40a8	-0.0018253522
11	0x3c1c321b	0.00953343
12	0xbbd00612	-0.00634838
13	0xbc1e3b09	-0.00965763
14	0xbb9a2c8b	-0.004705017
15	0xbb9e48a1	-0.0048304354
16	0x3b2efdc6	0.0026701554
17	0xba515c6f	-0.0007986491
18	0xbb096732	-0.002096605
19	0x3bc4e034	0.0060081724
20	0x3a455fe0	0.000752924
21	0xbc27347b	-0.010205383
22	0x3b9b78cc	0.0047446247
23	0x3b9f6f85	0.004865589
24	0x3c6d4915	0.014482756
25	0x3b2a3440	0.0025971085
26	0x3bdcb3d4	0.0067353044
27	0x39d9ac3a	0.00041517784
28	0xbb865651	-0.004099645
29	0xbb8d0995	-0.004304121
30	0x3c0f9993	0.008764642
31	0xbb99eae1	-0.004697189
32	0xbcc1e348	-0.023667946
33	0xbc3cac35	-0.011515667
34	0xbc26b7b1	-0.010175631
35	0x3c824081	0.015899898
36	0x3bc1bec0	0.0059126318
37	0xbb394470	-0.0028269552
38	0xbb8705c2	-0.0041205594
39	0xbba3d39c	-0.004999591
40	0x3c5cb6a7	0.013471282
41	0x3b601a08	0.0034195203
42	0x3c7ccd58	0.015429817
43	0x3b4dbdc2	0.0031393622
44	0x3c12e7fb	0.008966441
45	0x3b98ad35	0.0046593198
46	0x39a75124	0.00031913177
47	0x3c73ff9e	0.014892487
48	0xbab551b8	-0.0013833558
49	0x3b7c51c4	0.0038500885
50	0x3c0ff80c	0.008787166
51	0xbb6edbd3	-0.0036446943
52	0xbb780c0b	-0.0037848975
53	0x3c0ab4ab	0.008465926
54	0xbb1623c6	-0.0022909506
55	0x3b28db6b	0.002576555
56	0xbc2e116b	-0.01062427
57	0x3c240b55	0.010012467
58	0xbab65f9a	-0.001391399
59	0x3b34db46	0.0027596517
60	0xbbe26428	-0.006908912
61	0x3b937394	0.004499862
62	0x3bc59c5c	0.0060306024
63	0xbab63e62	-0.001390409
64	0xbc2463e7	-0.010033584
65	0xbc007743	-0.007840934
66	0x3b9126e9	0.0044296873
67	0xbc9cbec8	-0.01913394
68	0x3c9e6143	0.019333487
69	0xbc65f300	-0.0140349865
70	0xba8cc0dc	-0.0010738629
71	0xbccacdbc	-0.024756305
72	0xbcb4fbb7	-0.022092683
73	0xbc0fa477	-0.008767239
74	0x3bf3a959	0.0074359593
75	0x3cef3bd0	0.029203326
76	0xbb8d1791	-0.004305788
77	0xbb00c95f	-0.0019651277
78	0xbbc69917	-0.00606073
79	0x38cf86ae	9.895615e-05
80	0x3b0d0542	0.0021518026
81	0xbc2914df	-0.010319917
82	0xbcec805f	-0.028869806
83	0x3a91b443	0.0011116344
84	0x3a9e7dc8	0.0012091929
85	0x3a7bfe98	0.00096128276
86	0x3b88b7c6	0.004172298
87	0xbb4ce323	-0.0031263314
88	0x3c154af6	0.00911211
89	0xbc655dde	-0.01399943
90	0x3afbb449	0.001920351
91	0x3b53f5bc	0.0032342514
92	0xbb31c11a	-0.0027123154
93	0x3bd0361f	0.006354108
94	0xbc6ee638	-0.014581256
95	0x3ae25d7a	0.001727029
96	0x3a329e17	0.00068137184
97	0xbb2b88c3	-0.0026174046
98	0x3ab80933	0.0014040828
99	0x3b5543f3	0.0032541722
100	0xbc639f47	-0.013892955
101	0x3c41866f	0.011811837
102	0xbb860d6f	-0.004090957
103	0x39fb21ae	0.00047899544
104	0x3c3c598d	0.01149596
105	0xbb1ebf9e	-0.00242231
106	0xbc62056c	-0.013795238
107	0x3caaf4bc	0.020868652
108	0x3acb2b20	0.0015500523
109	0x3c340804	0.010988239
110	0x3c8508ca	0.016239543
111	0xbb1c30d4	-0.0023832815
112	0x3b0d7b2e	0.0021588313
113	0x3a152016	0.000568868
114	0xbc4c1937	-0.012457184
115	0x3bcb764d	0.006209171
116	0xbb9c15f9	-0.0047633615
117	0x3bfc28e0	0.0076953024
118	0xbcb7e82d	-0.022449577
119	0x39f47710	0.00046628015
120	0xbb864a69	-0.004098226
121	0xbc877c1e	-0.016538676
122	0x3ab92cd8	0.0014127744
123	0xbbbcb66f	-0.0057590525
124	0x3b42de8f	0.0029734706
125	0xbbdf60e0	-0.0068169683
126	0x3a32ea05	0.0006825033
127	0xbbb2bee2	-0.005454884
128	0x3c518fc4	0.012790624
129	0x3cae18bc	0.021252029
130	0xbbb60cd4	-0.0055557285
131	0xbc487026	-0.0122337695
132	0x3acfb173	0.0015845731
133	0x3c54cbe8	0.012988068
134	0x3bbbfa46	0.005736622
135	0x3b8d0f8e	0.004304833
136	0x3bf4231b	0.007450474
137	0xbb199d1f	-0.0023439599
138	0x3c290168	0.010315277
139	0x3b2c70b6	0.0026312298
140	0x3c4fbb9d	0.012679008
141	0xbbe4ca74	-0.006982142
142	0xbbcde117	-0.0062829363
143	0x3be5f36d	0.007017544
144	0x3c83f741	0.01610911
145	0xbbd21016	-0.006410609
146	0x3c6b4562	0.014359804
147	0xbc2346f6	-0.009965649
148	0xba4875ce	-0.0007646949
149	0x3c0ae8ed	0.008478385
150	0x3c174890	0.009233609
151	0x3ac9c356	0.0015393298
152	0x3ba04950	0.004891552
153	0x3b489521	0.0030606466
154	0xb9b2f724	-0.0003413494
155	0xbbafb25a	-0.0053618373
156	0x3c83af20	0.016074717
157	0xbcb5b988	-0.022183195
158	0x3b8a3975	0.004218275
159	0xbbc6cd73	-0.006066972
160	0x3c412d38	0.011790566
161	0x3ae2bfc0	0.0017299578
162	0x3d2a73b6	0.041614257
163	0x3abb76d2	0.0014302379
164	0x3d4f35b4	0.050588325
165	0x3c260a5e	0.010134308
166	0x3a9da1ed	0.0012026407
167	0xbb8e2e42	-0.0043390105
168	0xbcb63e7f	-0.022246597
169	0xbb5a1197	-0.0033274645
170	0xbc5d430f	-0.013504758
171	0x3a704528	0.00091655785
172	0x3cbf2319	0.023332166
173	0xbca2facd	-0.019894982
174	0xbbad7520	-0.0052935034
175	0xbc3799f1	-0.011206136
176	0x3b923317	0.004461657
177	0x3c822a02	0.015889172
178	0x3caa4e3c	0.020789258
179	0x3c5bfef3	0.013427484
180	0xbc232575	-0.009957661
181	0xbbe91018	-0.007112514
182	0x3af0ed7e	0.0018381325
183	0x3ce93d55	0.028471628
184	0x3c490382	0.012268903
185	0xbc2c105a	-0.010501945
186	0x3b118b2d	0.00222082
187	0x3c732767	0.014840937
188	0xbbdec589	-0.0067984504
189	0xbc88f338	-0.016717538
190	0x3c345dda	0.011008704
191	0xbc4fe6cd	-0.012689305
192	0x3c357077	0.011074177
193	0xbbd57421	-0.006514088
194	0xbc51702d	-0.012783092
195	0x3c4b30a5	0.0124017345
196	0xbb0b3911	-0.002124373
197	0xbc458440	-0.012055457
198	0xbc558152	-0.013031321
199	0x3bf78f9c	0.0075549614
200	0x3d2fd8c4	0.042931333
201	0xba3af4f3	-0.0007131837
202	0x3c03a158	0.008034073
203	0x3c719a3b	0.014746244
204	0xbc86dfff	-0.016464232
205	0xbc26216c	-0.010139804
206	0xbac1ccda	-0.0014785782
207	0x3bc5f718	0.0060414188
208	0x3d31eba2	0.043437608
209	0xbc283242	-0.010265889
210	0x3c356fa5	0.011073981
211	0x3c0761fb	0.008263106
212	0xbc486a34	-0.012232352
213	0x3b89eae9	0.0042089117
214	0xbc2af02f	-0.010433241
215	0x3b855e97	0.004070114
216	0xbb940b1f	-0.0045179273
217	0x3b9057ef	0.0044050138
218	0x3c7319fd	0.014837739
219	0x3c1b5c6d	0.009482485
220	0x3accef8d	0.0015635357
221	0xbbc15c1d	-0.0059008733
222	0x3c219f3f	0.009864627
223	0xbb2f0944	-0.0026708404
224	0x3c488b1e	0.012240199
225	0xbbf671f5	-0.007520909
226	0x3c132ee9	0.008983352
227	0x3b91a1f1	0.0044443537
228	0xbc0d030e	-0.008606685
229	0x3ce74b9a	0.028234292
230	0x3a020bd5	0.00049608696
231	0x3a4ece4c	0.0007889017
232	0x3bdfa2d0	0.0068248287
233	0x3ba0f5dd	0.0049121217
234	0xbb13ae4f	-0.0022534316
235	0x3bb0ae05	0.0053918385
236	0x3c5b3285	0.013378744
237	0xbbdb6c11	-0.006696232
238	0x3cf59b47	0.029981269
239	0xbc1bcab7	-0.00950878
240	0xbb24223b	-0.0025044817
241	0xbc208261	-0.00979671

h2o.weight f4 [6, 242]
0	0x3db53cd6	0.08849494
1	0x3e2cdfa9	0.16882195
2	0xbe0dadc2	-0.13835815
3	0x3deefa2a	0.11668809
4	0x3dfeb53e	0.12436913
5	0xbe0de5b2	-0.13857153
6	0x3d7cb357	0.06169447
7	0xbbdbbc85	-0.006705823
8	0x3b09b746	0.002101378
9	0xbd9a4a4e	-0.07533704
10	0x3d34a6fd	0.044104565
11	0x3d285b62	0.041102774
12	0x3dc0759f	0.093974344
13	0x3daf443f	0.08557939
14	0xbdda92c2	-0.10672523
15	0x3dcb69c0	0.099322796
16	0xbc36ccea	-0.011157254
17	0xbd8f8557	-0.070078544
18	0xbdf0a8ac	-0.117509216
19	0x3ba1e3d7	0.0049404907
20	0x3c9f0628	0.019412115
21	0x3ca53c26	0.020170283
22	0xbdef7889	-0.11692912
23	0xbcd2a11d	-0.02571159
24	0x3df4a285	0.11945061
25	0x3d08713d	0.033311117
26	0x3e1156de	0.14193293
27	0xbe1d77fa	-0.15377799
28	0xbdae5d96	-0.08513944
29	0xbb7e076c	-0.0038761748
30	0xbda435d2	-0.08018078
31	0x3e19af79	0.15008344
32	0x3e337e48	0.17528641
33	0x3c72ccc9	0.014819332
34	0x3d5e8482	0.054325588
35	0xbdfbcd7b	-0.12295052
36	0xba83f73d	-0.001006819
37	0x3e15aa4b	0.14615743
38	0x3d472109	0.04861549
39	0x3ddaf268	0.106907666
40	0x3d796d2e	0.060895137
41	0x3b8d54c0	0.0043130815
42	0x3cd8a908	0.026447788
43	0x3ddc29cf	0.10750162
44	0xbdc25ef2	-0.09490766
45	0xbd04494e	-0.03229647
46	0x3dfa962f	0.122356765
47	0xbdc55c18	-0.09636706
48	0xbd78c6d9	-0.06073651
49	0x3d85a24a	0.06525095
50	0xbd363076	-0.04447981
51	0x3e335d8a	0.17516151
52	0xbe105a3a	-0.14096919
53	0xbdb4a0e5	-0.08819751
54	0x3dac2856	0.08406131
55	0xbdc42e00	-0.09579086
56	0xbd4b0bc8	-0.049571782
57	0xbdbb9bb6	-0.09160559
58	0x3ddee577	0.10883611
59	0xbcc99999	-0.024609374
60	0xbd48782d	-0.048942734
61	0x3df195da	0.1179616
62	0xbdbeb150	-0.093111634
63	0xbd937743	-0.07200482
64	0x3db8f733	0.090315245
65	0x3c791640	0.015203059
66	0x3d2d7475	0.04234739
67	0x3e12c32c	0.14332265
68	0xbd43767f	-0.04772043
69	0x3e1ad4fc	0.1512031
70	0x3db59dfa	0.08868022
71	0xbc521e81	-0.0128246555
72	0xba90e359	-0.0011054083
73	0xbdba8221	-0.09106851
74	0x3d3690b0	0.04457158
75	0xbd94d838	-0.07267803
76	0x3d74c922	0.059762128
77	0xbde2bf1d	-0.11071608
78	0x3db049eb	0.08607849
79	0xbde69e1e	-0.11260627
80	0xbd1321b9	-0.035920832
81	0x3d3d92bf	0.046282526
82	0x3dfb95e0	0.12284446
83	0x3e12d336	0.14338383
84	0xbcc183f5	-0.023622492
85	0x3e0fa5f2	0.14028147
86	0xbc1a8b2a	-0.009432593
87	0x3dd65dd0	0.10467112
88	0xbdbc71eb	-0.09201416
89	0x3db51127	0.08841162
90	0x3cb14a46	0.021641862
91	0x3c36399c	0.011122134
92	0x3d4d2ba3	0.050090443
93	0xbd984a39	-0.07436032
94	0x3ddbbb3e	0.10729073
95	0xbcdcbdfa	-0.026946057
96	0xbdc5351b	-0.0962927
97	0x3cd8c145	0.026459346
98	0xbca21712	-0.019786391
99	0x3da17811	0.07884229
100	0xbd37a0da	-0.044831134
101	0xbd2dd4de	-0.042439334
102	0xbe11b4ce	-0.14229128
103	0x3dad7519	0.084696
104	0xbdc10988	-0.09425646
105	0xbd4d5835	-0.05013295
106	0x3ded1a58	0.1157729
107	0xbd90f004	-0.07077029
108	0xbe12781d	-0.14303632
109	0xbc9ce9a3	-0.019154375
110	0xbd22b567	-0.03972378
111	0x3dae2079	0.085022874
112	0x3e029e39	0.1275567
113	0x3d48ef49	0.049056325
114	0x3de2be05	0.110713996
115	0xbe05f609	-0.13082136
116	0xbdad3b8d	-0.08458624
117	0xbd7d4dd7	-0.061841812
118	0xbcb6606d	-0.022262776
119	0xbdc1e6c5	-0.09467844
120	0xbb842caf	-0.004033647
121	0x3cfbe143	0.030747062
122	0xbdb776c5	-0.089582
123	0x3daec1fa	0.08533092
124	0xbd8a80f4	-0.06762877
125	0x3a795b95	0.0009512243
126	0x3de559b7	0.111987524
127	0x3db74ac4	0.08949807
128	0xbe1cfd2d	-0.15330954
129	0x3d3495ea	0.04408828
130	0xbb98bfc0	-0.0046615303
131	0xbc9fc420	-0.0195027
132	0x3d806d96	0.06270902
133	0x3db88edf	0.090116255
134	0xbd2e8511	-0.04260737
135	0xbe20fc55	-0.15721257
136	0xbe193971	-0.14963318
137	0xbc2980f3	-0.010345685
138	0x3d16cde3	0.036817443
139	0xbdcf87aa	-0.10133298
140	0xbd7dfd2a	-0.062009014
141	0xbdeceb4f	-0.11568319
142	0x3e04e885	0.12979324
143	0xbb1788d7	-0.0023122334
144	0xbc396844	-0.011316363
145	0x3e182530	0.14857936
146	0xbd9870b2	-0.0744337
147	0x3c8e2829	0.017353134
148	0x3de45caa	0.11150487
149	0x3d2e0c5f	0.042492267
150	0x3d70bcac	0.05877368
151	0x3d04a213	0.03238113
152	0xbd48b26f	-0.048998293
153	0xbd911ef8	-0.07085985
154	0x3cda7728	0.026668146
155	0xbdd24131	-0.102663405
156	0x3e11a0cc	0.14221495
157	0x3daf136d	0.08548627
158	0x3deae3f5	0.114692606
159	0xbdfb4b91	-0.122702725
160	0x3cf11690	0.029429704
161	0xbdbab0c6	-0.09115748
162	0xbe0d9f90	-0.138304
163	0xbda82cf7	-0.08211701
164	0x3d88b823	0.06675746
165	0xbdb4ec88	-0.08834177
166	0xbe1816c3	-0.14852433
167	0x3e0465c7	0.1292945
168	0x3ddc8771	0.10768021
169	0xbda35b23	-0.07976367
170	0x3def2ced	0.11678491
171	0x3d9549d2	0.07289471
172	0xbbf2ca53	-0.007409373
173	0xbe2c15af	-0.16805147
174	0xbe15797d	-0.14597125
175	0x3e1fe09c	0.15613025
176	0x3ddc2569	0.10749323
177	0x3df03dff	0.11730575
178	0xbe23b5f4	-0.15987378
179	0xbe028d93	-0.12749319
180	0x3dfeec04	0.1244736
181	0xbe074dd5	-0.13213284
182	0x3dc7510e	0.09732257
183	0xbd90f65f	-0.070782416
184	0xbd7cd62d	-0.06172769
185	0x3e1af721	0.15133335
186	0x3e1aeb16	0.1512874
187	0xbdb7b38b	-0.08969792
188	0x3e057a90	0.13035035
189	0x3d4dd384	0.050250545
190	0x3bce72ee	0.006300322
191	0x3c9b58a8	0.018963173
192	0xbd789a2b	-0.0606939
193	0x3baecdea	0.0053346055
194	0x3d869c56	0.065727875
195	0x3c8c7bfd	0.017148966
196	0xbd28ba77	-0.04119345
197	0x3d1a7f65	0.03771915
198	0x3da3cfde	0.07998632
199	0xbc177a6d	-0.009245497
200	0xbdeca897	-0.115555935
201	0xbca1a723	-0.019733017
202	0xbddf6a40	-0.109089375
203	0x3d52370f	0.05132204
204	0x3d12f7e2	0.03588093
205	0x3d9b43ec	0.075813144
206	0xbe0721c8	-0.1319648
207	0xbe09f2e5	-0.13471563
208	0xbcfcc801	-0.030857088
209	0x3d61bf01	0.055113796
210	0x3c66e61a	0.014092946
211	0xbd8d6081	-0.06903172
212	0x3db492fb	0.08817097
213	0x3e000d38	0.12505043
214	0x3dca8ce0	0.09890151
215	0xbd47d41f	-0.04878628
216	0x3d8bfafe	0.06834982
217	0xbddef79f	-0.10887074
218	0x3d55c2bf	0.052187677
219	0x3be155c7	0.0068766805
220	0xbda15633	-0.07877769
221	0x3e0d067b	0.13772003
222	0xbe006236	-0.12537464
223	0x3d061194	0.032731608
224	0xbd6bbf3b	-0.05755542
225	0x3c548837	0.012971929
226	0xbd8c2cde	-0.06844495
227	0x3e0e318c	0.13886088
228	0x3d482e05	0.048872013
229	0xbe29b23a	-0.16571894
230	0x3de62018	0.1123659
231	0x3deac38e	0.1146308
232	0xbdbfeab3	-0.09370937
233	0xbd432e78	-0.047651738
234	0x3d89482a	0.06703217
235	0x3e14a093	0.14514379
236	0xbdaaf020	-0.083465815
237	0x3e0200f5	0.12695678
238	0xbdad8f6c	-0.08474621
239	0x3d604393	0.054751944
240	0xbde00726	-0.109388635
241	0xb846f06f	-4.74308e-05
242	0xbd527b56	-0.051387154
243	0xbd2777f8	-0.040885895
244	0x3d1b47d8	0.037910312
245	0x3dc56425	0.09638242
246	0x3db3c324	0.087774545
247	0xbc5aaa04	-0.013346199
248	0xbc07bf12	-0.008285301
249	0x3e14f36d	0.14545985
250	0xbded19b7	-0.1157717
251	0xbe1a5546	-0.15071592
252	0x3d1bf1bb	0.03807233
253	0xbcf07f41	-0.029357554
254	0x3e1c3303	0.15253834
255	0xbc817b90	-0.01580599

h2o.bias f4 [6]
0	0xbbb76304	-0.0055965204
1	0x3c227130	0.009914681
2	0xba1e6cd9	-0.0006043441
3	0xb9b27c2c	-0.0003404332
4	0xbb894cd4	-0.004190067
5	0x3be9d7d9	0.0071363267

h2h.weight f4 [242, 242]
0	0xbc9e8df6	-0.019354802
1	0x3d21e886	0.039528392
2	0xbd992db9	-0.07479424
3	0xbd6c7677	-0.057730164
4	0x3b717a8c	0.0036846725
5	0x3c9551af	0.018227426
6	0x3d2052d8	0.039141506
7	0x3cafe88a	0.021473188
8	0x3d51f66c	0.051260397
9	0xbced82db	-0.02899306
10	0xbd81961b	-0.063274585
11	0xbe1c60b4	-0.15271264
12	0x3d640105	0.055665035
13	0xbc9a1691	-0.018809589
14	0xbd25f67d	-0.040518273
15	0xbc5f511a	-0.013630176
16	0xbdc86157	-0.09784191
17	0xbd7fa8c8	-0.06241682
18	0xbdd1535d	-0.102209784
19	0x3c8f82f3	0.017518496
20	0xbd46943c	-0.04848121
21	0xbd9739f8	-0.073841035
22	0x3cda8f15	0.026679555
23	0xbdc98335	-0.09839479
24	0xbd4e9604	-0.050436035
25	0xbd1e79de	-0.03869044
26	0xbce571fd	-0.028008455
27	0xbdad8eb7	-0.08474486
28	0x3ba61d83	0.005069436
29	0xbbb608cf	-0.0055552493
30	0xbbee666f	-0.0072753946
31	0x3b68178f	0.0035414433
32	0x3e290aba	0.16507998
33	0x3ce8b2ab	0.028405508
34	0x3ae39b65	0.0017365037
35	0xbdb0cc41	-0.08632708
36	0xbdc05bce	-0.0939251
37	0xbcceb184	-0.02523113
38	0xbd717581	-0.05894995
39	0x3d6eaf1f	0.058272477
40	0x3d9af706	0.07566647
41	0xbdf9ea42	-0.12202884
42	0xbdaeb38e	-0.08530341
43	0x3dfb89d1	0.12282146
44	0xbbf2bdea	-0.0074078934
45	0xbcf0873d	-0.029361362
46	0xbd1d597d	-0.03841542
47	0x3db9b982	0.09068586
48	0x3d90f3c6	0.07077746
49	0xbcf796cd	-0.030223275
50	0xbcb11f6d	-0.02162143
51	0xbcb04bb1	-0.021520467
52	0x3e03fd3f	0.12889574
53	0x3c8adb79	0.016950356
54	0xbda5bdd8	-0.080928504
55	0xbd118cf1	-0.035534803
56	0x3c5bbd53	0.013411838
57	0x3bbabcce	0.005698777
58	0x3d2534d4	0.040333584
59	0x3d1c128f	0.038103636
60	0x3e0431be	0.129096
61	0x3c944d90	0.018103391
62	0xbbd4beb2	-0.006492459
63	0x3c82738d	0.01592424
64	0x3c943fc6	0.018096816
65	0xbd5acd48	-0.053418428
66	0x3da0aa7a	0.07845016
67	0xbd5bd58c	-0.05367045
68	0xbc634616	-0.01387169
69	0xbdb8aa6f	-0.09016883
70	0x3d1c4cec	0.038159296
71	0x3e219d48	0.15782654
72	0xbdc0744c	-0.09397182
73	0x3c722341	0.014778913
74	0x3de60ecb	0.1123329
75	0xbdb74a32	-0.089496985
76	0x3d0dd6bd	0.03462862
77	0xbe0572ad	-0.13032027
78	0xbc5ef56d	-0.013608319
79	0x3c7f5b15	0.0155856805
80	0xbbdf1ec9	-0.00680909
81	0x3d036a2a	0.032083668
82	0x3dba2c34	0.09090462
83	0xbd19f0f5	-0.03758331
84	0x3d98f522	0.074686304
85	0x3e05ca0f	0.1306536
86	0xbd26289a	-0.040566064
87	0xbce54115	-0.027985135
88	0xbcb43100	-0.021996021
89	0x3d5a60c4	0.05331494
90	0xbd2b47a8	-0.041816384
91	0x3e115e08	0.14196026
92	0xbd22afb8	-0.03971836
93	0x3d677c95	0.056515295
94	0x3ceee34f	0.029161124
95	0x3dc812b5	0.09769193
96	0xbd2d3ea0	-0.042296052
97	0xbd4f4efa	-0.050612427
98	0xbd00ca0c	-0.031442687
99	0x3d64127e	0.055681698
100	0x3e07da5e	0.13266894
101	0x3d58b857	0.052910175
102	0xbbf58075	-0.00749212
103	0xbdeb5b2f	-0.11492001
104	0xbd7b74d8	-0.061390728
105	0xbddb830b	-0.10718354
106	0xbcf57fdc	-0.029968195
107	0x3dd71705	0.105024375
108	0xbd6bed7c	-0.05759953
109	0x3cec3526	0.028833937
110	0xbd1c74eb	-0.03819744
111	0xbdf637b6	-0.12022345
112	0xbddde1c2	-0.108340755
113	0xbd9424ac	-0.07233557
114	0x3d2d453e	0.042302363
115	0xbd137e64	-0.036009207
116	0x3e0520bb	0.13000767
117	0xbdb75867	-0.08952408
118	0xbdaf9f3c	-0.085752934
119	0x3d60eb55	0.05491193
120	0xbbfe6ac7	-0.0077641937
121	0x3bc7cb7a	0.0060972543
122	0x3cbe6ade	0.023244318
123	0x3d9fe9af	0.078082435
124	0xbdfe5dff	-0.12420272
125	0xbd9bec3b	-0.07613417
126	0x3d02830b	0.031863254
127	0xbdbf7d4e	-0.09350072
128	0xbcb8ab4d	-0.02254262
129	0x3d99031f	0.074712984
130	0x3d435125	0.047684807
131	0x3e0d367f	0.1379032
132	0xbc861264	-0.016366191
133	0xbe087ac8	-0.13328087
134	0xbdd75a4f	-0.10515272
135	0x3d3856b5	0.045004565
136	0x3da0149b	0.0781643
137	0x3ac029c8	0.0014660889
138	0xbda77807	-0.0817719
139	0xbdb96284	-0.090519935
140	0xbc2cb6f4	-0.010541666
141	0x3d7d16a4	0.06178917
142	0xbc94acc5	-0.01814879
143	0x3c85a210	0.016312629
144	0x3d44c5f8	0.04804036
145	0xbd2ba91e	-0.04190933
146	0x3d323c4e	0.043514542
147	0xbd5ec9fd	-0.05439185
148	0xbba66239	-0.005077627
149	0x3b27e941	0.0025621208
150	0x3d096b50	0.033549607
151	0xbce38dda	-0.027777601
152	0xbe14c97a	-0.14529982
153	0xbd5c2175	-0.053742845
154	0xbd845418	-0.06461352
155	0x3d90125a	0.0703475
156	0xbdbf06a0	-0.093274355
157	0xbc895127	-0.01676233
158	0x3d7deee8	0.061995417
159	0xbd6a046a	-0.057133116
160	0x3e0a9bbb	0.13535969
161	0x3e133e59	0.14379252
162	0xbd6ce1f8	-0.057832688
163	0x3cdb330e	0.026757743
164	0x3da901f2	0.08252324
165	0x3c86ad11	0.016439946
166	0xbd3f355b	-0.046681743
167	0xbdb089d4	-0.08620039
168	0xbd158c7a	-0.036510922
169	0xbc9ce4ca	-0.019152064
170	0x3cf2fe48	0.029662266
171	0x3d8c24e5	0.068429746
172	0x3d7428ad	0.059609104
173	0xbd10794d	-0.03527193
174	0x3c614302	0.013748886
175	0x3d3e0d07	0.046399143
176	0x3cb24ae0	0.021764219
177	0x3db39c24	0.08770016
178	0xbd1bfba2	-0.038081773
179	0x3dc0685d	0.09394906
180	0x3dd10b2d	0.1020721
181	0xbd3aee53	-0.04563744
182	0x3bfdbe84	0.0077436585
183	0xbd3d2d8f	-0.046186026
184	0x3d47f9d6	0.048822246
185	0x3cbad99c	0.022808842
186	0x3cf5087c	0.029911272
187	0xbdc1ad83	-0.09456923
188	0x3d6f90eb	0.058487814
189	0xbd785b4e	-0.06063395
190	0xbd05211b	-0.032502275
191	0x3cf2640e	0.029588725
192	0x3d58905a	0.05287204
193	0x3d144a58	0.036203712
194	0xbdb2fc96	-0.08739583
195	0xbcd9ba56	-0.02657811
196	0xbb419a24	-0.0029541338
197	0xbcd0a8e1	-0.025471153
198	0xbd75f1f3	-0.060045194
199	0xbce0094a	-0.02734818
200	0xbd17423b	-0.036928397
201	0x3d4eedc8	0.050519735
202	0xbcb2c54d	-0.021822596
203	0xbc57f9ab	-0.013182084
204	0x3d0318fe	0.032006256
205	0xbd6d3533	-0.057912063
206	0x3c3c813e	0.011505423
207	0xbcb57a59	-0.022153066
208	0xbdf14bcd	-0.11782036
209	0xbdd179a6	-0.10228281
210	0xbcf34dff	-0.029700277
211	0xbde522df	-0.11188292
212	0xbd8f1f7b	-0.06988426
213	0x3dd20a97	0.10255926
214	0xbd7b13e9	-0.061298285
215	0x3d94c0bd	0.072633244
216	0xbc05a659	-0.008157336
217	0xbc8eeda6	-0.017447304
218	0xbb1be465	-0.0023787257
219	0xbd38b72c	-0.04509656
220	0xbdc6b598	-0.09702605
221	0xbdaed4f6	-0.08536713
222	0xbd56dea3	-0.052458417
223	0xbdfe7400	-0.12424469
224	0x3e239673	0.1597536
225	0xbda33e6c	-0.079708904
226	0x3d776555	0.060399372
227	0x3afa6afd	0.0019105371
228	0xbbfc4350	-0.007698454
229	0xbdac8911	-0.08424581
230	0x3c32bcda	0.0109092835
231	0xbbbc8abc	-0.005753843
232	0xbd526a09	-0.051370654
233	0x3d276e87	0.04087689
234	0x3cd62f27	0.02614553
235	0x3be26243	0.0069086864
236	0xbd1658cd	-0.03670578
237	0xbbfb72e7	-0.0076736095
238	0x3dc8c949	0.09804017
239	0x3d6494f7	0.055806126
240	0xba878a05	-0.0010340816
241	0xbdec4622	-0.11536814
242	0x3d744f05	0.05964567
243	0x3e32f962	0.17477944
244	0x3dd34f86	0.10317902
245	0xbdd8a45d	-0.10578225
246	0x3d4fd821	0.050743226
247	0x3d32e5e4	0.043676272
248	0x3d12d3e4	0.035846606
249	0xbcb558b6	-0.022137027
250	0xbc58579c	-0.013204481
251	0xbd21886f	-0.039436754
252	0xbc0e0bb4	-0.008669782
253	0xbda2c134	-0.07947007
254	0xbdf40abe	-0.119161114
255	0xbd24f4b0	-0.040272415

h2h.bias f4 [242]
0	0xbc06a36e	-0.008217676
1	0xbb1c415e	-0.0023842673
2	0xbc0b7bb0	-0.008513376
3	0x3a271e95	0.00063751015
4	0xbb9b9da9	-0.004749019
5	0x3c54ddec	0.012992363
6	0xbb8192a6	-0.0039542494
7	0x3c843aad	0.01614126
8	0x3b02d132	0.0019961116
9	0x3ab40584	0.0013734554
10	0xbaef40a8	-0.0018253522
11	0x3c1c321b	0.00953343
12	0xbbd00612	-0.00634838
13	0xbc1e3b09	-0.00965763
14	0xbb9a2c8b	-0.004705017
15	0xbb9e48a1	-0.0048304354
16	0x3b2efdc6	0.0026701554
17	0xba515c6f	-0.0007986491
18	0xbb096732	-0.002096605
19	0x3bc4e034	0.0060081724
20	0x3a455fe0	0.000752924
21	0xbc27347b	-0.010205383
22	0x3b9b78cc	0.0047446247
23	0x3b9f6f85	0.004865589
24	0x3c6d4915	0.014482756
25	0x3b2a3440	0.0025971085
26	0x3bdcb3d4	0.0067353044
27	0x39d9ac3a	0.00041517784
28	0xbb865651	-0.004099645
29	0xbb8d0995	-0.004304121
30	0x3c0f9993	0.008764642
31	0xbb99eae1	-0.004697189
32	0xbcc1e348	-0.023667946
33	0xbc3cac35	-0.011515667
34	0xbc26b7b1	-0.010175631
35	0x3c824081	0.015899898
36	0x3bc1bec0	0.0059126318
37	0xbb394470	-0.0028269552
38	0xbb8705c2	-0.0041205594
39	0xbba3d39c	-0.004999591
40	0x3c5cb6a7	0.013471282
41	0x3b601a08	0.0034195203
42	0x3c7ccd58	0.015429817
43	0x3b4dbdc2	0.0031393622
44	0x3c12e7fb	0.008966441
45	0x3b98ad35	0.0046593198
46	0x39a75124	0.00031913177
47	0x3c73ff9e	0.014892487
48	0xbab551b8	-0.0013833558
49	0x3b7c51c4	0.0038500885
50	0x3c0ff80c	0.008787166
51	0xbb6edbd3	-0.0036446943
52	0xbb780c0b	-0.0037848975
53	0x3c0ab4ab	0.008465926
54	0xbb1623c6	-0.0022909506
55	0x3b28db6b	0.002576555
56	0xbc2e116b	-0.01062427
57	0x3c240b55	0.010012467
58	0xbab65f9a	-0.001391399
59	0x3b34db46	0.0027596517
60	0xbbe26428	-0.006908912
61	0x3b937394	0.004499862
62	0x3bc59c5c	0.0060306024
63	0xbab63e62	-0.001390409
64	0xbc2463e7	-0.010033584
65	0xbc007743	-0.007840934
66	0x3b9126e9	0.0044296873
67	0xbc9cbec8	-0.01913394
68	0x3c9e6143	0.019333487
69	0xbc65f300	-0.0140349865
70	0xba8cc0dc	-0.0010738629
71	0xbccacdbc	-0.024756305
72	0xbcb4fbb7	-0.022092683
73	0xbc0fa477	-0.008767239
74	0x3bf3a959	0.0074359593
75	0x3cef3bd0	0.029203326
76	0xbb8d1791	-0.004305788
77	0xbb00c95f	-0.0019651277
78	0xbbc69917	-0.00606073
79	0x38cf86ae	9.895615e-05
80	0x3b0d0542	0.0021518026
81	0xbc2914df	-0.010319917
82	0xbcec805f	-0.028869806
83	0x3a91b443	0.0011116344
84	0x3a9e7dc8	0.0012091929
85	0x3a7bfe98	0.00096128276
86	0x3b88b7c6	0.004172298
87	0xbb4ce323	-0.0031263314
88	0x3c154af6	0.00911211
89	0xbc655dde	-0.01399943
90	0x3afbb449	0.001920351
91	0x3b53f5bc	0.0032342514
92	0xbb31c11a	-0.0027123154
93	0x3bd0361f	0.006354108
94	0xbc6ee638	-0.014581256
95	0x3ae25d7a	0.001727029
96	0x3a329e17	0.00068137184
97	0xbb2b88c3	-0.0026174046
98	0x3ab80933	0.0014040828
99	0x3b5543f3	0.0032541722
100	0xbc639f47	-0.013892955
101	0x3c41866f	0.011811837
102	0xbb860d6f	-0.004090957
103	0x39fb21ae	0.00047899544
104	0x3c3c598d	0.01149596
105	0xbb1ebf9e	-0.00242231
106	0xbc62056c	-0.013795238
107	0x3caaf4bc	0.020868652
108	0x3acb2b20	0.0015500523
109	0x3c340804	0.010988239
110	0x3c8508ca	0.016239543
111	0xbb1c30d4	-0.0023832815
112	0x3b0d7b2e	0.0021588313
113	0x3a152016	0.000568868
114	0xbc4c1937	-0.012457184
115	0x3bcb764d	0.006209171
116	0xbb9c15f9	-0.0047633615
117	0x3bfc28e0	0.0076953024
118	0xbcb7e82d	-0.022449577
119	0x39f47710	0.00046628015
120	0xbb864a69	-0.004098226
121	0xbc877c1e	-0.016538676
122	0x3ab92cd8	0.0014127744
123	0xbbbcb66f	-0.0057590525
124	0x3b42de8f	0.0029734706
125	0xbbdf60e0	-0.0068169683
126	0x3a32ea05	0.0006825033
127	0xbbb2bee2	-0.005454884
128	0x3c518fc4	0.012790624
129	0x3cae18bc	0.021252029
130	0xbbb60cd4	-0.0055557285
131	0xbc487026	-0.0122337695
132	0x3acfb173	0.0015845731
133	0x3c54cbe8	0.012988068
134	0x3bbbfa46	0.005736622
135	0x3b8d0f8e	0.004304833
136	0x3bf4231b	0.007450474
137	0xbb199d1f	-0.0023439599
138	0x3c290168	0.010315277
139	0x3b2c70b6	0.0026312298
140	0x3c4fbb9d	0.012679008
141	0xbbe4ca74	-0.006982142
142	0xbbcde117	-0.0062829363
143	0x3be5f36d	0.007017544
144	0x3c83f741	0.01610911
145	0xbbd21016	-0.006410609
146	0x3c6b4562	0.014359804
147	0xbc2346f6	-0.009965649
148	0xba4875ce	-0.0007646949
149	0x3c0ae8ed	0.008478385
150	0x3c174890	0.009233609
151	0x3ac9c356	0.0015393298
152	0x3ba04950	0.004891552
153	0x3b489521	0.0030606466
154	0xb9b2f724	-0.0003413494
155	0xbbafb25a	-0.0053618373
156	0x3c83af20	0.016074717
157	0xbcb5b988	-0.022183195
158	0x3b8a3975	0.004218275
159	0xbbc6cd73	-0.006066972
160	0x3c412d38	0.011790566
161	0x3ae2bfc0	0.0017299578
162	0x3d2a73b6	0.041614257
163	0x3abb76d2	0.0014302379
164	0x3d4f35b4	0.050588325
165	0x3c260a5e	0.010134308
166	0x3a9da1ed	0.0012026407
167	0xbb8e2e42	-0.0043390105
168	0xbcb63e7f	-0.022246597
169	0xbb5a1197	-0.0033274645
170	0xbc5d430f	-0.013504758
171	0x3a704528	0.00091655785
172	0x3cbf2319	0.023332166
173	0xbca2facd	-0.019894982
174	0xbbad7520	-0.0052935034
175	0xbc3799f1	-0.011206136
176	0x3b923317	0.004461657
177	0x3c822a02	0.015889172
178	0x3caa4e3c	0.020789258
179	0x3c5bfef3	0.013427484
180	0xbc232575	-0.009957661
181	0xbbe91018	-0.007112514
182	0x3af0ed7e	0.0018381325
183	0x3ce93d55	0.028471628
184	0x3c490382	0.012268903
185	0xbc2c105a	-0.010501945
186	0x3b118b2d	0.00222082
187	0x3c732767	0.014840937
188	0xbbdec589	-0.0067984504
189	0xbc88f338	-0.016717538
190	0x3c345dda	0.011008704
191	0xbc4fe6cd	-0.012689305
192	0x3c357077	0.011074177
193	0xbbd57421	-0.006514088
194	0xbc51702d	-0.012783092
195	0x3c4b30a5	0.0124017345
196	0xbb0b3911	-0.002124373
197	0xbc458440	-0.012055457
198	0xbc558152	-0.013031321
199	0x3bf78f9c	0.0075549614
200	0x3d2fd8c4	0.042931333
201	0xba3af4f3	-0.0007131837
202	0x3c03a158	0.008034073
203	0x3c719a3b	0.014746244
204	0xbc86dfff	-0.016464232
205	0xbc26216c	-0.010139804
206	0xbac1ccda	-0.0014785782
207	0x3bc5f718	0.0060414188
208	0x3d31eba2	0.043437608
209	0xbc283242	-0.010265889
210	0x3c356fa5	0.011073981
211	0x3c0761fb	0.008263106
212	0xbc486a34	-0.012232352
213	0x3b89eae9	0.0042089117
214	0xbc2af02f	-0.010433241
215	0x3b855e97	0.004070114
216	0xbb940b1f	-0.0045179273
217	0x3b9057ef	0.0044050138
218	0x3c7319fd	0.014837739
219	0x3c1b5c6d	0.009482485
220	0x3accef8d	0.0015635357
221	0xbbc15c1d	-0.0059008733
222	0x3c219f3f	0.009864627
223	0xbb2f0944	-0.0026708404
224	0x3c488b1e	0.012240199
225	0xbbf671f5	-0.007520909
226	0x3c132ee9	0.008983352
227	0x3b91a1f1	0.0044443537
228	0xbc0d030e	-0.008606685
229	0x3ce74b9a	0.028234292
230	0x3a020bd5	0.00049608696
231	0x3a4ece4c	0.0007889017
232	0x3bdfa2d0	0.0068248287
233	0x3ba0f5dd	0.0049121217
234	0xbb13ae4f	-0.0022534316
235	0x3bb0ae05	0.0053918385
236	0x3c5b3285	0.013378744
237	0xbbdb6c11	-0.006696232
238	0x3cf59b47	0.029981269
239	0xbc1bcab7	-0.00950878
240	0xbb24223b	-0.0025044817
241	0xbc208261	-0.00979671
