VLSI23_journal/intuitivechip_classifier_lcsvsnlcs_teensy/SNN_ep-150-isize-2-8-1-hsize-242-bsize-32-lr-0.001-tmax_ms-400.0-Ts-10.0-k-6-dsetPath-VMODE_allchannels_ALLCLASS_auto_nospkfilter_cleaned_1x8_18mvpp_250mvofs_onedac_itail_50nA_N4b/chip-classifier-test-3-best.pt (torch, 261239 bytes, 8 tensors)

thr_h_1 f4 [242]
1.0 1.0 1.0 1.0 1.0 1.0 1.0 1.0
1.0 1.0 1.0 1.0 1.0 1.0 1.0 1.0
1.0 1.0 1.0 1.0 1.0 1.0 1.0 1.0
1.0 1.0 1.0 1.0 1.0 1.0 1.0 1.0
1.0 1.0 1.0 1.0 1.0 1.0 1.0 1.0
1.0 1.0 1.0 1.0 1.0 1.0 1.0 1.0
1.0 1.0 1.0 1.0 1.0 1.0 1.0 1.0
1.0 1.0 1.0 1.0 1.0 1.0 1.0 1.0
1.0 1.0 1.0 1.0 1.0 1.0 1.0 1.0
1.0 1.0 1.0 1.0 1.0 1.0 1.0 1.0
1.0 1.0 1.0 1.0 1.0 1.0 1.0 1.0
1.0 1.0 1.0 1.0 1.0 1.0 1.0 1.0
1.0 1.0 1.0 1.0 1.0 1.0 1.0 1.0
1.0 1.0 1.0 1.0 1.0 1.0 1.0 1.0
1.0 1.0 1.0 1.0 1.0 1.0 1.0 1.0
1.0 1.0 1.0 1.0 1.0 1.0 1.0 1.0
1.0 1.0 1.0 1.0 1.0 1.0 1.0 1.0
1.0 1.0 1.0 1.0 1.0 1.0 1.0 1.0
1.0 1.0 1.0 1.0 1.0 1.0 1.0 1.0
1.0 1.0 1.0 1.0 1.0 1.0 1.0 1.0
1.0 1.0 1.0 1.0 1.0 1.0 1.0 1.0
1.0 1.0 1.0 1.0 1.0 1.0 1.0 1.0
1.0 1.0 1.0 1.0 1.0 1.0 1.0 1.0
1.0 1.0 1.0 1.0 1.0 1.0 1.0 1.0
1.0 1.0 1.0 1.0 1.0 1.0 1.0 1.0
1.0 1.0 1.0 1.0 1.0 1.0 1.0 1.0
1.0 1.0 1.0 1.0 1.0 1.0 1.0 1.0
1.0 1.0 1.0 1.0 1.0 1.0 1.0 1.0
1.0 1.0 1.0 1.0 1.0 1.0 1.0 1.0
1.0 1.0 1.0 1.0 1.0 1.0 1.0 1.0
1.0 1.0
00000000: 0000 803f 0000 803f 0000 803f 0000 803f
00000010: 0000 803f 0000 803f 0000 803f 0000 803f
00000020: 0000 803f 0000 803f 0000 803f 0000 803f
00000030: 0000 803f 0000 803f 0000 803f 0000 803f
00000040: 0000 803f 0000 803f 0000 803f 0000 803f
00000050: 0000 803f 0000 803f 0000 803f 0000 803f
00000060: 0000 803f 0000 803f 0000 803f 0000 803f
00000070: 0000 803f 0000 803f 0000 803f 0000 803f
00000080: 0000 803f 0000 803f 0000 803f 0000 803f
00000090: 0000 803f 0000 803f 0000 803f 0000 803f
000000a0: 0000 803f 0000 803f 0000 803f 0000 803f
000000b0: 0000 803f 0000 803f 0000 803f 0000 803f
000000c0: 0000 803f 0000 803f 0000 803f 0000 803f
000000d0: 0000 803f 0000 803f 0000 803f 0000 803f
000000e0: 0000 803f 0000 803f 0000 803f 0000 803f
000000f0: 0000 803f 0000 803f 0000 803f 0000 803f
00000100: 0000 803f 0000 803f 0000 803f 0000 803f
00000110: 0000 803f 0000 803f 0000 803f 0000 803f
00000120: 0000 803f 0000 803f 0000 803f 0000 803f
00000130: 0000 803f 0000 803f 0000 803f 0000 803f
00000140: 0000 803f 0000 803f 0000 803f 0000 803f
00000150: 0000 803f 0000 803f 0000 803f 0000 803f
00000160: 0000 803f 0000 803f 0000 803f 0000 803f
00000170: 0000 803f 0000 803f 0000 803f 0000 803f
00000180: 0000 803f 0000 803f 0000 803f 0000 803f
00000190: 0000 803f 0000 803f 0000 803f 0000 803f
000001a0: 0000 803f 0000 803f 0000 803f 0000 803f
000001b0: 0000 803f 0000 803f 0000 803f 0000 803f
000001c0: 0000 803f 0000 803f 0000 803f 0000 803f
000001d0: 0000 803f 0000 803f 0000 803f 0000 803f
000001e0: 0000 803f 0000 803f 0000 803f 0000 803f
000001f0: 0000 803f 0000 803f 0000 803f 0000 803f
00000200: 0000 803f 0000 803f 0000 803f 0000 803f
00000210: 0000 803f 0000 803f 0000 803f 0000 803f
00000220: 0000 803f 0000 803f 0000 803f 0000 803f
00000230: 0000 803f 0000 803f 0000 803f 0000 803f
00000240: 0000 803f 0000 803f 0000 803f 0000 803f
00000250: 0000 803f 0000 803f 0000 803f 0000 803f
00000260: 0000 803f 0000 803f 0000 803f 0000 803f
00000270: 0000 803f 0000 803f 0000 803f 0000 803f
00000280: 0000 803f 0000 803f 0000 803f 0000 803f
00000290: 0000 803f 0000 803f 0000 803f 0000 803f
000002a0: 0000 803f 0000 803f 0000 803f 0000 803f
000002b0: 0000 803f 0000 803f 0000 803f 0000 803f
000002c0: 0000 803f 0000 803f 0000 803f 0000 803f
000002d0: 0000 803f 0000 803f 0000 803f 0000 803f
000002e0: 0000 803f 0000 803f 0000 803f 0000 803f
000002f0: 0000 803f 0000 803f 0000 803f 0000 803f
00000300: 0000 803f 0000 803f 0000 803f 0000 803f
00000310: 0000 803f 0000 803f 0000 803f 0000 803f
00000320: 0000 803f 0000 803f 0000 803f 0000 803f
00000330: 0000 803f 0000 803f 0000 803f 0000 803f
00000340: 0000 803f 0000 803f 0000 803f 0000 803f
00000350: 0000 803f 0000 803f 0000 803f 0000 803f
00000360: 0000 803f 0000 803f 0000 803f 0000 803f
00000370: 0000 803f 0000 803f 0000 803f 0000 803f
00000380: 0000 803f 0000 803f 0000 803f 0000 803f
00000390: 0000 803f 0000 803f 0000 803f 0000 803f
000003a0: 0000 803f 0000 803f 0000 803f 0000 803f
000003b0: 0000 803f 0000 803f 0000 803f 0000 803f
000003c0: 0000 803f 0000 803f

thr_o f4 [6]
1.0 1.0 1.0 1.0 1.0 1.0
00000000: 0000 803f 0000 803f 0000 803f 0000 803f
00000010: 0000 803f 0000 803f

i2h.weight f4 [242, 16]
-0.14412774 0.107995614 0.14818738 0.1280991 0.072974786 0.045264143 0.122336075 0.12419219
-0.08543019 -0.06583814 0.12932156 -0.14447522 -0.0268217 0.003024165 -0.01736496 -0.08390188
0.07803025 0.108076654 0.026697641 0.005569468 -0.030721694 0.07173371 0.13282931 0.08547928
-0.018921468 0.13808385 -0.027133562 0.12989987 -0.14095102 0.15602233 0.04287273 0.0002977238
0.057447255 -0.047726978 -0.023413142 -0.12974712 -0.1363741 0.09837451 -0.0024141935 0.03164459
0.036817726 -0.0027513744 -0.0067263213 0.0057400176 0.107247256 0.12642188 -0.14078711 0.09011029
0.11350982 0.007022116 0.11118942 -0.026648607 -0.0456245 -0.01641503 -0.093692206 -0.13854046
0.06399515 0.017955478 0.1398151 0.08539424 0.054581005 0.09843298 0.05838695 -0.113221094
-0.11010762 0.031117344 -0.12959214 0.1294909 0.084918045 -0.2466339 -0.11615194 0.009276481
0.04039917 0.06617171 -0.150675 0.15097967 0.010977307 -0.14185844 0.051371366 0.018533919
0.1393938 -0.06642026 -0.008581132 -0.061489236 0.1363431 -0.026232213 0.011084447 0.040516272
0.078204535 0.0065218047 -0.1463383 0.014385379 -0.11197661 0.11220484 0.03443018 0.020762108
0.008745854 0.021011773 -0.024434999 -0.070959106 0.11299724 0.1350641 0.14571898 0.022539498
0.15827781 0.1327466 -0.045724478 0.07428678 -0.027905643 -0.109901495 -0.008399328 0.10629713
-0.06371253 0.075175405 -0.004120435 -0.029124916 0.06472872 -0.06856748 0.08987387 -0.14828387
0.04416844 -0.014213407 -0.13754565 0.080516085 0.10532893 -0.014572813 0.096196055 -0.13615845
0.0828035 -0.043988176 -0.05144636 0.028615251 -0.090981424 -0.10613761 0.13182661 0.14962462
-0.13905181 0.10992145 -0.112333216 -0.019921755 -0.12746088 -0.12846333 -0.08912684 0.10664502
0.11676374 0.025442692 0.038634755 0.060140885 -0.17769146 -0.032938987 -0.16001944 0.0128522925
0.009340489 -0.11901582 -0.060694233 0.11745528 -0.101535454 -0.10577237 -0.08881189 -0.0955351
0.08520705 0.032155886 -0.11140586 -0.08247031 0.08791175 -0.029939713 0.025757078 0.055804003
0.06538646 0.10388891 0.15002903 0.10897701 -0.123368345 0.018595763 -0.13879609 -0.0960879
0.050155923 0.08444934 -0.07755227 0.025070323 -0.007333727 -0.014524223 0.028200068 0.07040169
0.053681858 -0.10867143 -0.087656766 -0.012541739 -0.07279246 0.005094162 0.12204291 0.10701259
0.049076892 0.049065858 -0.030154135 0.09891288 -0.04237585 0.012956914 -0.15735345 -0.03759485
0.051062252 0.10217493 0.017552536 -0.05197037 -0.11918347 0.038642954 0.11193411 0.10199393
0.033818178 -0.1172012 -0.13265719 -0.14253047 0.07933969 0.08498132 -0.05601973 -0.1680778
0.027574293 -0.120386206 0.13015275 0.1261168 -0.082549416 -0.056467116 0.036049612 -0.13015077
-0.14834101 0.04279958 -0.038991593 -0.07224649 -0.058653317 0.10367365 0.020020772 -0.11425659
-0.10703222 0.10139436 -0.1390945 0.064500056 -0.12083474 -0.0050261025 0.07363235 -0.12917745
0.093419224 0.06394943 -0.0060274927 -0.07465753 0.04091632 -0.054329492 0.027158301 0.10937563
0.08661615 0.04205727 -0.07976246 0.07991876 0.07139261 0.16174693 -0.034247145 -0.09136612
00000000: 3996 13be ce2c dd3d 6fbe 173e 692c 033e
00000010: ce73 953d e566 393d 568b fa3d 7a58 fe3d
00000020: 06f6 aebd 26d6 86bd df6c 043e 50f1 13be
00000030: 2fb9 dbbc 1231 463b f640 8ebc c0d4 abbd
00000040: 53ce 9f3d 4b57 dd3d 03b5 da3c 1580 b63b
00000050: 10ac fbbc 20e9 923d 6804 083e c30f af3d
00000060: 3201 9bbc da65 0d3e 3447 debc 7904 053e
00000070: 7755 10be 51c4 1f3e 519b 2f3d d017 9c39
00000080: d04d 6b3d 5d7d 43bd ebcc bfbc 6edc 04be
00000090: a7a5 0bbe 9378 c93d 7237 1ebb c29d 013d
000000a0: 2fce 163d 6750 34bb 7968 dcbb c216 bc3b
000000b0: 73a4 db3d bd74 013e 7f2a 10be be8b b83d
000000c0: d677 e83d c719 e63b 47b7 e33d 2e4e dabc
000000d0: c1e0 3abd d078 86bc b3e1 bfbd 8ddd 0dbe
000000e0: e40f 833d 5e17 933c b12b 0f3e 2de3 ae3d
000000f0: 5590 5f3d 3b97 c93d 2827 6f3d 76e0 e7bd
00000100: 1b80 e1bd cde9 fe3c cdb3 04be 4399 043e
00000110: 83e9 ad3d 998d 7cbe 11e1 edbd 62fc 173c
00000120: 9a79 253d 0985 873d 8c4a 1abe 6a9a 1a3e
00000130: 2ada 333c 5743 11be c86a 523d 72d4 973c
00000140: 40bd 0e3e 5807 88bd e097 0cbc 23dc 7bbd
00000150: 879d 0b3e f0e4 d6bc 8a9b 353c 64f4 253d
00000160: b329 a03d ddb4 d53b b5d9 15be a7b0 6b3c
00000170: fe53 e5bd a7cb e53d a906 0d3d 4c15 aa3c
00000180: c54a 0f3c e220 ac3c e82b c8bc 0253 91bd
00000190: 196b e73d 3e4e 0a3e 5b37 153e c1a4 b83c
000001a0: 9413 223e baee 073e 9749 3bbd ab23 983d
000001b0: 609a e4bc 0914 e1bd 569d 09bc 4fb2 d93d
000001c0: b77b 82bd 90f5 993d b704 87bb 6097 eebc
000001d0: 7e90 843d 1b6d 8cbd cb0f b83d bad7 17be
000001e0: f7e9 343d 5adf 68bc c4d8 0cbe 9ee5 a43d
000001f0: b2b6 d73d cfc2 6ebc 7002 c53d 1f6d 0bbe
00000200: e294 a93d f22c 34bd 6bb9 52bd 886a ea3c
00000210: 7854 babd ad5e d9bd 8efd 063e 3237 193e
00000220: 9963 0ebe 7f1e e13d f50e e6bd f332 a3bc
00000230: 1b85 02be e48b 03be 2288 b6bd b468 da3d
00000240: d421 ef3d 316d d03c 7a3f 1e3d 4a56 763d
00000250: c0f4 35be 08eb 06bd 23dc 23be 6c92 523c
00000260: da08 193c 91be f3bd 849a 78bd 658c f03d
00000270: d2f1 cfbd 2f9f d8bd 02e3 b5bd e8a7 c3bd
00000280: 0981 ae3d e4b5 033d c128 e4bd 32e6 a8bd
00000290: 130b b43d 2144 f5bc 8200 d33c bd92 643d
000002a0: 56e9 853d b5c3 d43d 36a1 193e 572f df3d
000002b0: 8ba8 fcbd 2456 983c 9020 0ebe bcc9 c4bd
000002c0: 4c70 4d3d c7f3 ac3d b9d3 9ebd 4760 cd3c
000002d0: c34f f0bb 02f7 6dbc d403 e73c c32e 903d
000002e0: 82e1 5b3d 208f debd 6485 b3bd de7b 4dbc
000002f0: 3714 95bd eeec a63b a2f1 f93d 6b29 db3d
00000300: da04 493d 48f9 483d ce05 f7bc d692 ca3d
00000310: 4d92 2dbd 3c49 543c 4321 21be 0ffd 19bd
00000320: a726 513d 1741 d13d 56ca 8f3c e2de 54bd
00000330: 7716 f4bd 1348 1e3d b63d e53d 32e2 d03d
00000340: ee84 0a3d 2f07 f0bd 49d7 07be 82f3 11be
00000350: d97c a23d b00a ae3d f274 65bd 961c 2cbe
00000360: 7ce3 e13c 0b8d f6bd c346 053e c324 013e
00000370: ab0f a9bd 104a 67bd c2a8 133d 3e46 05be
00000380: b5e6 17be 9d4e 2f3d a6b5 1fbd f8f5 93bd
00000390: 763e 70bd da52 d43d 9a02 a43c 5cff e9bd
000003a0: b533 dbbd d9a7 cf3d ca6e 0ebe 9b18 843d
000003b0: 3478 f7bd 01b2 a4bb 8fcc 963d 1847 04be
000003c0: 9452 bf3d ebf7 823d 4682 c5bb 0ce6 98bd
000003d0: df97 273d 9a88 5ebd 167b de3c 5500 e03d
000003e0: cf63 b13d 3e44 2c3d 805a a3bd 72ac a33d
000003f0: 4a36 923d fda0 253e bc46 0cbd 291e bbbd

i2h.bias f4 [242]
-0.022924624 0.015816072 -0.010144492 0.0073574255 0.052980088 -0.0066849757 -0.021811618 -0.0062124645
0.014745406 -0.011451069 0.021637669 -0.008914688 -0.009655666 0.016605783 0.010377407 -0.012657465
-0.01460683 -0.0077695013 -0.016040241 0.0019147737 0.013651684 -0.008924101 -0.007424685 0.04073347
0.006026234 -0.008502257 0.011023707 0.04290572 -0.002229849 -0.013162555 -0.010048414 -0.008980552
0.015942417 0.012516648 -0.017774303 0.014203939 -0.01312628 -0.008646498 -0.005779051 0.011198694
-0.0021009299 -0.011088201 0.0006037357 0.004501028 0.0017046395 0.01611402 -0.0040864376 0.003926401
0.0013765582 -0.0060622077 -0.009114842 -0.004359652 1.3382782e-05 0.003363062 -0.012319267 -0.012435308
0.011510774 0.010758073 0.018636294 -0.0041949586 0.0093185045 0.0201784 0.038495537 0.004958053
-0.018178556 0.007961846 0.015936134 0.010314291 -0.013084471 0.004878642 0.077429466 -0.0032935664
-0.019818554 0.029785728 0.060713705 0.0048153275 -0.015840884 0.018841358 -0.02822174 -0.030054225
0.0065321047 0.012748852 0.009922447 -0.010566359 0.0048472653 0.0016451506 -0.024876537 -0.016910365
-0.009394694 -0.005851629 -0.0071264813 0.013321027 4.4120025e-06 0.008712078 -0.013217756 -0.0012255383
0.0059658196 0.047575306 -0.0021801179 0.01171917 -0.0045731994 0.05139548 0.015851535 -0.0057446845
0.007874881 0.0063915113 -0.024021437 -3.2107284e-05 -0.005461336 -0.014460386 -0.0110102 -9.643802e-05
-0.022723328 -0.0043820306 -0.0075288946 -0.009247609 -0.00837261 0.025371866 -0.008860951 -0.013166118
0.005327682 -0.0011184016 0.017437048 0.0137870945 -0.011644867 -0.005693549 0.0109958965 0.0053893677
-0.009393214 -0.02016349 -0.010170063 -0.0031966437 -0.00030638388 0.024331892 0.010979793 -0.0029268751
0.0017033794 -0.0084100915 -0.006493326 -0.0030390455 -0.012902792 -0.007674491 -0.0029341553 -0.018848604
0.001023639 -0.001265751 0.0054911356 0.025080342 0.017757233 -0.021532672 -0.0105394125 0.0046278327
0.032141156 0.014814247 -0.010894076 -0.0018594747 0.019654125 -0.011742186 -0.019246498 -0.0013895256
0.0008097135 -0.010217848 -0.016225154 0.0010285132 0.0031206985 -0.0047937394 -0.0030783408 -0.009331958
0.041180357 -0.013500476 -0.0065935105 0.006757867 -0.00052757864 0.040980447 0.012730148 -0.0055570193
0.014856107 -0.003129184 0.015416299 -0.010541526 0.014355629 -0.011597454 0.0094635105 0.026944228
0.017736409 -0.0028174394 -0.00051306124 0.002254159 -0.021829646 0.07611696 0.011734247 -0.004441319
0.015161773 -0.0024600816 -0.009544983 0.019318858 -0.013180107 0.00545088 -0.0051529636 -0.0073637734
-0.010709765 0.03947698 0.033293888 0.0013843077 0.027421707 0.007968112 0.017702864 -0.0007605138
0.009971705 0.016482886 0.03232626 -0.0155250225 -0.010787969 -0.010160398 -0.013236859 0.004401404
0.010196188 -0.011838457 -0.015410677 0.025068088 0.005844526 -0.006303204 -0.022567607 -0.024927463
0.0056879926 0.023963034 0.016159918 -0.024492174 -0.017487451 -0.01187291 -0.012716574 0.017481491
0.019683547 0.009527712 0.009637395 0.0031143988 0.0059087644 0.03819393 -0.011691114 -0.016747586
-0.0223651 0.023267645
00000000: 6ccc bbbc b590 813c 1535 26bc 8f16 f13b
00000010: a601 593d a40d dbbb 47ae b2bc ee91 cbbb
00000020: b796 713c 449d 3bbc 7b41 b13c e90e 12bc
00000030: cc32 1ebc da08 883c 0006 2a3c 4261 4fbc
00000040: 7c51 6fbc 4d97 febb d366 83bc 25f9 fa3a
00000050: 50ab 5f3c 6436 12bc c64a f3bb 24d8 263d
00000060: b777 c53b 0d4d 0bbc c79c 343c e9bd 2f3d
00000070: a922 12bb c2a7 57bc 1aa2 24bc 2a23 13bc
00000080: ac99 823c a012 4d3c 6a9b 91bc a3b7 683c
00000090: 9c0f 57bc 0baa 0dbc 325e bdbb ba7a 373c
000000a0: c1af 09bb 49ab 35bc 0444 1e3a 5c7d 933b
000000b0: 366e df3a 8d01 843c 86e7 85bb 0aa9 803b
000000c0: a16d b43a 7ca5 c6bb 6b56 15bc 69db 8ebb
000000d0: 9c86 6037 d166 5c3b c0d6 49bc 76bd 4bbc
000000e0: af97 3c3c a142 303c 24ab 983c dd75 89bb
000000f0: a4ac 183c 2c4d a53c 7fad 1d3d 2a77 a23b
00000100: 32eb 94bc 6772 023c 7f8c 823c 46fd 283c
00000110: 4060 56bc 04dd 9f3b 5793 9e3d e0d8 57bb
00000120: 855a a2bc 3301 f43c efae 783d e5c9 9d3b
00000130: bec4 81bc 3159 9a3c 4731 e7bc 4734 f6bc
00000140: 440b d63b 90e0 503c c291 223c 861e 2dbc
00000150: cfd5 9e3b 18a2 d73a e1c9 cbbc 9b87 8abc
00000160: 34ec 19bc 06bf bfbb 4285 e9bb 7040 5a3c
00000170: d00a 9436 1bbd 0e3c 498f 58bc 3ea2 a0ba
00000180: ec7c c33b 53de 423d 4fe0 0ebb c301 403c
00000190: c7da 95bb 1184 523d 14db 813c e83d bcbb
000001a0: a505 013c e26f d13b 9bc8 c4bc efaa 06b8
000001b0: 02f5 b2bb 41eb 6cbc 2064 34bc c53e cab8
000001c0: 4626 babc 2397 8fbb f2b4 f6bb 4983 17bc
000001d0: 462d 09bc a9d8 cf3c 862d 11bc b4b6 57bc
000001e0: d693 ae3b 5597 92ba 24d8 8e3c 44e3 613c
000001f0: 1dca 3ebc f390 babb 2228 343c 4b99 b03b
00000200: ffe5 19bc e72d a5bc 56a0 26bc c87e 51bb
00000210: 26a2 a0b9 ad53 c73c 97e4 333c d1d0 3fbb
00000220: ee43 df3a 7bca 09bc f7c5 d4bb b92a 47bb
00000230: 3b66 53bc 4c7a fbbb f54a 40bb 6368 9abc
00000240: a02b 863a 8ee7 a5ba fcee b33b 4a75 cd3c
00000250: 9e77 913c 4965 b0bc 80ad 2cbc 13a5 973b
00000260: 72a6 033d 75b7 723c 117d 32bc 9eb9 f3ba
00000270: b001 a13c 4c62 40bc d5aa 9dbc be20 b6ba
00000280: f442 543a c368 27bc 9dea 84bc 2dcf 863a
00000290: a284 4c3b cd14 9dbb fdbd 49bb 12e5 18bc
000002a0: bcac 283d 1a31 5dbc 600e d8bb 1971 dd3b
000002b0: 344d 0aba 1ddb 273d 1c92 503c a817 b6bb
000002c0: 0767 733c ff12 4dbb a594 7c3c 5db6 2cbc
000002d0: df33 6b3c 3f03 3ebc d70c 1b3c 24ba dc3c
000002e0: f24b 913c caa4 38bb f57e 06ba 83ba 133b
000002f0: 16d4 b2bc 35e3 9b3d 0041 403c 7c88 91bb
00000300: 1669 783c 5239 21bb 8f62 1cbc 9542 9e3c
00000310: 60f1 57bc 4c9d b23b 31da a8bb cf4b f1bb
00000320: 0378 2fbc 9db2 213d 2c5f 083d a971 b53a
00000330: 7da3 e03c af8c 023c 9905 913c 385d 47ba
00000340: 5d60 233c 1e07 873c 8a68 043d aa5c 7ebc
00000350: 06c0 30bc cc77 26bc 69df 58bc a739 903b
00000360: ea0d 273c 16f6 41bc 107d 7cbc 975b cd3c
00000370: 7083 bf3b 1c8b cebb b4df b8bc ae34 ccbc
00000380: 5762 ba3b 204e c43c ce61 843c d0a3 c8bc
00000390: d841 8fbc 9886 42bc 2d59 50bc 5835 8f3c
000003a0: 643f a13c 1f1a 1c3c 2ae6 1d3c f11a 4c3b
000003b0: 4f9e c13b 3d71 1c3d 168c 3fbc 3c32 89bc
000003c0: 0437 b7bc ca9b be3c

h2o.weight f4 [6, 242]
-0.18706878 0.070281506 0.06635413 -0.1494871 0.29049692 0.07821486 -0.12382474 0.11355464
0.18019682 -0.017565895 0.11308453 -0.019605603 -0.031860244 0.052124202 0.022786016 -0.19833116
-0.0060219313 0.12150134 0.1028866 0.05429383 -0.11272827 0.13021676 0.016263746 0.17235465
0.057968482 0.04690478 -0.09856966 0.04765372 -0.027430441 0.0070153386 0.05576505 -0.09034036
0.1372474 0.16753724 -0.0415828 0.05549772 0.095063284 0.1207317 -0.042334825 -0.0361279
0.05507183 -0.079580605 -0.038424794 -0.16146588 0.09647865 0.12626912 0.0076052514 0.14244345
0.02656363 -0.07240439 0.10436605 0.07331494 -0.03337948 0.0734573 -0.041541964 -0.14175877
0.012996637 0.012374481 0.1041299 -0.053185374 0.039337907 0.021076923 0.13605557 0.022257786
-0.111009754 -0.0677751 0.1128433 -0.14793147 0.08764894 -0.19197017 0.17271528 -0.00047501564
-0.0068933433 0.15775548 0.22040667 0.06834776 -0.09089718 0.06007288 -0.012884098 -0.09317922
0.007114533 0.1502192 -0.037288174 0.17710237 -0.09781411 -0.091785125 -0.072503395 -0.14550908
-0.0041591744 0.10265847 0.1290763 0.13227299 -0.14184526 -0.12679504 -0.009036758 0.072061926
0.09571608 -0.1241286 0.04329014 0.028438287 0.033742927 -0.18664065 0.061653875 -0.049592342
-0.21395011 -0.18246354 -0.11303207 0.13642904 -0.041974746 -0.0038551458 0.046382014 0.060764175
0.031133251 0.15988563 -0.040856067 -0.024961833 -0.057567175 0.091680564 0.15140224 -0.067575894
0.15678881 -0.20974325 0.038863517 -0.09872954 -0.062665366 0.023424909 0.12582435 0.08777035
0.14747342 0.10590476 -0.04649551 0.044855285 -0.0074308966 -0.15066099 0.111388676 0.0718107
-0.087003484 -0.001422592 0.15931813 0.123839095 0.021239923 0.097366296 -0.11394332 -0.08355801
-0.07803345 0.017733274 0.07737995 0.030772777 0.020408016 -0.051912665 -0.14134277 -0.082059175
0.121436894 0.07696814 -0.13807589 -0.03694633 -0.15413478 -0.017594026 0.005278756 0.11639438
0.09020222 -0.09747361 -0.1213964 0.14132966 -0.050889187 -0.08440967 -0.00949818 0.046284836
0.096682474 -0.07270148 -0.03699158 0.045011625 -0.04487513 0.07961851 0.100424215 -0.045467854
-0.12584536 0.043562725 -0.12603545 0.14633724 0.068705305 -0.06388806 -0.05423055 0.017833441
-0.06866713 -0.12895428 -0.03136123 -0.08156931 -0.08866993 -0.12706997 -0.14716174 -0.13904747
-0.20137322 0.09088259 -0.024988575 0.08489151 0.0043149046 -0.11134112 -0.107336506 -0.03402237
0.05644946 0.108507656 0.14348193 -0.0944413 0.0035851963 0.092110895 -0.111521706 -0.023817472
0.025509274 -0.060511302 0.0938026 -0.021683514 0.013993855 0.018484678 -0.114826985 0.11470089
0.06942427 -0.23850137 -0.050354294 -0.06744039 -0.17800738 0.0040631504 -0.12737277 0.1123127
-0.05513522 -0.052685414 -0.16530652 -0.14590815 -0.020808624 -0.04566182 -0.02388271 0.03525294
0.019344764 0.11611366 0.04655542 -0.053008445 0.084248684 0.027350184 -0.11133765 -0.054554455
-0.12937143 0.07821657 -0.018180912 -0.0020312802 0.08171691 0.15782855 -0.17691043 0.08280821
-0.015396382 0.12714376 -0.23192696 -0.037808396 -0.0702566 -0.00021213424 -0.11957385 0.07104183
00000000: f58e 3fbe c0ef 8f3d ade4 873d 2513 19be
00000010: 03bc 943e 1d2f a03d d397 fdbd 568f e83d
00000020: 8485 383e 5ae6 8fbc dd98 e73d ee9b a0bc
00000030: e37f 02bd 3080 553d bda9 ba3c 5317 4bbe
00000040: 9f53 c5bb b2d5 f83d 36b6 d23d 3563 5e3d
00000050: 14de e6bd 8b57 053e 8c3b 853c bd7d 303e
00000060: 5c70 6d3d 3a1f 403d e4de c9bd 8c30 433d
00000070: ceb5 e0bc ede0 e53b e569 643d 5e04 b9bd
00000080: 958a 0c3e e28e 2b3e ba52 2abd 9451 633d
00000090: 8ab0 c23d 2e42 f73d 4867 2dbd d9fa 13bd
000000a0: 0093 613d 28fb a2bd 5163 1dbd 5057 25be
000000b0: 9996 c53d b14c 013e 7935 f93b b2dc 113e
000000c0: f89b d93c c148 94bd debd d53d 2526 963d
000000d0: ecb8 08bd c870 963d e827 2abd 3629 11be
000000e0: d9ef 543c 56be 4a3c 0f42 d53d e8d8 59bd
000000f0: c920 213d 83a9 ac3c 2752 0b3e f655 b63c
00000100: 1559 e3bd accd 8abd 631a e73d 597b 17be
00000110: 4a81 b33d d493 44be 46dc 303e 850b f9b9
00000120: 8ee1 e1bb a78a 213e 49b2 613e e9f9 8b3d
00000130: 4d28 babd fb0e 763d d317 53bc bfd4 bebd
00000140: 0721 e93b 10d3 193e 7cbb 18bd 535a 353e
00000150: c452 c8bd d7f9 bbbd a97c 94bd 5500 15be
00000160: af49 88bb 9b3e d23d 942c 043e 9272 073e
00000170: e23f 11be 8fd6 01be e90e 14bc 3495 933d
00000180: cb06 c43d 2337 febd 0051 313d 69f7 e83c
00000190: 0636 0a3d ba1e 3fbe c688 7c3d 5721 4bbd
000001a0: bd15 5bbe b9d7 3abe 5c7d e7bd 0eb4 0b3e
000001b0: b6ed 2bbd 9da6 7cbb 11fb 3d3d dbe3 783d
000001c0: 290b ff3c 0fb9 233e b158 27bd c27c ccbc
000001d0: 8fcb 6bbd 05c3 bb3d 3009 1b3e 3b65 8abd
000001e0: 3f8d 203e efc6 56be 5a2f 1f3d b732 cabd
000001f0: b356 80bd 98e5 bf3c 19d8 003e f1c0 b33d
00000200: 4603 173e 98e4 d83d 1372 3ebd 2dba 373d
00000210: e17e f3bb e046 1abe bf1f e43d 7d11 933d
00000220: e22e b2bd 4476 baba 4b24 233e 5a9f fd3d
00000230: 59ff ad3c fb67 c73d 1e5b e9bd 7620 abbd
00000240: 00d0 9fbd 5f45 913c 6179 9e3d 3117 fc3c
00000250: b62e a73c 60a2 54bd 29bc 10be a40e a8bd
00000260: e8b3 f83d 79a1 9d3d c463 0dbe 0955 17bd
00000270: 82d5 1dbe 5921 90bc 6af9 ac3b 2d60 ee3d
00000280: f1bb b83d 3ea0 c7bd ad9e f8bd b9b8 103e
00000290: 2e71 50bd fade acbd 419e 1bbc 2b95 3d3d
000002a0: 7601 c63d 83e4 94bd 7c84 17bd 1c5e 383d
000002b0: fcce 37bd 080f a33d 36ab cd3d 803c 3abd
000002c0: 9bdd 00be d46e 323d 700f 01be 6ed9 153e
000002d0: 5eb5 8c3d bed7 82bd da20 5ebd 7017 923c
000002e0: 5aa1 8cbd 970c 04be a274 00bd cf0d a7bd
000002f0: 9598 b5bd a11e 02be 91b1 16be 7662 0ebe
00000300: c834 4ebe a720 ba3d d7b4 ccbc 9adb ad3d
00000310: 0b64 8d3b d006 e4bd 3ed3 dbbd 0a5b 0bbd
00000320: 8d37 673d 4339 de3d edec 123e 716a c1bd
00000330: 9df5 6a3b a3a4 bc3d 7e65 e4bd dc1c c3bc
00000340: d3f8 d03c b3da 77bd 941b c03d a0a1 b1bc
00000350: 7b46 653c 2e6d 973c 692a ebbd 4de8 ea3d
00000360: 502e 8e3d b439 74be 4e40 4ebd 301e 8abd
00000370: 9147 36be 2d24 853b 026e 02be 3304 e63d
00000380: 78d5 61bd a9cc 57bd 1d46 29be f268 15be
00000390: d976 aabc e307 3bbd aca5 c3bc 6365 103d
000003a0: e978 9e3c 00cd ed3d e5b0 3e3d 621f 59bd
000003b0: 938a ac3d 7e0d e03c fe04 e4bd 7e74 5fbd
000003c0: f279 04be 0230 a03d 23f0 94bc 3a1f 05bb
000003d0: 325b a73d cf9d 213e 0228 35be 5a97 a93d
000003e0: 1b41 7cbc f931 023e 437e 6dbe fadc 1abd
000003f0: b1e2 8fbd 5a70 5eb9 22e3 f4bd 617e 913d

h2o.bias f4 [6]
0.017470509 0.0012799075 -0.0010406286 -0.0052444837 -0.0021432447 -0.008013353
00000000: 501e 8f3c 92c2 a73a b465 88ba ebd9 abbb
00000010: ae75 0cbb 704a 03bc

h2h.weight f4 [242, 242]
-0.009419107 -0.06273216 0.013596816 -0.011886887 -0.119658895 -0.034862936 0.045957215 -0.027787888
-0.07784655 0.038173076 0.03053262 0.004123821 -0.10840052 -0.18452096 -0.120680556 -0.021081984
-0.06874114 0.07563118 -0.08532612 -0.015073419 0.17532949 -0.005988472 0.15779485 0.016613634
-0.011568369 -0.09829065 0.048281156 0.11823493 0.07789757 0.00053666363 0.066279225 -0.115562715
0.046930343 -0.120560355 -0.01373266 -0.009131032 0.0557897 0.0016847841 0.020085694 0.124395475
0.06620424 -0.034031045 -0.007997998 0.031898063 0.09850123 -0.2472688 0.09264254 -0.028879208
0.07922088 -0.15752667 -0.09257223 -0.041921552 0.082513876 0.019212931 0.007372235 -0.012656156
0.028171718 0.004152155 0.03645528 0.016667392 -0.017835595 -0.036257192 0.0020062546 0.11372954
-0.073907636 0.0021771826 -0.024530776 -0.003966553 0.048963428 0.017213244 -0.061745502 -0.1027838
-0.051309552 0.0033425994 -0.0020495376 -0.06844605 0.2266622 0.048849553 0.021437481 -0.013258383
-0.0043447427 0.020422975 0.07380356 -0.0666018 -0.056063082 0.04456454 -0.08920362 -0.07820332
0.11079208 -0.031242013 0.015164794 -0.017276531 0.06128214 0.09707219 0.0069007203 -0.07687282
0.0482961 0.03067758 0.0008044221 0.02178621 -0.0008336128 -0.092808895 0.0047180294 -0.19589259
0.0025457684 0.016872322 0.08525218 0.009797807 0.004612884 0.027360585 -0.02286026 -0.067659795
-0.044591404 -0.20302127 0.0661541 0.10593471 0.07604915 -0.06503092 -0.07284566 -0.13260539
-0.12538965 0.037168432 -0.0470806 0.043278176 0.12977523 -0.024308205 -0.023865173 0.024982251
0.03664674 0.029162556 0.0074505466 -0.07892159 0.03126788 -0.060271256 -0.04621492 -0.081844
0.03275024 0.11813475 -0.003307132 0.06915996 0.0069124717 -0.028704623 0.095053874 -0.04180473
0.02288261 -0.021462975 0.023060393 -0.11030326 -0.0053007356 0.005173369 -0.022273775 -0.14644794
0.0078026527 0.053773776 -0.04479764 -0.016745698 0.13946493 -0.058344625 0.13998117 0.051211372
-0.08215729 0.01708088 -0.071285635 0.0118385125 0.050777454 -0.07236734 -0.058478825 -0.0045642303
-0.15442452 -0.013135974 -0.15680286 0.025366819 -0.04392886 0.053140085 -0.040463448 0.10138689
-0.15098745 -0.0612098 0.10152862 0.0010058539 -0.043696422 0.017313633 0.052385483 -0.08305419
-0.10444675 0.024774155 -0.07517207 -0.007427865 0.038387224 0.10229316 -0.05557883 0.06516946
0.005755788 0.02448181 -0.008222561 0.09247423 0.009203473 0.043607574 -0.011526411 -0.001448071
0.15554774 -0.10851011 -0.118698664 -0.01705027 -0.039250623 -0.027353493 -0.022477586 0.07117903
-0.002099526 0.00726646 -0.00020033296 0.11945345 -0.038251653 -0.027470276 -0.06601966 0.03331832
0.027481236 0.0991237 0.02318708 0.11367755 0.0011589018 -0.015348077 0.0077716117 -0.0047251782
-0.09581844 -0.0037141738 0.15309052 0.13018946 -0.06151342 0.02208351 0.08213504 -0.066615455
-0.027234651 -0.04349164 -0.10778051 0.04291126 0.023631403 -0.086260684 0.09827955 0.026651267
0.039826635 0.055092372 -0.06326849 -0.040528107 0.04550179 0.031642642 0.051541988 -0.056793205
-0.025805756 0.014367474 0.038839076 -0.0323078 0.010451634 -0.06829757 -0.03570214 -0.10543242
00000000: 9952 1abc b879 80bd 2ec5 5e3c 38c1 42bc
00000010: b90f f5bd 70cc 0ebd a23d 3c3d 6da3 e3bc
00000020: 036e 9fbd 5f5b 1c3d 8c1f fa3c 1e21 873b
00000030: 1801 debd 10f3 3cbe 5e27 f7bd 20b4 acbc
00000040: 28c8 8cbd 85e4 9a3d 76bf aebd 80f6 76bc
00000050: 9389 333e f23a c4bb f994 213e 5119 883c
00000060: 4289 3dbc 9c4c c9bd 76c2 453d 2825 f23d
00000070: c388 9f3d e3ae 0c3a 67bd 873d 25ac ecbd
00000080: 083a 403d 59e8 f6bd f3fe 60bc 539a 15bc
00000090: be83 643d f9d3 dc3a c18a a43c 0ec3 fe3d
000000a0: 1796 873d 2364 0bbd 090a 03bc 8ba7 023d
000000b0: 03bb c93d 0834 7dbe 5fbb bd3d 1794 ecbc
000000c0: 8f3e a23d ac4e 21be 8296 bdbd efb5 2bbd
000000d0: 09fd a83d 7064 9d3c ca92 f13b c45b 4fbc
000000e0: 60c8 e63c cd0e 883b 2252 153d 0e8a 883c
000000f0: f41b 92bc 6c82 14bd 5e7b 033b 08eb e83d
00000100: e35c 97bd 10af 0e3b c4f4 c8bc dcf9 81bb
00000110: e08d 483d ca02 8d3c dae8 7cbd 5080 d2bd
00000120: f729 52bd 830f 5b3b 8951 06bb 712d 8cbd
00000130: 231a 683e 7816 483d a89d af3c b039 59bc
00000140: 585e 8ebb 154e a73c 5226 973d 8666 88bd
00000150: 67a2 65bd 4f89 363d 63b0 b6bd 1029 a0bd
00000160: f5e6 e23d 40ef ffbc c275 783c 8387 8dbc
00000170: fb02 7b3d c9cd c63d 701f e23b 7f6f 9dbd
00000180: 22d2 453d 8c4f fb3c dadf 523a fe78 b23c
00000190: cf86 5aba 9712 bebd b399 9a3b 1198 48be
000001a0: e8d6 263b d337 8a3c b298 ae3d fb86 203c
000001b0: ad27 973b 4e23 e03c 7145 bbbc 3891 8abd
000001c0: 7aa5 36bd cfe4 4fbe cd7b 873d 4cf4 d83d
000001d0: a8bf 9b3d ee2e 85bd 1b30 95bd b5c9 07be
000001e0: 2566 00be ed3d 183d 96d7 40bd 7544 313d
000001f0: cce3 043e 0022 c7bc e580 c3bc 94a7 cc3c
00000200: e41a 163d 50e6 ee3c b723 f43b a4a1 a1bd
00000210: c012 003d fede 76bd db4b 3dbd d49d a7bd
00000220: 1e25 063d a2f0 f13d 78bc 58bb bda3 8d3d
00000230: 0482 e23b f525 ebbc 9bab c23d 703b 2bbd
00000240: 5074 bb3c 1fd3 afbc 26e9 bc3c ade6 e1bd
00000250: cbb1 adbb 5d85 a93b 7e77 b6bc 73f6 15be
00000260: 65ad ff3b e441 5c3d bb7d 37bd 462e 89bc
00000270: e5cf 0e3e c6fa 6ebd 3957 0f3e 04c3 513d
00000280: 1542 a8bd 34ed 8b3c 34fe 91bd 52f6 413c
00000290: 05fc 4f3d 5435 94bd 7e87 6fbd 8a8f 95bb
000002a0: 7621 1ebe 4538 57bc ee90 20be 13ce cf3c
000002b0: c0ee 33bd 6ba9 593d 00bd 25bd eea3 cf3d
000002c0: 749c 1abe 21b7 7abd 3dee cf3d dbd6 833a
000002d0: 05fb 32bd 52d5 8d3c 2992 563d 5118 aabd
000002e0: 2de8 d5bd 2bf3 ca3c d0f3 99bd 7365 f3bb
000002f0: ec3b 1d3d 147f d13d a1a6 63bd 9177 853d
00000300: 0d9b bc3b 148e c83c ecb7 06bc 2163 bd3d
00000310: 2aca 163c db9d 323d 46d9 3cbc 33cd bdba
00000320: e847 1f3e 8c3a debd 4918 f3bd 02ad 8bbc
00000330: 43c5 20bd 6f14 e0bc ea22 b8bc 50c6 913d
00000340: 3498 09bb 7c1b ee3b 7810 52b9 03a4 f43d
00000350: c4ad 1cbd 5809 e1bc 5135 87bd ca78 083d
00000360: 5420 e13c 5e01 cb3d d5f2 bd3c c6cf e83d
00000370: 4be6 973a 8076 7bbc 01a9 fe3b abd5 9abb
00000380: 753c c4bd 7f69 73bb c3c3 1c3e 6350 053e
00000390: 7ff5 7bbd 7ae8 b43c 6a36 a83d af6d 88bd
000003a0: 341b dfbc 4a24 32bd 07bc dcbd b8c3 2f3d
000003b0: a596 c13c 71a9 b0bd ca46 c93d c253 da3c
000003c0: 4121 233d 8aa8 613d e992 81bd cd00 26bd
000003d0: 1660 3a3d b79b 013d b11d 533d fe9f 68bd
000003e0: 9866 d3bc 8e65 6b3c b915 1f3d 2f55 04bd
000003f0: 553d 2b3c 99df 8bbd 683c 12bd f4ec d7bd

h2h.bias f4 [242]
-0.022924624 0.015816072 -0.010144492 0.0073574255 0.052980088 -0.0066849757 -0.021811618 -0.0062124645
0.014745406 -0.011451069 0.021637669 -0.008914688 -0.009655666 0.016605783 0.010377407 -0.012657465
-0.01460683 -0.0077695013 -0.016040241 0.0019147737 0.013651684 -0.008924101 -0.007424685 0.04073347
0.006026234 -0.008502257 0.011023707 0.04290572 -0.002229849 -0.013162555 -0.010048414 -0.008980552
0.015942417 0.012516648 -0.017774303 0.014203939 -0.01312628 -0.008646498 -0.005779051 0.011198694
-0.0021009299 -0.011088201 0.0006037357 0.004501028 0.0017046395 0.01611402 -0.0040864376 0.003926401
0.0013765582 -0.0060622077 -0.009114842 -0.004359652 1.3382782e-05 0.003363062 -0.012319267 -0.012435308
0.011510774 0.010758073 0.018636294 -0.0041949586 0.0093185045 0.0201784 0.038495537 0.004958053
-0.018178556 0.007961846 0.015936134 0.010314291 -0.013084471 0.004878642 0.077429466 -0.0032935664
-0.019818554 0.029785728 0.060713705 0.0048153275 -0.015840884 0.018841358 -0.02822174 -0.030054225
0.0065321047 0.012748852 0.009922447 -0.010566359 0.0048472653 0.0016451506 -0.024876537 -0.016910365
-0.009394694 -0.005851629 -0.0071264813 0.013321027 4.4120025e-06 0.008712078 -0.013217756 -0.0012255383
0.0059658196 0.047575306 -0.0021801179 0.01171917 -0.0045731994 0.05139548 0.015851535 -0.0057446845
0.007874881 0.0063915113 -0.024021437 -3.2107284e-05 -0.005461336 -0.014460386 -0.0110102 -9.643802e-05
-0.022723328 -0.0043820306 -0.0075288946 -0.009247609 -0.00837261 0.025371866 -0.008860951 -0.013166118
0.005327682 -0.0011184016 0.017437048 0.0137870945 -0.011644867 -0.005693549 0.0109958965 0.0053893677
-0.009393214 -0.02016349 -0.010170063 -0.0031966437 -0.00030638388 0.024331892 0.010979793 -0.0029268751
0.0017033794 -0.0084100915 -0.006493326 -0.0030390455 -0.012902792 -0.007674491 -0.0029341553 -0.018848604
0.001023639 -0.001265751 0.0054911356 0.025080342 0.017757233 -0.021532672 -0.0105394125 0.0046278327
0.032141156 0.014814247 -0.010894076 -0.0018594747 0.019654125 -0.011742186 -0.019246498 -0.0013895256
0.0008097135 -0.010217848 -0.016225154 0.0010285132 0.0031206985 -0.0047937394 -0.0030783408 -0.009331958
0.041180357 -0.013500476 -0.0065935105 0.006757867 -0.00052757864 0.040980447 0.012730148 -0.0055570193
0.014856107 -0.003129184 0.015416299 -0.010541526 0.014355629 -0.011597454 0.0094635105 0.026944228
0.017736409 -0.0028174394 -0.00051306124 0.002254159 -0.021829646 0.07611696 0.011734247 -0.004441319
0.015161773 -0.0024600816 -0.009544983 0.019318858 -0.013180107 0.00545088 -0.0051529636 -0.0073637734
-0.010709765 0.03947698 0.033293888 0.0013843077 0.027421707 0.007968112 0.017702864 -0.0007605138
0.009971705 0.016482886 0.03232626 -0.0155250225 -0.010787969 -0.010160398 -0.013236859 0.004401404
0.010196188 -0.011838457 -0.015410677 0.025068088 0.005844526 -0.006303204 -0.022567607 -0.024927463
0.0056879926 0.023963034 0.016159918 -0.024492174 -0.017487451 -0.01187291 -0.012716574 0.017481491
0.019683547 0.009527712 0.009637395 0.0031143988 0.0059087644 0.03819393 -0.011691114 -0.016747586
-0.0223651 0.023267645
00000000: 6ccc bbbc b590 813c 1535 26bc 8f16 f13b
00000010: a601 593d a40d dbbb 47ae b2bc ee91 cbbb
00000020: b796 713c 449d 3bbc 7b41 b13c e90e 12bc
00000030: cc32 1ebc da08 883c 0006 2a3c 4261 4fbc
00000040: 7c51 6fbc 4d97 febb d366 83bc 25f9 fa3a
00000050: 50ab 5f3c 6436 12bc c64a f3bb 24d8 263d
00000060: b777 c53b 0d4d 0bbc c79c 343c e9bd 2f3d
00000070: a922 12bb c2a7 57bc 1aa2 24bc 2a23 13bc
00000080: ac99 823c a012 4d3c 6a9b 91bc a3b7 683c
00000090: 9c0f 57bc 0baa 0dbc 325e bdbb ba7a 373c
000000a0: c1af 09bb 49ab 35bc 0444 1e3a 5c7d 933b
000000b0: 366e df3a 8d01 843c 86e7 85bb 0aa9 803b
000000c0: a16d b43a 7ca5 c6bb 6b56 15bc 69db 8ebb
000000d0: 9c86 6037 d166 5c3b c0d6 49bc 76bd 4bbc
000000e0: af97 3c3c a142 303c 24ab 983c dd75 89bb
000000f0: a4ac 183c 2c4d a53c 7fad 1d3d 2a77 a23b
00000100: 32eb 94bc 6772 023c 7f8c 823c 46fd 283c
00000110: 4060 56bc 04dd 9f3b 5793 9e3d e0d8 57bb
00000120: 855a a2bc 3301 f43c efae 783d e5c9 9d3b
00000130: bec4 81bc 3159 9a3c 4731 e7bc 4734 f6bc
00000140: 440b d63b 90e0 503c c291 223c 861e 2dbc
00000150: cfd5 9e3b 18a2 d73a e1c9 cbbc 9b87 8abc
00000160: 34ec 19bc 06bf bfbb 4285 e9bb 7040 5a3c
00000170: d00a 9436 1bbd 0e3c 498f 58bc 3ea2 a0ba
00000180: ec7c c33b 53de 423d 4fe0 0ebb c301 403c
00000190: c7da 95bb 1184 523d 14db 813c e83d bcbb
000001a0: a505 013c e26f d13b 9bc8 c4bc efaa 06b8
000001b0: 02f5 b2bb 41eb 6cbc 2064 34bc c53e cab8
000001c0: 4626 babc 2397 8fbb f2b4 f6bb 4983 17bc
000001d0: 462d 09bc a9d8 cf3c 862d 11bc b4b6 57bc
000001e0: d693 ae3b 5597 92ba 24d8 8e3c 44e3 613c
000001f0: 1dca 3ebc f390 babb 2228 343c 4b99 b03b
00000200: ffe5 19bc e72d a5bc 56a0 26bc c87e 51bb
00000210: 26a2 a0b9 ad53 c73c 97e4 333c d1d0 3fbb
00000220: ee43 df3a 7bca 09bc f7c5 d4bb b92a 47bb
00000230: 3b66 53bc 4c7a fbbb f54a 40bb 6368 9abc
00000240: a02b 863a 8ee7 a5ba fcee b33b 4a75 cd3c
00000250: 9e77 913c 4965 b0bc 80ad 2cbc 13a5 973b
00000260: 72a6 033d 75b7 723c 117d 32bc 9eb9 f3ba
00000270: b001 a13c 4c62 40bc d5aa 9dbc be20 b6ba
00000280: f442 543a c368 27bc 9dea 84bc 2dcf 863a
00000290: a284 4c3b cd14 9dbb fdbd 49bb 12e5 18bc
000002a0: bcac 283d 1a31 5dbc 600e d8bb 1971 dd3b
000002b0: 344d 0aba 1ddb 273d 1c92 503c a817 b6bb
000002c0: 0767 733c ff12 4dbb a594 7c3c 5db6 2cbc
000002d0: df33 6b3c 3f03 3ebc d70c 1b3c 24ba dc3c
000002e0: f24b 913c caa4 38bb f57e 06ba 83ba 133b
000002f0: 16d4 b2bc 35e3 9b3d 0041 403c 7c88 91bb
00000300: 1669 783c 5239 21bb 8f62 1cbc 9542 9e3c
00000310: 60f1 57bc 4c9d b23b 31da a8bb cf4b f1bb
00000320: 0378 2fbc 9db2 213d 2c5f 083d a971 b53a
00000330: 7da3 e03c af8c 023c 9905 913c 385d 47ba
00000340: 5d60 233c 1e07 873c 8a68 043d aa5c 7ebc
00000350: 06c0 30bc cc77 26bc 69df 58bc a739 903b
00000360: ea0d 273c 16f6 41bc 107d 7cbc 975b cd3c
00000370: 7083 bf3b 1c8b cebb b4df b8bc ae34 ccbc
00000380: 5762 ba3b 204e c43c ce61 843c d0a3 c8bc
00000390: d841 8fbc 9886 42bc 2d59 50bc 5835 8f3c
000003a0: 643f a13c 1f1a 1c3c 2ae6 1d3c f11a 4c3b
000003b0: 4f9e c13b 3d71 1c3d 168c 3fbc 3c32 89bc
000003c0: 0437 b7bc ca9b be3c
