VLSI23_journal/intuitivechip_classifier_lcsvsnlcs/SNN_ep-150-isize-1-8-1-hsize-242-bsize-32-lr-0.001-tmax_ms-300.0-Ts-10.0-k-6-dsetPath-VMODE_allchannels_ALLCLASS_auto_nospkfilter_cleaned_12x16_9mvpp_250mvofs_onedac_itail_50nA_N3b_OFFdcard/chip-classifier-3-best.pt (torch, 253495 bytes, 8 tensors)

thr_h_1 f4 [242]
000000 00 00 80 3f 00 00 80 3f 00 00 80 3f 00 00 80 3f
       1.0 1.0 1.0 1.0
000010 00 00 80 3f 00 00 80 3f 00 00 80 3f 00 00 80 3f
       1.0 1.0 1.0 1.0
000020 00 00 80 3f 00 00 80 3f 00 00 80 3f 00 00 80 3f
       1.0 1.0 1.0 1.0
000030 00 00 80 3f 00 00 80 3f 00 00 80 3f 00 00 80 3f
       1.0 1.0 1.0 1.0
000040 00 00 80 3f 00 00 80 3f 00 00 80 3f 00 00 80 3f
       1.0 1.0 1.0 1.0
000050 00 00 80 3f 00 00 80 3f 00 00 80 3f 00 00 80 3f
       1.0 1.0 1.0 1.0
000060 00 00 80 3f 00 00 80 3f 00 00 80 3f 00 00 80 3f
       1.0 1.0 1.0 1.0
000070 00 00 80 3f 00 00 80 3f 00 00 80 3f 00 00 80 3f
       1.0 1.0 1.0 1.0
000080 00 00 80 3f 00 00 80 3f 00 00 80 3f 00 00 80 3f
       1.0 1.0 1.0 1.0
000090 00 00 80 3f 00 00 80 3f 00 00 80 3f 00 00 80 3f
       1.0 1.0 1.0 1.0
0000a0 00 00 80 3f 00 00 80 3f 00 00 80 3f 00 00 80 3f
       1.0 1.0 1.0 1.0
0000b0 00 00 80 3f 00 00 80 3f 00 00 80 3f 00 00 80 3f
       1.0 1.0 1.0 1.0
0000c0 00 00 80 3f 00 00 80 3f 00 00 80 3f 00 00 80 3f
       1.0 1.0 1.0 1.0
0000d0 00 00 80 3f 00 00 80 3f 00 00 80 3f 00 00 80 3f
       1.0 1.0 1.0 1.0
0000e0 00 00 80 3f 00 00 80 3f 00 00 80 3f 00 00 80 3f
       1.0 1.0 1.0 1.0
0000f0 00 00 80 3f 00 00 80 3f 00 00 80 3f 00 00 80 3f
       1.0 1.0 1.0 1.0
000100 00 00 80 3f 00 00 80 3f 00 00 80 3f 00 00 80 3f
       1.0 1.0 1.0 1.0
000110 00 00 80 3f 00 00 80 3f 00 00 80 3f 00 00 80 3f
       1.0 1.0 1.0 1.0
000120 00 00 80 3f 00 00 80 3f 00 00 80 3f 00 00 80 3f
       1.0 1.0 1.0 1.0
000130 00 00 80 3f 00 00 80 3f 00 00 80 3f 00 00 80 3f
       1.0 1.0 1.0 1.0
000140 00 00 80 3f 00 00 80 3f 00 00 80 3f 00 00 80 3f
       1.0 1.0 1.0 1.0
000150 00 00 80 3f 00 00 80 3f 00 00 80 3f 00 00 80 3f
       1.0 1.0 1.0 1.0
000160 00 00 80 3f 00 00 80 3f 00 00 80 3f 00 00 80 3f
       1.0 1.0 1.0 1.0
000170 00 00 80 3f 00 00 80 3f 00 00 80 3f 00 00 80 3f
       1.0 1.0 1.0 1.0
000180 00 00 80 3f 00 00 80 3f 00 00 80 3f 00 00 80 3f
       1.0 1.0 1.0 1.0
000190 00 00 80 3f 00 00 80 3f 00 00 80 3f 00 00 80 3f
       1.0 1.0 1.0 1.0
0001a0 00 00 80 3f 00 00 80 3f 00 00 80 3f 00 00 80 3f
       1.0 1.0 1.0 1.0
0001b0 00 00 80 3f 00 00 80 3f 00 00 80 3f 00 00 80 3f
       1.0 1.0 1.0 1.0
0001c0 00 00 80 3f 00 00 80 3f 00 00 80 3f 00 00 80 3f
       1.0 1.0 1.0 1.0
0001d0 00 00 80 3f 00 00 80 3f 00 00 80 3f 00 00 80 3f
       1.0 1.0 1.0 1.0
0001e0 00 00 80 3f 00 00 80 3f 00 00 80 3f 00 00 80 3f
       1.0 1.0 1.0 1.0
0001f0 00 00 80 3f 00 00 80 3f 00 00 80 3f 00 00 80 3f
       1.0 1.0 1.0 1.0
000200 00 00 80 3f 00 00 80 3f 00 00 80 3f 00 00 80 3f
       1.0 1.0 1.0 1.0
000210 00 00 80 3f 00 00 80 3f 00 00 80 3f 00 00 80 3f
       1.0 1.0 1.0 1.0
000220 00 00 80 3f 00 00 80 3f 00 00 80 3f 00 00 80 3f
       1.0 1.0 1.0 1.0
000230 00 00 80 3f 00 00 80 3f 00 00 80 3f 00 00 80 3f
       1.0 1.0 1.0 1.0
000240 00 00 80 3f 00 00 80 3f 00 00 80 3f 00 00 80 3f
       1.0 1.0 1.0 1.0
000250 00 00 80 3f 00 00 80 3f 00 00 80 3f 00 00 80 3f
       1.0 1.0 1.0 1.0
000260 00 00 80 3f 00 00 80 3f 00 00 80 3f 00 00 80 3f
       1.0 1.0 1.0 1.0
000270 00 00 80 3f 00 00 80 3f 00 00 80 3f 00 00 80 3f
       1.0 1.0 1.0 1.0
000280 00 00 80 3f 00 00 80 3f 00 00 80 3f 00 00 80 3f
       1.0 1.0 1.0 1.0
000290 00 00 80 3f 00 00 80 3f 00 00 80 3f 00 00 80 3f
       1.0 1.0 1.0 1.0
0002a0 00 00 80 3f 00 00 80 3f 00 00 80 3f 00 00 80 3f
       1.0 1.0 1.0 1.0
0002b0 00 00 80 3f 00 00 80 3f 00 00 80 3f 00 00 80 3f
       1.0 1.0 1.0 1.0
0002c0 00 00 80 3f 00 00 80 3f 00 00 80 3f 00 00 80 3f
       1.0 1.0 1.0 1.0
0002d0 00 00 80 3f 00 00 80 3f 00 00 80 3f 00 00 80 3f
       1.0 1.0 1.0 1.0
0002e0 00 00 80 3f 00 00 80 3f 00 00 80 3f 00 00 80 3f
       1.0 1.0 1.0 1.0
0002f0 00 00 80 3f 00 00 80 3f 00 00 80 3f 00 00 80 3f
       1.0 1.0 1.0 1.0
000300 00 00 80 3f 00 00 80 3f 00 00 80 3f 00 00 80 3f
       1.0 1.0 1.0 1.0
000310 00 00 80 3f 00 00 80 3f 00 00 80 3f 00 00 80 3f
       1.0 1.0 1.0 1.0
000320 00 00 80 3f 00 00 80 3f 00 00 80 3f 00 00 80 3f
       1.0 1.0 1.0 1.0
000330 00 00 80 3f 00 00 80 3f 00 00 80 3f 00 00 80 3f
       1.0 1.0 1.0 1.0
000340 00 00 80 3f 00 00 80 3f 00 00 80 3f 00 00 80 3f
       1.0 1.0 1.0 1.0
000350 00 00 80 3f 00 00 80 3f 00 00 80 3f 00 00 80 3f
       1.0 1.0 1.0 1.0
000360 00 00 80 3f 00 00 80 3f 00 00 80 3f 00 00 80 3f
       1.0 1.0 1.0 1.0
000370 00 00 80 3f 00 00 80 3f 00 00 80 3f 00 00 80 3f
       1.0 1.0 1.0 1.0
000380 00 00 80 3f 00 00 80 3f 00 00 80 3f 00 00 80 3f
       1.0 1.0 1.0 1.0
000390 00 00 80 3f 00 00 80 3f 00 00 80 3f 00 00 80 3f
       1.0 1.0 1.0 1.0
0003a0 00 00 80 3f 00 00 80 3f 00 00 80 3f 00 00 80 3f
       1.0 1.0 1.0 1.0
0003b0 00 00 80 3f 00 00 80 3f 00 00 80 3f 00 00 80 3f
       1.0 1.0 1.0 1.0
0003c0 00 00 80 3f 00 00 80 3f
       1.0 1.0

thr_o f4 [6]
000000 00 00 80 3f 00 00 80 3f 00 00 80 3f 00 00 80 3f
       1.0 1.0 1.0 1.0
000010 00 00 80 3f 00 00 80 3f
       1.0 1.0

i2h.weight f4 [242, 8]
000000 7b 92 05 3e 8c 27 5e 3d 6e a1 b2 bd 87 cd 89 bc
       0.13044159 0.054236934 -0.087221965 -0.016821636
000010 23 e9 c6 3d 6f 71 ea 3d 8e 05 4b 3b b2 b6 ca 3a
       0.09712436 0.11447417 0.0030978653 0.0015465824
000020 9a 17 b9 3d 7c 7c f3 bd 34 a3 5c 3d 05 dc 2e bd
       0.09037705 -0.11888978 0.05386658 -0.042690296
000030 ec d3 71 3d 37 a6 0d bd e6 cc 47 bd 54 20 1e be
       0.059039995 -0.034582343 -0.04877939 -0.1544202
000040 02 ae 94 3d 17 12 67 bd 1f 99 13 3e f8 02 fd 3d
       0.07259752 -0.056413736 0.1441388 0.12354082
000050 87 86 2a 3d b2 6b a1 bc a3 15 53 bd 1b 3b 6b bc
       0.0416322 -0.019704673 -0.051534306 -0.014357354
000060 69 1a 12 3c b7 07 cc bd 70 4d f3 3c eb 77 ea bd
       0.0089174295 -0.09962409 0.029700011 -0.11448654
000070 3d ae c3 bd 0b cb 20 3e f1 22 30 3d ba 46 cd bd
       -0.09554718 0.15702455 0.043002073 -0.10023256
000080 02 12 66 bd 37 04 81 3d 7e 3a c6 3d 83 31 40 3b
       -0.056169517 0.06299632 0.09679125 0.0029326386
000090 0f 92 ed bb ac e9 c3 3c f1 72 0d be 98 f8 90 bd
       -0.0072500776 0.023915134 -0.13813378 -0.070786655
0000a0 20 12 ff bd a6 7d 8c 3d 18 ed 01 3e e2 30 e7 bd
       -0.12454629 0.06859903 0.126881 -0.112886205
0000b0 e1 15 f8 3d 99 d6 64 3d af f9 15 3e d5 4d be 3d
       0.12113548 0.05586872 0.14646028 0.09292189
0000c0 dd 0c 0a be 1e 50 ab 3d f2 45 ca 3c 53 fb d9 bd
       -0.1348147 0.083648905 0.024691556 -0.106436394
0000d0 68 f1 0c bd a9 a8 4d be cb c4 28 3e b5 8e 52 bd
       -0.03440991 -0.2008387 0.1648132 -0.051405627
0000e0 65 65 ff 3d f7 8d bd 3d e6 59 06 be 1c 26 b2 bd
       0.12470511 0.09255593 -0.13120231 -0.08698675
0000f0 c6 3b fe bc 6f 63 ad bc bd c1 43 bc ba b2 0d be
       -0.031034362 -0.021165578 -0.011948046 -0.1383771
000100 4f be ff 3d 7f 71 13 bd 61 02 0c 3e 38 61 e0 bd
       0.1248747 -0.03599691 0.13672782 -0.10956043
000110 6e 65 87 3d 58 7f 6e 3d fb 61 9d 3d c7 da 6c bd
       0.06611143 0.058226913 0.07684704 -0.05782583
000120 56 ea 5d bd 36 96 b0 3d e0 43 58 3d 9f b1 c6 3d
       -0.05417856 0.086224005 0.052799106 0.09701847
000130 04 18 69 bd 39 f1 45 3e 35 a2 64 3d 09 dd fd bd
       -0.05690767 0.193303 0.055818755 -0.12395675
000140 8f 98 c2 3c fc 0e 2e bc 14 a5 d9 bd 02 d9 47 3d
       0.023754386 -0.01062369 -0.10627189 0.04879094
000150 53 29 5e 3e 64 22 b9 3d e2 36 af bd db c0 e2 bb
       0.21695451 0.090397626 -0.0855539 -0.006919963
000160 dc fd 62 3d 75 e9 2d bd 83 48 aa bd 84 d8 0b 3e
       0.05541788 -0.04245897 -0.08314612 0.13656813
000170 f0 b6 d0 bd 81 09 07 3e 4b 56 c2 3c a9 4f a3 3c
       -0.101911426 0.13187219 0.023722788 0.019935446
000180 8d b8 6b 3d e5 08 ac bc 7c f5 0a 3e 92 d8 50 3d
       0.05754905 -0.021000335 0.13570207 0.050987788
000190 40 b9 bb 3d ed 4b 12 3d 0c d5 fa 3d 03 e4 98 bd
       0.09166193 0.03571694 0.12247667 -0.07465365
0001a0 40 22 13 3e c8 21 ba 3c 1d 5c 29 bc e7 25 5d bd
       0.14368534 0.022721186 -0.010336903 -0.053991225
0001b0 00 bb a6 3d e8 23 e4 bd 80 46 65 3d 78 86 5b 3c
       0.08141136 -0.11139661 0.055975437 0.013398759
0001c0 fe 6d f6 bd a8 51 09 3d f0 4d 0c 3e 13 26 f7 bd
       -0.12032698 0.03352514 0.13701606 -0.12067809
0001d0 8b 10 ae be 37 41 92 be 8e 53 92 be c5 4d 1a be
       -0.33996996 -0.2856538 -0.28579372 -0.15068729
0001e0 ac a4 ad 3c 6a b7 ca bd 1b 32 da bd 16 35 76 bd
       0.021196686 -0.09898265 -0.10654088 -0.06010922
0001f0 2b ff 1f be 4e 3b 4c 3e 05 dc dd bc 7b 7f f7 3d
       -0.15624683 0.19944498 -0.027082453 0.12084862
000200 f3 d9 7c bc 00 82 bb bd 3d d4 14 3e f8 b9 cd bc
       -0.0154328225 -0.09155655 0.14534087 -0.02511309
000210 9c 29 43 3e 37 50 ae bc 90 44 86 bc 6a 06 30 3e
       0.19058841 -0.021278484 -0.016390115 0.17189947
000220 67 07 7e bd 49 33 cc bd c0 4d 1c bd b0 4e 0f 3e
       -0.06201878 -0.09970719 -0.038160086 0.1399486
000230 ed 2f ed 3b 02 a0 0a be 1a d8 2f 3d 49 3b 33 3e
       0.007238379 -0.135376 0.0429307 0.17503084
000240 af cb 59 bd 79 9a df 3d a4 37 9b bd 61 29 4c bb
       -0.053172763 0.10918135 -0.07578972 -0.0031152593
000250 15 d8 a2 bd 01 53 b3 bc be d8 07 3e bc 7c 3b 3e
       -0.079513706 -0.021890165 0.13266274 0.18309301
000260 13 3d 1c 3d 9f 1a b2 3b df 64 ff bd 04 34 2e 3d
       0.038144182 0.0054353024 -0.124704115 0.042530075
000270 91 2d e2 3d af 23 1e bd b2 94 98 3d fa ff 96 3d
       0.11043847 -0.03860825 0.074502364 0.073730424
000280 e3 98 7d bc c1 f4 8f bd 2a 83 9b bd ab 84 2f 3d
       -0.015478346 -0.07029105 -0.07593377 0.04285113
000290 82 80 d2 bd ab 6e 9c 3c 32 75 0d 3e 88 b9 02 3d
       -0.10278417 0.01909574 0.13814238 0.031915218
0002a0 33 08 5a bb d4 f9 62 bc 40 23 ae 3d c2 ca 3d bd
       -0.0033269047 -0.013853509 0.08502817 -0.046335943
0002b0 4d 8d 8d 3e d9 19 8f 3e 35 e9 92 3d 1a 8e b9 3c
       0.27646866 0.27949408 0.07173387 0.022650767
0002c0 31 c1 0c bd 46 7e 0d be 95 e1 2f bd b8 c1 ef 3d
       -0.03436393 -0.138177 -0.04293974 0.11706871
0002d0 3b e3 35 3e 21 30 9e 3d 37 47 ec bd 84 26 2b bd
       0.17762463 0.077240236 -0.11537021 -0.04178478
0002e0 1b e5 f6 3d e9 b7 a1 3d 40 41 1f 3d e6 6f e0 bd
       0.12055417 0.07896406 0.038880587 -0.10958843
0002f0 a5 8b a7 3c d2 79 c8 bd 22 6c 0f be bc d9 8a bc
       0.02045233 -0.097888604 -0.14006093 -0.016949527
000300 8d 48 e8 3b 90 94 0b be 95 b8 9b bd 5f 86 da 3d
       0.007088727 -0.13630891 -0.076035656 0.106701605
000310 de 19 da 3d 73 04 48 be cd 5f de bb 99 4e 11 be
       0.10649465 -0.19532947 -0.0067863227 -0.14190139
000320 32 f2 ea bc 37 fb f2 bc 1d f5 52 3c 0e a3 ef 3d
       -0.02867994 -0.029660804 0.012875822 0.11701022
000330 5a d0 39 bd e5 4d 07 3e bb a7 9f bd bf 3b c8 bd
       -0.045364715 0.13213308 -0.07795664 -0.09777021
000340 56 e2 ae bd fa 77 86 bd 53 ff f1 bd 36 a0 c2 3d
       -0.08539264 -0.065658525 -0.11816277 0.09503214
000350 cf 2e 7d 3d bc 7a 69 3e 68 04 86 3d f0 93 00 be
       0.06181222 0.22800726 0.06543809 -0.12556434
000360 57 f3 1c bc fb b2 c8 3d c2 89 0a 3e c4 b2 02 3d
       -0.009579501 0.09799763 0.13529113 0.031908765
000370 be 77 8d bd cd 8b 15 3e 1e d3 62 bd 59 25 1e 3e
       -0.06907605 0.14604111 -0.05537712 0.15443935
000380 3e 0c 8b 3c 73 0e a6 bd fb c7 13 3d d3 b8 88 3d
       0.016973611 -0.08108225 0.036079388 0.066758774
000390 71 9c 48 bc 6a 37 73 3c b2 8d 8e 3c fd 32 6d bd
       -0.01224433 0.014844755 0.01740155 -0.057909954
0003a0 4a 0a 0a 3e 12 fd 11 3d f3 c1 bf 3d ea 00 20 3d
       0.13480487 0.035641737 0.09363165 0.03906337
0003b0 94 f2 0e bd 7d a1 c3 bd ee 26 96 3c 64 a0 02 3e
       -0.03489931 -0.09552286 0.01832911 0.12756497
0003c0 0f ad 0e 3e f7 40 ce bc e1 ec fa bd 9a 79 92 3d
       0.13933204 -0.025177462 -0.12252212 0.071521
0003d0 21 f5 13 be d5 90 bc 3d cf e0 e0 3d 56 ef b8 3d
       -0.14448978 0.09207312 0.10980379 0.09030025
0003e0 9f f3 8a bd d2 00 15 bd 56 f7 2c 3d cc bf 44 be
       -0.06784748 -0.036377735 0.042228065 -0.1921379
0003f0 84 cb f7 3b bc 9c 52 3d ff a2 e6 3d 7d ac d9 bd
       0.0075621027 0.051419005 0.11261558 -0.10628603

i2h.bias f4 [242]
000000 fb 82 dc bc d8 55 7a bb d6 1a df 3b a4 88 1d bc
       -0.026917925 -0.003819814 0.006808619 -0.009615097
000010 b3 b3 38 3c 65 9a 9e ba b4 0e a3 3c 0d 61 06 bd
       0.011273312 -0.0012100457 0.019904472 -0.0328074
000020 31 93 49 bc aa c8 50 3b 1f 71 39 3c 72 a4 c8 3b
       -0.01230316 0.0031857886 0.011318474 0.006123119
000030 b6 11 e0 bc f8 46 f9 3b 87 64 f5 3c f0 2f eb 3c
       -0.027352195 0.007607337 0.029955162 0.028709382
000040 98 4d d4 3c 5d 13 99 3a 7b 83 28 bc b2 16 c9 3c
       0.025915906 0.0011678744 -0.010285254 0.024546955
000050 75 16 f2 bb 42 ee cc 3c be 25 7e 3b bc 9a 0c bd
       -0.007387931 0.025015954 0.003877982 -0.034327254
000060 45 48 11 3b bb 8f eb 3b c9 f2 3a 3c eb f2 97 bc
       0.002216832 0.007188765 0.011410424 -0.01854845
000070 a8 60 7d bc 9b bf 4e bc 9b a5 b5 bc 8f 56 a2 3c
       -0.015464939 -0.0126189245 -0.022173693 0.019816665
000080 8b ed 83 3b 44 b5 db bb dd 86 b7 3c 56 14 e2 3c
       0.00402612 -0.006704958 0.022403175 0.027597588
000090 e6 55 0f bd 4b 08 c7 3c b4 7b 70 bc 87 93 15 bd
       -0.03499403 0.024295947 -0.014677931 -0.036517646
0000a0 b2 c4 63 3c 8d 2f e8 3c cb 0d a8 3b fb c2 bd 3b
       0.013901876 0.028342986 0.0051285974 0.0057910657
0000b0 ed 06 8f 3b 73 51 d5 bb be 70 60 3b 74 83 ea 3b
       0.0043648393 -0.0065099536 0.0034246887 0.0071567837
0000c0 50 04 d6 3a 9e f4 a3 bc 63 96 41 bb af a8 96 bc
       0.001632819 -0.020014104 -0.00295391 -0.018390981
0000d0 35 d6 3a bc 79 07 0f bd ba 22 63 3c 53 b8 41 3c
       -0.01140361 -0.034919236 0.01386326 0.0118237315
0000e0 70 dc 10 bc 2c 52 90 3c 95 af d4 3b 86 07 62 bc
       -0.008841619 0.017617308 0.0064906576 -0.013795739
0000f0 6d 9d c2 bc 08 32 6f 3c c8 58 06 bd 6a 90 86 bb
       -0.023756707 0.014599331 -0.032799512 -0.004106571
000100 3b 7a a2 3c 24 38 81 3c 91 0b be bc 11 d1 dc bb
       0.019833675 0.01577384 -0.023198875 -0.00673879
000110 87 5c 9c 3c 70 4f 79 bc 30 5e 92 bc 26 57 15 3c
       0.01908709 -0.015216693 -0.017867178 0.009115016
000120 d6 4d 10 bc a1 fd ba 3b 34 a7 5b 3c 25 e7 d3 3c
       -0.00880762 0.0057065045 0.013406564 0.025867054
000130 09 27 e0 3b 39 a1 6d bd 8b 6b 1f 3d 91 ac 76 3c
       0.006840591 -0.058015082 0.03892092 0.0150557915
000140 e2 3e 99 3c d7 73 62 b9 82 a1 ca 3c 76 05 42 3c
       0.018706743 -0.00021596193 0.024735216 0.011842122
000150 3a 94 c7 bc 60 6e d9 3c 7c 64 5d 3c 46 99 91 3c
       -0.024362672 0.026541889 0.013512727 0.017773282
000160 82 49 97 3c 88 83 11 bc 85 fa 8b bb 4a 8d d2 3b
       0.018467668 -0.008881457 -0.0042718076 0.0064255344
000170 1b 88 f4 bc 70 dc 00 3c 3c aa 51 bc 75 d3 50 bc
       -0.029850056 0.007865056 -0.012796935 -0.012745728
000180 b3 3f bf 3c 40 e1 04 3c e2 23 2d bc a9 0e 49 3c
       0.023345804 0.008110344 -0.010567637 0.012271562
000190 18 17 b2 3c 70 6d 84 3c 3b 5d be 3b 88 13 0b bd
       0.021739528 0.016165465 0.005809454 -0.033954173
0001a0 e7 0b f6 bc 4f 8a 44 3b b7 5f e0 ba a4 ec 8e 3b
       -0.030034972 0.0029989665 -0.0017118369 0.004361706
0001b0 b3 34 cf 3c 80 67 85 bc 33 4f f5 bc 54 6b 84 3c
       0.025293684 -0.016284704 -0.029944992 0.01616446
0001c0 7b 86 ea bb 12 37 d1 ba ba 20 bf 3c 23 6b 81 bc
       -0.0071571446 -0.0015961847 0.023331035 -0.015798157
0001d0 cf 7b e3 3b e4 c6 00 bd 81 07 5b bc 21 80 60 3c
       0.0069422494 -0.031439677 -0.013368488 0.013702423
0001e0 5c 9e da bb cc 61 2b bc 0e 82 c3 3c 1b e0 bb 3c
       -0.00667171 -0.010460328 0.023865726 0.02293401
0001f0 2a b4 a4 bb 2e 17 c7 3c 07 e7 b7 3c a7 7a 7f 3b
       -0.00502636 0.024303045 0.02244903 0.0038983019
000200 34 46 b5 3c c5 94 bf bb 1d 18 df bc c1 89 4d bc
       0.022128202 -0.005846592 -0.027233178 -0.01254505
000210 79 89 c6 bc 94 91 14 bc ad 2c 80 bc 1c bb fd bc
       -0.024235474 -0.009067912 -0.015646303 -0.03097301
000220 1c f0 da bc c9 dd 1c bb 9a 71 d4 3c be a7 d4 bb
       -0.026725821 -0.0023935905 0.025933076 -0.006489723
000230 a1 e7 40 bb 4e f6 71 3c 3a bf a6 3c 0f bc 81 3c
       -0.0029434937 0.014768196 0.020354856 0.015836744
000240 f3 9e 1b 3c 71 80 6d bc 0a 0e b1 bc 03 a2 a9 bb
       0.009498346 -0.014495955 -0.02161314 -0.005176784
000250 b6 50 d8 bc 68 05 6e bb 0a 26 ec 3c ec 85 04 3d
       -0.026405673 -0.003631914 0.028826732 0.03235428
000260 d9 52 d3 3c 3c 1c 02 bc 87 90 91 3c bb 2d 20 bd
       0.02579634 -0.007941302 0.017769111 -0.039106112
000270 b1 9a 0a 3c 76 95 45 bb 1b cc af 3c 9d 33 f7 3a
       0.008459733 -0.00301489 0.02145963 0.0018859986
000280 77 af a0 3b 51 a4 21 3c 3d 82 b9 bc 8b 4a 82 3c
       0.0049037295 0.009865836 -0.02264511 0.015904685
000290 c1 30 7a 3c 95 90 86 bc 01 f7 6e 3b 1a 1e 0c 3c
       0.015270413 -0.016426364 0.0036463144 0.008552099
0002a0 5f 4a df 3a 99 8d 1f 3c 52 cc 6d 3c d0 9b 33 3c
       0.0017035714 0.009738349 0.014514046 0.010962442
0002b0 03 81 94 bc 61 35 15 bc d7 93 97 3c fd f1 64 ba
       -0.018127924 -0.009106965 0.018503113 -0.0008733569
0002c0 01 d9 25 3c 7f ff e6 3c da 86 f2 ba f4 a5 bd bb
       0.010122539 0.028198002 -0.0018503324 -0.0057876054
0002d0 f0 82 18 bc 28 6b 18 3c 90 65 a9 bc 8a 35 94 3c
       -0.009308562 0.009302892 -0.020678312 0.018091936
0002e0 86 72 b6 ba 1f c0 9e 3c bd 50 e2 3c c6 35 a6 3b
       -0.0013919629 0.01937872 0.02762639 0.0050723283
0002f0 11 04 22 bc af dd 1a bc 42 b2 21 ba f1 ac fe bc
       -0.009888665 -0.009452268 -0.0006168225 -0.031088324
000300 66 04 32 3c b4 f6 e1 bc b4 f8 3e bc 54 3b 05 bd
       0.0108653065 -0.027583458 -0.011655975 -0.032527283
000310 2e ea 8d 3b f8 6d a0 bc 72 b4 b6 3c 48 c4 c1 bb
       0.004330895 -0.019583687 0.02230284 -0.005913291
000320 13 59 20 3d 0a ac f9 bc 66 da 52 3c 0d 64 d3 bc
       0.039147448 -0.030477542 0.012869453 -0.025804544
000330 87 6c 2e bd 17 1c ba 3b 36 22 a7 bb 0f 66 45 3c
       -0.04258397 0.005679618 -0.005100514 0.012048258
000340 ca ca 88 bc 53 a4 a4 bb 85 d8 2d 3a 98 27 eb bc
       -0.01669826 -0.005024472 0.000663169 -0.028705403
000350 ce e0 87 3b c0 2f 8a 3c 36 d0 dd bb 47 88 d1 3b
       0.004146672 0.016868472 -0.0067692054 0.0063944194
000360 fe 5a af 3b 06 f8 72 3c b6 11 2a bc f4 02 1d 3b
       0.0053514233 0.014829641 -0.010380199 0.002395806
000370 89 e3 43 bc 0d d3 f8 b9 e7 34 29 3c 0e 48 d6 3c
       -0.011956104 -0.0004745949 0.010327554 0.026157405
000380 7b 82 5d 3b 83 03 77 bb 48 99 1d bd fd b0 0f 3c
       0.0033799696 -0.0037691302 -0.03847626 0.008770225
000390 c4 fa c4 bc 7d 60 92 bc 7c 13 90 bc 88 28 bc 3c
       -0.024045356 -0.017868275 -0.017587416 0.022968546
0003a0 15 f9 75 3c c9 1e 2e 3c c6 1d 2c bc 4a 04 d8 bb
       0.015012999 0.010627457 -0.010505145 -0.006592308
0003b0 1b 3f 67 3b 25 79 72 bc 72 f9 df 3b 2b 47 7a bc
       0.0035285417 -0.014799391 0.006835156 -0.015275757
0003c0 fe 91 4f 3c 7d e0 4d 3b
       0.012669085 0.0031414323

h2o.weight f4 [6, 242]
000000 a3 a0 e9 3d f3 18 65 bd db 75 04 3e 1d ba ed bc
       0.11407592 -0.055931997 0.12935583 -0.02901941
000010 a7 24 1d be 43 8c 01 be a2 78 71 bd bc 06 a0 bc
       -0.15346013 -0.12651162 -0.058952935 -0.019534461
000020 f5 d2 49 3d f7 7f 31 bd a2 e7 00 bd a8 44 aa bd
       0.04927345 -0.043334927 -0.031470902 -0.083138764
000030 fc 9e e1 bd 05 95 38 3d bc e4 08 bd 62 d0 94 bd
       -0.11016652 0.04506399 -0.033421263 -0.07266308
000040 e6 2f 89 bd 0e bb 05 3d 0d b1 df 3d 71 27 f7 bd
       -0.06698589 0.032649092 0.10922442 -0.1206807
000050 82 22 65 bd f9 64 bb bd b9 1e 1e be 50 5e 09 3e
       -0.055941112 -0.091501184 -0.15441407 0.13414884
000060 60 d6 37 be 95 56 5f 3d c8 5f 39 3d 05 06 d0 3d
       -0.17952871 0.05452593 0.04525736 0.10157398
000070 45 09 7e bd 69 4d 6c bd a3 53 ba 3d 40 1a d8 bd
       -0.06202056 -0.05769101 0.09097984 -0.10551882
000080 73 db c4 bd 4f 5f 39 bd 5b 50 7c be 5c ef d5 bd
       -0.09612169 -0.04525691 -0.24640028 -0.10446045
000090 f5 f2 dc 3c 7f b8 16 be a3 06 b6 3d fd 7b 1d be
       0.02697132 -0.14718817 0.088879846 -0.15379329
0000a0 b5 5f ef bd 13 25 35 bb bd 1a aa bd a5 ab 59 bc
       -0.116881765 -0.0027640506 -0.08305881 -0.013285552
0000b0 22 fb ab bd 21 41 57 3d b9 fa fc bd f4 1e 1d bc
       -0.08397509 0.052552346 -0.12352509 -0.009589899
0000c0 fe 67 38 3d 2b c7 f1 3c af 0d 02 bc 2d b6 0c 3e
       0.04502105 0.029513916 -0.007937833 0.1374137
0000d0 6e 4d fd 3d 0e be 37 3d 47 82 ca bb f0 9a f0 bc
       0.12368284 0.044858985 -0.006180081 -0.029370755
0000e0 58 09 0f be 32 44 ae 3d d4 3a 91 3d 4c 74 13 3e
       -0.13968408 0.08509101 0.07091299 0.14399832
0000f0 01 41 16 3d a8 48 8c bd c3 4c 44 3d 4f 34 00 3d
       0.036683086 -0.068497956 0.04792477 0.031299885
000100 00 2a f2 bd b8 85 88 3c a4 78 55 3d 59 00 c5 bd
       -0.11824417 0.016665325 0.052117005 -0.09619207
000110 6d 33 b6 bd c4 bc 15 3e 92 13 bd bc 0b 4f 0a 3b
       -0.088965274 0.1462279 -0.02308062 0.0021104242
000120 c3 c8 82 bc 48 6c 73 bc a6 6a e0 bd d0 82 b5 bd
       -0.015964871 -0.014857359 -0.109578416 -0.08862841
000130 17 f0 07 be f7 69 76 bd 19 e9 34 be 60 22 a1 bd
       -0.13275181 -0.06015965 -0.17667045 -0.07867885
000140 2e 49 0d 3e 74 4a 07 be 6d 2a 71 be 13 64 16 be
       0.13797447 -0.13211995 -0.2355134 -0.14686613
000150 8c 8d 07 3e cd f6 c6 bc 5d af 0d 3c 2a 2f ad bd
       0.1323759 -0.024287606 0.008647767 -0.084562615
000160 54 90 14 3e 3f d4 95 3d 9d d9 fd bd 43 af 81 bd
       0.14508182 0.07315873 -0.12395022 -0.06332257
000170 91 ed 3b 3d 84 7f a6 bc fc d1 9a bc ac 10 b6 3d
       0.045880858 -0.020324476 -0.018898956 0.08889899
000180 63 91 75 be 6a 5c 43 be e0 ea b4 bd b8 9e 68 3b
       -0.23981242 -0.19078222 -0.08833861 0.0035494994
000190 21 52 2b be 66 ec 64 3d 35 81 3b be 21 b1 31 3c
       -0.16730548 0.05588951 -0.18311007 0.0108454535
0001a0 91 08 ee 3d d1 f3 c0 3d ec 52 19 be b8 cf 35 be
       0.11622728 0.09421504 -0.14973038 -0.1775502
0001b0 63 3f bb 3c 6a 01 0b 3d a0 a3 31 bc b2 e6 57 bd
       0.022857374 0.033936895 -0.010842234 -0.052710243
0001c0 25 07 d9 3d 6d 5b 13 3e c3 29 23 be 4b a0 09 be
       0.10597066 0.14390345 -0.159339 -0.13440053
0001d0 00 41 39 3d a4 45 ed bd 7c 86 c0 bd aa 54 ec 3d
       0.045228004 -0.115855485 -0.09400651 0.11539586
0001e0 86 68 dc 3d 18 38 c3 bd ad 51 98 bc 85 a6 10 bd
       0.10762124 -0.095321834 -0.018593634 -0.035315055
0001f0 b9 37 4d bd 40 b1 2d be 76 31 47 3d c2 ee 2e bc
       -0.05010197 -0.16962147 0.048631154 -0.0106770415
000200 26 51 d5 bd 77 c4 0f be 04 d0 0c bd 07 f2 1e 3d
       -0.104158685 -0.14039789 -0.034378067 0.038805034
000210 27 55 b1 3b 22 f3 9b bd 71 28 f6 3d 0b 7f 33 3d
       0.0054117623 -0.07614733 0.12019432 0.04382233
000220 06 db 2b 3e f8 ba 12 3e b3 a9 fe bd c7 a8 43 3d
       0.1678277 0.14329135 -0.12434711 0.04776838
000230 d3 49 d7 bd 7a 80 c5 3c d5 83 07 be b4 ec 21 3e
       -0.10512128 0.024109114 -0.13233884 0.15812951
000240 76 91 06 be 5d 07 0f 3e 66 64 a1 bd 09 29 f7 bd
       -0.13141426 0.13967653 -0.078804776 -0.12068374
000250 8d 49 db 3c ba 3e 34 3e 9f 0f fd bd 7c bd 11 ba
       0.02676847 0.17602053 -0.12356495 -0.00055595464
000260 84 b4 08 be c2 7f 07 3d d4 1f 82 bc 62 af 19 3e
       -0.13350111 0.033080824 -0.015884317 0.1500831
000270 26 16 ac 3d 98 6b 08 be 4d 75 72 bb 4c 44 1c 3e
       0.08402662 -0.13322294 -0.0036996186 0.15260428
000280 93 3e dd bd 1c d0 bd bd 0e 96 13 3e ab 67 a2 bd
       -0.10802951 -0.09268209 0.1441271 -0.07929929
000290 b6 59 d0 bd 6e f4 c5 bd 23 db 8b 3d fd d1 02 3e
       -0.10173361 -0.09665762 0.068289064 0.12775417
0002a0 a9 7d a9 bd 65 78 f7 bc cc c9 86 3c fa a1 e1 3c
       -0.08275921 -0.030208776 0.016453646 0.027543057
0002b0 e4 30 31 bc 94 bf 90 bc b2 88 17 be 7a 36 40 3b
       -0.010814879 -0.017669477 -0.14798239 0.0029329346
0002c0 32 f8 2a 3c dd ff 10 be 82 7a 61 bc 70 65 8d bd
       0.010435151 -0.14160104 -0.013762118 -0.06904113
0002d0 69 96 37 bd f3 ce ff 3d c0 86 ec bd a5 ef ac 3d
       -0.044821177 0.12490644 -0.11549139 0.08444146
0002e0 35 ee 83 3d 2f 8d 0a be 7e 87 2b be 49 d0 84 3d
       0.06441919 -0.1353042 -0.16750905 0.0648504
0002f0 76 1d a2 bd 67 30 b7 bd db 8c 0e bd 96 3d 0c 3e
       -0.079157755 -0.08944779 -0.0348023 0.13695368
000300 64 ec e3 3c 23 a3 16 3e c5 e1 de 3d 7b cd 7d bd
       0.02782268 0.14710669 0.10882906 -0.06196354
000310 19 12 bb 3c 07 93 c4 bc 2f 4a 99 3c 5d d2 ae 3d
       0.022835778 -0.02399589 0.018712131 0.08536217
000320 f6 df 15 be dc 0e 79 3c de 49 4f bc 36 ba 15 be
       -0.14636216 0.015201297 -0.012651889 -0.14621815
000330 f3 60 97 3d cc 9c 06 3d cb fc 11 3d 7c 36 a4 3c
       0.073915385 0.032864377 0.035641473 0.020045511
000340 5f 2c 13 3e e8 a7 22 3e 41 f2 bc bd b6 40 c2 3c
       0.14372395 0.15884364 -0.09225894 0.023712497
000350 58 6e fc 3d 64 c3 3f bd 94 ed 20 be 51 ed 09 3e
       0.12325734 -0.0468172 -0.15715629 0.13469435
000360 cb 6d 1b 3c 09 aa 7f 3c 0e 1f b6 3d 39 38 09 3e
       0.009486626 0.015604504 0.08892642 0.13400353
000370 bc ad 11 3e 47 96 9e 3c 90 db f7 bd a6 59 2b 3d
       0.1422643 0.019358767 -0.12102425 0.041833542
000380 b1 31 c7 3d 7e b0 ac bd 48 39 9c 3d 36 f3 14 be
       0.09726275 -0.08432101 0.07628113 -0.14545903
000390 b0 e2 16 3c 9d 64 00 3e 75 59 ee bd fa 3b 12 3e
       0.00920932 0.12538381 -0.11638156 0.14280692
0003a0 80 ef d0 3d 11 0d cc bc 1d 19 08 be be 2f c2 3d
       0.10201931 -0.024908574 -0.1329083 0.09481762
0003b0 c6 4e ee bd f8 a0 7b bb 12 09 0c 3e cb 12 21 3e
       -0.116361186 -0.0038395505 0.13675335 0.15729825
0003c0 e9 52 04 be 26 09 a5 3c 77 a4 32 be bd d8 50 3d
       -0.12922253 0.020145964 -0.17445551 0.050987948
0003d0 68 7a 92 bc 99 7f 2b be 0d 28 a2 3c 04 a6 11 bd
       -0.017880633 -0.16747893 0.019794488 -0.035558715
0003e0 e0 41 16 3e 97 06 86 bd 5d 67 d6 bc 1d e0 d4 3d
       0.14673567 -0.06544226 -0.026172334 0.10394309
0003f0 f8 2a 9f bd b9 51 22 3e 85 30 0a be 39 1d fb 3d
       -0.077718675 0.15851487 -0.13495071 0.12261433

h2o.bias f4 [6]
000000 0e 4c 1d bd d7 16 89 3c 18 9d d7 3c ca b8 e3 3c
       -0.03840261 0.016734524 0.026320025 0.027798075
000010 af 30 bb 3c 72 37 ce 3c
       0.022850363 0.025172923

h2h.weight f4 [242, 242]
000000 cd d4 cf 3b ab 48 d6 3b ee 9b 65 bd 20 f0 9d 3c
       0.0063425065 0.0065394244 -0.05605691 0.01927954
000010 0f e5 88 bb 80 7d 04 3e 34 59 47 3d 02 2e 21 3d
       -0.0041776965 0.129385 0.048669055 0.039350517
000020 2b 52 0c bc 1e 54 c9 3d 92 9d cb 3d be d1 82 3c
       -0.008564512 0.09830497 0.099421635 0.015969153
000030 27 7a 84 3d dc 24 63 be 04 d5 2f 3d b1 a5 a9 3c
       0.06468611 -0.2218203 0.042927757 0.02070889
000040 3e 6c 53 bc 9f be c4 bd 5f 6b b8 3b 8b cd 8f 3c
       -0.012904225 -0.096066706 0.005628034 0.017554065
000050 ce ae 5e 3c 8f 3c 3d 3d 0c 01 ee bc 07 76 63 3c
       0.013591481 0.04620033 -0.029053234 0.01388312
000060 92 7a e2 bc 67 6f 79 3d a6 22 b5 bc 76 94 f0 bb
       -0.027646337 0.060897257 -0.022111248 -0.0073419167
000070 11 cc e2 3c b0 8d 93 bd 36 31 b8 bd 03 c8 c6 bd
       0.027685197 -0.07204759 -0.08993761 -0.09706118
000080 8f c7 b3 3b ee 5d 86 3d 18 2c d0 3d ee 0c fe bd
       0.0054864357 0.065608844 0.1016466 -0.1240481
000090 62 5b 70 3d 6e 12 62 3d 4e 73 54 bd ce 12 78 bd
       0.0586809 0.055193357 -0.051867776 -0.06056481
0000a0 82 f8 77 3c 6c 30 f4 3d d9 f4 17 3e 71 62 42 bd
       0.0151349325 0.11923298 0.14839496 -0.047457162
0000b0 af b4 c9 3b 0c 29 81 3b 81 0a 2f bd 1c 81 c0 bc
       0.0061555724 0.0039416607 -0.042734627 -0.023499064
0000c0 29 72 cc 3d cd 2c 75 3d 5f 53 21 bd 4f 28 e5 3d
       0.09982712 0.05985718 -0.03938615 0.11189329
0000d0 1c c2 e9 bb d0 29 95 bd 91 0f f1 bd ac 89 0b 3d
       -0.0071337353 -0.07283366 -0.11770547 0.03406684
0000e0 e1 e8 d4 bc d3 a2 af 3c d5 1d f9 bc c5 53 dc 3d
       -0.025989952 0.021439945 -0.030409733 0.10758165
0000f0 d7 f6 c8 3c a1 59 8d 3c 15 20 6b 3c eb 3e 6b 3d
       0.024531765 0.017254652 0.014350911 0.05743305
000100 79 47 89 3c bb 37 8f bd 7d db 90 3d 9e a1 45 3c
       0.016757714 -0.069930516 0.07073114 0.012062458
000110 de cc 51 3c b0 4a 76 bd c6 0a d2 bc 38 35 84 3b
       0.012805192 -0.06012982 -0.025639903 0.0040346645
000120 08 25 cb bc c0 7c 25 3c 87 a0 4d bd 5c 28 6e 3d
       -0.024797931 0.0101005435 -0.05020192 0.05814396
000130 fd 1d e6 3c 46 31 b8 bc b6 71 40 3d 16 79 59 bc
       0.028090471 -0.022484433 0.046983443 -0.013273498
000140 49 05 b4 3d 0b 73 57 bb 26 2f 10 3e 50 de 7b bc
       0.087900706 -0.0032874967 0.14080486 -0.015372828
000150 03 08 1b bd 31 5b 0e 3d fe 21 dd 3c 75 00 1f 3b
       -0.037849437 0.034754936 0.026993748 0.0024261747
000160 a7 4f 98 bd 97 77 22 be 02 0b db 3b 8b 12 12 3e
       -0.074370675 -0.15865932 0.006684662 0.14264886
000170 a6 0d 09 bd 19 52 0d 3d 0c 5c 7a bb 1e a9 ad 3d
       -0.03346028 0.034502123 -0.0038201837 0.08479522
000180 60 12 55 3e 4c 60 38 bd 13 7f d1 3c db 59 95 bd
       0.20807791 -0.04501371 0.025573289 -0.07292529
000190 34 e6 28 3d 2c 2a 26 bb 51 b6 97 bd 30 f4 84 3d
       0.041235164 -0.0025354726 -0.07407821 0.064918876
0001a0 aa 85 61 3d 87 12 a8 bd 7d b3 85 bd e3 6e 7f bd
       0.055059113 -0.08206659 -0.06528375 -0.06236161
0001b0 8d d6 29 3d 54 57 9d bd eb 03 59 3d b4 13 e8 bc
       0.041464377 -0.07682672 0.052982252 -0.028329708
0001c0 79 82 e5 bb 13 a4 5e 3d 63 eb 31 3d dc 56 be bd
       -0.007004079 0.054355692 0.043437373 -0.09293911
0001d0 12 d3 3a bc 61 57 1f 3d 00 db 1a bc ca 03 46 3d
       -0.011402862 0.03890169 -0.009451628 0.048343457
0001e0 cb 42 06 3e 58 16 99 3b 5d 0d be 3d 31 b5 72 bd
       0.13111417 0.004671853 0.092798926 -0.05925483
0001f0 85 ba 04 3c 3a ef 70 3c ee 2f 08 3e cd f0 2d 3e
       0.00810111 0.014705474 0.13299534 0.1698639
000200 11 e2 00 3e 04 61 f4 bd 90 dd ab bd 25 0b 52 3d
       0.12586237 -0.11932567 -0.08391869 0.05128016
000210 43 89 e1 3d d2 ce 21 bc 49 a8 65 3b 51 89 b2 bd
       0.11012509 -0.00987597 0.0035042933 -0.08717597
000220 85 a4 b2 3d ee 9a 4f 3c 13 71 83 3c 0a b2 ed bc
       0.08722786 0.012671215 0.016045129 -0.02901556
000230 26 15 94 3d 4f 0c 1e bb 94 f4 e9 bd 07 d1 3e bd
       0.07230596 -0.0024116223 -0.11423603 -0.046586063
000240 e0 b1 ab 3d 52 38 41 bc 1b 2e 04 3d 33 1c 94 3c
       0.08383536 -0.011793213 0.032270532 0.018079853
000250 6e e2 97 bb ab 12 f7 3d 38 be 06 3c 26 18 d9 bb
       -0.004635147 0.120641075 0.008224063 -0.006625193
000260 80 de 02 be 46 89 09 3e 56 ad c3 3d e6 37 84 3c
       -0.1278019 0.13431272 0.095545456 0.016139936
000270 bc 09 a9 3c 24 9d 6b 3d 40 0f 9e bd 4f 25 01 be
       0.020634525 0.057522908 -0.077177525 -0.12611888
000280 bf 7e 20 3b 5f 43 59 bd f0 d8 8a 3d 2a 52 76 bd
       0.002448961 -0.053042766 0.06779659 -0.06013695
000290 07 d5 24 3d 84 85 3a 3d 37 c1 4f bd 4d 9e 34 bd
       0.04024222 0.045537487 -0.050721373 -0.04409628
0002a0 fe 8d 83 3d 81 eb 2a 3d 11 01 53 bd 3c 4b 44 3c
       0.06423567 0.0417285 -0.05151469 0.011980828
0002b0 ed 54 7b bd f6 1c 27 3e 5f 75 fc bd a0 85 07 3d
       -0.06136029 0.16319641 -0.12327074 0.03308642
0002c0 b5 2f 6f 3c 39 88 0e 3e df 09 d6 bd 07 eb c7 3d
       0.014598777 0.13919152 -0.104511015 0.09761625
0002d0 f0 b4 c7 bc 21 10 aa 3c a3 e0 84 3c 1c d1 db bd
       -0.02437827 0.020759644 0.016220396 -0.10733244
0002e0 e1 02 a4 3d df 42 84 3d 3e a5 02 3e 44 97 1d 3d
       0.080083616 0.06458067 0.12758347 0.038474336
0002f0 8c 86 63 3c 6e 16 a2 3d 7d ef b9 3d 13 28 e9 3b
       0.013887059 0.079144344 0.09078882 0.007115373
000300 d5 45 67 3d 75 08 21 3e bb 19 12 3d 4e c5 31 3d
       0.05646308 0.15725882 0.03566907 0.043401055
000310 4c cc 05 bd 6c 3f 8e bc aa fe 54 3d 6b 51 b9 ba
       -0.032665536 -0.017364226 0.05200068 -0.0014138644
000320 2c d6 b4 bd be ad 10 3d ee 93 14 3b df 55 83 bc
       -0.088299125 0.035321943 0.002267118 -0.016032157
000330 bf 4d 08 bc 5c a9 e4 bd 0b 24 83 3d 74 1a 32 3d
       -0.008319317 -0.11165115 0.06403359 0.04348226
000340 a4 12 04 bc 85 26 9a 3d b5 87 a1 3b cc 36 9e 3c
       -0.008061085 0.07526878 0.0049295076 0.019313239
000350 35 f0 6f bd 39 c4 bc 3c 70 4e ba 3d 50 d0 fd 3c
       -0.05857869 0.023042785 0.09096992 0.03098312
000360 22 f4 98 bd f1 7b ca bd a7 fb 07 3e fb 34 f3 3d
       -0.0746844 -0.09886921 0.13279592 0.118753396
000370 44 a0 82 3d 20 f0 fe bc 4c ef ff bd 35 48 f0 bc
       0.063782245 -0.03112036 -0.12496814 -0.029331306
000380 c2 5b 7b 3d 2f 1f 0d 3d 5b 02 20 3d 23 18 80 bd
       0.061366804 0.034453567 0.039064746 -0.06254604
000390 56 c1 46 3c 0c 69 00 3c 0b a0 15 3c 88 68 7e 3c
       0.012131056 0.007837545 0.0091323955 0.015527852
0003a0 62 91 a7 3d bd 82 7a 3d c2 05 00 3d a7 b1 b3 bd
       0.081820264 0.061159838 0.03125549 -0.08774119
0003b0 26 9c a0 bc 7d e8 bc 3d 5f 8b af 3d cd a8 bb 3a
       -0.019605707 0.09224031 0.08571505 0.0014317274
0003c0 57 e5 84 3b 7e 30 a7 3d 43 60 16 3d 7b fa 16 be
       0.0040556598 0.08163546 0.036712896 -0.14743988
0003d0 46 15 c2 3c 24 4e bb bb 1a f3 8e bd 3f 06 16 3e
       0.023691785 -0.005716102 -0.06979962 0.1465082
0003e0 62 dd 95 3a 52 a2 1e be cd 82 aa 3d cf 44 df 3d
       0.0011433775 -0.15491608 0.083257295 0.10901796
0003f0 8e 2e be bd 41 09 82 3d 0b dc b1 3d fc dc 1f 3e
       -0.09286223 0.06349421 0.08684548 0.15611643

h2h.bias f4 [242]
000000 fb 82 dc bc d8 55 7a bb d6 1a df 3b a4 88 1d bc
       -0.026917925 -0.003819814 0.006808619 -0.009615097
000010 b3 b3 38 3c 65 9a 9e ba b4 0e a3 3c 0d 61 06 bd
       0.011273312 -0.0012100457 0.019904472 -0.0328074
000020 31 93 49 bc aa c8 50 3b 1f 71 39 3c 72 a4 c8 3b
       -0.01230316 0.0031857886 0.011318474 0.006123119
000030 b6 11 e0 bc f8 46 f9 3b 87 64 f5 3c f0 2f eb 3c
       -0.027352195 0.007607337 0.029955162 0.028709382
000040 98 4d d4 3c 5d 13 99 3a 7b 83 28 bc b2 16 c9 3c
       0.025915906 0.0011678744 -0.010285254 0.024546955
000050 75 16 f2 bb 42 ee cc 3c be 25 7e 3b bc 9a 0c bd
       -0.007387931 0.025015954 0.003877982 -0.034327254
000060 45 48 11 3b bb 8f eb 3b c9 f2 3a 3c eb f2 97 bc
       0.002216832 0.007188765 0.011410424 -0.01854845
000070 a8 60 7d bc 9b bf 4e bc 9b a5 b5 bc 8f 56 a2 3c
       -0.015464939 -0.0126189245 -0.022173693 0.019816665
000080 8b ed 83 3b 44 b5 db bb dd 86 b7 3c 56 14 e2 3c
       0.00402612 -0.006704958 0.022403175 0.027597588
000090 e6 55 0f bd 4b 08 c7 3c b4 7b 70 bc 87 93 15 bd
       -0.03499403 0.024295947 -0.014677931 -0.036517646
0000a0 b2 c4 63 3c 8d 2f e8 3c cb 0d a8 3b fb c2 bd 3b
       0.013901876 0.028342986 0.0051285974 0.0057910657
0000b0 ed 06 8f 3b 73 51 d5 bb be 70 60 3b 74 83 ea 3b
       0.0043648393 -0.0065099536 0.0034246887 0.0071567837
0000c0 50 04 d6 3a 9e f4 a3 bc 63 96 41 bb af a8 96 bc
       0.001632819 -0.020014104 -0.00295391 -0.018390981
0000d0 35 d6 3a bc 79 07 0f bd ba 22 63 3c 53 b8 41 3c
       -0.01140361 -0.034919236 0.01386326 0.0118237315
0000e0 70 dc 10 bc 2c 52 90 3c 95 af d4 3b 86 07 62 bc
       -0.008841619 0.017617308 0.0064906576 -0.013795739
0000f0 6d 9d c2 bc 08 32 6f 3c c8 58 06 bd 6a 90 86 bb
       -0.023756707 0.014599331 -0.032799512 -0.004106571
000100 3b 7a a2 3c 24 38 81 3c 91 0b be bc 11 d1 dc bb
       0.019833675 0.01577384 -0.023198875 -0.00673879
000110 87 5c 9c 3c 70 4f 79 bc 30 5e 92 bc 26 57 15 3c
       0.01908709 -0.015216693 -0.017867178 0.009115016
000120 d6 4d 10 bc a1 fd ba 3b 34 a7 5b 3c 25 e7 d3 3c
       -0.00880762 0.0057065045 0.013406564 0.025867054
000130 09 27 e0 3b 39 a1 6d bd 8b 6b 1f 3d 91 ac 76 3c
       0.006840591 -0.058015082 0.03892092 0.0150557915
000140 e2 3e 99 3c d7 73 62 b9 82 a1 ca 3c 76 05 42 3c
       0.018706743 -0.00021596193 0.024735216 0.011842122
000150 3a 94 c7 bc 60 6e d9 3c 7c 64 5d 3c 46 99 91 3c
       -0.024362672 0.026541889 0.013512727 0.017773282
000160 82 49 97 3c 88 83 11 bc 85 fa 8b bb 4a 8d d2 3b
       0.018467668 -0.008881457 -0.0042718076 0.0064255344
000170 1b 88 f4 bc 70 dc 00 3c 3c aa 51 bc 75 d3 50 bc
       -0.029850056 0.007865056 -0.012796935 -0.012745728
000180 b3 3f bf 3c 40 e1 04 3c e2 23 2d bc a9 0e 49 3c
       0.023345804 0.008110344 -0.010567637 0.012271562
000190 18 17 b2 3c 70 6d 84 3c 3b 5d be 3b 88 13 0b bd
       0.021739528 0.016165465 0.005809454 -0.033954173
0001a0 e7 0b f6 bc 4f 8a 44 3b b7 5f e0 ba a4 ec 8e 3b
       -0.030034972 0.0029989665 -0.0017118369 0.004361706
0001b0 b3 34 cf 3c 80 67 85 bc 33 4f f5 bc 54 6b 84 3c
       0.025293684 -0.016284704 -0.029944992 0.01616446
0001c0 7b 86 ea bb 12 37 d1 ba ba 20 bf 3c 23 6b 81 bc
       -0.0071571446 -0.0015961847 0.023331035 -0.015798157
0001d0 cf 7b e3 3b e4 c6 00 bd 81 07 5b bc 21 80 60 3c
       0.0069422494 -0.031439677 -0.013368488 0.013702423
0001e0 5c 9e da bb cc 61 2b bc 0e 82 c3 3c 1b e0 bb 3c
       -0.00667171 -0.010460328 0.023865726 0.02293401
0001f0 2a b4 a4 bb 2e 17 c7 3c 07 e7 b7 3c a7 7a 7f 3b
       -0.00502636 0.024303045 0.02244903 0.0038983019
000200 34 46 b5 3c c5 94 bf bb 1d 18 df bc c1 89 4d bc
       0.022128202 -0.005846592 -0.027233178 -0.01254505
000210 79 89 c6 bc 94 91 14 bc ad 2c 80 bc 1c bb fd bc
       -0.024235474 -0.009067912 -0.015646303 -0.03097301
000220 1c f0 da bc c9 dd 1c bb 9a 71 d4 3c be a7 d4 bb
       -0.026725821 -0.0023935905 0.025933076 -0.006489723
000230 a1 e7 40 bb 4e f6 71 3c 3a bf a6 3c 0f bc 81 3c
       -0.0029434937 0.014768196 0.020354856 0.015836744
000240 f3 9e 1b 3c 71 80 6d bc 0a 0e b1 bc 03 a2 a9 bb
       0.009498346 -0.014495955 -0.02161314 -0.005176784
000250 b6 50 d8 bc 68 05 6e bb 0a 26 ec 3c ec 85 04 3d
       -0.026405673 -0.003631914 0.028826732 0.03235428
000260 d9 52 d3 3c 3c 1c 02 bc 87 90 91 3c bb 2d 20 bd
       0.02579634 -0.007941302 0.017769111 -0.039106112
000270 b1 9a 0a 3c 76 95 45 bb 1b cc af 3c 9d 33 f7 3a
       0.008459733 -0.00301489 0.02145963 0.0018859986
000280 77 af a0 3b 51 a4 21 3c 3d 82 b9 bc 8b 4a 82 3c
       0.0049037295 0.009865836 -0.02264511 0.015904685
000290 c1 30 7a 3c 95 90 86 bc 01 f7 6e 3b 1a 1e 0c 3c
       0.015270413 -0.016426364 0.0036463144 0.008552099
0002a0 5f 4a df 3a 99 8d 1f 3c 52 cc 6d 3c d0 9b 33 3c
       0.0017035714 0.009738349 0.014514046 0.010962442
0002b0 03 81 94 bc 61 35 15 bc d7 93 97 3c fd f1 64 ba
       -0.018127924 -0.009106965 0.018503113 -0.0008733569
0002c0 01 d9 25 3c 7f ff e6 3c da 86 f2 ba f4 a5 bd bb
       0.010122539 0.028198002 -0.0018503324 -0.0057876054
0002d0 f0 82 18 bc 28 6b 18 3c 90 65 a9 bc 8a 35 94 3c
       -0.009308562 0.009302892 -0.020678312 0.018091936
0002e0 86 72 b6 ba 1f c0 9e 3c bd 50 e2 3c c6 35 a6 3b
       -0.0013919629 0.01937872 0.02762639 0.0050723283
0002f0 11 04 22 bc af dd 1a bc 42 b2 21 ba f1 ac fe bc
       -0.009888665 -0.009452268 -0.0006168225 -0.031088324
000300 66 04 32 3c b4 f6 e1 bc b4 f8 3e bc 54 3b 05 bd
       0.0108653065 -0.027583458 -0.011655975 -0.032527283
000310 2e ea 8d 3b f8 6d a0 bc 72 b4 b6 3c 48 c4 c1 bb
       0.004330895 -0.019583687 0.02230284 -0.005913291
000320 13 59 20 3d 0a ac f9 bc 66 da 52 3c 0d 64 d3 bc
       0.039147448 -0.030477542 0.012869453 -0.025804544
000330 87 6c 2e bd 17 1c ba 3b 36 22 a7 bb 0f 66 45 3c
       -0.04258397 0.005679618 -0.005100514 0.012048258
000340 ca ca 88 bc 53 a4 a4 bb 85 d8 2d 3a 98 27 eb bc
       -0.01669826 -0.005024472 0.000663169 -0.028705403
000350 ce e0 87 3b c0 2f 8a 3c 36 d0 dd bb 47 88 d1 3b
       0.004146672 0.016868472 -0.0067692054 0.0063944194
000360 fe 5a af 3b 06 f8 72 3c b6 11 2a bc f4 02 1d 3b
       0.0053514233 0.014829641 -0.010380199 0.002395806
000370 89 e3 43 bc 0d d3 f8 b9 e7 34 29 3c 0e 48 d6 3c
       -0.011956104 -0.0004745949 0.010327554 0.026157405
000380 7b 82 5d 3b 83 03 77 bb 48 99 1d bd fd b0 0f 3c
       0.0033799696 -0.0037691302 -0.03847626 0.008770225
000390 c4 fa c4 bc 7d 60 92 bc 7c 13 90 bc 88 28 bc 3c
       -0.024045356 -0.017868275 -0.017587416 0.022968546
0003a0 15 f9 75 3c c9 1e 2e 3c c6 1d 2c bc 4a 04 d8 bb
       0.015012999 0.010627457 -0.010505145 -0.006592308
0003b0 1b 3f 67 3b 25 79 72 bc 72 f9 df 3b 2b 47 7a bc
       0.0035285417 -0.014799391 0.006835156 -0.015275757
0003c0 fe 91 4f 3c 7d e0 4d 3b
       0.012669085 0.0031414323
