TBCAS24/intuitivechip_classifier_lcsvsnlcs_run4/SNN_ep-150-isize-1-8-1-hsize-242-bsize-32-lr-0.001-tmax_ms-400.0-Ts-10.0-k-6-dsetPath-IMODE_allchannels_ALLCLASS_auto_nospkfilter_cleaned_12x16_9mvpp_250mvofs_onedac_itail_50nA_ith_10n_ispk_50u_islew_1n_vil_0p825/chip-classifier-3.pt (torch, 253495 bytes, 8 tensors)

thr_h_1 f4 [242]
0	0x3f800000	1.0
1	0x3f800000	1.0
2	0x3f800000	1.0
3	0x3f800000	1.0
4	0x3f800000	1.0
5	0x3f800000	1.0
6	0x3f800000	1.0
7	0x3f800000	1.0
8	0x3f800000	1.0
9	0x3f800000	1.0
10	0x3f800000	1.0
11	0x3f800000	1.0
12	0x3f800000	1.0
13	0x3f800000	1.0
14	0x3f800000	1.0
15	0x3f800000	1.0
16	0x3f800000	1.0
17	0x3f800000	1.0
18	0x3f800000	1.0
19	0x3f800000	1.0
20	0x3f800000	1.0
21	0x3f800000	1.0
22	0x3f800000	1.0
23	0x3f800000	1.0
24	0x3f800000	1.0
25	0x3f800000	1.0
26	0x3f800000	1.0
27	0x3f800000	1.0
28	0x3f800000	1.0
29	0x3f800000	1.0
30	0x3f800000	1.0
31	0x3f800000	1.0
32	0x3f800000	1.0
33	0x3f800000	1.0
34	0x3f800000	1.0
35	0x3f800000	1.0
36	0x3f800000	1.0
37	0x3f800000	1.0
38	0x3f800000	1.0
39	0x3f800000	1.0
40	0x3f800000	1.0
41	0x3f800000	1.0
42	0x3f800000	1.0
43	0x3f800000	1.0
44	0x3f800000	1.0
45	0x3f800000	1.0
46	0x3f800000	1.0
47	0x3f800000	1.0
48	0x3f800000	1.0
49	0x3f800000	1.0
50	0x3f800000	1.0
51	0x3f800000	1.0
52	0x3f800000	1.0
53	0x3f800000	1.0
54	0x3f800000	1.0
55	0x3f800000	1.0
56	0x3f800000	1.0
57	0x3f800000	1.0
58	0x3f800000	1.0
59	0x3f800000	1.0
60	0x3f800000	1.0
61	0x3f800000	1.0
62	0x3f800000	1.0
63	0x3f800000	1.0
64	0x3f800000	1.0
65	0x3f800000	1.0
66	0x3f800000	1.0
67	0x3f800000	1.0
68	0x3f800000	1.0
69	0x3f800000	1.0
70	0x3f800000	1.0
71	0x3f800000	1.0
72	0x3f800000	1.0
73	0x3f800000	1.0
74	0x3f800000	1.0
75	0x3f800000	1.0
76	0x3f800000	1.0
77	0x3f800000	1.0
78	0x3f800000	1.0
79	0x3f800000	1.0
80	0x3f800000	1.0
81	0x3f800000	1.0
82	0x3f800000	1.0
83	0x3f800000	1.0
84	0x3f800000	1.0
85	0x3f800000	1.0
86	0x3f800000	1.0
87	0x3f800000	1.0
88	0x3f800000	1.0
89	0x3f800000	1.0
90	0x3f800000	1.0
91	0x3f800000	1.0
92	0x3f800000	1.0
93	0x3f800000	1.0
94	0x3f800000	1.0
95	0x3f800000	1.0
96	0x3f800000	1.0
97	0x3f800000	1.0
98	0x3f800000	1.0
99	0x3f800000	1.0
100	0x3f800000	1.0
101	0x3f800000	1.0
102	0x3f800000	1.0
103	0x3f800000	1.0
104	0x3f800000	1.0
105	0x3f800000	1.0
106	0x3f800000	1.0
107	0x3f800000	1.0
108	0x3f800000	1.0
109	0x3f800000	1.0
110	0x3f800000	1.0
111	0x3f800000	1.0
112	0x3f800000	1.0
113	0x3f800000	1.0
114	0x3f800000	1.0
115	0x3f800000	1.0
116	0x3f800000	1.0
117	0x3f800000	1.0
118	0x3f800000	1.0
119	0x3f800000	1.0
120	0x3f800000	1.0
121	0x3f800000	1.0
122	0x3f800000	1.0
123	0x3f800000	1.0
124	0x3f800000	1.0
125	0x3f800000	1.0
126	0x3f800000	1.0
127	0x3f800000	1.0
128	0x3f800000	1.0
129	0x3f800000	1.0
130	0x3f800000	1.0
131	0x3f800000	1.0
132	0x3f800000	1.0
133	0x3f800000	1.0
134	0x3f800000	1.0
135	0x3f800000	1.0
136	0x3f800000	1.0
137	0x3f800000	1.0
138	0x3f800000	1.0
139	0x3f800000	1.0
140	0x3f800000	1.0
141	0x3f800000	1.0
142	0x3f800000	1.0
143	0x3f800000	1.0
144	0x3f800000	1.0
145	0x3f800000	1.0
146	0x3f800000	1.0
147	0x3f800000	1.0
148	0x3f800000	1.0
149	0x3f800000	1.0
150	0x3f800000	1.0
151	0x3f800000	1.0
152	0x3f800000	1.0
153	0x3f800000	1.0
154	0x3f800000	1.0
155	0x3f800000	1.0
156	0x3f800000	1.0
157	0x3f800000	1.0
158	0x3f800000	1.0
159	0x3f800000	1.0
160	0x3f800000	1.0
161	0x3f800000	1.0
162	0x3f800000	1.0
163	0x3f800000	1.0
164	0x3f800000	1.0
165	0x3f800000	1.0
166	0x3f800000	1.0
167	0x3f800000	1.0
168	0x3f800000	1.0
169	0x3f800000	1.0
170	0x3f800000	1.0
171	0x3f800000	1.0
172	0x3f800000	1.0
173	0x3f800000	1.0
174	0x3f800000	1.0
175	0x3f800000	1.0
176	0x3f800000	1.0
177	0x3f800000	1.0
178	0x3f800000	1.0
179	0x3f800000	1.0
180	0x3f800000	1.0
181	0x3f800000	1.0
182	0x3f800000	1.0
183	0x3f800000	1.0
184	0x3f800000	1.0
185	0x3f800000	1.0
186	0x3f800000	1.0
187	0x3f800000	1.0
188	0x3f800000	1.0
189	0x3f800000	1.0
190	0x3f800000	1.0
191	0x3f800000	1.0
192	0x3f800000	1.0
193	0x3f800000	1.0
194	0x3f800000	1.0
195	0x3f800000	1.0
196	0x3f800000	1.0
197	0x3f800000	1.0
198	0x3f800000	1.0
199	0x3f800000	1.0
200	0x3f800000	1.0
201	0x3f800000	1.0
202	0x3f800000	1.0
203	0x3f800000	1.0
204	0x3f800000	1.0
205	0x3f800000	1.0
206	0x3f800000	1.0
207	0x3f800000	1.0
208	0x3f800000	1.0
209	0x3f800000	1.0
210	0x3f800000	1.0
211	0x3f800000	1.0
212	0x3f800000	1.0
213	0x3f800000	1.0
214	0x3f800000	1.0
215	0x3f800000	1.0
216	0x3f800000	1.0
217	0x3f800000	1.0
218	0x3f800000	1.0
219	0x3f800000	1.0
220	0x3f800000	1.0
221	0x3f800000	1.0
222	0x3f800000	1.0
223	0x3f800000	1.0
224	0x3f800000	1.0
225	0x3f800000	1.0
226	0x3f800000	1.0
227	0x3f800000	1.0
228	0x3f800000	1.0
229	0x3f800000	1.0
230	0x3f800000	1.0
231	0x3f800000	1.0
232	0x3f800000	1.0
233	0x3f800000	1.0
234	0x3f800000	1.0
235	0x3f800000	1.0
236	0x3f800000	1.0
237	0x3f800000	1.0
238	0x3f800000	1.0
239	0x3f800000	1.0
240	0x3f800000	1.0
241	0x3f800000	1.0

thr_o f4 [6]
0	0x3f800000	1.0
1	0x3f800000	1.0
2	0x3f800000	1.0
3	0x3f800000	1.0
4	0x3f800000	1.0
5	0x3f800000	1.0

i2h.weight f4 [242, 8]
0	0x3dff505f	0.124665014
1	0x3d818024	0.06323269
2	0xbe6443c8	-0.22291481
3	0x3d116d17	0.035504427
4	0x3e1b29b9	0.15152635
5	0x3dbe96df	0.0930612
6	0xbba08fe1	-0.004899964
7	0xbccffdc4	-0.02538956
8	0x3dfd40ab	0.1236585
9	0xbdd782c4	-0.105229884
10	0xbd913eef	-0.07092082
11	0xbccb5447	-0.02482046
12	0xbdbac466	-0.09119491
13	0xbdcc8b2b	-0.09987482
14	0xbcf767c1	-0.03020084
15	0xbddc5598	-0.10758513
16	0x3daef57f	0.085429184
17	0xbd720993	-0.059091162
18	0x3de52600	0.111888885
19	0x3e0d6dc0	0.13811398
20	0x3d2c6603	0.042089473
21	0xbcbe0bcf	-0.02319899
22	0xbd078144	-0.03308226
23	0xbc0510e8	-0.008121707
24	0x3cb7c1f4	0.022431351
25	0xbdcb9b38	-0.09941715
26	0x3c3558b9	0.011068516
27	0xbe0274d9	-0.12739886
28	0xbc652d06	-0.013987785
29	0x3e2b8c86	0.16752824
30	0x3dad6bfb	0.08467861
31	0xbdb16ddb	-0.086635314
32	0xbd653230	-0.055956066
33	0x3d85d120	0.06534028
34	0x3d8786e8	0.06617528
35	0x3d0a7e94	0.03381212
36	0xbd8d1ab9	-0.068898626
37	0xbc380d34	-0.011233617
38	0xbda903a0	-0.082526445
39	0xbda04ace	-0.07826768
40	0xbdfcde89	-0.12347133
41	0x3d8660c4	0.06561425
42	0x3d3d9879	0.046287987
43	0xbdf29899	-0.11845512
44	0x3e179199	0.14801635
45	0x3cc12af5	0.023580054
46	0x3dd5e400	0.10443878
47	0x3d7c0b15	0.061534006
48	0xbe124346	-0.14283475
49	0x3d950f92	0.072783604
50	0x3c8854db	0.016642025
51	0xbbf828da	-0.0075732293
52	0x3d0e4324	0.034732
53	0xbe1121c9	-0.14173044
54	0x3dd68033	0.10473671
55	0xbd8ba26b	-0.06818088
56	0x3def667f	0.116894715
57	0x3dbaf562	0.09128834
58	0xbcc0176a	-0.023448665
59	0xbe1c9e0b	-0.15294664
60	0xbd1f43e9	-0.038883124
61	0x3c42f4aa	0.011899153
62	0x3c0266c7	0.007959074
63	0xbe0c7917	-0.13718067
64	0x3de86467	0.11347275
65	0xbd121069	-0.03566018
66	0x3ea10497	0.31448814
67	0xbdd96e70	-0.106167674
68	0x3e02c3de	0.1277003
69	0x3db3fb04	0.08788112
70	0x3dbbec0c	0.09175882
71	0xbdb3d928	-0.08781654
72	0xbd6c4a5c	-0.057688102
73	0x3daf6327	0.08563834
74	0x3e3c0c8c	0.18364161
75	0xba232e79	-0.00062248815
76	0xbd46bd21	-0.04852021
77	0x3e11927c	0.14216036
78	0x3daced9a	0.084437564
79	0xbe06fe20	-0.13182878
80	0x3d22dcf4	0.0397615
81	0xba95f39e	-0.0011440401
82	0xbe07efd5	-0.13275082
83	0x3cc8ed56	0.024527233
84	0x3e01ad07	0.12663661
85	0x3df60d6f	0.12014281
86	0xbdcf8763	-0.10133245
87	0xbc8d69a3	-0.017262286
88	0x3d90ac8d	0.070641614
89	0xbd3c42c3	-0.045962106
90	0xbde13214	-0.1099588
91	0x3e02c96e	0.12772152
92	0xbcbbf947	-0.022946013
93	0x3da2c353	0.079474114
94	0x3d5fc69a	0.05463276
95	0x3b9d58f9	0.004801866
96	0x3d824604	0.06361011
97	0xbcbe5973	-0.023236012
98	0x3e1517cc	0.14559859
99	0x3cbf3b84	0.023343809
100	0x3df4ccb5	0.11953107
101	0xbc5f870c	-0.0136430375
102	0x3e1d8786	0.1538373
103	0xbdbeddef	-0.09319674
104	0x3e0d0d8d	0.137747
105	0x3c741f2c	0.01490001
106	0x3dcf5ee6	0.10125522
107	0xbdc07aa8	-0.09398395
108	0xbc80bc46	-0.015714776
109	0xbda0b122	-0.078462854
110	0x3da4efd1	0.08053554
111	0x3c2913ca	0.0103196595
112	0xbd83b30d	-0.064306356
113	0x3d207e7a	0.039183117
114	0x3e276daa	0.16350427
115	0xbe153591	-0.14571215
116	0xbe00564c	-0.1253292
117	0xbda7dfff	-0.08197021
118	0xbe2e63fe	-0.17030331
119	0x3c84c8ae	0.016208973
120	0x3c786bc3	0.015162411
121	0xbdd720da	-0.10504313
122	0xbe058f05	-0.13042839
123	0xbcbec9a0	-0.023289502
124	0xbe1fbe71	-0.15599991
125	0x3dcd47f5	0.1002349
126	0xbc711b00	-0.01471591
127	0x3d8e9c4c	0.06963405
128	0xbc1cfc61	-0.009581656
129	0xbdde464c	-0.10853252
130	0x3e110d18	0.14165151
131	0xbdad7f51	-0.08471549
132	0x3daf6027	0.085632615
133	0xbc5091be	-0.01273006
134	0xbd73cf05	-0.0595236
135	0x3e26dab4	0.16294366
136	0xbd8b8c57	-0.06813877
137	0xbdd87e6d	-0.10570989
138	0xbdf3fb9c	-0.11913225
139	0x3deff065	0.117157735
140	0x3b0f82e8	0.0021898095
141	0xbdd1d56c	-0.10245785
142	0x3cde7df8	0.027159676
143	0x3df0f001	0.11764527
144	0xbd8e2a6e	-0.069416866
145	0x3dd53c0d	0.104118444
146	0xbe65cda3	-0.22441725
147	0x3dd82520	0.10553956
148	0xbd2fc208	-0.042909652
149	0x3d2164bf	0.03940272
150	0x3d88ea7b	0.066853486
151	0x3e0d6d92	0.13811329
152	0x3d8ea8fd	0.06965826
153	0x3c059494	0.0081531
154	0xbe6e78f9	-0.23288335
155	0x3d4810ef	0.048844274
156	0x3d78ae68	0.0607132
157	0x3d037af9	0.032099698
158	0x3ce8b29e	0.028405484
159	0x3d78ef3f	0.060775038
160	0xbca4b4a4	-0.020105667
161	0xbda0ff78	-0.07861227
162	0xbd941f66	-0.07232551
163	0x3d32589a	0.04354153
164	0xbd91e2e7	-0.07123356
165	0x3dc89767	0.09794503
166	0x3dcb422d	0.099247314
167	0xbc209835	-0.009801914
168	0xbbf0faf6	-0.0073541356
169	0xbc756c20	-0.014979392
170	0x3e3451fc	0.176094
171	0xbd756c1a	-0.059917547
172	0x3e084fb3	0.13311653
173	0x3e0c44d9	0.13698138
174	0xbc9102a3	-0.017701453
175	0xbd99a942	-0.075029865
176	0xbd718d8b	-0.058972877
177	0xbe24c77c	-0.16091722
178	0x3d669106	0.05629065
179	0x3dd08db3	0.10183277
180	0x3dc81758	0.097700775
181	0x3bd09b45	0.006366166
182	0xbde3272f	-0.11091458
183	0xbd8678ce	-0.065660104
184	0x3e05f98a	0.13083473
185	0x3db23af2	0.08702649
186	0xbce5d489	-0.028055446
187	0xbb6b5723	-0.0035910092
188	0x3b048828	0.0020222757
189	0xbdca7a84	-0.09886649
190	0xbded7577	-0.1159467
191	0x3c17ca7a	0.009264583
192	0xbcc04ca9	-0.023474054
193	0xbe2372d8	-0.15961778
194	0x3e0ad65f	0.13558339
195	0x3d3f423d	0.04669403
196	0x3d2fff44	0.04296805
197	0xbe331c5b	-0.17491286
198	0x3c960d12	0.01831678
199	0xbe029800	-0.12753296
200	0xbd073dbe	-0.033017866
201	0xbd174dd8	-0.036939472
202	0x3db6e084	0.08929542
203	0x3dae97ba	0.08525033
204	0x3c5fe3a2	0.013665112
205	0x3ddd7300	0.1081295
206	0xbdc72510	-0.09723866
207	0xbdb1c894	-0.08680835
208	0xbda8b94d	-0.08238468
209	0xbd9f789c	-0.07786676
210	0xbe9fe4e0	-0.31229305
211	0x3d89baac	0.06725058
212	0x3c0a8358	0.008454166
213	0x3dfbef57	0.1230151
214	0x3d5bc68e	0.053656153
215	0xbe1bb6ed	-0.152065
216	0xbc7b8948	-0.015352555
217	0x3dd5aacb	0.10432967
218	0x3e7814a9	0.24226631
219	0xbc880751	-0.016605051
220	0xbd1e6177	-0.03866717
221	0x3dd6a6fa	0.10481067
222	0xbd874173	-0.0660428
223	0x3de4438d	0.11145697
224	0x3bb987ce	0.005661941
225	0xbdb049ec	-0.086078495
226	0x3db91df5	0.09038917
227	0x3d17a992	0.03702695
228	0xbcf80d68	-0.03027983
229	0x3a8a3ac7	0.0010546081
230	0x3d1c0118	0.03808698
231	0xbd264d64	-0.04060115
232	0x3e07d47c	0.1326465
233	0x3d243acc	0.040095136
234	0x3ce2d40b	0.027689
235	0x3d850ac6	0.064961955
236	0x3ca87444	0.020563252
237	0xbd438548	-0.04773453
238	0x3da5cb24	0.080953866
239	0x3e1b7d30	0.15184474
240	0x3e14e6ca	0.14541164
241	0xbc8eee8a	-0.017447729
242	0xbe373c8a	-0.17894188
243	0x3d4a27a4	0.04935421
244	0xbe16d602	-0.14730075
245	0x3d621e06	0.055204414
246	0x3e02c669	0.12771
247	0x3dd9f99f	0.106433146
248	0xbddfda29	-0.109302826
249	0xbd042a39	-0.03226683
250	0x3e882fba	0.26598912
251	0xbe3abdab	-0.18236415
252	0xbd94e719	-0.07270641
253	0xbb20231c	-0.002443499
254	0x3d0f852e	0.03503912
255	0xbe4a3081	-0.19745065

i2h.bias f4 [242]
0	0x3b9d1eeb	0.0047949455
1	0xbb9cee84	-0.0047891755
2	0xbc11a766	-0.008890009
3	0xbd029334	-0.031878665
4	0xbb0788fd	-0.0020681017
5	0xbcf4834c	-0.029847763
6	0xbc9bb138	-0.019005403
7	0x3c248f11	0.010043875
8	0x3c49bdf9	0.012313359
9	0x3b98b508	0.0046602525
10	0x3b4cad9b	0.0031231407
11	0xbc84ca7b	-0.016209831
12	0xbcaaf477	-0.020868523
13	0x3bcde25b	0.006283087
14	0xbca1aae9	-0.019734817
15	0xbc95413f	-0.018219588
16	0xbc8797a2	-0.016551796
17	0x3bcbb2cc	0.0062163826
18	0x3c481999	0.012213134
19	0x3c79266f	0.015206917
20	0xbcc86f38	-0.024467096
21	0x3c0aa7eb	0.008462886
22	0xbc98da96	-0.018658917
23	0x3bde5ff9	0.006786343
24	0xbc1d4314	-0.009598512
25	0xbbba6486	-0.005688253
26	0x3cc97f3a	0.0245968
27	0x3a524435	0.0008021028
28	0xbc810e10	-0.015753776
29	0xbcf88f5d	-0.030341798
30	0xbc06341a	-0.008191133
31	0x3caff72e	0.02148017
32	0x3c005981	0.007833839
33	0x3c96c339	0.018403636
34	0x3c41f603	0.011838439
35	0xbb83fe03	-0.0040280833
36	0xbb9b9f2d	-0.0047492
37	0xbca65801	-0.020305635
38	0xb9a7df38	-0.00032019033
39	0xbcb56d3e	-0.022146817
40	0x3c693214	0.014233131
41	0xbc89bfa2	-0.01681501
42	0x3c838428	0.016054228
43	0xbce277f6	-0.027645092
44	0xbcb3011f	-0.02185112
45	0xbbcfc888	-0.006341044
46	0x3c73b83c	0.014875468
47	0x3c577483	0.013150337
48	0x3c734a70	0.01484929
49	0xba2808a8	-0.0006409981
50	0xba996579	-0.0011703215
51	0x3c1afec2	0.009460153
52	0x3c46000b	0.012084971
53	0x3c615106	0.013752228
54	0x3bc0491f	0.0058680917
55	0x3c01b679	0.00791704
56	0xbceafbfe	-0.028684612
57	0x3c137682	0.009000422
58	0x3cd31e5e	0.025771316
59	0xbb094fd3	-0.002095212
60	0x3c615163	0.013752314
61	0xbc085347	-0.008320636
62	0x3c502fdd	0.012706724
63	0xbcdf7800	-0.0272789
64	0xbc49d9ff	-0.012320041
65	0xbba7d478	-0.005121764
66	0xbba41102	-0.0050069103
67	0xbcc80b76	-0.024419528
68	0xbc66b679	-0.014081591
69	0x3be2ea5e	0.0069249114
70	0xbba08bf8	-0.004899498
71	0x3c5397eb	0.012914638
72	0xbc4b4211	-0.012405888
73	0x3c18a203	0.00931597
74	0xbc8ca981	-0.01717067
75	0xbb73b8ef	-0.0037189086
76	0x3bb49fc9	0.005512212
77	0x3c4452b8	0.011982612
78	0xbbf27c0c	-0.0074000414
79	0xbb42635f	-0.002966128
80	0xbcc400bb	-0.02392613
81	0x3c4396ca	0.011937806
82	0x3be2338d	0.006903118
83	0xbaf4185d	-0.0018622983
84	0x3cce3601	0.025172235
85	0x3b37cf7c	0.0028047254
86	0xbc141fad	-0.009040755
87	0xbcaa3940	-0.020779252
88	0x3c713852	0.0147229
89	0x3bb3047c	0.005463181
90	0xbc22034c	-0.009888481
91	0x3cbe40e1	0.023224296
92	0xbb1732a8	-0.0023070965
93	0x3cd66880	0.026172876
94	0xbc4e5fc2	-0.012596073
95	0x3b32a723	0.0027260266
96	0xba9d6acf	-0.0012009981
97	0xbc3e70f7	-0.011623613
98	0xbcced871	-0.025249692
99	0xbca733ad	-0.020410383
100	0x3bf31aa5	0.0074189478
101	0x3cd8ac6b	0.026449403
102	0xbc4c5c86	-0.012473231
103	0xbcd79dff	-0.026320456
104	0xbbf61b22	-0.0075105587
105	0x3c885f30	0.016646951
106	0x3aeea8bc	0.0018208246
107	0xbbece1dc	-0.007229073
108	0x3bb03ae6	0.005378115
109	0x3c917622	0.017756525
110	0xbc03cf66	-0.008045053
111	0xbc70bff0	-0.014694199
112	0xbca7697d	-0.020436043
113	0xbb321a69	-0.0027176386
114	0xbbafa043	-0.005359681
115	0xbcb9d0d3	-0.022682583
116	0x3bf3cc87	0.007440153
117	0x3c48922a	0.0122418795
118	0xbc0dcd19	-0.008654856
119	0x3b07f184	0.002074332
120	0xbc541d70	-0.012946472
121	0x3c26cff1	0.010181413
122	0xbb929182	-0.0044729123
123	0x3c36af5e	0.011150209
124	0xbba2665a	-0.004956049
125	0xbaeb6b10	-0.0017960984
126	0xbb79c65a	-0.0038112612
127	0x3c7bdfc5	0.015373175
128	0xbc5bc98e	-0.013414754
129	0x3ba0d976	0.004908736
130	0xbc50240d	-0.012703908
131	0x3c406845	0.01174361
132	0xbc1c9dd4	-0.0095591135
133	0xba71edfc	-0.0009228883
134	0xbc913fc0	-0.017730594
135	0xb9f8cd61	-0.00047455265
136	0x3b37823e	0.0028001214
137	0xbba7a9bb	-0.005116669
138	0xbb0c518d	-0.0021410913
139	0xbbedc3ef	-0.007256023
140	0xbb194117	-0.0023384744
141	0x3c6d6996	0.014490506
142	0xbc04ff06	-0.008117443
143	0xbc015d76	-0.007895818
144	0xbb8518fb	-0.004061816
145	0xba823472	-0.0009933843
146	0x3ae623bf	0.0017558261
147	0xbc98bd4d	-0.018644953
148	0x3c0a3c06	0.008437162
149	0x3c5ee12e	0.013603492
150	0xbaa98db8	-0.0012935912
151	0x3a7389da	0.0009290256
152	0xbc9ac545	-0.018892894
153	0x3c511cf6	0.0127632525
154	0xbb73f8c6	-0.0037227138
155	0x3b7d00f8	0.0038605314
156	0xbbe3d7de	-0.0069532236
157	0xbca01d91	-0.019545348
158	0xbb0498dc	-0.0020232713
159	0x3c240a45	0.010012214
160	0xbc9e6445	-0.019334922
161	0x3c95b133	0.018272972
162	0x3c936221	0.017991127
163	0x3c3fe4cd	0.011712265
164	0xbc93e0ca	-0.018051524
165	0xbc496fb5	-0.012294699
166	0x3c8934c9	0.016748803
167	0x3c43bc4c	0.011946749
168	0x3a92df63	0.001120549
169	0x3c0794b1	0.008275197
170	0x3c54bb9d	0.012984184
171	0x3c6c2d4a	0.014415095
172	0xbca09810	-0.019603759
173	0xbbba1565	-0.00567882
174	0xbcbbc083	-0.022918945
175	0xbb81c389	-0.003960077
176	0x3a5beda3	0.00083895976
177	0xbc39432f	-0.011307522
178	0xbc97e77a	-0.018542994
179	0xbba3e73f	-0.005001932
180	0xbc69c26d	-0.014267546
181	0x3be53539	0.00699487
182	0x3b6868cc	0.0035462854
183	0x3c7b55be	0.015340267
184	0xbbd20faa	-0.0064105587
185	0x396ec14e	0.0002276946
186	0x3b9f16f6	0.004855032
187	0x3c569b9b	0.013098623
188	0x3c493509	0.012280711
189	0xbb6e0569	-0.0036319143
190	0x3b8d927a	0.00432044
191	0x3c927ed0	0.017882735
192	0x3c9139ff	0.01772785
193	0x3c37e262	0.011223407
194	0xbb6c39ac	-0.0036045117
195	0x3b0d3213	0.002154474
196	0x3c2acba7	0.010424531
197	0xbc895cd7	-0.016767902
198	0x3ae8f7ae	0.001777401
199	0x3bd9fb40	0.006652266
200	0x3c5125ef	0.012765392
201	0xbc41684c	-0.0118046515
202	0x3c8f52d4	0.01749555
203	0x3b1f8723	0.0024342022
204	0xbc8814a9	-0.016611414
205	0x3c2997d7	0.010351143
206	0x3ca44686	0.02005316
207	0x3bd35d9d	0.0064503686
208	0xbbabd0c5	-0.005243393
209	0x3c328c0a	0.010897646
210	0xbd076a85	-0.03306057
211	0x3c506e04	0.012721542
212	0xbc76d052	-0.015064316
213	0xbb27706c	-0.0025549186
214	0x3c2ecaa7	0.010668433
215	0x3ca9533d	0.020669574
216	0x3be7f8eb	0.007079234
217	0xbc4ce339	-0.012505346
218	0xbbb542b5	-0.0055316337
219	0xbc587b50	-0.013212994
220	0xbb3acfd1	-0.0028505216
221	0x3ad4ab2b	0.0016225328
222	0xbb4a9c77	-0.0030916014
223	0xbcbfb8fc	-0.023403637
224	0xbb4780c0	-0.0030441731
225	0xbca265ba	-0.019823898
226	0x3c8a7d87	0.01690556
227	0xbc910ff3	-0.0177078
228	0xbb1efc10	-0.0024259128
229	0x3a52b287	0.0008037467
230	0x3b9af6bd	0.0047291205
231	0x3cc6de94	0.024276055
232	0x3c5c5754	0.013448555
233	0x3c0f5f56	0.008750757
234	0xbc2b3744	-0.010450188
235	0xbc8ad15d	-0.016945535
236	0xbc90a7f9	-0.01765822
237	0x3c0d2b49	0.008616277
238	0x3cb2d3f5	0.021829585
239	0x3c1505c3	0.009095612
240	0x3cba9a4b	0.02277865
241	0x3c7dafe5	0.015483831

h2o.weight f4 [6, 242]
0	0x3de8ebc7	0.11373096
1	0xbd0435b3	-0.032277774
2	0x3dd021d4	0.10162702
3	0xbd51cb97	-0.05121955
4	0xbdfc0413	-0.123054646
5	0xbe108ed9	-0.14116992
6	0xbd90205e	-0.070374236
7	0x3cc3944f	0.02387443
8	0x3b8efde4	0.004363762
9	0xbd1d3eeb	-0.03839008
10	0xbc951a09	-0.018200891
11	0xbdcf9c4e	-0.10137235
12	0xbe143a1e	-0.14475295
13	0x3d708e42	0.058729418
14	0x3c646486	0.013939982
15	0xbdb41b8d	-0.087943174
16	0xbd9cf06a	-0.07663043
17	0x3d704ab7	0.058665004
18	0x3dda9fe5	0.10675029
19	0xbdc02e43	-0.09383824
20	0xbd96cca7	-0.07363253
21	0xbdbd7dcc	-0.092525095
22	0xbe171566	-0.14754257
23	0x3df74345	0.120733775
24	0xbe4903dd	-0.1963038
25	0x3d4b2a22	0.049600728
26	0x3d5eb32b	0.054370087
27	0x3de394be	0.11112355
28	0xbdbce1f9	-0.09222788
29	0xbdcc7df3	-0.099849604
30	0x3d8b2e4a	0.06795938
31	0xbda9a9ae	-0.08284317
32	0xbdccaeec	-0.09994301
33	0xbd5f2047	-0.05447414
34	0xbe14e795	-0.14541467
35	0xbdbefad5	-0.09325186
36	0x3c3fb191	0.01170005
37	0xbddf635b	-0.109076224
38	0x3d93d1b6	0.072177336
39	0xbe1bcc7c	-0.15214723
40	0xbdf07aa8	-0.11742145
41	0x3be35425	0.006937521
42	0xbdb35d8c	-0.08758077
43	0xbd504ae8	-0.050852686
44	0xbcbb5b8e	-0.022870805
45	0x3dbfa9b2	0.09358539
46	0xbd5966c5	-0.053076524
47	0xbcddf965	-0.02709646
48	0x3d06f3c6	0.032947324
49	0x3c01fd92	0.007933991
50	0xbcbf9d8e	-0.023390558
51	0x3e0bc7fd	0.13650508
52	0x3e06d966	0.13168868
53	0x3d6be722	0.057593472
54	0x3d1aa9f2	0.03775973
55	0xbd603742	-0.054740198
56	0xbe1e17a5	-0.15438707
57	0x3dacdf91	0.084410794
58	0x3db12197	0.08648985
59	0x3defce89	0.11709315
60	0x3cf2bd78	0.029631361
61	0xbdfcc676	-0.12342541
62	0x3d4301c6	0.047609113
63	0x3d005afd	0.031336773
64	0xbd8edb4e	-0.06975423
65	0x3b23b41f	0.0024979187
66	0x3d4d611e	0.050141446
67	0xbdc8d0f0	-0.09805477
68	0xbd2a47fd	-0.04157256
69	0x3e100e01	0.14067842
70	0xbd445396	-0.047931276
71	0x3bb41af0	0.0054963753
72	0xbd492411	-0.04910666
73	0xbc83c84c	-0.01608672
74	0xbe172cb9	-0.14763154
75	0xbd25783f	-0.04039788
76	0xbe1bfe68	-0.15233767
77	0xbd55bfa8	-0.05218473
78	0xbdc8b3ee	-0.09799944
79	0xbb7dd4d9	-0.0038731603
80	0x3e0676bc	0.13131231
81	0xbdff4339	-0.124639936
82	0xbe0b1308	-0.13581479
83	0xbe20c686	-0.1570073
84	0x3df87e32	0.12133445
85	0x3c48a59b	0.012246515
86	0x3ccb0941	0.024784686
87	0xbdd21da6	-0.10259561
88	0x3e215ba8	0.1575762
89	0x3d4b5569	0.049642
90	0xbe0d17c0	-0.13778591
91	0xbd76cd4b	-0.060254376
92	0x3d304373	0.043033075
93	0x3d51eba3	0.05125011
94	0xbcbd3563	-0.023096746
95	0x3d7d82e2	0.061892398
96	0xbdf5985f	-0.11991953
97	0xbdcef8c7	-0.10106044
98	0xbdf4e910	-0.11958516
99	0x3cbe3a4f	0.023221163
100	0xbe142fdc	-0.14471382
101	0x3da465af	0.08027207
102	0xbe395a98	-0.18100965
103	0x3bf54832	0.007485413
104	0x3dd73050	0.10507262
105	0x3d9e9b26	0.07744436
106	0xbe35b874	-0.17746145
107	0xbe09b699	-0.13448562
108	0x3d287a9d	0.041132558
109	0x3d814316	0.06311624
110	0xbca79da6	-0.020460915
111	0xbd84741a	-0.06467457
112	0x3d887350	0.06662619
113	0x3e100c8d	0.14067288
114	0xbcf96359	-0.03044288
115	0xbe1589f4	-0.14603406
116	0x3d864530	0.06556165
117	0xbdb5d414	-0.08878341
118	0xbdc6e548	-0.09711701
119	0x3db33786	0.08750825
120	0x3db0115b	0.0859706
121	0xbe0d575a	-0.13802853
122	0xbd3ba087	-0.045807388
123	0xbbfda611	-0.007740744
124	0xbd87ae35	-0.06625024
125	0xbe09f652	-0.1347287
126	0x3e05cd03	0.13066487
127	0xbd40b211	-0.047044817
128	0xbd833f0a	-0.06408508
129	0xbdd9242d	-0.10602603
130	0xbdbb75fd	-0.09153364
131	0x3d209c54	0.039211586
132	0xbcfe7ed5	-0.031066338
133	0xbdbefc6f	-0.09325492
134	0x3df70683	0.12061789
135	0x3da6bc95	0.08141438
136	0x3e113295	0.14179452
137	0x3e04b735	0.12960513
138	0xbdbd529e	-0.092442736
139	0x3cac4f50	0.021033913
140	0xbdf00622	-0.1171992
141	0x3c2271ba	0.00991481
142	0xbe0903d4	-0.13380367
143	0x3ddd3a3d	0.10802124
144	0xbdb407b6	-0.08790533
145	0x3e088a38	0.13333976
146	0xbd9833dc	-0.074317664
147	0xbe1480c9	-0.14502253
148	0x3ccec80f	0.02524188
149	0x3e1dda74	0.15415365
150	0xbe02d735	-0.12777407
151	0x3d460365	0.04834308
152	0xbdc40ea1	-0.09573103
153	0x3d1d6d26	0.03843417
154	0xbba8df23	-0.005153553
155	0x3e2868a5	0.16446169
156	0x3d745617	0.059652414
157	0xbe2ca912	-0.1686137
158	0x3d03d1a3	0.032182347
159	0x3e15ac36	0.14616475
160	0xbdcbcb7f	-0.09950923
161	0xbdabde18	-0.083919704
162	0x3e0cd72d	0.13753958
163	0xbdc64eb2	-0.09682979
164	0xbd3a3d5b	-0.04546867
165	0xbdcd9fb7	-0.10040229
166	0x3dab40df	0.083619826
167	0x3dcdd17c	0.100497216
168	0xbd94502b	-0.07241853
169	0xbd7d2b92	-0.06180913
170	0x3d256166	0.04037609
171	0x3d281357	0.04103407
172	0xbc4257b8	-0.011861734
173	0xbcdfc46b	-0.02731534
174	0xbdde32e0	-0.108495474
175	0x3b667d6c	0.0035169972
176	0x3afbdcaa	0.0019215543
177	0xbe0f7d19	-0.14012565
178	0xbc4d9a3c	-0.012548979
179	0xbd869bca	-0.06572683
180	0xbd2f38bd	-0.04277872
181	0x3e07ffc6	0.13281164
182	0xbddb04d7	-0.106942825
183	0x3d9de255	0.07709185
184	0x3d334cbb	0.043774348
185	0xbde373d3	-0.11106076
186	0xbe003077	-0.12518488
187	0x3db7f1d6	0.089816734
188	0xbda2c378	-0.07947439
189	0xbddc28a1	-0.10749937
190	0xbcfb81ce	-0.030701544
191	0x3e1c0ebe	0.15239999
192	0x3d8c2f2c	0.06844935
193	0x3e1dbeb7	0.15404783
194	0x3da18b5e	0.0788791
195	0xbd0ef1ec	-0.034898683
196	0x3cd71846	0.026256692
197	0xbd01e315	-0.031710703
198	0x3cce3be9	0.025175052
199	0x3deced2d	0.11568675
200	0xbdc9bc0f	-0.098503225
201	0x3c3f4f18	0.011676572
202	0xbc7284ab	-0.014802138
203	0xbe13821f	-0.14405106
204	0x3dbf000f	0.09326183
205	0x3d0f4a51	0.034982983
206	0x3d443e5a	0.047911026
207	0x3c37695f	0.011194556
208	0x3df6290a	0.12019546
209	0x3df1d566	0.11808281
210	0xbda6347f	-0.081154816
211	0x3d0dcc6d	0.034618784
212	0x3ddbdfb4	0.10736027
213	0xbe417d0d	-0.1889536
214	0xbe09fa86	-0.13474473
215	0x3e183fa4	0.14868027
216	0x3c00cafd	0.007860896
217	0x3d7240fb	0.059144
218	0x3d74d742	0.0597756
219	0x3deb5408	0.11490637
220	0x3e132bc7	0.14372168
221	0x3c9eb4f1	0.019373389
222	0xbde12302	-0.10993005
223	0x3d48ef1c	0.049056157
224	0x3da7eb56	0.08199184
225	0xbde38661	-0.11109615
226	0x3d9893b6	0.074500486
227	0xbe29f630	-0.1659782
228	0xbcb5f4f2	-0.022211526
229	0x3dcc5f7b	0.09979149
230	0xbdf20025	-0.11816434
231	0x3e05bcd2	0.1306031
232	0x3dd29f2a	0.102842644
233	0xbce86037	-0.028366191
234	0xbe1909e9	-0.14945187
235	0x3da1dac3	0.079030536
236	0xbe0789d0	-0.13236165
237	0xbbf04237	-0.007332112
238	0x3e1114a2	0.14168027
239	0x3e2b30ea	0.16717878
240	0xbdc74632	-0.097301856
241	0x3ca8d5e4	0.020609803
242	0xbe253049	-0.161317
243	0x3c1cdb2c	0.009573739
244	0xbbb9011d	-0.0056458847
245	0xbe1e8a7e	-0.15482518
246	0x3c32905a	0.010898674
247	0xbc59ba5d	-0.013289061
248	0x3da470d6	0.08029334
249	0xbc5597b4	-0.013036657
250	0xbc6fba44	-0.0146318115
251	0x3dd843bb	0.105597936
252	0xbd60711f	-0.05479538
253	0x3e151a72	0.1456087
254	0xbdc72337	-0.097235136
255	0x3e2548fc	0.16141123

h2o.bias f4 [6]
0	0x3c9f4fe8	0.019447282
1	0x3c7cef1a	0.015437866
2	0x3c870751	0.01648298
3	0xbcdfb7c2	-0.027309302
4	0x3c2f7ffd	0.010711667
5	0x3cdfb115	0.027306119

h2h.weight f4 [242, 242]
0	0xbc76a7a1	-0.015054614
1	0xbcbcc599	-0.02304344
2	0xbdae114c	-0.08499393
3	0xbc9de05e	-0.019272026
4	0xbcb194e9	-0.021677451
5	0x3de3ef63	0.11129644
6	0x3d114c92	0.035473414
7	0x3d2b83d5	0.04187377
8	0xbd3bfb93	-0.045894217
9	0x3da49237	0.08035701
10	0x3db09652	0.08622421
11	0xbb75462e	-0.0037425864
12	0x3d583ab7	0.05279037
13	0xbe5c4b4f	-0.21513103
14	0xbd803021	-0.0625918
15	0x3cc13ee5	0.02358956
16	0xbc995b15	-0.01872019
17	0xbdef262c	-0.116772026
18	0xbb30d29f	-0.0026981009
19	0x3c271de8	0.010200001
20	0x3cba730f	0.022759942
21	0x3cbbfded	0.02294823
22	0xbd073be6	-0.033016108
23	0xbc6806ec	-0.014161807
24	0x3c9fe2dd	0.019517357
25	0x3ce84b25	0.028356144
26	0xbd6f4afe	-0.058421127
27	0x3ba14cfc	0.0049225073
28	0x3bf0034a	0.007324611
29	0xbda66257	-0.081242256
30	0xbdd5c96d	-0.104388095
31	0xbdb81c8a	-0.089898184
32	0x3c72a7f5	0.014810552
33	0x3d123083	0.035690796
34	0x3d3d4d35	0.04621621
35	0xbe00d271	-0.12580277
36	0x3d1973eb	0.037464064
37	0x3d37e829	0.04489914
38	0xbd85bfb0	-0.06530702
39	0xbd7be800	-0.06150055
40	0x3c90f42a	0.017694551
41	0x3df8b8ff	0.1214466
42	0x3e19d49f	0.15022515
43	0xbd6add3b	-0.057339888
44	0x3dc0d2e2	0.09415223
45	0x3c5ade1f	0.013358622
46	0xbd0345de	-0.032049052
47	0xbdf7cee9	-0.12100012
48	0x3d8eea25	0.06978253
49	0x3d087bdd	0.03332125
50	0xbd45318e	-0.048142962
51	0x3dcc2a09	0.09968955
52	0xb8e7d586	-0.0001105471
53	0xbda3122c	-0.079624504
54	0xbe0ea125	-0.1392866
55	0x3c8aedd8	0.016959116
56	0xbd422109	-0.047394786
57	0xbc41222f	-0.011787935
58	0xbd19bcc7	-0.037533548
59	0x3dbeeb26	0.09322195
60	0x3d003316	0.03129872
61	0xbc9e9119	-0.019356297
62	0xbb2d02fc	-0.0026399484
63	0x3d633572	0.05547089
64	0x3d45c9ed	0.048288275
65	0xbdaf56f4	-0.08561507
66	0x3d42affd	0.047531117
67	0x3c51cb81	0.012804867
68	0xbd03ad39	-0.03214762
69	0xbdb02c7b	-0.08602234
70	0xbd539f8e	-0.051665835
71	0xbd3e64f9	-0.046483014
72	0xbd52e433	-0.05148716
73	0x3c2bdda6	0.010489857
74	0xbda355ac	-0.07975325
75	0x3d705c62	0.058681853
76	0x3c7bf7f1	0.015378938
77	0xbd38b45f	-0.04509389
78	0xbc689437	-0.014195493
79	0xbd0f1213	-0.034929346
80	0x3d44c27a	0.04803703
81	0xbca40294	-0.02002076
82	0x3d88781a	0.066635326
83	0xbd486596	-0.048925005
84	0xbcc3c118	-0.023895785
85	0x3c6d1bb1	0.014471934
86	0x3ce4e470	0.027940959
87	0x3d39dedf	0.045378562
88	0xbd8cdd4f	-0.06878149
89	0xbe368e54	-0.17827731
90	0xbc8aac21	-0.01692778
91	0x3e1198ee	0.14218494
92	0xbc7ae80a	-0.0153141115
93	0x3d0d419b	0.034486394
94	0xbcb3140a	-0.021860141
95	0x3d3c7b34	0.046015933
96	0x3e0c0011	0.136719
97	0xbb27b422	-0.0025589545
98	0x3abbacdf	0.0014318487
99	0xbda20394	-0.07910839
100	0x3d4c7077	0.049911942
101	0xbd068a1c	-0.032846555
102	0xbdb29deb	-0.08721527
103	0x3d642129	0.055695686
104	0x3d4ea3d2	0.0504492
105	0xbda5faed	-0.08104501
106	0xbd8caa3a	-0.06868406
107	0xbd2373a9	-0.039905224
108	0xbbd347bc	-0.0064477604
109	0xbdbfa4cb	-0.09357604
110	0x3d3b7370	0.045764387
111	0xbce8d7c2	-0.028423194
112	0xbc88b99b	-0.016690066
113	0x3d16aadf	0.03678405
114	0x3b861499	0.004091811
115	0xbdc1d37c	-0.094641656
116	0x3d347811	0.044059817
117	0x3c3407e6	0.010988211
118	0xbcc8dc22	-0.02451903
119	0x3c9d85fa	0.019228924
120	0x3dee1e97	0.11626928
121	0xbd274705	-0.040839214
122	0x3da963a3	0.08270957
123	0xbd18b434	-0.03728123
124	0xbb6434e1	-0.0034821557
125	0xbbdbb6eb	-0.006705155
126	0x3e033319	0.12812461
127	0x3e10cba4	0.14140183
128	0x3e1cf599	0.15328063
129	0xbddb92f2	-0.10721387
130	0xbde426a2	-0.11140181
131	0x3d9b9adc	0.075978965
132	0x3db8df94	0.09027019
133	0xbd057393	-0.032580923
134	0xbb9dd9de	-0.0048172316
135	0xbd406ab7	-0.04697677
136	0x3d8a2187	0.06744676
137	0x3c577ac2	0.013151826
138	0x3d034760	0.03205049
139	0xbd1a7b07	-0.037714984
140	0x3d6bc67f	0.057562348
141	0xbc4991f6	-0.012302866
142	0xbdf1a8ad	-0.117997505
143	0xbd9cc76d	-0.07655225
144	0x3d892618	0.06696719
145	0xbc2f5925	-0.010702406
146	0x3c9af3f6	0.018915158
147	0xbc3cb9f7	-0.011518947
148	0xbb84d528	-0.0040537305
149	0x3e04d201	0.12970735
150	0x3cc9ae65	0.02461929
151	0x3b57597b	0.003285973
152	0xbdb85e30	-0.0900234
153	0x3df56c03	0.11983492
154	0x3dd0e557	0.10199993
155	0x3d20efe0	0.039291263
156	0x3d03dab1	0.032190982
157	0x3d0619ad	0.03273933
158	0xbb8cd790	-0.004298158
159	0xbe00a39a	-0.12562409
160	0x3a609782	0.00085674983
161	0xbdc8b6e6	-0.0980051
162	0x3cf97b31	0.03045425
163	0xbd969857	-0.07353275
164	0x3c5df5ab	0.013547341
165	0x3d7b1a71	0.061304513
166	0xbd2ed8a3	-0.04268707
167	0xbcd0f12d	-0.025505627
168	0x3db8446b	0.08997425
169	0x3d623b78	0.055232495
170	0xbd9ea821	-0.07746912
171	0xbc283ac0	-0.010267913
172	0xbd9f7054	-0.07785097
173	0x3e0b95de	0.13631389
174	0xbd9db938	-0.07701343
175	0x3c124e33	0.008929777
176	0x3d1bb7b4	0.03801699
177	0x3e0ba0e6	0.13635597
178	0xbdfb3571	-0.122660525
179	0x3d684b1e	0.056712262
180	0xbd186265	-0.03720321
181	0xbc6f8fed	-0.014621717
182	0xba6ab7c5	-0.00089537754
183	0xbe0ff869	-0.14059605
184	0x3d686b0b	0.05674271
185	0x3c801424	0.015634604
186	0x3d5cef1b	0.053938966
187	0x3ad8bf7b	0.0016536558
188	0xbc0549f8	-0.008135311
189	0x3d8062dc	0.06268856
190	0x3d7b11e6	0.061296366
191	0xbc395d73	-0.011313784
192	0xbc343870	-0.010999784
193	0x3e049127	0.12945996
194	0x3ccab735	0.024745563
195	0x3d01ad57	0.03165945
196	0xbd2e0d6e	-0.042493276
197	0xbd3a8849	-0.045540128
198	0x3d939341	0.07205821
199	0xbcce83da	-0.025209356
200	0xbd283336	-0.041064464
201	0x3bf277e8	0.007399548
202	0xbc46a68a	-0.012124667
203	0x3ba44775	0.005013401
204	0xbc174180	-0.009231925
205	0xbd9d20ea	-0.076722935
206	0x3d56b1c2	0.052415617
207	0x3d3cc112	0.046082564
208	0xbd078142	-0.033082254
209	0x3d291098	0.04127559
210	0xbc497d29	-0.012297907
211	0x3bfe05f8	0.0077521764
212	0xbd4be494	-0.049778536
213	0x3c328a04	0.010897163
214	0x3dca11d2	0.0986668
215	0x3c426d4a	0.011866877
216	0xbdb3cfcb	-0.08779868
217	0xbd9ec7af	-0.077529304
218	0x3e0b409f	0.1359887
219	0x3e27e2ad	0.16395064
220	0x3d534df8	0.05158803
221	0xbc881e8a	-0.016616125
222	0xbdedb3f3	-0.11606588
223	0xbd2332ce	-0.039843373
224	0x3d330cdd	0.04371344
225	0x3d036188	0.032075435
226	0x3bd26ad2	0.0064214254
227	0xbd9f7611	-0.07786191
228	0x3a973a10	0.001153769
229	0xbcedd2c9	-0.029031174
230	0xbc0ca92b	-0.008585255
231	0xbd8ad088	-0.067780554
232	0x3ddc4b2c	0.107565254
233	0x3d19ca4b	0.037546437
234	0x3cba40f0	0.022736043
235	0xbdc6da1b	-0.09709569
236	0xbd149f07	-0.036284473
237	0x3db2ec3e	0.08736466
238	0x3d9aff20	0.075681925
239	0xbd15a39e	-0.03653299
240	0xbc69225c	-0.014229383
241	0x3da768d3	0.081742905
242	0x3d96d873	0.07365503
243	0xbe02d30b	-0.12775819
244	0x3c1f97c6	0.009740775
245	0x3d107d69	0.03527585
246	0xbe32034f	-0.17384075
247	0x3e244361	0.16041328
248	0x3cc12b82	0.023580316
249	0xbe228042	-0.15869239
250	0x3df6285f	0.12019419
251	0x3db733a5	0.08945397
252	0xbdd00e28	-0.1015895
253	0x3da01946	0.078173205
254	0x3e061328	0.13093245
255	0x3dbdfc01	0.092765816

h2h.bias f4 [242]
0	0x3b9d1eeb	0.0047949455
1	0xbb9cee84	-0.0047891755
2	0xbc11a766	-0.008890009
3	0xbd029334	-0.031878665
4	0xbb0788fd	-0.0020681017
5	0xbcf4834c	-0.029847763
6	0xbc9bb138	-0.019005403
7	0x3c248f11	0.010043875
8	0x3c49bdf9	0.012313359
9	0x3b98b508	0.0046602525
10	0x3b4cad9b	0.0031231407
11	0xbc84ca7b	-0.016209831
12	0xbcaaf477	-0.020868523
13	0x3bcde25b	0.006283087
14	0xbca1aae9	-0.019734817
15	0xbc95413f	-0.018219588
16	0xbc8797a2	-0.016551796
17	0x3bcbb2cc	0.0062163826
18	0x3c481999	0.012213134
19	0x3c79266f	0.015206917
20	0xbcc86f38	-0.024467096
21	0x3c0aa7eb	0.008462886
22	0xbc98da96	-0.018658917
23	0x3bde5ff9	0.006786343
24	0xbc1d4314	-0.009598512
25	0xbbba6486	-0.005688253
26	0x3cc97f3a	0.0245968
27	0x3a524435	0.0008021028
28	0xbc810e10	-0.015753776
29	0xbcf88f5d	-0.030341798
30	0xbc06341a	-0.008191133
31	0x3caff72e	0.02148017
32	0x3c005981	0.007833839
33	0x3c96c339	0.018403636
34	0x3c41f603	0.011838439
35	0xbb83fe03	-0.0040280833
36	0xbb9b9f2d	-0.0047492
37	0xbca65801	-0.020305635
38	0xb9a7df38	-0.00032019033
39	0xbcb56d3e	-0.022146817
40	0x3c693214	0.014233131
41	0xbc89bfa2	-0.01681501
42	0x3c838428	0.016054228
43	0xbce277f6	-0.027645092
44	0xbcb3011f	-0.02185112
45	0xbbcfc888	-0.006341044
46	0x3c73b83c	0.014875468
47	0x3c577483	0.013150337
48	0x3c734a70	0.01484929
49	0xba2808a8	-0.0006409981
50	0xba996579	-0.0011703215
51	0x3c1afec2	0.009460153
52	0x3c46000b	0.012084971
53	0x3c615106	0.013752228
54	0x3bc0491f	0.0058680917
55	0x3c01b679	0.00791704
56	0xbceafbfe	-0.028684612
57	0x3c137682	0.009000422
58	0x3cd31e5e	0.025771316
59	0xbb094fd3	-0.002095212
60	0x3c615163	0.013752314
61	0xbc085347	-0.008320636
62	0x3c502fdd	0.012706724
63	0xbcdf7800	-0.0272789
64	0xbc49d9ff	-0.012320041
65	0xbba7d478	-0.005121764
66	0xbba41102	-0.0050069103
67	0xbcc80b76	-0.024419528
68	0xbc66b679	-0.014081591
69	0x3be2ea5e	0.0069249114
70	0xbba08bf8	-0.004899498
71	0x3c5397eb	0.012914638
72	0xbc4b4211	-0.012405888
73	0x3c18a203	0.00931597
74	0xbc8ca981	-0.01717067
75	0xbb73b8ef	-0.0037189086
76	0x3bb49fc9	0.005512212
77	0x3c4452b8	0.011982612
78	0xbbf27c0c	-0.0074000414
79	0xbb42635f	-0.002966128
80	0xbcc400bb	-0.02392613
81	0x3c4396ca	0.011937806
82	0x3be2338d	0.006903118
83	0xbaf4185d	-0.0018622983
84	0x3cce3601	0.025172235
85	0x3b37cf7c	0.0028047254
86	0xbc141fad	-0.009040755
87	0xbcaa3940	-0.020779252
88	0x3c713852	0.0147229
89	0x3bb3047c	0.005463181
90	0xbc22034c	-0.009888481
91	0x3cbe40e1	0.023224296
92	0xbb1732a8	-0.0023070965
93	0x3cd66880	0.026172876
94	0xbc4e5fc2	-0.012596073
95	0x3b32a723	0.0027260266
96	0xba9d6acf	-0.0012009981
97	0xbc3e70f7	-0.011623613
98	0xbcced871	-0.025249692
99	0xbca733ad	-0.020410383
100	0x3bf31aa5	0.0074189478
101	0x3cd8ac6b	0.026449403
102	0xbc4c5c86	-0.012473231
103	0xbcd79dff	-0.026320456
104	0xbbf61b22	-0.0075105587
105	0x3c885f30	0.016646951
106	0x3aeea8bc	0.0018208246
107	0xbbece1dc	-0.007229073
108	0x3bb03ae6	0.005378115
109	0x3c917622	0.017756525
110	0xbc03cf66	-0.008045053
111	0xbc70bff0	-0.014694199
112	0xbca7697d	-0.020436043
113	0xbb321a69	-0.0027176386
114	0xbbafa043	-0.005359681
115	0xbcb9d0d3	-0.022682583
116	0x3bf3cc87	0.007440153
117	0x3c48922a	0.0122418795
118	0xbc0dcd19	-0.008654856
119	0x3b07f184	0.002074332
120	0xbc541d70	-0.012946472
121	0x3c26cff1	0.010181413
122	0xbb929182	-0.0044729123
123	0x3c36af5e	0.011150209
124	0xbba2665a	-0.004956049
125	0xbaeb6b10	-0.0017960984
126	0xbb79c65a	-0.0038112612
127	0x3c7bdfc5	0.015373175
128	0xbc5bc98e	-0.013414754
129	0x3ba0d976	0.004908736
130	0xbc50240d	-0.012703908
131	0x3c406845	0.01174361
132	0xbc1c9dd4	-0.0095591135
133	0xba71edfc	-0.0009228883
134	0xbc913fc0	-0.017730594
135	0xb9f8cd61	-0.00047455265
136	0x3b37823e	0.0028001214
137	0xbba7a9bb	-0.005116669
138	0xbb0c518d	-0.0021410913
139	0xbbedc3ef	-0.007256023
140	0xbb194117	-0.0023384744
141	0x3c6d6996	0.014490506
142	0xbc04ff06	-0.008117443
143	0xbc015d76	-0.007895818
144	0xbb8518fb	-0.004061816
145	0xba823472	-0.0009933843
146	0x3ae623bf	0.0017558261
147	0xbc98bd4d	-0.018644953
148	0x3c0a3c06	0.008437162
149	0x3c5ee12e	0.013603492
150	0xbaa98db8	-0.0012935912
151	0x3a7389da	0.0009290256
152	0xbc9ac545	-0.018892894
153	0x3c511cf6	0.0127632525
154	0xbb73f8c6	-0.0037227138
155	0x3b7d00f8	0.0038605314
156	0xbbe3d7de	-0.0069532236
157	0xbca01d91	-0.019545348
158	0xbb0498dc	-0.0020232713
159	0x3c240a45	0.010012214
160	0xbc9e6445	-0.019334922
161	0x3c95b133	0.018272972
162	0x3c936221	0.017991127
163	0x3c3fe4cd	0.011712265
164	0xbc93e0ca	-0.018051524
165	0xbc496fb5	-0.012294699
166	0x3c8934c9	0.016748803
167	0x3c43bc4c	0.011946749
168	0x3a92df63	0.001120549
169	0x3c0794b1	0.008275197
170	0x3c54bb9d	0.012984184
171	0x3c6c2d4a	0.014415095
172	0xbca09810	-0.019603759
173	0xbbba1565	-0.00567882
174	0xbcbbc083	-0.022918945
175	0xbb81c389	-0.003960077
176	0x3a5beda3	0.00083895976
177	0xbc39432f	-0.011307522
178	0xbc97e77a	-0.018542994
179	0xbba3e73f	-0.005001932
180	0xbc69c26d	-0.014267546
181	0x3be53539	0.00699487
182	0x3b6868cc	0.0035462854
183	0x3c7b55be	0.015340267
184	0xbbd20faa	-0.0064105587
185	0x396ec14e	0.0002276946
186	0x3b9f16f6	0.004855032
187	0x3c569b9b	0.013098623
188	0x3c493509	0.012280711
189	0xbb6e0569	-0.0036319143
190	0x3b8d927a	0.00432044
191	0x3c927ed0	0.017882735
192	0x3c9139ff	0.01772785
193	0x3c37e262	0.011223407
194	0xbb6c39ac	-0.0036045117
195	0x3b0d3213	0.002154474
196	0x3c2acba7	0.010424531
197	0xbc895cd7	-0.016767902
198	0x3ae8f7ae	0.001777401
199	0x3bd9fb40	0.006652266
200	0x3c5125ef	0.012765392
201	0xbc41684c	-0.0118046515
202	0x3c8f52d4	0.01749555
203	0x3b1f8723	0.0024342022
204	0xbc8814a9	-0.016611414
205	0x3c2997d7	0.010351143
206	0x3ca44686	0.02005316
207	0x3bd35d9d	0.0064503686
208	0xbbabd0c5	-0.005243393
209	0x3c328c0a	0.010897646
210	0xbd076a85	-0.03306057
211	0x3c506e04	0.012721542
212	0xbc76d052	-0.015064316
213	0xbb27706c	-0.0025549186
214	0x3c2ecaa7	0.010668433
215	0x3ca9533d	0.020669574
216	0x3be7f8eb	0.007079234
217	0xbc4ce339	-0.012505346
218	0xbbb542b5	-0.0055316337
219	0xbc587b50	-0.013212994
220	0xbb3acfd1	-0.0028505216
221	0x3ad4ab2b	0.0016225328
222	0xbb4a9c77	-0.0030916014
223	0xbcbfb8fc	-0.023403637
224	0xbb4780c0	-0.0030441731
225	0xbca265ba	-0.019823898
226	0x3c8a7d87	0.01690556
227	0xbc910ff3	-0.0177078
228	0xbb1efc10	-0.0024259128
229	0x3a52b287	0.0008037467
230	0x3b9af6bd	0.0047291205
231	0x3cc6de94	0.024276055
232	0x3c5c5754	0.013448555
233	0x3c0f5f56	0.008750757
234	0xbc2b3744	-0.010450188
235	0xbc8ad15d	-0.016945535
236	0xbc90a7f9	-0.01765822
237	0x3c0d2b49	0.008616277
238	0x3cb2d3f5	0.021829585
239	0x3c1505c3	0.009095612
240	0x3cba9a4b	0.02277865
241	0x3c7dafe5	0.015483831
